projects/continuous_ctrl/success_A/checkpointa_100.pt (torch_old, 470145 bytes, 6 tensors)

fc1.weight f4 [400, 33]
00000000: 8480 39be f503 e93d accd d53c 643e ea3d
00000010: 2f43 0a3e a559 94be 05c1 ecbd d92e 603d
00000020: d5b7 103e 0cb3 54be 66b5 463e 0643 03be
00000030: 8d4f b73d 4044 cb3d becd b43c 2402 adbe
00000040: c89b 9c3d ccbd 1c3b 5d7c eabe 9adc 05bf
00000050: 6aa1 52be 5b5a 2f3d bc14 413e f754 273d
00000060: ac53 cd3d 9db0 c13e 6741 08be 46cc 363f
00000070: 1593 703e 087d 1abd d0e9 31bf b174 1a3d
00000080: 0eee 76bf 5c1c 5bbe 5012 b83d 568c 08bf
00000090: edd0 fe3e f5b3 76be 7046 28bf 0282 36be
000000a0: d335 1fbe ad5a 56be 2a09 3dbe e15a 99bd
000000b0: 8af3 093e 2615 c93d 2785 51be e9c3 b83e
000000c0: ec08 d23e 9827 663e 08ee e0bd 7902 133e
000000d0: f8cb 87be f791 c8be 93aa c6bd c5a8 38bc
000000e0: 43ed 033e ac13 c5bd 1730 923e 54a7 ccbd
000000f0: 9aa1 2e3f b232 eabe f0f0 fdbb ce2e 36bf
00000100: 6bbb 063d b417 31bf 977b 7a3d b95f 0abe
00000110: efdf 87bd 9b0b 8bbe 1caf 473d 198e c0be
00000120: f2bb af3c 873f 89be 4b8d 373f 3718 0a3d
00000130: 38da c83b ce02 913d 4dc9 e33c f641 5cbe
00000140: 694b c43e a456 243f 1bf7 d23c 86ae 4c3e
00000150: 165d 93be 3d63 44be e752 e3bd 32fd 53bd
00000160: 379b ae3c f889 403e 7537 c83d 3ae1 a43e
00000170: 1adf 9c3e cbdb 443f 9d68 45be 23d2 12bd
00000180: 0711 4cbf 80a6 943b 50d0 943f 2c78 8bbe
00000190: 7949 da3e 529e b7bd 132c b53e e5c3 943d
000001a0: e495 4d3e 4a00 e13e d83f 173e 0fa8 f63e
000001b0: 8f8d da3e c95c 173e 5826 97bd 8b19 83bd
000001c0: 47f0 f9bd ed79 ca3e 86eb d23e 71d4 e53e
000001d0: 1a42 283e 04a5 56bd b438 a83e 625e bcbe
000001e0: fda2 793d 2268 943e 4dfe bf3d 7517 873e
000001f0: 8bc2 173d 08d4 fe3d 7cbf f33e 5c48 903d
00000200: 1dea 13bd 5c03 0cbf f960 1f3d 5d36 96bf
00000210: fdb9 b03e 037e d63d 1c47 0c3f 7ba0 2abe
00000220: abbf edbd d8ef 0d3f 5857 9ebe b3b3 0fbe
00000230: b753 9b3e b9ea f33d 249e 4e3b 91c2 97be
00000240: 4355 c8bc 5062 1d3c 26da 0f3f 65ad 74bd
00000250: 44b5 42be 6550 2e3f 0a6d e63e 9574 e53e
00000260: 4661 8dbd 71e8 17bb 1db7 a83d 00d1 993d
00000270: d504 dcbc f061 39bc 31c2 0c3e e45c 133f
00000280: 7719 973e 6275 33bd 2d98 02bf 327a 06bd
00000290: 5170 173f 230a 393e f3dc 763e 12ef 7abd
000002a0: d9e2 1c3e e18d 903d cf9e b4be 6935 243f
000002b0: 6054 df3d 02c4 70be cb78 0a3f 37c0 a83e
000002c0: 3faf 523d c6c3 7f3c 7f22 413e 8ca5 0fbe
000002d0: c950 b8bb de35 7cbe 9c33 ab3e 8fe3 82be
000002e0: 1b01 f0bd 9076 7fbe 09d3 523e 9786 82be
000002f0: bc95 173e 78a9 3d3e c06b 3fbe c955 00be
00000300: 5f64 303f fe4a 903e d29d ac3c 86de 24bf
00000310: 6c32 8cbc c056 22bf 386a 87bd 07fc 643e
00000320: 0f69 34be 2be5 0bbf aa81 4abe 1e9f 3fbe
00000330: a3a9 833e ad7f e5bd d31a 36bd 4a66 b13d
00000340: 69b5 ffbd f3ec 91be 55c5 22bd 5282 183f
00000350: 574f ea3e 475a 03bf 41be b1bd 5894 0dbd
00000360: 715b a4bd 8245 a53d 4d73 6e3e b59d cc3c
00000370: e56e 663d 842d 483e e27f f83c 9c3c 76be
00000380: 5f8a e6be a704 123f cf52 d23d 608a faba
00000390: 4132 15bf 961d 883c 557b 8b3e bf42 9bbd
000003a0: 20e3 263f 9ebd 71bc 4c14 313e dce1 253d
000003b0: 9158 613e 9553 183d a2cf d8be d7a3 13bd
000003c0: caf5 483e bc77 aabd 06ed 38be 8b11 de3d
000003d0: 5881 133e 587a f03d dd3f b23d 7131 743c
000003e0: 5f10 c23a 1f25 9bbe 0db2 a0bd db07 733e
000003f0: b271 b8be df8a 9f3e 31ac a03d 70fd 093e
-0.18115431 0.11377708 0.026099049 0.11437681 0.13502191 -0.28974643 -0.11560253 0.054732177
0.14132626 -0.20771426 0.19405136 -0.12818536 0.0895072 0.09925127 0.022070762 -0.33790696
0.076469004 0.0023916839 -0.45798007 -0.52289736 -0.20569387 0.04281078 0.18855566 0.040852513
0.10025725 0.37830058 -0.13306199 0.71405447 0.23493607 -0.037716895 -0.69497395 0.03770894
-0.9645699 -0.21397537 0.08987868 -0.53339136 0.49768773 -0.24092086 -0.6573248 -0.17823032
-0.15547876 -0.20933028 -0.18460527 -0.07488037 0.13471809 0.09818487 -0.2046095 0.36086968
0.41022432 0.22476041 -0.10982901 0.14356412 -0.26522803 -0.39173862 -0.09700503 -0.011270707
0.12883477 -0.09622893 0.28552315 -0.09992853 0.68215334 -0.45741802 -0.0077496693 -0.7116517
0.03289358 -0.69176793 0.06115302 -0.13513078 -0.06634509 -0.27157292 0.04875098 -0.37608412
0.021451924 -0.2680628 0.7169997 0.0337145 0.0061295293 0.07080613 0.027805949 -0.21509537
0.38338783 0.64194703 0.025752595 0.1998845 -0.28781956 -0.19178481 -0.11099797 -0.051755138
0.021314247 0.18802631 0.097762026 0.32203084 0.30638963 0.7689788 -0.19278188 -0.035844933
-0.7971348 0.00453645 1.1626072 -0.2724012 0.4263418 -0.08965744 0.35385188 0.072639264
0.2007671 0.43945533 0.14770448 0.48175094 0.42686126 0.14781488 -0.0738036 -0.06401356
-0.122040324 0.39546147 0.41195315 0.44888642 0.16431466 -0.052403465 0.3285576 -0.36790758
0.060946453 0.28985697 0.09374676 0.26385084 0.037050765 0.124427855 0.47607028 0.070450515
-0.03611194 -0.54692626 0.03891084 -1.173534 0.34516898 0.104732536 0.54796004 -0.16662781
-0.116088234 0.554441 -0.30926013 -0.14033394 0.30337307 0.11910004 0.0031527365 -0.2964063
-0.024454718 0.009605959 0.56192243 -0.059735674 -0.1901446 0.6809142 0.45005065 0.44815508
-0.06903319 -0.0023179317 0.08238051 0.07510567 -0.026857773 -0.011314854 0.13745953 0.57563615
0.29511616 -0.043813117 -0.5101345 -0.03283138 0.59155756 0.18070273 0.24107723 -0.06126315
0.1532091 0.07058311 -0.3527741 0.64144 0.10904765 -0.23512271 0.54090565 0.32959148
0.05143666 0.015610641 0.18860815 -0.14027995 -0.0056248647 -0.24629924 0.33437812 -0.25564238
-0.11718961 -0.24947572 0.20588316 -0.2549331 0.14803213 0.18521678 -0.18693447 -0.12532724
0.68903154 0.28182214 0.021071348 -0.64402044 -0.017113887 -0.6341362 -0.066120565 0.22361766
-0.17618202 -0.5464656 -0.19776025 -0.18713042 0.2571536 -0.11205993 -0.044459175 0.08662088
-0.12485773 -0.2850109 -0.03973897 0.59573853 0.45763656 -0.5130963 -0.08678866 -0.0345653
-0.080252536 0.08069898 0.23286171 0.024977544 0.0562581 0.19548613 0.030334417 -0.24046558
-0.45027444 0.5703835 0.10269701 -0.0019114725 -0.58279806 0.01661567 0.27242532 -0.0758109
0.65190315 -0.014754681 0.17292899 0.0404986 0.22006442 0.037189085 -0.4234591 -0.03604492
0.19625011 -0.08323619 -0.18059167 0.1084319 0.1440481 0.11742085 0.08703587 0.014904366
0.0014805904 -0.3030176 -0.078464605 0.23733465 -0.36024243 0.31160638 0.07845343 0.13475585

fc1.bias f4 [400]
00000000: 3d9b 50bf 3cdc 49bf 8b84 1dbf d03a f3be
00000010: 78d3 32bf 40f3 55bf bf68 36bf 2c2f 2cbf
00000020: 2f23 3abf 9bc0 15bf 8382 d0be 92f2 0abf
00000030: a318 95be 07a9 b4be 0d4f 34bf afcf 7bbf
00000040: 566d 12bf dc69 42bf 7aed 7fbf f300 3abf
00000050: 6a7e 5dbf e3d6 43bf 361f 17bf d49f 61bf
00000060: d027 02bf 06ee 4ebf c052 4bbf 206b c0be
00000070: c79b 64be 8bd1 30bf a515 4abf 806d 1cbf
00000080: 427a ecbe b63f 4dbf 8bb7 3dbf cc14 e2be
00000090: 2da4 3bbf 3127 1abf 7412 f0be 9df1 5ebf
000000a0: 60d7 0fbf 6772 12bf a913 0bbf c009 4cbf
000000b0: 6b6f b6be 0250 3bbf d421 a2be 4958 90be
000000c0: fd6d 1fbf 4138 21bf c231 06bf ade6 34bf
000000d0: a6c3 62bf 49d9 81bd 9f3f 6fbf 30fd 2fbf
000000e0: f4a3 dfbe 35e0 c7bd 78ee 81be d626 b9be
000000f0: 3e67 79bf 4586 59bf 3d51 79bd c6c6 20bf
00000100: f628 74bf 9ba7 22bf 6055 aabe f80b 34bf
00000110: a49a 2dbf c81f 07bf f7bc dcbe c03c 42bf
00000120: 5c07 1cbf 2122 70bf 8123 1fbf 20f4 03bf
00000130: b389 28bf 4cd5 28bf f3bf bdbe 0a53 47bf
00000140: 3126 03bf 51f7 ffbe 6fc4 a0be 3a38 21bf
00000150: e756 04bf dc0f fbbe bdbc 07be cd18 26bf
00000160: c431 88be 2238 42bf 17db 39bf eb6a f0be
00000170: d607 a0be df26 17bf 63d8 ebbe 31e8 2ebf
00000180: 4485 29bf 5d31 c5be 8590 12bf c0a6 19bf
00000190: d1ad 34bf 2860 07bf 9bf3 0bbf 6f42 b8be
000001a0: 22cb 91bf dfc3 65be f328 fcbe 973b cbbe
000001b0: 7c62 3dbf 8acc 34bf d58e 98be cc84 f9be
000001c0: 84fe eebe c970 40bf bf3a 1dbf 72eb 01bf
000001d0: dc21 39be b835 4fbf 95c3 6bbf 5e4d 19bf
000001e0: a06c bcbe 4131 46bf 656f a9be 62af a9be
000001f0: 7385 42bf 3c14 02bf e841 edbe 7041 24bf
00000200: c32f 14bf ea74 18bf 94cb 30bf 0066 c2be
00000210: 0049 38bf 1c3f 07bf d932 d5be 4eae 0cbf
00000220: ee5d 55bf 826c 5abf 7393 b8bd 9c2e 71be
00000230: 024a 17bf 8eeb 5abf a302 82bf ba0f a7be
00000240: b852 1cbf d74a 3bbf 652e 2bbf 6227 3cbf
00000250: cfb9 5bbf fb39 41bf fb4b e4be 39cc a2be
00000260: 78b7 38bf 9b33 38bf b6a8 37bf a45f 44bf
00000270: 3975 8bbe 8c8c 16bf ff9f 01bf aebe 0cbf
00000280: ca14 44bf 0b34 94be b5e3 0bbf 0362 65bf
00000290: 842b bfbd 4e7c 82bf 6d87 3bbf 28eb 00bf
000002a0: 20f1 c3be e48a 44bf 62f3 83be a1d0 4fbf
000002b0: 0369 fcbe 2550 12bf a26d 26bf 64a9 0dbf
000002c0: 1320 3dbf 7726 8abf d6d6 c6be f29c f8be
000002d0: 9807 27bf 33a8 40bf dc86 f7be 914a 42bf
000002e0: 892c 76bf 9b1f 5bbf 7c7e 65bf aa6e 25bf
000002f0: 63a2 10bf fd85 a9be e3bc 18bf bfbc ebbe
00000300: 4ccc 86bf bb63 83be 48ef e8be a266 1fbf
00000310: 1e88 f1be 61b8 45bf 8cc1 9abe d43a 1ebf
00000320: 1376 17bf dc9c 63bf 9997 e9be 1489 e3be
00000330: 663c 02bf 05df c2be f20f 35bf 78ec a2be
00000340: 1a4a 8abe 8ea4 10be 76c7 28bf 5f8f 0dbf
00000350: 1b1d 29bf 818d d1be 0634 66be ab47 62bf
00000360: 9eb0 64bf 3f30 33bf 106d 75bf e3a1 edbe
00000370: 2174 0dbf d2c3 e8be 2b62 05bf 8eef 4abf
00000380: a23e 18bf 163f 04bf b6ed 9fbe eadb 0abf
00000390: 8724 0bbf a29d 12bf 02b4 13bf 271a 38bf
000003a0: d14d 2fbf 65f3 55bf fcc3 47bf 99ac 11bf
000003b0: 48b6 7cbe 7bc1 68bf ae4e 06bf 771b e0be
000003c0: e8b6 25bf 0489 29bf 5f8e a2be 1308 04bf
000003d0: aa56 32bf 00dc 1dbf 931e c5be c7cd 07bf
000003e0: 18eb 10bf 1647 3dbf 1ec2 0ebf a8cb 51bf
000003f0: b6c2 47bf 37bf 6bbf 10f2 eabe e35f ddbe
-0.81486875 -0.78851676 -0.6153037 -0.47505808 -0.69853926 -0.83574295 -0.7125358 -0.6725948
-0.72709936 -0.5849702 -0.40724573 -0.5427638 -0.2912036 -0.35285208 -0.7043312 -0.98363775
-0.57198083 -0.7594278 -0.99971735 -0.726577 -0.8652102 -0.76499766 -0.59032 -0.88134503
-0.50842 -0.80831945 -0.7942314 -0.3758173 -0.2232505 -0.6906974 -0.78939277 -0.61104584
-0.46187025 -0.8017534 -0.7410819 -0.44156492 -0.7329739 -0.6021605 -0.4688908 -0.8708742
-0.5618801 -0.57205814 -0.54326874 -0.7970238 -0.3563188 -0.7316896 -0.31666434 -0.28192356
-0.62277204 -0.6297646 -0.52419674 -0.70664483 -0.88579786 -0.06340272 -0.93456453 -0.6874571
-0.43679774 -0.09759561 -0.2537725 -0.36162442 -0.9742316 -0.84970504 -0.06086849 -0.62803304
-0.95375 -0.63536996 -0.3326826 -0.7033076 -0.6781409 -0.5278287 -0.4311292 -0.7587395
-0.6094873 -0.93802077 -0.6216355 -0.5154438 -0.6583511 -0.65950465 -0.37060508 -0.7786108
-0.5123015 -0.49993375 -0.31399867 -0.6297642 -0.516951 -0.49035537 -0.13255592 -0.64881593
-0.26600468 -0.758669 -0.7259993 -0.46956572 -0.31255978 -0.5904369 -0.46063527 -0.68323046
-0.6621897 -0.38514224 -0.5725177 -0.60020065 -0.7057772 -0.528811 -0.5466859 -0.35988185
-1.1390116 -0.22438 -0.49249992 -0.396939 -0.739784 -0.706246 -0.29796472 -0.48734128
-0.46678555 -0.75172096 -0.61417764 -0.50749886 -0.18079323 -0.80941343 -0.9209531 -0.5988368
-0.36801624 -0.77418905 -0.330928 -0.3314162 -0.7598488 -0.50812125 -0.46339345 -0.6416235
-0.5788538 -0.59553397 -0.69060636 -0.37968445 -0.7198639 -0.5283067 -0.41640356 -0.5495347
-0.8334645 -0.8532182 -0.09012499 -0.23552936 -0.590973 -0.8551568 -1.0157055 -0.32629186
-0.6106372 -0.7316107 -0.6686767 -0.73497593 -0.85830396 -0.75479096 -0.44589218 -0.31796435
-0.7215495 -0.71953744 -0.7174181 -0.76708436 -0.2723787 -0.5880821 -0.5063476 -0.54978454
-0.7659422 -0.28945956 -0.5464433 -0.8960268 -0.09334472 -1.0194185 -0.7325352 -0.5035882
-0.382699 -0.7677443 -0.25771624 -0.8117772 -0.49298868 -0.5715354 -0.65011036 -0.55336595
-0.73877066 -1.0792989 -0.38835782 -0.4855724 -0.6524596 -0.7525665 -0.48345077 -0.7589503
-0.96161705 -0.855951 -0.89646125 -0.64621985 -0.5649778 -0.33110037 -0.5966322 -0.4604244
-1.0531096 -0.25662026 -0.45495057 -0.6226598 -0.47174162 -0.77234465 -0.3022579 -0.61808515
-0.5916454 -0.88911223 -0.45623472 -0.4444052 -0.5087341 -0.38060775 -0.70727456 -0.31821036
-0.2700966 -0.14125273 -0.65929353 -0.5529689 -0.66060036 -0.4092827 -0.22480783 -0.88390607
-0.89331996 -0.6999549 -0.9586954 -0.46412572 -0.55255324 -0.454619 -0.5210292 -0.7927178
-0.5947057 -0.5165876 -0.31236047 -0.5424181 -0.5435261 -0.5727178 -0.57696545 -0.71914905
-0.68478113 -0.83574516 -0.78033423 -0.5690399 -0.2467891 -0.9092023 -0.52463806 -0.43770954
-0.6473222 -0.66224694 -0.31749246 -0.5157482 -0.6966349 -0.6166382 -0.3849989 -0.53048366
-0.56608725 -0.73936594 -0.5576495 -0.8195138 -0.7803148 -0.92088646 -0.45887804 -0.43237218

fc2.weight f4 [256, 400]
00000000: de89 51bd 80e0 0abe 0d49 c3be 0434 a6be
00000010: 82c8 113e 0f4a 11bc 5a9b 003e f2ce 06bf
00000020: 3ad4 f5bd 5a87 a93e b319 37bf 3c56 a7be
00000030: 3747 f7be b4bd c1be c735 debe 81bf 383e
00000040: a86b 36bd ff76 453d bc66 8ebe 5702 2abe
00000050: dd1a 843c 314d d63e 53ee 993e 6863 b1bd
00000060: be32 afbe 73ec 533e ffdc 743e 6cc5 633d
00000070: dbe5 c4be 5c92 0b3e d9b7 3fbe fad3 0dbe
00000080: 7ee3 de3d a65b 063f edea 27be cc87 a63d
00000090: 8aa9 38bd c0bc 723e ef11 7dbe cb01 2e3f
000000a0: b79a 53be dc5b 4ebe fdca 9f3e 2b4e cf3b
000000b0: 9629 9abd 1a0e ee3d c51a 75bf 9b37 21be
000000c0: 4353 3fbd ceab a3be 1cea abbe cbd2 27bc
000000d0: 365a f83e 5014 71bd 80ba 88bd d9a7 bfbd
000000e0: 1489 2bbf ffb8 8dbe ecb2 cb3d d304 2abe
000000f0: 62f8 efbc 4c66 c23d b192 09bf 354d 02bf
00000100: 8251 9c3c 879f 503e 35af 84be d66e 64be
00000110: f3d4 9d3e 9eef d03e 1925 ccbe 8387 ab3d
00000120: 42ab 8abe 76ad 183d cca3 a53e 7ca3 26bd
00000130: b1be a5bd cbf3 90be ed9e 28be 4821 fd3c
00000140: 1457 d6bd 6960 9a3d f21a bcbd 2ae8 8d3e
00000150: 5d37 bdbe 188e e0be da82 87bd 79ff af3c
00000160: 289a 96bb 52c8 b3be 1116 9dbe 3780 65bd
00000170: d46f f6be d7d4 bbbe 48ee 293e 0b99 883d
00000180: e2e3 94be d167 9b3d 2817 443e 377b 6cbe
00000190: c2c3 a3be 0b12 5cbd 741f 28be ac7a ca3e
000001a0: 1842 3f3f 4f23 02bf 97c2 ea3d 85df d9bc
000001b0: e4b0 dabe bb91 8c3d 1119 bcbd 0f4a 16bd
000001c0: ee9e d4bd 02bd e6be 03b5 1f3d 3218 00bc
000001d0: c889 013d 509b 07be 13f5 e0bd c3dc 7b3d
000001e0: 9571 6bbd f216 143d bf14 09bf 0858 12be
000001f0: d0a5 893e ebfc b03e c8c4 193d 7e0c 3d3e
00000200: b5d8 53be c06d 10bd 810b 03be 7bf0 47be
00000210: b701 e5bd c5e9 b43e 4461 febe 3e7f 72bc
00000220: efe5 093d 55a8 c63e de71 24bf 41c5 1dbc
00000230: fbd9 cd3d 4864 3c3e 9baf b13e 8eaa 0a3e
00000240: 265a 05bd 65c0 933e 15b0 81bd f358 65be
00000250: 5a94 b03e c3a6 563e 9353 923e 6cd6 a4be
00000260: c6f8 5b3e a96d 873e ad7b 4fbd 2350 c63d
00000270: 42f4 7d3e 7bd5 ad3c d3da 95bc 5ffc 10bf
00000280: d3e6 42be dc2e 723c 52a7 ecbe c67b bf3e
00000290: dc40 263e d422 143f ab0f 9c3d 0390 323e
000002a0: 6e31 49be 2e2c 9b3c d5a3 013e db8a 1d3e
000002b0: 9855 19be 78db e13e c5ad f1be 5ae6 35be
000002c0: e8ee e9bb ad86 253e 8663 11be edc2 41be
000002d0: da30 eb3d aa46 5fbe 52ad d13d 2fba 413e
000002e0: 3f22 4b3e 48d3 02be 031a 603d b746 14be
000002f0: cba4 cfbd f1cc c9bd cf4d 01be d620 283e
00000300: f0dd 353e 7f09 94be 4093 3a3d 99ef c7be
00000310: 2301 50be 86da 34bc 33b0 6ebe fb0a 9ebe
00000320: 12e7 10bf 68a3 f83e edf1 9bbe ae56 d1be
00000330: 0de1 38bf f5fa 503e 6751 4e3e 2901 25bf
00000340: dc8a e2bd c61a 073f 33e3 9ebe 0135 51be
00000350: e53f 29be a252 10bf 3a6c b13d 7e9d 66be
00000360: 71f0 a63e 4496 7cbe f55d 6b3d 2f14 0dbe
00000370: c48f 86be 020f f13e a244 203c 5f40 3b3d
00000380: 4802 fe3d 5e1c 793e 3dbb 463c cdca 0ebe
00000390: f3af 83be f428 71be 6d5d 0fbe dd8f b6bc
000003a0: e8ad 3a3e 38df 40be 8245 1dbe 7a38 f6be
000003b0: 6d2d 61be 5e2a f0bd 46da 2d3e fa49 853d
000003c0: 473f 95be 74f8 97be a14f 3e3d bdb9 4dbe
000003d0: 27cf 533e 0276 e03c a532 d6bd 7dc9 60be
000003e0: 9b04 44bc 7843 7d3e b9df f1be 66f7 2d3d
000003f0: a1a5 7ebe ec8e 28be bb11 04bf 071b 013e
-0.05115687 -0.13562202 -0.3814167 -0.3246156 0.14236644 -0.008867755 0.12559262 -0.52659523
-0.1200337 0.33111078 -0.7152359 -0.3268298 -0.4829652 -0.37840044 -0.43400404 0.18041803
-0.044536263 0.048209187 -0.27812755 -0.16602455 0.01612609 0.41855767 0.3006464 -0.08661538
-0.342184 0.20695667 0.23912428 0.055608198 -0.38456616 0.1363005 -0.18722476 -0.13850394
0.108832344 0.52483594 -0.16398211 0.0813137 -0.04508356 0.23704815 -0.24713872 0.67971486
-0.20664488 -0.20152229 0.31209555 0.006326457 -0.07527463 0.116237834 -0.9574397 -0.15743868
-0.046710264 -0.31967014 -0.3357705 -0.010243128 0.48506325 -0.058857262 -0.06676197 -0.09358186
-0.6700604 -0.27680203 0.09946236 -0.16603403 -0.029293243 0.09492168 -0.5373946 -0.5089906
0.019081835 0.20373355 -0.25914922 -0.22307906 0.3082653 0.40807813 -0.39872053 0.08375456
-0.27083784 0.0372748 0.3235153 -0.040683255 -0.08093012 -0.28311 -0.16466875 0.030899659
-0.104658276 0.0753792 -0.09184827 0.2771619 -0.369563 -0.4385841 -0.06616755 0.021484124
-0.0045960136 -0.3511377 -0.30680898 -0.05603048 -0.48132193 -0.3668582 0.16594803 0.06669816
-0.2908011 0.07588161 0.19149458 -0.23093878 -0.3198529 -0.053728145 -0.16418248 0.39546716
0.74710226 -0.50835127 0.11462896 -0.02659584 -0.42713082 0.068637334 -0.091844685 -0.03669172
-0.10381876 -0.45066077 0.038990986 -0.007818269 0.03162554 -0.13242841 -0.10984244 0.06148983
-0.057481367 0.036154695 -0.5354728 -0.14291394 0.26884317 0.3456796 0.03754118 0.18461797
-0.20688136 -0.035260916 -0.12797357 -0.1952533 -0.11181968 0.35334602 -0.49683583 -0.014800845
0.033666547 0.38800302 -0.6423625 -0.0096295485 0.10051342 0.1839763 0.3470429 0.13541624
-0.032556675 0.28857723 -0.06332413 -0.22397213 0.34488183 0.20962052 0.28579387 -0.3219484
0.21481618 0.26450852 -0.050655056 0.096832536 0.24800208 0.02121996 -0.01829282 -0.5663509
-0.19033365 0.01478168 -0.46221405 0.3739912 0.1623568 0.57865644 0.07620176 0.17437749
-0.19647762 0.018941965 0.12660153 0.15385 -0.14974058 0.44112754 -0.47202888 -0.17763653
-0.0071390755 0.16164656 -0.14198121 -0.18922015 0.11483927 -0.218043 0.10238136 0.1891868
0.19837283 -0.1277591 0.054712307 -0.144801 -0.10138854 -0.098535426 -0.12627338 0.16418776
0.17760444 -0.28913495 0.045550585 -0.39049986 -0.20312934 -0.011038428 -0.23309402 -0.30867752
-0.56602585 0.4856217 -0.30458012 -0.40886444 -0.722184 0.20408233 0.2014824 -0.64454895
-0.110616416 0.5277523 -0.31032714 -0.20430376 -0.1652828 -0.5637609 0.08663221 -0.22521016
0.32605317 -0.24666697 0.05746265 -0.1377723 -0.2628156 0.47081763 0.009781988 0.045715686
0.12402779 0.24327227 0.012129602 -0.1394455 -0.25720176 -0.23550779 -0.14000483 -0.022285396
0.18230402 -0.18835151 -0.15358546 -0.48089963 -0.21989985 -0.11726831 0.16977796 0.065082505
-0.2914984 -0.29681742 0.04646266 -0.20090385 0.20684491 0.02740002 -0.104588784 -0.21951862
-0.011963989 0.24732769 -0.47241 0.042472266 -0.2486787 -0.1646077 -0.51589555 0.12607966

fc2.bias f4 [256]
00000000: 53ae 07bf a7fb cabe 4dab fcbd 2a4c d5bd
00000010: 0ce3 bbbd 5f09 84bd bd66 54bd 8751 48be
00000020: c513 293d 99bb 4dbd 96bf ddb9 619d 633d
00000030: abf3 a2be e6f6 00bf 1da2 83be 3e55 55bd
00000040: c0ca 98be 1cdc acbe e300 00be b527 89bd
00000050: 0c4d 39be e394 84bd 46b2 eb3c 21c7 82bd
00000060: 38a5 1bbd 7fc3 4abe b1c5 acbe 3e6e 0ebc
00000070: da7f 973c c2f4 44bd 3862 15bd a8b9 debc
00000080: 2cff 29be e5ff a43d bafc a4bd 0d8c fcbd
00000090: b298 c5be 046c 29bd b89e b1be 99b2 ccbd
000000a0: ef17 8fbd cb7d c3be 2a0c 0fbe 9abf 02be
000000b0: eaaf 953d a919 eabd 8f97 fcbd 2475 1ebd
000000c0: 8958 4fbd 0b70 d0bd 1f63 2ebe d92c e3bc
000000d0: 09fa 433e 0cf5 95bd 6b04 cebc 71b8 1dbe
000000e0: d8fe 5bbd 27db 32be 6c70 8abe 7ea5 31bf
000000f0: a016 fb3c c8dd 89be 12db 21be abaf 78bd
00000100: 3e10 37be 0870 81bd ea77 fbbb 1161 a5bd
00000110: 648e 6bbd 6328 1dbe c0ab eeba 8f58 38bd
00000120: f06d fabe c683 5bbe 3c78 7b3d dcf1 f9bd
00000130: 91ae 93be 1008 ccbd 42b8 0dbf f6fc 963d
00000140: 5cd0 5c3d 2e25 2abe f753 b2be b40b 13bf
00000150: ff1b a83b bc56 34be 82ee f7bc 46ec 65be
00000160: c79a 7abe beb4 e0be dc92 91bd 22a6 cebe
00000170: 57e7 efbd 4f5e 32bd 3785 9cbd 1415 d9bd
00000180: 1f02 f8bc cdac bcbd b554 21bf 2587 1cbe
00000190: 3fac 01be dc27 8dbd 0075 7dbd 2863 39be
000001a0: 1863 1abe 62be c9bc f314 63be 9837 5cbe
000001b0: 67b6 aebd 9de6 d9bd c12c 4abd 41f4 20be
000001c0: 6001 80bd af7e 96bd 733f e03b c4d0 96bd
000001d0: 5f0a 5abd 667f 34be af12 89bd 8eb1 703d
000001e0: f627 4abd 144c f5bd c844 2e3e 3bda 88bd
000001f0: 994e d1bd d0a0 d3bd b0d4 67be 8aab 97be
00000200: 7f5d a0bc dc36 b5bd 8bdd 9cbc 1d47 1bbe
00000210: 1f60 7cbd c511 41be c2d6 1f3c 7e1a ecbc
00000220: 980f 7dbd 9c06 933a c41c 2fbd ead1 71bd
00000230: fdb2 29bd e48f e7bd 5857 c1ba f73d eabd
00000240: bdc8 4ebe ab97 3cbe db3c 17be 97b3 40bd
00000250: c423 0dbe 0b9b fbbd ead6 1bbd c321 eabd
00000260: 15cb b8bd f975 23bf 2cf1 33bf 011f cbbc
00000270: 3630 55be d63f 06be d629 9cbd 7fa4 a5be
00000280: a73f 13bf 3153 0bbd aa7c 09bd f7e5 8dbe
00000290: 84e0 c33b ba1a c0be 183f 6abd b99b b83e
000002a0: cce2 b3bd 914b 11be d694 3abd 0e67 103e
000002b0: 63c8 98be 4136 21bd c6ed 0fbf 6778 843d
000002c0: 7e3a 8abe acd0 39bf eefd 24be 33b7 c5bd
000002d0: 80e5 3fbd c9d7 43bd 93f9 c6bd 7670 b0bd
000002e0: b6b6 aabc 35b1 5ebe 52e3 55be 2206 61be
000002f0: 74fe d2bd d874 87bc 7f7c f43d 7993 eabe
00000300: f34d 9dbd c697 b4be dcf5 0fbe a038 76bd
00000310: d272 88be 17bc 49bd aadf 23be c3b2 45be
00000320: 9e91 55be aa00 82bd ac80 00be b1cd 103c
00000330: 3ff4 cabd 8edd 4fbe 0ba6 3abd a72e acbe
00000340: b51e 18be 9418 b3bc cabd 14be 898d b3bd
00000350: c1a7 8bbd 7e57 61bf 0d27 423d 5c91 95be
00000360: 3c31 d3bd 6d80 23be 23b7 f5bd d82b e3be
00000370: eacc 30be 5afe 93bd 53bb c7bd 3d90 b6bd
00000380: 5d6e f4bd 67e6 d7bc 52da 2dbf 39d1 8cbe
00000390: 5df3 afbd 4326 8abe f4f2 40bd ba4b 47be
000003a0: 37d9 73bd e27f 8d3d 8dff 3abd f75f 28be
000003b0: 4051 a9bd 2db2 2ebe 6977 8bbe b7e6 bcbd
000003c0: 15d3 cbbe ab23 d9bc c286 c5bd 09b3 1cbd
000003d0: 8a29 7e3b 0935 d4bd 6e86 d3be 45ca 66be
000003e0: dbff 6ebe c966 3fbe a8c6 4cbf 2142 723c
000003f0: 38af 62be 9bfe 0abe 7209 5fbe 41d5 6cbe
-0.5300037 -0.3964512 -0.123373605 -0.10414918 -0.09174165 -0.064471 -0.05185579 -0.1956235
0.04127862 -0.050227735 -0.00042295147 0.05557001 -0.3182653 -0.5037674 -0.2570962 -0.052083246
-0.29842186 -0.3376168 -0.12500338 -0.06697027 -0.18095797 -0.064737104 0.02877153 -0.06385637
-0.03799936 -0.19801138 -0.33744577 -0.008693276 0.018493582 -0.04808498 -0.03647062 -0.027188137
-0.16601247 0.080566205 -0.08056016 -0.123314 -0.3859306 -0.041362777 -0.34691405 -0.09995002
-0.06986987 -0.3818191 -0.13969484 -0.12768403 0.073089436 -0.114306755 -0.12333595 -0.038685933
-0.050621543 -0.101776205 -0.17029999 -0.027731346 0.1913835 -0.073221296 -0.025148591 -0.1540239
-0.053709835 -0.17466412 -0.27038896 -0.69393146 0.030650437 -0.26927018 -0.15806225 -0.060714405
-0.1787729 -0.063201964 -0.007674207 -0.080751546 -0.05750884 -0.15347438 -0.0018209144 -0.04500633
-0.48912 -0.21436986 0.06139396 -0.12204334 -0.2884412 -0.09962475 -0.5535928 0.07372467
0.053909644 -0.16615745 -0.34829685 -0.5743973 0.0051302905 -0.17611212 -0.030265097 -0.22453412
-0.24473105 -0.43887895 -0.07108089 -0.40361124 -0.117140464 -0.04354697 -0.07642596 -0.105997235
-0.030274449 -0.09212647 -0.6301988 -0.15285929 -0.12663363 -0.06892368 -0.061879158 -0.18104231
-0.15076864 -0.024626914 -0.2217596 -0.21505582 -0.08530884 -0.10639689 -0.049359087 -0.15718175
-0.06250262 -0.07348382 0.0068435012 -0.07364038 -0.053232547 -0.17626724 -0.06693017 0.05876308
-0.049354516 -0.119774014 0.17018425 -0.06682249 -0.102200694 -0.10333407 -0.22639728 -0.2962306
-0.019575832 -0.08848354 -0.019148609 -0.15163846 -0.061615106 -0.18854435 0.009755792 -0.028821226
-0.06178245 0.001121718 -0.042752042 -0.05903808 -0.041430462 -0.11306742 -0.0014750762 -0.114376
-0.20193763 -0.18417232 -0.14769308 -0.04704627 -0.13783175 -0.122854315 -0.038046755 -0.11432221
-0.0902311 -0.63851887 -0.70289874 -0.024795057 -0.20819172 -0.13110289 -0.07625167 -0.32352063
-0.57519 -0.034014884 -0.033566155 -0.27714512 0.005977692 -0.3752039 -0.057189077 0.36056307
-0.087834924 -0.14188983 -0.045552097 0.14101812 -0.29840383 -0.03935838 -0.5622219 0.064682774
-0.2699775 -0.72584033 -0.16112491 -0.09654083 -0.046849728 -0.04781321 -0.09715571 -0.086152
-0.020839076 -0.21747287 -0.20887497 -0.21974996 -0.10302439 -0.016535208 0.11937808 -0.45815638
-0.07680883 -0.35272044 -0.14058632 -0.060112596 -0.266501 -0.049251642 -0.1600329 -0.19306473
-0.2085633 -0.06347783 -0.12549084 0.008838103 -0.099098675 -0.2029936 -0.045568507 -0.33629343
-0.14855464 -0.021862306 -0.14525524 -0.0876723 -0.06819106 -0.8802413 0.047400523 -0.29212463
-0.10312125 -0.1596696 -0.11997821 -0.44369388 -0.17265669 -0.07226248 -0.09752526 -0.0891423
-0.119351126 -0.026354982 -0.67911255 -0.27503374 -0.0859134 -0.26982316 -0.0471067 -0.19462481
-0.059533324 0.06909157 -0.04565387 -0.16442858 -0.0826745 -0.17060156 -0.2723954 -0.09223693
-0.3980948 -0.026506266 -0.09644844 -0.03825668 0.0038782083 -0.10361678 -0.413135 -0.22538097
-0.23339789 -0.18691553 -0.79990625 0.014786274 -0.22137153 -0.13573687 -0.21780947 -0.23128225

fc3.weight f4 [4, 256]
00000000: c366 c0be d694 e1bd ea3a 35bc 29be b9ba
00000010: c3ce 2abe 4db8 3e3d c6ca 5b3c 05fd d33d
00000020: aede a73c d1e9 073d 2917 0bbd 9e6e 7cbc
00000030: ab58 9bbe 30a6 103e 920b 083c a0d5 4cbd
00000040: 6654 a23d 9011 18bd 8f8e 6dbc 1542 8dbe
00000050: 412a ecbd f010 7a3c 9a59 133b 610b be3d
00000060: 713c 00bd e8ab fa3b 6ddd 95bd 327a ca3d
00000070: 0c1b d33c ef9c b4bc ee81 52bc c45e 84bc
00000080: 7ec0 9bbc c5f5 273d 606c 9e3c 674b 65bc
00000090: 8ac7 8abd 555a 0fbc 3ab6 0c3e f7f4 583b
000000a0: 395a 483b fcf1 693c de63 203e 4d91 573c
000000b0: 3244 dabd 418e 02be 0d8a 023c c6c3 4b3d
000000c0: d8ab c53c 779c 99be c6cb 903e 18ac 11bc
000000d0: 8311 a1bc b4e6 123d ce69 8a3e cd06 9b3c
000000e0: d893 b8bb 8a5a 623c 2264 423e d8b9 ccbd
000000f0: 2a4e f93d f8e2 bdbd 1522 2c3c 2bbf aa3c
00000100: 42c9 dc3b 0ab7 3abb db81 19bd 52c7 b83a
00000110: 5433 9d3b 9c7f 013a f4e3 01bd 7b4b 32bb
00000120: de33 283e e4dc 00bd c020 593c 9659 10be
00000130: 90a0 c7bd f8da 45bd 61e3 90bd b088 143e
00000140: d5cd 21bd f6fd fc3d 11cb 9cbd 8022 57bd
00000150: 3084 4a3b ae61 e6bc fa3d 78bc 0f99 db3e
00000160: 0bc8 3c3e d69a d4bd 124e 4d3c 005b 3ebe
00000170: 9378 19bd cb6f ec3b 49bf 7e3c 5d3f e8ba
00000180: fafb e0bd f8b6 20bb b668 823b 1f47 4cbd
00000190: 40c5 023d 2539 b43a e347 273d a455 213e
000001a0: 63c4 17ba 56bf 9dbe 91b5 3abe 1f29 363d
000001b0: 7293 07bc f2f8 183d 3ad9 b4bb c3c3 af3c
000001c0: a6c2 2a3c eb29 2c3c 8ba5 b5bd 1db2 1b3e
000001d0: 79b7 69be e649 0bbe 2202 f83d 6f9b a8bd
000001e0: a03e d7bd 31e1 a2bc 6e87 373d 8dc1 11bb
000001f0: 4518 16bd aadb 1cbc 2e83 2f3e 4e2b 2fbd
00000200: 0b86 ef3a 7b2d 2abb 1df6 ab3d a5f2 85bc
00000210: 458e 06bc 99f8 483e ee3c 15bc 2598 19bc
00000220: a705 093c 4dd6 353e e268 96be 3f29 c6bc
00000230: 85a6 013c faf6 963c 8218 0abc 2af2 89be
00000240: 142f 14bd 346e 64bd 0518 73bc 8e70 40bd
00000250: c9bb fbbb b279 5b3d fb28 0fbd 502f c3bc
00000260: 6afb c53c 8824 343e 87ea 29be 4ecf 6cbd
00000270: 0f0e 50bc a888 a7bc ef1f 73bd 5d9e 93be
00000280: 0cdc a23d e680 a1bc 2e54 1e3b b441 b7bc
00000290: ceed c63c 9782 dabc 0d92 8bbe 5e0f cfbb
000002a0: d5b1 db3c 824d 25bb fad1 76bb 7f10 543d
000002b0: 37b6 f13c 1060 95bb 9be3 083e ef92 c5bc
000002c0: 165a 80be 75d7 2cbd 65a6 c8bc 8ad7 3ebd
000002d0: b13d 8abd 0015 cdbc 2889 61be dd59 f93d
000002e0: cc18 8c3d 123c 22bd 3d23 e93c f834 1cbd
000002f0: a5d7 9e3d 3e87 ce3c 52c7 023e 088a fdbc
00000300: 42a0 21be f6c8 b0bd 72bc a7be 1994 003c
00000310: dd56 0fbe d05e bc3b ceb3 09be 05b1 90bd
00000320: 5a56 7b3e d7bb 4dbc 0dcf 3f3c 1a2c cbbc
00000330: c874 2fbc 1e1d 7a3c f61e 8cb9 9fb5 1f3e
00000340: aa87 e3ba cba2 63bb 5923 a9bb 2817 73bb
00000350: 07ea 2f3b 093c b4be eb90 a1bc 26c0 cdbd
00000360: d19b 83bc d912 60bc 3467 0bbe 37a1 58bd
00000370: 5c1e bb3e 53bf 67be dff8 acbc 80ab e9bb
00000380: a080 1b3c b7de d93d 95b2 503f 0b96 74bd
00000390: 0a95 d43b b4d1 123c d844 afbb d2d1 cdbb
000003a0: ac04 1b3d d67b 2cbd 6acf 26bc 7918 c6bd
000003b0: 4378 f4bc 8788 123c 6bcc 5dbd 1084 a2bc
000003c0: 5d68 423d 588a 993c 14df 36bc 2d23 b13b
000003d0: 8684 70be c471 61bc 393f c6bc a6de 313e
000003e0: 2646 89bc 69ef 5cbd 8654 e8bd 547b 253d
000003f0: dd38 fbbb 47ae afbc dfbf 18bd 4a6f adbe
-0.375784 -0.11014716 -0.0110614095 -0.0014171052 -0.16680436 0.04656248 0.013415044 0.10350994
0.020491924 0.03318197 -0.033957634 -0.015407233 -0.30341086 0.14125896 0.00830354 -0.050008416
0.07926254 -0.037126124 -0.014499321 -0.2758948 -0.11531497 0.015262827 0.0022483827 0.09279514
-0.03130764 0.0076498874 -0.07317624 0.09886588 0.025769733 -0.022047488 -0.01284836 -0.016158469
-0.019012686 0.04100587 0.019338787 -0.013995028 -0.0677634 -0.008749564 0.13741389 0.0033104995
0.0030571355 0.014278885 0.15663096 0.013157201 -0.106575385 -0.12749578 0.007967484 0.04974725
0.024129793 -0.30002186 0.28280467 -0.008891128 -0.01966167 0.035864547 0.27033848 0.018924141
-0.0056328587 0.0138155315 0.1898351 -0.099963844 0.12173112 -0.092718065 0.010506173 0.02084311
0.006737859 -0.0028490447 -0.037477355 0.0014097488 0.0047973786 0.0004939975 -0.031711534 -0.0027205634
0.16426036 -0.031460658 0.013252437 -0.14096674 -0.09747422 -0.048304528 -0.07074619 0.14505267
-0.039502937 0.12353127 -0.07655919 -0.052523136 0.0030901544 -0.02812275 -0.015151495 0.42890212
0.18435685 -0.10381095 0.01253082 -0.18589401 -0.037468504 0.007215475 0.015548536 -0.0017719079
-0.10985561 -0.002452312 0.0039797677 -0.049872514 0.031926394 0.001374994 0.04084004 0.15755326
-0.0005789457 -0.3081004 -0.18233325 0.04447281 -0.0082749 0.037346788 -0.0055190595 0.021455651
0.010422384 0.010508041 -0.088694654 0.15204664 -0.22823896 -0.13602409 0.12109782 -0.082327716
-0.10509992 -0.01988277 0.04480689 -0.002224061 -0.03664424 -0.009573856 0.17139885 -0.042765908
0.0018274201 -0.002596705 0.08396552 -0.016351053 -0.008212631 0.19626082 -0.009108765 -0.009374653
0.008363164 0.1775753 -0.29376894 -0.02418959 0.0079132365 0.018428314 -0.008428695 -0.2694257
-0.03617771 -0.05576916 -0.01483727 -0.04698234 -0.007682298 0.053582855 -0.03495119 -0.023826271
0.024167735 0.1759206 -0.16593371 -0.05781489 -0.012698664 -0.020450905 -0.059356626 -0.2883176
0.07952127 -0.019714784 0.0024159062 -0.022370197 0.024283316 -0.026673598 -0.27259865 -0.0063189706
0.026818195 -0.00252232 -0.0037661777 0.051773544 0.029505832 -0.0045585707 0.13368075 -0.024117915
-0.2506873 -0.042197663 -0.024493406 -0.046592273 -0.06750048 -0.025034428 -0.22024977 0.12175343
0.06840667 -0.03960807 0.028459186 -0.038136452 0.07755975 0.025210973 0.12771347 -0.030949607
-0.1578379 -0.0863208 -0.3276096 0.007847809 -0.1399798 0.005748607 -0.13447496 -0.07065014
0.2454466 -0.012556992 0.01170708 -0.024801303 -0.010708995 0.015265731 -0.0002672595 0.15596627
-0.0017359157 -0.0034734483 -0.0051616845 -0.003709266 0.0026842372 -0.35202053 -0.019722423 -0.10046415
-0.01606551 -0.013676369 -0.13613588 -0.05288812 0.365466 -0.22631578 -0.021114765 -0.00713104
0.009491116 0.106381826 0.81522495 -0.059713405 0.0064874934 0.00896113 -0.005348783 -0.006281116
0.037846252 -0.042110287 -0.010181287 -0.096726365 -0.029842502 0.0089436835 -0.054150026 -0.019838363
0.04746281 0.018742725 -0.011161584 0.0054058046 -0.23488054 -0.013760034 -0.024200069 0.1737009
-0.016757082 -0.053939257 -0.113442466 0.040400818 -0.0076666907 -0.021445407 -0.037292358 -0.3387397

fc3.bias f4 [4]
00000000: 8884 e2bd b4f7 3dbf 9be0 87be 0f1f c2be
-0.110604346 -0.7420609 -0.26538548 -0.3791432
