projects/tennis/checkpoint/E17/E17.05_actor1_10000.pt (torch_old, 453689 bytes, 6 tensors)

fc1.weight f4 [400, 24]
0	0xbc4d9156	-0.012546858
1	0xbb45ab17	-0.0030161792
2	0xbc82b867	-0.01595707
3	0xbc9056e3	-0.017619556
4	0x3c9c958e	0.019114282
5	0xbc77c3e7	-0.01512239
6	0x3d464d99	0.048413847
7	0x3d395b38	0.04525301
8	0x3c0b36b3	0.008496928
9	0x3c848ae9	0.016179519
10	0xbd1ee71c	-0.03879462
11	0xbc6adf31	-0.01433544
12	0x3d13f5d3	0.036123108
13	0xbcec6c80	-0.02886033
14	0xbce406f5	-0.027835349
15	0x3d2a5ab5	0.04159041
16	0xbd003d15	-0.031308252
17	0x3ca780c7	0.020447148
18	0x3d11215f	0.035432216
19	0xbd27c59f	-0.04095995
20	0xbd015830	-0.031578243
21	0xbc074262	-0.008255573
22	0x3ce42ea4	0.027854271
23	0xbd2f24aa	-0.042759575
24	0x3cbcf0f0	0.023064107
25	0x3cc862ee	0.024461236
26	0xbb6c46cb	-0.0036052938
27	0x3c5858ed	0.013204795
28	0xbcfe04d0	-0.031008154
29	0xbc12d490	-0.008961812
30	0x3c4115bc	0.011784967
31	0x3cd92635	0.026507476
32	0x3bee878b	0.0072793416
33	0xbd1f2111	-0.038849894
34	0xbc9cb987	-0.019131435
35	0xbd3a4567	-0.045476343
36	0x3cd122fa	0.025529373
37	0x3ced1324	0.028939791
38	0x3b9fa8d8	0.0048724227
39	0x3d1dfac1	0.038569216
40	0xbd15e02b	-0.036590736
41	0xbc5be937	-0.013422302
42	0x3cd387b5	0.025821546
43	0x3cd601b2	0.026123855
44	0x3c489d1f	0.012244492
45	0xbc7e8b70	-0.015536174
46	0xbc3cbd33	-0.011519718
47	0xbc8eb294	-0.017419137
48	0xbcee552a	-0.029093344
49	0x3d032e76	0.03202673
50	0xbd40741c	-0.04698573
51	0x3c7a27de	0.015268294
52	0x3adfdf6e	0.0017080137
53	0x3d46dfc1	0.048553232
54	0xbc6723c1	-0.0141076455
55	0xbd1b9bf1	-0.037990514
56	0x3d0ed77e	0.034873478
57	0x3d4a0b98	0.049327463
58	0x3d430b22	0.04761804
59	0x3c8bea14	0.01707939
60	0x3d4d6225	0.050142426
61	0x3cd6feed	0.026244605
62	0x3c6d6c15	0.014491101
63	0x3c33a953	0.010965663
64	0x3c100b0e	0.008791698
65	0x3b4d3cbc	0.0031316718
66	0xbc222107	-0.00989557
67	0xbd164e51	-0.036695782
68	0x3cd8ce87	0.026465667
69	0x3d25117c	0.040299878
70	0xbcf25bf5	-0.029584864
71	0xbca71e28	-0.020400122
72	0xbcdf5948	-0.027264252
73	0x3d24bbaf	0.04021805
74	0x3ccd4509	0.025057333
75	0xbbaa2745	-0.0051926696
76	0x3c63d1c0	0.013904989
77	0x3cc2f03e	0.023796197
78	0xbd382fa2	-0.0449673
79	0x3ba96003	0.005168916
80	0x3b506088	0.0031795818
81	0xbd406a7f	-0.046976563
82	0x3d30db58	0.043177933
83	0x3a63afb2	0.00086855434
84	0xbd222d03	-0.039593708
85	0xbc9830b0	-0.018577904
86	0x3d2c3bb6	0.042049132
87	0x3d42e3f1	0.047580663
88	0x3c4f5a52	0.012655811
89	0xbc553342	-0.013012709
90	0xbd4b7cd7	-0.049679603
91	0x3c32cf3c	0.010913666
92	0x385dd2c5	5.28868e-05
93	0xbd4677c3	-0.048454057
94	0x3d44e36a	0.04806844
95	0xbb20f40a	-0.002455952
96	0x3c65cfd0	0.014026597
97	0x3d498feb	0.049209516
98	0x3c8ab389	0.016931312
99	0xbd32fc38	-0.043697566
100	0x3bb5fdd7	0.0055539417
101	0x3cf856fb	0.030314913
102	0xbcd54f17	-0.02603869
103	0xbc42dd7f	-0.011893629
104	0x3cb4235e	0.02198952
105	0x3bcd0cfa	0.0062576504
106	0x3ce65ded	0.02812096
107	0x3c85b525	0.016321728
108	0x3bf11cb0	0.007358156
109	0x3cb50522	0.022097174
110	0x3c722ab4	0.014780689
111	0xbc8170c1	-0.015800836
112	0x3d21d8d3	0.03951342
113	0x3cf5e568	0.030016616
114	0xbb5e5a53	-0.003392835
115	0xbb07b9fa	-0.0020710216
116	0xbd003460	-0.03129995
117	0x3c12de84	0.008964185
118	0x3cb575d7	0.022150917
119	0xbb79ba1a	-0.003810531
120	0xbd0792d7	-0.03309902
121	0x3d22131c	0.039569005
122	0x3cf06bb9	0.029348241
123	0xbd22281f	-0.039589044
124	0x3b3a68d1	0.0028443823
125	0xbd14eed7	-0.036360588
126	0xbd07345b	-0.033008914
127	0x3d1038ca	0.03521041
128	0x3d4675d9	0.048452232
129	0x3d2d8c1b	0.042369943
130	0xbbe006a1	-0.0068367277
131	0xbcbd4bba	-0.023107398
132	0xbcf17d76	-0.02947877
133	0x3d1d39e7	0.038385298
134	0x3c6fd4f9	0.014638179
135	0xbcf447c4	-0.029819377
136	0x3d172dd5	0.036908943
137	0xbd2f3638	-0.042776316
138	0x3cb66427	0.022264553
139	0x3d38c925	0.0451137
140	0x3c240c2e	0.0100126695
141	0xbd0c9be1	-0.034328345
142	0xbd2cdb56	-0.042201363
143	0x3d116045	0.0354922
144	0xbc90472e	-0.017612066
145	0x3d452f15	0.048140604
146	0xbceece60	-0.029151142
147	0xbcbfe175	-0.023422936
148	0x3d380063	0.044922244
149	0xbcb018d4	-0.021496214
150	0xb97ae50b	-0.00023927183
151	0x3d121f9a	0.03567467
152	0x3cea3094	0.028587617
153	0x3c592e7f	0.013255714
154	0x3c6dbedd	0.014510837
155	0xbcce6557	-0.025194807
156	0x3d1f1a4d	0.03884344
157	0x3c395e0e	0.011313928
158	0xbc39391f	-0.011305123
159	0x3d03c5e5	0.03217115
160	0xbd3a8588	-0.0455375
161	0x3acb6d0a	0.0015520167
162	0xbc58b54f	-0.013226821
163	0xbd03e8f2	-0.032204576
164	0x3d463811	0.048393313
165	0xbb7179b8	-0.0036846232
166	0xbcf7ff4d	-0.030273104
167	0x3a84ae37	0.0010122721
168	0xbd1c8c7c	-0.038219914
169	0x3ccce3aa	0.025010902
170	0xbd05f5ba	-0.032705046
171	0xbb856872	-0.0040712887
172	0x39da36c0	0.00041620992
173	0xbd34a7b0	-0.04410523
174	0x3d18926e	0.03724902
175	0x3c353c10	0.011061683
176	0x3c5d2f27	0.0135000115
177	0xbbd388c9	-0.006455515
178	0x3d1d7b16	0.038447462
179	0x3b850543	0.004059465
180	0xbcc7f972	-0.024410937
181	0xbce02c66	-0.02736492
182	0xbb3fc5ee	-0.0029262262
183	0x3c793df9	0.015212529
184	0xbcc94e75	-0.024573544
185	0xbc0afedd	-0.008483616
186	0x3d3d752f	0.046254333
187	0x3d10b71b	0.035330873
188	0x3d4a59e8	0.049402148
189	0xbcbe9c79	-0.023267971
190	0x3c9410df	0.018074451
191	0xbccff847	-0.025386943
192	0xbd499611	-0.04921538
193	0xbd1ef056	-0.03880342
194	0x3cd4404a	0.025909562
195	0xbd3320e3	-0.043732535
196	0xbc5c601b	-0.013450648
197	0x3cd9c3e7	0.026582671
198	0xbd0c8c53	-0.03431351
199	0xbc1d5efa	-0.009605164
200	0x3d17e9c9	0.03708819
201	0x3d12b545	0.035817403
202	0x3aeb4414	0.0017949366
203	0xbd0c895d	-0.034310687
204	0x3b140ef7	0.0022591928
205	0xbd1c17c6	-0.03810861
206	0xbd2600c9	-0.040528093
207	0x3ca1e25c	0.019761257
208	0xbcdadb22	-0.026715819
209	0x3d37d1c8	0.044877797
210	0xbc85fb5f	-0.016355215
211	0x3ceae106	0.028671753
212	0x3c85eb0e	0.016347434
213	0x3d481ec7	0.048857477
214	0xbd48bc16	-0.049007498
215	0x3d0baf5f	0.034102794
216	0xbcbd9548	-0.023142472
217	0x3ad7053f	0.0016404762
218	0x3b2a280e	0.0025963816
219	0x3bc5a485	0.006031575
220	0xbc641d1a	-0.013922954
221	0xbd05c18c	-0.032655284
222	0xbcf588e1	-0.029972496
223	0xbd096bee	-0.033550195
224	0x3c089ebf	0.008338629
225	0xbaf7dfc8	-0.0018911297
226	0xbb19df75	-0.0023479138
227	0xbd40d532	-0.04707832
228	0x3c999bce	0.018751051
229	0xb9a6144f	-0.00031677118
230	0xbd2dc3fd	-0.042423237
231	0x3d1b702e	0.03794878
232	0xbc70ec1b	-0.014704729
233	0x3c795af8	0.015219443
234	0xbd132293	-0.035921644
235	0x3cab28b5	0.020893434
236	0x3d197bea	0.03747169
237	0x3d1f2eed	0.03886311
238	0xbc977079	-0.018486248
239	0x3d3b2f09	0.045699153
240	0xbcfcbdce	-0.030852225
241	0x3c7388f9	0.0148642
242	0x3d43b665	0.047781367
243	0x3cead368	0.02866526
244	0xbd04a39b	-0.03238259
245	0xbd03326a	-0.0320305
246	0xbc5d2ac8	-0.013498969
247	0x3d320105	0.043458004
248	0xbcbd0d41	-0.023077609
249	0xbd2c64d2	-0.042088337
250	0xbd2ba10d	-0.041901637
251	0xbc9e0f01	-0.019294264
252	0x3b2ecd5a	0.0026672692
253	0x3c1c01fe	0.009521959
254	0x3d0f3690	0.034964144
255	0xbd4c54b9	-0.049885485

fc1.bias f4 [400]
0	0x3d6d0364	0.05786456
1	0xbe30b3c3	-0.17256074
2	0x3be766d0	0.0070618168
3	0xbd2e34ed	-0.042530943
4	0x3daa26dc	0.08308193
5	0x3e350a19	0.17679633
6	0x3ddedd18	0.10882014
7	0xbe247786	-0.1606122
8	0xbd0a39a1	-0.033746365
9	0x3d36e288	0.04464963
10	0xbce3181d	-0.027721459
11	0x3e3ec853	0.18631105
12	0xbc69d010	-0.014270797
13	0xbe21a292	-0.15784672
14	0xbdc2fe78	-0.09521192
15	0x3b6f34c7	0.0036499964
16	0x3d7721ee	0.060335092
17	0xbde147b4	-0.110000044
18	0xbcf3949e	-0.029733952
19	0x3d88611c	0.06659147
20	0xbe245302	-0.1604729
21	0xbdc5ced8	-0.09658593
22	0xbde546d5	-0.11195151
23	0xbce48f03	-0.027900225
24	0xbd8f1af3	-0.06987562
25	0xbe122612	-0.14272335
26	0xbd7705a8	-0.06030813
27	0x3db245db	0.0870473
28	0xbb393c14	-0.002826457
29	0x3d14ed55	0.03635915
30	0xbda3270f	-0.07966434
31	0xbdbeed40	-0.093225956
32	0xbdf4e49c	-0.11957666
33	0x3de32c35	0.11092416
34	0x3e360f83	0.17779355
35	0x3e0903c2	0.1338034
36	0xbe24f671	-0.16109635
37	0x3d82c769	0.06385691
38	0xbe3849bf	-0.17996882
39	0xbd22b537	-0.0397236
40	0x3cbfb1fc	0.0234003
41	0x3d9b5c18	0.07585925
42	0xbd9529c5	-0.072833575
43	0x3de25935	0.11052171
44	0xbd12b1b7	-0.035814013
45	0xbd69a7e7	-0.05704489
46	0xbd804c03	-0.06264498
47	0xbccc51ad	-0.02494129
48	0xbc608eea	-0.013705948
49	0xbe2a729f	-0.16645287
50	0x3cd1e40a	0.025621433
51	0xbe1a728e	-0.15082762
52	0x3dd41b49	0.10356767
53	0xbda820e1	-0.08209396
54	0xbe398332	-0.18116453
55	0x3dbcfb1f	0.09227585
56	0xbe1a5340	-0.1507082
57	0x3e12f6c2	0.14351943
58	0xbe3fd1ea	-0.1873242
59	0x3d7cff98	0.06176719
60	0xbe262327	-0.16224347
61	0x3e0de8f7	0.138584
62	0x3de3d94e	0.11125432
63	0x3dc61d20	0.09673524
64	0xbe4d1b40	-0.20029926
65	0x3d9b3f84	0.07580474
66	0x3e08caca	0.13358608
67	0x3d1d2e43	0.038374197
68	0xbe1191ff	-0.1421585
69	0xbcb95b6c	-0.022626601
70	0xbdd0abea	-0.1018904
71	0xbd1f44d3	-0.038883995
72	0x3d10690d	0.035256434
73	0x3da3b659	0.079937644
74	0xbc476fc6	-0.012172645
75	0xbd96991a	-0.073534206
76	0xbc171c2c	-0.009223025
77	0xbd6aebdc	-0.05735384
78	0x3b0063b6	0.0019590682
79	0xbe3293d5	-0.17439206
80	0x3de33a38	0.11095089
81	0xbba2add6	-0.0049645705
82	0x3e41e0d7	0.18933426
83	0xbd937ede	-0.07201932
84	0xbd0ca27d	-0.03433465
85	0x3dcbaff4	0.0994567
86	0x3e413892	0.18869236
87	0xbdbf66e1	-0.093457945
88	0xbdc44701	-0.095838554
89	0x3de65360	0.11246371
90	0xbd160908	-0.036629707
91	0x3d82b341	0.06381846
92	0xbdcd6c6a	-0.10030444
93	0x3e040e4e	0.12896082
94	0xbe12b232	-0.14325789
95	0xbd9d35ff	-0.076763146
96	0xbd634235	-0.05548306
97	0xbd61eb71	-0.055156175
98	0x3e30af85	0.17254455
99	0x3e18a9c2	0.14908507
100	0x3c67063f	0.01410061
101	0xbe33383a	-0.17501917
102	0xbe4715bf	-0.19441889
103	0x3db8be9d	0.090207316
104	0xbdbec677	-0.09315198
105	0x3d417423	0.047229897
106	0x3d4a93c7	0.049457338
107	0x3e181339	0.14851083
108	0x3de2dde5	0.11077479
109	0xbd92ee96	-0.07174413
110	0xbd1877e2	-0.037223704
111	0x3e195592	0.14974049
112	0x3b540a0e	0.0032354626
113	0x3df4c0e2	0.11950852
114	0xbd9f9d06	-0.07793622
115	0xbe1aeb9b	-0.15128939
116	0x3c8b3cf7	0.016996844
117	0x3e423608	0.18965924
118	0x3d8565ff	0.06513595
119	0x3e39f0ea	0.18158308
120	0x3dc9f639	0.09861416
121	0x3d072d26	0.03300204
122	0x3d87d9e9	0.0663336
123	0x3c117466	0.008877849
124	0x3dceb6eb	0.100934826
125	0x3da549ae	0.08070694
126	0xbe2850fc	-0.16437143
127	0x3cc00285	0.023438701
128	0x3e42d64f	0.19027065
129	0xbd943564	-0.07236746
130	0xbe4128f1	-0.18863274
131	0xbe415ed8	-0.18883836
132	0x3e41d2d3	0.1892808
133	0xbe384ead	-0.17998762
134	0xbdfca89a	-0.12336846
135	0xbde71877	-0.11283963
136	0x3e2ce661	0.16884758
137	0xbdafadb2	-0.085780516
138	0x3af92f6a	0.0019011323
139	0x3ab2f351	0.0013652836
140	0xbe12ab70	-0.1432321
141	0xbc4973c4	-0.012295667
142	0x3d807340	0.06271982
143	0x3e50ac02	0.20378116
144	0x3dc3feb9	0.09570069
145	0x3de970e1	0.11398483
146	0xbe2f5a1a	-0.17124215
147	0x3e010cc8	0.12602532
148	0xbd4f5687	-0.05061963
149	0x3d08d60a	0.03340725
150	0xbd9a87cb	-0.07545432
151	0x3c6043ab	0.013688008
152	0x3e398c6f	0.18119977
153	0xbe2bfb20	-0.16795015
154	0xbe364da6	-0.17803058
155	0xbbbf3353	-0.0058349757
156	0xbb0e3438	-0.0021698605
157	0xbde01766	-0.10941963
158	0xbd8d3620	-0.06895089
159	0x3e48e3bf	0.19618128
160	0xbddd35cd	-0.10801277
161	0x3d4ca0a4	0.049957886
162	0xbdd3e0ca	-0.103456095
163	0xbd498c48	-0.04920605
164	0x3bab19b9	0.0052215722
165	0xbca17413	-0.019708669
166	0xbd237a85	-0.039911766
167	0x3d2a729f	0.041613217
168	0x3c770853	0.015077668
169	0x3e43ebae	0.19132873
170	0x3e41f2f6	0.18940338
171	0x3dd28fa5	0.10281304
172	0xbb7e5ea4	-0.0038813734
173	0x3c179279	0.00925123
174	0xbe1afda5	-0.1513582
175	0x3d8e064c	0.06934795
176	0xbd8da563	-0.06916311
177	0x3c427c0b	0.011870394
178	0x3df25c0e	0.11833964
179	0xbde1bd63	-0.11022451
180	0xbe1d0005	-0.15332039
181	0xbddb17bf	-0.106978886
182	0xbdc2bd80	-0.095088005
183	0xbe095034	-0.13409501
184	0xbc577a9d	-0.013151792
185	0x3e2c9595	0.16853936
186	0x3de082dd	0.1096246
187	0xbcc625d9	-0.024187969
188	0xbdcbd794	-0.09953228
189	0xbdcc9420	-0.0998919
190	0x3e053f0b	0.1301233
191	0x3dd448fe	0.10365485
192	0xbe38619c	-0.18005985
193	0x3e1a882c	0.15091008
194	0x3e4fdea9	0.20299782
195	0x3c12a8d9	0.008951389
196	0x3dcc81d8	0.09985703
197	0x3d6594c3	0.056050073
198	0xbe4299cc	-0.19003981
199	0x3d6f223a	0.05838225
200	0x3e41b23a	0.18915644
201	0xbe2d7500	-0.16939163
202	0x3d1d3258	0.03837809
203	0x3d29c7c4	0.041450277
204	0x3e3788ed	0.17923327
205	0x3db82898	0.08992118
206	0xbe1e1b0a	-0.15440002
207	0x3dace6ab	0.08442434
208	0x3e49a1f0	0.1969068
209	0xbe4e179b	-0.20126192
210	0x3d2014c3	0.0390823
211	0x3d01028e	0.031496577
212	0xbe4a6852	-0.19766358
213	0x3e112249	0.14173235
214	0xbd07a235	-0.033113677
215	0x3dce3102	0.10067941
216	0x3dd3992b	0.10331949
217	0xbd702142	-0.058625467
218	0x3df8835a	0.12134428
219	0x3e47ca2a	0.19510713
220	0x3e4fb6f4	0.20284635
221	0x3d4db495	0.050221045
222	0xbd9ff355	-0.07810084
223	0xbdab190f	-0.08354389
224	0xbe349af8	-0.17637241
225	0x3db72b16	0.08943765
226	0xbc8caa00	-0.017170906
227	0x3e296ede	0.16546199
228	0x3e2312c9	0.15925135
229	0xbe4d94b3	-0.20076256
230	0xbe23d484	-0.15999037
231	0xbe1cee3c	-0.15325254
232	0xbe4491b1	-0.19196202
233	0x3d9ae5c7	0.07563358
234	0x3deee9b5	0.1166567
235	0x3de37a5a	0.11107321
236	0xbe395a19	-0.18100776
237	0xbe2df68e	-0.16988584
238	0xbb0bee2d	-0.002135168
239	0x3e2958a2	0.16537717
240	0x3e1be0b3	0.15222435
241	0xbe3ef7bd	-0.18649192
242	0xbdaac682	-0.083386436
243	0x3e09ac14	0.13444549
244	0x3d90e636	0.07075159
245	0xbdfb6e06	-0.12276845
246	0x3ce1145e	0.027475532
247	0x3c9a52ff	0.018838404
248	0xbd8ac365	-0.0677555
249	0x3d35d955	0.044396717
250	0x3e4d99e2	0.20078233
251	0xbe4c0807	-0.19924937
252	0x3e323b27	0.17405377
253	0xbd948ea1	-0.07253767
254	0xbe26bb36	-0.16282353
255	0x3e3b6f46	0.18304166

fc2.weight f4 [256, 400]
0	0x3d416b71	0.047221605
1	0x3b6beffd	0.0036001198
2	0xbcd04730	-0.02542457
3	0xbae65ff0	-0.0017576199
4	0xbc245428	-0.01002983
5	0xbd372eea	-0.044722475
6	0xbd201d1f	-0.039090272
7	0xbce737a5	-0.028224776
8	0x3d147886	0.036247753
9	0x3d691359	0.056903217
10	0xbc09669f	-0.008386283
11	0xbbdd6959	-0.006756943
12	0x3d787315	0.060656626
13	0xbd431686	-0.047628902
14	0xbd153825	-0.036430497
15	0xbbeebb4b	-0.0072855107
16	0x3c41fa57	0.011839471
17	0x3c8931ef	0.016747443
18	0xbcf8a7ee	-0.030353513
19	0x3d6ca073	0.057770204
20	0x3cf25770	0.02958271
21	0xbcc03086	-0.023460638
22	0x3bfbeedb	0.007688386
23	0xbd4904d5	-0.049076874
24	0xbbd41d51	-0.0064732214
25	0x3bca32df	0.006170615
26	0xbd28cc1e	-0.041210286
27	0x3ca5c43e	0.020235177
28	0xbd0d59d8	-0.03450951
29	0x3c53a491	0.012917654
30	0xbd72c7e8	-0.059272677
31	0xbcf2398a	-0.029568452
32	0x3d4892cc	0.04896812
33	0x3d3f8285	0.046755332
34	0x3c693f78	0.014236324
35	0x3d4b1751	0.049582783
36	0xbd3a1bc6	-0.045436643
37	0x3caebc24	0.021329947
38	0x3b1ed46c	0.00242355
39	0xbb117386	-0.0022194101
40	0xbd162bf5	-0.036663014
41	0x3d2723db	0.04080568
42	0xbce2343e	-0.027612802
43	0xbb386b30	-0.002814006
44	0xbc00589a	-0.007833624
45	0x3cade402	0.021226887
46	0xbc66f879	-0.014097326
47	0xbd765372	-0.060138173
48	0xbcd3101f	-0.025764523
49	0xbb5c0ccc	-0.0033576963
50	0xbd778fa8	-0.060439736
51	0x3d4974f1	0.04918379
52	0xbd068b61	-0.032847766
53	0x3d1f4a1f	0.038889047
54	0xbd75b2e9	-0.059985075
55	0x3d6d8bf7	0.05799481
56	0xbcbee16b	-0.023300847
57	0xbceb28c7	-0.028705968
58	0x3cb3c242	0.021943215
59	0xbd007319	-0.031359766
60	0xbd1fc845	-0.03900935
61	0x3afa0df4	0.0019077645
62	0xbd10f800	-0.03539276
63	0x3d43256d	0.047643114
64	0xbcd93120	-0.026512682
65	0x3d784f96	0.060622774
66	0x3d318a4e	0.04334479
67	0x3d508bc6	0.05091455
68	0xbcc03177	-0.023461087
69	0xbd1416b5	-0.036154468
70	0x3d0bdfdf	0.034149047
71	0x3d2ce172	0.04220719
72	0x3d569d1e	0.052395932
73	0x3ca7451d	0.020418698
74	0xbc8f42fa	-0.017487992
75	0x3d43205a	0.047638275
76	0xbd7df065	-0.061996836
77	0x3b463a31	0.0030247087
78	0x3cfc0f44	0.030768998
79	0x3d19af54	0.03752072
80	0xbd522a95	-0.05131014
81	0xbcfb6bb5	-0.030691007
82	0xbd2240d3	-0.039612602
83	0x3d2e3ae5	0.042536635
84	0xbd16b04e	-0.03678923
85	0x3cc5bc47	0.02413763
86	0xbd31e421	-0.04343045
87	0xbc204d4b	-0.009784053
88	0xbbf8ea86	-0.0075963167
89	0x3ca65810	0.020305663
90	0x3c6dce01	0.014514447
91	0xbd779025	-0.0604402
92	0xbd263eca	-0.040587224
93	0x3ca04712	0.019565139
94	0xbd7e08ee	-0.062020235
95	0xbd60fe64	-0.054930106
96	0xbced38ed	-0.028957808
97	0x3c8a48b4	0.01688037
98	0x3d44d073	0.048050355
99	0x3cb43632	0.021998499
100	0xbd35383f	-0.044243094
101	0xbbf187b6	-0.0073709143
102	0x3d44495d	0.047921527
103	0xbb906ae8	-0.0044072755
104	0xbd1ba9c3	-0.038003694
105	0x3ce7e72f	0.02830848
106	0x3d0eebd2	0.034892865
107	0xbd0f13e2	-0.03493107
108	0xbd043f6f	-0.032287057
109	0xbcc64f14	-0.02420763
110	0x3d55c78a	0.05219225
111	0x3ce69a1c	0.028149657
112	0xbd36042d	-0.044437576
113	0xbc49b6c1	-0.012311638
114	0xbd772f58	-0.060347885
115	0xbc92ec66	-0.01793499
116	0xbd105e66	-0.035246275
117	0xbd2804cb	-0.041020196
118	0x3ce66e12	0.028128657
119	0xbcc9fb11	-0.02465585
120	0xbb94fc31	-0.004546665
121	0xbd396314	-0.045260504
122	0xbcfb5b81	-0.03068328
123	0xbd69a312	-0.05704028
124	0x3cae3500	0.021265507
125	0xbd71460e	-0.0589047
126	0xbca91750	-0.020641
127	0xbd61a5db	-0.055089813
128	0x3c8f39a6	0.017483544
129	0x3cc36854	0.023853458
130	0x3cac1359	0.02100532
131	0xbbdc2894	-0.0067187045
132	0x3cb1756d	0.021662438
133	0xbd61c63c	-0.05512069
134	0x3b48ffbf	0.0030670015
135	0xbbf55775	-0.0074872323
136	0x3cdca493	0.026933944
137	0xbd32d722	-0.043662198
138	0xbd5f7d69	-0.05456296
139	0x3ca6e432	0.020372484
140	0x3d0d8431	0.034549896
141	0x3d517e1f	0.05114567
142	0xbcfd6b43	-0.030934935
143	0xbbc8949b	-0.006121231
144	0xbd61a03c	-0.055084452
145	0xbd04deb3	-0.032438945
146	0xbca80da9	-0.020514326
147	0xba96c388	-0.0011502365
148	0xbab832c5	-0.0014053216
149	0xbd1738f0	-0.036919534
150	0x3cb1eac4	0.02171839
151	0x3b7e7a2a	0.003883014
152	0x3b4a5f43	0.0030879534
153	0xbb7a6ab4	-0.0038210573
154	0xbd283d68	-0.041074187
155	0xbd4b4eb7	-0.049635615
156	0x3d1b08f7	0.037850346
157	0x3c9f154a	0.019419331
158	0x3c88459a	0.016634751
159	0xbc11d325	-0.008900438
160	0x3d1a75c0	0.03770995
161	0xbce88743	-0.02838481
162	0x3c8eb4f1	0.017420264
163	0x3c4548c5	0.012041275
164	0x3d613868	0.054985434
165	0xbbd220fa	-0.0064126225
166	0x3b7fbccf	0.003902245
167	0xbd61eafb	-0.055155735
168	0xbd123035	-0.035690505
169	0xbd42aaf9	-0.047526333
170	0x3d446b18	0.047953695
171	0xbd02d1d9	-0.031938408
172	0xbb57a448	-0.0032904316
173	0x3c6d16fd	0.014470813
174	0xbb08f105	-0.0020895612
175	0xbd4a0d57	-0.049329128
176	0x3cb3bb86	0.021940004
177	0xbbd70e2d	-0.006562969
178	0xbd500d7c	-0.05079411
179	0x3d6566e2	0.05600632
180	0xba0012a5	-0.0004885591
181	0xbc0c8f6c	-0.008579116
182	0x3d434c7e	0.04768037
183	0xbd5c6a3c	-0.05381225
184	0xbd0c5e2a	-0.03426949
185	0xbd4b46a5	-0.04962792
186	0x3c03058a	0.007996926
187	0x3d074a87	0.03303006
188	0xbd532668	-0.0515503
189	0x3d53d4d9	0.05171666
190	0xbce9062d	-0.028445328
191	0x3b62bf81	0.0034599009
192	0xbd067b4a	-0.03283242
193	0x3bb2ab35	0.0054525384
194	0xbd155c23	-0.03646482
195	0xbd48e609	-0.049047504
196	0x39c8b60f	0.00038282617
197	0x3cbd3415	0.023096124
198	0xbc86c559	-0.016451525
199	0xbd1930c8	-0.037400037
200	0xbcb3f09a	-0.021965314
201	0xbcda4a08	-0.026646629
202	0xbd799b42	-0.06093908
203	0x3c8249a8	0.015904263
204	0xbd57fcea	-0.052731432
205	0x3d2bb3e1	0.041919593
206	0xbcf3126f	-0.029671876
207	0x3d3d1586	0.046163104
208	0x3cb5514d	0.022133494
209	0x3cd640a5	0.026153872
210	0x3c66dd84	0.014090899
211	0xbd6f510e	-0.05842691
212	0xbd4e854d	-0.050420094
213	0x3ba0642b	0.0048947535
214	0xbc7f8c4c	-0.015597414
215	0xbc76835e	-0.015045969
216	0x3d21dee1	0.039519195
217	0xbd522d1a	-0.051312543
218	0x3c18433e	0.009293376
219	0xbc953ec7	-0.018218411
220	0xbcd41624	-0.025889464
221	0xbcd36411	-0.025804551
222	0x3d25b482	0.04045535
223	0xbc3d71a8	-0.011562742
224	0x3d401dbc	0.046903357
225	0xbd2ffadc	-0.042963848
226	0xbc3c47fe	-0.011491774
227	0x3d364ed0	0.044508755
228	0xbc9d9815	-0.019237557
229	0x3d009666	0.03139343
230	0xbc21ac31	-0.009867714
231	0xbcc4db32	-0.024030302
232	0x3d0d8d7e	0.034558766
233	0xbbd02c97	-0.006352972
234	0xbbfde91e	-0.007748737
235	0x3c1d55d5	0.0096029835
236	0xbb5aa49e	-0.003336228
237	0xbcb5158a	-0.022104997
238	0x3d5e85a6	0.054326676
239	0x3ced124b	0.028939387
240	0xb9ab3079	-0.00032651777
241	0xbd599383	-0.053119194
242	0x3d33798b	0.043817084
243	0x3ca721f6	0.020401936
244	0x3d7ef8b1	0.06224889
245	0x3d47a076	0.04873701
246	0x3d37f56b	0.044911783
247	0x3d3ddcd0	0.04635316
248	0xbd71796f	-0.0589537
249	0x3d799e39	0.06094191
250	0x3d0ef3d7	0.034900513
251	0x3ceb2885	0.028705845
252	0xbd6ca31d	-0.057772744
253	0x3d518a13	0.05115707
254	0xbce3ca23	-0.027806347
255	0xbce676a4	-0.028132744

fc2.bias f4 [256]
0	0xbc554b1e	-0.013018398
1	0x3d30c6a1	0.043158177
2	0x3b23e1d0	0.002500642
3	0xbd025382	-0.03181792
4	0x3d3a98e8	0.04555598
5	0xbc1c076e	-0.009523256
6	0xbd452dd6	-0.048139416
7	0x3d1f26b1	0.03885526
8	0xbd462d57	-0.048383083
9	0x3d2ff948	0.042962343
10	0x3c491fc1	0.012275637
11	0xbcd3de68	-0.025862888
12	0xbd1eb31d	-0.038745034
13	0x3cf21304	0.029550083
14	0x3d2f7a3c	0.04284118
15	0x3bf34a2c	0.0074246135
16	0xbd3c4d8b	-0.04597239
17	0xbcefd032	-0.02927408
18	0x3cde86e9	0.02716394
19	0xbb3e92c4	-0.0029079178
20	0x3cda0a6a	0.026616294
21	0x3c93d9b1	0.01804814
22	0x3b897996	0.0041954024
23	0x3d13659d	0.035985578
24	0xbc99c650	-0.01877132
25	0xbd47882a	-0.04871384
26	0xbd0ad593	-0.033895086
27	0x3c7322e1	0.014839859
28	0xbcddb15b	-0.027062109
29	0x3c39403b	0.011306818
30	0xbbd190dc	-0.0063954424
31	0xbd2ffaef	-0.04296392
32	0x3d2371e5	0.03990354
33	0x3c857a4c	0.016293667
34	0x3b0c24ea	0.0021384307
35	0x3cfe9399	0.03107624
36	0xbc61573d	-0.013753709
37	0x3becb1c1	0.0072233384
38	0x3c7020f3	0.014656293
39	0xbc25822a	-0.010101834
40	0xbcc0b3e1	-0.023523273
41	0x3d3cc4ba	0.04608605
42	0x3c95b8ae	0.018276539
43	0xbd0a7914	-0.033806875
44	0x3cdfffe3	0.027343696
45	0x3d014475	0.031559426
46	0xbd01b955	-0.031670887
47	0xbc9bea94	-0.019032754
48	0xbcd44a6d	-0.025914395
49	0x3d1a800b	0.037719768
50	0x3ce41271	0.027840825
51	0x3b735012	0.0037126583
52	0x3d2991ce	0.041398816
53	0xbcc98cfa	-0.024603356
54	0xbca4dc5d	-0.020124609
55	0xbd1b874f	-0.037970837
56	0xbd129fde	-0.035796992
57	0xbce65d8f	-0.028120784
58	0x3ce80177	0.028321011
59	0x3c84f550	0.016230255
60	0x3bfef3db	0.0077805347
61	0xbb214a69	-0.0024611002
62	0x3cd74ff1	0.026283236
63	0x3d29aee8	0.04142657
64	0x3cab994b	0.02094712
65	0x3cf8111e	0.0302816
66	0x3d36b6b1	0.04460782
67	0x3c1a7863	0.0094281165
68	0xbced0787	-0.028934253
69	0xbd0e2bc3	-0.034709703
70	0x3d274f7a	0.04084728
71	0xbd2e9d28	-0.042630345
72	0x3d01e65b	0.031713825
73	0x3d446d86	0.047956012
74	0xbb30763d	-0.0026925944
75	0x3b742e68	0.0037259106
76	0x3bda30f7	0.006658669
77	0xbc07cd7d	-0.008288738
78	0x3c12b89b	0.008955146
79	0xbc330e49	-0.010928699
80	0x3d2aa2ad	0.041659046
81	0x3bb1e591	0.005428978
82	0x3b454e76	0.003010658
83	0x3d22b503	0.039723407
84	0xbd396538	-0.045262545
85	0x3cbe1ec2	0.023208026
86	0x3d0e4552	0.034734078
87	0xbc2c3172	-0.010509836
88	0xbcefae54	-0.02925793
89	0xbd03fd25	-0.03222384
90	0x3cf7bac1	0.030240418
91	0x3aabf25f	0.0013118497
92	0x3d2ae9f9	0.04172704
93	0xba4ae9b6	-0.0007740514
94	0x3b635b30	0.0034691803
95	0x3d443f61	0.047912005
96	0xbce45bc9	-0.027875798
97	0xbc8f82f8	-0.017518505
98	0x3c1104d0	0.008851245
99	0x3cb82818	0.022480056
100	0xbd22a3d0	-0.039707005
101	0xbd31ddd4	-0.043424442
102	0x3ba06ea7	0.0048960033
103	0xbbe5202e	-0.0069923615
104	0x3cadc7f5	0.021213511
105	0x3d41c888	0.047310382
106	0xbb785547	-0.0037892626
107	0x3d02dd97	0.031949606
108	0xbd2d4707	-0.042304065
109	0x3b52434b	0.0032083567
110	0xbd416691	-0.047216956
111	0xbc404623	-0.011735472
112	0x3ca69f79	0.020339714
113	0xbcfa3d5a	-0.030546833
114	0xbd34c743	-0.044135343
115	0x3cfa03cb	0.030519387
116	0xbd031128	-0.031998783
117	0xbbc7ff12	-0.006103405
118	0x3d4c6695	0.049902517
119	0xbcdb37dc	-0.026760034
120	0x3c60afd5	0.013713797
121	0xbd05c05f	-0.032654162
122	0xba5afbc2	-0.0008353555
123	0xbd426c41	-0.04746652
124	0x3ba05aab	0.004893621
125	0x3ce20f12	0.027595077
126	0x38ee4f99	0.000113635506
127	0x3c08632c	0.008324426
128	0x3d220d13	0.03956325
129	0x3ce94ee5	0.028480003
130	0xbcd256d4	-0.025676169
131	0xbc522d98	-0.012828253
132	0x3ad2f930	0.0016095992
133	0x3cbf22c6	0.023332011
134	0x3cab8982	0.020939592
135	0xbb2d0b4f	-0.0026404446
136	0xbae9a4fb	-0.0017825657
137	0xbbea8a7e	-0.007157623
138	0xbd0b04f8	-0.033940285
139	0xbceb6ab1	-0.028737398
140	0x3d0c4d95	0.034253675
141	0x3cbd2e78	0.023093447
142	0x3b6838a4	0.003543415
143	0x3c3dc827	0.011583365
144	0x3ceeedd4	0.02916614
145	0xbc89a231	-0.016800972
146	0xbca697c1	-0.020336034
147	0xbd18bee3	-0.03729142
148	0x3c9d1643	0.019175654
149	0x3c8fc1cc	0.017548464
150	0xbc9fe1c2	-0.01951683
151	0xbd2ffd58	-0.042966217
152	0xbc8fd276	-0.01755641
153	0xbcb2fcb5	-0.021849016
154	0x3c331e27	0.010932482
155	0x3c4e9204	0.012608055
156	0xbcd6c67e	-0.026217695
157	0x3d137fc2	0.03601051
158	0x3d495c18	0.049160093
159	0xbc667406	-0.014065748
160	0xbba00400	-0.0048832893
161	0xbc90d27d	-0.017678494
162	0x3bda009e	0.0066529056
163	0x3b3c5c35	0.0028741483
164	0x3c6f1b80	0.014593959
165	0x3d442e51	0.047895733
166	0x3cb1252e	0.021624174
167	0xbb943dcc	-0.0045239683
168	0xbba3667b	-0.004986582
169	0xbcafa691	-0.02144173
170	0x3c835378	0.016031012
171	0x3ce3a380	0.027787924
172	0x3d2db88c	0.042412326
173	0xbb8c7328	-0.0042861886
174	0x3c2547bb	0.010087903
175	0x3d0bc7c9	0.034126077
176	0xbc861a16	-0.01636986
177	0xbd07ff09	-0.033202205
178	0x3c0f75ab	0.008756082
179	0xbc5dae9c	-0.0135304
180	0xbd447467	-0.047962572
181	0x3d485c89	0.048916373
182	0xbc3f3e21	-0.0116725275
183	0xbc8c6196	-0.017136376
184	0xbcff5c3a	-0.031171907
185	0x3d06b14a	0.03288392
186	0xbcb7c19a	-0.022431184
187	0x3ab927a3	0.0014126193
188	0xbcd0f7eb	-0.025508841
189	0x3cbd67b9	0.023120748
190	0x3c9b2bdb	0.01894181
191	0xbd0ca62a	-0.034338154
192	0x3c0a8809	0.008455285
193	0x3d10994e	0.035302453
194	0x3c64f0fa	0.013973469
195	0x3d22122b	0.039568108
196	0xbd1f09c5	-0.038827676
197	0xbd136c53	-0.035991978
198	0x3d166c92	0.036724634
199	0xbd027f66	-0.031859778
200	0x3b8527e9	0.0040635956
201	0xbd4cefbf	-0.050033327
202	0x3c502f02	0.01270652
203	0xbca07a75	-0.019589642
204	0xbd1fa784	-0.038978115
205	0x3ac5713b	0.0015063653
206	0xbc43fbf3	-0.011961925
207	0x3cbae35e	0.022813495
208	0x3c6442d0	0.013931945
209	0x3cc1b99e	0.02364808
210	0x3c9dd3a7	0.019265963
211	0x3c365061	0.011127562
212	0x3bf1ea4f	0.007382668
213	0xbcd1ce8c	-0.025611185
214	0x3d241e39	0.040067885
215	0x3d1cde7a	0.038298108
216	0x3cd27da5	0.025694678
217	0x3c33697a	0.010950441
218	0x3c58ae47	0.013225145
219	0x3ce61853	0.02808777
220	0x3d4c4737	0.049872603
221	0xbcc2c488	-0.023775354
222	0x3d2161c7	0.03939989
223	0x3cb52204	0.022110946
224	0x3c9c2610	0.019061118
225	0xba0bb7ee	-0.0005329837
226	0x3d265006	0.04060366
227	0x3ca122c9	0.019669907
228	0xbca3e0d8	-0.020004675
229	0x3d3c9ea6	0.046049736
230	0x3cbfc76a	0.023410518
231	0xbcbf8b01	-0.023381712
232	0x3cd5181f	0.026012478
233	0xbd479b1d	-0.048731912
234	0x3a23cb4f	0.0006248252
235	0x3b244f6b	0.002507175
236	0x3d42edf2	0.047590204
237	0x3b6654b4	0.0035145702
238	0xb79e6c1d	-1.8885412e-05
239	0xbc78a70a	-0.015176544
240	0xbc137814	-0.009000797
241	0x3d4cb0aa	0.049973167
242	0xbd2fca24	-0.042917386
243	0xbc656d57	-0.014003119
244	0x3d45f42b	0.04832856
245	0xbaf69faa	-0.0018815894
246	0x3c942bfa	0.018087376
247	0x3b4466fa	0.0029968605
248	0xbd41c94e	-0.04731112
249	0xbce3102d	-0.027717674
250	0x3cf1f58d	0.029536033
251	0x3d0be83a	0.034157015
252	0x3d43ac79	0.047771905
253	0x3bc821d0	0.0061075464
254	0xbd493278	-0.049120396
255	0xbc6b1fed	-0.014350873

fc3.weight f4 [2, 256]
0	0x3a21c87b	0.00061715365
1	0xba2f53c3	-0.00066882017
2	0xbb491ffb	-0.0030689228
3	0x3b059326	0.0020381897
4	0xbae527c3	-0.0017483163
5	0xbaa13bb3	-0.0012301117
6	0x39fda520	0.00048378948
7	0xb9a292e8	-0.00031008502
8	0xbb1a5911	-0.0023551623
9	0xbb42df62	-0.0029735197
10	0xbb36d001	-0.0027894976
11	0xba2c7fdc	-0.0006580332
12	0xba82f990	-0.0009992588
13	0x39909eb5	0.00027584066
14	0xb95cd412	-0.00021059837
15	0x3b1b40a5	0.0023689654
16	0x3b106abe	0.002203628
17	0x39f9ff64	0.00047683262
18	0x3a38b792	0.0007046397
19	0xbb1207bc	-0.0022282442
20	0x3af28c9f	0.0018505043
21	0x3a9c2532	0.001191294
22	0x3b204e4a	0.0024460726
23	0x3b213c04	0.0024602422
24	0x3a29792e	0.00064648956
25	0x3a2f6754	0.00066911173
26	0xbaa817ce	-0.0012824477
27	0xba9918b1	-0.0011680332
28	0xbb28fc80	-0.0025785267
29	0xbaf3da1c	-0.001860443
30	0x37240f5c	9.778738e-06
31	0x39d3d662	0.00040404784
32	0xbb0f5233	-0.0021869063
33	0x3a5690b4	0.00081850146
34	0xb907cd4b	-0.00012951081
35	0xbaceb329	-0.0015769947
36	0x3a9319b8	0.0011222875
37	0xbb526576	-0.0032103932
38	0xbb4a6f64	-0.0030889148
39	0x399a2179	0.00029398108
40	0xbaa4af7f	-0.0012564509
41	0xbb30632a	-0.0026914575
42	0x39f52d0d	0.00046763607
43	0x3aeb35a8	0.0017945068
44	0xba3cb768	-0.00071989605
45	0xb9430139	-0.00018597105
46	0xb90db1af	-0.00013513
47	0x3af9789d	0.0019033138
48	0x3b1f5e30	0.0024317615
49	0x3b2ea4ec	0.0026648594
50	0x3b007b28	0.0019604657
51	0xbb3977fc	-0.0028300276
52	0xbad701c5	-0.0016403726
53	0x38cb7374	9.701299e-05
54	0xba03ec2c	-0.0005032446
55	0xba096630	-0.00052413624
56	0xbabb8e53	-0.0014309384
57	0x3a8dfe43	0.0010833222
58	0x3b2e7d89	0.0026625118
59	0x3ab63dd4	0.0013903924
60	0x38482f66	4.772786e-05
61	0xbb1b0c81	-0.0023658576
62	0xba8b0988	-0.0010607699
63	0xbb0a82b7	-0.002113504
64	0xb9d5b76c	-0.00040763186
65	0xbb4fb2ea	-0.0031692334
66	0xbb4f154e	-0.0031598392
67	0x3ab5be2c	0.001386588
68	0x3b09f8cc	0.0021052836
69	0x3a9054b4	0.0011011572
70	0x3b1b562e	0.002370249
71	0x3b175cd5	0.0023096104
72	0x3af94323	0.0019017201
73	0xbb09412f	-0.0020943393
74	0xba8bc8c1	-0.0010664688
75	0xbab4b790	-0.0013787616
76	0xbb402e46	-0.0029324456
77	0x3a09c248	0.00052550854
78	0xba5e5d94	-0.0008482572
79	0xbb4360f4	-0.0029812427
80	0x39e4d6af	0.000436475
81	0xbb3bbbbe	-0.0028645839
82	0xb9144f5b	-0.00014143942
83	0xb9bf9cd4	-0.00036547205
84	0xba248db8	-0.0006277221
85	0x3ac4c7c6	0.001501315
86	0xba6827b5	-0.00088560145
87	0x3b34e12d	0.0027600036
88	0x3a9bbc40	0.0011881664
89	0x3b0c7378	0.002143113
90	0xba4c5a55	-0.0007795443
91	0x3b253894	0.0025210725
92	0xbb057f71	-0.002037015
93	0x3b0d6bb2	0.0021579084
94	0x3b2cdf32	0.0026378152
95	0x38e1ee47	0.00010773219
96	0xbb49186e	-0.0030684727
97	0xba125b17	-0.00055830315
98	0xbaade0a8	-0.0013265805
99	0xba0c2143	-0.00053455326
100	0xbaecbca4	-0.001806159
101	0x3b15c470	0.0022852682
102	0x3b1995e3	0.0023435287
103	0xbb31dab1	-0.0027138407
104	0x3a9c2be9	0.0011914942
105	0x38c026d3	9.162505e-05
106	0xbb462224	-0.0030232752
107	0xbac5c22d	-0.0015087776
108	0xba45b1fb	-0.0007541475
109	0xbaa8ef6f	-0.001288874
110	0xbb0302a3	-0.0019990585
111	0xbaa97866	-0.0012929558
112	0x3b290921	0.0025792795
113	0x3a4effe4	0.0007896407
114	0xbb4cfc23	-0.0031278215
115	0x3b11e8f4	0.0022264095
116	0xbb2ba2c6	-0.002618955
117	0x3a9b77de	0.0011861285
118	0xbb03044b	-0.0019991572
119	0x3abe9860	0.0014541261
120	0x39c90ecf	0.0003834874
121	0xb9499720	-0.00019225152
122	0x3b0e7e5c	0.0021742797
123	0xbb4d59ee	-0.003133412
124	0xbaa9d74f	-0.0012957844
125	0x3af07b81	0.0018347354
126	0x39dd7636	0.0004224048
127	0x3ace7624	0.0015751761
128	0x3a817140	0.000987567
129	0xbb07cb5b	-0.0020720575
130	0x3af01a6c	0.0018318421
131	0x3af00e00	0.0018314719
132	0xbb2835e3	-0.0025666885
133	0x39f41eb9	0.00046562197
134	0x3ab35ff5	0.0013685214
135	0xbad34e49	-0.0016121353
136	0xbb4575a9	-0.0030129945
137	0xbb172106	-0.0023060455
138	0xbb20acb3	-0.0024517
139	0xbaa56afb	-0.0012620384
140	0xba1c8b81	-0.00059717154
141	0xbb3c4df6	-0.0028732992
142	0xbb0809ba	-0.002075775
143	0x3b15e778	0.0022873562
144	0xbae388f5	-0.0017359542
145	0xb9e7f8ba	-0.0004424507
146	0xba9efbe0	-0.0012129508
147	0x3b17d8d8	0.002317002
148	0xb8b0b4d1	-8.426014e-05
149	0x3aa6b061	0.001271736
150	0xba5827ce	-0.00082456775
151	0xbb38afb0	-0.002818089
152	0x3a99093a	0.0011675723
153	0x3a45e146	0.0007548522
154	0xbb1f7915	-0.0024333645
155	0x3b1e87f3	0.0024189919
156	0xbb2105a2	-0.0024570008
157	0x3b2ad763	0.0026068322
158	0x3b25b09e	0.0025282274
159	0x3a19a051	0.0005860376
160	0xb9bbe4e0	-0.00035837945
161	0xbad0d20f	-0.0015931743
162	0xbb12ef26	-0.0022420376
163	0xbb220191	-0.0024720172
164	0x3b2b0251	0.002609391
165	0x3b115e2d	0.0022181377
166	0xbb4c0815	-0.0031132747
167	0xbb253b43	-0.0025212325
168	0xbb15b11e	-0.0022841166
169	0xb9abd366	-0.00032773166
170	0xb9688f7d	-0.00022178698
171	0x39c647a6	0.00037818885
172	0x3a3bd2b9	0.0007164884
173	0x3a3e5358	0.0007260344
174	0x3740d0f3	1.1492742e-05
175	0x3b13f998	0.002257919
176	0xbb13f877	-0.0022578517
177	0xb9e91567	-0.0004445717
178	0xbb49f033	-0.0030813336
179	0xb9add216	-0.00033153658
180	0xb975facb	-0.00023458448
181	0xb8536cf5	-5.0407794e-05
182	0x39194bc4	0.00014619442
183	0xbb12d7e7	-0.002240652
184	0x3b196b90	0.002341006
185	0x3b07d93e	0.0020728852
186	0x3a3525aa	0.00069102144
187	0xbb423ea6	-0.0029639392
188	0x3ae1b842	0.0017221051
189	0x3912958d	0.00013979357
190	0xbb2209fd	-0.0024725192
191	0xba3afae1	-0.0007132721
192	0x3b0d4c3c	0.0021560332
193	0x3af19fcc	0.0018434464
194	0xbb0b2376	-0.0021230853
195	0x3ad9e279	0.001662328
196	0x39375262	0.0001748293
197	0x391b0a1a	0.00014785715
198	0x3af08fdb	0.0018353419
199	0x3a47cdf5	0.00076219375
200	0xbb33586f	-0.0027365943
201	0x39124d17	0.00013952363
202	0x396ae09a	0.0002239965
203	0xbaa388b4	-0.0012476654
204	0x3b00f09f	0.0019674671
205	0xb8fba81a	-0.00011999924
206	0x3b01cb23	0.0019804917
207	0x3b2eca01	0.0026670697
208	0xbae91669	-0.0017783168
209	0xbaade5d0	-0.0013267342
210	0x3b20317e	0.0024443562
211	0xbb1caf00	-0.002390802
212	0x3b355bf3	0.0027673214
213	0x3b0645d0	0.002048839
214	0xba7a1ec5	-0.0009541328
215	0xbb0db954	-0.0021625357
216	0xbad4ac8f	-0.0016225743
217	0xbb092fe7	-0.0020933093
218	0x3afbda7e	0.0019214896
219	0xbb317713	-0.002707903
220	0xbb4d1ac4	-0.003129647
221	0x3b07b16e	0.0020705122
222	0x3b2f85b7	0.002678258
223	0x3af83504	0.0018936698
224	0xbb4b6da5	-0.0031040695
225	0x3aa585f2	0.001262842
226	0xbb05a41d	-0.0020392009
227	0xbb339f11	-0.0027408043
228	0xbac73ad6	-0.001520003
229	0x3ab693cd	0.0013929546
230	0x3ab40b0e	0.0013736205
231	0xb91dddfb	-0.00015055381
232	0x3842a964	4.641096e-05
233	0xbb33dc51	-0.0027444551
234	0xba90a4d6	-0.0011035453
235	0x3b36b2d2	0.0027877581
236	0xbb462321	-0.003023334
237	0xbb074734	-0.0020641806
238	0x3b1c5a79	0.0023857637
239	0x3b0213dc	0.0019848263
240	0xbacfbb30	-0.0015848633
241	0xbb43d7af	-0.0029883196
242	0xb970b5f3	-0.00022955965
243	0xb9ae56e2	-0.000332526
244	0xbb080d75	-0.0020759974
245	0x3b21bc48	0.0024678875
246	0x3b10e661	0.0022109973
247	0x3b1022f4	0.002199349
248	0x3a9b07f9	0.0011827938
249	0xbadabd71	-0.0016688538
250	0xb9231eb2	-0.00015556326
251	0xbadf1347	-0.0017019295
252	0x3a31a34c	0.0006776347
253	0x399c51b3	0.0002981551
254	0x3a1114ca	0.0005534409
255	0xba67eb26	-0.00088469905

fc3.bias f4 [2]
0	0x3d128c3a	0.03577826
1	0xbd06c410	-0.032901824
