projects/tennis/checkpoint/E17/E17.05_critic1_10000.pt (torch_old, 502006 bytes, 9 tensors)

fcs1.weight f4 [400, 48]
00000000: db88 263d 3573 013d 9ae3 c63c 717d 56bb
00000010: f0d9 f5bb e326 f5bc 7899 e23c 89c9 85bc
00000020: d67e 233d c38b 173c c0a1 423d d895 f93c
00000030: 9911 403b 2bf3 393d 5830 33bc c2e6 853c
00000040: 2115 92bc 21b7 4abd a3ac dc3c e04b d5bc
00000050: 104e 33bd 2fd8 3f3d 110d d03c 3a9f 1ebd
00000060: ff46 1cbd 9f69 16bd 3fe8 c5bc e782 363b
00000070: 2e0d be3b 0684 8fbc b1d5 f33c f86c 973c
00000080: 8227 b8bc 89f4 3f3d 6926 f5bc b0e9 12bd
00000090: 189e 0abd 6412 fd3b c2ee 033d ee63 11bd
000000a0: 1935 d2bc 664d 5ebc 2295 01bd b9f6 923c
000000b0: 45e4 ac3c 4e27 25bd 319b 1e3d 9ed0 66bc
000000c0: 9cfb d3bc 5e0d e43b f794 413d 4bbb 99bb
000000d0: c4dd 1c3d ce29 173c 03aa b23a 85b6 e2bc
000000e0: 2a75 853c 305d 0fbd 1242 41bd 7183 c5bc
000000f0: a717 22bd 6e54 d43c 6c3a f63c ede0 f6bc
00000100: dda0 5d3c 0687 68bc e9cf f6bc 749a f83c
00000110: 9440 b5bc 4ea4 1a3c 4dea 023b 5d52 f3bc
00000120: 759b 0c3c 34b6 393d 0fc3 22bd 87a1 263c
00000130: 4015 96bb 0147 88bc 6b46 383c 48dc 023d
00000140: ea55 10bd cd78 0e3d 33bf 853c cb79 833c
00000150: 1af4 d6bc 8951 153d dddc f53c 4f96 2b3c
00000160: 8d6d 353c 9486 04bb d086 24ba bab1 163c
00000170: e864 183d 5e9f d13c 5d47 3f3d a124 9abc
00000180: 76eb 2c3d 69af be3c db29 03bd fbb3 043d
00000190: 39cd 40bd 700f 453d b3c8 47bd 5928 91bc
000001a0: 88cf 2cbd bda2 b93c 597b 37bd acde 2e3c
000001b0: daf3 203d fc49 96ba 2c1b 8e3c d76b 27bd
000001c0: 8acd e8bc 3507 cdbc 1b32 1ebd a57c 5b3c
000001d0: 7397 a33b 3e5b 39bd 8299 e43c c490 443d
000001e0: f984 1fbd d1fd 093d 44a4 8ebc eb87 30bd
000001f0: 4d0e e03c 609d d9bc 56fe b53b 6593 e5bb
00000200: 7a67 08bc eac8 b73c 3837 2b3d 78e4 aaba
00000210: 707d 63bc 04a3 95bc c65d 82bb eddc c93a
00000220: 63c4 cc3c c7a5 203d 726d 443d 5aad 36bc
00000230: 1950 09bd 89c1 bebc 2356 ae3c a568 36bd
00000240: 5bfc 88bc 7eaf 093c 28ee 97bc ca3f d23c
00000250: 9ea3 683b 4415 883c b225 12bc 307b e8bc
00000260: 2727 b23c 6753 a6b9 4df6 5bba 634b a5bb
00000270: c30e 873c 2bba 99bc 2bcf 3dbd 08eb 15bd
00000280: b68f 2bbd 68b5 34bd 734f 0cbd 13ae 8bbc
00000290: 314e 92bb f77a 073c 7d37 aa3c c63c e3bc
000002a0: a8f0 083d ba57 3abc 4284 41bd f894 4cbb
000002b0: b29a 06bd 4ce3 8cbc ac7d 243c 84a9 f03c
000002c0: 20ad 243d 861f e7bb fecd 20bd e2e1 0e3b
000002d0: 4725 d33c 4b9a 443d 1362 a23c 4cea a53c
000002e0: 71a2 393a a22e f73c d015 453d bd48 323d
000002f0: 723d 1dbd 9f13 c33c a5ca 1cbd c891 f3bb
00000300: 76cc 473d 9393 203d 51d0 44bd 9fb3 96bc
00000310: 5718 3bbc 0a29 4cbc ec67 aebc 8c37 9d3b
00000320: 69a7 f53c a145 99bc 4bfb 273b 66f8 59bb
00000330: 7537 2dbd bad6 20bd 67de 803c fd35 373d
00000340: 0775 2f3d 4ad6 183d 407d 74bc 3935 23bd
00000350: 2f42 4fbc e5a9 e7bc c6fa 163d 70fa 133d
00000360: f70e 1b3d 9bec 003d fe36 a83c 212b 083d
00000370: 1694 8ebc 4239 6abc 702b 99bc 138c 4dbc
00000380: cb43 b73c 4726 b03c a4c3 2c3d c5f0 4cbc
00000390: 6456 f2bc daaa babc e1fc 913c aab0 dc3c
000003a0: f90a dabc f81f fcbc f086 02bd 60ec 08bd
000003b0: 0642 ba3b 3802 d1bc 1205 63bc 6b14 3fbd
000003c0: 20fa 4cbd 1878 c8bc e6a3 0dbc 9c85 873b
000003d0: 51d2 22bd 0d1f 263d 57e8 68bc 4f1d 28bc
000003e0: de67 243c e4fc 11bd 9f4a 44bc 8abb 063b
000003f0: aa15 d03c f812 e5bc 1f24 363d 8ba3 b83c
0.04065786 0.03160401 0.02427845 -0.0032728577 -0.007502787 -0.02992577 0.02766107 -0.016331451
0.039915882 0.00924963 0.047517538 0.030466959 0.0029307364 0.04539792 -0.010936819 0.016345385
-0.01783234 -0.04949105 0.026937788 -0.026037157 -0.043775618 0.046837028 0.025396856 -0.03872607
-0.038153645 -0.036721822 -0.024158595 0.002784902 0.005799911 -0.017519008 0.029764982 0.018484578
-0.022479776 0.046864066 -0.029925542 -0.035867393 -0.033842176 0.0077231396 0.03221012 -0.03549569
-0.025660085 -0.013568258 -0.031636365 0.017939912 0.021104941 -0.040320687 0.03872222 -0.014087824
-0.025876813 0.0069596013 0.047261205 -0.0046915165 0.03829743 0.009226276 0.001363099 -0.027674923
0.01629122 -0.03500098 -0.04718215 -0.024110528 -0.039573338 0.025919165 0.030057155 -0.03013655
0.013527122 -0.014192348 -0.030128436 0.030347086 -0.02212552 0.009438587 0.001997608 -0.02970236
0.008581986 0.045339778 -0.039736804 0.010170347 -0.00458017 -0.01663542 0.011247258 0.031948358
-0.035238184 0.034783173 0.016326522 0.016049286 -0.026239444 0.03645471 0.030012542 0.010472848
0.011073482 -0.0020221816 -0.0006276192 0.009197647 0.037205607 0.025588688 0.046698917 -0.018816294
0.04221674 0.023277001 -0.03202234 0.032398205 -0.047070716 0.048110425 -0.048775386 -0.017719435
-0.042190105 0.022660607 -0.044795368 0.010673206 0.039295055 -0.0011466141 0.017346941 -0.04087433
-0.028418321 -0.02502785 -0.038622003 0.013396417 0.0049924194 -0.04525303 0.02790523 0.04798962
-0.038945172 0.033689324 -0.017412312 -0.04309837 0.02735057 -0.0265643 0.005554001 -0.007006096
-0.008325452 0.02243467 0.041800708 -0.001303806 -0.013884887 -0.018266208 -0.003978464 0.0015400924
0.024995988 0.039220598 0.047955938 -0.011149729 -0.033523653 -0.023285644 0.021281308 -0.04453339
-0.016721895 0.008403657 -0.018546179 0.025665183 0.0035497914 0.016611703 -0.00892012 -0.028379053
0.021747185 -0.00031724127 -0.00083908887 -0.005044387 0.016486531 -0.01876553 -0.04634015 -0.036601096
-0.0418851 -0.044118315 -0.034255456 -0.017050778 -0.0044648875 0.008269063 0.020778412 -0.02773894
0.033432633 -0.011373455 -0.04724527 -0.0031216722 -0.032862373 -0.017198227 0.010039728 0.029377706
0.040204167 -0.0070533184 -0.03925895 0.0021802117 0.025774611 0.047998708 0.019822156 0.020253323
0.00070813956 0.030173603 0.048116505 0.0435264 -0.038388677 0.023813067 -0.038279194 -0.00743315
0.048778974 0.039203238 -0.04805023 -0.018396197 -0.011419377 -0.012460956 -0.021289788 0.0047978815
0.029987054 -0.01870996 0.002563196 -0.003325963 -0.042289216 -0.03926728 0.01573105 0.04472922
0.042836215 0.037313737 -0.01492244 -0.03984568 -0.012650057 -0.028279254 0.03686025 0.036127508
0.03785607 0.031475645 0.020534035 0.033244256 -0.017404597 -0.014295878 -0.01869747 -0.012545603
0.022371193 0.021502627 0.042178765 -0.012508576 -0.02958221 -0.022786546 0.017820777 0.026939709
-0.02661656 -0.030776963 -0.031866968 -0.03342855 0.00568414 -0.025513753 -0.013856189 -0.04665033
-0.050043225 -0.024471328 -0.008645033 0.0041358005 -0.039751355 0.040556956 -0.01421555 -0.010260894
0.0100345295 -0.035641566 -0.011980682 0.002055856 0.025400955 -0.027963147 0.04446804 0.02253892

fcs1.bias f4 [400]
00000000: 6a46 7e3d 8641 2f3d 0424 41bd 62ed 103e
00000010: d92f fc3c dd2e df3c 02f6 c9bd 0080 943d
00000020: c380 453d 2ae7 203d 2cbe bd3d a8ea 65bd
00000030: c3ac b0bb 855d 0cbe a8c4 efbd 5ed8 2ebd
00000040: 9537 e43d 5b86 e3bd ceb3 093e e7b0 483d
00000050: 75f8 0bbe 89cd c6bd f82c f33d c976 d6bb
00000060: f4e0 e9bd 62b8 573d 56ee f0bd eda7 923d
00000070: c666 91bd 286e 2ebc 581e 183d eafd f23d
00000080: 43bf 07be 71f0 cd3d 5015 14bd 96f0 303d
00000090: 5811 7e3c ea07 9abd 798b 243d 9066 563d
000000a0: cda4 00be 6f45 d2bd 76ed b53d 57c4 46bd
000000b0: c74c c0bd c428 8d3c a903 933d 0f0d f6bc
000000c0: b12d 6d3c bb56 003e 4e47 f53d 630f c0bc
000000d0: 72fb 33bd a9a0 bc3d 8b21 03be f9a7 10be
000000e0: 151a 06be 0b39 b33d 80b9 07be 58bb b43d
000000f0: 072f 3a3c 7ba6 643d 428a 01be ebfd b13c
00000100: 63dd 053e e2e5 b03d 86c3 2cbd 2bd9 1abd
00000110: bf86 01be 5dd5 e43d f9d4 c2bd 396f ccbd
00000120: ed96 96bd 4fc8 d5bd 1cac ec3d 2140 06be
00000130: 5b99 f5bd 386a 3e3c e3a5 0d3e b0da ffbd
00000140: 8fcb d23d fa30 3f3d e60f d73c aa85 593d
00000150: 40ae c93d 7fca 833c d070 d73d 0a88 d2bd
00000160: 20a3 0a3d 53e3 14bd cb1c 49bd 41b5 fbbd
00000170: 8e05 4cbc e685 513d 922e fa3d d586 893d
00000180: b5a4 b73d a1af 9ebd 26b1 c03c b119 b8bd
00000190: 0a47 de3b 03cb 8abd c672 fdbd 668f 0e3e
000001a0: e795 9bbd a872 fe3d c90d 1fbd f539 023e
000001b0: 4e70 7ebd cd90 bebd 18a6 f4bd e0d7 babd
000001c0: 7d55 c43d d706 a43d 8464 03be 1d3c d7bd
000001d0: db39 ab3d 5e2d 4e3d cd27 10bd c543 05be
000001e0: f7f8 ba3c 6960 12be f731 0b3e 83a3 e3bd
000001f0: 4ac1 10be 38e9 f73d 4949 b0bd e1d9 f23d
00000200: 3abb 04bd a96a 35bb d37b 5f3d f765 fe3d
00000210: f9e4 b83d 58f1 07be f331 443d 88c5 52bd
00000220: cd5a 0bbe 2f33 593d 0abf cf3d e331 e3bd
00000230: 40b1 1a3d d05f 093e 0d44 773d 0f1a ef3d
00000240: db33 173d 446e 91bd 9c4a 7ebc 4f95 f7bd
00000250: 2c5e e3bd ad6f d2bd 4571 843d 8de8 c53d
00000260: f34b 113e b248 0ebe 9716 76bd f4bc aa3d
00000270: 62ac 88bc 2bb8 643d c8b7 94bd d44f 87bd
00000280: 6f8c b8bd 9c8b dbbd 142a 0abe 6a9e cb3d
00000290: 6a7c af3c 80c6 bc3d cd2e 8c3c e982 3abd
000002a0: 8738 c2bd 9260 a7bd c1e5 833d fa51 93bd
000002b0: 872f 0b3e 185e 4f3d 70eb 2c3d 8004 2abd
000002c0: c9d9 863d 216b ffbd 0198 2d3d 506e 2ebd
000002d0: 6518 d93d be8c c43c da63 3f3c 9011 45bb
000002e0: cc6a 9fbd a87e 13be 515d d43d 941e c2bd
000002f0: 79c9 ce3c 8386 12bd 42bd 12be dda8 773c
00000300: fa84 48bc 66b3 b43d 66cb 503c e431 bc3d
00000310: 0e3b e1bd 08cd 1e3d 332e a9bd 33f3 df3d
00000320: 7abb 7a3c 268c 323d 0efc c83d 68df ecbc
00000330: 6e50 b1bd 2e0e 08be 32ee c83d 941f 9abc
00000340: 7f99 0bbe a70b b63c 8682 953c d938 093e
00000350: 2820 b33d 9437 07be 0c91 7d3d 3e53 083d
00000360: bf6a 97bd 5d98 b93d 3648 ec3d 171c 9abd
00000370: 6da6 e9bd 8ed9 03be d3c4 003e f590 fdbd
00000380: fa4b d4bd 3cde 07bd 79ea afbd cb54 203d
00000390: 06ab f23d d8a8 483d 3fc0 b93d 7870 cf3d
000003a0: eabc 003d fc21 b03d fd27 933d 1da4 2a3d
000003b0: a574 c8bd 548c 9ebc cc8a c83d a856 bbbd
000003c0: 4114 13be 13b7 e9bd 1da5 85bd 1a66 abbb
000003d0: 0336 0cbe 13e1 bfbc f4cc f8bc bd2a e53d
000003e0: bb09 36bc ff75 9abd c9a9 473d 025f 903d
000003f0: 06ef fcbd 7da5 ed3d 6273 8cbd 65c3 0f3e
0.06207887 0.042787097 -0.047153488 0.14153054 0.030784534 0.027244026 -0.098613754 0.072509766
0.0482185 0.039282955 0.09264788 -0.05613199 -0.0053916886 -0.1370755 -0.11707431 -0.042686813
0.11143414 -0.11109611 0.13447496 0.048996832 -0.13668998 -0.097071715 0.118738115 -0.006544922
-0.114198595 0.052666076 -0.11764209 0.071609356 -0.070996806 -0.0106463805 0.037138313 0.118648365
-0.13256554 0.10055626 -0.036153138 0.04319819 0.015507065 -0.07521041 0.040172074 0.052343905
-0.12562867 -0.1026715 0.08883183 -0.048527088 -0.09389644 0.017231353 0.071784325 -0.030035524
0.014476226 0.12533085 0.11976491 -0.023444837 -0.04394097 0.09210331 -0.12805764 -0.14126576
-0.13095887 0.087511145 -0.13254356 0.088247955 0.011363751 0.05582283 -0.12650397 0.021727523
0.13072734 0.08637597 -0.042178653 -0.037804764 -0.12649058 0.11173508 -0.095132776 -0.099821515
-0.073530056 -0.104385965 0.11556265 -0.131104 -0.11992141 0.011622004 0.13832812 -0.12492883
0.10292732 0.046677567 0.026252698 0.053105988 0.09847689 0.016087769 0.10519564 -0.10279854
0.033846974 -0.036349606 -0.049099725 -0.12290431 -0.012452496 0.051153086 0.12215914 0.0671517
0.08966962 -0.07748342 0.023521971 -0.08989275 0.006783371 -0.06777003 -0.12375407 0.1392189
-0.07596951 0.12424213 -0.038831506 0.12717421 -0.06211882 -0.09304962 -0.11945742 -0.09123206
0.09586618 0.08009117 -0.12831312 -0.105095126 0.083606444 0.050336234 -0.035194207 -0.13014133
0.022823794 -0.1429459 0.13593279 -0.11115172 -0.14136234 0.1210503 -0.08607728 0.11857963
-0.032405116 -0.0027681983 0.054561447 0.12421792 0.09028048 -0.13275659 0.047899198 -0.05145791
-0.13608856 0.053027328 0.1014386 -0.110934995 0.037766695 0.13415456 0.060367633 0.11674892
0.036914688 -0.071011096 -0.015520718 -0.12089025 -0.11101946 -0.10275207 0.06466917 0.09663496
0.14189129 -0.13894919 -0.060080137 0.08336821 -0.016683761 0.0558397 -0.07261616 -0.06607023
-0.090111606 -0.10719988 -0.13492614 0.099423245 0.02142163 0.09217548 0.01711216 -0.045535002
-0.09483438 -0.08172716 0.064403065 -0.0719337 0.13592349 0.050626844 0.04221672 -0.041508198
0.06584508 -0.12471605 0.04238129 -0.04258567 0.10600356 0.023992892 0.011681521 -0.0030070283
-0.07784042 -0.14403784 0.10369361 -0.094784886 0.025242554 -0.03577281 -0.14330009 0.015115944
-0.012238735 0.0882328 0.0127438065 0.091892034 -0.10997592 0.03876975 -0.08260765 0.109350584
0.015303487 0.043590687 0.098137006 -0.028915122 -0.08657919 -0.13286659 0.09811057 -0.018813886
-0.13632773 0.022222353 0.018250715 0.13400592 0.08746368 -0.13204795 0.061905906 0.03328251
-0.07393407 0.09062264 0.11537211 -0.07524889 -0.11408696 -0.1287596 0.12575082 -0.12381164
-0.10366054 -0.033170924 -0.08589644 0.039143365 0.118490264 0.048989147 0.09069871 0.101288736
0.031430162 0.08600232 0.071853615 0.041660417 -0.09787873 -0.019354023 0.097920984 -0.09147388
-0.14363195 -0.11411872 -0.065256335 -0.0052306773 -0.13692479 -0.023422753 -0.030371167 0.11189792
-0.011110718 -0.07542037 0.048745904 0.07049371 -0.123502776 0.1160383 -0.06857945 0.14039381

fc2.weight f4 [256, 404]
00000000: db9a c5bc 6dd0 dd3c 63f2 3fbc 4ec9 66bd
00000010: f4cc 273c 423e ffba 45f8 ed3c 6732 8c3c
00000020: 545b 5f3d 6c81 d2bc 2d14 af3b a83a 253c
00000030: 4cdb 3b3d 98d8 34bd f3ac 8cba 7fb1 4c3c
00000040: bffa 34bd fe47 2cbd b553 58bd 26e0 33bc
00000050: 3ed0 19bd cf81 c93c 1698 923b d9d2 733c
00000060: 9a0f 753c 1992 1e3d 229d 28bd 4c83 4ebd
00000070: f10b 843c 55ed 54bc 7aff f6bc 9f25 90bc
00000080: df21 603d a097 7bbd 8f53 fc3c 399b 473d
00000090: 96e8 0f3d 5a53 5abd 2485 0dbd 0203 a03c
000000a0: 0c39 073d 79c6 223d eb2e 0a3c 1454 0bbd
000000b0: 8f24 ffbc c107 953c d7ec 5e3d 799d 2cbd
000000c0: 4ef4 edbb 22d9 a4bb c9a3 e03b e7b4 343d
000000d0: 2b87 f23c b881 46bd 7b9e 41bd 8da6 09bd
000000e0: 4795 7cbb 66c8 133d 5b8b 39bd 195e 6d3d
000000f0: acf3 65bd d6b6 25bd 953f ef3b 0732 0b3d
00000100: bd29 f6bc 4959 113c 8ad0 b93c f137 69bd
00000110: 26e9 cbbc 0bba 2ebd c915 26bd c7fe e13c
00000120: 1b24 683d 7f29 633c 352f 5c3d 4b20 48bc
00000130: 5d10 023d 77a2 203d 9c6b 6abd 22e2 fbbc
00000140: a090 fabc 8b23 e8bc 7aa0 49bd 8dc6 623d
00000150: 555f e9bb f5fa 323d b798 493d 3d23 003d
00000160: 0089 4b3d 7629 7d3d b9ee 883c cfb3 5fbd
00000170: e142 61bd 76ca 7c3d f4a5 da3c 71ee c6bc
00000180: a0fd 2dbb 3cbb 2fbc 7e85 4d3d ac99 7cbc
00000190: 9fdf 6fbd 6e05 abbc a215 2abd c798 693c
000001a0: 3277 26bd ac7c be3c 3507 243a 9aa6 773c
000001b0: 810f 763d 186d 1cbd ef0b 4d3c 50ac 803a
000001c0: 1897 013d 7de8 4d3d 3c0b 7abd f2d1 3ebd
000001d0: 97fa 123d 3c91 22bd bab9 f23c a82f 463d
000001e0: 95fa 433d 6273 32bd 8987 4d3d e1b1 393d
000001f0: dc46 623d ba23 3d3d 37ae 513d d9ef 733d
00000200: 7c0b a6ba 258a 01bd 777c 0dbb 84b0 a13b
00000210: 0d92 06bd 076a e8bc a7fe 02bd 5e46 55bd
00000220: 09fa 143b f13b 30bd ab8a 68bd d0c4 6a3d
00000230: f8c1 383d b98a cdbc b163 6c3d 7469 653d
00000240: 0c64 7c3c 6a8c 113d cec2 29bd 439f 5d3d
00000250: 69e6 63bc 5ffc 7e3d 5f93 15bc 6dd6 463d
00000260: 54c4 273d 4379 013d d81d 0c3d 65f9 bd3c
00000270: c2c4 7c3d 039b 793d 0676 56bd 44b7 0dbd
00000280: 1b96 6d3d e537 9fbc c1c5 cd3c 6ec1 f7bb
00000290: 13a3 063d e1aa 333d 6c1c e6bc 9b0c cabc
000002a0: 1e4d e8bc 6ede a43a 4eab 0f3d 79aa 313a
000002b0: e478 6939 9353 f6bb c652 323c 305c d43c
000002c0: c2d3 2abd 66db 003c 4e9a 88bc 65e3 86bb
000002d0: c12c 213c 75f0 733d dcf3 34bc 466e 27bd
000002e0: 39de 30bc 7b37 133d 260e fd3c c24f 37bd
000002f0: 32d5 99bc 3003 73bc f639 d0bc d335 553d
00000300: 50d9 183d 7980 fa3c 4255 7a3c ea36 93bc
00000310: 9ea0 113d 569f 023d dc1b 773d 5d7e 29bd
00000320: dc0a c5bb 8086 b3bc 8fc2 db3c 6575 a43c
00000330: cc4d 0cbd 6afa 553d c98f 753d f6d6 0dbc
00000340: 294c 6a3d 48b7 cb3b bced a7bc 3ca8 223d
00000350: 99af 5b3c 8356 423c e5d6 1a3a 69a3 213d
00000360: aa83 7dbd ba9c 0e3d 0010 27bd 0258 45bd
00000370: 976f 873c 5990 3fbd 41e1 4c3d 6e29 fa3c
00000380: 4c22 a7bb 6b86 90bc 85de 5e3d bd51 afbc
00000390: 40e1 4c3d 0357 6f3d 843e 16bc bfe3 97bc
000003a0: b8eb 2b3d c6dd c43c 6674 24bd df93 0d3d
000003b0: 598d 453d 5611 8abb 4893 3b3c 24c0 303d
000003c0: 4304 74bd 4f6e 62bd 0bca 4f3b 0067 7bbd
000003d0: 271b 223c c685 f43c 9ee4 62bd c521 eabc
000003e0: 48aa 693d 438c 30bd fcd0 afbc a473 503d
000003f0: 6c3d 7ebb 6e35 40bc 4a78 5abc 7e2d 7fbb
-0.024121692 0.027076924 -0.011715504 -0.056344323 0.010241736 -0.001947351 0.029049048 0.017113877
0.054530457 -0.025696479 0.0053429813 0.0100847855 0.045863435 -0.044151872 -0.0010732695 0.01249349
-0.044184443 -0.042060845 -0.052814204 -0.010978734 -0.03755211 0.02459803 0.0044736965 0.014881813
0.014957333 0.03871355 -0.04116548 -0.050418183 0.016118975 -0.0129960375 -0.030151118 -0.017596064
0.054719802 -0.061423898 0.030801563 0.048732016 0.03513392 -0.053302146 -0.0345508 0.019532684
0.03301339 0.03974006 0.008434038 -0.03401573 -0.031145362 0.018192174 0.054425087 -0.042142365
-0.0072617894 -0.005030767 0.006855462 0.044117834 0.029605469 -0.048463553 -0.04727028 -0.0336061
-0.0038541125 0.036079787 -0.045298915 0.057951067 -0.056140587 -0.04045757 0.0073012807 0.033983257
-0.0300492 0.008871385 0.022682447 -0.056938116 -0.024891447 -0.042657893 -0.04054812 0.027587308
0.056675058 0.013864874 0.053755958 -0.0122147305 0.031753886 0.03921744 -0.05723153 -0.030747477
-0.03058654 -0.02833726 -0.049225308 0.055365134 -0.00712196 0.043696363 0.049217906 0.031283606
0.0496912 0.06180712 0.016715394 -0.05461484 -0.05499542 0.06171652 0.02669046 -0.02428362
-0.0026548877 -0.0107257925 0.050176136 -0.015417498 -0.05856287 -0.020876613 -0.041524537 0.014257616
-0.040641017 0.023252808 0.00062571774 0.0151154045 0.06007338 -0.038189977 0.012515052 0.0009816978
0.031638235 0.050270546 -0.06104587 -0.04658694 0.035883512 -0.039689288 0.029629577 0.048385292
0.047846396 -0.04356707 0.050178085 0.045335654 0.055243358 0.04617665 0.051191535 0.05955491
-0.0012668218 -0.031625886 -0.002158908 0.0049343724 -0.03285413 -0.02837087 -0.031981137 -0.05206906
0.002273204 -0.043025915 -0.05677287 0.0573166 0.045106858 -0.025090562 0.05771226 0.05600877
0.015404712 0.0355343 -0.041445546 0.054106962 -0.0139099145 0.0622524 -0.009129374 0.048544336
0.040958717 0.031609785 0.03420815 0.02319021 0.06171108 0.060938846 -0.05235865 -0.034598604
0.05800448 -0.019435832 0.02511871 -0.0075609004 0.032870363 0.043864135 -0.028089724 -0.024664214
-0.028357085 0.0012578496 0.03507548 0.00067774166 0.00022265647 -0.007517287 0.010883993 0.025922865
-0.041705854 0.007864809 -0.01667514 -0.004116463 0.00983733 0.05955549 -0.011044469 -0.04087665
-0.0107951695 0.035941582 0.030890536 -0.044753797 -0.018778417 -0.014832303 -0.025418263 0.052053284
0.03731662 0.030578839 0.015279116 -0.017970521 0.035553567 0.031890236 0.060329303 -0.041380275
-0.0060132574 -0.02191472 0.026826171 0.02007551 -0.03425388 0.052240767 0.059951577 -0.008657208
0.05720154 0.006216917 -0.020499103 0.039711222 0.013408565 0.011861446 0.00059066556 0.03946248
-0.061893143 0.034817435 -0.040786743 -0.048179634 0.016532702 -0.04676852 0.050019506 0.030537333
-0.005100524 -0.01764222 0.05441143 -0.02140128 0.050019503 0.05843259 -0.009170178 -0.018541215
0.041972846 0.024031531 -0.04015007 0.03456485 0.048230503 -0.0042134924 0.011448689 0.04315199
-0.059574377 -0.05528098 0.003170612 -0.061377525 0.009894169 0.029848944 -0.055393808 -0.028580556
0.05704716 -0.043102514 -0.021461956 0.050891533 -0.0038793935 -0.011731489 -0.013334343 -0.0038937028

fc2.bias f4 [256]
00000000: f3d4 a4bc c4f0 083d 0954 73bc fa39 36bd
00000010: 1424 033d 84e4 06bd 707a 4abc 27ee 30bd
00000020: 5363 583c 988d 31bd fd9a 083c 51b0 24bd
00000030: b38c e13c 3b9c 453d 7d01 2bbd acb3 f23c
00000040: cc4f 82bc 2c6a d53b 26e9 953b a2a6 0cbd
00000050: 06fe 983b 5d90 433d 2642 0b3d 7b14 c93c
00000060: ab0f 183d 74c4 ef3b c531 52bc 4eb9 ce3a
00000070: 766f 04bc b417 27bc e0e6 3bbd 3fe9 7d3c
00000080: 2efc 4abd 0228 8bbc 8576 45bd f1af 24bd
00000090: 1d5c 8bbc e8ed 193d e4ec bebc bac8 033d
000000a0: 4cc4 b4bb c218 d4bc 566f 21bd f892 853c
000000b0: 6931 42bd 026e 10bd 2bd0 d9bc bf94 843b
000000c0: 70ae 393c 85bf 023d edcc 083d 6501 e9bc
000000d0: 3984 3c3d c139 b23c 32e4 a8bc 7797 0c3d
000000e0: e399 b83c d32b 183d 2f23 0dbc e259 b3bc
000000f0: 46c5 17bc 44c5 433c 37ab c43b 9e4d e13c
00000100: 7a76 d23c 223f afbc a7bf 7abb 16cb 253d
00000110: 832c 8fbc 1410 423d 1d25 44bd 5f2e e33b
00000120: afbc c4bc 7105 cf3c 20e2 363d cf07 36bc
00000130: 4191 e53c 3786 29bc 6cd0 7ab9 0152 08bd
00000140: 1285 94bc be58 e6bb 025f 2f3d 41c5 17bd
00000150: 76dd 75bc 5795 e83c 916c e6bc 0017 1a3d
00000160: 56db aabc 6071 9f3c 1605 55bc 2f04 a23c
00000170: e5a7 963c 0abb a13c 0671 acbc 5ec2 cabc
00000180: 6ed7 cebc 6382 123c adef e4bc 8814 6f3c
00000190: 3847 0cbd 9952 1abd 9cac fc3b f343 90bc
000001a0: dc6e 103d d10b febc f376 02bc 8246 69bc
000001b0: 078e 033d 3b20 3a3c 272b a23b 73a1 8eba
000001c0: eb42 ad3c 6bc3 2fbd 50e4 97bb 6ce3 1c3d
000001d0: 4501 dcbc 502b 9fb9 afdf b03c 8b02 193d
000001e0: ea32 643c ae26 e6bc 975e c93c c659 18bd
000001f0: 6ac5 0bbc 6245 17bd 61f1 18bd 79e4 3f3d
00000200: cb4c 31bd ca49 e5bc ef4b 21bd e6d9 a23c
00000210: ad58 26bd 8b1a e03c b1ac 13bd 1152 d9bc
00000220: 0b77 4bbc ca33 3d3b e0e1 623c fdbd e2bb
00000230: 5a10 223c 7f2b acbc 0d45 34bd 75ae c0bc
00000240: 93ac 3a3b ac52 a0bc 258b 37bd abd2 3cbd
00000250: 458a 00bd d7e8 24bd f170 e9bc 7950 62bc
00000260: 0f83 c63b 83dc f4bb 78d6 25bc b4a7 fb3c
00000270: 60fa c43b 5cbf a8bc f9a2 3ebd 4c33 193d
00000280: fff3 173d 6c84 7dbc 1eb3 263d 46fd f53c
00000290: c547 d1ba 69e3 7f3b b303 313d 52fa 403c
000002a0: c0b2 85bb 3bf7 7b3c d1d4 67bb 506f d8bc
000002b0: 451b e33c 426a a03c fb4b cfbc cddb 53bc
000002c0: 3de1 753b 00cb 483d c890 093b f4cf 8a3b
000002d0: 2dd5 703c 43f0 20bc 13a1 a1bc 2291 2fbd
000002e0: 8c51 283d e403 5c3c 8a1d 0abd 6cec d7bb
000002f0: 2411 d7ba 3840 3b3c 9bd5 253c 6232 303c
00000300: b41d 0a3d f4e5 1ebc 0d5e d23c 0c79 84bb
00000310: e11a 3cbd 9a9b b13c 31a8 063d a199 4bbc
00000320: 10b2 b1bc 4cd8 6cbc 63d0 46bc 5736 3e3d
00000330: 9089 45bd a59c 7cbc 5eda 22bd 5f88 95bc
00000340: ee1e 043d f048 183d ecf0 083d f12b 1d3d
00000350: 5eb5 623c aada d53c 738a 63bc c42e b4bc
00000360: 9048 c6bb 5864 28bb 1218 dbbc a8f1 90ba
00000370: b1de 1d3d 3790 3bbd 422c 0439 b6ef c9bc
00000380: 345a 323d 607e c2bc 30f8 2e3c 34b4 873c
00000390: 01d4 c63c bf39 f33b d2a4 9f3c c4f2 73bc
000003a0: c612 1ebc 967e b23c ba4f 9ebb d3d9 05bd
000003b0: 149e 9c3c cae8 023d 4f70 7cbb 47d8 133d
000003c0: f2d1 2b3d 5bc2 a3bc f4e6 9fbc b959 1e3d
000003d0: 3dec 113d 9fe0 4ebb 5afe efbc c1c7 ecbc
000003e0: 5852 86bc 3bcd 003d 7732 ba39 2076 b03b
000003f0: cd24 2cbd d7e3 be3c fd87 f4bc e25a 16bd
-0.020121073 0.033432737 -0.0148515785 -0.044488885 0.03201683 -0.032932773 -0.012358293 -0.04319587
0.0132072745 -0.043347925 0.008337733 -0.04020721 0.02753291 0.048244696 -0.041749466 0.02962669
-0.01590719 0.006512901 0.0045749126 -0.0343386 0.004668954 0.047745097 0.03399863 0.024545899
0.037124317 0.00731712 -0.012829249 0.0015771778 -0.008083215 -0.010198522 -0.045874476 0.015497505
-0.049556904 -0.01698685 -0.048208732 -0.040206853 -0.017011696 0.0375804 -0.023306318 0.03217385
-0.0055165645 -0.025890712 -0.03941282 0.016305432 -0.047410402 -0.03526116 -0.02658852 0.004046052
0.011333093 0.03192093 0.033398557 -0.028443048 0.046024535 0.021756055 -0.020616625 0.034324136
0.022534316 0.03715117 -0.008614345 -0.021893445 -0.009263342 0.011948887 0.0060018557 0.027502831
0.02569126 -0.021392409 -0.0038261206 0.04047688 -0.01747728 0.047378615 -0.047886956 0.006933018
-0.024015753 0.02527115 0.044649243 -0.01111026 0.028023364 -0.010346941 -0.00023919501 -0.03328133
-0.01812986 -0.007029622 0.042815216 -0.03705335 -0.015006414 0.028391523 -0.02812794 0.03761959
-0.02085654 0.019463241 -0.013001701 0.019777386 0.018390605 0.019742507 -0.021049988 -0.024750885
-0.02524921 0.008942219 -0.027946318 0.014592297 -0.034247607 -0.037676428 0.0077110063 -0.017610526
0.035261974 -0.031011494 -0.00796293 -0.014238002 0.03211787 0.011360223 0.004948992 -0.0010881856
0.021150073 -0.042910974 -0.0046353713 0.038302824 -0.026856074 -0.00030359114 0.021591036 0.03735594
0.0139281545 -0.028094616 0.024581237 -0.03719499 -0.008530954 -0.036931403 -0.037339572 0.046848748
-0.043286126 -0.027989287 -0.039379057 0.019879293 -0.04061191 0.027356407 -0.036053363 -0.02652839
-0.012418519 0.002886998 0.013847798 -0.006919621 0.009891594 -0.021016834 -0.044011164 -0.023520688
0.002848421 -0.019570671 -0.044810433 -0.046099346 -0.031381864 -0.040261116 -0.028496237 -0.0138131315
0.006058104 -0.007472576 -0.010121934 0.030719616 0.0060112923 -0.02059906 -0.04654214 0.037402436
0.037097927 -0.015473466 0.040698163 0.030027997 -0.0015966824 0.003904546 0.04321642 0.011778431
-0.0040801466 0.015378769 -0.0035374651 -0.026420265 0.027722964 0.019581918 -0.025304785 -0.012930823
0.0037518286 0.04902172 0.0020990837 0.0042362157 0.014699263 -0.009822908 -0.019730126 -0.04286302
0.041093394 0.013428662 -0.033719577 -0.006589463 -0.0016408307 0.011428885 0.010121728 0.0107542
0.033719733 -0.00969838 0.025679613 -0.00404275 -0.04592407 0.021680642 0.032875244 -0.012426765
-0.021691352 -0.014455866 -0.012134644 0.04643854 -0.048226893 -0.015418206 -0.039759032 -0.018253503
0.03225606 0.037178934 0.033432886 0.038371984 0.013837187 0.026105244 -0.013887989 -0.021994956
-0.0060511306 -0.0025694575 -0.026744876 -0.0011058347 0.038542453 -0.04579183 0.00012604988 -0.024650436
0.043543056 -0.0237419 0.01067929 0.01656542 0.024271013 0.0074226554 0.019487772 -0.014889423
-0.009648031 0.021788877 -0.0048312815 -0.032678436 0.019118346 0.031960286 -0.003851909 0.03609493
0.041948266 -0.019990137 -0.019519307 0.038659785 0.035625685 -0.003156699 -0.029296089 -0.028903844
-0.016396686 0.031445723 0.00035514284 0.0053851753 -0.042027283 0.023302002 -0.02985 -0.036707766

fc3.weight f4 [1, 256]
00000000: ffe0 39bb 3b6f 033b 9857 f9ba 9603 c239
00000010: 6298 b03a fb9b f73a 7bb6 8cba cb0c afba
00000020: 12b9 2dbb 876e b039 b2d0 1b3b 4a69 00bb
00000030: 7929 57bb dd83 43bb bb3c 573a 8a46 bbba
00000040: 82a5 53bb e3e7 27ba 0da4 b8ba ab96 1b39
00000050: 7a07 62ba fe5c bcb9 4675 7f39 6291 23bb
00000060: 460e 1aba 31e4 05b9 bfb3 f8ba 09bb e03a
00000070: 0c32 ca3a cb52 203b d9f5 2ebb 1535 b4b9
00000080: 1a05 d53a 2fce deb9 ed71 e0ba 7085 2e3a
00000090: cee4 28bb 994c b9b8 99b7 343a e042 61bb
000000a0: 9a27 003a 8fd8 21b9 3c24 983a 6d4c 16bb
000000b0: b5b0 17ba ab45 55bb 6fca 7839 3306 763a
000000c0: 058e 1d3b 9640 19bb 9416 473a 8369 11ba
000000d0: e077 da3a 8c4b d73a be41 793a bfcd a8b8
000000e0: 7b15 ce39 0fc6 98b7 adac e73a c39f 253a
000000f0: 841b d339 6625 213b 1ff5 133b ada8 ceba
00000100: 4abf 03bb bcf6 a339 ab8e 083b 040c 6bba
00000110: f111 1939 5ad9 c0ba fbb7 bbb8 dda1 903a
00000120: 2c39 60ba 01c6 88ba 20ff 12bb e619 0cba
00000130: 69c4 f1ba b3a3 c9ba e1d2 80ba 2d5b 603a
00000140: cc8e 0fbb 7aaf e03a 7369 bd3a 6143 81ba
00000150: c720 973a 20c3 363a 800f 903a 1e88 feba
00000160: b976 0e3b c211 31bb 32f9 6839 1b7d 88ba
00000170: 5445 3bbb 0f4e 1cbb 2833 053a fba7 3239
00000180: 6a28 06bb f8c4 a2ba 0ea9 a3ba e504 67ba
00000190: 8820 013b b33a 213a 5b30 6a38 61d8 913a
000001a0: 3c61 dc3a d092 ed38 66de 41ba 60cd 1dbb
000001b0: 7212 c73a e20a 2fbb 7c20 55bb eaa5 a3ba
000001c0: 2cf8 213b 5269 8eba f76c a33a a797 123b
000001d0: 9418 46bb ac1a 1a3b 6e26 f339 d19a 693a
000001e0: c0a6 46bb 70c3 ca3a f9c2 61bb 6727 073b
000001f0: a21a df3a a946 723a 692e 9eba 9461 00ba
00000200: 6864 4fbb d0f9 b93a f5f5 043b 70e1 ae3a
00000210: aa20 d3ba a642 023b d1ea 1f3b 6f0e 083b
00000220: fb34 b2b9 cd4a 51bb 1fc6 0a39 303a f5ba
00000230: c8e2 4cbb d887 153b 1df6 4bba 8731 fdba
00000240: 7715 08ba 3656 cdba dd6e 50ba a98e 03bb
00000250: 5322 183b 14de 9d38 008a 0039 c026 023b
00000260: 00ac 29bb a45e 0a3b 7f20 4839 906f caba
00000270: 886a f33a 279c 20bb 121f 143b 07e6 ed3a
00000280: 2d72 08bb 6a8c 2cbb f35b ec3a 6711 0c3b
00000290: b099 a33a 0e86 45bb d4f2 33bb bf5e 1c39
000002a0: e85c 72ba b839 233b ad20 ddb9 706d d8ba
000002b0: 9b16 3b3a d9ea a23a 6b00 a438 97d3 fd3a
000002c0: c383 223b fab2 1d3b 50c2 b43a 7f6c 153b
000002d0: c554 e13a b876 e8ba 0897 30ba 1e32 a339
000002e0: 0ebd 5dba 845f 93b6 e708 c139 457a 9839
000002f0: af2b ba3a db20 b9ba 8b6b 4dbb dfc0 b0ba
00000300: e7df 07bb 2097 c6ba 5d5b 163a 3c51 38bb
00000310: 89c9 cb3a 6616 0c3a fe4d 4a3a a51e e938
00000320: 2d5c 4f39 cae0 32bb 10f3 e33a a448 4f3a
00000330: 4413 02ba 8f1a 1fbb 2fdf 263b 9196 83ba
00000340: 73fc 20bb d6ae 4ebb 2d08 593a 862c 44bb
00000350: 99be 043b c5ed aa39 23c1 0e3b ebb3 9eb9
00000360: 4abe c6b9 d102 36bb badb 223b 8929 e5ba
00000370: 0ff3 44ba 8d77 12bb 3bc7 c33a 7632 5838
00000380: beed 09ba f3fb 0abb 3c4f 4d39 c163 0abb
00000390: 603b 0c38 63f2 1139 ec0a f5b7 80d7 19bb
000003a0: 00dc 0a38 a19e a7ba e013 c7ba a649 deb9
000003b0: d25d 31bb a53a de3a 0674 acba f18b 5a39
000003c0: d973 02ba 2b20 37bb 2ee8 b23a cd71 0f3b
000003d0: 0a9d 48ba 2aa7 b43a 16db 7cba 670f aa38
000003e0: 71fd 2abb 5a2a 22bb efb5 dc3a ad65 4d39
000003f0: 6214 8dba 0e19 ddba 0777 19ba b7b3 8d39
-0.0028362868 0.0020055312 -0.0019023297 0.00037005235 0.0013473148 0.001889109 -0.0010735536 -0.0013355253
-0.0026508016 0.00033651685 0.0023775515 -0.0019594007 -0.0032831116 -0.0029833235 0.00082106487 -0.001428799
-0.0032294695 -0.0006405098 -0.0014086977 0.0001483808 -0.000862233 -0.0003592744 0.00024362383 -0.002495848
-0.00058767607 -0.00012768876 -0.0018974467 0.0017145585 0.0015426292 0.002446341 -0.002669683 -0.00034371825
0.0016252131 -0.00042496758 -0.0017123796 0.0006657457 -0.0025771144 -8.835755e-05 0.0006893813 -0.0034372136
0.00048887136 -0.00015434831 0.0011607478 -0.0022933737 -0.0005786524 -0.0032542746 0.00023726535 0.0009385079
0.002404095 -0.0023384443 0.0007594612 -0.00055470335 0.0016667806 0.0016425713 0.00095083925 -8.0491875e-05
0.00039307386 -1.821204e-05 0.0017675363 0.0006318057 0.00040265557 0.0024588942 0.0022576523 -0.0015766822
-0.002010303 0.00031273614 0.002083699 -0.0008966329 0.00014597901 -0.0014713213 -8.951124e-05 0.0011034567
-0.0008553441 -0.0010434986 -0.0022429898 -0.00053444353 -0.0018445376 -0.0015383869 -0.0009828472 0.0008558508
-0.0021905182 0.001714214 0.0014450982 -0.0009862 0.0011530154 0.0006971825 0.0010990947 -0.0019419228
0.0021738245 -0.002701864 0.00022218077 -0.0010413261 -0.0028575258 -0.0023850237 0.000508117 0.0001703798
-0.0020470866 -0.001241832 -0.0012486295 -0.000881268 0.0019703228 0.00061504095 5.5834982e-05 0.0011127108
0.0016813646 0.000113283866 -0.00073955057 -0.0024078712 0.0015187992 -0.0026709368 -0.0032520583 -0.0012485359
0.0024714572 -0.0010865128 0.0012468387 0.0022368224 -0.0030227052 0.0023514433 0.00046377204 0.0008911314
-0.0030311793 0.0015469622 -0.0034448488 0.002062285 0.0017021487 0.00092420966 -0.0012068275 -0.0004897353
-0.003164554 0.001418883 0.0020288203 0.0013342332 -0.0016107757 0.0019876151 0.0024401436 0.0020760556
-0.0003399028 -0.0031935454 0.00013234511 -0.0018709358 -0.0031263102 0.0022816565 -0.0007780509 -0.0019317128
-0.0005191187 -0.0015665952 -0.000795109 -0.0020074046 0.0023213818 7.527709e-05 0.0001225844 0.0019859523
-0.0025889874 0.002111354 0.00019085592 -0.0015444625 0.0018571177 -0.0024507137 0.0022601527 0.0018150219
-0.0020820007 -0.002632881 0.0018032774 0.0021372677 0.0012481716 -0.0030139717 -0.002745797 0.00014912615
-0.00092454115 0.002490623 -0.0004217675 -0.0016512107 0.00071368524 0.0012429609 7.820207e-05 0.0019365427
0.0024797774 0.0024062977 0.001379082 0.0022800264 0.0017191401 -0.0017735576 -0.00067363726 0.00031127123
-0.00084586523 -4.392061e-06 0.0003681846 0.00029082797 0.0014203693 -0.0014124172 -0.0031344618 -0.0013485214
-0.0020732821 -0.001515124 0.000573566 -0.0028124591 0.0015547733 0.0005343914 0.000771731 0.00011116014
0.00019775397 -0.002729463 0.0017391164 0.00079072476 -0.0004961977 -0.0024277305 0.0025462618 -0.0010039379
-0.0024564534 -0.0031537316 0.00082791114 -0.0029933765 0.0020255207 0.0003260208 0.00217826 -0.00030270158
-0.0003790728 -0.0027772675 0.0024850206 -0.0017483692 -0.0007513025 -0.002234909 0.0014936695 5.154541e-05
-0.00052615616 -0.0021207302 0.0001957984 -0.0021116587 3.34339e-05 0.00013918574 -2.9211362e-05 -0.0023474395
3.3106655e-05 -0.0012788364 -0.0015188418 -0.00042398012 -0.0027063978 0.0016954733 -0.0013157136 0.00020842232
-0.0004976369 -0.0027942758 0.0013649517 0.00218879 -0.0007652795 0.0013782729 -0.00096456835 8.1091006e-05
-0.0026091004 -0.0024744482 0.0016838888 0.000195882 -0.0010763521 -0.0016868429 -0.0005854223 0.00027027514

bn.weight f4 [400]
00000000: ff06 c03e 5fa0 963e 9f57 463f e91d 6f3f
00000010: 08a7 143f 6b09 813e dc01 e73e 7731 fe3e
00000020: 68d3 773d 6708 913e 71bf ad3e 9117 553f
00000030: 32e4 6b3e 8b8d 1f3f 3ae5 2d3f 5235 643e
00000040: 1e5d 8b3e a2a6 703d 5a1d fd3e 79eb 5a3e
00000050: f62e 263f 5bf6 553f d9be 113e d236 433f
00000060: 1e78 1f3d f05b b73e a94a 223e a4b7 ff3e
00000070: ca3f 483d 42f9 453f eefc 233f 4bfd 3a3f
00000080: 416c 843e 4737 df3c 571e 2c3e fdff 343e
00000090: 1de7 053f 2d95 e43e a507 fa3d 10a1 043f
000000a0: 2bbe f13e 189b 5b3f 84c8 303f 4bc6 2e3f
000000b0: da57 4b3f 78d4 4f3f 4847 ca3e 29da 253f
000000c0: 7305 5a3e 972b ff3e 0284 603f 4d75 063f
000000d0: e016 3f3f a54c ce3e a3f7 093f d9d4 703f
000000e0: 85fb c63e 0e9e 273f 73eb 913e 31ae 5f3f
000000f0: 3472 ff3d 1334 183f 33cd 273f df89 4b3f
00000100: b0aa 933e ded8 273f 4945 693e c306 393f
00000110: 1e8d 073f 7e77 323f 6ea1 cc3e 27a4 0b3f
00000120: b25a 373f d302 593f a9fb c13e c9bb a13d
00000130: 565c 483f 6bbc 443f cae0 3b3f 17e4 0e3f
00000140: aa95 1e3f 8104 c43e 1069 173e 31d3 103f
00000150: 56c0 2e3f a8a2 8b3b a345 c93e 695c 1f3f
00000160: bc02 563f 521a 4c3f f7b6 223f f3b8 f13e
00000170: e6a8 7e3f 549a 143f cd67 f33e cfe0 943e
00000180: aa3c cb3d 39ef 733f 46e4 f93e 024d 8b3e
00000190: 01bc 803e f003 2e3e 6982 1e3f 3cf1 b53d
000001a0: ee76 3c3e 4edf 353f 7f0a 773f 31ca ce3d
000001b0: 5de0 313f eb66 dc3e 2c09 af3e 3a9b 303f
000001c0: e59d 303f 4143 223f 0a32 763f f071 b33d
000001d0: 7dfc 7b3f fa0b 763f 329a 453f 59f3 163f
000001e0: f3c3 213e 3787 cb3d 4267 9a3e 385e 083f
000001f0: 6c06 a93e 2786 a63e 3ec8 303e 04df 1c3f
00000200: 2f92 123f 0f11 783c c147 423e d444 6d3f
00000210: a575 7a3f cb94 693e 9ffd 583e 1bcb 7f3f
00000220: 9dfe 2d3d 40ed e93d 9e0a 753e 51fe c53d
00000230: c697 243e 4808 e33c 07ad 563f b1b1 6d3f
00000240: 5b1c bd3e a564 193f aa2b a53d b42b 883e
00000250: f47d 183f d4cd 683f 04c6 913d 24bb 593f
00000260: 5f71 da3e 7b45 7e3f 7884 3e3e b7f6 0c3f
00000270: e176 033f 3275 c33e 61d5 493e 59bc a23e
00000280: 9401 193e c9ce 3b3f 54d1 c63e b53e 3b3e
00000290: 0458 053f 4e98 df3e aa6e b03e cab3 fb3e
000002a0: d440 c43e 4b8c b53d 4fad f13e a474 c73d
000002b0: 157d 0b3f 5f21 653d 7c82 5f3f 3a2a 913b
000002c0: d15d 123f 313a 303e f992 e63e 71df 523c
000002d0: e248 313f a2c5 ff3e 87c3 533f bfde 193f
000002e0: e880 203f 4dd8 653f d082 ec3d ee7b 323f
000002f0: 7172 d93e 0602 703f 19b6 bf3e be64 3a3f
00000300: dd86 2d3f c1be 793f 53d7 5c3f 6138 133f
00000310: 0557 843e 986d 1e3f a10b 8e3e 43da 903e
00000320: 94f7 073f 909f 613f be37 7e3f 7230 c33e
00000330: e61c 113d eee7 443f 87ac 363e bd89 143d
00000340: ae36 a43d c7dd 4d3f b84f 4f3e d744 993e
00000350: 9baa 463f adfb fb3d 9ade 393e a2f1 023d
00000360: c858 e43e fd31 9f3d 364b 1e3e bdbe 203f
00000370: 6b5c d13d d1a7 db3e 6ffd e43e 5f2d 123f
00000380: 39da 8f3e 426b 333e 3071 3f3f 8705 963e
00000390: 7de8 2e3e 46a6 2e3f fcc8 353d 07fa 803e
000003a0: df50 7d3f 6a95 293e fcf9 933e 3bdf 413f
000003b0: 9641 133f 57bf 383f 1304 163f 4d33 0a3f
000003c0: a2bc 253f 3435 7f3f f9f6 2d3f a069 ee3e
000003d0: a123 e23e 8c27 2c3f 8676 8b3d bba0 1e3f
000003e0: fbb7 4e3f fcfa 2a3f 2aa8 cd3e 2c6b e03e
000003f0: 1c9f 573f edd5 e33e 2550 563f bafb aa3e
0.37505338 0.29419228 0.7747745 0.93405014 0.5806737 0.25202498 0.45118606 0.49647114
0.060504347 0.28326723 0.3393512 0.83239084 0.23036268 0.6232535 0.67927897 0.22285965
0.2721948 0.058752663 0.49436456 0.21378888 0.64915407 0.83579034 0.14232959 0.76255524
0.038932912 0.3581233 0.15848793 0.49944794 0.04888896 0.7733346 0.64057815 0.73042744
0.2586384 0.027248038 0.16808449 0.17675777 0.52305776 0.44645062 0.12208489 0.5180826
0.472154 0.8578353 0.6905596 0.6827132 0.79430926 0.81183577 0.39507508 0.6478601
0.21291141 0.49837944 0.8770143 0.52522737 0.7464428 0.4029285 0.5389349 0.9407478
0.3886377 0.6547555 0.28499946 0.8737517 0.124729544 0.5945446 0.65547484 0.7950725
0.28841162 0.6556529 0.22780336 0.7227594 0.529497 0.6971358 0.3996691 0.5454735
0.71622765 0.84769934 0.37887314 0.07897145 0.78265893 0.76850003 0.73389876 0.5581679
0.6194712 0.38284686 0.14786172 0.5657225 0.6826223 0.0042613335 0.3931094 0.6225038
0.8359792 0.7972766 0.6356043 0.47211418 0.9947647 0.58047986 0.4754013 0.29077765
0.0992368 0.952869 0.4880697 0.2720719 0.25143436 0.1699369 0.6191774 0.088839024
0.18404743 0.7104386 0.9650039 0.10097159 0.69482976 0.4304727 0.34186685 0.68986857
0.6899093 0.6338387 0.96170104 0.08761966 0.9843214 0.96112025 0.7718841 0.5896507
0.15797405 0.099378996 0.30156904 0.53268766 0.33012712 0.32524225 0.17263886 0.61277795
0.5725431 0.015140786 0.18972684 0.9268315 0.9783576 0.22810666 0.21190499 0.9991929
0.042479146 0.11422205 0.23929831 0.09667648 0.16073522 0.02771391 0.8385777 0.9284926
0.36935696 0.59919196 0.08064969 0.26595843 0.5956719 0.9093907 0.071178466 0.8505118
0.4266462 0.9932477 0.1860522 0.55063957 0.5135327 0.3817535 0.19710304 0.31784323
0.14942008 0.73362404 0.3883158 0.1828564 0.52087426 0.43670887 0.3445943 0.49160606
0.3833071 0.088646494 0.47202536 0.09739044 0.54487735 0.05594003 0.8730848 0.0044300826
0.571744 0.17209698 0.45034006 0.012870655 0.69251835 0.4995547 0.82720226 0.6010551
0.62696695 0.89783174 0.11548388 0.6972035 0.42470124 0.9375309 0.37443617 0.7280997
0.6778391 0.9755669 0.8626606 0.575079 0.2584764 0.61885977 0.27743247 0.2829152
0.5311215 0.881341 0.99303806 0.38122898 0.03542795 0.76916397 0.17839251 0.03626417
0.08018242 0.8041653 0.20245254 0.29935333 0.77604073 0.12303863 0.18151322 0.03196872
0.44598985 0.077732064 0.15458378 0.62791044 0.102227055 0.4290147 0.44724604 0.5710048
0.28096178 0.17521384 0.74782085 0.29301092 0.17080875 0.68222463 0.044381127 0.25190756
0.98951524 0.16560903 0.2890166 0.7573125 0.5752195 0.7216696 0.58599967 0.5398453
0.64740956 0.99690557 0.67954975 0.4656496 0.44167808 0.67247844 0.06809716 0.61964005
0.8074948 0.6678922 0.40167361 0.43831766 0.84227157 0.4449915 0.8371604 0.33395177

bn.bias f4 [400]
00000000: 30fc df39 72ad ec39 15c5 94b7 2d6a f2b9
00000010: 0c2d eeb9 8819 c8b9 bd7a e839 1332 f6b9
00000020: 3956 ee39 d4fd dfb9 32d6 dd39 ec74 e7b9
00000030: 1492 e9b9 a5d0 efb9 c20d e8b9 881c ea39
00000040: 1e88 f1b9 5f7a eab9 c2fc d539 4961 f9b9
00000050: e4e6 e839 aec1 e639 4ece e839 b595 e839
00000060: dd1b eab9 27d5 f1b9 4cf6 e9b9 ae1d bcb9
00000070: 98a9 aeb9 c75d e1b9 6057 ec39 4e79 cbb9
00000080: d4a9 fb39 5233 ecb9 5bcf f739 9d91 ef39
00000090: 031a f1b9 22de 1f38 5a72 f839 5537 e239
000000a0: 2b68 e239 14e2 ea39 5e0c e839 6d67 e6b9
000000b0: d693 f2b9 5bcb 0239 7b8a e5b9 0647 9cb9
000000c0: 9c94 e939 103e ec39 d0a4 e3b9 292f ddb9
000000d0: b798 fbb9 f87f f7b9 4bf0 e7b9 593d f1b9
000000e0: e8d5 e939 5e2c e8b9 2c73 edb9 6c9b e7b9
000000f0: af85 f039 c7b6 e239 66c7 f139 a927 ce39
00000100: 05f4 e7b9 e949 e639 e7ab edb9 8c70 eeb9
00000110: a8ce e8b9 8fdb e9b9 9876 1f39 e888 f939
00000120: fcd0 e6b9 1012 efb9 d2a7 f439 b641 ec39
00000130: 1d4e dab9 747d e2b9 a85f e5b9 226e f739
00000140: 83b2 e639 b394 ebb9 5e21 f2b9 9361 dcb9
00000150: bcf9 d439 4034 ec39 7665 eeb9 1469 e139
00000160: 29e5 efb9 ed7e e039 c672 e0b9 2ced e9b9
00000170: c836 e8b9 adb7 e6b9 06f9 e9b9 8d9f f9b9
00000180: 6b4d e839 7a17 f2b9 06fd e8b9 8bb8 e5b9
00000190: 23ab a239 023c 1239 f362 ddb9 a577 e7b9
000001a0: 4476 e139 334d ee39 e1f3 e8b9 e656 ea39
000001b0: 8ae7 f6b8 35da f2b9 f5f1 a039 2abd eeb9
000001c0: f4a4 e939 dc38 cb39 bb0f e9b9 ac66 e439
000001d0: 51a0 edb9 b3fd eab9 230d db39 4165 e7b9
000001e0: 85ad ee39 7447 ecb9 780e f9b9 a032 da39
000001f0: b087 ecb9 f966 ec39 a028 eab9 e52c 84b9
00000200: 0d47 e9b9 1a3e ea39 18b5 e8b9 c697 ed39
00000210: a230 e639 2ec1 e9b9 b08e ea39 7a46 ec39
00000220: d789 edb9 8c25 f239 f136 bdb9 4acf e239
00000230: b45d e0b9 ae77 e139 3c19 cf39 3104 fa39
00000240: 8a7c f039 f9ef ec39 0753 ed39 43bf f0b9
00000250: ceb6 edb9 3c71 f8b9 5424 f2b9 4751 e9b9
00000260: 4072 e8b9 49b6 e539 193f ea39 102b e7b9
00000270: 9e1e e939 0c95 e8b9 58a6 eb39 96c6 eb39
00000280: 0eea e4b9 d7d8 ef39 da65 e639 fd15 ed39
00000290: c1e5 f0b9 f3c8 e439 627c e839 64ad f039
000002a0: 7d39 f3b9 f735 e8b9 770b eb39 54f3 d739
000002b0: 2def e9b9 1adf edb9 d066 83b9 feca ef39
000002c0: d02f ec39 a6cd 84b9 1a5b ecb9 fad2 b239
000002d0: 302a eab9 4b33 cd39 9db7 e9b9 43e9 e839
000002e0: d51b d739 9a4e e7b9 7422 62b9 e4e8 e539
000002f0: 9f9a e9b9 23a0 f2b9 0fcd c039 b1d6 ecb9
00000300: d1d4 e639 3e22 edb9 39df e539 1e92 bd39
00000310: c096 94b9 bb1d efb9 0abb ec39 0bb7 e4b9
00000320: cdbe e9b9 6e4a eb39 9e16 fab9 ba72 dcb9
00000330: 576a e939 51aa e8b9 dd10 ed39 373f f139
00000340: a660 f139 5d77 e5b9 bdfc ee39 6578 f539
00000350: d927 8539 21c4 f339 d8f5 cdb9 ac76 d6b9
00000360: 2a64 c2b9 fef1 e939 ef7b e939 f887 ebb9
00000370: bebb 52b9 f201 eab9 9643 f539 ce8a f239
00000380: 4756 ea39 09f9 eb39 6e7b e539 7fc5 e8b9
00000390: c11c f139 bb64 ecb9 3581 eb39 093c f1b9
000003a0: 870d e539 7d1a ee39 0629 e8b9 16d8 e939
000003b0: 5e34 f839 8c49 f5b9 c018 ebb9 c59e e939
000003c0: 98f8 c5b9 3da9 e739 f514 f9b9 0e73 e8b9
000003d0: 4235 e439 7f85 f2b9 99bd f0b9 bfb9 f8b9
000003e0: 3788 f339 fa2b e839 8f63 eb39 216f e539
000003f0: e46c dd39 c434 f7b9 dcd4 4839 3228 ef39
0.0004272177 0.00045142655 -1.7734748e-05 -0.00046236944 -0.0004542846 -0.00038165995 0.00044341935 -0.00046958085
0.00045459138 -0.0004272299 0.00042311993 -0.00044146867 -0.0004455006 -0.00045741085 -0.0004426074 0.00044653215
-0.00046068517 -0.00044723132 0.00040814845 -0.00047565464 0.00044422515 0.0004401332 0.00044404197 0.0004436203
-0.00044652718 -0.00046125913 -0.0004462473 -0.00035880267 -0.00033314223 -0.00042985214 0.00045078527 -0.00038809556
0.00048000982 -0.00045051664 0.00047266003 0.00045694123 -0.00045986482 3.811543e-05 0.00047387445 0.00043147305
0.0004318369 0.000448004 0.00044259703 -0.00043946077 -0.00046267983 0.00012473522 -0.0004378146 -0.00029807555
0.00044551946 0.00045059668 -0.0004341961 -0.00042187542 -0.00047988232 -0.00047206855 -0.00044238786 -0.0004601281
0.00044600596 -0.00044283544 -0.00045289972 -0.00044175552 0.0004587597 0.0004324226 0.00046115665 0.0003932093
-0.00044241562 0.00043924086 -0.0004533224 -0.0004547875 -0.0004440446 -0.00044604807 0.00015207601 0.00047594984
-0.00044024724 -0.0004559909 0.00046664343 0.00045062386 -0.000416384 -0.0004319955 -0.00043749553 0.00047193567
0.0004400202 -0.00044933482 -0.00046182697 -0.00042034368 0.00040621858 0.00045052357 -0.00045470492 0.00042993634
-0.0004575637 0.00042819176 -0.00042810122 -0.0004461793 -0.00044291303 -0.00044005868 -0.0004462676 -0.00047611856
0.0004430817 -0.00046175328 -0.00044439005 -0.0004381578 0.00031026555 0.00013946 -0.00042226128 -0.00044148896
0.0004300346 0.00045452415 -0.00044432192 0.00044696702 -0.000117733216 -0.00046320414 0.0003069785 -0.00045535836
0.00044564123 0.0003876154 -0.00044452943 0.00043564045 -0.00045323608 -0.0004482098 0.00041780723 -0.00044135193
0.0004552418 -0.00045066664 -0.0004750376 0.0004161792 -0.00045114523 0.00045090148 -0.00044662226 -0.0002521045
-0.0004449416 0.00044678227 -0.00044385414 0.00045317243 0.00043905253 -0.00044585153 0.00044738268 0.00045065937
-0.0004530686 0.00046185812 -0.00036089824 0.00043260521 -0.00042794424 0.00043004513 0.00039500918 0.0004768684
0.00045869156 0.0004519222 0.00045266023 -0.00045918868 -0.00045340363 -0.00047386612 -0.00046184903 -0.0004450178
-0.0004433561 0.00043814097 0.0004467897 -0.00044091837 0.00044464035 -0.00044361537 0.0004494663 0.0004497065
-0.00043661933 0.0004574719 0.00043944904 0.00045220545 -0.00045947547 0.00043637268 0.0004434316 0.00045905553
-0.00046391404 -0.00044290695 0.00044831235 0.0004118929 -0.00044619423 -0.00045370386 -0.00025062868 0.00045736873
0.0004504905 -0.00025330222 -0.00045081304 0.00034107995 -0.0004466339 0.00039138863 -0.00044578026 0.00044424282
0.00041028732 -0.00044118316 -0.00021565874 0.000438518 -0.00044556425 -0.00046277148 0.00036773874 -0.00045173385
0.0004402758 -0.00045229675 0.00043844598 0.00036157755 -0.00028341077 -0.00045607783 0.00045152783 -0.00043623926
-0.0004458338 0.00044878147 -0.00047700567 -0.00042047148 0.00044520453 -0.00044377384 0.00045216727 0.000460142
0.0004603911 -0.00043767216 0.00045583202 0.00046819742 0.00025397426 0.000464947 -0.00039283815 -0.00040905678
-0.00037077192 0.0004462152 0.0004453356 -0.00044923997 -0.000200971 -0.00044633407 0.00046780397 0.00046261254
0.0004469624 0.00045008239 0.00043770246 -0.00044397634 0.00045988525 -0.00045088478 0.0004491896 -0.00046011832
0.00043688362 0.00045414633 -0.00044281053 0.0004460222 0.00047341263 -0.00046784838 -0.00044841133 0.00044559516
-0.00037759985 0.00044185846 -0.00047508595 -0.0004433621 0.0004352723 -0.000462573 -0.00045917628 -0.00047440638
0.0004645006 0.00044283253 0.0004489687 0.0004376108 0.00042233535 -0.00047150825 0.00019152783 0.0004561558
