projects/tennis/checkpoint/E08.06_actor0_2000.pt (torch_old, 453689 bytes, 6 tensors)

fc1.weight f4 [400, 24]
000000 60 85 20 3d cd cf 9d 3c a7 fc e3 bb ba 68 d5 bc
       0.039189696 0.019264126 -0.0069576087 -0.026050914
000010 38 17 e9 ba 36 48 54 3d 76 72 d1 3c fc 6b c0 3c
       -0.0017783409 0.05182668 0.025567275 0.023488991
000020 1a fb 7f 3c 59 a2 36 3d 28 57 2c 3c bc ef b0 3d
       0.015623832 0.04458842 0.010518827 0.08639476
000030 8c cd 30 3d ae 7e 2a bd 4a d6 38 3c 51 d9 0e 3d
       0.043164775 -0.041624717 0.011281559 0.034875218
000040 27 cb 09 3d de 63 d0 3c a3 b0 42 bd 78 c1 50 3d
       0.033641007 0.025438245 -0.047531735 0.050965756
000050 27 a5 6f 3c 17 7c 22 bd de 2d 43 3b d5 f7 a4 3d
       0.014626778 -0.039669123 0.0029781978 0.08055083
000060 7a 06 89 3d 56 83 3b bc f4 49 c8 bd 60 53 2f 3c
       0.066906884 -0.011444887 -0.097797304 0.0107010305
000070 34 28 92 bd 37 f2 3e bc 06 a5 6a bd 04 dc 86 bd
       -0.071365744 -0.011654428 -0.057286285 -0.065849334
000080 3a 1c ec 3c be 15 0d 3d 1c 02 c1 bc e4 1b 3b 3d
       0.028822053 0.034444563 -0.023560576 0.045680895
000090 a4 dc 28 bc d8 48 86 bd d0 ca ad bc 0b f4 86 bc
       -0.010306511 -0.065568626 -0.021214873 -0.01647379
0000a0 60 41 ba 3c fc b1 a5 bc bd 17 98 3d 04 aa 9a 3d
       0.022736251 -0.020226471 0.07426403 0.07551959
0000b0 4a d3 07 be 0d cf d2 3d 2c 33 7e 3d fb 1b 31 3d
       -0.13264194 0.10293398 0.06206052 0.043239575
0000c0 73 e9 7d bc 7c f6 2a bd 31 ca 2d 3d 71 16 26 3d
       -0.015497553 -0.041738972 0.042429153 0.040548746
0000d0 80 0a 23 bd a7 43 0b bd 60 26 bd 38 13 a3 ce 3c
       -0.039804935 -0.034000065 9.01937e-05 0.025224244
0000e0 4d 2d 58 bc 4d a1 e1 bc 0e 6d 13 bd b0 46 06 bd
       -0.013194394 -0.027542735 -0.035992675 -0.032782257
0000f0 2e f7 28 bd 13 6b 0c bc b4 0b 6a bd d0 d6 11 3c
       -0.041251354 -0.00857045 -0.057140067 0.008901313
000100 a9 6f 3b bd bf b4 c2 bd ff 19 2a bd df b4 27 bc
       -0.045760784 -0.09507131 -0.041528698 -0.010235994
000110 42 8c e7 bd 99 fd ea bc 6d 71 35 bd 0d 75 e0 bc
       -0.11306049 -0.028685378 -0.044297624 -0.027399564
000120 98 ad da bc 3b 79 28 3d 5a 71 3e bd 03 8b 0e 3d
       -0.026694104 0.04113124 -0.04649482 0.03480054
000130 f2 09 02 3d 39 ea 00 bd a1 4e 06 3c c8 ad 71 3d
       0.031747766 -0.031473372 0.0081974575 0.05900362
000140 6e 05 51 bd 34 1e 53 3d 32 f6 4f bd 56 23 ae bc
       -0.05103057 0.051542476 -0.0507719 -0.021257084
000150 aa 2c c2 bc 4c a4 91 3c 54 f5 f4 3b fe d4 dc 3c
       -0.023702938 0.017778538 0.0074755345 0.026957031
000160 d8 c3 10 bd 22 d7 0a 3d 23 0a a5 bd d2 03 72 bd
       -0.03534302 0.033896573 -0.08058574 -0.059085675
000170 cc 90 2f 3d 48 b3 a9 3c 07 e5 8f bc 4a 95 28 bd
       0.0428627 0.02071537 -0.017565263 -0.041158
000180 d0 df 95 3b 24 c6 9a bd b9 38 4b bd a2 8e af bd
       0.0045737997 -0.075573236 -0.04961464 -0.08572127
000190 33 49 fa bc b5 20 3c bd 53 ce af bd 21 98 17 be
       -0.030552482 -0.04592963 -0.08584275 -0.14804126
0001a0 9a 35 bc ba 52 c0 d0 bd d0 3f 62 bb 3e e3 3a 3c
       -0.0014359236 -0.10192932 -0.0034522898 0.011406718
0001b0 93 59 20 bd 72 8a d7 3b 28 67 20 bc 64 fc 23 bd
       -0.039147925 0.0065777833 -0.009790219 -0.04003562
0001c0 dd f6 32 bd 1e 39 be bc f9 fe f9 bc d9 b2 2d bc
       -0.04369246 -0.023220595 -0.030517088 -0.010601723
0001d0 05 d3 be 3d 75 74 4d 3c 08 3a 07 3c 9a 5c 7f bc
       0.093175925 0.012539973 0.008253582 -0.015586043
0001e0 6a 2b 2e 3d 74 8d c3 3c 21 a8 af 3c 86 fe 04 bd
       0.04252187 0.023871161 0.021442475 -0.032469295
0001f0 80 ef 86 bd 8b 6f 5e 3d 92 a8 90 bb 3f ee ae bc
       -0.0658865 0.054305594 -0.0044146264 -0.021353839
000200 fa a5 d6 3c 72 72 be bd 5b 97 a3 bb 55 3c 6e bd
       0.02620219 -0.092991725 -0.004992408 -0.058163006
000210 40 5b 2a 3d d4 07 bd 3d 13 eb ab 3c 98 7c bd bc
       0.04159093 0.09230009 0.020986116 -0.0231307
000220 91 cd 12 3d f4 59 b4 bd e5 ae d1 3b 09 b9 71 bd
       0.035840575 -0.0880622 0.006399023 -0.059014354
000230 3b e2 80 bd 25 0f a7 3d 49 f3 02 bb cc b6 96 bd
       -0.0629315 0.081571855 -0.0019981435 -0.073590845
000240 fc 1c 4a bd 7e 8b 0f 3c a6 6d f2 3c 83 d0 c8 3d
       -0.049344048 0.008761285 0.0295933 0.098053955
000250 d7 69 f6 bc 37 fa 27 bd bd 0c dd bc ae 7f 86 3d
       -0.030079765 -0.041010108 -0.026983613 0.06567322
000260 51 eb 50 bd ac 36 1c bd 9f 13 2b 3d c2 c0 38 3c
       -0.051005665 -0.038138077 0.04176676 0.011276426
000270 24 8a db 3c e6 7d 38 bd f4 1d 98 bc 4e 4d 11 bc
       0.026799269 -0.04504194 -0.01856897 -0.0088685285
000280 9d 8f 18 bd b4 3f 8d bb 9c 60 62 3d 6b 9e b3 bc
       -0.037246335 -0.0043105725 0.055267915 -0.021926126
000290 9c 28 11 bd 4f 86 e1 bd d0 c4 a6 bc 37 55 39 3a
       -0.03543912 -0.110119455 -0.02035752 0.0007069888
0002a0 7e cf 16 3c f2 ea ea 3d 9d 41 06 3d 71 06 8b 3c
       0.009204743 0.114705935 0.032777417 0.016970845
0002b0 db 61 b8 3b 24 8d a9 3d ff 7c 86 3c 9d a8 94 3d
       0.0056268997 0.082788736 0.016417025 0.07258723
0002c0 cb 92 63 bc db 4d 08 3e 43 52 b3 3c dc 9c a3 3d
       -0.013889979 0.1331095 0.021889811 0.07988903
0002d0 e3 f9 a5 3d 90 7c 57 bd a2 f9 0f bd e8 be bc 3d
       0.08104303 -0.052609026 -0.035150178 0.092161
0002e0 f7 72 45 3d 8b 14 41 3e 94 39 40 bd 44 f6 40 bd
       0.048205342 0.18855493 -0.04692991 -0.047109857
0002f0 79 53 bd 3c c7 d5 81 3c d2 17 64 bd e3 fc 7c bd
       0.023111092 0.015849007 -0.05568678 -0.06176461
000300 9e 69 79 3c fd e0 4a 3d 89 d4 af bc 3f f9 b7 3b
       0.015222935 0.04953097 -0.02146365 0.0056144292
000310 18 bf 7e bd de 51 55 3d 9d 06 78 bc d3 06 4d 3d
       -0.06219396 0.052080028 -0.0151382955 0.050055336
000320 c9 05 26 3d 63 19 4e 3d 4a 39 a5 bc 7a 72 29 3c
       0.04053286 0.05031718 -0.02016892 0.010342235
000330 47 49 9e bd 45 9f 5f bc 8a e2 d8 bc bf 6d b3 b9
       -0.0772882 -0.013648813 -0.02647521 -0.00034223308
000340 b9 f2 0d bd d6 1e 1d bd 1c ce 96 3d 7c 13 e3 bb
       -0.034655306 -0.038359486 0.07363531 -0.006929813
000350 f4 cb 92 bd 21 b2 de 3d ea b2 72 3d 46 a8 95 bd
       -0.07167807 0.10873819 0.059252657 -0.07307486
000360 75 2f 79 3c 9e 56 2c 3d 50 f2 14 3d 96 c9 54 bd
       0.015209069 0.042074792 0.0363639 -0.05195006
000370 40 5a e1 3c 4a e9 43 3d 8f 7a 98 3c 9a 58 5a 3c
       0.027508855 0.047829904 0.018613128 0.013326788
000380 cd ae 06 bc bc c9 b9 3d d7 88 43 bc 33 fe 68 3d
       -0.008220387 0.09071681 -0.011934481 0.05688305
000390 4b b6 54 3d 28 d6 30 bc 02 01 15 bd 3f e1 2e 3d
       0.05193166 -0.010793246 -0.036377914 0.04269528
0003a0 32 9d e0 3b fd a2 99 3d c9 92 84 bb 4d 69 3e bc
       0.0068546766 0.07501791 -0.0040458185 -0.011621785
0003b0 ad dd e1 bc 9b db bc 3c e8 76 7f 3c 8d fb 44 3c
       -0.027571524 0.023053935 0.015592314 0.012022865
0003c0 bb 0d fe b9 70 73 3d 3b 7e 22 55 bd e8 bd ab 3b
       -0.00048456885 0.0028907917 -0.052034847 0.0052411444
0003d0 bc 34 7d 3c ab 30 ec 3c 0b ae 83 bd 41 1e ad 3c
       0.015454467 0.0288318 -0.064296804 0.02113259
0003e0 31 2c 28 bd de e6 b6 3d 38 c3 ca bb 48 74 4c bd
       -0.04105777 0.08930753 -0.0061878227 -0.049915582
0003f0 eb bb 39 3d e5 e4 15 3c 67 9a bf bc 3b 0e b3 3c
       0.04534523 0.009148811 -0.023389054 0.021857372

fc1.bias f4 [400]
000000 a0 f7 c4 bc 74 99 ee bd af 7e af bd 8a 18 34 be
       -0.024043858 -0.116503626 -0.08569085 -0.17587486
000010 98 05 b7 bb ec fa 32 3d 01 91 e6 bd fe 02 db 3d
       -0.0055853836 0.04369633 -0.11258126 0.1069393
000020 29 71 24 be 30 af 3b bc 5e bf 08 3e 2f 1d 08 3e
       -0.16058792 -0.011455342 0.13354251 0.13292383
000030 59 63 98 bc c5 ef 2a 3e 18 73 71 bd f0 92 25 be
       -0.01860206 0.16693027 -0.058947653 -0.16169333
000040 1f 36 5d bb 78 cc 0a 3e 56 13 44 3d 9a f5 ed bd
       -0.0033754183 0.13554561 0.047870003 -0.116191104
000050 9d f2 0f be 5e a4 04 be 4d a3 f4 bd 87 b5 12 3d
       -0.14057393 -0.12953326 -0.1194521 0.03581765
000060 ad b2 25 3e 80 d0 63 3d 33 06 e6 3d 66 4c cb 3c
       0.1618144 0.055618763 0.11231651 0.024816703
000070 6a 87 3a be a7 7b cd bd ed 04 3c 3e 2c a2 16 3e
       -0.18215719 -0.100333504 0.18361254 0.14710301
000080 c5 98 8c bb f3 74 c9 bd 97 fc 5f 3e 02 01 24 3e
       -0.0042906725 -0.098367594 0.21873699 0.1601601
000090 b0 65 83 3d b9 b1 1b 3d a0 d4 0c be dc a5 a5 bd
       0.0641588 0.038011286 -0.13752985 -0.08088276
0000a0 9a 0a 47 3b 50 3c 00 be 55 fa 14 3e 65 f6 3c 3e
       0.003037131 -0.12523007 0.14548619 0.18453367
0000b0 fa d0 62 3e 12 d0 03 be 2f 30 ad 3c 41 3b 63 be
       0.2215003 -0.12872341 0.02114114 -0.22190572
0000c0 c2 4c 0d 3e 44 86 f2 bd 3a 65 28 3e f7 c1 de 3d
       0.13798812 -0.118420154 0.16444865 0.108768396
0000d0 4a cc 2d bc cc 2e 10 be 42 29 52 3c 81 fd c1 3d
       -0.010607788 -0.14080352 0.012827219 0.0947218
0000e0 b0 c6 f4 bd 7b 06 d0 bd 9f 0a 12 3d 9a 26 39 be
       -0.11951959 -0.10157486 0.03565466 -0.18081132
0000f0 a5 66 73 3d 03 41 99 bd a0 8b ee 3d 02 6d 7f bd
       0.05942406 -0.07483103 0.11647725 -0.062359817
000100 8b f1 53 be 1d ad e6 3b 10 b7 bb 3d 92 21 06 bc
       -0.2069761 0.0070396797 0.09165776 -0.008186715
000110 f5 ea 36 bc f4 57 68 be e4 d0 80 3c dc 72 fb 3d
       -0.011164417 -0.22689801 0.015724607 0.12277767
000120 bb 29 bf bd a7 59 82 3c c0 b8 ec bd b8 45 45 3d
       -0.09334131 0.01591189 -0.11558676 0.048162192
000130 35 01 9f bd 1c f9 35 be e5 31 bd bc ed d3 b8 bc
       -0.07763902 -0.17770809 -0.02309508 -0.022561992
000140 62 ac 50 3c 30 6f eb bd 56 92 4f bd b9 98 8b bd
       0.012736412 -0.11495817 -0.050676666 -0.06816239
000150 00 9f 33 bc 44 8e 09 3e 32 a8 c4 3d 29 6f 49 3e
       -0.0109632015 0.13433176 0.09602393 0.1967131
000160 a4 ca 2b ba 4d 27 4c bd 81 a8 a4 3d 28 83 06 be
       -0.0006553328 -0.049842168 0.08039952 -0.1313597
000170 81 03 3a 3e 1f 32 bc 3b e4 9d 49 be 55 ef ff bc
       0.18165399 0.0057432796 -0.19689137 -0.031242052
000180 75 bc cf 3d 26 91 97 3d 86 34 57 3c b7 ac 70 3d
       0.10143367 0.07400732 0.013135081 0.058758464
000190 b0 40 85 3d 9c e7 48 3e 80 c8 9c 3d a4 72 b1 3d
       0.06506479 0.19619602 0.0765543 0.08664444
0001a0 01 23 db bd 2b e7 22 3e 36 0a d6 3d 02 da 82 bd
       -0.10700036 0.15908496 0.10451166 -0.06389238
0001b0 fe a2 1f bd 64 82 93 bb eb 8e 05 be 18 b5 52 bb
       -0.0389738 -0.0045016278 -0.130428 -0.0032151397
0001c0 44 d2 3b be 26 a0 54 3d 6f 29 9f 3d af 04 9e 3d
       -0.18341929 0.051910542 0.07771575 0.07715737
0001d0 76 a5 9a 3c da a1 66 bd fb 20 10 3e 6b 3f 41 be
       0.018877726 -0.056306697 0.14075081 -0.18871848
0001e0 e8 ca ab 3d 47 12 dd bd 66 5b 1e 3d c2 93 48 bd
       0.08388311 -0.10794502 0.038661383 -0.048969038
0001f0 b5 3b 41 be 05 3f 41 be 89 04 c3 3d 05 8f 09 be
       -0.18870433 -0.18871696 0.095223494 -0.13433464
000200 2a 41 56 3c 9c f1 23 3e f3 50 43 be 68 48 2e 3d
       0.01307706 0.16010135 -0.19073848 0.04254952
000210 83 a2 b0 3d 73 dd 87 3d 9c 4a 1a 3e 89 19 ac 3d
       0.08624747 0.06634035 0.15067524 0.08403308
000220 76 6e 38 3e 2a c5 b9 bd 1e b3 37 bd d9 00 da bd
       0.18010888 -0.09070809 -0.044848554 -0.10644693
000230 02 80 25 be c6 08 cc bd f8 d7 5f 3e fe 6b 31 be
       -0.16162112 -0.09962611 0.2185973 -0.17326352
000240 61 39 e2 3d 76 90 a2 bb dc a2 52 3e d7 76 9c bd
       0.110461004 -0.0049610687 0.20569938 -0.076398544
000250 61 86 ea 3c bc da ea bd 97 d0 0a bd fc 08 82 bd
       0.02862853 -0.114675015 -0.033890333 -0.0634937
000260 b8 3f 00 be f2 f0 0e 3d f0 f1 11 3e 77 cc 1d bd
       -0.12524307 0.034897752 0.14252448 -0.03852507
000270 e9 0c 24 bd 7a 12 b9 bd 27 7e 33 be fe ec 52 3c
       -0.040051375 -0.09036727 -0.17528592 0.012873886
000280 85 b3 1e 3e 70 3e b9 bd 2a a7 31 bd 1c 85 2c be
       0.15498169 -0.09045112 -0.04337231 -0.16847652
000290 bb 09 7f bd 8c d7 98 3c 6b 77 8d 3d 03 aa 80 bd
       -0.06226514 0.018657468 0.06907543 -0.06282427
0002a0 c4 f5 36 bc 5b 3c df bd 43 89 0a 3e 4b a1 21 3e
       -0.0111669935 -0.10900184 0.13528924 0.15784185
0002b0 80 89 8c bc 50 00 47 3b 9f ae 18 be 0b 1b 8b bd
       -0.017155409 0.0030365176 -0.14910363 -0.067922674
0002c0 5d 36 c6 bd aa 82 c2 3d 04 80 77 3d 9d 94 3a 3e
       -0.09678338 0.094975784 0.06042482 0.18220754
0002d0 1c e6 7f bc 0f cf 12 3d 30 84 1c 3e 0c 8b b5 3d
       -0.015618827 0.035841998 0.152848 0.08864412
0002e0 b3 12 07 3e 24 71 4b be 29 c1 2e be f1 04 59 3e
       0.13190727 -0.19867378 -0.17065872 0.21193291
0002f0 be 44 ce 3d c4 b1 ee 3c 75 30 2b be 72 10 eb 3d
       0.10071705 0.0291375 -0.16717704 0.11477746
000300 3e a0 0b 3e 6d c9 be 3d 04 bd ad bd cd ac 49 be
       0.13635346 0.09315763 -0.084833175 -0.19694825
000310 3d dd e4 3d 48 45 b5 3d b3 fb 15 bd ba 6e 05 be
       0.1117501 0.08851105 -0.036616992 -0.1303052
000320 ff 97 bd bd 66 65 fb 3d 53 b7 47 3d aa 11 cc 3d
       -0.092575066 0.122751996 0.048758816 0.09964307
000330 e7 4c c0 3c 67 be 4d be c5 90 09 bd ab f4 c8 3d
       0.02347417 -0.20092164 -0.03358533 0.09812292
000340 93 97 cb bd b8 37 1e 3e 4d bd 55 be 22 70 c9 3b
       -0.0994102 0.15450943 -0.20872994 0.0061474005
000350 21 b2 32 bc d7 a6 c1 bd 71 7e f8 3d f4 52 23 3e
       -0.010906727 -0.0945565 0.12133492 0.15949613
000360 ea 9a 27 be 82 69 80 3d ec a8 8e 3c 2c 74 19 3d
       -0.16367689 0.06270124 0.017414533 0.037464306
000370 71 c9 ab bd 4a c7 89 bd 69 e1 59 3d 96 a9 02 be
       -0.08388031 -0.067274645 0.053193484 -0.12760004
000380 de 7f 38 be c7 34 01 be c6 a7 11 3e d9 6c 29 3e
       -0.18017527 -0.12617789 0.14224157 0.16545428
000390 0b 73 c5 bd ce cf dd 3d 2c aa 59 3d 74 cb ab bd
       -0.09641083 0.10830651 0.053140804 -0.08388415
0003a0 67 c3 24 3e ac 53 1d be 01 ff f1 3c ff e4 24 3c
       0.16090165 -0.1536395 0.02954054 0.010064363
0003b0 48 a2 b7 3c f9 1c 79 3d c2 8f 64 bc 65 f8 15 be
       0.022416249 0.060818646 -0.01395029 -0.14645536
0003c0 71 f1 e5 3d c5 4c 6e 3d fb c9 a2 bd b5 3b 39 3e
       0.11227692 0.058178682 -0.07948681 0.18089183
0003d0 ed 80 9b 3d 9d 84 25 3c 95 9f 13 3e df 51 bd bd
       0.0759295 0.010102418 0.14416344 -0.09244131
0003e0 54 ce 02 3e 5a 7c e0 bd b9 35 1f be 6f 56 f6 3d
       0.1277402 -0.10961218 -0.15547837 0.12028205
0003f0 79 0b a4 bc 4a 3c 29 be c5 f5 27 be 2e 21 15 be
       -0.020025002 -0.16526905 -0.16402347 -0.14563438

fc2.weight f4 [256, 400]
000000 8a 09 b5 bc 39 eb 82 3d 5f 84 b9 3c 8e 9c 4a 3d
       -0.022099275 0.063925214 0.022646127 0.04946571
000010 86 98 fa ba 21 20 7b 3c c6 86 b7 3b dd 7e 3d 3c
       -0.0019118942 0.015327484 0.005600783 0.011565891
000020 57 9d 6b 3d 50 e6 1a 3d 9b 15 17 3d 9a dc 47 3d
       0.057523098 0.0378173 0.03688584 0.048794366
000030 0b 01 c4 3c 56 2d 38 bc 28 1d 7b 3d a2 bf 92 39
       0.023926279 -0.011241278 0.061307102 0.00027990068
000040 e6 c5 fa 3b ef 68 39 3d 4a 92 0b 3c b3 41 18 3d
       0.007652986 0.045266088 0.008518765 0.03717203
000050 1e f5 19 bd 04 d2 b0 3d 75 b0 8e 3c 4f 82 f7 3c
       -0.037587278 0.08633807 0.017418126 0.030213503
000060 51 c7 29 3c 70 6d 54 3d 9e 95 5d 3c 22 ec 9e 3d
       0.010362462 0.05186218 0.013524441 0.077598825
000070 b9 14 2c bd 8a 90 19 bd 3e 16 b7 3c 60 e0 42 bc
       -0.04201195 -0.03749136 0.022349473 -0.0118943155
000080 1a f0 57 3d 4c cd 38 3d 67 96 06 bd dc a5 50 bd
       0.052719213 0.04511766 -0.03285828 -0.050939426
000090 a4 ce 23 bd 1a 22 9d bc 8f c7 bc bb 04 90 cf 3d
       -0.03999199 -0.0191813 -0.005761094 0.10134891
0000a0 89 8a 31 bc 7c 6f 84 bc 41 89 64 bd 6f c9 02 3d
       -0.010836252 -0.016166441 -0.055794958 0.031930383
0000b0 d6 f8 10 3d 97 95 22 bb 57 f7 ff bc e4 65 2c 3d
       0.03539356 -0.00248084 -0.03124587 0.042089358
0000c0 19 64 c3 bd bc 63 6e 3d 60 d5 93 3c ec 67 e2 bb
       -0.095405765 0.058200583 0.018046081 -0.006909361
0000d0 77 ba 65 bb d9 0e e6 3c ed 8c 17 bd 84 4d 77 3d
       -0.0035053769 0.028083252 -0.03699963 0.06037666
0000e0 1d be e1 3c 2c 7e 8e 3a c5 ad 38 3d 57 9d 0a bd
       0.027556473 0.0010871342 0.045087595 -0.033841457
0000f0 f9 f0 34 3d 85 57 64 bb e5 a8 d2 3c d4 08 da 3d
       0.044175122 -0.0034842205 0.0257153 0.10646215
000100 82 61 2f 3d 2b c6 a9 bb b0 11 f1 bd 03 00 ee bc
       0.0428176 -0.005181094 -0.11770952 -0.02905274
000110 7c 7c c6 3c c2 f1 8d 3d f1 36 5e bc dd c5 d1 3c
       0.02422928 0.06930877 -0.013562904 0.025607044
000120 eb a8 16 3d 00 4c 0a 3d 41 52 ca bc 20 f8 0e 3d
       0.036782186 0.033763885 -0.024697425 0.0349046
000130 41 4c b2 bc 6d 60 e1 3b 58 f1 14 bd 93 3d 0d 3b
       -0.021764876 0.00687795 -0.036362976 0.0021551594
000140 7b fa b0 3b 46 e7 e0 3c e4 87 7b 3c c3 c9 28 bd
       0.0054009533 0.02745403 0.015352223 -0.04120804
000150 16 4a 85 bd 98 7c 44 bd 08 bd 14 bd 9e fe 20 3d
       -0.065082714 -0.047970384 -0.036313087 0.039305322
000160 2a d9 6a 3d 72 d0 36 bc 05 f6 ef bc 36 c9 62 bd
       0.05733601 -0.011158096 -0.029292116 -0.05536767
000170 05 89 9e bc 29 7c 19 bd 28 c9 11 bb ed 79 ae 3c
       -0.019352445 -0.037471924 -0.0022245143 0.021298373
000180 f5 d2 96 3d df 56 81 bc 20 50 fb bc f7 5c b9 bc
       0.073644556 -0.015788494 -0.030677855 -0.022627337
000190 59 e5 ab bb b3 5b 74 3d bc a8 88 bd 8c 56 66 bd
       -0.005245846 0.059657764 -0.066728085 -0.05623488
0001a0 6a 1e a0 3c 90 52 a8 3c f4 43 67 bd 4a 2f 26 3d
       0.019545753 0.020547181 -0.05646129 0.040572442
0001b0 0a 99 a1 3d 72 6b 99 ba 08 e2 69 3d f4 b8 b8 bc
       0.07890518 -0.0011704995 0.057100326 -0.02254913
0001c0 b9 df 70 bd f6 6d 37 ba 3f bf 52 3c 24 63 2b bd
       -0.05880711 -0.00069972815 0.012862979 -0.041842595
0001d0 73 02 84 3a 74 9e 9a bd ef 19 19 bd 03 1a 0f bd
       0.0010071531 -0.07549754 -0.037378248 -0.034936916
0001e0 48 7f 07 3d 89 aa 0f bd f0 dd a2 3c 7a f2 8a 3c
       0.03308037 -0.035074744 0.019881219 0.016961325
0001f0 87 53 38 3d 7b 5a 64 3d 62 9a ba 3b 2b f1 3b 3d
       0.045001533 0.05575035 0.0056946734 0.045884293
000200 41 6f e1 bc b5 5e 44 3d 28 61 8b bc e6 95 33 3d
       -0.02751887 0.047941882 -0.017014101 0.043844126
000210 91 ec 20 3c 31 f4 c8 bc 4b ba 77 3c 10 ac 09 bc
       0.009822027 -0.024530502 0.015120099 -0.008402839
000220 99 2e 8a 3d f4 ef 93 3d d5 08 8a bc 0c 55 98 3d
       0.06747169 0.07223502 -0.016849915 0.074380964
000230 03 86 45 bd d1 26 4b 3d ad f0 61 3d 01 a3 90 bc
       -0.048223507 0.049597565 0.055161167 -0.017655851
000240 98 39 78 3d 3d 7f 6d 3d 39 4c 49 bc 09 c9 e9 3d
       0.0606018 0.057982672 -0.012286239 0.114152975
000250 9e f9 89 3d b2 f9 44 3d dc f7 98 3d 8d 3e 64 3d
       0.06737064 0.04808969 0.074691504 0.055723716
000260 0a 7d 4a bd 10 72 c6 3c 36 b0 12 3c 58 d8 87 3d
       -0.049435653 0.024224311 0.008953145 0.06633061
000270 24 31 b4 bd e9 f5 cc 3a 9c 7e 0e 3b d7 8e 08 3d
       -0.08798435 0.0015637252 0.0021742946 0.033339348
000280 2a e3 7b bd 62 c0 15 3d 98 41 13 bc 68 df 6a bd
       -0.061495937 0.036560424 -0.008987807 -0.057341963
000290 5d 1b 0d bd 5f aa f1 3c c0 17 1d bd 25 c8 07 bd
       -0.034449924 0.029500185 -0.038352728 -0.033149857
0002a0 f5 e3 a9 3d a7 63 29 3d c6 01 0e 3d 5a e7 c3 bb
       0.082954325 0.0413548 0.03466966 -0.005978507
0002b0 39 3b fe bc 17 0e 63 3d f2 c6 21 3d 3b fc af 3c
       -0.031034099 0.05543336 0.03949637 0.021482578
0002c0 d9 59 86 bc e3 d8 bd bb 57 05 a7 bc ef 4b 08 3d
       -0.016400265 -0.005793677 -0.020388288 0.03327554
0002d0 f6 b8 bd 3d 0d 16 89 3d dc 83 11 bd 00 35 8e bc
       0.09263794 0.06693659 -0.03552614 -0.017359257
0002e0 d4 2c f9 bb 8f aa 89 bc 10 1a 83 3d 7f 61 d9 bd
       -0.007604221 -0.016804961 0.064014554 -0.10614299
0002f0 93 38 84 bb 6b 90 ab 3b e0 82 16 bd 46 ad 5c bd
       -0.0040350645 0.005235722 -0.036745906 -0.053876184
000300 9f ed 13 3d 20 57 a0 3c d1 c3 0c 3d f9 a4 b1 3d
       0.036115285 0.019572794 0.034366433 0.08674044
000310 1d da 03 bd 56 2a 22 3d 16 c5 2e 3b be 48 9b bd
       -0.03219043 0.039591156 0.0026667765 -0.07582234
000320 41 2d ab bc 4d eb 78 bd 18 05 01 3d e7 91 4a 3d
       -0.020895602 -0.060771275 0.031499 0.04945555
000330 19 dd 96 3c 89 7c 8a 3b a6 1e b6 3d 72 86 45 bd
       0.018415974 0.0042262715 0.088925645 -0.04822392
000340 1f 02 c7 3d a9 d0 3d bd 75 35 b0 3d bd 6a 34 bd
       0.097172014 -0.046341572 0.08603946 -0.044047106
000350 a0 75 f0 3d a3 f9 6d bd 40 68 df 3c 64 b4 a3 bd
       0.11741185 -0.0580994 0.02727139 -0.07993391
000360 5f 1e 02 3d 7b 57 0b 3d 1d ab 6c 3d 9f af a1 3d
       0.031767245 0.034018975 0.057780374 0.07894825
000370 b2 4b 8f 3c d4 a2 8e 3d e3 f1 81 3d 5c f3 db 3b
       0.017492149 0.06964651 0.06344964 0.0067123603
000380 34 fd 82 3d 4d 7a 7b 3c 7a fd 49 bd d3 87 cb 3b
       0.06395951 0.015348983 -0.049314 0.00621126
000390 6f bd 3f 3c 36 77 16 3c 4f 38 13 bd 8f 29 09 3b
       0.011702879 0.009183696 -0.035942372 0.0020929312
0003a0 e3 76 07 3d 3c 11 ac bc 29 6d bc 3d 32 a5 1b bd
       0.033072364 -0.021004312 0.09200508 -0.03799934
0003b0 28 1e 55 bb a8 4b 8f 3d 1b a9 76 3d c6 78 3f bd
       -0.0032519195 0.06996852 0.060219865 -0.046746038
0003c0 63 8c fb bc a0 fd d1 bd 1c c4 36 3d 50 a2 8a bd
       -0.03070659 -0.10253453 0.04462062 -0.0676924
0003d0 88 f7 81 3d 9b e8 a4 3d 1a 94 dd ba 53 57 53 bd
       0.06346041 0.080521785 -0.00169051 -0.05159695
0003e0 33 81 46 bd f1 8a 3a bc 10 d2 6f 3d b6 cc d6 3c
       -0.048463058 -0.011385665 0.05854994 0.02622066
0003f0 64 9b 82 bd 9c 8d 66 bc 93 84 73 bd 60 9d 2a 3c
       -0.06377295 -0.014071848 -0.059452605 0.010413498

fc2.bias f4 [256]
000000 d8 a9 ed 3c 27 77 51 3c 64 66 de 3c 55 80 17 bd
       0.029011652 0.012784756 0.027148433 -0.03698762
000010 49 ec 83 bd d8 f9 4f 3c 53 65 a8 b9 8f 1f 00 bd
       -0.06441552 0.012693845 -0.0003211895 -0.031280097
000020 d0 5f 07 bd fe dd d7 3c 2b 7c af bc 73 5e 04 bd
       -0.03305036 0.026350971 -0.021421513 -0.032316636
000030 f8 dd 3c bd 0b 88 cd 3d 9b 12 0f bc a4 a7 86 3c
       -0.046110123 0.10035714 -0.008732463 0.01643736
000040 33 72 36 bd e4 10 e5 bc f0 ea 1f bd 4c 24 d6 3b
       -0.044542503 -0.027962156 -0.039042413 0.0065350886
000050 2e b4 37 3c 92 c2 03 3d c1 4e 34 3d b4 c6 88 3c
       0.011212392 0.03216798 0.044020418 0.016696312
000060 9f 4f d6 b8 b2 4a 2b bc 6f 52 43 3d 64 20 ec bc
       -0.00010219146 -0.0104548205 0.047686037 -0.028824039
000070 8c b2 aa 3d ea 49 3a 3d b6 74 f6 bb 6a 93 65 3d
       0.08334836 0.045480646 -0.0075212372 0.056048788
000080 69 bd e9 bc c8 71 c4 ba 78 fe ef 3c 5f 3b 7e bd
       -0.0285327 -0.0014987523 0.029296145 -0.06206834
000090 09 11 b1 3c 58 59 6a 3c be fb ad bb 8d e6 b6 3c
       0.021614568 0.014303528 -0.005309551 0.022326732
0000a0 37 56 52 3d 29 48 9d 3c e2 8f 0c 3d 5e d0 35 3d
       0.051351752 0.019199448 0.034316905 0.044388168
0000b0 93 18 1d bd f2 4f f2 3c 50 a5 1d 3d 24 c8 36 bd
       -0.038353514 0.029579137 0.038487732 -0.044624463
0000c0 5a 4f 7d bc 83 1c c9 bb 7e 21 3b 3d 67 23 39 bd
       -0.015460813 -0.006137432 0.045686238 -0.045199778
0000d0 34 1c fb 3c 23 a5 ff 3c ec 66 f3 3b 01 6d fb 3c
       0.030653097 0.031206673 0.0074280407 0.030691626
0000e0 2e 40 81 3b bc 41 a0 bb 5c 45 a2 bc 7c b2 3d 3d
       0.0039444184 -0.0048906486 -0.019808464 0.046312794
0000f0 29 09 88 bd bd e0 52 3d a6 49 f0 3c bd 55 69 3c
       -0.06642372 0.05148386 0.029331993 0.014241633
000100 ac 84 32 3d 7e 21 fc 3c 63 8c 7c bc 90 09 ea 3c
       0.043583557 0.03077769 -0.01541433 0.028569013
000110 9c 42 5e 3d 43 4e 32 3d af 76 d7 3a 2d bd 1e bd
       0.054262742 0.043531667 0.0016438569 -0.03875463
000120 85 26 50 bb 29 c4 22 3d 51 88 ba 3c 1d 5e a8 3c
       -0.003176124 0.039737854 0.022770079 0.02055269
000130 0f 53 25 3d 2f 82 83 bd 82 64 36 bd c3 2d 44 bc
       0.040362414 -0.06421315 -0.044529445 -0.011973801
000140 f5 fa b2 3d aa a9 f7 bc 50 9b 0d 3d a0 86 57 bd
       0.087392725 -0.03023227 0.034571946 -0.052618623
000150 57 41 f1 3c 97 d1 38 3d e8 e6 41 3c a1 a4 06 bd
       0.029450102 0.045121755 0.0118348375 -0.032871846
000160 c9 d8 79 bc 1b 12 36 bc 27 6b 31 3c 78 9f 5f 3b
       -0.0152494395 -0.011112715 0.01082877 0.003412215
000170 33 e1 2b 3b 8b 14 28 3d 36 3c bf 3c 94 a4 f6 bc
       0.0026226758 0.041035216 0.02334414 -0.030107774
000180 a6 4a fe bb 29 4e 2c 3d 3c d1 46 3d c7 88 fd 3b
       -0.0077603636 0.042066727 0.048539385 0.0077372524
000190 fd e1 b0 bb ec 68 0c bd 09 63 e3 bc 0c 7f 1f bd
       -0.0053980337 -0.03427975 -0.027757185 -0.03893952
0001a0 b5 45 fe bc 58 29 e8 3b e2 62 27 bb b6 c3 44 bd
       -0.031039098 0.0070850067 -0.0025541116 -0.048038207
0001b0 6c 95 ae bb 58 65 cc bc f4 5a fd bb e8 63 3e 39
       -0.005327871 -0.024950668 -0.0077317897 0.0001815703
0001c0 ae 26 e8 bc 5d 2c 0d bd 12 16 40 bd 57 de 3a bd
       -0.028338756 -0.034466136 -0.046896048 -0.045622196
0001d0 c9 f7 26 3d 36 60 10 3c 62 93 2a 3d c6 c1 54 3c
       0.04076365 0.008812001 0.04164446 0.012985652
0001e0 52 5e c4 3c 10 40 99 3d ed 9f d0 bc 42 69 a8 bc
       0.023970757 0.07482922 -0.025466884 -0.020558003
0001f0 ef 73 89 bc 84 2f 87 3d aa a2 5b 3d ba 95 93 ba
       -0.016778914 0.0660086 0.053621925 -0.0011259832
000200 7f f3 48 bd da 22 f1 ba d8 b1 d5 3c 96 82 85 3d
       -0.04906034 -0.0018397227 0.02608578 0.06519048
000210 e8 d6 a8 3d 5b e1 e5 bb 3d 74 64 bd e7 6c 12 3d
       0.08244115 -0.00701539 -0.055774916 0.03574839
000220 f6 99 8b bb bd 51 44 bd a0 01 20 3d 4c 1f 17 3d
       -0.004260297 -0.047929514 0.03906405 0.03689508
000230 ce 7a b5 bc a6 31 2f 3d d2 0e 10 bd 65 d7 f5 b9
       -0.022153284 0.042771958 -0.035170384 -0.00046890523
000240 91 ce e4 bb ea 15 3c bc 5e ee 34 3c 7d 92 d8 bc
       -0.0069826324 -0.011479834 0.011043159 -0.026437039
000250 fa 35 62 3c bb 5b e8 bc 1e 4c 68 3c e3 d3 00 3c
       0.013806814 -0.028364053 0.014178304 0.007863018
000260 c3 8f 41 3d 44 7a 70 bc 6b 4b 2d bd 92 bd e4 bc
       0.047256242 -0.014677588 -0.042308252 -0.027922425
000270 1a a4 27 3d 87 38 01 bd f6 2f 1c 3d bf 08 b6 3c
       0.040927984 -0.03154805 0.038131677 0.022220967
000280 5d 6b 37 bd 1a ba e5 bc d1 b6 82 bc 5a b8 27 3c
       -0.044780124 -0.028042842 -0.015956314 0.010236824
000290 a0 bd a9 3c 51 08 33 bd af 98 d6 bc 69 56 b9 3b
       0.020720303 -0.043709103 -0.026195852 0.005656053
0002a0 76 de b2 3d 0a 2c c5 3b ad 0d ff 3c f3 89 08 3d
       0.08733837 0.0060172128 0.03113445 0.033334684
0002b0 a4 ae 03 bc de 87 0a bb 95 fa 61 3d a6 7f 98 bc
       -0.008037243 -0.0021138112 0.055170614 -0.018615555
0002c0 cf 29 46 bb 58 6b 8f 3c e5 f2 17 3d b8 a8 94 bc
       -0.0030237322 0.01750724 0.037096877 -0.018146858
0002d0 e2 83 97 bc 8a 00 07 3d 5b fd 29 bd ab 71 c5 bc
       -0.018495504 0.0329595 -0.041501384 -0.024102053
0002e0 2d 10 83 3c d1 d4 5f bc 5c 90 15 bc 19 29 2e 3d
       0.015998924 -0.013661579 -0.009128656 0.042519663
0002f0 1a c0 1a bd 45 12 64 bc 61 c9 4a 3d 51 95 aa 3d
       -0.03778086 -0.013920371 0.049508456 0.08329261
000300 aa c6 6d ba b6 77 28 3d 07 07 af 3c 38 a9 4d 3d
       -0.0009070436 0.04112979 0.021365656 0.050210208
000310 98 98 ff 3c 82 8e b6 bc 35 c1 c2 3c 55 2f a4 3c
       0.031200692 -0.02228475 0.023773769 0.0200421
000320 b6 9a 25 bb 27 c2 5c 3d 8f b7 91 3d c6 63 c4 bc
       -0.0025269217 0.053896096 0.07115089 -0.023973357
000330 41 91 43 bc be 61 a3 bc 64 f8 46 b8 16 56 60 3c
       -0.011936487 -0.019944068 -4.743821e-05 0.0136923995
000340 39 ee 10 3c 24 47 ca 3c 50 cb 8e 3d 74 8c 37 bd
       0.008845859 0.024692126 0.069723725 -0.04481168
000350 b2 2e a1 bc b7 35 f4 3b a6 bd 42 3d ca 5d 27 bd
       -0.019675586 0.0074526924 0.047544144 -0.04086093
000360 c2 41 2a bd 80 1e 96 3d f8 7b 35 3d fd 11 73 3d
       -0.041566618 0.07330036 0.04430768 0.059343327
000370 7a 86 d4 bb 81 f3 0d bd 2b 9a b7 3d d1 8e 8a 3b
       -0.0064857574 -0.03465605 0.08964952 0.004228451
000380 af da 2a bd a9 1d ad bb 52 69 bc bc 98 18 f4 bb
       -0.04171246 -0.005283077 -0.02299944 -0.007449221
000390 e7 19 4d bc 71 0a 88 3c 8b f7 0c 3d ab ab 2b 3d
       -0.012518383 0.016606541 0.034415763 0.041911762
0003a0 29 af ba 3c 3f 94 7e bc 01 04 e5 3c 75 69 11 bd
       0.022788601 -0.015538274 0.02795601 -0.035500962
0003b0 ba 54 1f 3c 60 31 59 bd b3 8b ce 3c bb f7 52 3d
       0.00972479 -0.053025603 0.025213098 0.051505785
0003c0 51 07 36 3c 26 0b 4b ba 94 29 04 bd 14 19 e9 3b
       0.011110143 -0.00077454967 -0.032266214 0.0071135852
0003d0 99 23 c2 3c e0 b3 92 3c 2f f6 e2 bc d6 84 0a 3d
       0.023698615 0.017908037 -0.02770528 0.03381809
0003e0 b0 96 6f 3c 2f 2a e1 bc 1c e6 18 3d e4 6c 93 bc
       0.014623329 -0.027485935 0.037328824 -0.017996259
0003f0 9f 73 ce 3c 0f 83 12 bd 2e 0f 20 3d 79 7b 55 3d
       0.025201617 -0.03576952 0.039076976 0.052119706

fc3.weight f4 [2, 256]
000000 00 3f b4 bc 59 63 ba 3b b2 cc c5 bd d8 26 98 3d
       -0.022002697 0.0056881127 -0.09658183 0.07429284
000010 13 1d a8 bd 7b a7 62 bb a3 b5 8e 3d 2f 73 72 bb
       -0.082086705 -0.003458469 0.06968238 -0.0036994924
000020 1a e1 09 be c0 61 cb 3b 7a fe 65 3d d5 12 7d b9
       -0.13464776 0.006206721 0.05615089 -0.00024134976
000030 96 47 e9 bc 2d fd ee 3c 5a 35 bc 3d bb 56 c3 3b
       -0.028476518 0.029173458 0.091898635 0.005961267
000040 34 fc ad bc 76 f7 cc bb ae 7a 9e 3c 4f 19 ca 3d
       -0.021238424 -0.0062550856 0.019345608 0.098681085
000050 89 16 6a 3b bb 78 a0 3c 36 e0 0e 3d ba 9c 6f 3b
       0.0035718998 0.019588819 0.034881793 0.0036561922
000060 1d 24 53 bd 8f ff 6f 3d b3 ab 16 3d 0a 35 93 ba
       -0.051548112 0.05859333 0.03678484 -0.0011231017
000070 9e ce 88 ba b9 88 0b 3e 3a e2 9e bb 6f d7 c1 3c
       -0.0010437553 0.13626374 -0.0048487457 0.023662297
000080 d0 f2 42 bc b3 b5 67 3e 17 47 e4 3b 8c 0c b3 bd
       -0.011898711 0.22627907 0.0069664824 -0.087426275
000090 7b 90 2f bc c0 99 a1 3c 8d e8 c4 3b e1 bf 75 3a
       -0.010715599 0.019726634 0.0060091675 0.00093746005
0000a0 89 6b de 3c 41 ae a9 3d d3 2e 87 3b c9 0c fa bc
       0.027150886 0.082851894 0.004125455 -0.030523675
0000b0 b0 a5 16 3c 78 3a b1 3c 76 ad 54 3b 12 82 46 bc
       0.009194776 0.021634325 0.0032452024 -0.012115972
0000c0 8d ce 76 3b d6 cf 7a 3d c3 f0 6b 3d d2 42 9a bd
       0.0037659735 0.061233364 0.057602655 -0.07532276
0000d0 cb e7 d3 ba c3 ea 6d 3d 8e d5 c1 3d eb 0d d4 bd
       -0.0016167102 0.058085214 0.094645604 -0.10354217
0000e0 58 af fb ba d6 d5 95 ba 86 9a 6a bc 88 1a 59 37
       -0.0019202037 -0.0011431526 -0.014319068 1.2940385e-05
0000f0 87 ba 3a bd c8 f3 b8 bc a2 a1 db 3b 52 ee 42 3d
       -0.045588043 -0.022577181 0.0067026177 0.04759056
000100 02 1c fe 3c 82 19 b4 3d 55 fb 92 3c b6 62 5f 3d
       0.031019215 0.08793928 0.01794211 0.054537497
000110 fb e7 1e bd 6c a0 42 bd d3 99 db 3a db f8 9e bb
       -0.038795453 -0.04751627 0.0016754217 -0.004851443
000120 31 97 66 bc e0 2b ad b8 53 78 79 bb 81 9a 90 3d
       -0.014074133 -8.257455e-05 -0.0038066104 0.07060719
000130 56 27 9d bc ac 44 ad bc ed f5 f8 ba 2e 1a fb ba
       -0.019183796 -0.02115091 -0.001899419 -0.0019157582
000140 dc fb 76 3d 73 af db 3b 87 45 76 bc 8e 21 45 bc
       0.060298786 0.006704265 -0.015031225 -0.012031926
000150 25 4b a9 39 0b b8 ca 3c 87 6e 4d 3c 9c bc 28 3b
       0.0003229018 0.024745962 0.012538559 0.0025747186
000160 f9 7f 7b bc 6b d4 6d bb 6c c0 25 bc 4d af 36 bc
       -0.015350335 -0.003628994 -0.010116678 -0.011150193
000170 73 18 19 3c e2 02 40 3a c0 ee 12 3d 30 24 94 bc
       0.009344208 0.00073246483 0.03587222 -0.018083662
000180 77 d5 2c be b0 6a 20 bd 64 6a ad 3d 94 92 e8 3d
       -0.16878305 -0.039164245 0.08467558 0.113560826
000190 90 23 f7 3c 17 01 76 3d e2 d6 94 3a fb 06 8b bc
       0.030168325 0.060059633 0.0011355544 -0.016971102
0001a0 4c 38 6c 3b 02 89 bf bb e0 55 98 bb c1 80 ef 38
       0.0036044298 -0.00584519 -0.004648909 0.000114203904
0001b0 98 a3 4e bb 42 9f 94 3c ec d4 63 3b c4 88 8a bd
       -0.0031530615 0.018142346 0.0034764362 -0.06764367
0001c0 d3 58 36 3c 6b 4c 4e 3d aa 9f 0e bb 8e 8f f5 bb
       0.011129576 0.050365847 -0.0021762648 -0.0074939197
0001d0 33 22 81 3d 1f fe 92 3b 63 25 32 36 b5 f3 0f 3d
       0.06305351 0.00448586 2.6545829e-06 0.035144527
0001e0 6c d7 e7 3b 08 88 c8 3d 4f 9e ef ba ae 31 52 bd
       0.007075241 0.09791571 -0.0018281433 -0.05131691
0001f0 17 0d 2c 3b 64 2c 0a 3c 5d 41 33 3d a0 5e 8e 3d
       0.002625292 0.008433435 0.043763507 0.06951642
000200 91 aa b9 bd b3 a5 4a 3d 14 f8 9e bd 1c a7 ba 3d
       -0.09065736 0.04947443 -0.07762161 0.09113905
000210 3a 91 d0 3d b9 d4 af 3d 0e 4e c9 bd 7f f6 da 3d
       0.1018395 0.085854955 -0.09829341 0.10691547
000220 06 dd a1 3d f3 7f 8d bb 47 33 26 3c 56 cd 95 bd
       0.07903485 -0.0043182313 0.010144061 -0.07314555
000230 c6 66 1d bb 06 bc 70 3d 49 e8 6d bd 02 1c 6e 3c
       -0.0024017557 0.058773063 -0.058082853 0.014533045
000240 83 08 97 3b 07 5e 87 3b d8 0c 0c bc ec fd b7 3b
       0.004609169 0.004131082 -0.008547984 0.0056149866
000250 d6 9e fd 3c 09 92 02 be c3 2d 8d 39 62 ef 07 3b
       0.030959528 -0.1275102 0.0002692771 0.0020742049
000260 ad f0 3d bc 9a a8 67 3c dd 03 11 3d 2a d0 f9 3b
       -0.011593026 0.014139319 0.035404075 0.007623692
000270 fd b2 8a bc 1f a6 56 bd d4 cc 03 3e c2 f7 39 ba
       -0.016931051 -0.05240452 0.12871104 -0.0007094109
000280 9f 48 4b bc a1 fc 1e 3c 4e bc dd 3b 9e 61 f9 3c
       -0.012407451 0.009703786 0.0067668324 0.030442055
000290 f9 d0 03 bb 5c cc 12 3d 16 8b 84 bb 2c 00 e2 ba
       -0.002011357 0.035839424 -0.0040449006 -0.0017242483
0002a0 f8 02 b7 3d 47 23 e0 3d a5 8d cb 3d de 9f fc bb
       0.08936113 0.109442286 0.09939126 -0.0077094873
0002b0 73 50 f0 bd c8 d4 49 be e2 7e a2 3c 28 59 8a bc
       -0.117340945 -0.19710076 0.019835893 -0.016888216
0002c0 bb 1b de 3b 7a 69 5e bc 5f 51 12 bc 48 9e cc 39
       0.006778208 -0.013574952 -0.008930533 0.0003902784
0002d0 8a dc 3f bc a0 ec fa 3b 91 58 80 bb bf 4c b1 3c
       -0.011710295 0.0076576024 -0.003916808 0.02164304
0002e0 c5 92 79 3c f9 1e a9 bc 0c 46 92 3c 62 b6 0f 3e
       0.0152327465 -0.020644652 0.017855667 0.14034417
0002f0 e5 f7 8c b9 e7 e0 22 39 3e ed 64 3c 9c f9 4e 3e
       -0.00026887577 0.00015533307 0.013972579 0.20212406
000300 36 14 9a bd 39 70 1f 3e f9 89 60 bc 0f 7a 94 3d
       -0.07523386 0.15570153 -0.01370477 0.07249843
000310 56 4e 8a 3b f7 05 e2 3b bf ec 77 3d b0 b6 5f bb
       0.004220764 0.0068976837 0.060528513 -0.003413599
000320 f2 51 d4 b9 90 28 d1 3c 83 5f 5c 3d 23 53 2a 3b
       -0.00040496845 0.025532037 0.053802025 0.0025989495
000330 93 a7 e5 3c 77 3d 89 3a b6 ee 57 3d be 34 05 bc
       0.028034007 0.0010470588 0.052717887 -0.0081302505
000340 9d 92 57 bc b2 d5 06 3c 47 4b 02 3c 18 87 cf bc
       -0.013157514 0.00822966 0.007952518 -0.025332972
000350 16 19 a4 bb 3f b0 af 3d 69 58 a6 bc 4e ec 05 bc
       -0.0050078733 0.08578538 -0.02030583 -0.008174015
000360 a8 1c ae bb b9 51 d9 3c 17 04 88 3d b2 73 7d 3c
       -0.0053134747 0.026528226 0.06641405 0.015469478
000370 d7 50 2a bc fd cf 91 ba 56 51 1b 3d a9 a8 82 3b
       -0.01039525 -0.0011124607 0.037919365 0.003987391
000380 db 99 9d bc ac ad 5a 3d 5d 0b 42 bc 2b a5 20 ba
       -0.019238403 0.053388283 -0.0118435295 -0.00061281276
000390 26 4e 35 bc 71 18 36 bc 78 2b 17 3e 28 36 2a 3b
       -0.011065995 -0.011114226 0.14762676 0.002597222
0003a0 b9 d4 fa ba fb 71 cf bb 57 a9 ae bc 5d 4b 0d bd
       -0.0019136883 -0.006330726 -0.021320982 -0.0344957
0003b0 66 29 0e bd d8 4b 19 ba 16 6b 9a 3b 17 35 e7 3c
       -0.03470745 -0.00058477884 0.0047124727 0.028223557
0003c0 cc c6 2a 3c b8 ca a7 3b 0d 58 45 b8 e3 c7 e6 3b
       0.010423373 0.0051206015 -4.7050464e-05 0.0070428713
0003d0 78 3f ee ba 64 bd 40 39 a0 c6 60 bd 50 66 b4 bb
       -0.0018176874 0.000183811 -0.054876924 -0.0055053607
0003e0 96 52 cd 3d 15 a7 a7 3d 6c 72 56 3d 7a 4f a7 3c
       0.10025518 0.08186165 0.052355215 0.02042364
0003f0 5d 07 21 3d f2 f4 33 bc ee d5 e9 3c cd 6e 2f bc
       0.039313663 -0.0109836925 0.028544392 -0.010707569

fc3.bias f4 [2]
000000 1c eb 2f bd 98 43 90 bd
       -0.042948827 -0.070441425
