projects/tennis/checkpoint/E09.02_critic1_2000.pt (torch_old, 502006 bytes, 9 tensors)

fcs1.weight f4 [400, 48]
00000000: d440 a702 a8f1 aa02 08d1 3880 167b 0383
00000010: 86df 9c02 7128 1183 4df1 a381 8289 f482
00000020: a999 b202 588e ef02 9e3f 8982 d5ac 3683
00000030: bcd6 a382 b219 0c83 aa2e bf82 5a83 cf81
00000040: d981 1f03 a9d9 c702 342e 7881 b87b e580
00000050: 028e b602 89e9 7f82 f034 b580 68c6 1f01
00000060: 2080 0603 6120 1203 61d9 4d81 e150 5402
00000070: 8be5 9d82 b6e2 0783 8002 b381 6211 b901
00000080: f987 1803 8426 f202 5560 b982 b88d fd00
00000090: e4d9 b202 abb2 0083 c57f b282 4c48 4a81
000000a0: 4409 1303 dd52 fc02 c408 1401 582c a180
000000b0: 9957 b282 5ba1 9282 840b 6801 0244 2b02
000000c0: 1ac2 8c02 089f af82 4abd 8302 98de a382
000000d0: 57f4 6202 b023 2f02 de2f 3d02 24c5 9f82
000000e0: 0deb 4183 1830 2d03 a1c5 f102 7817 9800
000000f0: 0e4f 3100 e1ff bd02 3894 9f81 0e72 3683
00000100: f654 0103 f4fb a780 d61a 0402 e7f7 7281
00000110: fa54 e202 c9cb 5a82 1a7f 9782 505d 8902
00000120: c3ca 4403 dc5e 0902 926d 8882 dedd 4383
00000130: ea0d c880 fcf6 aa82 5bb6 be82 3e91 b202
00000140: 6d31 7101 b837 2502 534a 2682 9add 8181
00000150: f1ed 9b82 0ab4 2f82 9777 c782 e9ac b782
00000160: 5750 d081 186f 9182 2eba 6d82 4a48 fc02
00000170: 7813 2103 8cba b982 2652 9f02 c468 8502
00000180: 3e11 0bbc 0c57 d4bb df23 1b3b d156 c03a
00000190: 2c36 d6ba add4 913b adb1 513b 3022 c03a
000001a0: c270 523b 92a4 c4bb fb15 95ba a658 7a3a
000001b0: fd4d 35ba 115f abba f8fa 19ba 120f 753a
000001c0: 9571 073c 9248 c4bb 3c13 28bb 97f2 7c3a
000001d0: e405 6a3b 93c5 1ebc aadf 86bb 878e 7c3a
000001e0: 0ef7 2d3b 0f63 b5bb c9c0 8bbb 6896 7eba
000001f0: b610 c33b 59cf 923b 6681 19ba 6a96 7eba
00000200: 275f 153c fe12 a9bb 0c89 973b a287 e637
00000210: 0dc5 283b bdfa a8ba 8d7f 843b e287 e637
00000220: e4b3 483c 91e3 a5bb 6233 9339 c1eb 383b
00000230: d522 c7bb dfed 1abc 9e6d 113b c2eb 383b
00000240: 9849 21b5 f8dd 76b5 cea1 b437 70dc 10b7
00000250: fb86 38b9 20f3 c737 4333 b537 ebdc 10b7
00000260: a39d 0539 2a8c e8b5 d315 8037 7389 e5b6
00000270: 4cfc 56b9 a8b5 4037 e262 8037 588c e5b6
00000280: 2807 8bb8 2365 adb6 fa82 9537 6919 a5b6
00000290: adf0 11b9 9394 a937 0840 9537 2319 a5b6
000002a0: 8bbb 4ab8 4d65 88b6 5e72 0eb7 6fb1 5936
000002b0: 36ed 3f39 0c17 c837 c357 0db7 6fb1 5936
000002c0: 20c6 2736 4aed bfb6 027e 6ab7 1d8f 1fb7
000002d0: 8c1d 5c39 45c9 4037 6798 6bb7 1e8f 1fb7
000002e0: 6532 8fb9 ac62 22b7 bed7 e4b6 fec9 fdb5
000002f0: d98f 2339 aba4 a937 aae8 f8b6 e2c9 fdb5
00000300: 9ad4 90ab a79e d7a6 d280 b5ad 1095 17a7
00000310: e9e7 a4ae bcfd f226 809a b5ad 6f95 17a7
00000320: 9e91 2eab 476f 03a7 7ece 01af 8b08 b926
00000330: ece4 66af 423a 4d26 92d1 01af c30a b926
00000340: 3ece f1a9 ec49 d6a6 32db 192b 9371 1e27
00000350: 65a9 8aaf cca5 19a7 52df 192b 8f73 1e27
00000360: 8fc8 e1aa 6a72 9aa6 4168 4230 d456 54a7
00000370: a795 a42e 9dfe f226 a46c 4230 2858 54a7
00000380: 0580 e6aa d87f e8a6 9ce1 2530 bc0e dfa6
00000390: 709f 662f 1a39 4d26 2de6 2530 3813 dfa6
000003a0: 9b16 a3aa e8b1 e4a6 cc4b a32e 9f45 9fa6
000003b0: 64c1 8a2f 56a7 19a7 1d43 a32e ec39 9fa6
000003c0: 84cf 3602 2fe1 4b82 2acf ed02 d008 e382
000003d0: 2f8a 8082 cca1 3503 c43f 3d82 2ce3 1d03
000003e0: 0800 1d82 be27 0781 5a98 6903 7732 8b02
000003f0: b8bc 1002 5249 2282 ef17 6982 1e87 3682
2.4575654e-37 2.5117959e-37 -5.217774e-39 -3.8638736e-37 2.3050436e-37 -4.2658095e-37 -6.0222993e-38 -3.5931503e-37
2.6242946e-37 3.5199595e-37 -2.0166855e-37 -5.3683394e-37 -2.407395e-37 -4.11718e-37 -2.8091711e-37 -7.622827e-38
4.687496e-37 2.9365353e-37 -4.5583555e-38 -2.107471e-38 2.6824005e-37 -1.8801463e-37 -1.6641215e-38 2.9346037e-38
3.952614e-37 4.2942713e-37 -3.7808515e-38 1.5598511e-37 -2.3200828e-37 -3.9933186e-37 -6.57578e-38 6.798321e-38
4.4824874e-37 3.558081e-37 -2.7238599e-37 2.328522e-38 2.6279812e-37 -3.782092e-37 -2.6228085e-37 -3.715341e-38
4.3210054e-37 3.7075633e-37 2.7189596e-38 -1.4801422e-38 -2.6205028e-37 -2.1545385e-37 4.2619932e-38 1.2582613e-37
2.068256e-37 -2.5805218e-37 1.9357367e-37 -2.407846e-37 1.667398e-37 1.2867211e-37 1.3899264e-37 -2.3476103e-37
-5.6987427e-37 5.089534e-37 3.55252e-37 1.3967414e-38 4.528299e-39 2.7917921e-37 -5.862006e-38 -5.361592e-37
3.8007223e-37 -1.5426912e-38 9.70553e-38 -4.462624e-38 3.325649e-37 -1.6074594e-37 -2.2260409e-37 2.01839e-37
5.783198e-37 1.0092394e-37 -2.0046294e-37 -5.756004e-37 -1.837209e-38 -2.5121017e-37 -2.8022658e-37 2.6238114e-37
4.430017e-38 1.2138276e-37 -1.2217084e-37 -4.77051e-38 -2.2911775e-37 -1.2908638e-37 -2.9309063e-37 -2.6988679e-37
-7.6522415e-38 -2.13696e-37 -1.7465441e-37 3.7069564e-37 4.7335997e-37 -2.729038e-37 2.34101e-37 1.9602726e-37
-0.008487998 -0.0064801034 0.0023672504 0.0014674311 -0.0016343049 0.0044504018 0.0031996772 0.0014658626
0.0032110666 -0.0060010636 -0.0011374349 0.0009549953 -0.0006916223 -0.0013074597 -0.0005873884 0.0009348254
0.008266826 -0.0059900964 -0.002564623 0.0009649186 0.0035709077 -0.00969066 -0.0041160183 0.00096342753
0.002654496 -0.0055354903 -0.004264925 -0.00097117433 0.00595292 0.004480284 -0.00058557687 -0.00097117445
0.009116924 -0.0051597347 0.0046244916 2.7481296e-05 0.0025752217 -0.0012892109 0.0040435256 2.7481412e-05
0.0122499205 -0.0050625284 0.00028076308 0.0028216692 -0.0060771503 -0.009456127 0.002219058 0.0028216694
-6.0084267e-07 -9.196515e-07 2.1533018e-05 -8.634393e-06 -0.00017597892 2.3835863e-05 2.1600752e-05 -8.634505e-06
0.00012742593 -1.732614e-06 1.5268952e-05 -6.840733e-06 -0.00020502618 1.1486387e-05 1.5304835e-05 -6.84107e-06
-6.6293695e-05 -5.1675756e-06 1.7823175e-05 -4.9203413e-06 -0.00013917936 2.0215555e-05 1.7792001e-05 -4.9203095e-06
-4.8335216e-05 -4.064909e-06 -8.490488e-06 3.24388e-06 0.00018303547 2.385259e-05 -8.4246885e-06 3.24388e-06
2.5000263e-06 -5.7198677e-06 -1.3976825e-05 -9.51046e-06 0.00020991842 1.14909535e-05 -1.40425755e-05 -9.510461e-06
-0.00027312632 -9.678926e-06 -6.820045e-06 -1.8908756e-06 0.00015598479 2.022305e-05 -7.4180616e-06 -1.8908725e-06
-1.0290824e-12 -1.4961625e-15 -2.0634525e-11 -2.1036267e-15 -7.499052e-11 1.6860898e-15 -2.064593e-11 -2.1036468e-15
-6.20193e-13 -1.8240226e-15 -1.1805842e-10 1.2839269e-15 -2.0999708e-10 7.1202617e-16 -1.1806936e-10 1.2839871e-15
-1.0738327e-13 -1.486927e-15 5.4660714e-13 2.1988473e-15 -2.5222416e-10 -2.1322894e-15 5.466644e-13 2.198955e-15
-4.0107194e-13 -1.0716909e-15 7.072494e-10 -2.946798e-15 7.48444e-11 1.6861136e-15 7.0731176e-10 -2.94687e-15
-4.094504e-13 -1.6132886e-15 6.034726e-10 -1.5477727e-15 2.0975022e-10 7.120105e-16 6.035375e-10 -1.5478943e-15
-2.8970302e-13 -1.58689e-15 7.425846e-11 -1.1051712e-15 2.5239466e-10 -2.1323728e-15 7.4243035e-11 -1.1048541e-15
1.3430802e-37 -1.4978709e-37 3.4942926e-37 -3.335971e-37 -1.8887223e-37 5.3376853e-37 -1.3903827e-37 4.6398934e-37
-1.1534547e-37 -2.4824098e-38 6.8647437e-37 2.045318e-37 1.0633609e-37 -1.1922922e-37 -1.7125005e-37 -1.3410025e-37

fcs1.bias f4 [400]
00000000: 1377 0583 a996 8d82 4456 0a3b 7d4c c436
00000010: 7624 b625 6a0f 6b82 fe7b 6b02 286a 9788
00000020: e720 8381 8e67 06bb aec6 2b01 2437 8782
00000030: 555a 0783 19f4 3c02 fd7b 97b8 03b7 7002
00000040: c9c8 253c b806 fa00 3f9a 5dbb 2e04 16bc
00000050: fe19 2c02 0605 b482 2575 5439 9a97 ff82
00000060: 4a2d 4903 68de 07b7 a6d7 ba01 0fc2 af02
00000070: 3286 9402 7096 0901 f0fa 0e02 e4d3 ba02
00000080: 32a9 ee82 6e27 8001 6243 0d3b 32c3 9138
00000090: 896e 8c1d 7189 6783 0ca0 858e ad90 d939
000000a0: 5c8c 4683 a3b9 f8ab 6d2d 4982 2e88 7282
000000b0: adcb 1803 cff7 b03b 50ab 98ba 1470 6c91
000000c0: a8a3 1483 520d 5f82 286c 7935 3c2a 0c3b
000000d0: 1ec0 e339 4fd5 603b fc76 c902 1d38 9502
000000e0: bbb3 f8ba baa7 0002 a1b2 8302 e833 6f02
000000f0: 019a e381 66a9 1983 4497 d482 dc50 ce82
00000100: dc03 9937 6262 db82 f147 4003 643a 1583
00000110: 2ee6 2103 f086 ae35 eec6 c6bb 6b8a 1a83
00000120: d4b9 18b7 3d59 c8a9 39d7 ba82 5b45 16b9
00000130: 40ee 2482 1af4 7082 ba7e 8802 e09e 5b38
00000140: 3e51 76ba 224a 823b be18 c69d cebe b939
00000150: 17eb 193c 337b 3f03 37c1 25bb 1030 9782
00000160: a934 e7ba c659 4083 c2ac 0002 0cec 0482
00000170: 8216 ca8b 397f 2c03 aefd 1503 e42a 2503
00000180: 5a29 8602 bca1 4982 28d4 e102 ea38 7b02
00000190: fe91 2183 2b59 1683 8278 f682 819a 8c02
000001a0: c854 fa02 c251 45bb 339f 7382 e221 9782
000001b0: 6716 2c8f 6e80 1d83 e8b1 b980 a931 9f02
000001c0: 5dc6 9182 8407 1d0a db49 9602 071a ae31
000001d0: 9dff 18bb af0b 03b9 49ea 8302 4074 0309
000001e0: b693 afb7 a2b0 2536 9696 f13b 30a3 d482
000001f0: dbf5 bcba f1af 6002 5ffb 5403 5b42 8d82
00000200: 2a31 893a 6bfb d23b 7f0b b33a 02c1 4c82
00000210: df1f e182 4ed9 4183 62c6 2c82 fa71 5f3b
00000220: aa8b e982 4191 da82 5556 28bc c1d0 1382
00000230: 4a9d b936 b91e 9282 8a57 5d82 bc52 8582
00000240: 4714 5c37 6a98 c50b ea4b 7902 737e 1a02
00000250: 77eb ceba 4540 2203 fec0 93ba 3520 5d3a
00000260: a4fb 3b02 c45f 8882 0999 04ba 90c3 a0a1
00000270: f5b3 1703 b256 9902 206f 1a82 37a7 f382
00000280: d65b c981 ac4e 44ae 85f2 8502 640d c002
00000290: 41d8 8c3a aecf 2e03 97a1 e53b 5cf4 7e02
000002a0: ec71 da02 83ec 8182 8bfe 1c83 8e1a eb02
000002b0: 6aaa 4a83 2780 0083 3248 fe12 3c4a 1e03
000002c0: 11c3 b6b8 98f6 5602 c867 5e01 4d0d 29b9
000002d0: 4871 ba81 f1ff 5182 925e 3b83 78ea d402
000002e0: 193a 2c83 4e1b 7b3a c1ac 6e02 7454 3281
000002f0: 0254 0683 885c 5782 1ced 5a01 ec67 b602
00000300: 843c cb82 7d44 cfb9 04e8 f982 9f39 b13a
00000310: 060c 0a8a 428a 3182 35fc dc82 a8fd b482
00000320: 185e 8b02 d06c c2b7 1451 da02 77f6 2d3a
00000330: 9725 b2b8 6548 c082 c8d3 1382 64fa 9482
00000340: f0b0 6781 61f2 2a82 08a2 9582 3464 0e37
00000350: 1ef5 b882 325e a7bb 8799 0f07 8cd9 4a83
00000360: 809c 4002 f7c1 43b3 1803 c381 fc26 8002
00000370: 7398 c802 f81c eb81 d178 debb 324c 5083
00000380: 11dc 8782 aca5 4583 14f4 0983 7e03 d902
00000390: 70c1 e481 b6a6 0d03 4581 06bc fb1a 13bb
000003a0: 18b5 e582 910b 0302 38b5 8302 b0c6 b600
000003b0: b5ca 8402 ce90 a602 e6e8 9bb7 7e5b 9382
000003c0: 9c80 a202 f831 cdba 1973 8382 44ba d139
000003d0: 775c 423b 257c 822e c8e5 6bb7 7c42 8782
000003e0: 7b23 1283 7418 d2ba 29df 3bbb 0720 7a82
000003f0: d68b da82 62e7 da82 eb65 fdb9 5923 2602
-3.9221878e-37 -2.0804563e-37 0.0021108547 5.8501596e-06 3.1596674e-16 -1.7269497e-37 1.7300657e-37 -9.112939e-34
-4.816901e-38 -0.00205085 3.1550285e-38 -1.9868116e-37 -3.977663e-37 1.3882111e-37 -7.223336e-05 1.7684937e-37
0.010118672 2.2961284e-38 -0.0033813862 -0.00915627 1.2644024e-37 -2.6451506e-37 0.00020261535 -3.7555897e-37
5.912058e-37 -8.09841e-06 6.863505e-38 2.5825323e-37 2.182367e-37 2.527086e-38 1.0504528e-37 2.7451863e-37
-3.506807e-37 4.7076353e-38 0.0021555056 6.950497e-05 3.7171982e-21 -6.8042574e-37 -3.294115e-30 0.00041497257
-5.8348095e-37 -1.7672984e-12 -1.4780184e-37 -1.7818434e-37 4.4902594e-37 0.005400635 -0.0011647735 -1.8651654e-28
-4.368116e-37 -1.6387275e-37 9.2917116e-07 0.0021387478 0.00043439952 0.003430683 2.960259e-37 2.192579e-37
-0.0018974462 9.45209e-38 1.9351248e-37 1.7573843e-37 -8.3607615e-38 -4.515712e-37 -3.1237423e-37 -3.031539e-37
1.8240818e-05 -3.2235627e-37 5.6506314e-37 -4.3854194e-37 4.757788e-37 1.3003282e-06 -0.0060661947 -4.541543e-37
-9.1031725e-06 -8.8972646e-14 -2.7453775e-37 -0.00014330952 -1.2117191e-37 -1.7702469e-37 2.0056141e-37 5.2361633e-05
-0.00093962613 0.0039761225 -5.2435746e-21 0.0003542811 0.009394429 5.627128e-37 -0.0025292167 -2.2215042e-37
-0.0017639595 -5.6526784e-37 9.453534e-38 -9.76557e-38 -7.7841436e-32 5.06923e-37 4.4078375e-37 4.853838e-37
1.9713265e-37 -1.4813563e-37 3.318255e-37 1.8456901e-37 -4.748124e-37 -4.41834e-37 -3.621562e-37 2.0659832e-37
3.678286e-37 -0.0030108546 -1.7898508e-37 -2.2206904e-37 -8.484569e-30 -4.6285583e-37 -1.7053388e-38 2.3391454e-37
-2.141969e-37 7.5606886e-33 2.208291e-37 5.0670255e-09 -0.0023345717 -0.00012497486 1.9383193e-37 1.5823212e-33
-2.0930409e-05 2.468973e-06 0.0073726876 -3.1244265e-37 -0.0014416532 1.6507414e-37 6.258976e-37 -2.0756174e-37
0.0010466923 0.0064386628 0.0013660042 -1.5042943e-37 -3.3079072e-37 -5.6967056e-37 -1.2693497e-37 0.0034095035
-3.4316436e-37 -3.2115593e-37 -0.010274489 -1.0859764e-37 5.5317405e-06 -2.1470406e-37 -1.6261638e-37 -1.959008e-37
1.3117743e-05 7.6110967e-32 1.8315417e-37 1.1350422e-37 -0.0015786727 4.76813e-37 -0.0011272726 0.000843528
1.3810808e-37 -2.003837e-37 -0.00050582044 -1.0893787e-18 4.4581492e-37 2.253109e-37 -1.1346024e-37 -3.5801618e-37
-7.3967517e-38 -4.4635115e-11 1.9681793e-37 2.821955e-37 0.0010745601 5.137241e-37 0.0070077884 1.87311e-37
3.209761e-37 -1.9090597e-37 -4.613648e-37 3.4545388e-37 -5.955809e-37 -3.776293e-37 1.6047451e-27 4.6517244e-37
-8.71477e-05 1.5793006e-37 4.084942e-38 -0.00016122051 -6.848816e-38 -1.5428347e-37 -5.5062922e-37 3.1285179e-37
-5.061295e-37 0.0009578959 1.7535056e-37 -3.275403e-38 -3.9475497e-37 -1.582226e-37 4.0210394e-38 2.6802145e-37
-2.9862903e-37 -0.00039533144 -3.6720432e-37 0.0013521201 -6.64672e-33 -1.3043584e-37 -3.2470854e-37 -2.6594214e-37
2.0478222e-37 -2.3177272e-05 3.2078758e-37 0.00066361524 -8.494703e-05 -2.8253417e-37 -1.0860633e-37 -2.1890363e-37
-4.2554946e-38 -1.2559187e-37 -2.1986584e-37 8.48719e-06 -2.717706e-37 -0.0051076645 1.0803242e-34 -5.9612196e-37
1.4150846e-37 -4.5578386e-08 -7.1636126e-38 1.8830286e-37 2.947486e-37 -8.6366935e-38 -0.006789305 -6.1213174e-37
-1.996278e-37 -5.808328e-37 -4.054087e-37 3.1887289e-37 -8.403154e-38 4.162755e-37 -0.008209531 -0.0022446502
-3.3752469e-37 9.627679e-38 1.9352734e-37 1.6785336e-38 1.9512005e-37 2.4474622e-37 -1.8585892e-05 -2.1652223e-37
2.3877579e-37 -0.0015655151 -1.9314783e-37 0.00040002365 0.0029657164 5.933768e-11 -1.4060592e-05 -1.9874627e-37
-4.2946273e-37 -0.0016029016 -0.002866695 -1.8376291e-37 -3.2112483e-37 -3.2165028e-37 -0.00048331855 1.2205898e-37

fc2.weight f4 [256, 404]
00000000: 3064 0328 1789 4b02 7450 6a38 26f3 53b6
00000010: 2300 11ab 9cd1 2682 5a2f 26af b0ec ef99
00000020: 8b49 5736 5e1b 27ba 86f0 a2b5 86e0 ad33
00000030: e426 d1af df73 e4af 794a 8bb8 35d5 7681
00000040: 9839 4638 8758 b128 6515 13b9 0a90 0cba
00000050: 28ef 8e35 59fe 8426 8ff1 9039 aff9 4d26
00000060: 1a85 b3b0 6f82 3a37 be91 1214 cc29 f182
00000070: ed2f 0003 968c 5502 6f2d 232e 732f a1ad
00000080: 2e13 2605 8217 e1a6 5bd3 c9b9 99dd aa37
00000090: 2cf8 2da5 3b29 00ac b07f b82a c2ed 16b9
000000a0: 44c3 4186 f488 0baf 5546 b382 1125 caaf
000000b0: c50b 0735 da77 daba 5c1b 17b9 80d4 899c
000000c0: 4c48 2aa5 6070 d183 c764 9fb5 468b f2b9
000000d0: 9adf d339 5def 85ba baa0 c201 c99b 1192
000000e0: 7e36 83b9 976a 0424 b697 4735 0e1e 2805
000000f0: f079 e003 02cb 7b36 2f10 f02d 8360 9ba7
00000100: 4e0c f1b7 1ae5 1830 b7ec 8026 c9cc d682
00000110: 4839 bd80 92ff 8e39 7648 a839 80cc 70ac
00000120: 72c7 a439 d4ca 692e 971d 4b34 7e8c ea38
00000130: e8f2 c280 b28c 4383 54da 0703 4cae df37
00000140: 02fb 2bb9 c61d b1b9 2706 8f27 525c 63b9
00000150: a3c3 19ba 1e4d 1ba7 0001 5ab8 a689 e7b0
00000160: 74d9 ecb8 9a6e 7da8 8d3c 5a82 ffd1 3b9a
00000170: 045e 77b4 46c7 b328 9c34 b7af 0d51 8aad
00000180: 5d3f 1ba7 0e7d 1703 c5b9 8c2b 0097 cd81
00000190: 0228 8d21 8e24 1184 c17f 03a5 99e1 0930
000001a0: cc79 5401 d28d 90ba 69a0 7c31 f964 f6af
000001b0: 01d5 9199 e83a e2a5 a535 1aaf b521 ab0a
000001c0: 7957 8602 4eb3 0a97 ae32 51b6 f994 e5b2
000001d0: e7a2 8db9 2301 c9b8 03a5 9315 a470 1418
000001e0: 4b81 4035 12a9 e9b7 2589 8038 aa08 d031
000001f0: 0b35 e4b9 f47b 8934 b671 03b5 9550 92b6
00000200: 65d1 09ba 7b32 28b9 53ff 7238 880b 7f82
00000210: c1d2 a9b3 54f6 bea9 82c7 72a6 7d0d 5dba
00000220: 7e4b 13b6 5911 858e ec31 47ba e9af 7829
00000230: 9d62 9a36 14b3 2d35 3193 2036 bbb4 1f35
00000240: f86d 333a 87f3 9c99 c3a1 a113 086a 5a35
00000250: 2938 203a b538 b235 72e6 7fb8 6402 d8b8
00000260: d93b 9412 3db3 1428 ee78 44b5 aa39 5c27
00000270: 6c91 7381 ac73 9f27 484a e32b f952 5282
00000280: 667c fc26 c4f2 0732 cdcd 8fad 2d08 62b5
00000290: 161d f5b9 2881 56a5 3fc2 76ba 168b 87af
000002a0: 10f8 4e36 1030 1c29 3397 d38f f34f 09b6
000002b0: 3edb 9d8f d8af 1483 cd17 279d 0fa1 0107
000002c0: fbb5 fe38 3f88 ca33 232c 5607 86bb b2b8
000002d0: 3229 138c 1398 aead bb57 2402 dedc c7ae
000002e0: 66fe 4f83 06cf 8438 adda 2783 cebf d982
000002f0: 9d63 9b82 8612 adb4 d53a 8625 57cc d69d
00000300: b29a 3da8 b615 a539 3c15 2cb2 0b3b cb39
00000310: a0d7 a497 187d 32a9 da0c a9b0 f87b 1b2b
00000320: 6a78 4b31 629c 9eb8 060a 9f1a d990 eab9
00000330: c334 94b9 7d61 edb0 861c c82a 5c24 a0ac
00000340: 9010 61a5 8dc6 a827 7499 c930 2b83 6fb6
00000350: 7c9d 6ba5 9ecc 1538 6ad5 6c97 717c 2cb4
00000360: 846d 7a32 9998 0b2f 08fd a080 3a2c e3b5
00000370: 24c6 512b be31 99b6 5e0d 8cba 336e 1db5
00000380: 7acc 8431 9768 cb2b 57b5 3231 bc56 61ab
00000390: 4867 0080 3474 4512 c373 abba bfe1 47b8
000003a0: 241d 7530 9a43 0b9b 1b7c c625 0a8c d182
000003b0: bde9 b597 031b 8434 a354 b837 6f7c 3383
000003c0: 69f4 abac 9bd1 8d39 de07 4f35 9158 1c38
000003d0: 3df6 f4ba b8bc d7b0 f9d7 3db8 8e43 ba2b
000003e0: 8c33 462f bcb6 fdb7 22be 153a e843 3334
000003f0: d973 aeac 3bce ee30 942a d9b9 e24a a202
7.2936855e-15 1.4953427e-37 5.5864875e-05 -3.1582981e-06 -5.151454e-13 -1.2255909e-37 -1.5114435e-10 -2.4807618e-23
3.2080304e-06 -0.00063746225 -1.2139942e-06 8.096781e-08 -3.8044512e-10 -4.155529e-10 -6.641908e-05 -4.5336033e-38
4.7260517e-05 1.968934e-14 -0.00014026983 -0.00053620397 1.0649428e-06 9.228281e-16 0.00027645795 7.1462047e-16
-1.3061794e-09 1.1116833e-05 7.399859e-27 -3.5435758e-37 3.7670835e-37 1.5689115e-37 3.7102262e-11 -1.8324653e-11
7.808805e-36 -1.5618883e-15 -0.0003849518 2.0368769e-05 -1.5089442e-16 -1.8212782e-12 3.2773567e-13 -0.00014393686
-3.6442724e-35 -1.2690632e-10 -2.6342055e-37 -3.6769923e-10 5.0308546e-07 -0.0016667799 -0.00014410674 -9.120829e-22
-1.4769645e-16 -1.2309716e-36 -1.1875753e-06 -0.00046261604 0.00040411652 -0.001021843 7.1494976e-38 -4.5945953e-28
-0.00025026867 2.8713222e-17 7.4354045e-07 7.904842e-36 1.3193532e-36 3.752008e-06 2.7292028e-11 -4.312578e-15
-2.8735169e-05 5.562285e-10 8.945946e-16 -3.1562015e-37 -1.7377457e-38 0.00027274765 0.00032097445 -3.4219572e-12
0.00031429116 5.3158214e-11 1.8916613e-07 0.00011184158 -1.7903225e-38 -5.746686e-37 3.9923563e-37 2.6664835e-05
-0.00016401339 -0.00033782254 3.9697144e-15 -0.00021682799 -0.0005865639 -2.1552376e-15 -5.197618e-05 -1.6846584e-09
-0.00011293861 -1.4068304e-14 -1.6033488e-37 -3.8840327e-23 -2.303787e-07 1.9959413e-14 -3.3324887e-10 -1.5724777e-11
-2.154492e-15 4.4518467e-37 9.99916e-13 -7.552178e-38 9.565122e-19 -1.7061453e-36 -1.1405723e-16 5.0160903e-10
3.9025635e-38 -0.0011028594 3.676201e-09 -4.4818885e-10 -1.507868e-23 -3.9244667e-16 -1.4025277e-10 1.647938e-32
1.9739737e-37 -4.481652e-25 -3.1172926e-06 -2.6726854e-08 -0.00027014987 -9.5846386e-05 5.963317e-26 1.918542e-24
7.171372e-07 -2.7854494e-05 6.129061e-05 6.0545817e-09 -0.0004352707 2.5608426e-07 -4.8966774e-07 -4.36052e-06
-0.00052573375 -0.00016040534 5.7935085e-05 -1.873775e-37 -7.908012e-08 -8.480426e-14 -8.4231e-16 -0.0008432491
-2.194865e-06 -3.2803737e-30 -0.00075986865 5.521964e-14 4.6010377e-06 6.4708115e-07 2.3927535e-06 5.9495113e-07
0.0006844695 -1.6228382e-23 4.0801623e-27 8.1365624e-07 0.0006111884 1.3278537e-06 -6.1011357e-05 -0.00010300128
9.354867e-28 8.2545165e-15 -7.3191666e-07 3.0562393e-15 -4.4736386e-38 4.4256777e-15 1.6149937e-12 -1.5452175e-37
1.7519731e-15 7.913233e-09 -1.6348612e-11 -8.420346e-07 -0.00046751712 -1.8605301e-16 -0.00094131 -2.4655183e-10
3.0840783e-06 3.4680646e-14 -2.0864446e-29 -2.0461127e-06 -1.5565844e-29 -4.369515e-37 -2.211457e-21 9.752212e-35
0.0001214556 9.431141e-08 1.6112541e-34 -8.5226304e-05 -1.1336865e-31 -1.9849044e-11 1.2073995e-37 -9.088706e-11
-6.1123868e-37 6.3328116e-05 -4.9327917e-37 -3.1995375e-37 -2.2832378e-37 -3.223724e-07 2.328516e-16 -5.685661e-21
-1.0525152e-14 0.00031487428 -1.0016546e-08 0.00038763168 -1.0652683e-24 -3.963244e-14 -1.2300021e-09 5.5239103e-13
2.9608835e-09 -7.563156e-05 6.577705e-23 -0.00044739878 -0.0002826807 -1.7271727e-09 3.554693e-13 -4.55151e-12
-1.9521251e-16 4.6844636e-15 1.4668289e-09 -3.5690125e-06 -2.0436359e-16 3.5714933e-05 -7.652508e-25 -1.606402e-07
1.4576816e-08 1.269619e-10 -1.478445e-38 -1.692569e-06 7.452669e-13 -4.565546e-06 -0.0010685136 -5.864742e-07
3.864952e-09 1.4453047e-12 2.6005489e-09 -8.0056426e-13 -3.705e-41 6.230547e-28 -0.0013080764 -4.765554e-05
8.917189e-10 -1.1519654e-22 3.4431622e-16 -3.0790168e-37 -1.1755855e-24 2.460657e-07 2.1973921e-05 -5.2746215e-37
-4.8872473e-12 0.00027049784 7.712496e-07 3.7275782e-05 -0.0018689107 -1.5696946e-09 -4.526225e-05 1.3234845e-12
1.8026308e-10 -3.0245043e-05 0.0005712231 1.6695378e-07 -4.958239e-12 1.7375393e-09 -0.00041421189 2.3846741e-37

fc2.bias f4 [256]
00000000: f93b 41ba 68aa 333b b93b 2b3c 023f 15bb
00000010: ba81 788d 4c4a b4ba 6d07 2bbb 9839 aab7
00000020: cdff 00af 6ec4 5683 590d 94bb 11a5 ed39
00000030: 5d3b c13b 1d40 2fba 8646 7eb9 b0b2 3996
00000040: d9cc 1f83 ea5c 0dae 4026 a13b 5e95 5d3a
00000050: 88ac 47af 73fa d0b5 fc8f b5ba 34d1 3cba
00000060: f1e6 27bb 91b7 3da6 662e 39bb 753b afa0
00000070: 8ca6 83bb 8ee3 cc96 d754 96bb 4594 adba
00000080: 84c1 5db9 2846 13a9 8457 8239 1ee2 9482
00000090: 4d7a 9eba 9ae3 8f3b 2bd8 1f91 0726 8639
000000a0: 0e64 013c e858 6f83 8db7 d43b c040 ed3a
000000b0: b419 44ba 00b8 bd85 54cb 54ba 24f5 cab2
000000c0: d525 2cba 2180 b8ba 8e39 193b a1b8 f83b
000000d0: 0cd0 f7b2 6aa8 c0ba 7490 cf39 d6a7 1983
000000e0: a8da 5e3c d362 13ba 00be a7bb 6e8c aa3a
000000f0: c578 41bb 35af 5f3b c663 2c85 03b8 67bb
00000100: 38e3 20ba b4d8 e2ba 763b 273b 18b4 b839
00000110: d8f7 4ba1 6e30 b13b b33d ad3b 5cee 34ba
00000120: 7a01 a5ba e9bd b403 3787 d0ba fc68 84ba
00000130: 4579 973b fa15 ee3a d540 b43b 1631 963a
00000140: 5c91 9ba6 fce6 f4b9 fb83 4cb9 6bae fd3b
00000150: 79a7 c4ba 1fec ed3b 31f2 89bb e8c9 31bb
00000160: 1186 ac3b f4ba 5b3c 764d fd82 b59f a5bb
00000170: 1de5 8fba 3a56 c03a 7b67 6eb5 03b3 c33b
00000180: 8dda 6fbb b7d9 e8ba 4bc9 88bb f951 719d
00000190: 5ec5 13ba 82da 78ba f22a b3ba e039 03bb
000001a0: 3ac4 163b 7a6c 04b6 9010 8db3 0912 12ba
000001b0: dd3e fe3b a463 88ac cc9b 9c3b 7895 ed82
000001c0: a589 60bb 2a94 cc93 c27f fc9f fa86 8abb
000001d0: 8fe1 09bb 5a2f 89bb e44c fc3b 5280 73ab
000001e0: c85c 8ea9 265f 33bb 1e79 6dbb dfe3 dd3b
000001f0: ce2c ad3b 6111 923b 0b34 12ba 296e 9093
00000200: ec30 d69a d840 63a1 f56d 2d3b e0b3 deb9
00000210: 0062 6c8d e2b5 09ba b700 8c3b 15f9 7c3b
00000220: 2cae 0dab c2d0 c53b 7a84 e8ba 131c 45ba
00000230: 1d73 f33b 6d71 11b8 7f85 1b8d 406f b5a6
00000240: 15fa 2fba b17d db3a e773 c8ba 8e75 5e83
00000250: 6929 a8b8 0d6d 07ba 3f70 803b 1604 253b
00000260: 0e3a 3bbb 1305 d83a 2959 78ba 1822 74b9
00000270: dc6e 193c 0d0b 443b 5949 52b6 4f01 d4ba
00000280: 2720 67bb 9b53 11a5 4d50 bcbb e052 6f83
00000290: 3cf0 25a6 93cf a397 4850 c182 40b8 d53b
000002a0: dec0 2283 399e 823c 5701 1a87 651a 323b
000002b0: 3da5 af9b 9448 053c f36a 39bb 9cd9 023a
000002c0: 0eed b33a c405 feb9 fe32 a898 ca47 99b7
000002d0: 053b bd3b a24e 6ab9 31fc 943b c7fb 4dbb
000002e0: e21d 11ba 1f25 203b c031 fe83 1865 dd3b
000002f0: 43fd 0d3c 05f5 a839 105b de3a a0c0 963a
00000300: 1f54 31ab 3cd8 24bb cda8 9eb9 4a1c 1083
00000310: 307c 538a 42f0 9883 b8c3 d0bb 595f 0b3b
00000320: e0a9 b13b 6216 cb3b 8572 583b 370e 8a3b
00000330: 3ade 39bb 4032 3186 d0d2 85a5 44e7 8482
00000340: d241 4d3b 20d2 4dbb 0769 51bb 47f8 81bb
00000350: 6715 b3ba 4351 deb9 9f08 a63b e5fe 20bb
00000360: 6874 853b 98b9 589d 446f 9bb8 06d3 658c
00000370: c4c1 0c8e 717c 5cac 5355 a1b5 f6f0 44ba
00000380: 6261 2d3b 1711 9bbb 63c1 0b83 681b c0bb
00000390: d35c 5bbb 64cb 89b9 ecaf 28bb b244 26ba
000003a0: 3360 0e3b 48bc 063a 61bf 9eba 69a5 453b
000003b0: ae5b 2b3b 9622 f9b9 7a35 1939 ec44 779f
000003c0: ffd4 633a 26d9 8ca5 bcc7 f503 028e 0cbb
000003d0: 0940 c73a 2327 aebb b4a1 b182 32df 5bbb
000003e0: a759 3abb 5386 02af d41e 443b 5ff6 a537
000003f0: 685e 52ba 7cb7 1983 e50f bb9d 95da 85a4
-0.00073713023 0.0027414802 0.010451251 -0.0022773151 -7.6577053e-31 -0.0013755052 -0.0026096955 -2.0292398e-05
-1.1732411e-10 -6.311444e-37 -0.0045181927 0.00045327147 0.005896969 -0.0006685274 -0.000242496 -1.5000565e-25
-4.6961054e-37 -3.2142213e-11 0.00491789 0.00084527384 -1.816024e-10 -1.5570098e-06 -0.0013852115 -0.00072028046
-0.002561983 -6.5821326e-16 -0.0028256415 -2.9685499e-19 -0.0040176567 -3.3101585e-25 -0.0045877504 -0.001324304
-0.00021148293 -3.2701408e-14 0.00024860736 -2.187643e-37 -0.0012090892 0.004391146 -1.26095e-28 0.00025586804
0.00789739 -7.0337847e-37 0.0064916075 0.0018100962 -0.00074806367 -1.7841066e-35 -0.00081174565 -2.3627372e-08
-0.00065669167 -0.0014076271 0.0023380253 0.007590369 -2.8849193e-08 -0.0014698629 0.00039589743 -4.5155325e-37
0.013601936 -0.0005622331 -0.0051190853 0.0013011822 -0.0029521447 0.003413153 -8.1057266e-36 -0.0035357482
-0.0006137374 -0.0017307014 0.002551762 0.00035229395 -6.9107094e-19 0.0054073846 0.005286896 -0.00069019734
-0.0012588941 1.062305e-36 -0.0015909438 -0.0010102089 0.0046226108 0.0018164509 0.0055008926 0.001145872
-1.0794685e-15 -0.00046711403 -0.00019504123 0.0077417395 -0.0015003524 0.007260814 -0.0042097797 -0.0027128402
0.0052650054 0.013411272 -3.721947e-37 -0.005054439 -0.0010978315 0.0014674135 -8.8812493e-07 0.0059722676
-0.0036598772 -0.0017765079 -0.0041743866 -3.1938463e-21 -0.0005637015 -0.00094930094 -0.0013669415 -0.002002351
0.0023005144 -1.9732674e-06 -6.568837e-08 -0.00055721455 0.0077589587 -3.876415e-12 0.0047793146 -3.490981e-37
-0.003426173 -5.164294e-27 -1.0693751e-19 -0.0042275162 -0.0021038984 -0.004186553 0.0076995958 -8.650902e-13
-6.322162e-14 -0.0027369945 -0.0036235522 0.006771549 0.005284882 0.004457638 -0.0005577213 -3.6459337e-27
-8.858736e-23 -7.699641e-19 0.0026463245 -0.00042477157 -7.284108e-31 -0.0005253238 0.004272546 0.0038600613
-5.0334975e-13 0.0060368488 -0.0017739676 -0.0007519137 0.007429494 -3.467633e-05 -4.7923753e-31 -1.2589552e-15
-0.00067129853 0.0016745833 -0.0015293331 -6.5374883e-37 -8.0185775e-05 -0.0005166091 0.003919631 0.0025179437
-0.002856854 0.0016481004 -0.0009473735 -0.00023282354 0.00936481 0.0029913813 -3.1335132e-06 -0.0016174706
-0.0035266967 -1.2605072e-16 -0.0057468773 -7.0330923e-37 -5.7571453e-16 -1.0586027e-24 -2.840488e-37 0.0065222085
-4.782892e-37 0.015944587 -1.1586066e-34 0.0027176377 -2.9058104e-22 0.00813498 -0.0028292506 0.0004991533
0.0013727264 -0.0004845095 -4.347847e-24 -1.827245e-05 0.005774858 -0.00022345272 0.004546665 -0.0031430589
-0.0005535764 0.0024436188 -1.49402e-36 0.006756436 0.008666339 0.0003222601 0.0016964395 0.0011501499
-6.2999774e-13 -0.00251533 -0.00030261875 -4.235027e-37 -1.01826375e-32 -8.988918e-37 -0.0063709877 0.0021266548
0.005421862 0.0061977366 0.0033027243 0.0042131203 -0.0028361217 -3.3326918e-35 -2.3214674e-16 -1.9528397e-37
0.003131975 -0.0031405762 -0.003195347 -0.0039663645 -0.0013662995 -0.00042403684 0.0050669457 -0.0024565991
0.0040727146 -2.8683312e-21 -7.411701e-05 -1.7705021e-31 -1.7349627e-30 -3.133296e-12 -1.2020267e-06 -0.00075127126
0.002645575 -0.004732262 -4.1070426e-37 -0.005862642 -0.0033472076 -0.00026282214 -0.0025739623 -0.0006342634
0.002172482 0.00051397504 -0.0012111479 0.0030158407 0.0026147175 -0.0004751875 0.00014611139 -5.2361295e-20
0.00086911017 -2.4433274e-16 1.4445663e-36 -0.0021446948 0.0015201579 -0.005314724 -2.6100626e-37 -0.0033549783
-0.0028434785 -1.1871153e-10 0.0029925602 1.9784258e-05 -0.0008024932 -4.517329e-37 -4.9514922e-21 -5.804985e-17

fc3.weight f4 [1, 256]
00000000: 319a a7bb 6a6a e63c 4472 0bbd 6bf2 7a3c
00000010: e156 f58b 461e b4bb 3e3c 8e3c 3d4a bdb7
00000020: 77ad c5ae bb0d e780 4e34 003d a566 42bc
00000030: eb77 c7bc da82 74bc 2364 d7bc 2f77 9c95
00000040: d956 8600 1c56 d12b 485d dcbc 5dc7 84bc
00000050: f9fd f4b0 78a6 1bb6 fccc 6c3c 6b83 5cbc
00000060: 8b39 8d3c f33b e1a4 4e5c 9f3c 02f7 7d20
00000070: b318 a03d 6c8b d32c d16a 013d 6438 393c
00000080: 46b8 c1ba 1b31 86b1 85f1 c9bc 3fce d501
00000090: 6817 143c 45e6 bbbc 26b5 0690 75d8 27bc
000000a0: 1e73 0ebd 0724 8e81 dee5 07bd 2764 9bbc
000000b0: 37ce 29bc 1bec 740c ecb2 743b 70d0 13b3
000000c0: 2d3d 5cbc 3903 e33b 79e7 a9bc 19fa d4bc
000000d0: 0d18 b837 4a4a 573d 0ad7 38bc b57d 2a80
000000e0: cbab 43bd fde7 7ebc b14c a83d 6e67 50bc
000000f0: 1c7d ae3c 9e0c 77bc 70be 8484 bbcb ce3c
00000100: c935 03bc 8b9c 6e3d fc0c 64bc fc08 893d
00000110: 8018 8fb3 f416 f23c fa0e c3bc b7df 3fbc
00000120: e40f c23b 972e 6f03 b58c 023c 0b7c 883d
00000130: 7448 a6bc b78c c9bb 9481 8bbc 8588 b5bc
00000140: 21a5 bd24 c2b4 52ba a8ed b83d 1eec 333d
00000150: f543 633c db89 edbc d55f 373d d9ae d23c
00000160: f5b6 b0bc 6237 463d 8255 7901 6875 163d
00000170: 0a79 bcbb fa65 b6bc aebb 92b3 75b2 cabc
00000180: a6d5 d13c 5fe5 61bb 4586 853d 4746 601d
00000190: fd54 4f3b 7005 e33b fb5f 0ebb 88a6 8f3d
000001a0: 4318 cb3c c95b a8b5 3703 e2b5 7114 d1bb
000001b0: 6118 8e3d 5fad 462c 666a 04bd b69a 4781
000001c0: 663f 193d 8a06 5492 76b4 d19e 4938 123d
000001d0: feb6 5dbc 4342 023d 0bde 433d 9ab2 ab29
000001e0: 8de1 0db4 a036 a73d 5e94 903d 5e9f c6bc
000001f0: 3e9e 053d 5bcd 7b3d f115 c1bc bb0c 2c93
00000200: e067 a21a f92e b1a1 071e 42bc 60f4 b9bc
00000210: 59dc e10c 0235 c7bc 369e 7a3d bf94 72bc
00000220: 1205 a0a9 513c 333d b2bf 713c 3bbf 23bc
00000230: cbb7 18bd 180f 53b8 1a20 b38c bbe1 cf25
00000240: 3f39 6fbc 4db1 803d d710 f73b d6d1 ef82
00000250: 8999 b739 c9e7 82ba 3931 dfbc ca91 aa3d
00000260: a8ee 9f3c 63d9 c8bc 6f01 cdba 3049 8f3a
00000270: b877 0cbd f036 a3bc 1d6b ad37 a638 6fbb
00000280: 290f d73c 493d a3a3 834c 6a3d fb7b ef02
00000290: 9978 2c25 aa58 8796 0738 8b00 671b 03bd
000002a0: afff 6c81 1535 693d b6fd 5286 08bb 683d
000002b0: 063a f99a 3051 06bd 0481 e93c 258a a33d
000002c0: a96c 883d ce49 8f3d d01d 0218 e953 1238
000002d0: d9ab 20bd ef13 c4bb cada b4bc 28e2 b63c
000002e0: b703 77ba 92a4 8dbc d391 8c84 7428 cebc
000002f0: a17b 5abd 7e24 58bc d523 9fbc bcb3 8dbc
00000300: 2534 cab4 84b2 6b3d 98d4 51ba 5793 0c02
00000310: 3cca a709 3f11 b202 3c35 7d3d c860 bcbc
00000320: f865 3e3d 8a73 503d ec8d 47bc 7249 bcbc
00000330: b333 a33c 68d7 3504 7a08 dfa4 bb50 db81
00000340: 007d 4fbc 984f 823d 7569 c23c 1c4e 143d
00000350: d56c 3e3c 90e5 45bb aa4e 063d 458c 863c
00000360: 3ba9 e6bc 7d5c 2a1e 3f48 87b9 d6eb 3ba9
00000370: 7826 f98c 7e6e 23ab d124 b9b5 28fe c0bb
00000380: f1fe d4bc 666e 063d 68e4 8281 e68f 3e3d
00000390: 731a cf3c 4d05 a6ba 2a07 ad3d 70fc 4dbc
000003a0: f176 f4bc ffb1 67bc a046 c5ba 8aa1 7abc
000003b0: d767 d7bc 0a30 803a 342e 15bc 8fbb 679f
000003c0: 2fe1 65bc 5bf6 a6a6 67f2 0583 bbc3 543c
000003d0: 1e0b bcbc 1d12 ea3d 4c8e 1402 5779 993d
000003e0: 1731 9e3c 54e3 92af 3908 6abc 000e c8b9
000003f0: fa60 39bc 0848 e080 2875 0c9d 774b 2023
-0.0051148166 0.028126914 -0.03404452 0.015316586 -9.450129e-32 -0.005496773 0.01736271 -2.2565126e-05
-8.9893364e-11 -2.1218925e-38 0.03129988 -0.011865293 -0.024349174 -0.014923776 -0.026292866 -6.3195937e-26
1.2337112e-38 1.4874243e-12 -0.026899949 -0.016208345 -1.782552e-09 -2.3193697e-06 0.014453169 -0.013459067
0.017239353 -9.7679753e-17 0.019453194 2.1511662e-19 0.07817211 6.0124596e-12 0.03159601 0.0113049485
-0.0014779649 -3.905496e-09 -0.024651298 7.853979e-38 0.009038784 -0.02293695 -2.6566392e-29 -0.0102444785
-0.034777753 -5.221426e-38 -0.033178203 -0.018968655 -0.010364107 1.8868127e-31 0.003733809 -3.4415677e-08
-0.01344232 0.0069278744 -0.020740258 -0.025998162 2.1945709e-05 0.052561082 -0.011281738 -3.902186e-39
-0.047771256 -0.01555824 0.08217753 -0.012719972 0.021299891 -0.015078692 -3.120794e-36 0.02524363
-0.008008429 0.05825476 -0.013919111 0.06691167 -6.663413e-08 0.02955196 -0.023810852 -0.011711053
0.0059223045 7.028927e-37 0.0079681175 0.06664284 -0.02029822 -0.0061508077 -0.017029561 -0.022159824
8.2245423e-17 -0.0008037799 0.09029704 0.04392635 0.013871183 -0.028996399 0.044769127 0.02571814
-0.021571616 0.04839266 4.5795426e-38 0.03673306 -0.0057517337 -0.022265423 -6.8327935e-08 -0.024743298
0.02561457 -0.0034468991 0.065197505 2.9682486e-21 0.003163635 0.0069281384 -0.002172469 0.07014185
0.024791842 -1.2543688e-06 -1.6839248e-06 -0.0063806106 0.06938244 2.8233733e-12 -0.032328032 -3.6661527e-38
0.037413977 -6.6903465e-28 -2.2203373e-20 0.03569821 -0.013532398 0.031801473 0.04781918 7.624908e-14
-1.3213703e-07 0.08164716 0.07059549 -0.024245914 0.032621615 0.06147514 -0.023570033 -2.1715729e-27
6.716945e-23 -1.200642e-18 -0.011847979 -0.022699535 3.4799356e-31 -0.024317268 0.061186038 -0.014805972
-7.106307e-14 0.043758694 0.014755176 -0.009994323 -0.037284654 -5.0320377e-05 -2.7598637e-31 3.6061737e-16
-0.014601051 0.062838174 0.0075398493 -3.5238334e-37 0.00035018873 -0.000998729 -0.02724515 0.08328588
0.01952298 -0.02451772 -0.0015640686 0.0010931846 -0.03429386 -0.019923657 2.0673086e-05 -0.003650227
0.026252346 -1.769845e-17 0.057201874 3.5189055e-37 1.4959482e-16 -2.186638e-25 1.2785233e-38 -0.032008555
-4.3529798e-38 0.05693539 -3.9683008e-35 0.056818992 -1.0307773e-22 -0.03279227 0.028503902 0.07985333
0.0666135 0.06996499 1.6817158e-24 3.488726e-05 -0.039226387 -0.0059838216 -0.022076983 0.022324637
-0.0009422856 -0.017290387 -3.304776e-36 -0.025165774 -0.053340558 -0.013192294 -0.019426266 -0.017297618
-3.7663372e-07 0.057543293 -0.0008004396 1.032786e-37 4.0393968e-33 2.6164648e-37 0.061818346 -0.022995368
0.046483964 0.050891437 -0.012179833 -0.02298424 0.019922113 2.1375357e-36 -9.6725194e-17 -8.0563737e-38
-0.01266408 0.063628376 0.023731926 0.036207303 0.011622627 -0.0030196644 0.032789864 0.016424308
-0.028156867 9.018851e-21 -0.00025803034 -4.1726896e-14 -3.8387677e-31 -5.806257e-13 -1.3794289e-06 -0.005889673
-0.026000472 0.032820128 -4.8082205e-38 0.04652395 0.025281167 -0.0012666375 0.08448632 -0.012572393
-0.029841872 -0.014141559 -0.0015050955 -0.015297303 -0.026294632 0.0009779942 -0.009105254 -4.9071298e-20
-0.014030739 -1.1585339e-15 -3.936345e-37 0.012986119 -0.02295452 0.11429236 1.091416e-37 0.07493847
0.019310517 -2.6718772e-10 -0.014284187 -0.00038157403 -0.011314625 -2.0596991e-38 -1.8589414e-21 8.689598e-18

bn.weight f4 [400]
00000000: fb6e 0c83 0ebd 8302 99e8 093d c38e eb39
00000010: e2c7 7433 31c2 3b03 4d76 0a03 f415 9527
00000020: de0e 5083 2adc 803d 742f 9902 085b 7d01
00000030: 39a2 9502 8cfd 1583 f4f1 023c de1a 0802
00000040: d1cb 0e3e 0131 9802 2f85 203d 3170 403d
00000050: 7c3d 2f81 182a a402 9d6f ef3c 467a ae01
00000060: 37a6 9d02 8b9a da3a 4e2f a002 ca67 3482
00000070: b8f0 7602 a6c1 9b02 67b4 9e02 d87c 2482
00000080: e403 381f 68c1 3a83 77b8 453d 5e1c 9b3b
00000090: 140c 4b30 9e0d 4403 f8a2 0018 6f89 e93c
000000a0: 38a5 af21 62f8 fe32 1673 9902 f6a3 6282
000000b0: b1da ac02 5989 f13d 488b 7a3d 4f8a 062d
000000c0: ae3a f482 c2fa 4622 f187 2839 4cdb 873d
000000d0: 4606 643d 0690 8c3d a404 e220 f6a4 2983
000000e0: 1603 cd3c f5fe 8c82 24a3 9f02 ae4f 651a
000000f0: 24f5 ad1f dd43 0182 909d 5900 ddb5 0a03
00000100: a3b3 1c3b 2ba9 9b02 6bf3 1a03 d9d7 2607
00000110: e225 ad02 60db b83c fb76 933d 5f08 9902
00000120: 76bc dd3c 499c d133 69fa 9d02 f6d8 3e3d
00000130: 5e35 5e02 a643 9302 2cd4 6702 f17b 0a3c
00000140: 5de5 793c 46a7 9f3d d8fe f430 eea7 8c3c
00000150: c421 b13d 7f15 ac02 ae36 c53d e4f4 9f02
00000160: 93d3 ab3d 4807 1583 5c28 9a82 4267 a302
00000170: 84a7 8510 6a46 a081 2c7d 9602 2dec 9402
00000180: 6c79 d901 44d8 5912 3306 4303 52b9 a902
00000190: a36e 9402 5d95 3216 0441 ab02 4c44 a002
000001a0: 1268 0e24 204e 7f3d a6e3 e882 1c27 3482
000001b0: 66f2 6c2e 3609 ab82 187d a102 3044 c80c
000001c0: c27d a202 d456 1c2b a474 ac80 8af0 f737
000001d0: 4597 e23c a1cd 043d 0271 7d80 0dc2 4e2b
000001e0: 15e6 933a b2d8 1c3b d78b 1e3d 9679 9902
000001f0: 51ef 493d 6c49 8202 8d7f 0f82 09a3 1403
00000200: 1655 303d 230b 4e3d a41d 823d 4112 8e02
00000210: d3ee ae82 a4a6 a602 0a38 9c02 05eb 933d
00000220: d628 4603 1dac 431c e4f8 f43d 5a28 a302
00000230: b02a ee39 fe13 8183 38a5 8c80 32fd d902
00000240: cc93 043d cd95 c72b 604b a824 1ab7 eb02
00000250: 53ba 7d3d 7ba8 a583 b56e 4b3d fdde b83c
00000260: 8a8f a802 fcc7 1503 b852 873c acb2 e731
00000270: d504 9d02 103c 0a01 d2af 9d02 94f3 ff1e
00000280: d892 a502 ffba aa35 107f 4081 14bd ce03
00000290: 5d0f 793d cb86 b682 68ef 453d b639 9081
000002a0: 69ab a103 0c88 7d02 d696 9802 af34 9502
000002b0: 45f7 9f21 44eb a902 0d47 a42d 1afd ee21
000002c0: 3205 ce3c ccd5 d282 48b3 d627 d5cd 0c3c
000002d0: 9096 0a1b 1ec8 cf82 e178 3c1c 9339 8002
000002e0: 0f0d 2625 c593 ce3c e29d 9c02 dc1a a602
000002f0: 1125 8b02 c6d2 9a02 bb25 4883 7813 9502
00000300: 517a 2502 81f0 033d 44c2 4f83 f704 dd3d
00000310: 582b 6129 5606 fe81 4290 a502 2cc1 0483
00000320: e2bb 9902 8536 da3b b70b ac02 771d 303d
00000330: 64ed 2d3d e449 9a02 f1f5 ab02 064c 9402
00000340: ba17 3c83 c999 2603 c28e d682 7c98 4d3a
00000350: e1ef cd82 17c0 463d 01d7 9027 23c5 9902
00000360: 846e a702 64e3 4533 1430 a202 8cec ab01
00000370: c5d2 0a03 7f87 f004 473a f43d 2adb fc02
00000380: 5876 ae02 0feb 6982 faf7 f601 1a91 a302
00000390: 3a98 bd21 3376 2e20 80c7 003e 1089 703d
000003a0: 05b1 0602 0f5b 100c 90de 1e83 f030 9902
000003b0: 96c4 ab02 30f4 c482 dec3 a53a 30d8 2317
000003c0: 59fd 9b02 c9f2 ca3c f743 2702 3310 aa3c
000003d0: dca0 943d b7b3 2236 bbd9 7c3b d2fb 9402
000003e0: 9d8b a802 2ea7 f03c 162c 143d 1881 de82
000003f0: 487d 2080 3edc 6103 592d bb3d 283a 9501
-4.12697e-37 1.9357232e-37 0.033669088 0.0004492906 5.699247e-08 5.517728e-37 4.0690358e-37 4.137961e-15
-6.1142773e-37 0.06291993 2.2508566e-37 4.6534073e-38 2.1986694e-37 -4.407822e-37 0.007992256 9.999412e-38
0.13944937 2.236252e-37 0.039189514 0.046981994 -3.2186537e-38 2.4121795e-37 0.029228026 6.409296e-38
2.316448e-37 0.0016678137 2.3537039e-37 -1.3254097e-37 1.8142309e-37 2.2886352e-37 2.331956e-37 -1.2084645e-37
3.8966734e-20 -5.4882507e-37 0.048271623 0.0047336062 7.3868134e-10 5.7614855e-37 1.662589e-24 0.028507916
1.1902194e-18 2.9682443e-08 2.2547386e-37 -1.6650912e-37 2.5398651e-37 0.11793775 0.061167985 7.647729e-12
-3.5886258e-37 2.6966754e-18 0.0001607237 0.066336244 0.055670045 0.06863408 3.828896e-19 -4.9854e-37
0.025025886 -2.071749e-37 2.3456588e-37 4.7420455e-23 7.36739e-20 -9.496899e-38 8.229882e-39 4.0763324e-37
0.0023910783 2.28723e-37 4.5535963e-37 1.2551884e-34 2.544181e-37 0.022565544 0.07200428 2.2486134e-37
0.027067404 9.760749e-08 2.3212805e-37 0.04659363 1.63253e-37 2.1638537e-37 1.703209e-37 0.0084524015
0.015252438 0.07795577 1.7825768e-09 0.017169919 0.086490184 2.5285467e-37 0.0962957 2.350351e-37
0.08389964 -4.3795523e-37 -2.2651431e-37 2.4009964e-37 5.271735e-29 -5.8875757e-38 2.2112364e-37 2.1882204e-37
7.988744e-38 6.8739695e-28 5.7312466e-37 2.4938687e-37 2.1810148e-37 1.4425856e-25 2.516351e-37 2.3549088e-37
3.0879493e-17 0.062330365 -3.422e-37 -1.3235535e-37 5.387548e-11 -2.5131479e-37 2.3728624e-37 3.0855918e-31
2.3875942e-37 5.554283e-13 -1.5837548e-38 2.9556704e-05 0.027660022 0.032422666 -1.1519977e-38 7.34552e-13
0.001128378 0.0023932871 0.03870758 2.2551116e-37 0.049300496 1.9143925e-37 -1.0542586e-37 4.3680446e-37
0.043049894 0.05030359 0.0635331 2.0875502e-37 -2.570408e-37 2.4487155e-37 2.2954305e-37 0.07222561
5.8233848e-37 6.474254e-22 0.119615346 2.3973858e-37 0.00045426702 -7.5865285e-37 -1.2916239e-38 3.2030611e-37
0.032367513 1.4181379e-12 7.2986076e-17 3.4635242e-37 0.06194527 -9.73651e-37 0.049666125 0.022567267
2.4767769e-37 4.4016735e-37 0.016518936 6.7432975e-09 2.307185e-37 2.538969e-38 2.3169993e-37 2.7099917e-20
2.4328855e-37 1.272041e-06 -3.5355993e-38 1.2151002e-36 0.060805667 -2.6819864e-37 0.04832402 -5.2980057e-38
9.502083e-37 1.8626548e-37 2.2420968e-37 2.1923821e-37 1.0839711e-18 2.4967354e-37 1.8676194e-11 1.6194503e-18
0.025148962 -3.097944e-37 5.959131e-15 0.008593996 1.1463742e-22 -3.0530778e-37 6.2360214e-22 1.8840956e-37
1.4402629e-16 0.025216946 2.301276e-37 2.4406924e-37 2.044549e-37 2.2749244e-37 -5.881803e-37 2.1904757e-37
1.2157389e-37 0.032211784 -6.105484e-37 0.107919626 4.999763e-14 -9.3313956e-38 2.432737e-37 -3.9013064e-37
2.258917e-37 0.0066593313 2.5279853e-37 0.04299685 0.04246272 2.2670677e-37 2.5267355e-37 2.179028e-37
-5.527547e-37 4.8959552e-37 -3.1526413e-37 0.00078428513 -3.0259726e-37 0.048523035 4.0201137e-15 2.259448e-37
2.4601877e-37 4.6074447e-08 2.3831356e-37 6.315491e-38 4.0796507e-37 5.6548162e-36 0.11925178 3.7153866e-37
2.5634928e-37 -1.7185595e-37 9.0721957e-38 2.4033982e-37 1.2847432e-18 1.4777482e-19 0.12576103 0.058724463
9.895567e-38 1.1120758e-31 -4.6687516e-37 2.2509418e-37 2.5239027e-37 -2.8939768e-37 0.0012646874 5.294101e-25
2.2920617e-37 0.024773972 1.2288727e-37 0.020759678 0.07257244 2.424449e-06 0.0038581926 2.1891183e-37
2.4765515e-37 0.029376592 0.036174856 -3.2694064e-37 -2.983678e-39 6.6374383e-37 0.09139509 5.4817406e-38

bn.bias f4 [400]
00000000: 6a80 19aa 40ea cc00 e64d d938 7bf7 6539
00000010: 91d4 262d 90f0 ae01 a21b 4332 4f1d 501d
00000020: 0438 44b9 6e65 4cb9 89b5 d138 ef14 62b6
00000030: 737c 4f33 b6b5 51b2 7f7c 043a 4786 3a02
00000040: 8a86 a0b9 41e2 f9ab 47bb 3cba 07b8 d3b9
00000050: 35dc 8db8 089e afa9 4921 9439 d39b b0a6
00000060: 9db0 0634 eaad ea39 952e 3319 9d1a 6602
00000070: 724e 2f02 6a89 7782 4573 72b1 0014 0633
00000080: e08a 4b88 26f1 3f29 85aa 963a d54c 4039
00000090: a696 ef27 a93f 092f 373d 8cb0 1fbf bf3a
000000a0: 001a 2389 4710 0730 53ba 0702 488b 01b2
000000b0: 8b3f 49b8 cd74 2cb9 cb71 02ba 8c49 a01e
000000c0: 545d aea5 baab 0387 1521 4138 7224 8cb8
000000d0: 2a7f 4ab9 340c 64b9 7434 8602 52f7 8015
000000e0: cf86 adb9 d183 bc28 a017 92b8 db1c 9c08
000000f0: b52e 1687 3a35 a0b8 9ca9 a5b4 5897 4aaa
00000100: cee3 78ba d51a 62b3 248d 1ea7 344e 3281
00000110: 09c1 3182 072d 9d39 35f2 e2b9 87d9 a52f
00000120: d506 9939 e812 5030 5db8 8fb7 152b 103a
00000130: 9617 3882 e001 5980 000d 4281 b224 ba3a
00000140: b172 e1b9 f3ca d4b9 80ca e328 3686 eb3a
00000150: 276e 74ba ac2b 6d2a 6c09 80ba 54bd bab2
00000160: 3375 e5b9 bc2e eeaa 2c27 9081 ec41 ee1c
00000170: d44d bc37 fbbb dfab ac87 28b3 3aba b630
00000180: 8f32 0baa c386 4d86 f9b9 b1ae ce23 f681
00000190: 801b c4a4 ee20 dc87 9f36 4a28 96c8 2cb3
000001a0: 9101 2d06 0544 fd39 60d7 d1b4 4a75 2d33
000001b0: 965f 659b 7577 3b2a ea14 4832 93bc 928c
000001c0: e6d2 4f02 71f6 6d18 afff 0a39 e97c f535
000001d0: 1ab3 ad39 3267 e4b9 2f7c 0999 2ed9 ae18
000001e0: 29e2 c637 5817 8b39 52c5 b8b9 a715 f4b5
000001f0: 2f94 0f39 2ee2 61b7 7852 6db6 422b 0639
00000200: ca0c e939 2d61 fbb9 23ae 7839 d48d 8a81
00000210: 8ec3 82b5 1a8b 152d 4b61 b129 edb2 95ba
00000220: 7209 c0b8 c10a c790 f2e1 07bb 7a3a b8ac
00000230: 6c41 1d39 31a2 7bb9 f036 b238 8014 3db8
00000240: 6685 3539 763a 4a9a 4e6e 6c95 14b1 9839
00000250: 59b5 fa3a 8e6c 2539 659b 18ba 6ba1 b93a
00000260: 7838 e395 c06b 37aa 5efc d739 bf5e 4629
00000270: bc47 2a82 e505 11aa 7b49 1eaf a629 b604
00000280: 5604 32aa ce05 4f34 4222 bbb2 adcb 9239
00000290: a296 1139 6cdc 5b2a f2a0 8eba 5ee1 7232
000002a0: daca 04b9 d22d 8fac 8884 0213 cc07 94b7
000002b0: 647e 2592 9bee 9902 293b 4f20 084b 260a
000002c0: 748d 5bba 757a 43b7 a613 a308 206f 7139
000002d0: 1bd3 0a8f ac38 76b0 6bc8 8285 9844 6433
000002e0: 8ed4 4a06 8f77 c0b9 48b6 3c80 c3ca 1402
000002f0: e616 8081 ec09 c337 baa8 2629 1b19 3b21
00000300: 7d31 f2aa d974 5cb8 6b96 eb34 b7cd 4bba
00000310: f874 d41b 02c5 432c c7ed f633 fcd4 dead
00000320: 0116 95b4 bd4c d53a 78b8 bd9d a49a 47ba
00000330: 60e3 a6b6 5460 7b33 caf3 0fae 086c f32f
00000340: a8a3 12a9 9eae 582a acda c8b3 742a a239
00000350: fcad 08a9 f91e 1eba 68b5 209a 45b8 9a37
00000360: 001e b8b5 9eb4 4831 b0b3 8b01 b580 c1b8
00000370: 7a3a cdad 2ca0 3239 153e 89b8 e2f3 6238
00000380: c241 f5b4 0f23 ddae 5694 6fb4 056f a72e
00000390: d2ae 1a85 5d70 0d95 8fd8 acba 52d5 c8ba
000003a0: f253 9bb3 1eec 161e df85 4228 2087 ab00
000003b0: a186 e51a a17e aeb7 153d f137 7c7e 0c07
000003c0: fdbe 0230 c47a d638 3edf 4cb8 dc83 d23a
000003d0: 4ca3 26ba 5e73 2eb4 f959 8c3a dfad ad2e
000003e0: 80ab 8db2 db1b 0fba e155 d0b8 7cdc a1b7
000003f0: e890 a62f 4777 92b3 7f67 88ba a1c3 3782
-1.3633682e-13 1.8818474e-38 0.00010361876 0.00021931336 9.483207e-12 6.4262696e-38 1.1356777e-08 2.7543723e-21
-0.00018712884 -0.00019492742 9.99971e-05 -3.368881e-06 4.830913e-08 -1.2206717e-08 0.0005053952 1.3703658e-37
-0.00030617818 -1.7755312e-12 -0.00071995374 -0.00040382167 -6.764421e-05 -7.798975e-14 0.0002825356 -1.225469e-15
1.2543974e-07 0.00044761534 9.26349e-24 1.6905369e-37 1.2879482e-37 -1.818613e-37 -3.5281158e-09 3.1217496e-08
-6.1251337e-34 4.2619682e-14 0.001149491 0.00018339169 6.649916e-15 1.2482694e-10 -1.0203739e-09 0.0014629102
-1.9632636e-33 4.9135845e-10 9.971706e-38 -7.540457e-09 -4.7981313e-05 -0.0001644671 -0.0004976063 1.6971077e-20
-3.024743e-16 -9.90581e-35 4.6045596e-05 -6.682509e-05 -0.00019311593 -0.0002174832 1.9719637e-37 5.208899e-26
-0.00033097572 2.0929359e-14 -6.966223e-05 9.395692e-34 -1.1298472e-34 -7.639309e-05 -3.0857052e-07 -1.7993712e-13
-0.0009494395 -5.264413e-08 -2.2003417e-15 -3.2749545e-38 -1.3059305e-37 0.00029978922 -0.00043286537 3.0167888e-10
0.00029187524 7.5696827e-10 -1.713278e-05 0.0005499584 -1.3524954e-37 -8.174032e-39 -3.56415e-38 0.001420161
-0.00043000796 -0.00040587 2.5289883e-14 0.0017969075 -0.00093242753 2.106498e-13 -0.0009768433 -2.1739346e-08
-0.00043765604 -4.230972e-13 -5.2953455e-38 1.5766559e-21 2.2447588e-05 -1.5897278e-12 -3.923894e-08 1.3295172e-09
-1.2363221e-13 -3.8655222e-35 -8.0820635e-11 -9.0417505e-38 -8.504804e-17 -3.3121275e-34 1.1225097e-14 -4.0229303e-08
3.2538834e-35 0.000483066 -3.908599e-07 4.0386375e-08 -1.8973322e-22 1.6650381e-13 1.16462875e-08 -2.2608356e-31
1.5268483e-37 3.0755953e-24 0.00013255955 1.8290276e-06 0.00033130572 -0.00043564435 -7.107813e-24 4.519724e-24
2.3708753e-05 0.00026529538 -0.0003524223 -1.8185718e-06 0.00013692745 -1.3463707e-05 -3.5363755e-06 0.0001279535
0.00044450752 -0.00047946852 0.00023715994 -5.089671e-38 -9.742669e-07 8.500556e-12 7.8772567e-14 -0.0011421122
-9.157033e-05 -7.850823e-29 -0.002073404 -5.2360867e-12 0.00014997058 -0.00023997646 8.497934e-05 -4.5080204e-05
0.000173112 -4.1819845e-23 -4.7746836e-26 0.00029123633 0.0019127532 0.00015776066 -0.00058214954 0.0014162486
-9.177366e-26 -1.6291048e-13 0.00041196024 4.404701e-14 -1.2510214e-37 -1.2880632e-13 -1.4396122e-10 4.2826242e-36
-1.581108e-13 1.9280489e-07 -2.1785244e-08 0.0002799904 0.00013884393 1.9527582e-13 -0.0010881706 1.41374965e-08
-0.00012664069 -4.0693915e-12 1.647365e-27 -1.7646606e-05 -5.222061e-28 2.2618282e-37 1.7553156e-19 8.006721e-33
-0.0008375265 -1.16514175e-05 9.814825e-34 0.00023024948 -6.844583e-30 -8.9574814e-10 -1.2298763e-35 5.3147772e-08
3.8148138e-35 -0.00036710172 -5.57552e-39 1.0931513e-37 -4.705263e-38 2.3250432e-05 3.700575e-14 6.339129e-19
-4.3022175e-13 -5.256091e-05 4.3881604e-07 -0.00077744893 3.5148047e-22 2.7820528e-12 1.1498519e-07 -2.5333062e-11
-2.7769423e-07 0.001627348 -5.021862e-21 -0.0007614291 -4.9736555e-06 5.85281e-08 -3.2730964e-11 4.4278203e-10
-3.256046e-14 1.9245236e-13 -9.353002e-08 0.00030930678 -3.0348974e-14 -0.0006031837 -3.3233763e-23 1.8444038e-05
-1.37178e-06 2.92065e-09 5.1318375e-38 -9.226931e-05 -2.333177e-11 0.00017035072 -6.544233e-05 5.4109732e-05
-4.568265e-07 -1.0056144e-10 -2.2312574e-07 7.614002e-11 -7.2731546e-36 -2.8563362e-26 -0.0013187098 -0.0015322363
-7.2330195e-08 7.989762e-21 1.0798192e-14 1.5752344e-38 9.4929685e-23 -2.0801383e-05 2.8757882e-05 1.05696e-34
4.7565135e-10 0.00010227182 -4.88453e-05 0.0016061026 -0.00063567306 -1.6246983e-07 0.0010707966 7.898015e-11
-1.649255e-08 -0.0005459168 -9.934209e-05 -1.9295367e-05 3.0298186e-10 -6.820351e-08 -0.0010406821 -1.3500859e-37
