projects/tennis/checkpoint/E09.01_critic0_5000.pt (torch_old, 502006 bytes, 9 tensors)

fcs1.weight f4 [400, 48]
0	0x81fab312	-9.209245e-38
1	0x02847073	1.94602e-37
2	0x01f63ae7	9.045065e-38
3	0x83243184	-4.825211e-37
4	0x02204b04	1.1776472e-37
5	0x82f44870	-3.5894155e-37
6	0x01f63ae7	9.045065e-38
7	0x83243184	-4.825211e-37
8	0x81255bd4	-3.0371597e-38
9	0x021c988f	1.1504852e-37
10	0x8212418c	-1.0745197e-37
11	0x832403cb	-4.8199622e-37
12	0x016c3d3c	4.3390288e-38
13	0x81f0279e	-8.8218924e-38
14	0x8212418c	-1.0745197e-37
15	0x832403cb	-4.8199622e-37
16	0x0331efed	5.2291046e-37
17	0x029ed804	2.334e-37
18	0x02856be2	1.9604515e-37
19	0x825279b8	-1.5463295e-37
20	0x024b3bb1	1.4931215e-37
21	0x8345617f	-5.8005017e-37
22	0x02856be2	1.9604515e-37
23	0x825279b8	-1.5463295e-37
24	0x82a73160	-2.4566784e-37
25	0x83165b58	-4.4185896e-37
26	0x82324ff9	-1.3100326e-37
27	0x02fe570f	3.7371915e-37
28	0x82204b04	-1.1776472e-37
29	0x82f44870	-3.5894155e-37
30	0x82324ff9	-1.3100326e-37
31	0x02fe570f	3.7371915e-37
32	0x829ff0ba	-2.350112e-37
33	0x82f07620	-3.533263e-37
34	0x825da4b6	-1.6283785e-37
35	0x02a93d16	2.486738e-37
36	0x816c3d3c	-4.3390288e-38
37	0x81f0279e	-8.8218924e-38
38	0x825da4b6	-1.6283785e-37
39	0x02a93d16	2.486738e-37
40	0x03600b0a	6.5840356e-37
41	0x81ec89ce	-8.689045e-38
42	0x8356a56a	-6.3078834e-37
43	0x028006ed	1.8811885e-37
44	0x824b3bb1	-1.4931215e-37
45	0x8345617f	-5.8005017e-37
46	0x8356a56a	-6.3078834e-37
47	0x028006ed	1.8811885e-37
48	0x1ce260d6	1.4980457e-21
49	0x9cc5433f	-1.3053749e-21
50	0x1f2735cc	3.5408125e-20
51	0x9d8e1342	-3.7607e-21
52	0x1e0b1c00	7.364389e-21
53	0x1d18c40a	2.0218382e-21
54	0x1f2735cc	3.5408125e-20
55	0x9d8e1342	-3.7607e-21
56	0x9c6cea4a	-7.838866e-22
57	0x9ce1003a	-1.488931e-21
58	0x9e71a694	-1.2792881e-20
59	0x9c9b6482	-1.028302e-21
60	0x1e0f808a	7.596938e-21
61	0x1d3ec82a	2.5249773e-21
62	0x9e71a694	-1.2792881e-20
63	0x9c9b6482	-1.028302e-21
64	0x9d2b6f3e	-2.2689172e-21
65	0x9caf39aa	-1.1595434e-21
66	0x9e76f69a	-1.30741276e-20
67	0x9947ba80	-1.0325722e-23
68	0x1e2b0ace	9.054899e-21
69	0x1ce26e83	1.4983992e-21
70	0x9e76f69a	-1.30741276e-20
71	0x9947ba80	-1.0325722e-23
72	0x9d89b03d	-3.6445824e-21
73	0x9d0ff9cf	-1.905504e-21
74	0x1d898b36	3.640754e-21
75	0x9b1eb293	-1.3127154e-22
76	0x9e0b1c00	-7.364389e-21
77	0x1d18c40a	2.0218382e-21
78	0x1d898b36	3.640754e-21
79	0x9b1eb293	-1.3127154e-22
80	0x9d3c1a21	-2.4895101e-21
81	0x9d151dfd	-1.973549e-21
82	0x1e562da4	1.1338504e-20
83	0x9c07fcd9	-4.499455e-22
84	0x9e0f808a	-7.596938e-21
85	0x1d3ec82a	2.5249773e-21
86	0x1e562da4	1.1338504e-20
87	0x9c07fcd9	-4.499455e-22
88	0x1b2b12ea	1.41509e-22
89	0x9d068ff5	-1.7809176e-21
90	0x1e37f6c1	9.738967e-21
91	0x9c8ac411	-9.182756e-22
92	0x9e2b0ace	-9.054899e-21
93	0x1ce26e83	1.4983992e-21
94	0x1e37f6c1	9.738967e-21
95	0x9c8ac411	-9.182756e-22
96	0x214d4aee	6.955587e-19
97	0x202cb7f3	1.462983e-19
98	0xa066386a	-1.9500424e-19
99	0xa0a1c586	-2.740517e-19
100	0xa16e0eee	-8.0657296e-19
101	0xa0f8dc90	-4.215879e-19
102	0xa066386a	-1.9500424e-19
103	0xa0a1c586	-2.740517e-19
104	0x21cea1c2	1.400192e-18
105	0x20a1d4e1	2.7415332e-19
106	0xa135d610	-6.1608495e-19
107	0xa02bf5fc	-1.4565653e-19
108	0xa1eedbf1	-1.6185725e-18
109	0xa18d2c15	-9.5662e-19
110	0xa135d610	-6.1608495e-19
111	0xa02bf5fc	-1.4565653e-19
112	0x245a4f81	4.7338557e-17
113	0x23432dd4	1.0580676e-17
114	0x21864808	9.09926e-19
115	0x9da1ff00	-4.288001e-21
116	0x23b5a2f1	1.9693068e-17
117	0xa4403dec	-4.1685813e-17
118	0x21864808	9.09926e-19
119	0x9da1ff00	-4.288001e-21
120	0x2103cdef	4.4657077e-19
121	0x20761f6b	2.0847406e-19
122	0xa1f8bea2	-1.6855594e-18
123	0x1deb1a5e	6.2231245e-21
124	0x216e0eee	8.0657296e-19
125	0xa0f8dc90	-4.215879e-19
126	0xa1f8bea2	-1.6855594e-18
127	0x1deb1a5e	6.2231245e-21
128	0x21822272	8.81826e-19
129	0x20d38c30	3.5837559e-19
130	0xa2905255	-3.911845e-18
131	0x1fa08fe4	6.800068e-20
132	0x21eedbf1	1.6185725e-18
133	0xa18d2c15	-9.5662e-19
134	0xa2905255	-3.911845e-18
135	0x1fa08fe4	6.800068e-20
136	0x245f73b0	4.8453408e-17
137	0x234659b8	1.07526e-17
138	0xa307a6e4	-7.353705e-18
139	0x208604ea	2.2703735e-19
140	0xa3b5a2f1	-1.9693068e-17
141	0xa4403dec	-4.1685813e-17
142	0xa307a6e4	-7.353705e-18
143	0x208604ea	2.2703735e-19
144	0xb7245a52	-9.796191e-06
145	0xb1495660	-2.9298448e-09
146	0x398f756b	0.0002736257
147	0xb26eb55c	-1.389466e-08
148	0x391c392b	0.00014898616
149	0x307983a6	9.0772756e-10
150	0x398f756b	0.0002736257
151	0xb26eb55c	-1.389466e-08
152	0xb6234851	-2.4330986e-06
153	0xb174e269	-3.5635372e-09
154	0x39e2a69b	0.0004323021
155	0x31e4f9ca	6.664071e-09
156	0x391cdf72	0.00014960559
157	0x30ef4e75	1.7411838e-09
158	0x39e2a69b	0.0004323021
159	0x31e4f9ca	6.664071e-09
160	0xb394a59a	-6.92191e-08
161	0xb1973872	-4.4010955e-09
162	0x3a40f36c	0.00073604914
163	0x300b7b0d	5.074277e-10
164	0x39322fa6	0.00016993153
165	0xb30df6f0	-3.305371e-08
166	0x3a40f36c	0.00073604914
167	0x300b7b0d	5.074277e-10
168	0x30120b64	5.313068e-10
169	0xb0b08e0e	-1.284606e-09
170	0x3a7479dc	0.000932602
171	0x2fbbcd14	3.416082e-10
172	0xb91c392b	-0.00014898616
173	0x307983a6	9.0772756e-10
174	0x3a7479dc	0.000932602
175	0x2fbbcd14	3.416082e-10
176	0x30df1eaf	1.6234106e-09
177	0xb0647ea9	-8.312591e-10
178	0x3a37b530	0.0007007895
179	0xafeebdba	-4.3426757e-10
180	0xb91cdf72	-0.00014960559
181	0x30ef4e75	1.7411838e-09
182	0x3a37b530	0.0007007895
183	0xafeebdba	-4.3426757e-10
184	0x3132297e	2.5925995e-09
185	0xafea74d3	-4.264736e-10
186	0x3a24e661	0.00062904326
187	0xb07f04a3	-9.277505e-10
188	0xb9322fa6	-0.00016993153
189	0xb30df6f0	-3.305371e-08
190	0x3a24e661	0.00062904326
191	0xb07f04a3	-9.277505e-10
192	0x283df160	1.05439474e-14
193	0x2ae4e172	4.065737e-13
194	0xafe37a72	-4.1378062e-10
195	0x2bcf7a7c	1.4742231e-12
196	0xaf108202	-1.3142912e-10
197	0x29b83e2a	8.182025e-14
198	0xafe37a72	-4.1378062e-10
199	0x2bcf7a7c	1.4742231e-12
200	0x2a53a92d	1.8799259e-13
201	0x2b119e8b	5.173437e-13
202	0x2b9db68b	1.1206187e-12
203	0x2b69c693	8.3053806e-13
204	0xaf8ce19b	-2.5626154e-10
205	0x2aac1e35	3.0574298e-13
206	0x2b9db68b	1.1206187e-12
207	0x2b69c693	8.3053806e-13
208	0x2aef7a54	4.253981e-13
209	0x2b20a640	5.7074137e-13
210	0x2f59755f	1.9777734e-10
211	0x2aea60f1	4.1634017e-13
212	0xaf7047f6	-2.1853439e-10
213	0x2b2d4c1a	6.156756e-13
214	0x2f59755f	1.9777734e-10
215	0x2aea60f1	4.1634017e-13
216	0x2b1ace9e	5.499853e-13
217	0xaa4d8ba6	-1.8256108e-13
218	0x2f1d178e	1.4287435e-10
219	0xa87c5467	-1.4007112e-14
220	0x2f108202	1.3142912e-10
221	0x29b83e2a	8.182025e-14
222	0x2f1d178e	1.4287435e-10
223	0xa87c5467	-1.4007112e-14
224	0x2a8a9e63	2.4623627e-13
225	0xaa42635b	-1.7265132e-13
226	0x2e826de5	5.931237e-11
227	0x2a8f8b17	2.5498416e-13
228	0x2f8ce19b	2.5626154e-10
229	0x2aac1e35	3.0574298e-13
230	0x2e826de5	5.931237e-11
231	0x2a8f8b17	2.5498416e-13
232	0x2812ca2c	8.148467e-15
233	0xaa1d50f4	-1.3972487e-13
234	0x2e1d8985	3.581981e-11
235	0x2a415ef7	1.7174791e-13
236	0x2f7047f6	2.1853439e-10
237	0x2b2d4c1a	6.156756e-13
238	0x2e1d8985	3.581981e-11
239	0x2a415ef7	1.7174791e-13
240	0x0338cfeb	5.431142e-37
241	0x03206511	4.7135793e-37
242	0x031623e0	4.412222e-37
243	0x02a625a4	2.4413112e-37
244	0x035c862a	6.48062e-37
245	0x0222819b	1.1939075e-37
246	0x031623e0	4.412222e-37
247	0x02a625a4	2.4413112e-37
248	0x03486b24	5.889771e-37
249	0x031acb1a	4.548968e-37
250	0x01ed0d9c	8.707958e-38
251	0x82a88236	-2.4760119e-37
252	0x0339068b	5.4374125e-37
253	0x8104c498	-2.438562e-38
254	0x01ed0d9c	8.707958e-38
255	0x82a88236	-2.4760119e-37

fcs1.bias f4 [400]
0	0x828ec1f5	-2.097635e-37
1	0x1c929b4f	9.701616e-22
2	0xa303f7b8	-7.153981e-18
3	0x2fb79fe7	3.3401124e-10
4	0x299f93de	7.086669e-14
5	0x833d2d35	-5.5594003e-37
6	0x82aeb3b4	-2.5670147e-37
7	0x82d6521e	-3.1491607e-37
8	0xb1256c8e	-2.4072366e-09
9	0xb41e0542	-1.471681e-07
10	0xb21805c4	-8.848875e-09
11	0x2a9801c0	2.7001838e-13
12	0x2e5ffadc	5.0927138e-11
13	0xbc4c6fb0	-0.0124778
14	0xa280fb69	-3.496066e-18
15	0x029a3786	2.2660135e-37
16	0x2eaf486e	7.970945e-11
17	0x9d74d77f	-3.240454e-21
18	0xaa49e4de	-1.793179e-13
19	0x2dc2717a	2.210564e-11
20	0xb5c37089	-1.4561384e-06
21	0x8030c930	-4.480276e-39
22	0xbab80731	-0.0014040229
23	0xb49eb72f	-2.9563077e-07
24	0xba31beb9	-0.0006780434
25	0xa736db91	-2.53766e-15
26	0x834ab209	-5.956684e-37
27	0x82164f9c	-1.1043106e-37
28	0xbc2db3b6	-0.010601928
29	0x81c8d73a	-7.377723e-38
30	0x029552c1	2.194108e-37
31	0xbbab02e4	-0.0052188504
32	0x36df6730	6.6579305e-06
33	0x30cd9d4c	1.496042e-09
34	0xb6b936c5	-5.5198057e-06
35	0xba43301b	-0.0007445828
36	0xb977a325	-0.00023616532
37	0x39c74b13	0.00038012172
38	0x01d93108	7.9783567e-38
39	0x3086721b	9.782214e-10
40	0xb24e274c	-1.1999713e-08
41	0x02e5ab66	3.3746904e-37
42	0x26172e09	5.245104e-16
43	0xb512a0fb	-5.4623496e-07
44	0xaee55660	-1.04290576e-10
45	0x988af922	-3.5923724e-24
46	0xa58889dc	-2.3685656e-16
47	0xba748d65	-0.0009328931
48	0x2a6f50c2	2.1255483e-13
49	0xb204ac52	-7.722592e-09
50	0x29a41d84	7.288183e-14
51	0xbbb076c2	-0.005385251
52	0xa379bf61	-1.3538843e-17
53	0x2cf7c752	7.0422912e-12
54	0xbb00daf2	-0.0019661752
55	0xab5f5bc4	-7.9352865e-13
56	0xb0494c96	-7.323221e-10
57	0xa82ea722	-9.6951815e-15
58	0x8167d1f0	-4.2578622e-38
59	0xab2d5058	-6.1573446e-13
60	0x37444ef6	1.1700895e-05
61	0x3b47dd6d	0.003049697
62	0xbc3b67dc	-0.011438336
63	0x8f569fae	-1.0581768e-29
64	0xab9a2b61	-1.0954398e-12
65	0x02362490	1.3381741e-37
66	0xb9451481	-0.00018795022
67	0xae75cdd8	-5.5889376e-11
68	0xa8759c70	-1.3634154e-14
69	0xbb8f08e6	-0.0043650744
70	0x3246e5e1	1.1577385e-08
71	0xb3a2b0d1	-7.5758756e-08
72	0xae748e5b	-5.5605614e-11
73	0xafd05e40	-3.7901948e-10
74	0x822e6bd4	-1.2814446e-37
75	0x820a994b	-1.0182632e-37
76	0x9e9bd78a	-1.6500408e-20
77	0xa1254932	-5.600105e-19
78	0xbc18d9ed	-0.009329301
79	0xbb03361f	-0.0020021272
80	0xbb61711d	-0.0034399696
81	0x831f0de0	-4.674183e-37
82	0x8038d4f0	-5.219175e-39
83	0xada2e6a0	-1.8519686e-11
84	0x02002c45	9.41666e-38
85	0x830b43e0	-4.0926345e-37
86	0xbd18387b	-0.03716324
87	0xab323f85	-6.3326455e-13
88	0xae40dafc	-4.3850243e-11
89	0xae21cdd2	-3.6789967e-11
90	0x031cb992	4.6057304e-37
91	0x83440153	-5.7600743e-37
92	0x2e995efa	6.974506e-11
93	0x34c4da31	3.66666e-07
94	0x82bde192	-2.7900525e-37
95	0xb2c6d8e4	-2.3148864e-08
96	0xbc226094	-0.009910721
97	0xb2506d82	-1.2132093e-08
98	0xb85b2c96	-5.2255193e-05
99	0x39eeaf3a	0.0004552545
100	0x2e4ac6c1	4.610601e-11
101	0x2556ae9f	1.8620705e-16
102	0x3a5d7a71	0.0008448726
103	0x00bd6f58	1.7396851e-38
104	0x956e7691	-4.815725e-26
105	0xbc00168d	-0.0078178765
106	0xad93dd36	-1.6810203e-11
107	0xace7cf68	-6.5884416e-12
108	0xa928b5ec	-3.7461286e-14
109	0xbc9eb907	-0.019375337
110	0xae2c8e1c	-3.923449e-11
111	0xbaf924d1	-0.0019008165
112	0x2b074362	4.8055147e-13
113	0xac296dc4	-2.4077277e-12
114	0x02127249	1.0759184e-37
115	0xaa03cea2	-1.1706827e-13
116	0x2bf27e34	1.7230163e-12
117	0x032b1476	5.027587e-37
118	0x0225fec3	1.2195399e-37
119	0xb308fa14	-3.1892412e-08
120	0xbc2923e7	-0.010323501
121	0xad3d428d	-1.0758183e-11
122	0x9f485a61	-4.2426407e-20
123	0xbaa7d45e	-0.0012804379
124	0x1e3d30ef	1.0015696e-20
125	0xaedc5670	-1.0019796e-10
126	0x2f21a8df	1.470286e-10
127	0xa97ee867	-5.6600907e-14
128	0x3b30c46b	0.0026972543
129	0xaef5abb1	-1.11718086e-10
130	0xb9d00331	-0.0003967523
131	0x25441910	1.7008782e-16
132	0x82cccd35	-3.009289e-37
133	0xa8f48d2b	-2.7150664e-14
134	0xae97c4cb	-6.9016425e-11
135	0x82b5fd32	-2.6740887e-37
136	0x22e25330	6.13455e-18
137	0x032f1fec	5.1464522e-37
138	0xbcb15deb	-0.021651229
139	0xaf32eb9c	-1.6272711e-10
140	0x2efa0bfd	1.1370813e-10
141	0x342c3669	1.6038543e-07
142	0x833dc1b1	-5.5764455e-37
143	0x02d85c1c	3.1791216e-37
144	0x82ba8690	-2.7407479e-37
145	0xaf1e3a18	-1.4390655e-10
146	0x02a3cd1c	2.4068424e-37
147	0xbaa030d0	-0.0012221579
148	0xbb2421a8	-0.0025044475
149	0x2d8b7e1a	1.585847e-11
150	0xb36a8304	-5.460153e-08
151	0x8ff57d52	-2.4207137e-29
152	0x022873c9	1.2375919e-37
153	0x833fca32	-5.6361964e-37
154	0xafda6806	-3.9727882e-10
155	0xbbef94f2	-0.007311457
156	0x82e30586	-3.3357823e-37
157	0xa30600fc	-7.264363e-18
158	0xac0f10db	-2.0330879e-12
159	0xbc116c7e	-0.008875964
160	0xb14eec56	-3.0111287e-09
161	0xb7047dec	-7.897132e-06
162	0x21f0d135	1.6318409e-18
163	0xae212216	-3.6637436e-11
164	0xb35c57df	-5.130266e-08
165	0x170e7c04	4.6039204e-25
166	0xbb98c81e	-0.0046625277
167	0x9ed98744	-2.3031713e-20
168	0xb6195eb0	-2.2853892e-06
169	0x38c859d6	9.5534764e-05
170	0xa9147550	-3.2964354e-14
171	0xae121e5c	-3.322352e-11
172	0x82b25614	-2.6204156e-37
173	0xab357fbf	-6.44814e-13
174	0xadefa429	-2.7244056e-11
175	0x832f3e10	-5.149912e-37
176	0x3a342b1f	0.00068728806
177	0xa1acde00	-1.1713936e-18
178	0x26d0ad5f	1.4479892e-15
179	0x83452075	-5.7930356e-37
180	0xb8029724	-3.1135176e-05
181	0x82753126	-1.8013862e-37
182	0xa4aca26f	-7.486828e-17
183	0x3ad8d54a	0.0016543057
184	0xbb6b18a9	-0.0035872853
185	0xbb3bf887	-0.002868207
186	0xa8583985	-1.2002881e-14
187	0x03435320	5.7400772e-37
188	0x2afa29fe	4.443806e-13
189	0x2eb6387f	8.2864375e-11
190	0xb856e72e	-5.123688e-05
191	0xba4f4560	-0.0007906761
192	0x858e95c9	-1.3408638e-35
193	0x2db79368	2.0870153e-11
194	0x830f6ee6	-4.215123e-37
195	0x81a719d4	-6.1383173e-38
196	0x3b2ef718	0.0026697572
197	0xb42a97c9	-1.5887703e-07
198	0xa9b08078	-7.838256e-14
199	0x31dc665e	6.4144805e-09
200	0xba817db7	-0.0009879385
201	0x03002ef0	3.76697e-37
202	0x02ee6de2	3.5034027e-37
203	0xbacc6eb1	-0.0015596953
204	0xab13a569	-5.2454444e-13
205	0x2d87430f	1.5377503e-11
206	0x9e8efebf	-1.5140195e-20
207	0x2a8b79c6	2.4775857e-13
208	0x0324fbbe	4.8484254e-37
209	0xa6bff70a	-1.3320247e-15
210	0xbc2b7eee	-0.010467274
211	0x318c91ed	4.091126e-09
212	0xaaaf98fb	-3.1192396e-13
213	0x0327191a	4.9105704e-37
214	0xb63100ad	-2.6375449e-06
215	0x82fc7672	-3.7096056e-37
216	0xb9e46844	-0.00043565233
217	0x2673cca2	8.458489e-16
218	0x9992b060	-1.5167283e-23
219	0x2755b203	2.9656188e-15
220	0x2a6bcd11	2.094334e-13
221	0x82fd0142	-3.717573e-37
222	0x32a56102	1.9252642e-08
223	0xadfe6d35	-2.8924954e-11
224	0x0ccebd48	3.1853245e-31
225	0x2caa66d9	4.843109e-12
226	0x2a9cffa0	2.7888542e-13
227	0x33d93544	1.0114539e-07
228	0xac40a954	-2.7378837e-12
229	0x82226bcd	-1.1932818e-37
230	0xb579b6cb	-9.302573e-07
231	0x3a1f2726	0.0006071202
232	0xaac5f4ae	-3.516401e-13
233	0x02c8361e	2.941842e-37
234	0x0316deea	4.433693e-37
235	0xb6ca07f7	-6.0209964e-06
236	0x82ab37a6	-2.5158132e-37
237	0xb8df1292	-0.000106369276
238	0xad331646	-1.0179918e-11
239	0x32a4a532	1.9167235e-08
240	0xafd77846	-3.9193732e-10
241	0x352f59aa	6.532306e-07
242	0x82a63f48	-2.442783e-37
243	0x01efae54	8.8044883e-38
244	0x380568b6	3.180719e-05
245	0x2e011e6c	2.9358224e-11
246	0x191a06c6	7.962981e-24
247	0x3967b018	0.00022095477
248	0x3455452e	1.9862338e-07
249	0x177ee2f4	8.235828e-25
250	0xab1004a4	-5.1165517e-13
251	0x35bfddf5	1.4295207e-06
252	0xafe11f2a	-4.0949405e-10
253	0x2d5887e0	1.2308349e-11
254	0xac1e4fda	-2.2497477e-12
255	0x16e682e0	3.7241098e-25

fc2.weight f4 [256, 404]
0	0x32d30068	2.4563818e-08
1	0xb0af1c04	-1.2740888e-09
2	0x378a27b7	1.6469376e-05
3	0x361f9081	2.3776959e-06
4	0xb0c1d36d	-1.4102689e-09
5	0x3968a292	0.00022185806
6	0xb5d613ae	-1.594997e-06
7	0xb9831af5	-0.00025006352
8	0x34f6a9e4	4.5944682e-07
9	0x340875e0	1.270887e-07
10	0x35eac244	1.7490897e-06
11	0x31c4e622	5.730514e-09
12	0xb443f93b	-1.825146e-07
13	0xbd3f9965	-0.046777148
14	0x259a6000	2.6779794e-16
15	0x35583de0	8.055631e-07
16	0x2f49ff3a	1.8371518e-10
17	0x308f39bd	1.042103e-09
18	0x334cd413	4.769033e-08
19	0x31ab72a1	4.989787e-09
20	0xb9930600	-0.00028042495
21	0x374c8dc5	1.2192356e-05
22	0x3c6622fd	0.014046428
23	0x399a68e2	0.00029451313
24	0xbba62fae	-0.005071602
25	0xb841ab1a	-4.6174137e-05
26	0x376ec553	1.4231849e-05
27	0xb51d158f	-5.851843e-07
28	0x3ae5c334	0.0017529489
29	0xb5114558	-5.411762e-07
30	0xb530ff2d	-6.593644e-07
31	0xbc85f314	-0.01635126
32	0x392f5918	0.0001672249
33	0xb9a0deb3	-0.00030683502
34	0xba770e44	-0.0009424428
35	0xbc87aacb	-0.016560933
36	0x3b29787a	0.0025859163
37	0xbcb74194	-0.022370137
38	0xb900f923	-0.00012299842
39	0x35ce7c88	1.5384439e-06
40	0x38e1fa43	0.00010775451
41	0xb21b1599	-9.027098e-09
42	0x2e9469b5	6.749038e-11
43	0xb54649d1	-7.3868165e-07
44	0x352e3c03	6.490738e-07
45	0xaf0fc528	-1.3075818e-10
46	0xb942c80f	-0.0001857581
47	0xbccbc7e1	-0.024875583
48	0x30bd99b2	1.3795243e-09
49	0x34f8537e	4.6254348e-07
50	0xb2b00fa7	-2.0496215e-08
51	0xbd6fdf5b	-0.058562618
52	0xb7957fbd	-1.7821667e-05
53	0xb3b0093c	-8.1973184e-08
54	0xbbf01613	-0.00732685
55	0xb913e26e	-0.00014103364
56	0x3694df64	4.43675e-06
57	0xb36c6b92	-5.5045867e-08
58	0x35a54389	1.2313113e-06
59	0xb0d12a83	-1.5218834e-09
60	0xb6932a34	-4.3858545e-06
61	0xbca088bc	-0.01959645
62	0x3af0c344	0.001836874
63	0x39436a60	0.00018636277
64	0xaf26f220	-1.5183632e-10
65	0x3684a695	3.9532993e-06
66	0xb699ab0e	-4.5796687e-06
67	0x3627ea3b	2.502128e-06
68	0x2f5abd32	1.98942e-10
69	0x3a05d43b	0.0005105172
70	0x36920979	4.352242e-06
71	0xb3609ce4	-5.2296755e-08
72	0xb5f65d3a	-1.8355561e-06
73	0xb3f5548f	-1.1424083e-07
74	0x393e52c4	0.00018150645
75	0x325382a0	1.2311517e-08
76	0x36caf706	6.0488264e-06
77	0x2e50c61b	4.7469677e-11
78	0x3b78947b	0.0037930298
79	0xbba2b8c2	-0.0049658725
80	0xbb7c2e71	-0.003847983
81	0xaedaacbe	-9.9441774e-11
82	0xb2957f9f	-1.7403918e-08
83	0x33d3de6b	9.865911e-08
84	0x37460c50	1.1804586e-05
85	0xb68973a8	-4.0963823e-06
86	0xbc2057a3	-0.009786519
87	0xb6e67d26	-6.8691033e-06
88	0x34094d97	1.2787346e-07
89	0xb3cc5e5b	-9.5166534e-08
90	0xb72877fa	-1.00415145e-05
91	0x39be0780	0.00036245212
92	0x35694ccc	8.691102e-07
93	0xb727170d	-9.959343e-06
94	0xb6b344cb	-5.3426243e-06
95	0x39de57ac	0.0004240846
96	0xbcd34117	-0.025787873
97	0x34bbf0a0	3.5006542e-07
98	0x3a9e50bb	0.0012078503
99	0x3b2b74a6	0.0026162057
100	0x32070602	7.8594e-09
101	0xb4032c67	-1.2216479e-07
102	0xbd17c30b	-0.03705124
103	0x39ec90b8	0.00045121252
104	0x343d8224	1.7649342e-07
105	0x3cf696ad	0.030101145
106	0xb236b930	-1.0635901e-08
107	0xb0b2496c	-1.2972072e-09
108	0xb78adc0c	-1.655335e-05
109	0xbc7cb1be	-0.015423236
110	0xb2095ca0	-7.99551e-09
111	0xbbad0998	-0.0052806847
112	0x31b98fa6	5.4005396e-09
113	0xb0a7601a	-1.2178163e-09
114	0xb30303fd	-3.050444e-08
115	0xb08b77e6	-1.0147658e-09
116	0x337ad97e	5.840547e-08
117	0x36318d6b	2.6457371e-06
118	0x377a1362	1.4905674e-05
119	0xb7a9ef7c	-2.0257889e-05
120	0x3c21b065	0.009868716
121	0x34c7503e	3.7125022e-07
122	0x3471fdb4	2.253717e-07
123	0x3cb4896d	0.022038186
124	0xaf5eb8cd	-2.0256437e-10
125	0x3478ce38	2.3171822e-07
126	0x343f3838	1.7808713e-07
127	0xae371ca1	-4.163481e-11
128	0xbd6ace5b	-0.057325702
129	0x383a27fb	4.438309e-05
130	0x39071f6b	0.00012886307
131	0xaefd5cab	-1.1521569e-10
132	0x3112b1c6	2.1346849e-09
133	0xab820eef	-9.2412e-13
134	0x3326e73d	3.8860197e-08
135	0xb66e1692	-3.5477901e-06
136	0x32e37a2a	2.6481832e-08
137	0xb9aef524	-0.0003337051
138	0xbc5a18f4	-0.013311613
139	0xb4e896c3	-4.332306e-07
140	0xb3cbbc62	-9.487191e-08
141	0x39973005	0.00028836742
142	0xb90deed5	-0.0001353578
143	0xb3d2ee5d	-9.822245e-08
144	0xb67b65de	-3.746121e-06
145	0x34b2973d	3.3265124e-07
146	0xb763482a	-1.3547056e-05
147	0x3c8c6091	0.01713589
148	0x3bb22483	0.0054364814
149	0x33530a5e	4.9136695e-08
150	0x361879b0	2.2720596e-06
151	0x3256beac	1.2499793e-08
152	0x32112f1a	8.4508205e-09
153	0x320a7128	8.058386e-09
154	0xb403160e	-1.2208349e-07
155	0xbcb63f8c	-0.022247098
156	0xb51d125b	-5.851377e-07
157	0xb09cd21d	-1.1410212e-09
158	0xb491ba6a	-2.714399e-07
159	0xbc8c123a	-0.017098535
160	0x3808a94f	3.2582608e-05
161	0xb9e8d67f	-0.000444103
162	0xaba0eeb0	-1.1434933e-12
163	0xb35249c6	-4.896153e-08
164	0x3209037c	7.975242e-09
165	0xb2c650e9	-2.3087027e-08
166	0xbc99f89c	-0.018795304
167	0xb94792de	-0.00019032831
168	0x382b0a24	4.077902e-05
169	0x37c87b1e	2.3899189e-05
170	0xaf4e1328	-1.8742397e-10
171	0x36c84f82	5.9697204e-06
172	0x393023de	0.0001679803
173	0x31ed01ee	6.897827e-09
174	0x30766482	8.963711e-10
175	0xb6761157	-3.666695e-06
176	0x396857a8	0.00022157899
177	0xb3099661	-3.2034567e-08
178	0xab5531cb	-7.5741903e-13
179	0xb6dca069	-6.575185e-06
180	0x3a2d9a9d	0.00066224654
181	0xb121e16b	-2.3556719e-09
182	0xb9550a62	-0.00020317131
183	0x3caf4c5f	0.021398721
184	0xbbe6629d	-0.0070307986
185	0xbbc2529d	-0.0059302584
186	0xb36ce046	-5.5152007e-08
187	0xaffd62da	-4.609067e-10
188	0x30465e1a	7.2165707e-10
189	0xb8cdf23f	-9.8202836e-05
190	0x39207662	0.0001530289
191	0xbc817b66	-0.015805911
192	0xb441531b	-1.8004759e-07
193	0x34b2bc76	3.3292207e-07
194	0xb71b6871	-9.263037e-06
195	0xb5c63e60	-1.4770303e-06
196	0xbca8d97a	-0.020611513
197	0xb515f9cb	-5.587032e-07
198	0xb1f1b0f1	-7.034139e-09
199	0xb5477ceb	-7.4315057e-07
200	0xbcb896fd	-0.022532934
201	0xb15a06b2	-3.172698e-09
202	0xb6a0c49d	-4.7912604e-06
203	0x3c2ccd00	0.010546923
204	0xb4cc0284	-3.799979e-07
205	0x3162d1ae	3.3006518e-09
206	0x32193757	8.918355e-09
207	0xb1433a60	-2.8409417e-09
208	0xb7201855	-9.542408e-06
209	0xadfa1c99	-2.843441e-11
210	0xbce37c61	-0.02776927
211	0xba00dcc6	-0.00049157103
212	0xb25bbdee	-1.2790663e-08
213	0xb9012602	-0.00012316558
214	0x376aa992	1.3986968e-05
215	0xb2127be6	-8.52649e-09
216	0xbab97714	-0.0014149868
217	0x2f381cb5	1.6744901e-10
218	0x39245c04	0.00015674537
219	0xb47be9fc	-2.346132e-07
220	0xb0fcbdfd	-1.8389411e-09
221	0xb8832da5	-6.255069e-05
222	0xb5867e8f	-1.0020611e-06
223	0xb99ccfe7	-0.00029909538
224	0x31d07e8a	6.0679826e-09
225	0xb2be1e91	-2.2132811e-08
226	0xb4748740	-2.2773474e-07
227	0x38c25cf7	9.267957e-05
228	0x36a5c0e4	4.9398386e-06
229	0x333edd95	4.443935e-08
230	0xb54b41ca	-7.571913e-07
231	0xbce4874c	-0.027896546
232	0xb210bca6	-8.424797e-09
233	0xaeb6f45c	-8.319809e-11
234	0xb300e2a2	-3.0008444e-08
235	0x3996bb1d	0.0002874964
236	0xb51dd85d	-5.880191e-07
237	0x38bacfbe	8.907866e-05
238	0x366af416	3.5010794e-06
239	0xb3aa0e7d	-7.918877e-08
240	0x3998199e	0.00029010786
241	0x3787dd37	1.6196265e-05
242	0x35575c36	8.0227926e-07
243	0x3326bc87	3.882135e-08
244	0x3a3709d2	0.00069823593
245	0x34262cf6	1.5476311e-07
246	0xb7dc8986	-2.6290083e-05
247	0xba2a2b25	-0.00064914144
248	0x37b77e3f	2.1874088e-05
249	0xb135fa7d	-2.6481353e-09
250	0xb0fa2f4d	-1.8203338e-09
251	0x37ef724c	2.8544244e-05
252	0x3709541e	8.185421e-06
253	0x345c30d8	2.0506866e-07
254	0xb1ae47ff	-5.0722515e-09
255	0xa7a70a12	-4.636273e-15

fc2.bias f4 [256]
0	0xbcc5cb31	-0.02414474
1	0xbd0014e9	-0.03126994
2	0xbd06bc62	-0.0328945
3	0xba93a64f	-0.0011264774
4	0xa46e9ee5	-5.1742612e-17
5	0x3c89deaa	0.016829807
6	0xbcc297e0	-0.02375406
7	0xbcb7e76f	-0.022449223
8	0xbc4745b1	-0.012162612
9	0xbc764293	-0.015030521
10	0x830938dc	-4.0325953e-37
11	0xbc7266f5	-0.014795055
12	0xbce1b21e	-0.027550753
13	0xb6907e16	-4.3062128e-06
14	0xbb15951d	-0.0022824474
15	0xbb6e69a1	-0.0036378878
16	0xbcca0b20	-0.024663508
17	0xbcc1a03a	-0.023635972
18	0xbd04fff2	-0.03247065
19	0x3abee656	0.0014564495
20	0xa3631d4b	-1.2311898e-17
21	0xbc811c5b	-0.015760591
22	0xbcf0ab3f	-0.029378532
23	0x9c08f428	-4.531419e-22
24	0xbb3b9e13	-0.0028628155
25	0xbc9b74a7	-0.018976523
26	0xbc876cbf	-0.016531346
27	0xa24dca99	-2.7889935e-18
28	0xb970b9ee	-0.00022957448
29	0xbcf5ba3d	-0.029996032
30	0xbc9a29a1	-0.018818678
31	0xbc9bc711	-0.01901582
32	0xbca90a09	-0.020634668
33	0xb341f5dd	-4.5159926e-08
34	0xbcbb06fc	-0.022830479
35	0xbcf32dd8	-0.029684946
36	0xbca2c4ac	-0.019869171
37	0xbc501dee	-0.012702448
38	0xbc8b1cbb	-0.016981473
39	0xaf965b33	-2.7349642e-10
40	0xb3b86a13	-8.5874625e-08
41	0x3c47977e	0.012182115
42	0xb9db19db	-0.000417902
43	0xbcb1af1c	-0.021689944
44	0xbc9098cd	-0.017650986
45	0xa4fd0604	-1.0973145e-16
46	0xbc5b4cd2	-0.013385015
47	0xb18f7c32	-4.175967e-09
48	0x99589237	-1.1196466e-23
49	0xbc3c2931	-0.01148443
50	0xb2826b81	-1.5182879e-08
51	0xb858477a	-5.156498e-05
52	0xbc924242	-0.01785386
53	0xb2f85f4e	-2.891434e-08
54	0xbbfdd26c	-0.0077460315
55	0xbcda73cc	-0.026666544
56	0xa0271f36	-1.4155777e-19
57	0xbb802eb7	-0.003911819
58	0xa02a7367	-1.4437744e-19
59	0xbc0cb913	-0.008589047
60	0xb9a2f9f2	-0.00031085272
61	0xbcb76c7c	-0.022390597
62	0xbcfd1cf7	-0.0308976
63	0xbc93381e	-0.017971095
64	0xb831eddf	-4.2421623e-05
65	0xbac263e0	-0.001483079
66	0xbc896cb0	-0.016775459
67	0x3bbd8674	0.0057838503
68	0x3c975d61	0.018477144
69	0xbc703dd9	-0.014663183
70	0x833f25d3	-5.6173275e-37
71	0xaf53c7e7	-1.9261358e-10
72	0xbc6b3a71	-0.014357195
73	0x8666818e	-4.3353374e-35
74	0x8709a653	-1.0355613e-34
75	0xad838caf	-1.4955452e-11
76	0xbccbbd0c	-0.024870418
77	0xac546901	-3.01853e-12
78	0xbb66647f	-0.0035155115
79	0x8b7d431d	-4.8776518e-32
80	0x3c5a0759	0.013307416
81	0xb6f7e353	-7.3876377e-06
82	0xbb373df2	-0.0027960506
83	0xbc753901	-0.014967204
84	0xbca1c6ec	-0.019748174
85	0xbaba5557	-0.0014216107
86	0xbc900e39	-0.017584907
87	0xbd21e9a3	-0.039529454
88	0x3bb50dff	0.00552535
89	0xbc01d48a	-0.007924208
90	0xbbce88de	-0.006302937
91	0x9640a3e0	-1.5561346e-25
92	0xbc886c3a	-0.016653169
93	0xbcc60de3	-0.024176544
94	0xbc23a796	-0.009988686
95	0xbc957b12	-0.018247161
96	0xbce99e65	-0.028517911
97	0x3ad978c9	0.0016591783
98	0xad2efbbc	-9.946651e-12
99	0xbba783c6	-0.005112144
100	0xbce72110	-0.028214008
101	0x3b26c3a1	0.0025446194
102	0x8e8104c8	-3.180556e-30
103	0x3ba2d744	0.0049695093
104	0x3c207e70	0.00979577
105	0xad1dd9f4	-8.972812e-12
106	0xab5b3571	-7.7878594e-13
107	0x9c083bc8	-4.507589e-22
108	0x3c343d1c	0.011000898
109	0xbcae613e	-0.021286603
110	0xbd1af67e	-0.03783273
111	0xbcccf4b5	-0.02501903
112	0x96a77fec	-2.7061035e-25
113	0xbcf4ea2e	-0.029896822
114	0xb52f9746	-6.541271e-07
115	0xbc19d32c	-0.009388726
116	0x3bcab637	0.0061862725
117	0xbbb75d2e	-0.0055958247
118	0x3ba2b2b6	0.0049651517
119	0xb294fea8	-1.7345272e-08
120	0xbd117a64	-0.03551711
121	0x3c1716db	0.009221758
122	0xb6a303cc	-4.8582206e-06
123	0xa5ee1272	-4.1298918e-16
124	0xaff11900	-4.3855408e-10
125	0xbc926377	-0.017869694
126	0x3b979317	0.004625689
127	0xa85dab02	-1.2305046e-14
128	0x3c195c10	0.009360328
129	0x3b26fad6	0.00254791
130	0x3bf66b39	0.007520106
131	0xb3211ae7	-3.75102e-08
132	0xbb60fe6d	-0.0034331337
133	0x9e0e441c	-7.531502e-21
134	0xbca73b27	-0.020413948
135	0xbcbedae3	-0.023297733
136	0xbcfc69fd	-0.030812258
137	0xbc57f810	-0.013181701
138	0xbbd72646	-0.006565842
139	0xb986588a	-0.00025624438
140	0x3b1b34ed	0.002368267
141	0xbcc2697c	-0.02373194
142	0xbc8aec09	-0.016958253
143	0xbc45258c	-0.012032878
144	0xbbdef90b	-0.0068045906
145	0xbcce00d0	-0.025146872
146	0xbcc218c6	-0.023693454
147	0xb05637df	-7.7932144e-10
148	0xbc97e2c7	-0.018540753
149	0xbc6fc3f8	-0.014634125
150	0xbbc71a04	-0.0060760994
151	0xa6a59c0e	-1.1491474e-15
152	0xbc7d3586	-0.0154546555
153	0xbcb042a9	-0.021516161
154	0x82e0b3a8	-3.301696e-37
155	0xbccad7ec	-0.024761163
156	0xb6aa5fbf	-5.077541e-06
157	0xbb2afbb7	-0.0026089975
158	0xbca29445	-0.019846091
159	0xb2bf1ac8	-2.2247505e-08
160	0xbbfc5c3a	-0.007701424
161	0xbc1d3ff7	-0.00959777
162	0xb392a17e	-6.82803e-08
163	0x833a6668	-5.4778044e-37
164	0xbcfe1b81	-0.031018974
165	0xb7b9bf27	-2.214273e-05
166	0xb99b977f	-0.00029676777
167	0x99c8ce97	-2.0762956e-23
168	0xbc9ec364	-0.019380279
169	0xb8857a7d	-6.3647494e-05
170	0xb7cb7048	-2.425177e-05
171	0xbc8cb929	-0.017178135
172	0xbc7c6e93	-0.015407222
173	0xb2dbfa3a	-2.5608745e-08
174	0xb3c1bd8c	-9.021741e-08
175	0xadb73919	-2.0830048e-11
176	0xbce7d509	-0.028299825
177	0xab51631f	-7.4389274e-13
178	0xbcaa30a5	-0.020775149
179	0xbc304b3f	-0.010760128
180	0xaf48d51c	-1.8265606e-10
181	0xbca2a4b1	-0.019853922
182	0xbc3fa9e0	-0.011698216
183	0xbc376170	-0.0111926645
184	0xbb4e0ce5	-0.0031440791
185	0xb9c619e2	-0.00037784787
186	0x3c711d6b	0.014716486
187	0xb3b1ef74	-8.285761e-08
188	0xbc8b7bf8	-0.017026886
189	0xbbe3f6ac	-0.006956896
190	0xbcb5c113	-0.022186792
191	0xbbdc765b	-0.0067279763
192	0xb24b3e39	-1.1830303e-08
193	0xbcd246cb	-0.025668522
194	0x3d0509da	0.0324801
195	0xba4697aa	-0.00075757003
196	0xaeea3caa	-1.0651864e-10
197	0xb18cb652	-4.0952637e-09
198	0xbc8a13d3	-0.016855156
199	0x3c1aab8f	0.009440317
200	0xb267772e	-1.3473068e-08
201	0x87f7b37f	-3.7269928e-34
202	0xbcc0521c	-0.023476653
203	0xbbeebd56	-0.007285754
204	0xbcc94ef7	-0.024573786
205	0xbc9fc362	-0.019502345
206	0xab2dff59	-6.181631e-13
207	0xbca1e22e	-0.019761171
208	0xbd019fa2	-0.03164638
209	0x98ce310c	-5.3299277e-24
210	0xbc36bf6f	-0.01115404
211	0x3b23857f	0.0024951396
212	0xb8058d56	-3.18413e-05
213	0xb760a8b0	-1.3390716e-05
214	0xb20ea117	-8.302115e-09
215	0xbc842fe1	-0.016136112
216	0xbccf05ab	-0.025271257
217	0xbbc7c90e	-0.0060969656
218	0xbb369c5d	-0.0027864196
219	0xbc8e1503	-0.017344004
220	0xb7c65e1e	-2.3647266e-05
221	0xa8f8894e	-2.7593077e-14
222	0xbc868034	-0.016418554
223	0xad44ab44	-1.1179339e-11
224	0xba1637c1	-0.0005730354
225	0xbbe89aa6	-0.0070985137
226	0xac656ac6	-3.2602128e-12
227	0xa6a61f29	-1.152701e-15
228	0xbcbe1bc6	-0.023206603
229	0x3afc24f9	0.0019237093
230	0xbb76b05b	-0.0037641737
231	0xa80187e1	-7.1904025e-15
232	0x3ab52e42	0.001382299
233	0xbca22e6c	-0.019797526
234	0xbca44ae3	-0.02005524
235	0xa321e4ee	-8.776305e-18
236	0xbc9af850	-0.018917233
237	0x3b0997e0	0.0020995066
238	0xba891ba1	-0.0010460505
239	0xb3949ab1	-6.919925e-08
240	0xb3da5907	-1.016761e-07
241	0xbaaa5dea	-0.0012997959
242	0xbc8f8c03	-0.017522817
243	0xbc669acd	-0.014074993
244	0xbcc42dd6	-0.023947638
245	0xbc0f94c8	-0.0087635
246	0xbc3d5545	-0.011555974
247	0xac5c1a5c	-3.1278513e-12
248	0xbb28eaf7	-0.0025774816
249	0xb276ab12	-1.43579815e-08
250	0xa37f3814	-1.3835453e-17
251	0x3a81a8b7	0.00098922
252	0xaa35a174	-1.6132045e-13
253	0x3a94177f	0.0011298506
254	0xb902a4f4	-0.00012459216
255	0x3cd1692b	0.025562843

fc3.weight f4 [1, 256]
0	0x3e134b86	0.14384279
1	0xbe283d96	-0.16429743
2	0x3e22867c	0.15871614
3	0x3af7b640	0.0018898919
4	0xb2e522e5	-2.6674977e-08
5	0x3d905561	0.07047535
6	0x3e259fe9	0.16174282
7	0x3e13edc5	0.1444617
8	0x3d609441	0.054828886
9	0x3da9ec72	0.082970515
10	0x818aef5e	-5.103667e-38
11	0x3dda6145	0.10663084
12	0x3e265e5a	0.1624693
13	0x38c2aaa9	9.282429e-05
14	0x3d3ae799	0.045631025
15	0x3d9b6999	0.075885005
16	0x3e13fa22	0.14450887
17	0x3dde50cd	0.10855255
18	0x3e4d34c7	0.20039664
19	0x3d9a4833	0.07533302
20	0x338ee6cc	6.654372e-08
21	0xbe1cf5a7	-0.15328084
22	0x3e03bb0f	0.12864326
23	0xadeb6bfb	-2.676436e-11
24	0x3d9a1b82	0.07524778
25	0x3dc5cb9b	0.09657975
26	0x3db9855c	0.090586394
27	0x3609828b	2.0490577e-06
28	0x3a14f07d	0.00056815875
29	0xbe61e6ba	-0.22060671
30	0x3deb7346	0.11496596
31	0xbe02ead8	-0.12784898
32	0x3dd80342	0.105474964
33	0xb6834d7f	-3.913126e-06
34	0x3e0fe369	0.14051594
35	0x3e040c03	0.12895207
36	0x3dfe415e	0.124148116
37	0x3da47b80	0.08031368
38	0x3de5786b	0.112046085
39	0xb0969098	-1.0955032e-09
40	0x3396dd56	7.02518e-08
41	0x3da271dd	0.07931874
42	0xb9a5ff1a	-0.00031661318
43	0x3e0dc1e5	0.13843496
44	0x3d7b203b	0.061310034
45	0xa6002ea9	-4.4472157e-16
46	0xbd5b81d7	-0.05359062
47	0x382e4bd3	4.155545e-05
48	0xad9e0f3d	-1.7969288e-11
49	0x3d747cdf	0.0596894
50	0x3817c4d9	3.6184534e-05
51	0x395cd850	0.00021061418
52	0xbdc465d3	-0.09589734
53	0x32f35eb9	2.8331998e-08
54	0x3dbb67ab	0.091506325
55	0x3e0b59d1	0.13608481
56	0xb35465a5	-4.945254e-08
57	0xbc7a6db9	-0.015284949
58	0xb1f73e33	-7.1957174e-09
59	0x3d9fc54e	0.07801305
60	0xbe06f7de	-0.13180491
61	0x3e0ebdef	0.13939641
62	0x3e3f3375	0.18671973
63	0x3dfadb7a	0.12248893
64	0x3742172c	1.1568696e-05
65	0x3a70388c	0.00091636996
66	0x3dbc2c19	0.091880985
67	0x3d74fe6e	0.059812956
68	0x3d6767dd	0.056495536
69	0x3e1518e5	0.14560278
70	0x83191e10	-4.499717e-37
71	0xae9e4a25	-7.198179e-11
72	0x3dcc5a70	0.09978187
73	0xa6374ec4	-6.3597627e-16
74	0x2b078aeb	4.815442e-13
75	0xb5185036	-5.6741135e-07
76	0x3e1cf043	0.15326028
77	0xadae5e5d	-1.9823415e-11
78	0xbdc66f74	-0.09689227
79	0xa443053d	-4.2288322e-17
80	0x3d982bcf	0.07430231
81	0x35ad72d2	1.2922922e-06
82	0x3a4e01be	0.0007858536
83	0xbe0a21cc	-0.13489455
84	0x3e0f7b20	0.14011812
85	0x3dc84677	0.09779065
86	0x3dc7c673	0.09754648
87	0x3e6254a1	0.22102596
88	0x3cda78c5	0.026668916
89	0x3db50ad2	0.088399544
90	0xbe1eae29	-0.15496124
91	0xb1364936	-2.6526101e-09
92	0x3dbfacb2	0.09359111
93	0x3e0d2f71	0.13787629
94	0x3e0a0a6d	0.1348054
95	0x3ddf7343	0.10910656
96	0x3e23e5bd	0.16005607
97	0x3dc0a274	0.094059855
98	0x2e0355d1	2.9862172e-11
99	0xbddc7262	-0.10764004
100	0x3e168392	0.14698628
101	0x3d6de295	0.058077414
102	0xac4e623b	-2.932889e-12
103	0x3dba2a8f	0.09090149
104	0xbe1a120c	-0.15045947
105	0x3200c695	7.495733e-09
106	0x3689ac92	4.103008e-06
107	0xaf949002	-2.7023367e-10
108	0x3d819842	0.06327869
109	0x3e0a2e2d	0.13494177
110	0xbe6e88d6	-0.23294386
111	0x3e017431	0.1264198
112	0x2e19fb5d	3.5011428e-11
113	0x3e1bf4e2	0.15230134
114	0x380c9c14	3.352396e-05
115	0x3dc165dd	0.09443257
116	0x3d973b2e	0.073843345
117	0xbcf4a970	-0.02986595
118	0xbe3a01f8	-0.18164814
119	0x32e789c1	2.6954583e-08
120	0x3e5e5d06	0.21715173
121	0x3d630582	0.055425175
122	0x397233ec	0.00023098261
123	0x322c0283	1.0012289e-08
124	0x3077755e	9.0024865e-10
125	0x3dc5fe11	0.096676
126	0xbd90000c	-0.07031259
127	0xb6898d09	-4.099337e-06
128	0x3d85311c	0.065035075
129	0x3da47558	0.08030194
130	0x3d91b3d9	0.07114381
131	0x37c42a0c	2.33846e-05
132	0x3da38678	0.07984632
133	0xb43afef1	-1.7415347e-07
134	0x3df03aa4	0.11729935
135	0x3df3d005	0.11904911
136	0x3e06e011	0.13171412
137	0x3dd2964e	0.102825746
138	0x3d8c4ba8	0.06850368
139	0xba407d27	-0.0007342868
140	0x3b6127a1	0.0034355896
141	0x3db91153	0.090365075
142	0x3dd282bc	0.10278842
143	0x3d9382d0	0.07202685
144	0xbe21d0a8	-0.15802252
145	0xbe49e905	-0.19717796
146	0x3e0b6246	0.13611707
147	0x365687c2	3.1967506e-06
148	0x3e5e2141	0.21692373
149	0x3da77740	0.08177042
150	0x3dc165c6	0.0944324
151	0x33ca5e94	9.423562e-08
152	0x3d99ada2	0.07503821
153	0x3dfc9395	0.123328365
154	0x835995fe	-6.394275e-37
155	0x3e08cc81	0.13359262
156	0x39d4e0cb	0.00040603275
157	0x3d92c2ff	0.07166099
158	0x3dc76f77	0.09738057
159	0x395b10f1	0.00020891779
160	0x3dcfbc4d	0.101433374
161	0xbd3d2685	-0.046179313
162	0xb99aa304	-0.00029494625
163	0x8296cb06	-2.2157049e-37
164	0x3e48354f	0.19551586
165	0xb8364275	-4.3454074e-05
166	0x3934e6ed	0.00017252164
167	0x99fb4fd1	-2.598503e-23
168	0x3de39c56	0.11113803
169	0x36d2daf1	6.283976e-06
170	0xb9845c79	-0.000252459
171	0x3dd34576	0.10315983
172	0xbe30a11c	-0.17248958
173	0xb7cccaab	-2.441307e-05
174	0xb4616cab	-2.0994291e-07
175	0xb51643f6	-5.597825e-07
176	0x3ddc0ebc	0.10744998
177	0xaa524543	-1.8675777e-13
178	0x3e030ee0	0.12798643
179	0x3dff87d2	0.124770775
180	0xb8e5d825	-0.00010959831
181	0x3e5d8b66	0.21635208
182	0xbde5530b	-0.1119748
183	0x3d9b8d78	0.075953424
184	0x3cc3da14	0.023907699
185	0x3d801ef9	0.062559076
186	0x3db3e008	0.08782965
187	0xb96176e3	-0.00021501961
188	0xbdc8b64b	-0.098003946
189	0x3e0285d8	0.1274637
190	0x3e0597ad	0.13046141
191	0x3d9f1619	0.07767887
192	0xb720da39	-9.587552e-06
193	0x3e31b30a	0.17353454
194	0x3da208a3	0.079118036
195	0xb9341cf2	-0.0001717692
196	0xb6ce4944	-6.1478077e-06
197	0x32403452	1.1187767e-08
198	0x3e087005	0.13323982
199	0x3d85b063	0.06527784
200	0x32767607	1.4345921e-08
201	0xa925e482	-3.683556e-14
202	0x3e08762f	0.13326333
203	0x3dbcf337	0.09226077
204	0xbe5707d1	-0.20999075
205	0x3dfe2b15	0.12410561
206	0x2bee90be	1.6951091e-12
207	0x3df33b38	0.118765295
208	0x3ded0c80	0.1157465
209	0x31d49be9	6.187737e-09
210	0xbdb4e104	-0.08831981
211	0x3d7f7ac0	0.062372923
212	0xb750e182	-1.2450271e-05
213	0xb9939297	-0.00028147243
214	0xb2150f0e	-8.6763645e-09
215	0x3ddf1a0f	0.10893642
216	0x3e15461e	0.14577529
217	0xbdea6800	-0.11445618
218	0x3dbd4062	0.09240796
219	0x3dc8e0cc	0.098085016
220	0xb9322bec	-0.00016991765
221	0x2a030452	1.1636636e-13
222	0x3dbe8f2f	0.09304654
223	0x339d0ddd	7.313404e-08
224	0xb970fd53	-0.00022982554
225	0xbe44136a	-0.19148031
226	0x37a6d095	1.988587e-05
227	0xb69ebcc0	-4.7307403e-06
228	0x3e15a9ab	0.14615504
229	0x3d605a25	0.05477347
230	0x3afbdb0b	0.001921506
231	0x284f46f1	1.1506191e-14
232	0xbe2a209b	-0.16614
233	0x3e00a023	0.12561087
234	0x3db5d26a	0.08878024
235	0x23d2b244	2.2843744e-17
236	0xbda72fa7	-0.08163386
237	0x3da52e14	0.08065429
238	0x3df349ea	0.11879332
239	0x398c5ba4	0.00026771158
240	0xb39e008d	-7.3575485e-08
241	0x3da5a916	0.08088891
242	0x3dbd8202	0.09253313
243	0x3d991d98	0.07476348
244	0x3e1bb1a5	0.15204485
245	0x3dc73135	0.09726182
246	0x3e222816	0.15835604
247	0x02343506	1.3239528e-37
248	0xbdc66c19	-0.09688587
249	0x319872b5	4.436823e-09
250	0x237af23b	1.36038215e-17
251	0x3cf75bd7	0.03019516
252	0x362c87ef	2.570912e-06
253	0x3dc1406b	0.09436115
254	0x37cf63d2	2.4722805e-05
255	0x3da0bf8a	0.07849033

bn.weight f4 [400]
0	0x00ec1fe6	2.168462e-38
1	0xa3711a3e	-1.3070193e-17
2	0xa4552686	-4.6219643e-17
3	0x362043c9	2.3881314e-06
4	0xb186d289	-3.9238484e-09
5	0x034a2f60	5.941685e-37
6	0x23f4ba57	2.6533451e-17
7	0x0312f94c	4.3191723e-37
8	0x3516b7f1	5.6147024e-07
9	0xb9e7bfc2	-0.00044202624
10	0xb2148383	-8.644636e-09
11	0xb4191f00	-1.4260513e-07
12	0x34af0448	3.2599405e-07
13	0x3e24fcf0	0.16112113
14	0x2bdb3a64	1.5577093e-12
15	0x828c3e3d	-2.0606874e-37
16	0xb6234e82	-2.433459e-06
17	0xa9a2e123	-7.2333e-14
18	0xad912425	-1.6500643e-11
19	0xb5794952	-9.2866424e-07
20	0x383a5f29	4.443448e-05
21	0x829e1b92	-2.3231838e-37
22	0x3da887b2	0.08229007
23	0xb5b1c186	-1.324385e-06
24	0x3db0fd8e	0.08642112
25	0xab45d69d	-7.0286295e-13
26	0x8297bd29	-2.2296028e-37
27	0x82f77d45	-3.636529e-37
28	0x3e3c16b2	0.18368033
29	0x028d4625	2.075835e-37
30	0x835444ba	-6.2380095e-37
31	0x3e289ec7	0.16466819
32	0xb7709b31	-1.4341248e-05
33	0xb43417ea	-1.6772506e-07
34	0xba1c0f31	-0.00059531914
35	0x3d914e43	0.07095005
36	0x3ad2e157	0.0016088885
37	0x3ddab4fe	0.10679053
38	0x01eaf832	8.631417e-38
39	0x39783357	0.00023670249
40	0xb44a6f3d	-1.8853184e-07
41	0x82776ada	-1.8177359e-37
42	0x31bd135e	5.5028258e-09
43	0xb98615c0	-0.00025574677
44	0x3466ec3f	2.1506365e-07
45	0x22dd9a34	6.006544e-18
46	0x2799cab6	4.268581e-15
47	0x3e3727a1	0.17886211
48	0x32023033	7.577955e-09
49	0x393d7c8d	0.00018070843
50	0x32bccea1	2.1980044e-08
51	0x3e5f2792	0.21792439
52	0xa5af8a22	-3.0451263e-16
53	0xb2857cb4	-1.5539946e-08
54	0x3d862348	0.06549698
55	0xacacd644	-4.9123223e-12
56	0xb31dafe7	-3.6714393e-08
57	0xb30eb15b	-3.3223255e-08
58	0x8d0fa267	-4.426076e-31
59	0x32e02124	2.6092103e-08
60	0x37a28191	1.9372239e-05
61	0x3dfc3e80	0.123166084
62	0x3dd4be4b	0.10387858
63	0x13004cb3	1.6193687e-27
64	0x366d80b5	3.539067e-06
65	0x82b17a07	-2.6077853e-37
66	0x3a33b23b	0.00068548665
67	0xb40b39e3	-1.2966443e-07
68	0xb3fdbebf	-1.1815927e-07
69	0x3dd56354	0.10419336
70	0x38e37708	0.00010846375
71	0x3986cd22	0.00025711308
72	0xb2168d21	-8.763238e-09
73	0x35b1d2b3	1.3248849e-06
74	0x83690c5a	-6.8486725e-37
75	0xba0785c8	-0.0005169776
76	0x9fcc5879	-8.6543726e-20
77	0x36b3aec5	5.3549616e-06
78	0x3df62f51	0.12020744
79	0x3dabdefc	0.0839214
80	0x3d928f50	0.07156241
81	0x829c9061	-2.300501e-37
82	0x02f0272d	3.5287316e-37
83	0xb361a731	-5.2538955e-08
84	0xb65ea576	-3.3176889e-06
85	0x024495bf	1.4442781e-37
86	0x3e4cfb7f	0.20017813
87	0xadcd25d0	-2.3322594e-11
88	0xb3247e1e	-3.829893e-08
89	0xb4541528	-1.9751735e-07
90	0x82a393c8	-2.403552e-37
91	0x821a97c0	-1.1357683e-37
92	0xb30cf200	-3.2816388e-08
93	0xb938eb50	-0.00017635268
94	0x13da0eaa	5.5045397e-27
95	0xb5171de1	-5.6295363e-07
96	0x3d919cb4	0.07109967
97	0xb6e247d9	-6.743689e-06
98	0x3c4e8b0d	0.0126063945
99	0x3d9df5f2	0.07712926
100	0xb53cf024	-7.038491e-07
101	0xa94aead2	-4.5056684e-14
102	0x3e523b72	0.20530489
103	0x80d59a06	-1.9616214e-38
104	0x9685ed73	-2.163716e-25
105	0x3e33ed4e	0.17570993
106	0x34ba1ed7	3.466764e-07
107	0xb36b13d6	-5.4733242e-08
108	0xad4c2b7d	-1.1605714e-11
109	0x3de364da	0.1110322
110	0xb392371e	-6.8086806e-08
111	0x3d80a30e	0.062811
112	0x32a07243	1.8678412e-08
113	0x35345032	6.7171925e-07
114	0x8080f378	-1.1842284e-38
115	0xb2f5d862	-2.8620153e-08
116	0xb12a7d3a	-2.480944e-09
117	0x815f2586	-4.0985553e-38
118	0x829336f6	-2.1631255e-37
119	0xb8a0b4f0	-7.663097e-05
120	0x3e3de4ac	0.18544263
121	0x348613cf	2.4973858e-07
122	0x24c862fd	8.6903866e-17
123	0x3de28737	0.110609464
124	0x2a43e2ff	1.7398234e-13
125	0xb5d18409	-1.5610141e-06
126	0x32856e00	1.553326e-08
127	0xb27fb4fb	-1.4884104e-08
128	0x3e84287a	0.2581213
129	0xb2131d37	-8.563169e-09
130	0x3ace1e62	0.0015725608
131	0xaea7c95a	-7.630048e-11
132	0x2bbea5c2	1.3546319e-12
133	0xb6a11fb1	-4.8018633e-06
134	0xba98af4a	-0.001164892
135	0x029e0d0d	2.3223504e-37
136	0xa89ed87d	-1.763541e-14
137	0x814cad5c	-3.7593262e-38
138	0x3dc6eb1f	0.097128145
139	0xb29a01e4	-1.792882e-08
140	0xb369444a	-5.431165e-08
141	0xb58e0f96	-1.058436e-06
142	0x03518819	6.1575812e-37
143	0x030739e6	3.97394e-37
144	0x16029864	1.0549402e-25
145	0xb5753553	-9.134721e-07
146	0x830622fd	-3.9419225e-37
147	0x3e11f5b7	0.14253889
148	0x3dd47b8a	0.10375126
149	0xb48063c1	-2.3914438e-07
150	0xb6d39c0c	-6.3064563e-06
151	0x12b9af94	1.1718425e-27
152	0x024aece6	1.4908603e-37
153	0x8317709e	-4.450419e-37
154	0xb8ae150d	-8.3008876e-05
155	0x3e2f16ce	0.17098543
156	0x82f3b6d1	-3.5810572e-37
157	0xad0809bd	-7.732867e-12
158	0x2f984bb3	2.7702426e-10
159	0x3dc986ed	0.09840188
160	0x37815156	1.5415873e-05
161	0xb6d7c183	-6.430027e-06
162	0xada47670	-1.8697238e-11
163	0x30dc3ae9	1.602385e-09
164	0xb8c450c8	-9.361055e-05
165	0xa0299ca3	-1.4366684e-19
166	0x3e21f816	0.15817294
167	0x1f308eb2	3.7387484e-20
168	0xb4934743	-2.7432733e-07
169	0xba87bfb8	-0.0010356819
170	0x2f2eeae6	1.590866e-10
171	0xb0c7d4eb	-1.4539671e-09
172	0x02f5fd04	3.6144738e-37
173	0xb2866500	-1.5645583e-08
174	0xb4214764	-1.5020265e-07
175	0x02a0ca70	2.362608e-37
176	0x3d105130	0.035233676
177	0x277c4541	3.5009568e-15
178	0xb8cf85f0	-9.895477e-05
179	0x02dbdbf6	3.230541e-37
180	0x3a818902	0.000988275
181	0x81e85048	-8.533854e-38
182	0x2522f243	1.4133342e-16
183	0x3e1166ad	0.14199324
184	0x3de0f478	0.10984129
185	0x3d78b074	0.060715154
186	0x2d159230	8.5021296e-12
187	0x82d4fa2c	-3.1294192e-37
188	0x3525dc38	6.178775e-07
189	0x2f7f080b	2.3194972e-10
190	0x390206d9	0.00012400317
191	0x3dbe1d7d	0.09282968
192	0x886ee1e9	-7.1886076e-34
193	0x310afb79	2.0224589e-09
194	0x833cc485	-5.547383e-37
195	0x34006487	1.19575e-07
196	0x3dc663e7	0.096870236
197	0xb614c0e3	-2.2165993e-06
198	0x2faf6d32	3.1909902e-10
199	0x34ceee7c	3.854401e-07
200	0x3e4338c3	0.19064622
201	0x8362bf9c	-6.6635388e-37
202	0x02ae1c23	2.5583152e-37
203	0x3d8ced4b	0.068811975
204	0xae1cdcd6	-3.5666435e-11
205	0x361a8dbf	2.3030295e-06
206	0x26b1af7e	1.2329409e-15
207	0xae7d39b3	-5.7576787e-11
208	0x828f251a	-2.1033257e-37
209	0x31d24117	6.1192043e-09
210	0x3e05a466	0.13050994
211	0xb2d62473	-2.4929454e-08
212	0xb020c5c6	-5.8488714e-10
213	0x802dd734	-4.209798e-39
214	0x367378e1	3.6280182e-06
215	0x81c3e6cd	-7.196287e-38
216	0x3d317556	0.04332479
217	0xb058f476	-7.892774e-10
218	0x1aef756a	9.9037776e-23
219	0xaab5f21b	-3.2320053e-13
220	0xb3e66cf3	-1.07300274e-07
221	0x02dc1d80	3.2343027e-37
222	0xb66d6f6c	-3.5380608e-06
223	0x36349cef	2.6913438e-06
224	0x92ab6464	-1.0816365e-27
225	0xb216d17c	-8.77878e-09
226	0x2dd1e532	2.3862332e-11
227	0x38dd4eae	0.000105527564
228	0x2f8c0510	2.546945e-10
229	0x834ab4cc	-5.957001e-37
230	0x399b265c	0.00029592484
231	0x3e04d67a	0.12972441
232	0x3255a6b6	1.24361375e-08
233	0xba819aea	-0.0009888087
234	0x8278d185	-1.8280292e-37
235	0x38a69559	7.943315e-05
236	0x02b111a0	2.6017929e-37
237	0x39f21041	0.00046169947
238	0xaf25b9a9	-1.5072622e-10
239	0xb952614b	-0.00020063405
240	0x336d4dd5	5.525165e-08
241	0x37984623	1.8152472e-05
242	0x02ac6fe2	2.5337346e-37
243	0x0249395b	1.4783608e-37
244	0x3b03d0e2	0.0020113518
245	0xb26d67ea	-1.3818843e-08
246	0x1bcc1760	3.3764075e-22
247	0x3b4d1608	0.003129365
248	0x3748af9b	1.1961815e-05
249	0x991695b6	-7.785052e-24
250	0xb3b63e76	-8.486397e-08
251	0xb8c483b1	-9.370538e-05
252	0x34bb4a26	3.4885414e-07
253	0x332de4e3	4.0487873e-08
254	0xb4ba1d0b	-3.466633e-07
255	0x27a0564d	4.450249e-15
