projects/tennis/checkpoint/E09.02_critic0_2000.pt (torch_old, 502006 bytes, 9 tensors)

fcs1.weight f4 [400, 48]
000000 6d bb 0f b9 60 6c 73 2d 79 97 3a b7 d4 ec c8 33
       -0.00013707364 1.3837015e-11 -1.1121731e-05 9.3563045e-08
000010 36 07 80 36 41 56 9b b6 45 b7 93 35 95 ec c8 33
       3.8155367e-06 -4.6294012e-06 1.1005692e-06 9.35626e-08
000020 0f 3b 3a b7 57 d6 68 2d 99 89 3b 38 f3 64 18 34
       -1.1100215e-05 1.3235266e-11 4.4712422e-05 1.4192828e-07
000030 64 44 5e b6 f5 95 57 b6 41 5f c2 37 55 65 18 34
       -3.3120386e-06 -3.2124783e-06 2.3170958e-05 1.4192968e-07
000040 8a 17 c2 b8 6f 39 a3 2e f3 5f 28 38 e2 a0 1c 32
       -9.255025e-05 7.422584e-11 4.014368e-05 9.116976e-09
000050 12 f9 c7 b7 a1 8c a7 b6 5b 6b b1 38 a3 a0 1c 32
       -2.3838631e-05 -4.993359e-06 8.460014e-05 9.11692e-09
000060 74 d1 ff 34 e0 77 a1 2c 90 97 dc b7 bc 17 38 31
       4.7649849e-07 4.589204e-12 -2.629662e-05 2.6789015e-09
000070 f7 ec 79 b6 68 23 9b b6 7f f8 03 b8 01 18 38 31
       -3.7241823e-06 -4.623482e-06 -3.1464264e-05 2.6789169e-09
000080 70 9f b4 38 87 0f a3 ac 7d 45 d0 36 56 23 e3 30
       8.6127664e-05 -4.6344625e-12 6.2069726e-06 1.6526467e-09
000090 a2 1d 61 36 e3 4b 57 b6 a1 f1 d2 b8 56 23 e3 30
       3.3544861e-06 -3.2081668e-06 -0.00010058587 1.6526467e-09
0000a0 79 d2 18 39 b2 26 54 ac dd d9 24 b8 2d 0e 10 b0
       0.00014574257 -3.0148492e-12 -3.9303548e-05 -5.240704e-10
0000b0 d7 53 c6 37 16 e8 a9 b6 df 01 15 b8 8b 0e 10 b0
       2.364248e-05 -5.063611e-06 -3.552611e-05 -5.240756e-10
0000c0 31 74 99 23 7a a5 a2 82 14 fa 1f 31 80 57 24 02
       1.6637502e-17 -2.389874e-37 2.3279698e-09 1.2073928e-37
0000d0 c8 5b e4 a0 d7 b1 02 81 da 6e cc af 07 da 1c 02
       -3.8685438e-19 -2.4004823e-38 -3.7186149e-10 1.1523641e-37
0000e0 56 2a 2c 23 7d 18 cb 82 de 50 b1 af 34 97 c5 02
       9.333104e-18 -2.9842225e-37 -3.2253572e-10 2.9033335e-37
0000f0 0c 9b 5d 1f d6 49 5e 82 49 14 e3 ae 5d 16 ae 02
       4.6926822e-20 -1.6331174e-37 -1.0326368e-10 2.5579838e-37
000100 45 3e 0f 23 e1 03 a3 82 36 19 0b b1 35 ea 83 82
       7.765232e-18 -2.3952924e-37 -2.0241493e-09 -1.9383148e-37
000110 e2 9e 77 20 03 ae 6f 82 33 49 28 af d7 8d 62 82
       2.0974284e-19 -1.7608886e-37 -1.5305517e-10 -1.6644564e-37
000120 c7 31 c9 ac 8c 80 b6 82 dd 81 17 32 92 bf 75 02
       -5.71829e-12 -2.6816279e-37 8.818884e-09 1.8054735e-37
000130 58 b5 4b 21 fc cb cf 80 c2 52 e2 b2 ce 33 67 02
       6.901908e-19 -1.9083124e-38 -2.6347497e-08 1.6986067e-37
000140 1c ae fc aa 3a b8 a9 02 45 20 07 b1 06 2f 0b 03
       -4.4885005e-13 2.493806e-37 -1.9663429e-09 4.090241e-37
000150 7f 3e 19 9f 51 ed 31 82 59 55 9a 32 71 3d 05 03
       -3.2450706e-20 -1.3072013e-37 1.7966771e-08 3.915572e-37
000160 ab 89 3f 2a 47 fa a7 02 5f 64 32 32 8e a2 d7 81
       1.7011971e-13 2.4682097e-37 1.0383785e-08 -7.921178e-38
000170 75 0b 56 a0 2b e5 6f 82 2c f5 88 b2 80 e8 0e 82
       -1.8130296e-19 -1.7624715e-37 -1.5943975e-08 -1.0499237e-37
000180 e4 a3 ac 82 d3 4f 20 82 d8 95 75 02 66 0d 89 82
       -2.5367197e-37 -1.1777852e-37 1.804276e-37 -2.013803e-37
000190 39 29 bd 82 15 f6 fa 82 82 d7 84 02 4f 6e 90 82
       -2.7794715e-37 -3.6875443e-37 1.9519352e-37 -2.1222212e-37
0001a0 bc 81 a1 82 2a b0 03 82 37 90 9f 82 e0 49 25 82
       -2.3731288e-37 -9.674917e-38 -2.3445725e-37 -1.2143487e-37
0001b0 77 30 c4 02 26 ae 81 02 01 f8 90 82 fa 09 11 82
       2.882743e-37 1.9054803e-37 -2.1301246e-37 -1.0655781e-37
0001c0 81 c9 bb 82 87 bb 08 82 59 00 22 02 81 f7 38 82
       -2.7592838e-37 -1.004552e-37 1.190198e-37 -1.3589215e-37
0001d0 e5 e9 c8 02 31 07 87 82 84 d6 ae 01 78 bf 99 81
       2.9521608e-37 -1.9840595e-37 6.422532e-38 -5.647807e-38
0001e0 7c c7 ad 02 86 18 07 82 50 95 a0 02 d6 7f e1 81
       2.5534564e-37 -9.925271e-38 2.3595588e-37 -8.283538e-38
0001f0 6c 33 ae 02 af a9 df 82 8d 08 8f 02 88 28 9b 00
       2.5596517e-37 -3.2864299e-37 2.101687e-37 1.4249042e-38
000200 bc 79 c3 82 4c 66 24 82 8d ad 87 02 c4 20 11 82
       -2.8722547e-37 -1.2078175e-37 1.993608e-37 -1.0662321e-37
000210 8a b4 bd 02 ed f7 3d 02 e6 8c 8e 02 38 e4 66 82
       2.7874678e-37 1.3956678e-37 2.0945896e-37 -1.6963227e-37
000220 1d 34 b0 02 89 e2 10 82 c4 f9 57 02 a8 38 67 02
       2.5890787e-37 -1.0644462e-37 1.5867385e-37 1.6987459e-37
000230 fb 1c ab 82 d8 02 79 82 ad d3 6a 02 97 a0 35 02
       -2.5142826e-37 -1.8294447e-37 1.7252353e-37 1.3343867e-37
000240 77 ac ae bb 1c 8f 08 bc 54 58 b8 3a 5f b7 05 3b
       -0.005330618 -0.008334901 0.001406441 0.0020403487
000250 f8 fc c8 bb 55 3c 85 bb fd c8 13 3a 38 c5 05 3b
       -0.006133672 -0.00406603 0.00056375546 0.002041174
000260 ac fe 75 3b 54 01 ee bb cb 4d 12 bb 18 7b 08 bb
       0.003753583 -0.007263342 -0.00223242 -0.0020825323
000270 1e 70 2e 3b 7d f4 d4 bb d7 dd ef b9 23 ac 08 bb
       0.002661712 -0.006498872 -0.00045750916 -0.0020854555
000280 bb c6 c6 3b 27 05 c2 bb e0 96 34 bb c1 ff c6 bb
       0.006066171 -0.0059210244 -0.0027555749 -0.0060729687
000290 a7 c2 50 3a 2f d3 10 3b 44 df 5a bb c7 47 c7 bb
       0.0007963576 0.0022098531 -0.0033397237 -0.0060815546
0002a0 b0 dd 23 bc 2c 9e 6a bb a9 cc 9c ba 05 66 54 3b
       -0.010001585 -0.0035799844 -0.0011962849 0.0032409441
0002b0 33 0b f9 3b e6 c0 83 bb c9 98 d7 b8 08 66 54 3b
       0.007600212 -0.004020798 -0.00010280457 0.0032409448
0002c0 32 d0 0f 3a 9f 52 02 bb fa e8 17 bb 3e e9 18 3b
       0.00054860406 -0.0019885672 -0.0023179636 0.0023332383
0002d0 7a 33 d2 39 b0 b0 d4 bb d5 d6 f6 39 15 e9 18 3b
       0.00040092674 -0.0064907894 0.0004708084 0.0023332287
0002e0 d3 79 c1 39 f0 e5 0e ba a5 bb b0 3a 84 13 22 bb
       0.00036902595 -0.00054511335 0.0013483657 -0.002473087
0002f0 5d de 1f bc a7 a0 11 3b ed 97 82 3b 8a 13 22 bb
       -0.009757605 0.0022221 0.003985396 -0.0024730884
000300 13 09 08 03 2a 18 4d 82 78 fd 75 02 36 8d df 02
       3.9977225e-37 -1.5067956e-37 1.8072499e-37 3.2847956e-37
000310 9a 3c e7 02 e4 8b b7 81 19 51 94 02 f0 8e b0 02
       3.3977183e-37 -6.7424316e-38 2.1793193e-37 2.5942918e-37
000320 41 3a 29 03 80 09 98 82 ed 2f fd 02 76 71 15 03
       4.973151e-37 -2.2339845e-37 3.7202517e-37 4.391741e-37
000330 8c bf 02 03 b8 64 15 01 f3 43 98 02 69 ef 45 03
       3.842345e-37 2.743924e-38 2.2373394e-37 5.8167926e-37
000340 19 59 36 03 a3 37 30 02 68 8b 49 02 42 3c 4d 03
       5.358727e-37 1.2946405e-37 1.4807155e-37 6.031326e-37
000350 30 ec 04 03 d5 c6 f0 01 c4 21 2f 82 e7 d7 45 03
       3.9062444e-37 8.8447386e-38 -1.286666e-37 5.814094e-37
000360 36 d4 cd 02 1c c4 c4 82 39 04 87 02 90 07 7d 00
       3.0243846e-37 -2.8912173e-37 1.983889e-37 1.148215e-38
000370 da b5 14 83 fa ef 8b 81 c6 e4 94 02 cc e3 76 81
       -4.3702046e-37 -5.1404885e-38 2.1877955e-37 -4.53465e-38
000380 55 a2 f3 02 78 3b 6c 82 9c e8 09 03 bd bc 09 02
       3.5798815e-37 -1.7355608e-37 4.0527704e-37 1.0119336e-37
000390 1a 48 05 83 3a 11 10 02 d5 7d 02 03 5b 99 56 02
       -3.9167956e-37 1.0584393e-37 3.8348014e-37 1.5766248e-37
0003a0 e3 70 f9 02 6e 79 7d 82 09 e4 82 02 b9 52 a5 02
       3.6652055e-37 -1.8622353e-37 1.923267e-37 2.4292051e-37
0003b0 26 d9 19 83 94 57 24 82 45 62 b9 02 ac 46 5a 02
       -4.5211933e-37 -1.2073951e-37 2.723971e-37 1.6036392e-37
0003c0 eb 02 f3 2d 44 25 48 82 2e 98 ce ad e8 16 0e 86
       2.7627197e-11 -1.4704374e-37 -2.348707e-11 -2.672406e-35
0003d0 55 a9 4a ad 0a c6 ab 82 a4 ce e0 ad c3 ea 0d 86
       -1.151997e-11 -2.523986e-37 -2.5557619e-11 -2.6691628e-35
0003e0 64 84 94 2e 3b 92 26 03 0a ae df ac 68 a0 da 92
       6.753778e-11 4.895088e-37 -6.3573634e-12 -1.3797277e-27
0003f0 8b c6 01 2d 87 3d fb 82 30 b0 de ac 11 bb da 92
       7.376886e-12 -3.691645e-37 -6.3291802e-12 -1.380385e-27

fcs1.bias f4 [400]
000000 56 64 e5 2a 90 4b 98 81 5a 2e 86 01 18 70 f6 39
       4.0748194e-13 -5.594441e-38 4.9290337e-38 0.00047004293
000010 32 de 81 02 8c 77 32 03 ee 4b bc 3a 7b 3f 98 3b
       1.908238e-37 5.244673e-37 0.001436589 0.0046462393
000020 f7 80 30 83 6e 97 24 81 34 22 39 bb c5 64 3f 27
       -5.1869796e-37 -3.0230688e-38 -0.0028249146 2.6561202e-15
000030 fc 6a 29 02 85 f3 28 83 3d de 8d 02 d1 f4 d8 82
       1.2446862e-37 -4.965031e-37 2.0845646e-37 -3.1878865e-37
000040 bc eb b3 b7 1b 3d 1a 3c 0a 14 fd 39 44 2c ea 80
       -2.1448235e-05 0.009413983 0.0004827085 -2.1505386e-38
000050 cd 08 07 83 e8 58 b1 02 56 a6 90 82 c0 ca 8e 35
       -3.9683037e-37 2.6058842e-37 -2.125437e-37 1.0638832e-06
000060 68 c2 e6 82 91 3c c9 82 20 d6 8f 82 9b b1 13 83
       -3.3907046e-37 -2.956906e-37 -2.1134863e-37 -4.34033e-37
000070 21 00 d7 82 79 7a 51 02 4d d4 f8 02 b4 f0 d3 02
       -3.1591485e-37 1.5390043e-37 3.656218e-37 3.114182e-37
000080 e6 22 18 ba 0d 00 2c 82 97 2a bc 02 39 84 2a 83
       -0.000580354 -1.2636579e-37 2.7648563e-37 -5.0110294e-37
000090 75 97 34 02 4c 13 94 02 f4 81 50 3a c4 02 86 82
       1.3267777e-37 2.1757721e-37 0.0007953935 -1.9691118e-37
0000a0 cb 45 4b 83 e8 60 cc 82 54 4a 9d 01 76 38 f1 82
       -5.9736457e-37 -3.0030727e-37 5.777935e-38 -3.5444174e-37
0000b0 dc 6b d4 39 83 71 61 82 0f 87 2a 83 54 66 1d 02
       0.00040516153 -1.6562966e-37 -5.011355e-37 1.1563905e-37
0000c0 6d 28 a9 ba 96 e5 13 82 a7 8c 23 ba 54 3a 4e 00
       -0.0012905725 -1.0865742e-37 -0.00062389154 7.184093e-39
0000d0 34 41 79 80 11 1f 39 21 70 b9 83 02 7a 40 ae bb
       -1.1135486e-38 6.2721554e-19 1.9355156e-37 -0.005317745
0000e0 40 1a ad 02 19 1a eb 3a 11 d4 3c 3a d4 36 dd bb
       2.5435132e-37 0.0017936855 0.0007203231 -0.006750921
0000f0 24 24 36 0a 28 c2 41 00 b2 66 c3 ae a4 26 9d 82
       8.7697785e-33 6.038957e-39 -8.885816e-11 -2.3091255e-37
000100 d7 2f 17 83 02 52 6c 39 fc f5 54 83 30 a8 1e 01
       -4.442983e-37 0.00022537264 -6.2583577e-37 2.9140685e-38
000110 a1 bf 25 3b 75 66 73 3b 30 50 3f ba 0f 6f 85 02
       0.0025291222 0.0037139927 -0.00072980206 1.9606338e-37
000120 23 c4 63 38 ce f2 78 02 91 ff 04 83 68 08 ca 82
       5.4303684e-05 1.8289844e-37 -3.908469e-37 -2.9686057e-37
000130 35 46 24 3b 6a 2c 85 01 ac b9 9a bb 3f fa aa 37
       0.002506626 4.8920215e-38 -0.004721841 2.038211e-05
000140 d7 28 41 bb ad 94 1a 03 61 e7 89 02 64 95 92 82
       -0.0029473805 4.5427204e-37 2.0263146e-37 -2.1538518e-37
000150 1f f2 7d 82 8e c0 7a 39 f2 c7 6e 02 86 31 b4 81
       -1.865699e-37 0.0002391359 1.754286e-37 -6.619262e-38
000160 e0 b0 04 83 81 f7 ec 01 8b b8 05 ba d7 a2 02 ba
       -3.8994356e-37 8.704786e-38 -0.00051010464 -0.00049833715
000170 aa 18 0a 03 41 c1 d1 02 6e 26 01 02 0a e4 4d 03
       4.058287e-37 3.0820712e-37 9.488452e-38 6.050586e-37
000180 49 b5 91 02 3c 91 e4 14 92 21 d7 ac 61 56 14 bb
       2.1409888e-37 2.3079402e-26 -6.1143946e-12 -0.0022634494
000190 67 7d 01 3a 3c 5c 1c 82 9a 77 68 83 e9 a2 df 02
       0.0004939646 -1.148754e-37 -6.831597e-37 3.286041e-37
0001a0 a3 d9 ba 01 a3 b0 91 85 fe 2c 55 37 1e 06 5f 11
       6.86379e-38 -1.370062e-35 1.2706265e-05 1.7593483e-28
0001b0 5c 62 07 01 91 3e f5 ba 33 13 05 83 ab d7 f1 02
       2.4866153e-38 -0.0018710663 -3.9107227e-37 3.5535555e-37
0001c0 6b 37 50 82 97 31 c4 8b 3f 0d 1c 81 b2 0f 09 ba
       -1.5297331e-37 -7.557107e-32 -2.8662178e-38 -0.0005228474
0001d0 af fa 42 83 d3 90 ba 81 bb 14 1c 03 b2 76 ad 24
       -5.7299247e-37 -6.853342e-38 4.5868077e-37 7.522787e-17
0001e0 3c f2 04 82 f1 23 37 02 37 16 ad b9 1e 33 b0 39
       -9.767346e-38 1.3455031e-37 -0.00033013683 0.0003360742
0001f0 2b 19 96 82 85 a4 2d a5 a7 cd 67 3a 1d 4b 29 03
       -2.2054965e-37 -1.50611e-16 0.0008842595 4.975086e-37
000200 d4 14 ce bb d5 58 14 39 f8 62 81 02 22 87 01 82
       -0.006289104 0.00014147472 1.9011652e-37 -9.516204e-38
000210 7e 43 b0 01 7a 82 00 30 75 44 c3 98 14 99 cc b6
       6.4749036e-38 4.6751547e-10 -5.0475443e-24 -6.0974944e-06
000220 20 ff 88 02 e8 47 d4 89 a2 ff 3c 02 b5 7c 25 ad
       2.0129839e-37 -5.1104764e-33 1.3885422e-37 -9.406855e-12
000230 08 e8 87 ba 3b a6 bb 39 48 25 c8 82 45 e5 7e 02
       -0.0010368833 0.0003579127 -2.9408757e-37 1.872677e-37
000240 bf a1 f7 b8 53 c6 76 82 17 01 b2 ba fc 9d 72 80
       -0.000118080054 -1.8130142e-37 -0.0013580647 -1.052592e-38
000250 ec 5f f3 ba 12 16 06 03 b8 e3 4d 83 21 d2 11 03
       -0.0018568016 3.9404396e-37 -6.0505494e-37 4.2852886e-37
000260 0f 56 3f 83 8e 3b 29 82 6f 22 36 02 c6 39 20 82
       -5.6228646e-37 -1.243325e-37 1.338113e-37 -1.1771524e-37
000270 ff 76 e3 20 1a 99 14 83 22 3c 26 84 b0 e0 3b 03
       3.853404e-19 -4.3669043e-37 -1.9540818e-36 5.521229e-37
000280 d2 d8 a9 02 03 99 3a b4 34 26 88 82 28 5e b4 02
       2.4956767e-37 -1.7378265e-07 -2.0005331e-37 2.6502666e-37
000290 60 40 6b 82 b6 04 5f 38 74 29 f9 82 bc a7 26 83
       -1.7283548e-37 5.317173e-05 -3.6611055e-37 -4.8975565e-37
0002a0 fd e6 18 bb 39 a4 05 2b 37 73 a7 b6 59 72 28 83
       -0.002333104 4.7478997e-13 -4.9904006e-06 -4.9502027e-37
0002b0 92 64 43 02 02 cc f5 01 73 0d 80 b9 bb 35 20 83
       1.43552e-37 9.0291523e-38 -0.00024424083 -4.7081454e-37
0002c0 b8 f1 a9 02 05 c6 cc 02 73 52 50 82 92 43 40 ae
       2.4971058e-37 3.0088764e-37 -1.5305088e-37 -4.371576e-11
0002d0 e6 93 dd 99 42 de ad 02 dd 9c 06 26 a2 5e 04 83
       -2.29106e-23 2.5547635e-37 4.670318e-16 -3.8899947e-37
0002e0 18 5e 37 9e 27 80 14 83 b8 c0 8a 82 62 58 97 01
       -9.7073975e-21 -4.3640403e-37 -2.0387893e-37 5.559546e-38
0002f0 c6 18 4a 82 0a ae 2b 83 6b 16 25 03 23 5b 9c 82
       -1.4847726e-37 -5.045217e-37 4.8514877e-37 -2.297445e-37
000300 20 c8 45 3a 02 1e 77 02 d1 28 0e 3a 38 c8 5e 81
       0.00075447746 1.8155306e-37 0.0005422952 -4.091861e-38
000310 8b 41 c3 ba a5 60 5f a0 9e 89 f1 82 65 22 12 82
       -0.0014896853 -1.8920812e-19 -3.5490756e-37 -1.0736257e-37
000320 0f 63 53 02 06 a8 01 03 8d ef 29 03 88 e0 3a 39
       1.553026e-37 3.8102574e-37 4.9939627e-37 0.00017821987
000330 d3 b1 62 83 a4 4f 51 2c 90 0b 51 02 22 41 ba 02
       -6.6619563e-37 2.9744896e-12 1.5358213e-37 2.7367628e-37
000340 cf aa 10 37 60 b2 f9 82 14 a8 a7 82 08 ac 03 03
       8.622838e-06 -3.6689644e-37 -2.4634917e-37 3.869492e-37
000350 6b c1 df 02 00 30 2e 00 3c ad 99 82 de 85 62 03
       3.2877921e-37 4.241652e-39 -2.258076e-37 6.6569103e-37
000360 3c 22 fa b9 d5 52 a9 02 c9 13 36 38 bc 7b ce 82
       -0.00047709222 2.4879861e-37 4.3410608e-05 -3.034e-37
000370 6b dd 45 8f cc 25 89 82 db 12 e5 ba 2a c2 17 ba
       -9.7554934e-30 -2.0152035e-37 -0.0017476933 -0.00057891256
000380 33 3c 8a 36 08 24 31 81 75 3e 05 83 65 66 3f 1c
       4.1197286e-06 -3.2535617e-38 -3.9156884e-37 6.332894e-22
000390 14 62 83 38 7c 76 ca a9 22 cf 05 37 b5 85 17 83
       6.264835e-05 -8.991156e-14 7.975645e-06 -4.45284e-37
0003a0 ea 79 3d 83 90 a2 fe 81 29 45 31 83 a0 a0 d2 a7
       -5.568206e-37 -9.353813e-38 -5.2095017e-37 -5.846086e-15
0003b0 98 14 50 02 08 2e dd 37 50 9a 2e 83 5e d1 7a 82
       1.5287337e-37 2.6366688e-05 -5.1311146e-37 -1.8427185e-37
0003c0 e5 59 0e 38 69 2e 80 82 12 cb 09 bc 59 9b 38 94
       3.393916e-05 -1.8834548e-37 -0.008410232 -9.320263e-27
0003d0 1c 40 f9 01 8a 51 c9 02 cf 75 58 03 14 cc 81 26
       9.1560147e-38 2.9581097e-37 6.3611933e-37 9.006489e-16
0003e0 9f ee 4a 02 09 ba 17 83 08 9a 21 03 8d 2d 01 82
       1.4909097e-37 -4.458847e-37 4.7490467e-37 -9.490496e-38
0003f0 4f f1 67 02 26 1d 9d 82 40 88 96 01 8e aa ba b7
       1.7040452e-37 -2.3085807e-37 5.5296807e-38 -2.2252349e-05

fc2.weight f4 [256, 404]
000000 84 7f 23 b0 3a e4 89 02 e9 78 93 82 60 fc 6c 3a
       -5.9480265e-10 2.0261336e-37 -2.1669108e-37 0.00090402924
000010 3a 5b 8b 82 10 8e 60 10 23 04 8a ba 5d c3 18 bb
       -2.0476576e-37 4.4285652e-29 -0.0010529797 -0.0023309805
000020 97 52 15 82 7e 80 8b 82 22 88 67 3a 4c 79 87 ad
       -1.0970493e-37 -2.0497965e-37 0.0008832236 -1.540159e-11
000030 18 8b b3 82 17 d8 45 82 19 f0 8a 82 8c 52 8b 02
       -2.6381522e-37 -1.4535289e-37 -2.0415087e-37 2.0471594e-37
000040 08 7e af b7 4e ee 27 bb b8 4a 28 bb 0c 66 a2 13
       -2.0920314e-05 -0.0025624218 -0.0025679301 4.0995175e-27
000050 82 28 90 01 34 20 9a 02 1a 63 84 02 7b c1 cc 35
       5.295537e-38 2.264675e-37 1.9452538e-37 1.5255495e-06
000060 3c a3 20 02 6e fa 29 83 8f ef 15 02 7c 17 29 83
       1.180179e-37 -4.9952116e-37 1.1015541e-37 -4.9691595e-37
000070 0c ed ae 01 c2 1a 3d 03 37 96 5c 02 91 03 31 02
       6.425765e-38 5.5572825e-37 1.6206157e-37 1.300493e-37
000080 97 ec 71 b9 85 ce 97 82 c8 45 fc 02 1a 1f d4 81
       -0.00023071688 -2.2305992e-37 3.7068125e-37 -7.792113e-38
000090 66 43 2f 82 bb f5 bc 97 a3 1d 80 ba 03 70 e9 02
       -1.2876312e-37 -1.2211246e-24 -0.0009774457 3.4300565e-37
0000a0 2f 3a 0f 83 f6 13 94 81 4c 89 65 02 20 32 8c 81
       -4.2090715e-37 -5.4395256e-38 1.6863665e-37 -5.1499804e-38
0000b0 4f 6d 4c ba c8 03 ee 81 e6 f1 e6 82 96 9a f7 02
       -0.00077982707 -8.743282e-38 -3.3934305e-37 3.6382116e-37
0000c0 49 5b 08 3a ae 60 ae 02 c2 9d 72 ba 78 e2 91 00
       0.0005201591 2.5622494e-37 -0.0009255075 1.3397389e-38
0000d0 fa d3 19 03 59 c4 27 2b 60 c9 02 03 69 f2 d2 ba
       4.5205996e-37 5.9602806e-13 3.8434734e-37 -0.0016093972
0000e0 c1 6d ac 16 c7 8f 27 bb f4 43 09 bb d2 e4 26 3b
       2.7857363e-25 -0.0025567876 -0.0020945044 0.0025465977
0000f0 3b 95 05 1f a9 0f 40 82 d4 83 a4 32 10 ba 05 83
       2.8287286e-20 -1.4110426e-37 1.9152061e-08 -3.9298776e-37
000100 00 cd b3 80 12 8d b1 b9 18 a0 66 80 59 7c 07 82
       -1.6512094e-38 -0.00033865176 -9.424651e-39 -9.95392e-38
000110 8b ec 99 ba 1d c5 f1 ba 29 20 7e ba 9f cf 7e 82
       -0.0011743469 -0.0018445585 -0.00096941233 -1.8720557e-37
000120 3e ef 04 38 08 f8 82 8d 18 18 c0 01 e5 68 b6 02
       3.1694064e-05 -8.07158e-31 7.0564234e-38 2.6802703e-37
000130 e5 e2 c4 3a 92 ce ae 81 7f 27 cb ba 1b 9f 4d b8
       0.0015021233 -6.421392e-38 -0.0015499442 -4.9023987e-05
000140 58 dc 07 bb ec 9b 21 83 5e 91 da 81 0e 7d 88 82
       -0.00207307 -4.7492637e-37 -8.0289144e-38 -2.0055182e-37
000150 dd e9 7f 82 ab b8 b5 39 01 ab b2 02 18 c5 de 00
       -1.8801557e-37 0.000346606 2.62529e-37 2.0458184e-38
000160 e0 0b 26 03 08 f2 a4 81 83 c1 e7 39 e4 b1 73 b9
       4.8796647e-37 -6.0591383e-38 0.0004420393 -0.00023240555
000170 18 03 90 00 c8 99 55 00 fb 36 20 02 70 a6 00 82
       1.3225421e-38 7.861183e-39 1.1770722e-37 -9.45172e-38
000180 90 22 f7 02 3c 59 95 a1 40 0b 2e 30 61 75 2c bb
       3.6313226e-37 -1.0120253e-18 6.331682e-10 -0.002631508
000190 48 8b 66 ba f1 7a a8 82 a0 21 56 80 6e 02 c1 82
       -0.0008794558 -2.4755946e-37 -7.909915e-39 -2.8360196e-37
0001a0 e4 90 82 02 b3 da 31 9f de 9a 46 ba eb 1a 4b a3
       1.9184946e-37 -3.7662112e-20 -0.00075761776 -1.1010352e-17
0001b0 10 92 03 03 bb 8a e9 b9 84 2f db 81 65 e7 1e 83
       3.866511e-37 -0.00044544585 -8.0516076e-38 -4.6697655e-37
0001c0 d8 2e 63 81 d6 0b 66 17 7f 85 7d 18 59 6e 97 b9
       -4.1726924e-38 7.4331947e-25 3.2766882e-24 -0.0002888318
0001d0 70 80 cf 80 80 1c 48 01 1a ab 3c 03 f7 d9 53 2d
       -1.9056022e-38 3.6754646e-38 5.544465e-37 1.2042359e-11
0001e0 e4 d5 55 81 b4 13 49 83 a3 4d a0 39 a6 56 67 b9
       -3.927538e-38 -5.909121e-37 0.00030575422 -0.00022062156
0001f0 ca f3 fb 81 40 f1 47 2e ba ad 9a b9 1a de d8 02
       -9.255266e-38 4.5461634e-11 -0.00029502605 3.1865828e-37
000200 60 6f ed ba 10 d0 90 b9 fe 29 e9 81 b6 e2 0c 83
       -0.0018114857 -0.0002762084 -8.565094e-38 -4.1402554e-37
000210 08 d3 7b 82 9e d3 25 33 c8 bb 3b 24 93 f3 50 b6
       -1.8501131e-37 3.860952e-08 4.0708218e-17 -3.1136194e-06
000220 28 bc 42 8c cb 5f c6 1c d6 8c a8 01 49 ac ef 31
       -1.5001838e-31 1.3127303e-21 6.1915543e-38 6.975402e-09
000230 f3 1d 64 ba 7e aa e1 b8 28 05 26 81 21 27 52 03
       -0.00087019725 -0.00010760593 -3.0493084e-38 6.175837e-37
000240 e0 b7 21 b8 98 c5 27 82 54 5a ae 3a 85 b6 3a 02
       -3.8556638e-05 -1.2325929e-37 0.0013302066 1.3717502e-37
000250 00 e2 c5 38 86 91 34 83 13 7d a3 02 50 ee 85 00
       9.435788e-05 -5.30643e-37 2.4022486e-37 1.2299611e-38
000260 d4 b8 70 01 e0 84 2e 82 58 dc 14 02 78 07 9c 82
       4.4213646e-38 -1.2821634e-37 1.0936558e-37 -2.2926427e-37
000270 37 91 23 aa ab 9c 71 02 ce cb 16 16 9e 46 6b 0e
       -1.452769e-13 1.7750845e-37 1.2181213e-25 2.8999987e-30
000280 9e 8e 20 02 8a 1b 51 b4 4a c7 38 03 f8 75 15 82
       1.1795873e-37 -1.947466e-07 5.4301513e-37 -1.0980647e-37
000290 38 7f 14 83 80 bc dc 39 36 34 c3 81 cf 5b f7 82
       -4.363933e-37 0.00042102113 -7.1706606e-38 -3.6346084e-37
0002a0 a6 37 1d 39 00 57 42 2c 47 e0 11 38 70 0d 5d 02
       0.00014993417 2.7617353e-12 3.477957e-05 1.6240372e-37
0002b0 be f5 1b 02 eb 9d 24 82 3b 87 6f ba b8 7d 34 02
       1.1458126e-37 -1.2094137e-37 -0.00091372774 1.3260391e-37
0002c0 ec a6 93 02 48 15 f8 01 2e 63 45 02 81 5f d8 b2
       2.1695517e-37 9.113135e-38 1.4501737e-37 -2.518914e-08
0002d0 dd 25 e4 27 6a 60 8b 01 61 22 0a ac d0 a5 40 81
       6.3323764e-15 5.1198883e-38 -1.9630064e-12 -3.5383795e-38
0002e0 f2 87 6a a8 70 c1 e3 00 65 61 ce 17 94 5f 07 82
       -1.3019088e-14 2.091605e-38 1.3337024e-24 -9.945663e-38
0002f0 e0 63 cd 82 a3 70 61 82 aa 5f 16 82 2f fe 6b 82
       -3.0179368e-37 -1.6562714e-37 -1.1047714e-37 -1.733802e-37
000300 8a d1 01 ba 59 64 5d 02 64 cd 5e ba f6 d9 dd 81
       -0.0004952183 1.6265314e-37 -0.00084992335 -8.149534e-38
000310 cf 18 e4 b8 29 7c 82 a8 4f a7 89 82 2d 2b e8 02
       -0.00010876508 -1.4486745e-14 -2.0226371e-37 3.4114118e-37
000320 0a 58 a6 02 43 97 c7 82 93 55 81 82 6a e7 f5 b9
       2.444204e-37 -2.9327242e-37 -1.9003964e-37 -0.00046902458
000330 7c 4d ec 82 a4 3c a4 2f 6c 25 eb 02 a3 16 58 82
       -3.4721557e-37 2.9874514e-10 3.4551626e-37 -1.587567e-37
000340 28 a0 43 38 c0 a2 10 03 52 32 82 82 04 d3 7d 02
       4.664078e-05 4.2504624e-37 -1.9130666e-37 1.8648063e-37
000350 04 36 9b 82 ab 23 bc 82 94 7b 00 07 45 3b bb 02
       -2.2806206e-37 -2.764459e-37 9.665966e-35 2.75112e-37
000360 6e ef 9e 36 b6 23 2b 02 9e 53 24 b8 1f e7 d1 82
       4.73664e-06 1.2573344e-37 -3.917852e-05 -3.0842447e-37
000370 b1 3e db 20 5e ac 08 83 4b 5a a4 ba 6d d7 34 ba
       3.714153e-19 -4.0164676e-37 -0.0012539116 -0.0006898556
000380 4a 15 13 37 6c 5d 94 82 32 ae 2e 82 cf cb 99 26
       8.7668395e-06 -2.1800267e-37 -1.2833493e-37 1.067175e-15
000390 60 f7 cc b8 64 77 e1 2f cd 1a 76 b7 41 55 49 8e
       -9.773555e-05 4.1012094e-10 -1.4668983e-05 -2.4816211e-30
0003a0 85 cc 06 82 22 22 88 82 e6 a7 ef 02 d2 48 fa 2e
       -9.903459e-38 -2.0002995e-37 3.5214263e-37 1.1381619e-10
0003b0 96 c7 42 82 19 2e 3f ba c4 93 9b 0a 02 eb e4 82
       -1.4310147e-37 -0.0007292941 1.498154e-32 -3.3636477e-37
0003c0 25 07 31 38 21 85 c1 81 be f0 11 bb 6f 4e a1 23
       4.2206742e-05 -7.1088034e-38 -0.0022268738 1.7488873e-17
0003d0 fe 38 2c 02 bb 20 75 02 c8 1a 96 80 9b be c5 2e
       1.265292e-37 1.800915e-37 -1.3784932e-38 8.992381e-11
0003e0 da 39 09 83 a0 06 58 82 40 50 8e 02 4b 49 7b 02
       -4.032709e-37 -1.5871075e-37 2.0911086e-37 1.8461602e-37
0003f0 53 74 23 86 0c 78 11 02 64 ad 5f 02 83 15 04 b9
       -3.0742354e-35 1.0687369e-37 1.6433213e-37 -0.00012596515

fc2.bias f4 [256]
000000 a0 66 cc b9 69 85 ef 3b 01 a4 ee 3a f4 1b 4e 3b
       -0.00038986374 0.007309605 0.0018206836 0.0031449767
000010 71 3b 17 3a 40 5c 80 b9 bf 8e 29 3b 29 18 22 bb
       0.00057690503 -0.00024482794 0.0025872437 -0.002473364
000020 74 d5 b9 3a e0 a8 df ba 6e 0b 7c ba 56 52 34 ba
       0.0014177994 -0.0017063878 -0.000961474 -0.0006878724
000030 fd 0f 29 bb 8d 63 fa 3a 86 e4 92 3c c2 dc 30 ba
       -0.0025796883 0.0019103155 0.017931234 -0.00067467627
000040 1c e9 9c 3b 73 cd 96 b8 da a9 24 bb 53 30 d3 ba
       0.004788531 -7.190825e-05 -0.0025125653 -0.0016112424
000050 d5 fa 8a 3b 1a b9 74 ba 55 b4 2f bb 65 75 29 3b
       0.0042413273 -0.00093354436 -0.0026810367 0.0025857326
000060 2b 41 c0 ba 2a 39 1f 3a fd 99 93 b4 52 92 47 84
       -0.0014667859 0.0006073887 -2.7492925e-07 -2.3459525e-36
000070 17 50 65 b8 8a a8 93 3a fa 6e 8f 3b 70 9d b9 3a
       -5.4672444e-05 0.0011265439 0.004377243 0.00141613
000080 8c d7 ff a5 79 9e 5d b8 dc 2b ac bb 99 63 4b 3b
       -4.438151e-16 -5.2838095e-05 -0.005254252 0.0031034707
000090 00 ff 0b bc fc 5a eb b5 6e 9f 12 b5 d6 d7 0a 3b
       -0.008544683 -1.7535344e-06 -5.462124e-07 0.0021185777
0000a0 35 f3 8b bb 1e ff 9b b8 16 27 00 3c 87 db 9a bb
       -0.004270936 -7.438495e-05 0.007821819 -0.0047258767
0000b0 04 dc 01 3b 48 13 c8 3a c7 c3 37 3a f6 db 0e ba
       0.0019814977 0.0015264535 0.0007010069 -0.0005449647
0000c0 78 4f 1c b8 b2 d9 bc 3c d1 9a ea 3b 42 37 99 96
       -3.726731e-05 0.023053024 0.007159569 -2.4753356e-25
0000d0 d5 83 c0 3b 26 73 d9 bb 69 e3 8e 3a cb 8f 97 3c
       0.0058750906 -0.006636041 0.0010901514 0.018501183
0000e0 9e cd d0 bb 1e ca 61 3b 7f b5 b8 3b d6 8b e7 b9
       -0.0063721677 0.0034452747 0.0056368704 -0.0004416394
0000f0 0d 07 34 3c ff 3a 9d ba 16 fe b8 b9 24 9c 7d 3a
       0.010988009 -0.0011995732 -0.00035284524 0.0009674451
000100 82 06 45 bb fe ba 38 3c 94 08 3c 3c 98 0f f2 ba
       -0.0030063693 0.011275051 0.011476655 -0.0018467782
000110 8c 05 84 3b 6e 59 a8 ba bb b4 74 3b 92 6e 66 ba
       0.0040289816 -0.0012844035 0.003733917 -0.000879028
000120 63 11 56 ba 3c 8c 9a ba a6 39 fd 3a 71 16 76 3b
       -0.0008166043 -0.0011791061 0.0019319549 0.0037549997
000130 97 d1 b0 ba 68 c6 db 38 b8 0b 1e 39 0a 02 02 39
       -0.0013490197 0.0001047969 0.0001507242 0.00012398526
000140 cc 88 59 3b 73 0b 26 3c bc 29 0d 39 1d a8 b6 39
       0.003319311 0.010134566 0.00013462355 0.00034839
000150 3d 6b 20 3c 06 7e 71 3b 48 19 97 b9 08 bf e1 3a
       0.009791193 0.0036848797 -0.000288198 0.001722307
000160 1a 5d 04 bb 6e 86 9a 3b ce f1 62 bb d4 01 a8 39
       -0.0020197094 0.0047157323 -0.003462899 0.0003204482
000170 af ba 23 b9 a5 15 08 3c a2 4d 80 3c 35 5a 36 bc
       -0.00015614436 0.008305942 0.015662018 -0.0111299055
000180 19 f9 ba bb f8 d2 93 b9 e8 75 a4 b9 a8 55 7e bb
       -0.0057059643 -0.0002819521 -0.00031368365 -0.003880838
000190 1c bb 1e ba 80 b7 85 b9 de db 2d 39 26 c6 81 ba
       -0.0006055103 -0.00025504455 0.00016580473 -0.0009900972
0001a0 6a 27 64 3b 47 80 27 a9 72 ff 30 b3 25 96 db ba
       0.0034813532 -3.7192712e-14 -4.121052e-08 -0.001675312
0001b0 d7 8c 2f bb 08 18 4c 3b 69 06 a5 b1 59 3b 19 3b
       -0.0026786828 0.0031142253 -4.8028608e-09 0.0023381321
0001c0 a0 64 cc 3a 43 99 95 a9 46 2c ff ba c6 93 b5 ba
       0.0015593953 -6.643516e-14 -0.001946815 -0.0013853244
0001d0 75 86 b5 38 98 9d 1c 3b a1 60 2c 3c b8 c0 27 bb
       8.655797e-05 0.0023897644 0.010521085 -0.0025597047
0001e0 22 80 26 3b 9c 27 2d bb aa d6 12 bb 80 df 6d bb
       0.0025405963 -0.0026421314 -0.0022405782 -0.0036296546
0001f0 b6 95 06 bb 26 e6 02 ba 75 9d 13 b5 30 0d a3 39
       -0.0020536012 -0.0004993401 -5.49909e-07 0.00031099608
000200 c5 23 c9 b9 bc 56 20 3c 65 a7 00 3b d0 df d3 3a
       -0.00038364358 0.009786304 0.0019631025 0.0016164724
000210 b2 04 5e 3c 17 ba 49 3b d4 bc cf 3b dd 95 0c 3b
       0.013550924 0.0030781084 0.0063396487 0.002145163
000220 19 b7 dd 3b 5d 7a 8c 3c e2 fe 27 ba 96 39 94 39
       0.0067662117 0.017148191 -0.0006408525 0.00028271665
000230 58 73 12 b9 27 7c 50 ba bd e5 82 b3 8b a6 58 ba
       -0.00013966614 -0.00079530705 -6.095386e-08 -0.0008264563
000240 10 41 7c 3b bf 97 c7 3a 07 53 49 b9 2a 0e 27 ba
       0.0038490929 0.0015227719 -0.00019199784 -0.0006372655
000250 9b af 09 bc 41 77 1d bb 40 e0 21 ba 2a e8 95 3b
       -0.008403684 -0.002402738 -0.00061750785 0.0045747953
000260 94 97 53 ba a9 e9 6e 3b 10 0e b2 ba 93 44 54 3c
       -0.0008071598 0.003645519 -0.0013584513 0.0129558025
000270 16 a2 3b 3b 16 0a a8 87 0b b6 66 3b 3e 13 11 bb
       0.0028630546 -2.5283759e-34 0.003520372 -0.0022136713
000280 a3 32 4b ba f6 ac e0 39 82 59 07 bb ef 3a 19 3b
       -0.0007751381 0.00042853475 -0.0020652716 0.0023381074
000290 8d 16 58 3c 46 2c 7d ba 19 e2 0b 3c 05 78 b0 3a
       0.01318897 -0.00096577813 0.008537793 0.0013463503
0002a0 29 5b 1a b0 ab 67 fb bb 96 69 af 3a b5 7c 39 b9
       -5.615442e-10 -0.0076722703 0.0013382907 -0.00017689432
0002b0 2d 54 e9 ba 07 a8 d2 b9 46 3f f4 3a 25 fa 19 b7
       -0.0017801576 -0.0004017951 0.001863458 -9.177752e-06
0002c0 34 16 2e 3b c4 ba b8 bb 8e 96 5d b9 82 d7 8c 3c
       0.0026563527 -0.0056374986 -0.00021132288 0.017192606
0002d0 56 0a 86 3a 4e 97 64 bb 01 47 a7 bb c3 69 67 3b
       0.0010226469 -0.0034880224 -0.0051049 0.0035310842
0002e0 77 a1 b2 ba 7c 17 a0 b9 d0 6e 8e ac 05 26 c7 ba
       -0.0013628443 -0.00030535075 -4.0481854e-12 -0.0015193826
0002f0 6e 28 15 3c 7b fa b8 ba 30 98 e1 3a 24 a6 26 3a
       0.0091038775 -0.0014112735 0.0017211493 0.00063571543
000300 03 c0 f4 3a b8 86 4c ba 12 26 ac ba 14 c1 ec bb
       0.0018672947 -0.0007802057 -0.0013133904 -0.007225165
000310 d7 2e b3 ba 21 5c 66 3b f2 12 a6 ba 14 40 94 bb
       -0.0013670576 0.0035150128 -0.0012670441 -0.0045242403
000320 b3 f7 0c bb 63 d9 2a 3a f5 e2 f4 3a 7b 25 0c b7
       -0.0021509945 0.00065173785 0.0018683361 -8.353377e-06
000330 da b7 dc 3a b4 31 7a bb e1 13 9c bb cb aa 73 3b
       0.001683946 -0.0038176598 -0.004763112 0.0037180658
000340 56 9c 99 bb ed 60 73 bb b8 c4 10 3a 32 ea 5b b4
       -0.004687826 -0.003713663 0.00055224774 -2.0481164e-07
000350 e0 e6 87 3b 1d 46 7c bb 7e d0 5a 3b ae 3f a9 3a
       0.0041473955 -0.003849394 0.0033388431 0.0012912655
000360 16 b8 0c bc a5 d1 4b 3b 74 33 9c bb 3f ec 97 a3
       -0.008588811 0.00311003 -0.004766876 -1.6471507e-17
000370 4c 1e 3b b3 a3 46 40 ba cd 96 ef 26 62 23 42 3b
       -4.3566885e-08 -0.00073347444 1.6624831e-15 0.002962314
000380 f7 f3 1a bb 63 68 a5 39 99 34 52 3b 10 b8 26 bb
       -0.002364395 0.00031549027 0.0032074808 -0.00254393
000390 e3 1c 80 bb ca 29 b4 3c 58 2d 26 ba 1b da 0f bb
       -0.0039096936 0.021992583 -0.0006339154 -0.002195007
0003a0 e5 0a b3 39 5b 0d 99 3b d9 da 3d 27 c0 64 f8 bb
       0.00034149658 0.0046707815 2.6347657e-15 -0.0075803697
0003b0 bd a8 82 ba 94 64 92 3b 14 10 d8 b7 1e 24 cb ba
       -0.0009968501 0.0044675563 -2.5756694e-05 -0.0015498435
0003c0 90 d6 57 ba 5f c4 e7 ba f0 5c a3 b3 b7 ff 3f 3b
       -0.00082335714 -0.0017682425 -7.607184e-08 0.0029296705
0003d0 c1 54 b5 a9 9c 5d 05 3b 99 7d 15 ba 18 c3 51 3c
       -8.052717e-14 0.0020349985 -0.00057026144 0.012802862
0003e0 44 c6 e0 ba 06 33 3e bc 98 70 8c ba d7 29 75 3b
       -0.0017148932 -0.011608845 -0.0010714708 0.0037408972
0003f0 34 3a 27 bb fc a5 a0 3a 64 85 c7 ba 6a f9 71 3c
       -0.002551687 0.0012256498 -0.0015222249 0.014768938

fc3.weight f4 [1, 256]
000000 16 b5 46 3c b0 17 b9 3c 9f ae 49 3d 8d 1b 55 3d
       0.012128135 0.022594303 0.049238797 0.052028228
000010 1d 7a 26 3c 54 80 5c 3d 0e 2c d6 3c 0a 50 49 bc
       0.01016095 0.05383332 0.026144054 -0.012287149
000020 37 cd af 3d ce b1 0f 3d 51 1b 77 3c e3 8b 3e 3c
       0.085840635 0.035081677 0.015082196 0.011630031
000030 aa 98 6a 3d 3d 5b 9b 3c c9 94 1f 3d 95 00 33 3c
       0.057274498 0.018964404 0.038960252 0.010925432
000040 d9 93 0c 3d ed fd 2d b9 ea aa b3 bc 55 d4 df 3c
       0.034320686 -0.0001659316 -0.021932084 0.027322927
000050 4a 0a 3f 3c 08 9d 97 3c 3b cf 43 3d e6 f8 eb 3c
       0.011660168 0.018507496 0.047805052 0.028805207
000060 92 9c 8b 3d 3a d0 90 3c f4 9d d5 b5 4e e1 e5 83
       0.06816973 0.017677415 -1.5915707e-06 -1.3511138e-36
000070 a5 4a 90 bc e8 52 85 3c 88 ee 47 3d 1d 9f 5d 3c
       -0.017613718 0.016274884 0.048811466 0.013526705
000080 4b 37 d8 39 28 c4 ec 3b 64 87 b2 bc 13 7e a8 3c
       0.00041239927 0.007225532 -0.021793075 0.02056793
000090 00 57 98 bc b3 df d6 b2 1d 86 90 36 af 5c 7c 3c
       -0.018596172 -2.5014605e-08 4.3071473e-06 0.015402957
0000a0 c9 4a 8c bc 5c 86 96 3a 24 7f d7 3c ec 1e 96 bc
       -0.017125504 0.0011484134 0.026305743 -0.018325292
0000b0 48 07 8b 3c ac 32 08 3d 11 41 a6 bb 53 be 44 3c
       0.016971245 0.03325145 -0.0050736745 0.012008267
0000c0 ec a9 52 38 a2 81 19 3d 61 44 1c 3d 65 c6 d6 39
       5.0226154e-05 0.037477143 0.03815115 0.00040965076
0000d0 81 a5 08 3d 05 6e e5 bc 42 b2 95 3c 64 55 43 3d
       0.03336096 -0.028006563 0.018273477 0.047688857
0000e0 ee fd df 3d a4 cb 29 3c 5a b1 e7 3c 2b a7 24 3b
       0.10937105 0.010363493 0.02828281 0.0025124054
0000f0 c0 98 31 3d 04 2b d7 bb fa cd a5 3c 0f fe 7c 3c
       0.043358564 -0.006566407 0.020239819 0.015441432
000100 4c c0 8f bc f5 d0 19 3d 98 8c e0 3c 14 2d 29 bc
       -0.017547749 0.037552793 0.02741079 -0.010325689
000110 f3 0c 21 3d 9b 06 2f 3d fb 2b 8d 3c 04 48 76 bc
       0.03931899 0.04273091 0.017232886 -0.015031818
000120 49 2e f7 3c c5 f0 f6 bb 5d 35 dd 3c 10 f8 8d bc
       0.030173438 -0.007536026 0.027002985 -0.0173302
000130 e1 d1 f7 3c c3 3e 0f 3c 4d 87 96 bb 45 14 11 3d
       0.030251445 0.008742991 -0.004593766 0.03541972
000140 8b 02 ab 3c 13 1c 14 3d 89 f5 0c 39 c0 60 b6 3c
       0.020875236 0.036159586 0.0001344291 0.02226293
000150 49 54 81 3d 2a b4 aa 3c 2c fb 7d 3b 39 ca 1b 3d
       0.06314904 0.020837862 0.0038754446 0.03803465
000160 6e 5f 87 bc b1 87 b9 3c da d6 6a 3d 15 76 81 bb
       -0.016524997 0.02264771 0.057333805 -0.003950844
000170 31 71 94 bb 31 0f 05 3d 53 3a 13 3d ce 6d db bc
       -0.004530095 0.03248519 0.035944294 -0.026785757
000180 a6 68 3e bc 08 03 6e bb fc ba a7 3b b4 97 6f bc
       -0.01162163 -0.0036317725 0.005118726 -0.014623571
000190 5f 2d be bb 58 90 65 3b 81 a2 89 bc df 97 c5 3c
       -0.0058037485 0.0035028663 -0.01680112 0.02412027
0001a0 c7 90 86 3c 59 a0 2f 39 af 0b d5 32 88 e4 9a bc
       0.016426457 0.00016749035 2.4801777e-08 -0.0189078
0001b0 14 f7 b5 bb 93 98 b4 3c 38 30 0a 3a 44 5d 0a 3d
       -0.0055531356 0.02204541 0.00052714674 0.03378035
0001c0 aa 90 ae 3c 80 43 68 39 93 50 28 bc 16 c2 46 bb
       0.021309216 0.0002215039 -0.010273117 -0.0030328087
0001d0 a9 2f 14 39 5a 0d 97 3c 99 d2 3e 3d 60 67 53 3d
       0.00014132135 0.018438984 0.04658756 0.051612258
0001e0 8d c2 8d bc 95 bd 8a 3d 55 12 0e 3d 0d a0 ec bb
       -0.017304683 0.06774441 0.03468545 -0.007221228
0001f0 22 2f 2b bc e5 25 c6 bb ee 46 95 35 9f 44 80 3c
       -0.010448249 -0.006046998 1.1122008e-06 0.015657721
000200 03 60 d8 bb 90 c9 15 3d 70 ee 0c 3c 24 8a 0a 3d
       -0.0066032424 0.036569178 0.00860177 0.033823147
000210 fe ae f3 3c d1 93 bc bc 31 d1 71 3d 98 fc ae 3c
       0.029746529 -0.023019703 0.05903739 0.02136068
000220 d9 e8 89 3c 3b 6b c4 3c 19 b3 27 3c 98 5b b7 3b
       0.016834663 0.023976913 0.010235571 0.0055956356
000230 8b a1 57 3d fa 68 95 bb 43 60 ee 34 78 85 c4 bb
       0.052644294 -0.0045596333 4.4400994e-07 -0.005997356
000240 59 e2 3f 3d 64 17 0b bc 5c cc c2 3a c3 f9 32 3d
       0.04684672 -0.0084894635 0.0014861929 0.043695223
000250 22 93 9b bc 8d 05 18 3d 9a e2 0f 3d 02 f0 6d 3d
       -0.018991057 0.03711467 0.035128213 0.058090217
000260 9a 07 26 3d f1 bd bd 3d 55 8e 14 bc 19 25 a6 3c
       0.040534593 0.09264744 -0.009067138 0.020281361
000270 c1 dc e1 3c f8 89 9b 39 90 b3 75 3d ca e4 3c bc
       0.027571084 0.00029666699 0.059985697 -0.011529157
000280 8c 50 51 bc 37 ca 05 3c 97 91 1a 3d cc 15 49 3c
       -0.0127755515 0.008165888 0.0377365 0.012273263
000290 fc f4 2b 3d 75 2a bf 3c f7 52 f5 3c c9 8f f0 3c
       0.041981682 0.023335675 0.029946787 0.029365437
0002a0 41 b3 20 30 a8 f1 06 bd 32 00 d2 3c 96 d6 d4 3b
       5.8462396e-10 -0.032945305 0.025634859 0.006495307
0002b0 9b 9f 38 3d df b9 9a bc 7a 79 09 3d f5 f5 ea b7
       0.045074087 -0.018887458 0.033563115 -2.8009506e-05
0002c0 46 74 a5 bc 47 99 a6 bc d9 36 83 bc 05 99 31 3d
       -0.020197045 -0.02033676 -0.016017364 0.04335882
0002d0 20 52 63 3c 50 3a e9 bb 56 15 a4 bc e4 22 71 3c
       0.013874561 -0.007117547 -0.020029705 0.014717791
0002e0 b5 2b 80 bc c9 bd 82 bc b2 c0 b6 b9 81 32 78 3d
       -0.015645841 -0.015959637 -0.00034857314 0.06059504
0002f0 b9 38 9d 3c a8 56 99 bc f3 e2 9d 3c 71 be 28 3c
       0.019192087 -0.018718079 0.019273257 0.010299311
000300 e7 5b d8 3c e3 76 09 bc c4 c3 ae 3c ae c2 75 bc
       0.02641101 -0.008390161 0.021333583 -0.015000029
000310 d1 e6 46 bb 8c 38 34 3c de 50 f6 bb e3 9b 95 bc
       -0.003034998 0.01099981 -0.0075169643 -0.01826281
000320 e7 19 3a bc 3b ce a5 3c 4c 80 9f bc 6a 9f b8 b7
       -0.011358715 0.02023994 -0.019470356 -2.2008742e-05
000330 b6 34 b6 3c 03 29 a7 bc b1 93 9f bc c7 39 54 3d
       0.022241931 -0.020405298 -0.019479604 0.051812913
000340 3c cd 95 bc f3 00 51 3d 5b 02 3e 3c 2b 7d d7 32
       -0.01828634 0.051026296 0.011597241 2.5086214e-08
000350 6e eb 21 3d 9f 95 28 bc b5 45 66 3c 85 78 89 3c
       0.039531164 -0.010289579 0.014054705 0.016781101
000360 5f 74 91 bc a0 04 43 3d 59 99 a6 bc 72 26 45 24
       -0.017755685 0.047611833 -0.020336794 4.275013e-17
000370 18 9c ea b2 d0 5e 46 3c 7c 3b 8c a6 1b 4b e8 3c
       -2.7312169e-08 0.012107566 -9.730575e-16 0.028356126
000380 76 33 15 3d cd 41 64 bb ae 06 13 3d 6b d4 b0 bc
       0.03642603 -0.003482926 0.035895042 -0.021585664
000390 20 2a 85 bc 52 c3 1f 3d 61 64 23 3d 51 4e 33 bc
       -0.016255438 0.03900463 0.03989065 -0.010943965
0003a0 8a af 85 3b cd f9 b0 3c 9e 0c 70 a7 d4 2d 86 bc
       0.004079764 0.02160349 -3.331353e-15 -0.016379274
0003b0 5a 59 f1 bb 94 ac 91 3d fd 56 dd b7 67 cd b2 3d
       -0.007365388 0.07112995 -2.638576e-05 0.08730584
0003c0 5e a9 73 3c 07 25 cc bc e8 18 85 b4 ff 27 85 3d
       0.014871923 -0.02492 -2.4791302e-07 0.06501769
0003d0 f2 ff 04 3a 95 a1 18 3d 3c 84 14 3c fc c2 bd 3c
       0.0005073539 0.03726347 0.00906473 0.023164265
0003e0 f8 de 3c bc b6 5e da bc 67 1c b9 3d e3 e4 11 3d
       -0.011527769 -0.02665649 0.090386204 0.035618674
0003f0 1c c0 a8 bb 94 71 53 3c 3a 61 09 bc 88 49 73 3d
       -0.0051498543 0.012905497 -0.008384997 0.059396297

bn.weight f4 [400]
000000 19 d0 32 34 fe b3 00 07 84 93 8d 02 ba 34 11 3d
       1.6653247e-07 9.682545e-35 2.0802758e-37 0.035450675
000010 1c fc 84 02 a9 19 c2 1f 67 b3 02 3d 3f 3e c1 3d
       1.954036e-37 8.220465e-20 0.031909373 0.094357006
000020 fc 59 9e 02 b8 4e 96 02 1f 1a 36 3d 72 9c 60 33
       2.3267662e-37 2.2085701e-37 0.044458505 5.229635e-08
000030 08 3c 98 02 03 a3 b7 0f 7d c5 85 02 ad 38 91 02
       2.236885e-37 1.8107983e-29 1.9655946e-37 2.1338365e-37
000040 3b 5a 9c 3c db b5 db 3d 60 24 b2 3d 71 18 3f 27
       0.019085994 0.107280456 0.08698344 2.6519824e-15
000050 03 17 97 02 15 43 94 02 3e 25 9d 02 20 e6 a0 39
       2.2200664e-37 2.1785149e-37 2.3090453e-37 0.00030689035
000060 93 1b a1 02 7a 33 95 02 80 f4 fe 0c 4a e7 8f 02
       2.367265e-37 2.1923128e-37 3.928205e-31 2.1144715e-37
000070 57 ed 90 02 e0 d3 93 02 8c 50 8c 02 93 9d 95 02
       2.1295125e-37 2.172132e-37 2.0617383e-37 2.1984025e-37
000080 10 08 ac 3c 92 9f 99 02 ff c5 c7 02 fc 70 95 02
       0.020999938 2.2572918e-37 2.9354066e-37 2.1958432e-37
000090 82 ed 9b 02 a4 d5 80 1d ae 7e 7a 3d 8f 15 dc 82
       2.2911526e-37 3.4102217e-21 0.061155967 -3.2338469e-37
0000a0 84 50 9f 02 45 8d 4e 0c 8e 12 30 02 35 fc a3 02
       2.3409164e-37 1.5912174e-31 1.2935763e-37 2.4095457e-37
0000b0 3a 76 1b 3d 38 c3 63 02 f0 39 93 02 b4 35 aa 02
       0.037954547 1.6733351e-37 2.1632963e-37 2.501008e-37
0000c0 2f be 2b 3d 7f 11 a7 02 15 32 fa 3c fa f5 96 02
       0.04192942 2.4548487e-37 0.03054146 2.2181703e-37
0000d0 2a 96 4d 09 f0 39 36 2f 6f 3d 1f 03 72 c6 9e 3d
       2.4746584e-33 1.6573387e-10 4.6796423e-37 0.07752694
0000e0 32 c8 f3 1b 8f 3b 88 3d d1 ae 78 3d d8 a9 c8 3d
       4.033035e-22 0.06651985 0.060713593 0.0979802
0000f0 e1 92 eb 23 88 6b 94 02 0f ee 06 36 02 24 9e 02
       2.5540957e-17 2.1808365e-37 2.0106124e-06 2.323668e-37
000100 64 66 0a 05 e9 66 d9 3c 18 f6 8f 02 67 4c d7 06
       6.507535e-36 0.02653833 2.1153212e-37 8.0986274e-35
000110 ad 3f af 3d 2a a9 aa 3d 5f 9c be 3c 86 b4 a8 02
       0.08557067 0.08333047 0.023267923 2.4788997e-37
000120 ce a8 a0 3b 39 21 48 1d a6 29 8b 02 36 93 9d 02
       0.0049029356 2.6486955e-21 2.044812e-37 2.3153572e-37
000130 83 0a 2c 3d b2 64 ab 02 d0 ab 81 3d 93 bc 1a 3b
       0.042002212 2.5183988e-37 0.06331599 0.0023610934
000140 a0 25 96 3d 9c 14 ab 1a 0e 37 96 02 42 02 a1 02
       0.07331395 7.075724e-23 2.207212e-37 2.365812e-37
000150 15 10 90 14 d7 ab a1 3c dd 78 8f 02 f6 30 9c 02
       1.4546627e-26 0.01973526 2.1081334e-37 2.2950242e-37
000160 0e ce 9f 02 3e 00 6f 02 17 4f 8a 3c 6d 75 5f 3d
       2.348122e-37 1.7559016e-37 0.016883416 0.054555345
000170 98 57 54 02 e5 f2 ac 0e 58 bb 91 02 0a a9 9d 02
       1.5600438e-37 4.2635173e-30 2.1413365e-37 2.31661e-37
000180 66 58 99 02 b9 be 4e 2a b2 f3 bd 35 d5 d4 9e 3d
       2.2532068e-37 1.8362646e-13 1.4152522e-06 0.07755438
000190 d5 25 8a 3d 7e fd a0 02 02 3c 9b 02 49 73 89 02
       0.06745497 2.3655384e-37 2.2809646e-37 2.0196511e-37
0001a0 99 43 92 02 ee 5f e4 21 c6 8b 2c 3d 23 6a ab 29
       2.149157e-37 1.5475273e-18 0.042125486 7.612337e-14
0001b0 0a 31 a9 02 fa 94 81 3d b3 6c 8c 02 04 70 a1 02
       2.4860465e-37 0.06327243 2.0633541e-37 2.3721118e-37
0001c0 12 c4 9e 02 16 97 a7 1e f2 ec e2 1d 2a 02 eb 3c
       2.3328552e-37 1.77443e-20 6.0066698e-21 0.028687555
0001d0 72 3f 01 82 aa 0b a1 02 76 fb 8d 02 50 9b a4 31
       -9.495631e-38 2.3663519e-37 2.086242e-37 4.790685e-09
0001e0 c8 9d 6d 02 f4 63 a3 02 db 60 2d 3d 4f 98 21 3c
       1.7457291e-37 2.4008068e-37 0.042328697 0.009862973
0001f0 64 6d 2a 02 da b1 11 32 35 93 e0 3c c3 42 9f 02
       1.2521021e-37 8.48055e-09 0.027413944 2.340127e-37
000200 89 8c c8 3d d8 74 3c 3c 06 e8 a1 02 ad 91 9d 02
       0.0979243 0.011502467 2.3789999e-37 2.315269e-37
000210 47 95 a9 02 fe d8 f4 36 f6 25 25 2e 65 c7 01 3a
       2.4918e-37 7.297028e-06 3.7550373e-11 0.00049506716
000220 25 7b 39 1f 76 e7 2f 26 e4 0a 9c 02 d5 c3 9d 35
       3.9277137e-20 6.102901e-16 2.292839e-37 1.1754406e-06
000230 c9 c5 2e 3d ee 37 56 3c 7a 89 8d 02 89 e8 14 03
       0.04266909 0.013074858 2.0796996e-37 4.376023e-37
000240 09 24 82 3d 45 10 95 02 c7 9e 27 3d fd 21 a5 02
       0.063545294 2.190292e-37 0.040922906 2.426408e-37
000250 c1 60 97 3c 75 9c a2 02 94 58 e6 06 d0 13 9a 02
       0.018478753 2.3893563e-37 8.664654e-35 2.2639638e-37
000260 fb e3 a7 02 11 85 97 02 d2 a6 95 02 c4 84 8b 02
       2.46693e-37 2.2263832e-37 2.1989332e-37 2.0500418e-37
000270 c1 e5 00 30 7d 9e a0 02 65 cf 55 28 51 95 9b 17
       4.689263e-10 2.3600855e-37 1.1868847e-14 1.0054333e-24
000280 60 83 aa 02 bf ea f3 38 48 c1 6d 02 7e d5 a4 02
       2.505466e-37 0.00011630868 1.7467479e-37 2.4220173e-37
000290 be 9d 94 02 9a 33 48 3d 12 8c 8d 02 7f 48 a2 08
       2.1837185e-37 0.048877336 2.0798484e-37 9.767064e-34
0002a0 83 e0 e2 3c 7a 01 ab 34 ba cd c2 3a 5d 28 03 18
       0.027694946 3.1852306e-07 0.0014862337 1.6951731e-24
0002b0 76 51 8e 02 ba c8 ac 02 27 78 9e 3d 82 b7 a3 02
       2.091178e-37 2.538834e-37 0.07737761 2.4056026e-37
0002c0 b9 5b 9a 02 30 23 a8 02 f2 df a9 02 da 0f 26 36
       2.2680912e-37 2.4705578e-37 2.4960856e-37 2.4745154e-06
0002d0 5d cc 05 2d 14 d7 83 02 3a 08 b1 31 6e 67 19 16
       7.6055525e-12 1.9372169e-37 5.1523132e-09 1.2391878e-25
0002e0 38 5c 4f 2d db f3 94 02 b3 b4 c3 1e bb 51 a4 02
       1.1787064e-11 2.1886612e-37 2.0721164e-20 2.4144545e-37
0002f0 8a 0f 9f 02 aa 3a a9 02 14 11 b3 02 e2 c0 a8 02
       2.337187e-37 2.486599e-37 2.6311488e-37 2.479609e-37
000300 2d e0 41 3d bd 19 9d 02 8e 87 9e 3d 06 d3 8f 02
       0.04733293 2.308385e-37 0.07740699 2.1133083e-37
000310 59 a8 97 3c 2c 1a 50 2f 76 c3 5e 02 9e 19 92 02
       0.018512892 1.8926788e-10 1.6366079e-37 2.1467475e-37
000320 8d d7 a4 02 21 df 02 08 d6 f8 b7 02 df 20 8d 3c
       2.4221354e-37 3.938274e-34 2.7032258e-37 0.017227588
000330 6c 11 9f 02 ba 0a 17 35 8a 0b 8e 02 10 fc 80 02
       2.337295e-37 5.626749e-07 2.0871648e-37 1.8952586e-37
000340 33 d7 fb 3b 0e 88 9d 02 c5 b5 a1 02 6a 1f 6a 03
       0.007685566 2.3147168e-37 2.3761154e-37 6.880248e-37
000350 e5 9b a0 02 82 b1 a5 02 2e 89 50 15 50 76 92 02
       2.3599366e-37 2.4346455e-37 4.211348e-26 2.152068e-37
000360 a6 87 ff 3c 28 ad 9b 02 35 43 07 3b 22 8c 7f 02
       0.031192612 2.287459e-37 0.0020639424 1.8774657e-37
000370 fb 73 07 27 1b cd 93 02 fd 16 e0 3d 7f 12 21 3d
       1.8797887e-15 2.1717433e-37 0.10941885 0.03932428
000380 0b ac 0e 3a b9 21 9b 02 ce 93 a1 02 f2 be 64 2d
       0.00054425065 2.279456e-37 2.374166e-37 1.3002698e-11
000390 f6 41 9c 3b 65 9b 38 33 ad e7 8e 3a 7c 69 7a 1c
       0.0047686053 4.298217e-08 0.0010902785 8.2854397e-22
0003a0 42 14 2c 0b ec 4e 8c 02 4e f6 93 02 38 0f 32 33
       3.3141235e-32 2.061645e-37 2.174108e-37 4.1457696e-08
0003b0 b1 7e ac 02 0a f1 12 3d c2 04 6c 11 fa b1 f7 03
       2.5345846e-37 0.035874404 1.8618583e-28 1.4558217e-36
0003c0 a9 51 1a 3b 4a cc f7 01 f0 81 9d 3d 8a 14 8e 29
       0.0023547208 9.102661e-38 0.07690799 6.30963e-14
0003d0 d6 c6 a0 02 62 cc a3 02 7f df a9 02 d2 f2 0c 32
       2.3624013e-37 2.4068007e-37 2.4960599e-37 8.2042835e-09
0003e0 40 9b 97 02 1a 8d a2 02 d5 04 98 02 88 34 a0 01
       2.2276565e-37 2.388475e-37 2.2337166e-37 5.8850096e-38
0003f0 b9 5d 05 1b 72 59 9f 02 f2 e0 8e 02 27 d0 16 3d
       1.1031786e-22 2.341429e-37 2.0994137e-37 0.036819603
