projects/tennis/checkpoint/E25/E25.47_critic1_10000.pt (torch_old, 502006 bytes, 9 tensors)

fcs1.weight f4 [400, 48]
000000 c5 a8 df 3c 4f 09 37 3c ee 6f 1b 3d 8f f0 9a bc
       0.027302155 0.011171653 0.03794854 -0.018913535
000010 30 f5 3e bd 54 44 2b 3d cf 37 34 3d 20 37 16 3d
       -0.046620548 0.04181321 0.043998536 0.036673665
000020 19 62 a7 bc 0d 56 3f 3d db 32 2b 3d ca f3 f3 3b
       -0.020432519 0.046712924 0.041796546 0.0074448334
000030 58 6d 02 3d 72 11 9f b9 3a 5c 9f bb e3 5f bc 3c
       0.03184256 -0.0003033984 -0.004863289 0.022994941
000040 0d 93 43 bd 29 36 06 bd 2e 80 74 bb 1f 59 f6 3c
       -0.04774766 -0.032766495 -0.0037307846 0.030071793
000050 ed 87 4f 3b 79 e6 9d 3c 34 3c 4c 3d 31 57 19 3d
       0.0031666711 0.019274937 0.0498621 0.037436668
000060 52 40 f6 bc 66 b8 eb bc 03 62 c2 bc bc 98 e8 3b
       -0.030059967 -0.028774451 -0.023728376 0.0070982855
000070 46 1f c0 3b 7b bf 35 3b 22 b3 86 bb 62 db 05 bd
       0.005863103 0.002773254 -0.0041107098 -0.032679923
000080 a4 04 58 3b 63 6f 9e 3b 33 45 3d 3d 50 12 26 bd
       0.003296175 0.0048350557 0.04620857 -0.040544808
000090 a5 c3 2e 3d 10 54 0d 3d 2f e9 0e 3b b1 0c 10 bd
       0.04266705 0.034503996 0.0021806469 -0.035168353
0000a0 69 0f 09 3d de 9c be bc b1 a8 21 3d 79 31 07 bd
       0.033461962 -0.02326816 0.039467517 -0.033006165
0000b0 6b 63 14 bd 6b 11 e0 3c d4 36 4f 3d 65 af 65 3b
       -0.036227625 0.027352056 0.050589398 0.003504717
0000c0 cc ac 16 3d c5 dd 44 bd 61 c9 4d bc 7c 78 38 bc
       0.036785886 -0.04806306 -0.0125602195 -0.011259194
0000d0 41 ac ac bc 05 57 02 3d 43 1c b9 bc c3 f4 01 3c
       -0.02107823 0.03182127 -0.022596484 0.007931891
0000e0 fe 76 4d 3c a0 4f 34 bd 85 15 28 3d b0 4c e8 bc
       0.012540577 -0.04402125 0.041036148 -0.02835688
0000f0 bf ac 0a 3d 6d a6 1e 3d c7 36 8d bb 59 50 59 bc
       0.03385615 0.038732935 -0.0043095085 -0.013263785
000100 f9 00 a1 3c 19 1c 26 3d cc 0f 0c 3c c7 5c 34 bd
       0.019653784 0.04055414 0.008548688 -0.044033792
000110 e7 62 31 3c 8d c9 c8 bc c8 3a 17 bd 87 3e 46 3d
       0.010826803 -0.02451017 -0.036921293 0.048399474
000120 68 1a 1e 3d f1 ba df bc e2 94 cc bb 70 1e 3a bd
       0.0385994 -0.02731082 -0.006243334 -0.045439184
000130 2e fa 14 3d 68 66 88 bc 55 fb e4 bc ef 3a 28 3d
       0.036371402 -0.016650394 -0.027951876 0.04107183
000140 6f 6e 84 3b 12 d8 b0 3c b3 97 11 3d aa 06 2e bc
       0.004041485 0.021587405 0.035545062 -0.010621706
000150 e7 d0 41 bd 97 da 3b 3a 78 f0 7d 3c 29 d6 67 3c
       -0.047318365 0.00071660563 0.015499227 0.014150181
000160 78 98 0a 3d 5c f7 00 bc 2a 7e e8 3c e0 50 aa 3c
       0.03383681 -0.007871475 0.028380472 0.020790517
000170 4d ee 02 bd 9c f9 e0 3c dc 68 af 3c fd e9 49 3c
       -0.031965543 0.027462773 0.021412306 0.012323854
000180 7b cf 85 bc 49 dd 1c 3c 8f f6 64 bb 8a 08 be 3c
       -0.016334286 0.009574243 -0.0034937 0.023197431
000190 c9 22 4c bd 61 f6 12 bd 21 1c 5f bc f3 30 c9 3c
       -0.04983786 -0.035879496 -0.013617546 0.024559474
0001a0 99 03 45 3d a0 23 97 3a 6f 84 6b 3c 41 71 20 bd
       0.048099134 0.0011531003 0.014374836 -0.039170507
0001b0 dd b9 0a 3d 31 de be bc 19 a0 37 bd 98 13 bd bb
       0.03386866 -0.023299308 -0.044830415 -0.005770158
0001c0 56 f8 d3 bc 00 9f 68 3c dd a0 20 3c 15 70 ae 3c
       -0.025875252 0.014198065 0.009803978 0.02129368
0001d0 b8 51 16 3c 07 94 f5 3b 43 c6 67 3b ab 04 ab bc
       0.009174757 0.007494453 0.0035365976 -0.02087625
0001e0 79 7a 47 3b e2 47 01 bd c0 14 06 bd 60 17 04 bd
       0.003043799 -0.031562693 -0.032734632 -0.032248855
0001f0 bf 88 ef 3c c5 99 e7 b9 a5 b6 cf bc 08 7b 1f bd
       0.02924001 -0.0004417432 -0.025355646 -0.03893569
000200 ab 82 aa 3c 83 80 fd 3c a8 38 70 bb 31 c0 21 3d
       0.02081426 0.030945068 -0.0036654864 0.03948993
000210 d9 bd 81 3a 35 15 0d 3d c0 07 07 3c d9 ca 2a bc
       0.0009898498 0.034444053 0.008241594 -0.010424339
000220 a6 a6 26 bd a3 29 66 3a 58 3f 0d 3d 3b ff aa 3c
       -0.040686272 0.0008780008 0.034484237 0.020873656
000230 93 93 b5 3b f8 c3 dc 3b 89 74 42 bd 46 ff 23 bd
       0.005541274 0.0067372285 -0.047474418 -0.04003837
000240 6e 6e d6 3c cc 70 f2 bb 2c 23 d3 bb 5a cc db 3c
       0.026175704 -0.0073987003 -0.006443402 0.02683084
000250 4a 68 e3 bc 78 3d b1 bb e6 06 86 3c 5f 63 19 bd
       -0.02775969 -0.005408939 0.016360711 -0.037448283
000260 ea 4f 2b bd 2f 14 2a bd 49 e6 8f bc 92 bb 24 bd
       -0.04182426 -0.041523155 -0.017565863 -0.040217943
000270 c7 b2 cd bc 1e d2 24 bc de 12 e6 bc d7 4d 25 3d
       -0.025109662 -0.0100598615 -0.028085168 0.040357437
000280 63 d0 f7 bc 85 fc 2d bd e3 7e 0a bd de 6d 2e bc
       -0.030250734 -0.04247715 -0.033812415 -0.010646312
000290 c6 af c4 3c 43 78 eb 3b 12 59 4c 3d 61 05 39 bd
       0.024009597 0.007185967 0.04988963 -0.045171145
0002a0 07 2f ed 3c 1e b2 52 bb cf d7 a1 bc 79 58 e5 3c
       0.028953088 -0.0032149623 -0.019756226 0.027996289
0002b0 03 c2 82 3c d5 97 a2 3c 8f 6a c2 bc 24 17 33 bd
       0.015961653 0.01984779 -0.023732452 -0.04372324
0002c0 9c 5d 2a bd 46 a0 30 bd f3 2e cd bc 32 a4 05 3d
       -0.04159318 -0.0431216 -0.025046801 0.032627292
0002d0 ef c6 e3 bc c1 19 2b bb 14 20 ea bc e2 2a 27 3c
       -0.02780482 -0.002610788 -0.02857975 0.010203095
0002e0 2d 38 00 bc fb 55 93 3c 42 5c cd bc b5 b5 18 bd
       -0.007825893 0.017985335 -0.025068406 -0.037282664
0002f0 a3 b3 3c bd ce 77 13 3d e2 1f be bc 8f 45 3a bd
       -0.046069752 0.036002927 -0.023208562 -0.045476492
000300 79 4c 0b 3d ac 25 05 3d 20 fc 33 3d d4 c3 14 bd
       0.034008477 0.03250663 0.043941617 -0.03631957
000310 91 26 3b bd 19 35 bf bc 49 e7 5f 3c 9e 46 23 bd
       -0.045691077 -0.023340749 0.0136659825 -0.039862268
000320 4f cf 44 bd 11 e7 6a bb f1 b8 66 3b fb 42 35 3d
       -0.048049267 -0.0035843293 0.0035205449 0.04425333
000330 e2 7b 36 bd 3b c0 3e 3d c1 ea 35 3d ac b6 19 bd
       -0.044551738 0.046570044 0.044413332 -0.037527725
000340 b6 6f f1 3c 95 c2 3e 3d 92 56 89 3c 3c 2f 90 3c
       0.029472213 0.046572287 0.016764913 0.017600648
000350 f6 eb 8c bc 42 0b 1a bd 89 25 2a 3d 92 77 8c bc
       -0.017202359 -0.037608393 0.041539703 -0.01714686
000360 41 80 24 bd e4 29 8c bc 5c 99 e5 bc 6c 3b 1b 3d
       -0.040161375 -0.017109819 -0.028027229 0.037898466
000370 ff 4f 7a 3c 5b 44 2f bd 91 a1 0b bd ac ae 02 bd
       0.015277862 -0.0427898 -0.03408963 -0.03190486
000380 83 70 0b 3d 92 e6 d7 3c c4 87 cd bc 9e 50 02 bd
       0.034042846 0.026355062 -0.025089152 -0.031815164
000390 15 41 cf 3c c6 1f 0b 3d 8a 97 47 bc da 25 3e bc
       0.025299588 0.03396585 -0.012182126 -0.011605704
0003a0 85 64 14 3d ec 2c a3 3c 82 c9 46 3d ce 42 b1 bc
       0.036228675 0.019918881 0.048532017 -0.0216383
0003b0 f8 05 3a 3d ac 0f a5 3c 9b 16 2f 3d 67 6c 09 3d
       0.04541585 0.020149074 0.042746168 0.033550646
0003c0 d8 75 44 3d 26 23 55 bc 1c 56 82 bc bc 37 2e bd
       0.047963947 -0.013008868 -0.0159102 -0.04253362
0003d0 c0 d2 1f bd 03 7a 56 3a 63 8f 46 bd 43 be 15 3a
       -0.039019346 0.00081816333 -0.048476588 0.000571225
0003e0 e4 a6 c2 ba 9a 01 7b b9 75 14 24 bd 52 c1 b1 3c
       -0.0014850763 -0.00023937822 -0.04005857 0.021698628
0003f0 d6 7c b5 3c ea 54 48 bc c7 6f 1b bd 3b f2 0b bd
       0.022154253 -0.012227276 -0.037948396 -0.034166556

fcs1.bias f4 [400]
000000 96 f1 a9 3d 2f cb 8a bd c5 c0 e2 bb ac a9 07 3d
       0.08298032 -0.067770354 -0.0069199526 0.033120796
000010 92 94 87 bd 4c ae 47 3c 01 4a bb bd cd ec 80 bd
       -0.066201344 0.012187552 -0.091449745 -0.06295166
000020 9c 0e 82 3d b4 98 8e 3d 40 44 66 3d 2f 35 ce bc
       0.06350443 0.069627196 0.056217432 -0.025171844
000030 02 ee c1 3d af 29 5b bc 26 41 e2 3d 54 b5 a8 bd
       0.094692245 -0.013376637 0.11047582 -0.082377106
000040 ba 2e e8 3d 51 aa 04 be 54 fa ce 3d 7a a4 51 bd
       0.113370374 -0.12955596 0.1010634 -0.051182248
000050 c7 8a 43 bd f2 8d 24 3d 02 ae 08 be d0 fc 04 be
       -0.04773977 0.040174432 -0.13347629 -0.12987065
000060 41 a4 b3 3d a0 82 0f 3e 71 8d a7 bd 0f 37 ef 3d
       0.08771563 0.14014673 -0.08181275 0.116804235
000070 89 f4 10 3e b1 42 16 3b 65 1b 33 bd 90 d8 f2 3d
       0.14155783 0.0022927935 -0.043727297 0.11857712
000080 4a db dd 3d 54 27 10 bd 45 ba 04 be fe e3 6c bd
       0.10832842 -0.035193756 -0.12961681 -0.057834618
000090 07 6c a7 bd aa bd 78 bd 16 c2 ca 3d e2 71 76 bd
       -0.081749015 -0.060727753 0.099003 -0.0601672
0000a0 2a 74 d8 3d 64 4d 21 bd 5f 08 7b 3d eb 25 81 bd
       0.105690315 -0.039380446 0.06128728 -0.063060604
0000b0 b9 ed 11 3e 0b 04 d1 bd 08 96 0c 3e 11 d2 d5 3c
       0.1425084 -0.10205849 0.13729107 0.026101144
0000c0 92 6e 90 3c 6b ce 3b 3d af 00 f7 bd 5b 91 a0 bd
       0.017630849 0.045851152 -0.12060677 -0.07840224
0000d0 56 59 21 3d 2c fa 06 3e 8f b2 b7 3c 47 4c 9f bd
       0.039391838 0.1318137 0.02242401 -0.077782206
0000e0 29 b1 85 bd 7b ee 01 bd d7 b4 03 be e8 8d 3b bd
       -0.06527931 -0.031721573 -0.12861954 -0.04578963
0000f0 3e 0b bb bd 1d 3f 01 be d6 16 bb bd e2 3c ce 3d
       -0.09133004 -0.12621732 -0.09135215 0.10070206
000100 4c e3 ce 3d 8c b4 a0 bd f2 1c 10 3e eb 8d 11 3e
       0.10101947 -0.078469366 0.14073542 0.14214294
000110 21 10 01 be c0 dc 6a 3d 83 22 37 bd f1 2f 0b 3e
       -0.12603809 0.05733943 -0.044710647 0.13592507
000120 8b 62 8c 3d 6f 55 11 3e ef 9d d0 bd 47 c1 74 bd
       0.06854733 0.14192747 -0.101863734 -0.059754636
000130 92 3d d0 3d d0 66 28 3d 70 4a 86 bd 47 21 f5 bd
       0.101679936 0.041113675 -0.065571666 -0.11969238
000140 bb 3e 58 bd 5e 78 64 bc ab 79 86 bd f2 fe 6b bc
       -0.0527942 -0.013944713 -0.06566175 -0.014404045
000150 03 1a 4e bc 2e 56 97 3d 96 c5 42 bd 7f 9f b6 3d
       -0.012579444 0.07389484 -0.047551714 0.0891714
000160 bf b5 90 3d de b1 b4 bd 74 df 84 3c d7 ff 66 bd
       0.07065915 -0.08822988 0.016219832 -0.05639633
000170 9b 18 02 3d 11 c8 02 3e 6e 53 7b 3d 9d 43 71 3d
       0.031761747 0.12771632 0.06135886 0.05890237
000180 f6 97 ed bd 9f 5e bd 3c 16 69 0f be 55 f3 e3 3d
       -0.1160125 0.023116408 -0.14004931 0.11130396
000190 54 bc 92 bd b6 25 f4 3c 7d 6b a2 bd 01 1e 6f bd
       -0.07164827 0.029803138 -0.07930658 -0.058378223
0001a0 b7 c0 72 3d 15 e9 bd bd d9 50 36 bd cc df 18 bd
       0.05926582 -0.092729725 -0.044510696 -0.037322804
0001b0 07 27 de 3d 07 76 f0 3d 5c 59 c1 3d ca 5c 6b 3d
       0.108472876 0.11741262 0.09440872 0.057461537
0001c0 ad 3e 20 bc 17 96 68 3d 8a f8 e0 bd a1 95 af bd
       -0.009780568 0.05678376 -0.10984905 -0.08573461
0001d0 39 02 86 bd 05 cc ea bd 4c e9 e6 3d 92 57 eb bd
       -0.06543393 -0.11464695 0.112749666 -0.11491312
0001e0 54 e9 05 be 22 7f 06 be 9c a1 15 bd 64 c9 0d bc
       -0.13077289 -0.13134435 -0.036531076 -0.008653972
0001f0 9e 87 b9 3c fd 69 a4 3d 1e 95 a9 3d 5d 53 81 bd
       0.022647675 0.08028028 0.08280395 -0.063147284
000200 53 4f 8f 3c a2 53 e2 bc 3f 41 20 3d 87 09 65 3c
       0.01749388 -0.02762777 0.039124724 0.013979322
000210 db 5a b7 3d e5 74 14 3d 3a bd e7 3d 78 24 c3 bd
       0.08952876 0.03624429 0.11315389 -0.0952844
000220 95 a6 06 be 4b 36 ab bd a4 dd e9 bd fe 0e 7a 3d
       -0.13149484 -0.08359965 -0.11419228 0.061049454
000230 7f 73 3d bd 0a c2 cb 3d 06 02 e3 bc 73 da e5 bc
       -0.046252724 0.099491194 -0.027710926 -0.028058266
000240 2a 1d bd bc f0 d6 10 be 0d 94 fd bd 95 25 81 bd
       -0.023085196 -0.14144492 -0.12381754 -0.06305996
000250 f3 f1 f8 3d c4 26 8c bd e5 ec 97 3d 4b b5 da 3c
       0.12155523 -0.068433315 0.07418231 0.026697775
000260 86 34 76 3d 7b 8b b6 bd a2 76 11 3e 97 64 db bd
       0.060108684 -0.089133225 0.14205411 -0.10712545
000270 df fc d5 3d 1b b5 09 3e cf a7 2f 3d d5 ec 13 be
       0.10448622 0.13447993 0.042884644 -0.14445813
000280 7a 4a 82 3d b3 3c 58 3d 21 83 ec 3d 8c 6b a6 3d
       0.063618615 0.052792262 0.11548448 0.08125982
000290 07 87 59 3d 94 27 57 bd 59 24 39 bd 09 6d 43 bd
       0.053107288 -0.05252798 -0.04520068 -0.047711406
0002a0 93 c5 68 bd 64 0b 10 be 60 e4 8d 3d 50 1b ef 3d
       -0.056829046 -0.14066845 0.06928325 0.11675131
0002b0 b6 8b 2c bb f3 fc eb 3d f9 00 84 3d ae bf e7 bd
       -0.0026328391 0.115228556 0.06445498 -0.11315857
0002c0 42 89 10 3e ee bb 47 bc a8 09 8a 3d 63 91 92 3c
       0.1411486 -0.012190802 0.06740123 0.017891591
0002d0 1d 54 a6 bd 6e d0 0c 3e 07 bf 06 3e c2 85 a9 3d
       -0.08121512 0.13751385 0.13158809 0.082774654
0002e0 ab 7a 39 bd ad 40 26 bd 2c 34 da 3c 68 1a d4 3d
       -0.045283 -0.040589023 0.026636206 0.10356599
0002f0 8b ba 52 3d 8b de 8e 3d 0e 00 57 3d b3 e9 55 bd
       0.051447432 0.069760405 0.052490287 -0.052224826
000300 ef 3c d5 bd a4 23 34 bd 1a 29 b7 3d 13 d0 8f 3d
       -0.10412013 -0.043979302 0.089433864 0.07022109
000310 bc ff a5 bd 00 a6 ad 3d 8a 7c 7e bd f0 2e 9e 3d
       -0.08105418 0.084789276 -0.06213049 0.07723796
000320 44 af 45 bd 8b 45 cb bd 71 25 d8 bd 79 12 23 bd
       -0.04826285 -0.09925374 -0.105540164 -0.03981254
000330 79 6b d9 bd 48 6d ae bd 90 ad 11 be 78 66 fe 3d
       -0.10616202 -0.085169375 -0.14226365 0.12421888
000340 67 88 bc bc d5 0d 0f 3e 64 4e 0d be 32 a0 cd 3d
       -0.02301426 0.1397012 -0.13799435 0.100403205
000350 5c 67 08 be f6 3c 27 3d 91 ee e7 bd c6 73 0e be
       -0.13320678 0.04082962 -0.113248 -0.13911352
000360 6f 9a 97 3b f8 6a e3 3d 86 9e df 3d b2 bd 09 be
       0.004626564 0.11104387 0.10918908 -0.1345127
000370 80 7d 9e bd da dc ef bd c3 f8 00 3e 2f b2 4f 3d
       -0.07738781 -0.11712046 0.12594895 0.05070704
000380 96 ee a1 3d 02 89 a9 bc c0 8b 60 3b eb 4a 9b bd
       0.07906835 -0.020695213 0.0034262985 -0.07582649
000390 d8 e5 dc 3c 0f 8a 2e bd e0 4e 60 bd 3d 7b 15 bc
       0.026965067 -0.04261213 -0.05476272 -0.009123621
0003a0 c8 6b a7 3d 60 16 59 bd 2f 7e eb bb 95 de ef bc
       0.081748545 -0.052999854 -0.007186673 -0.02928094
0003b0 8e 29 ef 3d 39 ea 5e 3d 7b 35 3d bd bd 37 dc 3d
       0.11677848 0.05442259 -0.04619358 0.10752819
0003c0 de 3c 8c bc 4b db 61 3b 6f bf 53 3c 6c 0b c8 bc
       -0.017118867 0.0034462984 0.012924059 -0.024419509
0003d0 cc f3 e4 bd c4 42 0d 3e 53 12 5b 3d d2 47 0c be
       -0.11179313 0.13795 0.053484272 -0.13699272
0003e0 ba ae 17 bd 78 65 85 3d 9e 7e 36 3d 27 56 1e 3d
       -0.037031867 0.06513494 0.044554345 0.03865638
0003f0 dc 34 b0 bc 13 17 02 bd 81 04 ef 3d c3 cf 8e 3c
       -0.02150958 -0.031760287 0.11670781 0.017433053

fc2.weight f4 [256, 404]
000000 d9 78 05 3c b1 88 c5 bc 82 c4 87 bc 01 87 c5 3c
       0.008146488 -0.024113031 -0.016573194 0.024112226
000010 03 88 89 bc ba c7 71 3d c7 c4 73 3b 68 50 c3 3c
       -0.016788488 0.059028365 0.0037196146 0.023842052
000020 f6 40 35 3b 1d 87 64 bd d2 93 c6 bc 18 a2 1f 3c
       0.0027657128 -0.055792917 -0.024240408 0.009743236
000030 e8 39 b7 3c 1d 24 c4 3c 72 da 62 3d 05 99 37 bd
       0.022366479 0.023943001 0.055384107 -0.044823665
000040 b3 d2 7c bc a9 a6 a1 bc 30 31 59 bd ef 37 e6 3a
       -0.015431094 -0.01973279 -0.053025424 0.0017564277
000050 dd e7 f0 3a b3 7c 03 3d bd ff b0 3a 27 98 d9 3b
       0.0018379648 0.032101344 0.001350395 0.0066404524
000060 5c cc 71 bd 58 64 c8 3c 4d f9 f8 bc 30 16 38 3d
       -0.059032783 0.02446191 -0.030392313 0.044943035
000070 ae af dc bc 54 0d 35 bd 73 68 95 bc fb 49 3c bd
       -0.02693924 -0.044202164 -0.018238282 -0.04596899
000080 ff b5 58 3c cb 4c 8f bc 2e b6 96 bc 69 10 46 bd
       0.013226985 -0.017492672 -0.018397417 -0.048355494
000090 3a 33 12 bc 48 54 a5 3a f7 26 96 bc 90 56 9d 3c
       -0.008923346 0.0012613619 -0.018329127 0.019206315
0000a0 8c c9 ed 3b 9b 41 38 bb 7b 06 60 3d f8 3b 17 3d
       0.0072566923 -0.0028115276 0.05469368 0.036922425
0000b0 ac 61 4e bc 8f fb 40 bd 4c 02 e0 bc b7 a7 78 ba
       -0.012596529 -0.047114905 -0.027344845 -0.00094854407
0000c0 8f 3f 64 3c 9e 7a 00 3d cf d2 35 bc 4a bf 08 3d
       0.013931169 0.031366937 -0.011097624 0.033385552
0000d0 3e 8e 4d 3d 73 93 04 bd 29 53 03 bd a3 a8 05 bd
       0.05018448 -0.03236718 -0.03206173 -0.032631528
0000e0 34 61 1c bc 42 2c 3f bd a4 5d a5 3b 7e 98 b2 bc
       -0.009544659 -0.046673067 0.005046563 -0.02180123
0000f0 f4 01 64 3d f1 00 86 bb 6d 70 2e bd e8 76 27 3c
       0.055665925 -0.0040894677 -0.042587686 0.010221221
000100 56 3e 53 bb 3a 80 14 3c 8b 12 33 3a eb 90 81 3c
       -0.00322332 0.009063775 0.0006831071 0.015816173
000110 ce 27 3c bd 7c 83 ba 3c fe cc 19 bd e3 77 5a 39
       -0.0459364 0.022767775 -0.03754901 0.00020834761
000120 18 84 6f 3d 6d 1c 2f bd 08 cf be bc dc 0f 82 bc
       0.058475584 -0.04275172 -0.02329208 -0.015876703
000130 5f 8a a1 b9 5e c6 29 bc 72 55 2f 3d 24 9a bb bc
       -0.00030811407 -0.010362236 0.042806096 -0.022900648
000140 85 e2 72 bd b7 f0 a2 3b 66 95 27 3d 76 2d 2b bd
       -0.059298057 0.004972543 0.04091396 -0.0417914
000150 b4 59 66 3d 33 7e 45 bd cb 41 26 bd cf 65 3a 3d
       0.05623789 -0.048216056 -0.04059009 0.04550725
000160 2f ff 4b 3d a4 b2 63 bc 7c 02 77 3d 0c 25 58 bd
       0.04980391 -0.013897572 0.060305104 -0.052769706
000170 0f d7 ff 3c 89 48 1b 3c 77 27 38 bd 06 00 5d bd
       0.031230478 0.009477743 -0.04495951 -0.0539551
000180 b1 7c dc bc 6b 0f a3 bb 3a 74 ee 3c b8 52 4b 3d
       -0.026914926 -0.004976203 0.029108156 0.049639434
000190 3f 4d 1b 3c de e9 9c bc b7 b3 99 bc 40 94 26 3c
       0.009478866 -0.019154485 -0.018762453 0.0101671815
0001a0 d4 ce 6d bb 82 94 74 bc b0 12 67 3d e7 44 0d 3d
       -0.003628661 -0.014927985 0.056414306 0.03448954
0001b0 78 91 75 bd 2d cc 3e bc 3c ba 1f 3d 3c fa 4b 3c
       -0.059953183 -0.011645359 0.038995966 0.012449797
0001c0 43 d5 0d 3c 52 f2 b7 3c f4 98 b5 bb c6 62 02 bd
       0.008656803 0.022454415 -0.005541915 -0.03183248
0001d0 6b df 26 3d cb 9d a6 bb ef c1 08 3d 67 c2 f1 3c
       0.04074041 -0.0050847284 0.033388074 0.029511644
0001e0 8a 84 61 bd 58 da c5 bc c6 78 74 bd 90 41 5a bd
       -0.05505804 -0.024151966 -0.05968549 -0.05328518
0001f0 f8 36 e0 3b 0c ca 46 bd 35 85 c4 3c 03 31 2b 3d
       0.0068424903 -0.04853253 0.0239893 0.041794788
000200 ef e9 db 3c ea b7 50 3c 18 1e d4 3c d8 04 98 3b
       0.026844947 0.012739161 0.025893256 0.0046392493
000210 ac ec 06 bd c6 6b 58 bd c2 d6 32 bd 79 b1 62 bc
       -0.03294055 -0.052837156 -0.04366184 -0.013836258
000220 be 90 f4 3c a2 78 c8 bb 88 c5 06 3c c5 a1 6c 3d
       0.029854175 -0.006117896 0.008225806 0.057771463
000230 06 17 95 bc 97 1f 60 3d 97 77 32 3c 45 0b f1 3b
       -0.018199455 0.054717626 0.01089277 0.0073560798
000240 78 9b 13 bd 8f b0 3e 3d 88 24 86 3c 49 e0 19 3d
       -0.03603694 0.0465551 0.016374841 0.03756741
000250 8c fe 86 3c 07 a5 9c bc 25 a5 75 bd 06 06 18 3a
       0.0164788 -0.01912166 -0.059971947 0.00057992374
000260 24 c0 0f bd 84 f3 61 bd 85 38 77 3c 2e 7f 1b bd
       -0.03509535 -0.055163875 0.015089159 -0.037963085
000270 fa 72 00 3d b4 d4 61 3c 53 34 24 bd e8 c1 66 bd
       0.03135965 0.0137836225 -0.040088963 -0.056337267
000280 90 e7 72 bc 81 39 2a ba 55 9c 8d ba 42 58 1b 3d
       -0.014825717 -0.0006493554 -0.0010804037 0.037925966
000290 64 1d 3e 3d e5 ff 4d bd bf b4 4c 3d 80 5d c5 3b
       0.046414748 -0.05029287 0.04997706 0.006023109
0002a0 e9 2f 1a bd 12 2e b5 3c ec 18 8d 3b da 03 3d 3d
       -0.037643347 0.022116695 0.0043059494 0.04614625
0002b0 00 b9 73 3c 84 c1 65 bd 9f 25 6d 3d a4 49 78 bb
       0.01487565 -0.056092754 0.057897206 -0.003788569
0002c0 46 81 3e bc 55 e6 47 3d 2f 90 6d 3d 97 93 58 3d
       -0.011627501 0.048803646 0.057998832 0.052875128
0002d0 2c a9 1e bd 0f a5 6f bd 64 96 f4 3c af 5e 40 3d
       -0.038735554 -0.05850702 0.029856868 0.046965297
0002e0 3f 6e 54 bc bf 5d bd bc 04 e0 48 bd f4 f9 07 3c
       -0.012965738 -0.02311599 -0.049041763 0.00829934
0002f0 d6 9f 35 3d c5 84 3f bd 88 ee 33 3d 3c 25 23 3b
       0.044341885 -0.04675748 0.043928653 0.002489402
000300 57 21 48 3d 0b 61 84 3c 09 61 b0 3c df b3 71 3c
       0.04885992 0.016159555 0.021530645 0.014752357
000310 ef 2f 37 3d 20 53 5a 3d 8d 6c 4f 3d 2d 99 12 bd
       0.044723447 0.05330193 0.05064063 -0.03579061
000320 36 d7 15 3d 74 e7 b6 3c 31 f6 f1 bb 5c d4 60 3d
       0.036582194 0.022327162 -0.0073840846 0.05489002
000330 0f 2c cc 3c ab 1b 5f bd 6a 81 74 bd 05 e0 4e bd
       0.024923353 -0.054469746 -0.05969373 -0.05050661
000340 bc e7 47 3d d9 80 2f 3d c1 d4 08 3c cd 59 8a 39
       0.048804983 0.042847488 0.008351506 0.00026388318
000350 79 02 3f bd a3 19 44 3d 22 83 b9 3c ec 87 ee bb
       -0.046633217 0.04787601 0.022645537 -0.0072793867
000360 03 99 34 3d 36 11 40 bd 4a d4 18 3d db 98 9d bc
       0.044091236 -0.046891414 0.03731183 -0.019237926
000370 92 0d 0f 3d 7f eb 4d bd bb ae 47 bd 12 c5 f0 bc
       0.03492505 -0.050273415 -0.04875062 -0.029390845
000380 7c c7 28 bd d7 11 6f 3d b2 30 a9 bb 3e 44 6a 3c
       -0.041205868 0.058366623 -0.0051632756 0.014298497
000390 09 f3 69 3d 2b 3e 5f bb 7a 53 df bc d2 32 47 3d
       0.057116542 -0.0034064155 -0.027261484 0.04863245
0003a0 2b 6b dd bc 97 f2 89 3c fb 99 19 3d 2a fc 85 3c
       -0.02702864 0.016839309 0.037500363 0.016355593
0003b0 44 43 9d ba 1b ba c8 3c 35 0d 40 bc 45 87 a9 3b
       -0.0011998196 0.024502805 -0.011721899 0.005173596
0003c0 11 c8 2d 3d 76 f4 6d bc b9 98 48 bd 07 a7 2a 3c
       0.042427126 -0.014523616 -0.048973773 0.010415799
0003d0 4c 9d c0 bc 33 40 01 bc b7 96 6c bd ce 79 50 bd
       -0.023512505 -0.007888841 -0.05776092 -0.050897412
0003e0 cb 80 40 bd d4 d1 71 bd ed 6e 25 3d 51 48 4c 3d
       -0.046997827 -0.059038 0.04038899 0.049873654
0003f0 77 0c 59 3d a3 1a 3f 3d 86 51 0e 3d 6d 17 70 bd
       0.052990403 0.046656262 0.034745716 -0.05861609

fc2.bias f4 [256]
000000 31 80 3d 3d 7b 34 c2 3c 24 53 e5 bc 3e ae 3c 3c
       0.04626483 0.023706665 -0.027993746 0.011516152
000010 c7 d8 ae 3c 2b 4c 16 bd b8 65 40 3c 0f 2c 37 bd
       0.021343602 -0.036693733 0.011743002 -0.044719752
000020 61 34 3c bb 69 b7 ea 3c e1 56 08 3d 4c 3c 9a bc
       -0.0028717744 0.02865191 0.03328598 -0.01882758
000030 0e e1 89 3b b4 bb e3 3b 44 75 1d 3c 73 70 0f 3d
       0.004207737 0.006949866 0.009610478 0.03501935
000040 46 0b f6 ba 42 6e f2 bc 9c 77 0d bd 4e 0f 81 bc
       -0.001877167 -0.02959359 -0.034537897 -0.015754368
000050 11 31 23 bd 79 18 ff 3c 0d 9f 04 3d 28 96 ff ba
       -0.039841715 0.0311396 0.032378245 -0.0019499706
000060 31 62 2c bd 0e 33 a7 3c a2 2c 27 bd 5e dc cf bb
       -0.04208583 0.020410087 -0.04081405 -0.0063434085
000070 c9 49 2c 3d b2 a4 8a 3c ca 83 36 3d 4a 2d 23 bd
       0.042062555 0.016924236 0.044559278 -0.039838113
000080 37 ec e9 3c 1e 04 f1 bc b8 0c 88 bc 62 2b 2a 3d
       0.028555019 -0.029420909 -0.016607627 0.04154528
000090 ae df 6b bc 47 15 0a bd f6 5b c7 bb 33 e3 07 3d
       -0.014396591 -0.033711698 -0.0060839606 0.03317566
0000a0 67 cc 3e bd 08 c9 4a 3d d7 5b 7c bc ef 4f 16 bd
       -0.046581652 0.049508125 -0.015402756 -0.036697324
0000b0 c9 f1 db bc 99 cb b1 3c f2 a7 3e 3d c7 08 2e 3d
       -0.02684869 0.021703528 0.046546884 0.04248884
0000c0 b5 d4 95 3c 17 9d 68 bc a4 cd 2f bd 20 ca 10 3d
       0.018289903 -0.014197609 -0.042920724 0.03534901
0000d0 8f bc 41 bd df e9 cb 3b 47 52 25 3d 63 88 b9 3c
       -0.047298964 0.006222948 0.04036167 0.022648042
0000e0 47 2d fc bc 8d 21 cb 3b 99 9e e6 3c 65 65 67 bc
       -0.030783309 0.006199068 0.028151797 -0.014123295
0000f0 a1 b8 91 bc ca 39 41 bd b5 a9 0b 3d 6d 05 3b bd
       -0.017788233 -0.047174253 0.034097392 -0.04565947
000100 c9 61 ac bb 70 66 f5 3c 58 d6 44 3b 48 bd 46 bd
       -0.0052606803 0.029956073 0.0030034985 -0.048520356
000110 6f a2 13 bd 04 24 ec 3c c0 17 c6 bb 23 ec 00 bd
       -0.03604358 0.028825767 -0.0060453117 -0.031475198
000120 eb ff a9 bc d8 e9 38 bc 39 9b 35 bd 1b 79 94 3b
       -0.020751914 -0.011286221 -0.044337485 0.0045310385
000130 02 ba a4 3c 26 eb 17 3d b2 1b ed 3b 8d 02 f6 bb
       0.020108227 0.03708949 0.0072359676 -0.0075076283
000140 90 a8 08 3b bf c2 10 bd cf b1 2a bd 73 34 8c ba
       0.0020852424 -0.035341974 -0.041673478 -0.0010696783
000150 f2 2b 37 3d b5 a1 45 3d 44 4f d6 bc 26 c3 38 3d
       0.044719644 0.04824992 -0.026160844 0.045107983
000160 93 9b 00 3d 2e 02 3a 3c 64 ab 3d bd 76 8d 16 bd
       0.031398367 0.011353059 -0.04630603 -0.036756
000170 13 f3 2b 3d 0b 7e 44 bd a3 ba 11 bd 76 a3 35 3b
       0.04197986 -0.047971766 -0.03557838 0.0027715839
000180 45 31 cf 3b 99 e7 32 3d 8d ee 3b 3d 90 16 ed bc
       0.006323012 0.0436779 0.045881797 -0.028941423
000190 a0 20 22 bc 01 e4 b0 3c 60 90 2f bd 2b 8d 97 3b
       -0.009895474 0.021593096 -0.042862296 0.004624983
0001a0 7f e1 50 bc 76 23 3d bb 5a c7 c8 3c ff 94 69 3c
       -0.012749075 -0.0028860248 0.02450912 0.014256715
0001b0 6a 02 00 bd 63 18 ce bc 23 17 fe bc 57 e2 96 3c
       -0.031252302 -0.025158113 -0.031016892 0.018418474
0001c0 74 be 5c 3c b1 07 18 bd 33 53 a2 3b a0 c2 4c bd
       0.013473142 -0.03711671 0.004953766 -0.049990296
0001d0 db 16 37 bd 0d 61 48 3d a2 f2 d1 bc c1 ef 28 ba
       -0.04469953 0.04892068 -0.025628392 -0.00064444175
0001e0 be db ea 3c dc b5 11 3d d6 06 3b bd cc 00 dc 3b
       0.028669234 0.035573825 -0.045660816 0.006713962
0001f0 a6 58 05 bc d4 f1 42 3d b8 5b 41 bd a0 a9 c7 3a
       -0.008138811 0.047593907 -0.04720661 0.0015233047
000200 91 88 91 3c bb 1f b0 bc d9 7d 26 bc 60 22 3f bd
       0.017765315 -0.021499505 -0.01016184 -0.046663642
000210 9a 7d 31 3d b9 3b 10 3d 5e c8 e0 bb a1 37 e5 3c
       0.043332674 0.035213206 -0.006859823 0.027980627
000220 33 bf ea bb 6c 92 16 3d 48 e8 22 3c ac 04 1f bd
       -0.007163906 0.036760733 0.0099430755 -0.038822815
000230 47 b5 8b 3c 48 b3 49 3b db 79 f1 bc 8b b6 3c 3d
       0.017054213 0.0030777026 -0.02947705 0.046072524
000240 57 c4 76 3b 67 f1 10 bd 56 bc 3b 3c ca 73 92 bc
       0.0037653649 -0.03538647 0.011458477 -0.017877478
000250 15 12 d4 bc 52 eb 33 3d ae 96 16 3d 82 84 b8 bb
       -0.025887528 0.04392559 0.036764793 -0.0056310305
000260 f0 a9 02 3d 17 4a 46 3d 89 72 e5 bc 03 ce f9 3b
       0.031900346 0.0484105 -0.028008716 0.0076234355
000270 a1 df 0e ba e5 bf b9 3a 23 39 44 bc 9d 86 a2 3b
       -0.00054501934 0.0014171569 -0.011976513 0.004959895
000280 a9 ea a9 3c 2e bd f1 bc 82 ea 27 3d ed 89 5d 3c
       0.020741777 -0.029509153 0.04099513 0.013521654
000290 b2 b6 15 bd d6 da 26 bd 83 bf 37 3d 40 97 c1 3c
       -0.036551185 -0.040736042 0.044860374 0.023631692
0002a0 be cc 14 bd 12 67 c3 bc 80 9c b3 3c 75 c2 e4 3c
       -0.03632807 -0.023852859 0.021925211 0.027924756
0002b0 76 4b 04 3d f7 d0 47 3b 29 f4 b9 bb d8 8d 39 3d
       0.032298528 0.0030489543 -0.005674858 0.04530129
0002c0 0e a0 a4 3c 69 0f aa 3c a9 e4 e6 3c 8b 6c b7 3c
       0.020095851 0.020759301 0.028185206 0.022390625
0002d0 d2 aa a4 3a ed 01 8c bc d8 0a 2a bd 33 cb 15 3d
       0.0012563115 -0.017090762 -0.041514248 0.03657074
0002e0 f5 90 11 3d 83 de 6f bc c4 bf 00 bd ed b2 3b ba
       0.035538632 -0.014640453 -0.031432882 -0.0007160146
0002f0 35 33 15 ba 90 8c 48 3b c4 2c 01 3d 70 43 de 3b
       -0.00056915294 0.003060136 0.031536832 0.0067829415
000300 35 c5 c5 bc d7 a9 4c bd fe df 5c bc 5d 02 c5 3c
       -0.024141887 -0.04996666 -0.013481138 0.024048978
000310 ae dd db 3c 1b 27 dd 3c 85 dd c4 3b 76 b5 25 3d
       0.026839104 0.026996186 0.0060078525 0.040456258
000320 16 ea 09 3c 33 33 c6 3b a6 1c 38 bd 9b 51 fd bc
       0.008417627 0.006048584 -0.044949196 -0.030922702
000330 62 74 1c 3d 57 21 b9 bc ec 89 e4 3c 4e 0b ca bc
       0.03819693 -0.022598905 0.027897798 -0.024663594
000340 2b 3a 07 3c 08 38 0d 3c 6a 72 33 3d e7 33 ce 39
       0.008253614 0.008619316 0.043810286 0.00039330052
000350 54 8a 10 bd 93 2e fb bc 54 b6 ef bc f6 f1 d7 3b
       -0.03528817 -0.030661857 -0.029261746 0.0065901233
000360 63 43 86 3b 7a c5 e1 3c 95 35 13 bd 37 87 d4 3b
       0.0040973886 0.027559984 -0.03593977 0.0064858454
000370 ef 88 08 3d b4 35 e4 bc 91 63 20 bd 9c 6f da bb
       0.033333715 -0.027857639 -0.039157454 -0.006666137
000380 57 54 87 3c b5 ee a4 bc 4e f5 89 ba 1c 64 1f 3d
       0.016519709 -0.020133356 -0.0010525377 0.03891383
000390 fb 53 c8 3c ab ed 37 3d db e9 13 3d e6 36 27 3d
       0.024454108 0.044904392 0.036111694 0.04082384
0003a0 ec 23 f1 3c 1e 35 94 3c 85 6d e7 bc a5 b3 e4 bc
       0.029436074 0.018091734 -0.028250465 -0.027917692
0003b0 65 00 b3 bc ff 72 a5 3b 2c 0b 0b bc e9 b1 1c 3d
       -0.021850774 0.005049109 -0.00848655 0.038255606
0003c0 15 fe 34 bd 31 19 35 bd 53 b7 3d bd 50 0e 3e 3b
       -0.044187624 -0.044213478 -0.04631741 0.002900023
0003d0 02 58 33 bd d3 c1 c2 bc 91 b2 45 bb d4 01 98 3c
       -0.043785103 -0.023774063 -0.0030166248 0.01855556
0003e0 db 34 91 bb d0 03 48 bc 1d 55 22 3c c1 07 04 3d
       -0.0044313497 -0.01220794 0.009907988 0.032233957
0003f0 45 69 ed 3c d1 7c b8 ba b0 13 aa bb 65 f6 31 3d
       0.02898086 -0.0014075284 -0.005190335 0.04344787

fc3.weight f4 [1, 256]
000000 d5 dc a6 3a d7 79 32 ba 87 61 2a 3b da 43 14 b9
       0.0012730608 -0.00068083167 0.0025998072 -0.00014139657
000010 5b a2 53 ba 30 0f cf ba 6e 4c 36 3a af c3 9c 3a
       -0.0008073204 -0.0015797373 0.0006954138 0.0011960174
000020 25 0a 59 b9 7f 14 5c ba b2 62 94 39 62 cf 1d 3b
       -0.00020698512 -0.0008395388 0.00028302294 0.0024079909
000030 10 db bd 3a 77 c5 a6 ba a6 98 90 b9 7f 83 35 39
       0.0014484841 -0.0012723644 -0.00027579552 0.00017310491
000040 a4 5a d4 3a b8 5d 06 3b 9f 06 3c 3b 48 e1 88 3b
       0.0016201329 0.0020502638 0.002869047 0.0041772462
000050 90 d9 a7 ba 68 ea 6b b9 24 ae 20 3b 6f a5 59 ba
       -0.0012805928 -0.0002249867 0.0024517858 -0.00083025446
000060 c3 30 c8 37 6c 3a 4d 3b 7e d8 85 ba 78 7e 27 3b
       2.3864564e-05 0.003131534 -0.0010211614 0.002555756
000070 ad 6e ef 3a 9a ec 27 ba 5f 6d 4c ba d7 fd bd ba
       0.0018267237 -0.0006405801 -0.000779828 -0.0014495206
000080 e8 e7 c9 3a 5a 8c 40 ba 0a 61 6b 3b 2f 06 8e ba
       0.0015404196 -0.0007345133 0.0035915994 -0.0010835583
000090 78 2f d9 3a be 21 b7 ba 35 75 fd 39 8f 05 a5 b9
       0.0016569933 -0.0013971848 0.00048343246 -0.00031475394
0000a0 88 53 77 ba 48 a4 a4 3a cd 53 47 3b 70 9f 22 3a
       -0.00094347494 0.0012561167 0.003041494 0.00062035676
0000b0 3a 55 0f 3b 85 b6 c2 3a e3 38 12 3b 7c fb 8d 39
       0.0021870867 0.001485542 0.002231174 0.00027080986
0000c0 45 a8 60 3b ee 96 45 b8 a0 75 4b 39 8a 5d 23 3b
       0.0034279984 -4.7109024e-05 0.00019403407 0.002492758
0000d0 fd 69 d8 ba 1a cf 4c ba 41 3c fb 3a 84 1a b0 3a
       -0.0016511079 -0.0007812843 0.0019167737 0.0013435637
0000e0 89 a6 06 bb 74 35 92 3a 09 88 e4 b9 4c fd 54 3b
       -0.002054604 0.0011154846 -0.00043588903 0.003249961
0000f0 66 87 37 3a e2 9f c0 ba 82 5d 0a 3b 3f 92 cf 3a
       0.0007001072 -0.0014696086 0.0021112864 0.0015836431
000100 c5 c0 08 3b 8d dc b1 3a 8f 29 24 3a 8b 59 64 b9
       0.0020866853 0.0013569758 0.0006262296 -0.00021777132
000110 ec 4c 18 ba dc e8 06 3b 0b 9f 12 bb e1 9a 80 39
       -0.0005809802 0.0020585572 -0.002237263 0.00024529456
000120 31 60 99 39 96 f2 1a 3b 2f 16 1d 3a 49 c8 53 39
       0.00029254102 0.0023643128 0.00059923803 0.0002019714
000130 e2 1b 12 3b 03 8a 56 3b 87 fd 5b ba 06 cb be ba
       0.0022294451 0.003273607 -0.00083919655 -0.0014556355
000140 a7 a8 2c 3b b9 43 4c 3b 9f 42 c9 38 8b 91 ef ba
       0.0026345642 0.0031168296 9.596836e-05 -0.0018277628
000150 6c 6d f2 b9 0e 76 22 3b 03 47 d5 ba a9 eb 65 3b
       -0.00046239363 0.0024789604 -0.0016271773 0.0035083091
000160 9b f1 2d 3b 2b 39 60 3b b6 85 82 ba 12 a6 93 3b
       0.0026541713 0.0034213762 -0.0009958062 0.004505881
000170 7b d0 ff 3a f4 f3 6f 39 e5 5d 8c b9 28 2d a5 3a
       0.0019517088 0.00022883696 -0.00026772838 0.0012601959
000180 98 8b 18 ba 81 1e 82 3b a4 9f 91 ba 79 75 29 3a
       -0.0005819141 0.0039709215 -0.0011110199 0.0006464343
000190 0f 77 63 3b 3e fa 2e 3b cf fd 22 b9 b6 9c 5e ba
       0.0034708416 0.002669945 -0.00015544075 -0.00084919797
0001a0 f3 02 20 3b 1e 67 05 ba b9 e0 ca 39 db 64 03 bb
       0.002441582 -0.0005088913 0.00038695874 -0.0020049128
0001b0 e1 8b 69 3b 32 c5 a4 3a dc dd d3 3a fd 36 4f 3b
       0.0035636353 0.0012570976 0.0016164142 0.003161847
0001c0 b1 18 21 b9 d6 32 71 3b bd 9b 7b 3b 84 6f fd 39
       -0.00015363355 0.0036803982 0.0038392388 0.00048339006
0001d0 fe 23 0e 3b 5a b9 ac 3a a8 47 a6 ba dc 9c 10 3b
       0.0021688933 0.0013177798 -0.001268615 0.0022066152
0001e0 05 e4 61 ba d2 e1 17 3b 08 9b 31 ba 8a e6 7f 39
       -0.00086170464 0.002317537 -0.00067751156 0.00024404578
0001f0 e8 f4 1a 3b e0 67 39 3b 2d 76 ef ba ba 25 4a 3b
       0.002364451 0.0028290674 -0.0018269472 0.003084524
000200 e3 a0 89 3a 03 f2 c4 b9 e5 ea 31 ba 0c d1 20 3b
       0.0010500218 -0.00037564346 -0.0006787016 0.0024538664
000210 08 5c a9 3a 87 35 52 3a a1 77 62 3b 3e f4 f7 3a
       0.0012921104 0.00080188405 0.0034556168 0.0018917394
000220 b8 90 83 3b 9e db 84 ba 01 f2 3e 3b 3a 0e d0 b9
       0.0040150546 -0.0010136252 0.0029135945 -0.0003968345
000230 e5 24 7b 39 56 c6 1b b7 67 6c 87 3a 75 46 5e 3b
       0.0002395097 -9.284899e-06 0.0010331989 0.0033916507
000240 0d 35 6d 39 25 62 ec 3a 7c 49 32 39 1f b7 09 3b
       0.00022621844 0.001803462 0.00017002778 0.002101369
000250 e1 ea 18 3b a7 69 d2 ba b1 d6 08 3b 88 53 92 3a
       0.0023333358 -0.0016053215 0.002087992 0.001116381
000260 29 6d ce ba 85 0b cf ba e0 c6 15 3b d4 f0 d0 ba
       -0.0015749085 -0.001579628 0.0022854134 -0.0015940913
000270 d8 19 35 3b f4 e5 50 b8 e2 3c 4a 3b 15 9b 60 38
       0.0027633812 -4.9805225e-05 0.0030859043 5.3550193e-05
000280 15 64 4c b8 14 e9 2a 39 e2 a5 c0 3a f3 45 72 3b
       -4.87306e-05 0.00016299292 0.0014697874 0.0036967963
000290 ea c8 28 3b 9f da bb b8 6f 74 0b 3b ad a1 c8 ba
       0.002575452 -8.957576e-05 0.0021279117 -0.0015306972
0002a0 18 d6 a0 ba 44 57 75 3a 9e ec c6 b9 3b 44 62 3b
       -0.0012270836 0.0009359012 -0.00037941796 0.0034525532
0002b0 19 2c dd 3a 26 17 b3 3a dc e3 3b 3b 38 7b 27 3b
       0.0016874104 0.0013663515 0.002866975 0.0025555622
0002c0 a6 f6 18 3b 2a eb 59 ba 30 d0 62 ba 50 6c c3 3a
       0.0023340373 -0.0008312935 -0.0008652238 0.0014909599
0002d0 09 66 4b 3a 68 20 76 39 fd b0 aa b9 85 d9 46 39
       0.000775904 0.0002347246 -0.00032556793 0.00018963784
0002e0 a2 be 13 b8 ea c2 dc ba 03 6e 76 3b 73 cb ed 3a
       -3.522507e-05 -0.0016842757 0.0037602193 0.0018142298
0002f0 cb 43 10 3b 70 28 40 3b 65 26 83 b9 0d cd 0a 3b
       0.0022013064 0.0029320978 -0.00025014873 0.0021179349
000300 80 ac ca ba 9e ad 9d ba e2 c3 61 b7 de a7 94 3a
       -0.0015462786 -0.0012029891 -1.3456653e-05 0.0011341532
000310 a8 98 40 3a 81 4d bd ba 9d 2b 77 3b 01 39 59 3a
       0.00073469663 -0.0014442654 0.0037715205 0.00082863873
000320 f7 b1 d9 b9 6d 3d fa 3a 9b 2b c7 3a e0 8f a6 b9
       -0.0004152206 0.0019091793 0.001519549 -0.00031769183
000330 a1 90 d0 3a 9b 1c 8b 39 be 84 40 ba b9 3c 82 3b
       0.0015912243 0.0002653346 -0.0007343999 0.003974524
000340 fe 31 fb 3a 4c fb ee ba e3 8b 23 3b 22 c0 d6 ba
       0.0019164679 -0.0018232851 0.0024955205 -0.0016384164
000350 2d 20 07 3b 29 e7 a2 ba 6a 89 68 3b 89 27 d8 ba
       0.0020618543 -0.001242851 0.0035482296 -0.0016491275
000360 8b ad a6 38 a5 3f 89 ba dc 31 94 ba 9d e4 10 3b
       7.947822e-05 -0.0010471238 -0.0011306363 0.002210892
000370 8c 2e 1a 3a 66 16 6d 39 9f 84 89 ba e4 ee 64 39
       0.000588157 0.00022610425 -0.0010491795 0.00021832768
000380 c8 60 8a ba 55 23 77 3b 19 4c 2d 3b c3 7a 81 3a
       -0.0010557408 0.0037710269 0.0026443063 0.0009878505
000390 28 40 d2 3a 21 58 a5 ba 3c 24 a4 b8 13 61 c8 3a
       0.0016040849 -0.0012614765 -7.8268786e-05 0.001528772
0003a0 55 39 cd 3a 3e 8f 4b 3a ce 05 c3 3a 9b 33 90 3a
       0.0015657345 0.000776518 0.0014879049 0.0011001708
0003b0 da 00 03 3b 3a 16 b4 3a 18 7a 39 3b 6d 0b 05 ba
       0.0019989521 0.0013739534 0.0028301533 -0.000507525
0003c0 b5 2d 61 ba 30 6a cb ba 1b 33 82 3b 9f 53 00 bb
       -0.000858988 -0.0015519317 0.0039733774 -0.0019581092
0003d0 50 fd 11 ba 51 03 39 3b 31 3e 92 3a a4 b6 96 ba
       -0.00055690575 0.0028230736 0.001115745 -0.0011498523
0003e0 69 b7 15 ba 4f e1 f5 ba 8f c5 1d bb c9 b1 a8 ba
       -0.0005711229 -0.0018759164 -0.0024074053 -0.0012870367
0003f0 4e 1c 01 3a 7e 44 cb b8 7e 31 d8 ba fe ed 48 b9
       0.0004925177 -9.692552e-05 -0.0016494242 -0.00019162145

bn.weight f4 [400]
000000 64 eb 4c 3e 3c b9 40 3e 0a 29 e1 3e a1 6e 4d 3f
       0.2001167 0.18820661 0.43976623 0.8024693
000010 82 41 3f 3f 01 2c 4a 3f de 8d b8 3e 5e 5a bf 3e
       0.7470933 0.78973395 0.36045736 0.37373632
000020 68 61 b5 3e 40 35 71 3c 2d 79 16 3f ea 0c 70 3f
       0.35425878 0.014722168 0.5877865 0.93769705
000030 c8 12 66 3e 52 f5 37 3f 16 1f c1 3e 58 8e 9e 3e
       0.22468102 0.71858704 0.3771903 0.30967975
000040 b0 7d e8 3d 63 35 08 3f 96 a6 9a 3e d1 07 36 3f
       0.11352098 0.5320646 0.3020522 0.71105677
000050 4e 99 13 3f 0f 42 76 3f 10 9b 34 3e 58 b4 67 3f
       0.576558 0.9619455 0.17637277 0.9050956
000060 00 f1 d7 3d 46 ca 87 3e 1a 0b 55 3f 28 93 d0 3d
       0.10544014 0.2652151 0.83220065 0.10184318
000070 9d a0 0f 3f 4d c0 29 3f ee 80 95 3e 60 52 6b 3f
       0.5610445 0.6630905 0.29199928 0.9192257
000080 90 2c fd 3d cb 90 11 3f d2 f0 25 3f 3b 8e 0e 3f
       0.12362015 0.5686156 0.6482059 0.55685776
000090 ce 43 38 3f 4c 72 ab 3e ac 53 68 3f d0 a4 d7 3d
       0.7197846 0.3348564 0.90752673 0.10529482
0000a0 0a 4d 86 3e db bc 52 3f 58 de 4a 3e 43 aa 01 3f
       0.2623065 0.8231942 0.1981138 0.50650424
0000b0 42 16 58 3f 0e ea 4e 3f 94 90 8e 3e 04 c7 d6 3e
       0.8440896 0.8082589 0.2784468 0.41948712
0000c0 14 aa 20 3f e7 e1 1a 3f 3d f6 7b 3f 30 56 e7 3d
       0.6275952 0.6050095 0.98422605 0.11295736
0000d0 c4 3c b8 3e 1e c1 c4 3e c8 78 4d 3e 30 6a b0 3d
       0.3598386 0.38428587 0.20065606 0.08614004
0000e0 fe 53 4c 3f 61 8b 0b 3f 2c 74 01 3f 03 2f 58 3f
       0.7981566 0.5450955 0.5056789 0.84446734
0000f0 8a ad 9f 3e 16 fc eb 3e 6a 28 6b 3f 37 4b 08 3f
       0.31187087 0.46090764 0.9185854 0.5323977
000100 d7 ea 04 3f 60 c0 8e 3d d4 c6 85 3e 38 53 7f 3f
       0.5192084 0.06970286 0.26128256 0.99736357
000110 00 7c c0 3e cc 44 f3 3e 7f f9 23 3f c8 bc 5a 3e
       0.37594604 0.47513425 0.64052576 0.21361077
000120 08 7e fa 3e 74 46 0a 3f f4 23 7f 3f 6b d7 15 3f
       0.4892428 0.5401375 0.99664235 0.58531827
000130 3a 65 a9 3e 30 fd 23 3f 1f ea 61 3f 51 e6 4b 3f
       0.33085042 0.6405821 0.88247865 0.7964831
000140 89 da 7a 3f 40 a3 e8 3d 25 76 44 3f 4e f0 5c 3f
       0.9798971 0.113592625 0.76742774 0.86304176
000150 00 81 60 3e 80 03 68 3f a5 de 44 3f 98 d9 eb 3e
       0.2192421 0.9063034 0.7690223 0.46064448
000160 00 bf 8f 3c f8 d5 79 3e fc 1b 12 3e 58 f3 ad 3d
       0.01754713 0.24398029 0.14268488 0.0849368
000170 30 b8 8d 3d c6 1a a4 3e f0 a7 7e 3f bc 1b 61 3f
       0.069198966 0.32051677 0.99475 0.87932944
000180 4e 11 9e 3e 5a a0 09 3f f0 f1 63 3d 42 59 ed 3e
       0.30872577 0.537603 0.05565065 0.4635716
000190 b8 ef 98 3d cf 2b 4f 3f a0 71 de 3c c0 81 35 3e
       0.07467598 0.8092622 0.02715379 0.17725277
0001a0 aa 01 4d 3f d3 9a 47 3f 00 f5 ce 3b ad ed 54 3f
       0.80080664 0.7797062 0.0063158274 0.83175164
0001b0 ad 02 0e 3f 0c 86 f1 3e e8 52 c2 3d 08 2b db 3d
       0.5547283 0.47172582 0.09488469 0.10701567
0001c0 24 c3 0b 3f 66 7b 7a 3f cf 51 59 3f 58 49 02 3e
       0.54594636 0.9784454 0.84890455 0.12723291
0001d0 80 db 85 3d f4 3c 47 3f 2b 48 2e 3f 38 58 96 3d
       0.06536007 0.7782738 0.6807887 0.07341045
0001e0 c8 65 75 3e 88 50 68 3e 20 55 72 3e 08 1e cc 3d
       0.23964608 0.2268697 0.23665285 0.099666655
0001f0 b0 54 f2 3d ee 30 7c 3f f3 56 5f 3f 28 b2 38 3e
       0.11832559 0.9851216 0.8724205 0.18036711
000200 bc b5 00 3f 1d 61 5c 3f 32 9d 09 3f 76 38 b7 3e
       0.50277305 0.86085683 0.53755486 0.35785264
000210 01 3f 7e 3f 64 ce 24 3e 62 7f 8b 3e 9c 38 94 3e
       0.99314886 0.16094357 0.27245623 0.2894944
000220 b2 8e bd 3e 98 01 b6 3e 48 1d 16 3f 82 5a 0a 3f
       0.3702293 0.3554809 0.5863843 0.54044354
000230 08 2d ab 3d bb af 32 3f be f8 f0 3e 71 68 26 3f
       0.083581984 0.69799393 0.47064775 0.65003115
000240 d4 75 f6 3e c0 53 52 3e 31 15 02 3f c0 b8 10 3e
       0.4813677 0.2053976 0.50813586 0.14132977
000250 3b da 32 3f 66 de 9e 3e 82 4b f3 3e 70 40 15 3f
       0.69864243 0.31029052 0.47518545 0.5830145
000260 25 56 3a 3f 9b 73 64 3f c1 3e 32 3f e9 e1 65 3f
       0.72787696 0.892389 0.69627005 0.89797837
000270 bf 99 60 3f 31 19 10 3f 72 4d 70 3f 3c fc 57 3f
       0.877346 0.5628844 0.9386817 0.84369254
000280 fd c0 74 3f 40 e4 1e 3e 28 f4 f4 3d 5f 7f 1e 3f
       0.95606977 0.15516758 0.119606316 0.619131
000290 80 2e 0c 3f d2 52 a7 3e e9 43 4c 3f c3 26 54 3f
       0.54758453 0.32680374 0.7979112 0.82871646
0002a0 e3 5e 17 3f ae d7 34 3f 27 1c 2d 3f 54 d6 65 3e
       0.5912916 0.706416 0.6762108 0.22445041
0002b0 f0 4a 55 3e 39 03 32 3f 9e c0 d4 3e 10 8f 3d 3e
       0.20829368 0.6953617 0.41553205 0.18511605
0002c0 97 98 6f 3f 16 7e cd 3e 0b c0 17 3f 72 cf d9 3e
       0.9359221 0.40135258 0.5927741 0.4254108
0002d0 3e 6a e5 3e 24 32 5d 3e c4 31 4b 3e 9e 15 29 3f
       0.4480762 0.21601158 0.19843203 0.6604861
0002e0 50 87 bc 3d e0 19 da 3d e0 1c 1b 3e 51 cd 3a 3f
       0.09205496 0.106494665 0.15147734 0.7296954
0002f0 ae 13 bd 3e c0 86 88 3d d1 f2 7d 3f cc c4 24 3f
       0.36929077 0.066663265 0.99198633 0.6436279
000300 7a d5 1d 3f 38 4d f2 3d 8b d9 54 3f 12 1e 68 3f
       0.61653864 0.118311346 0.83144444 0.90670884
000310 10 aa 7e 3e 24 e1 48 3f 9c 31 e0 3e da 70 a4 3e
       0.24869561 0.7846854 0.4378785 0.3211735
000320 c0 de 19 3d 58 dd 19 3e 80 be 9f 3c 83 d0 7a 3f
       0.037565947 0.15025842 0.019500017 0.97974414
000330 85 91 2e 3f 9a 64 76 3f 5e f7 f0 3e f2 dd 24 3f
       0.68190795 0.96247256 0.47063726 0.6440116
000340 94 3f 28 3f 4f 58 56 3f 1f 59 65 3f 28 fe a1 3d
       0.6572201 0.837285 0.89589113 0.079098046
000350 89 36 78 3f 6f fc 39 3f 64 8e 33 3f e0 2e c3 3d
       0.96958214 0.7265081 0.70139146 0.09530425
000360 34 7a 7e 3f 8b 47 70 3f f8 10 e6 3e b0 e5 7a 3d
       0.9940522 0.93859166 0.4493482 0.061254203
000370 00 e6 d7 3e 48 43 a9 3d d2 50 8c 3e d8 10 e1 3d
       0.42167664 0.08264786 0.2740541 0.10989541
000380 88 24 d8 3d e0 e0 c7 3c 36 9d 07 3f 40 8a 9b 3e
       0.10553843 0.024399221 0.5297426 0.30378914
000390 38 84 f8 3e 72 b6 f6 3e bc 50 02 3e ef 25 1c 3f
       0.48538375 0.4818607 0.1272611 0.6099538
0003a0 3a f0 76 3f b8 a1 d5 3e 60 05 7a 3d 54 ed 7c 3e
       0.96460307 0.41724944 0.061040282 0.24699908
0003b0 78 04 13 3e 80 97 1a 3e e2 5f 87 3e 1d 44 1d 3f
       0.14357173 0.15096855 0.2644034 0.6143206
0003c0 88 a5 8e 3d b6 c2 3c 3f 46 cf 5f 3f c0 c3 42 3d
       0.06965166 0.73734605 0.8742565 0.047549963
0003d0 9e 92 52 3f c0 cd 72 3d 10 c9 7e 3d 62 ad 0e 3f
       0.8225497 0.05927825 0.062203467 0.5573331
0003e0 50 fe b1 3e 60 43 53 3d 0e a1 6a 3f 7e 72 f9 3e
       0.34764338 0.051577926 0.91652 0.48720163
0003f0 14 e5 03 3f 78 f9 d1 3e 06 c9 af 3e 6c fb 03 3e
       0.5152142 0.41010642 0.34333056 0.12888879

bn.bias f4 [400]
000000 00 00 00 00 00 00 00 00 00 00 00 00 00 00 00 00
       0.0 0.0 0.0 0.0
000010 00 00 00 00 00 00 00 00 00 00 00 00 00 00 00 00
       0.0 0.0 0.0 0.0
000020 00 00 00 00 00 00 00 00 00 00 00 00 00 00 00 00
       0.0 0.0 0.0 0.0
000030 00 00 00 00 00 00 00 00 00 00 00 00 00 00 00 00
       0.0 0.0 0.0 0.0
000040 00 00 00 00 00 00 00 00 00 00 00 00 00 00 00 00
       0.0 0.0 0.0 0.0
000050 00 00 00 00 00 00 00 00 00 00 00 00 00 00 00 00
       0.0 0.0 0.0 0.0
000060 00 00 00 00 00 00 00 00 00 00 00 00 00 00 00 00
       0.0 0.0 0.0 0.0
000070 00 00 00 00 00 00 00 00 00 00 00 00 00 00 00 00
       0.0 0.0 0.0 0.0
000080 00 00 00 00 00 00 00 00 00 00 00 00 00 00 00 00
       0.0 0.0 0.0 0.0
000090 00 00 00 00 00 00 00 00 00 00 00 00 00 00 00 00
       0.0 0.0 0.0 0.0
0000a0 00 00 00 00 00 00 00 00 00 00 00 00 00 00 00 00
       0.0 0.0 0.0 0.0
0000b0 00 00 00 00 00 00 00 00 00 00 00 00 00 00 00 00
       0.0 0.0 0.0 0.0
0000c0 00 00 00 00 00 00 00 00 00 00 00 00 00 00 00 00
       0.0 0.0 0.0 0.0
0000d0 00 00 00 00 00 00 00 00 00 00 00 00 00 00 00 00
       0.0 0.0 0.0 0.0
0000e0 00 00 00 00 00 00 00 00 00 00 00 00 00 00 00 00
       0.0 0.0 0.0 0.0
0000f0 00 00 00 00 00 00 00 00 00 00 00 00 00 00 00 00
       0.0 0.0 0.0 0.0
000100 00 00 00 00 00 00 00 00 00 00 00 00 00 00 00 00
       0.0 0.0 0.0 0.0
000110 00 00 00 00 00 00 00 00 00 00 00 00 00 00 00 00
       0.0 0.0 0.0 0.0
000120 00 00 00 00 00 00 00 00 00 00 00 00 00 00 00 00
       0.0 0.0 0.0 0.0
000130 00 00 00 00 00 00 00 00 00 00 00 00 00 00 00 00
       0.0 0.0 0.0 0.0
000140 00 00 00 00 00 00 00 00 00 00 00 00 00 00 00 00
       0.0 0.0 0.0 0.0
000150 00 00 00 00 00 00 00 00 00 00 00 00 00 00 00 00
       0.0 0.0 0.0 0.0
000160 00 00 00 00 00 00 00 00 00 00 00 00 00 00 00 00
       0.0 0.0 0.0 0.0
000170 00 00 00 00 00 00 00 00 00 00 00 00 00 00 00 00
       0.0 0.0 0.0 0.0
000180 00 00 00 00 00 00 00 00 00 00 00 00 00 00 00 00
       0.0 0.0 0.0 0.0
000190 00 00 00 00 00 00 00 00 00 00 00 00 00 00 00 00
       0.0 0.0 0.0 0.0
0001a0 00 00 00 00 00 00 00 00 00 00 00 00 00 00 00 00
       0.0 0.0 0.0 0.0
0001b0 00 00 00 00 00 00 00 00 00 00 00 00 00 00 00 00
       0.0 0.0 0.0 0.0
0001c0 00 00 00 00 00 00 00 00 00 00 00 00 00 00 00 00
       0.0 0.0 0.0 0.0
0001d0 00 00 00 00 00 00 00 00 00 00 00 00 00 00 00 00
       0.0 0.0 0.0 0.0
0001e0 00 00 00 00 00 00 00 00 00 00 00 00 00 00 00 00
       0.0 0.0 0.0 0.0
0001f0 00 00 00 00 00 00 00 00 00 00 00 00 00 00 00 00
       0.0 0.0 0.0 0.0
000200 00 00 00 00 00 00 00 00 00 00 00 00 00 00 00 00
       0.0 0.0 0.0 0.0
000210 00 00 00 00 00 00 00 00 00 00 00 00 00 00 00 00
       0.0 0.0 0.0 0.0
000220 00 00 00 00 00 00 00 00 00 00 00 00 00 00 00 00
       0.0 0.0 0.0 0.0
000230 00 00 00 00 00 00 00 00 00 00 00 00 00 00 00 00
       0.0 0.0 0.0 0.0
000240 00 00 00 00 00 00 00 00 00 00 00 00 00 00 00 00
       0.0 0.0 0.0 0.0
000250 00 00 00 00 00 00 00 00 00 00 00 00 00 00 00 00
       0.0 0.0 0.0 0.0
000260 00 00 00 00 00 00 00 00 00 00 00 00 00 00 00 00
       0.0 0.0 0.0 0.0
000270 00 00 00 00 00 00 00 00 00 00 00 00 00 00 00 00
       0.0 0.0 0.0 0.0
000280 00 00 00 00 00 00 00 00 00 00 00 00 00 00 00 00
       0.0 0.0 0.0 0.0
000290 00 00 00 00 00 00 00 00 00 00 00 00 00 00 00 00
       0.0 0.0 0.0 0.0
0002a0 00 00 00 00 00 00 00 00 00 00 00 00 00 00 00 00
       0.0 0.0 0.0 0.0
0002b0 00 00 00 00 00 00 00 00 00 00 00 00 00 00 00 00
       0.0 0.0 0.0 0.0
0002c0 00 00 00 00 00 00 00 00 00 00 00 00 00 00 00 00
       0.0 0.0 0.0 0.0
0002d0 00 00 00 00 00 00 00 00 00 00 00 00 00 00 00 00
       0.0 0.0 0.0 0.0
0002e0 00 00 00 00 00 00 00 00 00 00 00 00 00 00 00 00
       0.0 0.0 0.0 0.0
0002f0 00 00 00 00 00 00 00 00 00 00 00 00 00 00 00 00
       0.0 0.0 0.0 0.0
000300 00 00 00 00 00 00 00 00 00 00 00 00 00 00 00 00
       0.0 0.0 0.0 0.0
000310 00 00 00 00 00 00 00 00 00 00 00 00 00 00 00 00
       0.0 0.0 0.0 0.0
000320 00 00 00 00 00 00 00 00 00 00 00 00 00 00 00 00
       0.0 0.0 0.0 0.0
000330 00 00 00 00 00 00 00 00 00 00 00 00 00 00 00 00
       0.0 0.0 0.0 0.0
000340 00 00 00 00 00 00 00 00 00 00 00 00 00 00 00 00
       0.0 0.0 0.0 0.0
000350 00 00 00 00 00 00 00 00 00 00 00 00 00 00 00 00
       0.0 0.0 0.0 0.0
000360 00 00 00 00 00 00 00 00 00 00 00 00 00 00 00 00
       0.0 0.0 0.0 0.0
000370 00 00 00 00 00 00 00 00 00 00 00 00 00 00 00 00
       0.0 0.0 0.0 0.0
000380 00 00 00 00 00 00 00 00 00 00 00 00 00 00 00 00
       0.0 0.0 0.0 0.0
000390 00 00 00 00 00 00 00 00 00 00 00 00 00 00 00 00
       0.0 0.0 0.0 0.0
0003a0 00 00 00 00 00 00 00 00 00 00 00 00 00 00 00 00
       0.0 0.0 0.0 0.0
0003b0 00 00 00 00 00 00 00 00 00 00 00 00 00 00 00 00
       0.0 0.0 0.0 0.0
0003c0 00 00 00 00 00 00 00 00 00 00 00 00 00 00 00 00
       0.0 0.0 0.0 0.0
0003d0 00 00 00 00 00 00 00 00 00 00 00 00 00 00 00 00
       0.0 0.0 0.0 0.0
0003e0 00 00 00 00 00 00 00 00 00 00 00 00 00 00 00 00
       0.0 0.0 0.0 0.0
0003f0 00 00 00 00 00 00 00 00 00 00 00 00 00 00 00 00
       0.0 0.0 0.0 0.0
