projects/tennis/checkpoint/E25/E25.06_critic1_30000.pt (torch_old, 502006 bytes, 9 tensors)

fcs1.weight f4 [400, 48]
-0.04647601 0.02262848 -0.037921853 -0.040547013 -0.0103548 0.023486415 -0.043122962 0.005347026
-0.047113363 0.0096712 -0.0033170392 0.005913101 -0.023377428 0.008185484 -0.044241305 0.044794146
-0.0007245606 -0.044920407 0.007990428 0.008892821 -0.011494076 0.046389554 -0.022350147 0.01907778
0.011668782 0.02650549 0.021573525 0.045324713 -0.00037260167 0.021337787 0.019229244 0.007162563
0.028300438 0.007992336 -0.03229421 -0.04924486 -0.008818566 0.034595687 -0.016433936 -0.029867066
-0.0160183 0.039145265 0.0257578 -0.0013802126 -0.012951739 -0.006777057 0.036617223 0.037896264
0.016393952 0.046790067 0.021802187 0.0057784733 -0.01675592 0.004327761 -0.0021303624 -0.026165795
-0.044723753 0.02680224 -0.04533066 -0.045306068 0.010382571 -0.019724622 -0.015929503 -0.03815565
-0.046896342 0.04445261 0.010517924 0.0053370125 -0.007996825 0.021407291 0.027881015 -0.028369926
-0.04553478 0.017168155 -0.01553672 0.015472852 0.030226516 0.027085423 -0.007671786 0.004383643
-0.048820686 0.027186759 -0.027432574 -0.016515752 -0.032738045 0.030908592 0.049581133 0.014189337
0.046228252 -0.010459139 0.013420137 -0.0025540674 0.045576435 -0.013531794 0.0061448594 0.0015202359
0.006432038 -0.028336434 -0.03325086 0.0069530657 -0.047452673 -0.03667835 0.022952957 -0.04515663
-0.017042188 0.048233517 -0.047994904 0.017398302 -0.028264198 -0.044045933 -0.04056462 -0.03233087
-0.0056154006 -0.030679263 -0.015590408 0.008867494 -0.022450171 -0.031935435 -0.02640508 -0.013311946
-0.017583111 0.0026803429 -0.005455545 0.015570121 0.041014053 -0.00096038036 -0.02833442 -0.0014975927
-0.01639816 0.01964125 -0.03377138 -0.046458893 0.042617332 -0.03503356 -0.04614001 0.023408458
-0.029816033 -0.012764589 0.008605886 0.048497785 -0.0041424427 -0.046975583 -0.0119621195 -0.022871627
-0.029208455 0.04320385 0.02166388 0.033501945 0.006061307 -0.04357283 0.004167387 -0.018548843
-0.01571301 0.043051217 -0.0066161514 -0.038570665 -0.03746352 -0.023044227 0.012932121 0.013035816
-0.039299395 -0.027678544 -0.023542952 -0.032007527 0.018352192 -0.04358868 -0.04647313 -0.030112876
-0.042109527 0.00015073743 -0.037533022 -0.040557683 -0.040131025 0.021981234 -0.013669755 -0.011726816
0.023710897 -0.0042338115 -0.041522745 -0.014968742 0.025319364 -0.009568304 0.03150921 0.042592775
0.034555506 0.024865592 -0.012105757 0.04892748 -0.011897523 0.006222554 -0.027210899 -0.048327975
0.003583593 -0.010389325 -0.035880204 0.01800015 0.0052596955 0.04328368 -0.012711627 0.007230669
0.04524497 0.030082583 -0.023008918 0.0113901375 0.032377753 0.031340394 -0.048878748 0.044726003
-0.012332322 -0.010045955 -0.009713843 -0.009134709 4.243484e-05 0.026260016 -0.021578476 0.01840718
-0.018728668 0.031441417 -0.037008032 0.0031075252 -0.02299488 -0.048436467 0.034350414 -0.011584189
-0.02605835 0.0065460894 -0.01919874 -0.03679657 -0.022475213 -0.010113131 -0.030947085 0.0069900122
-0.031539246 -0.027748797 0.046163253 0.036956713 -0.02520618 -0.0036829652 -0.04386471 0.032301016
0.009240757 0.0067717903 -0.005241119 0.00050634815 -0.007394695 -0.041284077 -0.03445146 -0.020546323
0.010797341 0.017602699 0.04192629 0.0059858444 0.0071052266 0.045343142 0.0013420624 -0.040530454
00000000: a15d 3ebd 5d5f b93c f253 1bbd a014 26bd
00000010: 2ea7 29bc 9566 c03c b4a1 30bd 1b36 af3b
00000020: f1f9 40bd f473 1e3c af62 59bb b0c2 c13b
00000030: 0582 bfbc 691c 063c 5f36 35bd 117a 373d
00000040: 70f0 3dba 76fe 37bd 49ea 023c 32b3 113c
00000050: a651 3cbc f902 3e3d a817 b7bc 0149 9c3c
00000060: 6b2e 3f3c 0b22 d93c f6ba b03c 68a6 393d
00000070: c059 c3b9 95cc ae3c a686 9d3c efb3 ea3b
00000080: 52d6 e73c 49f2 023c ef46 04bd fab4 49bd
00000090: bf7b 10bc 35b4 0d3d 76a0 86bc c7ab f4bc
000000a0: cf38 83bc c956 203d 0602 d33c 40e8 b4ba
000000b0: 8833 54bc 1312 debb f1fb 153d 1d39 1b3d
000000c0: 9c4c 863c f1a6 3f3d 809a b23c 5959 bd3b
000000d0: b643 89bc e4cf 8d3b 8d9d 0bbb a659 d6bc
000000e0: 4130 37bd 5f90 db3c a4ac 39bd db92 39bd
000000f0: a91b 2a3c 8895 a1bc 977e 82bc 1949 1cbd
00000100: 6116 40bd f113 363d 5f53 2c3c 1be2 ae3b
00000110: 1d05 03bc 585e af3c ba66 e43c 0c68 e8bc
00000120: ad82 3abd 3ba4 8c3c ba8d 7ebc d881 7d3c
00000130: 999d f73c 40e2 dd3c 9b63 fbbb aaa4 8f3b
00000140: 33f8 47bd c4b6 de3c 47ba e0bc 0b4c 87bc
00000150: 5418 06bd 0434 fd3c 9615 4b3d 657a 683c
00000160: d659 3d3d cf5c 2bbc 22e0 5b3c 2462 27bb
00000170: 5bae 3a3d 75b4 5dbc d15a c93b a742 c73a
00000180: d8c3 d23b cf21 e8bc 0e32 08bd 8bd6 e33b
00000190: bc5d 42bd 0a3c 16bd d707 bc3c 29f6 38bd
000001a0: 0f9c 8bbc 8290 453d 4e96 44bd e286 8e3c
000001b0: 528a e7bc 8269 34bd 1627 26bd 606d 04bd
000001c0: 6501 b8bb 1453 fbbc e96e 7fbc f748 113c
000001d0: 6ce9 b7bc bbce 02bd 774f d8bc 591a 5abc
000001e0: 750a 90bc b1a8 2f3b 6ec4 b2bb d219 7f3c
000001f0: 5afe 273d 09c2 7bba 961d e8bc df4a c4ba
00000200: 6f55 86bc b0e6 a03c dc53 0abd ae4b 3ebd
00000210: 838f 2e3d 5a7f 0fbd 4ffd 3cbd 18c3 bf3c
00000220: c140 f4bc 9122 51bc b4ff 0c3c 9da5 463d
00000230: 54bd 87bb 7869 40bd c4fc 43bc 475d bbbc
00000240: 9246 efbc 85f6 303d 7378 b13c 5639 093d
00000250: ee9d c63b 6c79 32bd 938e 883b bef3 97bc
00000260: 92b8 80bc 7956 303d 4dcc d8bb 46fc 1dbd
00000270: 5973 19bd 3fc7 bcbc 3fe1 533c 2d94 553c
00000280: 67f8 20bd 1dbe e2bc 26dd c0bc 531a 03bd
00000290: 5657 963c 0b8a 32bd 9c5a 3ebd 47af f6bc
000002a0: 0a7b 2cbd 450f 1e39 3abc 19bd d01f 26bd
000002b0: 6e60 24bd fd11 b43c 1cf7 5fbc d521 40bc
000002c0: 5b3d c23c c9bb 8abb c113 2abd 743f 75bc
000002d0: 8e6a cf3c 60c4 1cbc cd0f 013d c375 2e3d
000002e0: 138a 0d3d edb2 cb3c 3a57 46bc 2e68 483d
000002f0: d4ed 42bc 91e6 cb3b 64e9 debc 8ef3 45bd
00000300: b7da 6a3b fd37 2abc 1ff7 12bd 0d75 933c
00000310: 8659 ac3b 3a4a 313d 6e44 50bc 3fef ec3b
00000320: ca52 393d c06f f63c 337d bcbc b39d 3a3c
00000330: 899e 043d c95e 003d 1535 48bd 9d32 373d
00000340: 820d 4abc ca97 24bc d026 1fbc bfa9 15bc
00000350: 10fc 3138 3f1f d73c 58c5 b0bc a8ca 963c
00000360: dd6c 99bc b7c8 003d bc95 17bd 9fa7 4b3b
00000370: c25f bcbc 5165 46bd 05b3 0c3d 9ccb 3dbc
00000380: 5278 d5bc 9480 d63b ad46 9dbc 00b8 16bd
00000390: f01d b8bc 8cb1 25bc be84 fdbc 790c e53b
000003a0: 4c2f 01bd 7251 e3bc ae15 3d3d ec5f 173d
000003b0: 317d cebc e75d 71bb 7bab 33bd 124e 043d
000003c0: 8b66 173c e5e5 dd3b b1bd abbb 73bc 043a
000003d0: 334f f2bb 7e19 29bd f91c 0dbd c350 a8bc
000003e0: 55e7 303c 8933 903c e7ba 2b3d e724 c43b
000003f0: f6d2 e83b bbb9 393d 24e8 af3a 4303 26bd

fcs1.bias f4 [400]
0.13023148 -0.10323202 0.14063714 -0.064323105 -0.06211395 0.025762962 -0.037623864 -0.09948343
0.1283736 0.037464697 -0.069169134 0.06011377 0.039852116 0.048865456 0.062229436 -0.044158056
0.08125055 -0.10649945 0.14322583 0.062027752 0.039659575 -0.009662107 -0.051627524 -0.07393852
-0.03596101 -0.019537581 -0.11085106 0.105456695 0.08503754 0.10510062 0.14231017 0.0917625
-0.00089031126 -0.043013554 0.0055983183 0.113288656 -0.114281245 -0.020407805 -0.034639735 0.06736334
0.06565518 -0.14009124 -0.042882707 0.0874482 -0.024079522 -0.084548645 -0.09709347 0.02674572
-0.043375622 -0.050809488 -0.09654693 0.06770401 0.0017787297 0.015993597 -0.12512927 0.0034890098
-0.049501717 0.063191995 -0.078996256 0.09985855 0.10977756 -0.012940117 0.10809686 0.027301397
0.12475043 -0.07781063 -0.00031608564 0.10514202 0.0554139 0.09718473 -0.082708016 0.11188678
0.09787791 0.09965251 0.10029413 0.036657322 0.005016052 -0.029283093 -0.113793515 -0.05897511
-0.034837794 -0.08904481 -0.051901687 0.12518379 0.09481548 -0.018225173 -0.13800707 0.118111864
-0.05398265 0.0700555 0.034739584 0.08025549 0.10086782 0.08454205 0.08368707 -0.12010761
-0.05537706 0.01137148 -0.09770301 0.056397054 0.022554899 -0.030367654 0.0034598617 -0.06062286
0.1243312 -0.008266073 0.07312086 0.13382603 0.08636318 -0.09021407 -0.091737226 -0.06774187
-0.006258746 0.10469354 0.045262624 0.07442394 0.04929915 -0.00947583 -0.09626271 -0.09539817
-0.006941368 0.08380692 0.14118497 0.1187822 -0.13910514 0.14023165 -0.13131937 0.004721494
-0.0321322 0.014636334 0.09579898 -0.00784852 0.042421993 0.12618387 0.10777844 0.050687928
0.14108066 0.07345343 0.07553197 -0.00919167 0.021073556 0.014997772 0.08524007 -0.118732214
-0.12208241 0.078915454 -0.114677794 0.014777155 0.12895349 -0.12181113 -0.06891552 0.11474943
-0.06669476 0.10951592 -0.05074254 -0.11845047 -0.03716158 0.011680523 0.08854502 -0.038876854
-0.000114803035 0.0010545554 -0.1438215 -0.07744538 -0.04021838 -0.06992176 -0.08867971 -0.047284566
0.0082722735 0.13938515 -0.00048489356 -0.12136735 -0.10896812 -0.04818043 0.003200356 0.12667869
-0.07571554 -0.08377909 0.117358096 0.07985204 -0.09314863 -0.06127613 -0.06688502 0.06685965
0.07506932 0.01910891 -0.02280552 0.009659074 -0.029025512 -0.08017628 0.05246911 -0.10409913
0.09716965 0.06280378 0.061075907 0.10379166 -0.08626967 0.0697779 -0.054496717 0.014778207
-0.12316693 0.06787392 -0.10790599 -0.098127685 -0.011533882 -0.089434184 -0.08023546 -0.045418035
-0.010767058 0.06456613 -0.052291296 0.111825846 -0.12260252 0.029963767 0.10771622 0.052460987
-0.079187825 0.0637299 0.076333195 0.054698538 0.117627874 0.08316318 0.032760203 -0.034771346
0.12838872 0.10840607 0.06521768 -0.13383922 -0.13567531 -0.10066715 -0.10871744 -0.013798966
-0.044048496 -0.12032715 0.12630002 -0.114457294 0.07469465 -0.08874103 -0.114548065 -0.03382951
-0.03825941 0.042595275 -0.041868724 -0.06476317 -0.024424804 0.06954793 0.13383663 -0.09552312
0.012894672 0.08588185 0.048376203 0.072610095 0.10370643 -0.095280595 0.13948372 0.020914763
00000000: 675b 053e 4f6b d3bd 2f03 103e d5bb 83bd
00000010: 326b 7ebd d90c d33c 7b1b 1abd f8bd cbbd
00000020: 5e74 033e 9574 193d 8ca8 8dbd db39 763d
00000030: f93b 233d 2527 483d 4be4 7e3d 14df 34bd
00000040: b066 a63d 621c dabd cba9 123e d010 7e3d
00000050: 1472 223d d04d 1ebc 6277 53bd 146d 97bd
00000060: da4b 13bd 470d a0bc e105 e3bd aef9 d73d
00000070: 2928 ae3d fe3e d73d c2b9 113e faed bb3d
00000080: c763 69ba fb2e 30bd 1972 b73b e203 e83d
00000090: 490c eabd 452e a7bc 65e2 0dbd caf5 893d
000000a0: 3976 863d 1474 0fbe c7a5 2fbd 0b18 b33d
000000b0: 6b42 c5bc d727 adbd f1d8 c6bd d719 db3c
000000c0: a3aa 31bd 9c1d 50bd 66ba c5bd 66a8 8a3d
000000d0: 4424 e93a 0105 833c e321 00be dfa7 643b
000000e0: 50c2 4abd ce6a 813d cac8 a1bd a482 cc3d
000000f0: 0fd3 e03d c902 54bc e361 dd3d 2ea7 df3c
00000100: 277d ff3d 2e5b 9fbd 4cb8 a5b9 b354 d73d
00000110: b0f9 623d ca08 c73d d262 a9bd e524 e53d
00000120: 3774 c83d 9d16 cc3d 0267 cd3d fd25 163d
00000130: b25d a43b 19e3 efbc 930c e9bd e38f 71bd
00000140: 13b2 0ebd 205d b6bd dd96 54bd 2e30 003e
00000150: 9e2e c23d f54c 95bc ba51 0dbe a2e4 f13d
00000160: e91c 5dbd 4279 8f3d 184b 0e3d fe5c a43d
00000170: ca93 ce3d 6224 ad3d 2064 ab3d fbfa f5bd
00000180: 0ed3 62bd 724f 3a3c 8418 c8bd 9900 673d
00000190: 0dc5 b83c 96c5 f8bc d9be 623b ad4f 78bd
000001a0: 5ba1 fe3d 6c6e 07bc 64c0 953d b109 093e
000001b0: 2edf b03d 28c2 b8bd bae0 bbbd 40bc 8abd
000001c0: 2b16 cdbb 9169 d63d 4d65 393d 946b 983d
000001d0: e8ed 493d 8340 1bbc 6225 c5bd 1e60 c3bd
000001e0: 6a74 e3bb f6a2 ab3d cb92 103e 1544 f33d
000001f0: 9471 0ebe e398 0f3e 9678 06be c3b6 9a3b
00000200: 0e9d 03bd 3ccd 6f3c 4132 c43d 1497 00bc
00000210: afc2 2d3d 5836 013e f1ba dc3d 259e 4f3d
00000220: 7377 103e c06e 963d 81b0 9a3d a998 16bc
00000230: 73a2 ac3c 37b9 753c 5992 ae3d e029 f3bd
00000240: 5806 fabd 6d9e a13d 31dc eabd e11b 723c
00000250: 620c 043e 1d78 f9bd 9523 8dbd c001 eb3d
00000260: 4397 88bd e249 e03d 69d7 4fbd 2996 f2bd
00000270: be36 18bd aa5f 3f3c 1757 b53d 563d 1fbd
00000280: 69c2 f0b8 0239 8a3a f145 13be af9b 9ebd
00000290: 07bc 24bd 2433 8fbd b59d b5bd 76ad 41bd
000002a0: 6e88 073c fbba 0e3e 5039 feb9 728f f8bd
000002b0: ad2a dfbd d858 45bd 10bd 513b 0fb8 013e
000002c0: c010 9bbd 5f94 abbd 7159 f03d 7789 a33d
000002d0: b5c4 bebd aefc 7abd 03fb 88bd b6ed 883d
000002e0: f2bd 993d 4a8a 9c3c a4d2 babc 1841 1e3c
000002f0: e9c6 edbc 7633 a4bd d9e9 563d ed31 d5bd
00000300: e200 c73d 459f 803d bb2a 7a3d b990 d43d
00000310: 27ae b0bd b7e7 8e3d f337 5fbd 4b20 723c
00000320: f23e fcbd 7b01 8b3d d1fd dcbd 2bf7 c8bd
00000330: 9bf8 3cbc 4529 b7bd 7d52 a4bd 4308 3abd
00000340: 5068 30bc 3f3b 843d 662f 56bd f304 e53d
00000350: 0817 fbbd 9376 f53c 529a dc3d 55e1 563d
00000360: 3a2d a2bd d284 823d 9454 9c3d 930b 603d
00000370: e2e6 f03d 7551 aa3d 902f 063d 666c 0ebd
00000380: 5578 033e 0004 de3d d990 853d 260d 09be
00000390: 78ee 0abe 942a cebd 40a7 debd 0f15 62bc
000003a0: 326c 34bd 156e f6bd cb54 013e 9668 eabd
000003b0: 82f9 983d dbbd b5bd 2d98 eabd d090 0abd
000003c0: e6b5 1cbd 6278 2e3d 8a7e 2bbd 8ea2 84bd
000003d0: 8716 c8bc 256f 8e3d 780c 093e a0a1 c3bd
000003e0: 2d44 533c d3e2 af3d 2026 463d 9ab4 943d
000003f0: 0964 d43d 7922 c3bd d2d4 0e3e 7055 ab3c

fc2.weight f4 [256, 404]
-0.012566635 -0.058543544 -0.047521256 -0.015832648 -0.0101322 0.037890624 0.037694596 -0.016986046
0.013193214 -0.0029705644 -0.008355596 0.047240697 0.017901408 -0.047016166 -0.043256357 0.021218449
-0.016098643 -0.009026638 0.05473978 -0.020614019 -0.009476973 0.027483633 0.058233757 0.020819325
-0.022792509 -0.03865994 -0.05188284 -0.0016424828 -0.04419285 0.043431837 -0.050383158 -0.022416186
0.03393838 -0.04514835 -0.03862731 0.057214767 -0.053663082 0.04626199 0.031189168 0.008153521
0.047322012 0.053282775 -0.048324555 0.027210213 -0.010860558 -0.005897966 -0.030066425 -0.016990457
-0.054092534 -0.02418841 -0.03407552 -0.017593836 0.046707634 0.0014575146 -0.017668668 -0.008530063
0.024341092 0.041719496 -0.04574169 0.02115215 0.03607114 -0.059247814 0.057651002 0.008179034
-0.05960918 -0.05485725 0.026106276 0.05200111 -0.012389011 -0.039102156 0.01625136 0.031069878
0.018943068 0.02803235 0.011853955 0.03751654 0.016573189 -0.051372103 0.05394509 -0.008335247
-0.02392252 -0.010423569 -0.0117499195 0.034635697 0.038426075 -0.0018914585 -0.0088658305 -0.017851884
0.019076088 -0.027553495 -0.02258825 -0.025910886 -0.014060236 -0.014449014 0.016013188 -0.056989573
-0.031050917 -0.018221231 0.038689986 -0.057682127 0.053022098 0.03166458 0.04899656 -0.030795315
0.040322594 0.031874925 -0.014099277 0.057964094 -0.008886977 -0.04281624 -0.006848527 -0.03844486
-0.027371926 0.019211901 -0.055021293 -0.043283157 -0.054359447 -0.009087749 0.013920115 -0.05945252
0.020611122 0.05028897 0.043128207 -0.030843547 -0.022578914 0.025119618 0.0030888945 0.028218692
-0.051111747 -0.06013177 -0.007490456 0.0017512009 0.037425127 0.00874828 0.02581404 0.045613147
-0.042190105 -0.03365805 0.0034438919 0.040270723 0.03693794 -0.010855149 -0.028288355 -0.027720045
0.0028877642 -0.0024866075 0.024497919 0.040206786 -0.025743417 0.0156515 -0.02808847 -0.00075357093
-0.017470116 0.008059755 0.008615779 0.0056082765 0.037507065 -0.04773674 -0.038404565 0.019178161
0.032715034 0.06088857 0.0023780132 -0.022433888 0.042447727 -0.04189239 -0.044914514 0.021161271
-0.042786866 -0.03157058 -0.043440346 -0.05936483 -0.043658894 -0.00494022 0.051770765 0.047821112
-0.020770092 0.043175265 0.04560758 -0.006682593 0.03444287 0.025882969 0.05230551 0.013773759
0.0045340573 -0.05369511 0.018208489 -0.018354101 0.021353928 0.052574724 0.02465223 0.035685815
0.04715175 0.0038325773 -0.022833318 -0.04381307 0.03383894 -0.020372994 0.015783915 0.059499584
0.041047484 -0.037071224 -0.0032366624 -0.060025312 0.012484662 -0.047228456 0.034815166 -0.039705697
-0.044193033 -0.03627131 -0.061053593 0.040198587 0.045695573 -0.048618153 -0.027913246 0.018295614
0.048422933 -0.041746274 0.015347641 -0.013196773 0.018281654 -0.024189161 0.045021955 -0.04267404
0.06027215 0.007750979 0.049472064 -0.051964164 0.013347458 -0.039376043 -0.022260439 0.03294689
-0.025769008 -0.020514669 0.056220833 0.005895814 0.05489499 0.055282902 -0.03520839 0.013914741
0.051847063 -0.05201889 -0.035854515 0.025069125 -0.052190002 -0.023259843 -0.051038917 -0.017613864
-0.0073186024 0.019962324 -0.00952545 -0.006000523 0.017924057 0.05935141 -0.008374112 -0.037983738
00000000: 4ae4 4dbc 5bcb 6fbd a6a5 42bd 78b3 81bc
00000010: 8701 26bc 3333 1b3d a665 1a3d 5226 8bbc
00000020: 5a28 583c cdad 42bb e9e5 08bc 767f 413d
00000030: f9a5 923c 0694 40bd 942d 31bd 50d2 ad3c
00000040: 4de1 83bc 77e4 13bc d236 603d bbde a8bc
00000050: 4e45 1bbc 5b25 e13c 8586 6e3d 4a8d aa3c
00000060: 5bb7 babc e359 1ebd 1a83 54bd 9448 d7ba
00000070: 9003 35bd 95e5 313d 925e 4ebd 26a2 b7bc
00000080: f902 0b3d 7aed 38bd ac37 1ebd 085a 6a3d
00000090: d2cd 5bbd 367d 3d3d 6d80 ff3c 5996 053c
000000a0: bad4 413d 0a3f 5a3d f8ef 45bd f4e7 de3c
000000b0: 7bf0 31bc ba43 c1bb dd4d f6bc 922f 8bbc
000000c0: 2290 5dbd c626 c6bc c692 0bbd f320 90bc
000000d0: 8150 3f3d 130a bf3a e2bd 90bc adc1 0bbc
000000e0: f866 c73c 10e2 2a3d a35b 3bbd 4647 ad3c
000000f0: 55bf 133d d6ad 72bd 7523 6c3d 5b01 063c
00000100: c128 74bd ffb1 60bd d4dc d53c 1eff 543d
00000110: 47fb 4abc 9529 20bd 9221 853c 4286 fe3c
00000120: 7e2e 9b3c 19a4 e53c 1737 423c f2aa 193d
00000130: 7fc4 873c 8e6b 52bd 87f5 5c3d 8f90 08bc
00000140: 29f9 c3bc 9ec7 2abc bc82 40bc 29de 0d3d
00000150: a964 1d3d d1ea f7ba fd41 11bc 1d3e 92bc
00000160: 7545 9c3c deb7 e1bc fe0a b9bc 1143 d4bc
00000170: e75c 66bc 8fbb 6cbc 172e 833c e66d 69bd
00000180: 7e5e febc b144 95bc 6479 1e3d 1844 6cbd
00000190: b32d 593d b8b2 013d 9eb0 483d 7546 fcbc
000001a0: 4e29 253d 488f 023d a700 67bc c26b 6d3d
000001b0: af9a 11bc 1560 2fbd 9c69 e0bb 5c78 1dbd
000001c0: 173b e0bc 4762 9d3c 025e 61bd ae49 31bd
000001d0: 03a8 5ebd c8e4 14bc 3211 643c 7c84 73bd
000001e0: a8d8 a83c cffb 4d3d 34a7 303d 9bab fcbc
000001f0: 6af7 b8bc a8c7 cd3c 0d6f 4a3b e32a e73c
00000200: 8d5a 51bd bb4c 76bd 8072 f5bb 8d88 e53a
00000210: 174b 193d f254 0f3c f777 d33c dad4 3a3d
00000220: 88cf 2cbd 06dd 09bd ebb2 613b eaf2 243d
00000230: 3d4c 173d cbd9 31bc fbbc e7bc 2615 e3bc
00000240: a540 3d3b 5af6 22bb dcaf c83c dfaf 243d
00000250: dce3 d2bc 9337 803c cb19 e6bc 4a8b 45ba
00000260: 7d1d 8fbc 100d 043c 3229 0d3c a2c5 b73b
00000270: 02a1 193d 9a87 43bd 1b4e 1dbd 851b 9d3c
00000280: 3300 063d 4b66 793d 71d8 1b3b 46c7 b7bc
00000290: abdd 2d3d 5b97 2bbd 48f8 37bd 675a ad3c
000002a0: 4841 2fbd 2750 01bd 81ee 31bd 8928 73bd
000002b0: abd3 32bd 92e1 a1bb 950d 543d 12e0 433d
000002c0: 0a26 aabc 8cd8 303d 04cf 3a3d a7f9 dabb
000002d0: f813 0d3d 8508 d43c 4d3e 563d 55ab 613c
000002e0: 6e92 943b 67ef 5bbd f829 953c 575b 96bc
000002f0: 6fee ae3c 9858 573d 79f3 c93c 4a2b 123d
00000300: 3222 413d fa2b 7b3b f00c bbbc 5575 33bd
00000310: b39a 0a3d 44e5 a6bc 454d 813c d6b5 733d
00000320: 6821 283d ffd7 17bd 2f1e 54bb 1add 75bd
00000330: 788c 4c3c a072 41bd 599a 0e3d 71a2 22bd
00000340: c103 35bd 3a91 14bd 5513 7abd 46a7 243d
00000350: 482b 3b3d d423 47bd 52aa e4bc afe0 953c
00000360: 2057 463d 24fe 2abd ac74 7b3c 4737 58bc
00000370: 68c3 953c 5928 c6bc f168 383d f9ca 2ebd
00000380: eedf 763d edfb fd3b 38a3 4a3d 60d8 54bd
00000390: 4caf 5a3c c648 21bd 865b b6bc 51f3 063d
000003a0: 8719 d3bc 610e a8bc d147 663d ac31 c13b
000003b0: 92d9 603d 5370 623d ac36 10bd a7fa 633c
000003c0: 965d 543d c211 55bd 2fdc 12bd c45d cd3c
000003d0: 2fc5 55bd 6d8b bebc 2f0e 51bd f34a 90bc
000003e0: e3d0 efbb 0788 a33c a210 1cbc 09a0 c4bb
000003f0: 79d5 923c 771a 733d 9233 09bc d694 1bbd

fc2.bias f4 [256]
-0.0038183935 0.008612283 0.017398776 0.038338978 -0.037317 0.04829237 0.050445944 -0.048586022
-0.04875859 0.022868857 -0.030693503 -0.0017061884 0.04450659 -0.0086309025 0.018377228 -0.03646151
-0.046556357 0.028065683 -0.009468312 0.02011648 0.026910894 -0.029386062 -0.0061244727 -0.037688766
-0.031861093 -0.02015691 -0.0031990183 -0.018087795 -0.016931994 0.018143827 0.0392967 0.019367894
-0.03089532 -0.029427402 0.008662864 -0.030404475 0.0325399 0.024674257 0.03263574 -0.015908293
-0.029586198 0.0023889376 0.000790318 0.02477054 -0.016349694 -0.011671526 -0.041448276 0.03713503
0.028930496 -0.012772256 -0.006303761 -0.0020233307 0.041194055 -0.006928214 0.02847616 -0.0058979113
-0.025566112 0.04820558 -0.043959077 -0.035730705 0.03155168 0.035263546 -0.021953857 0.019746386
0.04344635 -0.0318101 0.016225051 0.014240056 0.039529502 0.027159331 -0.005954783 -0.025583664
0.015130665 0.00783024 0.022779392 0.02590246 0.008595526 0.027390437 0.010015974 -0.018917903
-0.012832086 0.047100935 0.02636946 -0.03350992 -0.0049181627 0.012663216 0.0028066495 0.018160649
0.018633664 0.01002689 0.03498157 0.007241169 0.029077742 0.01251459 -0.039100897 0.01673773
-0.04034974 -0.033175435 0.032151643 0.018578567 -0.01926549 0.009658159 0.036507744 -0.013879997
-0.036723886 -0.039242227 -0.002906335 0.03668491 -0.022012636 -0.03137962 -0.00049009395 0.034274332
-0.05026178 0.03052466 0.032532584 -0.040218007 0.03648711 0.007130167 -0.039026696 -0.0053748097
-0.048397012 -0.026270196 0.013945835 0.021118646 0.0416723 0.029863724 0.019368969 0.010421006
-0.009168759 -0.021697378 -0.0070019015 -0.048315924 0.045254383 -0.033655863 -0.040792365 0.006138248
-0.0067150462 0.019438202 0.03311273 0.043325048 0.032506898 -0.035827722 0.021425353 -0.031353734
0.03023533 -0.026549382 -0.024499968 0.0148808975 -0.020504698 0.036649186 -0.032910362 0.031213013
0.035730686 -0.03436759 0.016956685 0.0149679165 0.03636059 -0.004642941 0.03661102 0.029654985
-0.012431297 -0.0018736201 -0.009167218 0.035813805 0.04059868 -0.010629586 0.019615332 0.003123386
-0.032411944 0.005347814 -0.037015904 0.01603925 0.005184051 0.023435818 0.03983825 -0.03284711
-0.0028298728 0.036360096 -0.025778012 0.027060645 0.00043928943 -0.034432467 -0.030905295 0.0137261655
0.042366978 -0.027371088 -0.022055646 -0.03720623 0.013500821 0.0003145728 -0.026028443 0.023418706
0.024727786 0.028145036 -0.035189796 0.026211781 0.047156963 0.030308647 -0.012525964 0.009354043
0.0035105944 -0.00023806508 -0.029383501 -0.003061738 0.026400883 -0.024194146 0.008262526 0.008507398
0.009372867 0.028579248 -0.028505752 -0.023745358 -0.029980594 -0.015123471 -0.026591448 -0.024280665
-0.021218812 -0.023403145 -0.035313103 -0.0328659 0.037688013 0.0023967768 0.04591322 -0.04274102
-0.028216194 -0.028309193 -0.007016711 0.04366186 0.024730062 -0.038979456 -0.037884858 -0.015358033
-0.03365919 0.00077717094 -0.033955492 0.02017165 0.031459793 0.026323147 -0.0145940855 0.005149771
-0.010400715 0.0074101724 -0.019452201 0.03636348 -0.04273033 0.025687423 -0.019605398 -0.024317538
-0.007984267 -0.036287814 0.028538564 -0.008275863 0.048324496 -0.032595836 0.027931366 -0.018481111
00000000: 033e 7abb 881a 0d3c e187 8e3c 5509 1d3d
00000010: b6d9 18bd 38ce 453d 68a0 4e3d 2302 47bd
00000020: 16b7 47bd 7857 bb3c f170 fbbc 2fa2 dfba
00000030: 8b4c 363d a168 0dbc d78b 963c aa58 15bd
00000040: e1b1 3ebd 01ea e53c fb20 1bbc 51cb a43c
00000050: 3c74 dc3c 0abb f0bc cdaf c8bb 895f 1abd
00000060: c780 02bd 1b20 a5bc 9fa6 51bb db2c 94bc
00000070: f7b4 8abc 5da2 943c 94f5 203d 6ba9 9e3c
00000080: 2f18 fdbc bc11 f1bc afee 0d3c ce12 f9bc
00000090: 8f48 053d ab21 ca3c 0ead 053d 1c52 82bc
000000a0: c15e f2bc b98f 1c3b 582d 4f3a 96eb ca3c
000000b0: cbef 85bc ee39 3fbc abc5 29bd e71a 183d
000000c0: a6ff ec3c b942 51bc c88f cebb db99 04bb
000000d0: 19bb 283d 1206 e3bb d646 e93c 4443 c1bb
000000e0: 0670 d1bc 3773 453d 6f0e 34bd 5c5a 12bd
000000f0: 563c 013d 8270 103d 93d8 b3bc 2cc3 a13c
00000100: cdf4 313d 4f4b 02bd 66ea 843c 204f 693c
00000110: b0e9 213d 3f7d de3c 5720 c3bb d594 d1bc
00000120: 9ce6 773c 684a 003c d99b ba3c 6531 d43c
00000130: 40d4 0c3c e961 e03c 0a1a 243c b8f9 9abc
00000140: ab3d 52bc e9ec 403d c404 d83c b341 09bd
00000150: 8a28 a1bb 6179 4f3c c4ef 373b a4c5 943c
00000160: a0a5 983c d347 243c d648 0f3d 5447 ed3b
00000170: 7234 ee3c ff09 4d3c 4328 20bd 901d 893c
00000180: c545 25bd f7e2 07bd 71b1 033d 1432 983c
00000190: a9d2 9dbc 413d 1e3c 2589 153d ed68 63bc
000001a0: c96b 16bd 75bc 20bd 3678 3ebb eb42 163d
000001b0: d853 b4bc eb87 00bd a679 00ba 3e63 0c3d
000001c0: 4cdf 4dbd da0e fa3c e340 053d a3bb 24bd
000001d0: 8273 153d 2da4 e93b 75da 1fbd 2c1f b0bb
000001e0: f23b 46bd 9834 d7bc 127d 643c 0301 ad3c
000001f0: 93b0 2a3d c5a4 f43c acab 9e3c debc 2a3c
00000200: 9038 16bc b3be b1bc 3570 e5bb ebe6 45bd
00000210: a95c 393d bbda 09bd e515 27bd 5b23 c93b
00000220: e409 dcbb dd3c 9f3c 37a1 073d 9b75 313d
00000230: f425 053d 17c0 12bd 3984 af3c c66c 00bd
00000240: 15b0 f73c 177e d9bc 28b4 c8bc 02cf 733c
00000250: 78f9 a7bc 751d 163d 04cd 06bd 6fb2 ff3c
00000260: 575a 123d 08c5 0cbd bfe8 8a3c fe3b 753c
00000270: d8ee 143d d023 98bb 70f5 153d 03ef f23c
00000280: a4ac 4bbc 4294 f5ba 1932 16bc 7fb1 123d
00000290: cd4a 263d b727 2ebc 55b0 a03c b9b1 4c3b
000002a0: 63c2 04bd b73c af3b fd9d 17bd bf64 833c
000002b0: f9de a93b 79fc bf3c 6f2d 233d b18a 06bd
000002c0: 6375 39bb 53ee 143d 692c d3bc 49ae dd3c
000002d0: 6e50 e639 0f09 0dbd 1a2d fdbc b6e3 603c
000002e0: ff88 2d3d 5539 e0bc 0bae b4bc 8f65 18bd
000002f0: 8c32 5d3c 3fed a439 9a39 d5bc 96d8 bf3c
00000300: ed91 ca3c 6b90 e63c 2d23 10bd 17ba d63c
00000310: a927 413d d749 f83c b339 4dbc b341 193c
00000320: 0012 663b 1ca1 79b9 abb5 f0bc 71a7 48bb
00000330: aa46 d83c cd32 c6bc 8c5f 073c 9d62 0b3c
00000340: a790 193c 071f ea3c e584 e9bc a085 c2bc
00000350: dd99 f5bc 6fc8 77bc 4fd6 d9bc 3fe8 c6bc
00000360: 13d3 adbc f4b7 bfbc 79a4 10bd 659e 06bd
00000370: bf5e 1a3d 3e13 1d3b 800f 3c3d 3511 2fbd
00000380: a625 e7bc aee8 e7bc 70ec e5bb c7d6 323d
00000390: b396 ca3c eca8 1fbd 272d 1bbd 42a0 7bbc
000003a0: 38de 09bd 0fbb 4b3a ea14 0bbd 043f a53c
000003b0: fcdb 003d a4a3 d73c 081c 6fbc 69bf a83b
000003c0: c367 2abc 08d1 f23b 395a 9fbc dff1 143d
000003d0: 0006 2fbd 6e6e d23c 809b a0bc 9335 c7bc
000003e0: 71d0 02bc 88a2 14bd b5c9 e93c 7c97 07bc
000003f0: e8ef 453d 3683 05bd 52d0 e43c b365 97bc

fc3.weight f4 [1, 256]
0.001614368 -0.0017910672 0.0017273566 -0.0036136732 -0.0028576101 -0.0011839125 -0.0044532367 -0.0016091642
-0.001918276 0.0009492894 -0.0018359567 -0.0022899753 0.0020263845 0.001358364 0.0016226687 -0.0037097249
-0.0016459478 -0.00015297343 -0.00037993543 0.00079592137 -0.0014096907 -0.0025302875 0.0017634495 -0.00037986942
-0.0020013826 0.001155418 -0.0008848002 0.0011595498 0.00015710438 -0.002475757 0.0003277629 -0.0014407946
-0.0012570204 0.00022348083 -0.0015831246 3.157446e-05 -0.0025366994 0.0021116622 -0.00017739803 0.00038516676
0.0010888033 0.00015702003 0.001646775 3.6608202e-05 -0.0025024845 -0.0028223945 0.0003973436 0.001301526
0.00013949593 -0.0056956997 0.00076962466 0.0016632337 0.0002809764 0.0010117616 -0.0030637651 -0.0014927685
-0.00050167943 0.0011324899 -0.0012889631 -0.0021118128 -0.00093725155 -0.0019345253 0.00096283056 -0.0005457039
0.0020940609 0.0009493073 -0.002899476 -0.00097147963 -0.0013423109 -0.0009505658 0.0007863834 -0.00036413776
-0.0025464653 -0.00057593733 -0.0028504438 -0.0037707326 -0.0033722462 0.0014528625 0.0017492033 0.0012616061
-0.0025880688 -0.0030483843 0.0029381209 -0.002938579 0.0010998106 5.5530763e-05 -0.0014954164 -0.003891461
-0.003075369 -0.006721263 -0.0030704204 0.001892429 0.005741044 0.0017722744 2.4929603e-05 -0.003044006
0.0014812964 0.0009771353 0.0015537011 0.0018157584 -0.0007934763 0.00087889767 -0.001222698 -0.0029710066
-0.0040530693 0.000987624 0.0018097941 -0.00030816367 -5.108682e-05 -0.000108292516 -0.001702806 -0.0010788006
-0.00030463107 -0.0007506502 -9.071961e-05 -0.0035491958 0.00025337038 0.0013334857 -0.0007326806 -0.0007526345
-0.00020819421 0.0013882732 -0.0016532432 -0.005174728 -0.0025135134 -0.003152712 -0.0003309191 -5.7413505e-05
0.001626549 -0.0032787842 -0.0012076754 -0.0028651278 -0.0011721893 -0.00075606804 -0.005007351 -0.0019570487
0.0026307714 -0.0011792907 -0.00019691688 0.00021201067 -0.0030877746 -0.00048206435 -0.00022680752 -0.0015434877
0.0015031452 -0.0033752064 0.00044443537 -0.0003987688 -0.0007738466 -0.00055318367 -0.00048564878 0.002148591
-0.00067428936 -0.0003079975 6.9262125e-05 -0.0007828034 -0.00094152015 -0.003213514 -0.003289206 -0.002708088
-0.00031567388 -0.0004293168 -0.0030816782 -0.0025594966 -0.00068020576 -0.00013843033 -0.00095530954 -0.0021847994
-0.002009651 -0.0028132668 -0.0017955326 9.01854e-05 -0.00063780934 -0.002202569 0.001544244 -0.0010833502
0.0026776483 0.001210537 -0.001633983 0.00028071043 -0.0011071569 -0.00019019605 -0.0017750732 0.00013913332
-0.0037018915 -0.0030104911 0.0017916794 -0.003437959 -0.0031766344 -0.0016868198 0.0015505546 0.00028416913
0.0010870909 -6.621225e-05 -0.000541601 -0.0020930455 0.00036964414 0.0012104298 -0.002260593 -0.002684195
-0.0014275525 0.001321533 -0.0018325943 0.0034692427 -0.000977962 -1.6919596e-05 -0.0019094594 7.257099e-05
0.00038691427 -0.002074262 -0.00033094487 -0.0018503412 -0.00063731975 -0.0029423228 0.0018956208 -0.0014056008
0.0019861031 -0.00014344075 -0.0013609631 -0.003794653 -0.0017536276 0.0016623228 -0.0012122534 -0.0018794142
-0.00045404574 0.0017013709 -0.0010628245 0.00061606953 -0.00010510801 -0.00039562103 -0.004132735 -0.0012331632
0.0009544085 -0.0019884151 0.0018772723 3.058722e-05 -0.0014532028 0.0006319029 0.0021729113 -0.00030446931
-0.00021084823 -0.0022847757 0.0005000253 -0.00054495095 -0.00046875948 -0.002352586 -0.0035226932 -0.0013895463
-0.0030798137 -0.0031386341 -0.0025535282 -0.005079245 0.0016025645 0.0003680011 -0.0014876848 0.0050339154
00000000: 3499 d33a 3ec2 eaba 7868 e23a 60d3 6cbb
00000010: be46 3bbb 832d 9bba 75ec 91bb 97ea d2ba
00000020: a96e fbba bcd9 783a 7ca4 f0ba 6913 16bb
00000030: 17cd 043b 220b b23a baaf d43a db1e 73bb
00000040: d8bc d7ba 7e67 20b9 1232 c7b9 61a5 503a
00000050: 5fc5 b8ba 2ed3 25bb 8c23 e73a 3629 c7b9
00000060: a129 03bb 6571 973a f0f1 67ba 09fc 973a
00000070: 63bc 2439 4f40 22bb 97d7 ab39 0bd9 bcba
00000080: 9bc2 a4ba 2e56 6a39 d980 cfba d16e 0438
00000090: c13e 26bb d063 0a3b ec03 3ab9 35f0 c939
000000a0: 2db6 8e3a bea5 2439 9ad8 d73a c28b 1938
000000b0: b900 24bb ecf7 38bb 8e52 d039 f797 aa3a
000000c0: a745 1239 fea2 babb a3c0 493a dd00 da3a
000000d0: 0450 9339 169d 843a 73c9 48bb 00a9 c3ba
000000e0: 2383 03ba 0e70 943a 6df2 a8ba 5766 0abb
000000f0: e3b1 75ba e68f fdba 7766 7c3a 920d 0fba
00000100: 833c 093b efda 783a 2305 3ebb e5aa 7eba
00000110: 7bf0 afba 642f 79ba 4c25 4e3a bee9 beb9
00000120: 99e2 26bb 80fa 16ba 83ce 3abb 651e 77bb
00000130: e700 5dbb fa6d be3a 8645 e53a 7a5c a53a
00000140: 979c 29bb 67c7 47bb 7d8d 403b 2d95 40bb
00000150: 8527 903a b4e9 6838 d901 c4ba e207 7fbb
00000160: 218c 49bb 0a3e dcbb 1b39 49bb 610b f83a
00000170: 5e1f bc3b a94b e83a ea1f d137 f27d 47bb
00000180: 0f28 c23a 3813 803a 8fa5 cb3a befe ed3a
00000190: 4b01 50ba d365 663a f042 a0ba 38b5 42bb
000001a0: 9ccf 84bb 2a73 813a 9d36 ed3a 0791 a1b9
000001b0: 0e46 56b8 1a1b e3b8 b030 dfba 8b66 8dba
000001c0: e4b6 9fb9 48c7 44ba b840 beb8 a099 68bb
000001d0: ccd6 8439 5bc8 ae3a 5d11 40ba 724c 45ba
000001e0: b54e 5ab9 b8f6 b53a a3b1 d8ba c490 a9bb
000001f0: c2b9 24bb bb9d 4ebb 367f adb9 48cf 70b8
00000200: ee31 d53a dfe0 56bb dd4a 9eba dec4 3bbb
00000210: 25a4 99ba de32 46ba b414 a4bb d441 00bb
00000220: 0569 2c3b 6e92 9aba 797b 4eb9 2e4f 5e39
00000230: 435c 4abb 95bd fcb9 2ed3 6db9 da4e caba
00000240: 2f05 c53a 9132 5dbb 1b03 e939 d811 d1b9
00000250: f7db 4aba 8703 11ba ad9e feb9 60cf 0c3b
00000260: cbc2 30ba ba7a a1b9 d240 9138 0c35 4dba
00000270: 59d0 76ba d299 52bb b88f 57bb 2d7a 31bb
00000280: 0881 a5b9 ed15 e1b9 fbf5 49bb 3abd 27bb
00000290: d64f 32ba 9c27 11b9 bd6d 7aba da2e 0fbb
000002a0: 59b4 03bb c95e 38bb 1458 ebba eb21 bd38
000002b0: a932 27ba fa58 10bb 3b68 ca3a 33ff 8dba
000002c0: 7c7b 2f3b e2aa 9e3a 5f2b d6ba 512c 9339
000002d0: 051e 91ba 5d6f 47b9 93a9 e8ba 51e4 1139
000002e0: 6f9b 72bb a94b 45bb c9d6 ea3a 614f 61bb
000002f0: 152f 50bb 4818 ddba fb3b cb3a 89fc 9439
00000300: b87c 8e3a 6edb 8ab8 3afa 0dba 7a2b 09bb
00000310: cccc c139 49a7 9e3a 7526 14bb 52e9 2fbb
00000320: b71c bbba 4a37 ad3a a933 f0ba 3c5c 633b
00000330: f62e 80ba 8eee 8db7 d346 faba 4131 9838
00000340: c1da ca39 57f0 07bb ab82 adb9 2687 f2ba
00000350: ce11 27ba fcd3 40bb 7b76 f83a 233c b8ba
00000360: 4829 023b 9568 16b9 5862 b2ba b7af 78bb
00000370: fad9 e5ba 4ce2 d93a 79e4 9eba ad56 f6ba
00000380: fd0c eeb9 8900 df3a 794e 8bba ba7f 213a
00000390: 6f6d dcb8 5b6b cfb9 e56b 87bb 17a2 a1ba
000003a0: 4531 7a3a 1250 02bb ce0e f63a c74a 0038
000003b0: 6579 beba 49a6 253a 6767 0e3b 2ea1 9fb9
000003c0: 2417 5db9 2dbc 15bb 2114 033a 0adb 0eba
000003d0: d5c3 f5b9 d82d 1abb fcdc 66bb 7021 b6ba
000003e0: b3d6 49bb 8bb1 4dbb 1859 27bb cc6f a6bb
000003f0: 240d d23a 46f0 c039 6bfe c2ba 8bf3 a43b

bn.weight f4 [400]
0.980647 0.056675076 0.5251433 0.5559857 0.13649821 0.6851009 0.6149379 0.022241175
0.3220052 0.5431145 0.045042694 0.8944349 0.44973558 0.33450586 0.21551162 0.91695976
0.67662096 0.4302293 0.5957153 0.4226557 0.49482238 0.66586107 0.53769946 0.7207904
0.5698852 0.18123078 0.63813496 0.07242429 0.19476253 0.4622506 0.8046833 0.5943357
0.71170706 0.4582892 0.32287294 0.3784728 0.8335933 0.52090704 0.6579255 0.5789302
0.20596951 0.79448473 0.08506775 0.12822813 0.27058846 0.7839862 0.46573156 0.68233967
0.9783409 0.930045 0.27091193 0.045511603 0.7736457 0.3666048 0.9925548 0.72389716
0.10484654 0.8136578 0.8771304 0.48619896 0.03049314 0.27436244 0.88094115 0.95279264
0.20975816 0.64719266 0.6422891 0.32448822 0.20034885 0.2743107 0.11765736 0.84657687
0.49377328 0.001896441 0.1087631 0.12411857 0.45260412 0.62479156 0.9238513 0.657746
0.54024804 0.7868986 0.08262813 0.17886001 0.38380337 0.6348718 0.5892341 0.4777543
0.8569238 0.72819346 0.93194014 0.89138734 0.14729118 0.022836983 0.20418954 0.354779
0.6692076 0.064689875 0.013799846 0.5581113 0.79405695 0.6021168 0.25633574 0.41542166
0.91051465 0.44840086 0.3181787 0.8110105 0.017419219 0.22537124 0.50437564 0.77918583
0.1327349 0.62819886 0.28358608 0.9171335 0.19670886 0.42401487 0.23829144 0.30789232
0.69999397 0.16399479 0.16301966 0.31509507 0.22820371 0.5693272 0.07784492 0.7919887
0.71413577 0.909242 0.17980188 0.16417456 0.21275151 0.017574549 0.9352337 0.4393866
0.3904819 0.54994255 0.12579364 0.78749704 0.82226634 0.7845241 0.20041943 0.6755217
0.8144061 0.8866839 0.91723096 0.15730667 0.44273764 0.72332466 0.9550164 0.009222746
0.7241096 0.19737291 0.90007 0.05142641 0.24123347 0.7116627 0.13505435 0.046325564
0.1654557 0.48343527 0.50250417 0.35763782 0.44571137 0.8742699 0.42194122 0.07868773
0.26582503 0.7641939 0.28656113 0.096229374 0.25131202 0.04402691 0.3203597 0.6773263
0.7101787 0.8231832 0.5882957 0.95134753 0.08339977 0.7749919 0.92043763 0.39945036
0.5938552 0.63553756 0.92886865 0.51933384 0.91643167 0.9786559 0.4979807 0.83971757
0.05408156 0.04458481 0.035399377 0.6214729 0.22957033 0.1726411 0.80605024 0.69969004
0.89152926 0.37343013 0.75232893 0.7331032 0.3833946 0.34405875 0.1605959 0.33445585
0.72951144 0.08199394 0.8132101 0.00089776516 0.48484474 0.2756297 0.096197665 0.8940149
0.04131925 0.5716708 0.38523835 0.550992 0.34742755 0.16067839 0.6389924 0.64636153
0.051584303 0.7283923 0.22147143 0.8934185 0.65225434 0.6333843 0.9664621 0.2059552
0.06618631 0.88913685 0.44709724 0.44540757 0.6108685 0.6764873 0.2812056 0.72099334
0.33188725 0.8448782 0.6432943 0.28131235 0.1351769 0.31882507 0.07031375 0.44247448
0.3787244 0.5489288 0.65865487 0.45172727 0.9884565 0.8330869 0.7239356 0.25768864
00000000: af0b 7b3f 2024 683d cb6f 063f 1455 0e3f
00000010: 30c6 0b3e c662 2f3f 926c 1d3f 2033 b63c
00000020: dedd a43e 8d09 0b3f b07e 383d b0f9 643f
00000030: be43 e63e 5a44 ab3e 14af 5c3e e0bd 6a3f
00000040: 0837 2d3f 0447 dc3e cc80 183f 5466 d83e
00000050: 5c59 fd3e df75 2a3f aca6 093f b885 383f
00000060: ffe3 113f 9094 393e d05c 233f 3053 943d
00000070: d46f 473e 1cac ec3e baff 4d3f 6226 183f
00000080: 6f32 363f e2a4 ea3e 9a4f a53e 30c7 c13e
00000090: 5f66 553f 2a5a 053f ce6d 283f c534 143f
000000a0: ace9 523e 5a63 4b3f 0038 ae3d 3c4e 033e
000000b0: 928a 8a3e 52b3 483f 5e74 ee3e d0ad 2e3f
000000c0: 8d74 7a3f 6e17 6e3f f8b4 8a3e 606a 3a3d
000000d0: a50d 463f a0b3 bb3e 1218 7e3f 5351 393f
000000e0: c8b9 d63d e14b 503f 9e8b 603f 12ef f83e
000000f0: c0cc f93c 3c79 8c3e 5c85 613f 38ea 733f
00000100: d8ca 563e 6bae 253f 0f6d 243f 5223 a63e
00000110: 4028 4d3e 7472 8c3e 58f6 f03d 43b9 583f
00000120: dacf fc3e 0092 f83a 30bf de3d e031 fe3d
00000130: babb e73e 57f2 1f3f 8581 6c3f 0b62 283f
00000140: b24d 0a3f 3072 493f f038 a93d 1427 373e
00000150: e081 c43e f586 223f 0cd8 163f 369c f43e
00000160: 5c5f 5b3f e36a 3a3f a193 6e3f f631 643f
00000170: 80d3 163e a014 bb3c 1017 513e 98a5 b53e
00000180: 3051 2b3f 207c 843d c018 623c 62e0 0e3f
00000190: 5147 4b3f 5424 1a3f 703e 833e 26b2 d43e
000001a0: 7d17 693f cc94 e53e 52e8 a23e 629e 4f3f
000001b0: c0b2 8e3c b8c7 663e c31e 013f b978 473f
000001c0: a8eb 073e a4d1 203f 3232 913e 43c9 6a3f
000001d0: 0c6e 493e 7a18 d93e ac02 743e 10a4 9d3e
000001e0: ce32 333f 40ee 273e a0ee 263e 2454 a13e
000001f0: 3cae 693e 6dbf 113f 286d 9f3d c5bf 4a3f
00000200: 9ad1 363f 15c4 683f fc1d 383e 601d 283e
00000210: 88db 593e 80f8 8f3c 7a6b 6f3f 48f7 e03e
00000220: 3eed c73e 09c9 0c3f 0cd0 003e 6899 493f
00000230: 0c80 523f 92d6 483f c03a 4d3e fdee 2c3f
00000240: eb7c 503f b7fd 623f a6cf 6a3f 0015 213e
00000250: 82ae e23e ce2b 393f f47b 743f 001b 173c
00000260: 3f5f 393f 201c 4a3e fd6a 663f 80a4 523d
00000270: e805 773e 872f 363f b04b 0a3e e0bf 3d3d
00000280: 386d 293e d484 f73e 1da4 003f 4e1c b73e
00000290: 4834 e43e 27d0 5f3f ae08 d83e 0827 a13d
000002a0: 381a 883e 36a2 433f 24b8 923e e813 c53d
000002b0: f8ab 803e 9055 343d 3006 a43e 4265 2d3f
000002c0: 45ce 353f 22bc 523f 8c9a 163f 838b 733f
000002d0: 80cd aa3d df65 463f cda1 6b3f c284 cc3e
000002e0: e506 183f 97b2 223f 56ca 6d3f 10f3 043f
000002f0: 449b 6a3f 3189 7a3f 54f7 fe3e bbf7 563f
00000300: a084 5d3d 909e 363d f0fe 103d d918 1f3f
00000310: 7c14 6b3e d4c8 303e 4f59 4e3f e31e 333f
00000320: 433b 643f 3c32 bf3e a198 403f a7ac 3b3f
00000330: 4c4c c43e 7828 b03e 4073 243e cc3d ab3e
00000340: 43c1 3a3f 70ec a73d 8a2e 503f 0058 6b3a
00000350: 923d f83e 561f 8d3e 4803 c53d 29de 643f
00000360: 603e 293d 0459 123f f63d c53e d00d 0d3f
00000370: 06e2 b13e e088 243e 0295 233f f377 253f
00000380: 104a 533d eb77 3a3f 68c9 623e 13b7 643f
00000390: 24fa 263f 7925 223f 0f6a 773f ece5 523e
000003a0: b08c 873d 799e 633f eee9 e43e 760c e43e
000003b0: e161 1c3f 462e 2d3f 2efa 8f3e 0593 383f
000003c0: 20ed a93e f049 583f efae 243f 2c08 903e
000003d0: d06b 0a3e 0a3d a33e a800 903d 048c e23e
000003e0: 2ae8 c13e 9986 0c3f 9b9d 283f cc48 e73e
000003f0: 7c0b 7d3f 2f45 553f d853 393f c4ef 833e

bn.bias f4 [400]
0.0 0.0 0.0 0.0 0.0 0.0 0.0 0.0
0.0 0.0 0.0 0.0 0.0 0.0 0.0 0.0
0.0 0.0 0.0 0.0 0.0 0.0 0.0 0.0
0.0 0.0 0.0 0.0 0.0 0.0 0.0 0.0
0.0 0.0 0.0 0.0 0.0 0.0 0.0 0.0
0.0 0.0 0.0 0.0 0.0 0.0 0.0 0.0
0.0 0.0 0.0 0.0 0.0 0.0 0.0 0.0
0.0 0.0 0.0 0.0 0.0 0.0 0.0 0.0
0.0 0.0 0.0 0.0 0.0 0.0 0.0 0.0
0.0 0.0 0.0 0.0 0.0 0.0 0.0 0.0
0.0 0.0 0.0 0.0 0.0 0.0 0.0 0.0
0.0 0.0 0.0 0.0 0.0 0.0 0.0 0.0
0.0 0.0 0.0 0.0 0.0 0.0 0.0 0.0
0.0 0.0 0.0 0.0 0.0 0.0 0.0 0.0
0.0 0.0 0.0 0.0 0.0 0.0 0.0 0.0
0.0 0.0 0.0 0.0 0.0 0.0 0.0 0.0
0.0 0.0 0.0 0.0 0.0 0.0 0.0 0.0
0.0 0.0 0.0 0.0 0.0 0.0 0.0 0.0
0.0 0.0 0.0 0.0 0.0 0.0 0.0 0.0
0.0 0.0 0.0 0.0 0.0 0.0 0.0 0.0
0.0 0.0 0.0 0.0 0.0 0.0 0.0 0.0
0.0 0.0 0.0 0.0 0.0 0.0 0.0 0.0
0.0 0.0 0.0 0.0 0.0 0.0 0.0 0.0
0.0 0.0 0.0 0.0 0.0 0.0 0.0 0.0
0.0 0.0 0.0 0.0 0.0 0.0 0.0 0.0
0.0 0.0 0.0 0.0 0.0 0.0 0.0 0.0
0.0 0.0 0.0 0.0 0.0 0.0 0.0 0.0
0.0 0.0 0.0 0.0 0.0 0.0 0.0 0.0
0.0 0.0 0.0 0.0 0.0 0.0 0.0 0.0
0.0 0.0 0.0 0.0 0.0 0.0 0.0 0.0
0.0 0.0 0.0 0.0 0.0 0.0 0.0 0.0
0.0 0.0 0.0 0.0 0.0 0.0 0.0 0.0
00000000: 0000 0000 0000 0000 0000 0000 0000 0000
00000010: 0000 0000 0000 0000 0000 0000 0000 0000
00000020: 0000 0000 0000 0000 0000 0000 0000 0000
00000030: 0000 0000 0000 0000 0000 0000 0000 0000
00000040: 0000 0000 0000 0000 0000 0000 0000 0000
00000050: 0000 0000 0000 0000 0000 0000 0000 0000
00000060: 0000 0000 0000 0000 0000 0000 0000 0000
00000070: 0000 0000 0000 0000 0000 0000 0000 0000
00000080: 0000 0000 0000 0000 0000 0000 0000 0000
00000090: 0000 0000 0000 0000 0000 0000 0000 0000
000000a0: 0000 0000 0000 0000 0000 0000 0000 0000
000000b0: 0000 0000 0000 0000 0000 0000 0000 0000
000000c0: 0000 0000 0000 0000 0000 0000 0000 0000
000000d0: 0000 0000 0000 0000 0000 0000 0000 0000
000000e0: 0000 0000 0000 0000 0000 0000 0000 0000
000000f0: 0000 0000 0000 0000 0000 0000 0000 0000
00000100: 0000 0000 0000 0000 0000 0000 0000 0000
00000110: 0000 0000 0000 0000 0000 0000 0000 0000
00000120: 0000 0000 0000 0000 0000 0000 0000 0000
00000130: 0000 0000 0000 0000 0000 0000 0000 0000
00000140: 0000 0000 0000 0000 0000 0000 0000 0000
00000150: 0000 0000 0000 0000 0000 0000 0000 0000
00000160: 0000 0000 0000 0000 0000 0000 0000 0000
00000170: 0000 0000 0000 0000 0000 0000 0000 0000
00000180: 0000 0000 0000 0000 0000 0000 0000 0000
00000190: 0000 0000 0000 0000 0000 0000 0000 0000
000001a0: 0000 0000 0000 0000 0000 0000 0000 0000
000001b0: 0000 0000 0000 0000 0000 0000 0000 0000
000001c0: 0000 0000 0000 0000 0000 0000 0000 0000
000001d0: 0000 0000 0000 0000 0000 0000 0000 0000
000001e0: 0000 0000 0000 0000 0000 0000 0000 0000
000001f0: 0000 0000 0000 0000 0000 0000 0000 0000
00000200: 0000 0000 0000 0000 0000 0000 0000 0000
00000210: 0000 0000 0000 0000 0000 0000 0000 0000
00000220: 0000 0000 0000 0000 0000 0000 0000 0000
00000230: 0000 0000 0000 0000 0000 0000 0000 0000
00000240: 0000 0000 0000 0000 0000 0000 0000 0000
00000250: 0000 0000 0000 0000 0000 0000 0000 0000
00000260: 0000 0000 0000 0000 0000 0000 0000 0000
00000270: 0000 0000 0000 0000 0000 0000 0000 0000
00000280: 0000 0000 0000 0000 0000 0000 0000 0000
00000290: 0000 0000 0000 0000 0000 0000 0000 0000
000002a0: 0000 0000 0000 0000 0000 0000 0000 0000
000002b0: 0000 0000 0000 0000 0000 0000 0000 0000
000002c0: 0000 0000 0000 0000 0000 0000 0000 0000
000002d0: 0000 0000 0000 0000 0000 0000 0000 0000
000002e0: 0000 0000 0000 0000 0000 0000 0000 0000
000002f0: 0000 0000 0000 0000 0000 0000 0000 0000
00000300: 0000 0000 0000 0000 0000 0000 0000 0000
00000310: 0000 0000 0000 0000 0000 0000 0000 0000
00000320: 0000 0000 0000 0000 0000 0000 0000 0000
00000330: 0000 0000 0000 0000 0000 0000 0000 0000
00000340: 0000 0000 0000 0000 0000 0000 0000 0000
00000350: 0000 0000 0000 0000 0000 0000 0000 0000
00000360: 0000 0000 0000 0000 0000 0000 0000 0000
00000370: 0000 0000 0000 0000 0000 0000 0000 0000
00000380: 0000 0000 0000 0000 0000 0000 0000 0000
00000390: 0000 0000 0000 0000 0000 0000 0000 0000
000003a0: 0000 0000 0000 0000 0000 0000 0000 0000
000003b0: 0000 0000 0000 0000 0000 0000 0000 0000
000003c0: 0000 0000 0000 0000 0000 0000 0000 0000
000003d0: 0000 0000 0000 0000 0000 0000 0000 0000
000003e0: 0000 0000 0000 0000 0000 0000 0000 0000
000003f0: 0000 0000 0000 0000 0000 0000 0000 0000

bn.running_mean f4 [400]
0.0 0.0 0.0 0.0 0.0 0.0 0.0 0.0
0.0 0.0 0.0 0.0 0.0 0.0 0.0 0.0
0.0 0.0 0.0 0.0 0.0 0.0 0.0 0.0
0.0 0.0 0.0 0.0 0.0 0.0 0.0 0.0
0.0 0.0 0.0 0.0 0.0 0.0 0.0 0.0
0.0 0.0 0.0 0.0 0.0 0.0 0.0 0.0
0.0 0.0 0.0 0.0 0.0 0.0 0.0 0.0
0.0 0.0 0.0 0.0 0.0 0.0 0.0 0.0
0.0 0.0 0.0 0.0 0.0 0.0 0.0 0.0
0.0 0.0 0.0 0.0 0.0 0.0 0.0 0.0
0.0 0.0 0.0 0.0 0.0 0.0 0.0 0.0
0.0 0.0 0.0 0.0 0.0 0.0 0.0 0.0
0.0 0.0 0.0 0.0 0.0 0.0 0.0 0.0
0.0 0.0 0.0 0.0 0.0 0.0 0.0 0.0
0.0 0.0 0.0 0.0 0.0 0.0 0.0 0.0
0.0 0.0 0.0 0.0 0.0 0.0 0.0 0.0
0.0 0.0 0.0 0.0 0.0 0.0 0.0 0.0
0.0 0.0 0.0 0.0 0.0 0.0 0.0 0.0
0.0 0.0 0.0 0.0 0.0 0.0 0.0 0.0
0.0 0.0 0.0 0.0 0.0 0.0 0.0 0.0
0.0 0.0 0.0 0.0 0.0 0.0 0.0 0.0
0.0 0.0 0.0 0.0 0.0 0.0 0.0 0.0
0.0 0.0 0.0 0.0 0.0 0.0 0.0 0.0
0.0 0.0 0.0 0.0 0.0 0.0 0.0 0.0
0.0 0.0 0.0 0.0 0.0 0.0 0.0 0.0
0.0 0.0 0.0 0.0 0.0 0.0 0.0 0.0
0.0 0.0 0.0 0.0 0.0 0.0 0.0 0.0
0.0 0.0 0.0 0.0 0.0 0.0 0.0 0.0
0.0 0.0 0.0 0.0 0.0 0.0 0.0 0.0
0.0 0.0 0.0 0.0 0.0 0.0 0.0 0.0
0.0 0.0 0.0 0.0 0.0 0.0 0.0 0.0
0.0 0.0 0.0 0.0 0.0 0.0 0.0 0.0
00000000: 0000 0000 0000 0000 0000 0000 0000 0000
00000010: 0000 0000 0000 0000 0000 0000 0000 0000
00000020: 0000 0000 0000 0000 0000 0000 0000 0000
00000030: 0000 0000 0000 0000 0000 0000 0000 0000
00000040: 0000 0000 0000 0000 0000 0000 0000 0000
00000050: 0000 0000 0000 0000 0000 0000 0000 0000
00000060: 0000 0000 0000 0000 0000 0000 0000 0000
00000070: 0000 0000 0000 0000 0000 0000 0000 0000
00000080: 0000 0000 0000 0000 0000 0000 0000 0000
00000090: 0000 0000 0000 0000 0000 0000 0000 0000
000000a0: 0000 0000 0000 0000 0000 0000 0000 0000
000000b0: 0000 0000 0000 0000 0000 0000 0000 0000
000000c0: 0000 0000 0000 0000 0000 0000 0000 0000
000000d0: 0000 0000 0000 0000 0000 0000 0000 0000
000000e0: 0000 0000 0000 0000 0000 0000 0000 0000
000000f0: 0000 0000 0000 0000 0000 0000 0000 0000
00000100: 0000 0000 0000 0000 0000 0000 0000 0000
00000110: 0000 0000 0000 0000 0000 0000 0000 0000
00000120: 0000 0000 0000 0000 0000 0000 0000 0000
00000130: 0000 0000 0000 0000 0000 0000 0000 0000
00000140: 0000 0000 0000 0000 0000 0000 0000 0000
00000150: 0000 0000 0000 0000 0000 0000 0000 0000
00000160: 0000 0000 0000 0000 0000 0000 0000 0000
00000170: 0000 0000 0000 0000 0000 0000 0000 0000
00000180: 0000 0000 0000 0000 0000 0000 0000 0000
00000190: 0000 0000 0000 0000 0000 0000 0000 0000
000001a0: 0000 0000 0000 0000 0000 0000 0000 0000
000001b0: 0000 0000 0000 0000 0000 0000 0000 0000
000001c0: 0000 0000 0000 0000 0000 0000 0000 0000
000001d0: 0000 0000 0000 0000 0000 0000 0000 0000
000001e0: 0000 0000 0000 0000 0000 0000 0000 0000
000001f0: 0000 0000 0000 0000 0000 0000 0000 0000
00000200: 0000 0000 0000 0000 0000 0000 0000 0000
00000210: 0000 0000 0000 0000 0000 0000 0000 0000
00000220: 0000 0000 0000 0000 0000 0000 0000 0000
00000230: 0000 0000 0000 0000 0000 0000 0000 0000
00000240: 0000 0000 0000 0000 0000 0000 0000 0000
00000250: 0000 0000 0000 0000 0000 0000 0000 0000
00000260: 0000 0000 0000 0000 0000 0000 0000 0000
00000270: 0000 0000 0000 0000 0000 0000 0000 0000
00000280: 0000 0000 0000 0000 0000 0000 0000 0000
00000290: 0000 0000 0000 0000 0000 0000 0000 0000
000002a0: 0000 0000 0000 0000 0000 0000 0000 0000
000002b0: 0000 0000 0000 0000 0000 0000 0000 0000
000002c0: 0000 0000 0000 0000 0000 0000 0000 0000
000002d0: 0000 0000 0000 0000 0000 0000 0000 0000
000002e0: 0000 0000 0000 0000 0000 0000 0000 0000
000002f0: 0000 0000 0000 0000 0000 0000 0000 0000
00000300: 0000 0000 0000 0000 0000 0000 0000 0000
00000310: 0000 0000 0000 0000 0000 0000 0000 0000
00000320: 0000 0000 0000 0000 0000 0000 0000 0000
00000330: 0000 0000 0000 0000 0000 0000 0000 0000
00000340: 0000 0000 0000 0000 0000 0000 0000 0000
00000350: 0000 0000 0000 0000 0000 0000 0000 0000
00000360: 0000 0000 0000 0000 0000 0000 0000 0000
00000370: 0000 0000 0000 0000 0000 0000 0000 0000
00000380: 0000 0000 0000 0000 0000 0000 0000 0000
00000390: 0000 0000 0000 0000 0000 0000 0000 0000
000003a0: 0000 0000 0000 0000 0000 0000 0000 0000
000003b0: 0000 0000 0000 0000 0000 0000 0000 0000
000003c0: 0000 0000 0000 0000 0000 0000 0000 0000
000003d0: 0000 0000 0000 0000 0000 0000 0000 0000
000003e0: 0000 0000 0000 0000 0000 0000 0000 0000
000003f0: 0000 0000 0000 0000 0000 0000 0000 0000
