projects/tennis/checkpoint/E25/E25.47_critic0_10000.pt (torch_old, 502006 bytes, 9 tensors)

fcs1.weight f4 [400, 48]
0	0x3d1f9a19	0.03896532
1	0x3cc22ac0	0.023702025
2	0x3ae126f6	0.0017177749
3	0xbbfea4a4	-0.0077710915
4	0xbcc2e8c2	-0.023792628
5	0xbd1063d8	-0.03525147
6	0x3b64b74a	0.0034899288
7	0xbd0f33cd	-0.03496151
8	0xbc33c2d2	-0.010971742
9	0x3bdb306f	0.0066891233
10	0xbd2ca2bc	-0.042147383
11	0xbd1e0c6c	-0.038586065
12	0xbcb8a783	-0.022540813
13	0x3d33f5ef	0.043935712
14	0xbbe46217	-0.006969701
15	0xbcbc9665	-0.023020932
16	0xbcc95ae9	-0.024579482
17	0xbd20312d	-0.039109398
18	0xbd212327	-0.039340165
19	0x3c1e7839	0.009672218
20	0x3d24eaf9	0.04026315
21	0x3cb27f99	0.021789359
22	0xbcd2a99c	-0.025715642
23	0x3d46a65b	0.048498493
24	0x3b44e39e	0.0030042897
25	0xbc1421e3	-0.009041282
26	0x3d27dbca	0.04098109
27	0x3d07dfef	0.033172544
28	0x3d3a3d4a	0.045468606
29	0xbd14bc35	-0.0363123
30	0x3c1f54cb	0.009724806
31	0xbcacc680	-0.021090746
32	0x3cdad664	0.026713558
33	0xbd110ddf	-0.03541362
34	0x3c0df833	0.008665132
35	0x3caa1d2f	0.020765869
36	0xbc8ea6b3	-0.017413473
37	0xbcdf47fb	-0.027256003
38	0x3d37a428	0.044834286
39	0xbca4752c	-0.020075403
40	0xbbb58b4b	-0.0055402867
41	0x3d2e412a	0.042542614
42	0xbca77046	-0.020439278
43	0xbb336a98	-0.0027376767
44	0xbc8c9b9c	-0.017164044
45	0x3d0cf3da	0.034412242
46	0x3d24552f	0.0401203
47	0x3cc9b852	0.024624024
48	0x3d0c5b6f	0.034266885
49	0xbc58d81e	-0.01323512
50	0xbcb2fc1b	-0.021848729
51	0x3d24099d	0.04004823
52	0xbd14ef4d	-0.036361028
53	0x3d100c82	0.03516818
54	0x3c5381aa	0.012909332
55	0x3ba518e9	0.00503837
56	0x3c6ab7c2	0.014326038
57	0x3c76a305	0.015053515
58	0xbbfa813a	-0.0076447995
59	0x3ca0dc05	0.019636163
60	0xbd1761e5	-0.036958594
61	0xbc18e80c	-0.009332668
62	0x3d3683c2	0.044559248
63	0xbd26fc42	-0.040767916
64	0x3d2a6f22	0.04160989
65	0xbd087ab4	-0.033320144
66	0xbd434f26	-0.047682904
67	0x3d052620	0.032507062
68	0x3bd6051d	0.0065313713
69	0x3a8d0372	0.0010758473
70	0xbb72a315	-0.0037023474
71	0xbcecd901	-0.02891207
72	0x3d3c4a05	0.045969028
73	0xbd3622a7	-0.04446664
74	0x3ca5b24e	0.020226624
75	0xbcb52a06	-0.022114765
76	0xbd029ea2	-0.031889565
77	0x3d06ea61	0.032938365
78	0xbc88bd02	-0.016691688
79	0xbd137772	-0.036002584
80	0xbb29bbfc	-0.00258994
81	0x3b3297ce	0.0027251127
82	0x3be8dc5a	0.007106346
83	0x3c75774e	0.014982058
84	0x3cd5f45e	0.0261175
85	0x3cd5d86e	0.026104178
86	0xbd00a4aa	-0.031407036
87	0x3c8916db	0.016734531
88	0x3cfd3c22	0.030912463
89	0xbd2f8c0e	-0.042858176
90	0x3d002c4f	0.031292256
91	0x3d2b818c	0.041871592
92	0x3cee7f9b	0.029113581
93	0xbc87b0c5	-0.016563782
94	0x3d06fe3f	0.03295731
95	0x3d3c8ffd	0.046035755
96	0xbccf2713	-0.025287187
97	0xbb4d1209	-0.0031291267
98	0xbd05674f	-0.032569226
99	0xbd134332	-0.035952754
100	0xbd461f57	-0.04836973
101	0xbc6da8ac	-0.014505547
102	0x3be3d20f	0.006952531
103	0x3bf195e1	0.0073726033
104	0x3cf2e1b4	0.02964864
105	0xbd028e46	-0.031873964
106	0x3d471479	0.04860351
107	0x3c916e31	0.017752739
108	0x3bb5640e	0.005535609
109	0xbd1b322c	-0.037889645
110	0x3c253504	0.010083441
111	0x3cc7c41c	0.024385504
112	0xbd272649	-0.040807996
113	0xbb469b8a	-0.003030511
114	0x3d41f6df	0.047354575
115	0x3bc339e9	0.005957831
116	0x3c335232	0.01094489
117	0x3c38d3d2	0.011280971
118	0x3aa435da	0.0012528256
119	0xbb894fd7	-0.004190426
120	0xbd2e6165	-0.04257335
121	0x3cf6dbfb	0.030134192
122	0xbcdc29f6	-0.026875477
123	0xbb8697d8	-0.0041074567
124	0xbd36d38d	-0.044635344
125	0x3c9a8204	0.018860824
126	0x3c53b79c	0.012922194
127	0x3b12b447	0.0022385286
128	0xbcfd9cb8	-0.030958518
129	0x3cfa75de	0.030573782
130	0xbbf593ad	-0.007494411
131	0x3d21eb0c	0.0395308
132	0x3bc9fbba	0.0061640413
133	0xbd1ea4b1	-0.03873128
134	0xbcbe5c48	-0.023237363
135	0xbcd87d9e	-0.026427086
136	0xbc92f2b4	-0.017937995
137	0xbd38941f	-0.045063134
138	0x3c9f75f2	0.01946542
139	0x3a6c7546	0.00090201607
140	0xbd134948	-0.03595856
141	0x3c067e7f	0.00820887
142	0x3d208487	0.039188888
143	0xbd28b04a	-0.041183747
144	0xbd093f3f	-0.03350758
145	0x3b909461	0.0044122194
146	0x3c9b451d	0.018953854
147	0xbd0ac925	-0.033883233
148	0xbd1f4f4d	-0.038893986
149	0x3cf2fcd4	0.029661573
150	0x3b0b7fc2	0.0021285866
151	0xbb6231af	-0.0034514477
152	0x3c3c78e8	0.011503436
153	0xbc67c617	-0.014146349
154	0x3d0295a3	0.031880986
155	0x3d227207	0.039659526
156	0x3a4b0c6a	0.0007745685
157	0xbd25a777	-0.04044291
158	0xbc215b12	-0.009848373
159	0xbbf82225	-0.0075724297
160	0xbcc4d520	-0.024027407
161	0xbd111ffb	-0.03543089
162	0xbd2e3576	-0.042531453
163	0xbd22bc52	-0.039730377
164	0xbd2d1059	-0.04225192
165	0xbbfa1cdb	-0.0076328344
166	0xbd2956b6	-0.04134246
167	0x3c15207d	0.009101984
168	0x3bdaf635	0.006682182
169	0xbd2846d1	-0.04108316
170	0x3d26ad76	0.04069277
171	0x3ca719d5	0.02039806
172	0xbbd7abe7	-0.0065817717
173	0x3c8ec25e	0.017426666
174	0xbc1834a5	-0.009289895
175	0xbc671bab	-0.014105718
176	0xbcd03532	-0.02541599
177	0xbc7dc359	-0.015488469
178	0x3d1698c9	0.0367668
179	0x3c856e81	0.016288044
180	0xbc069947	-0.008215255
181	0xbcfc7a5a	-0.03082006
182	0x3d4319ce	0.04763203
183	0x3b2c9cd7	0.00263386
184	0xbb166e15	-0.0022953798
185	0xbb1ce2fa	-0.0023939
186	0x3bf9f5c4	0.0076281745
187	0xbd2b85f7	-0.041875806
188	0x3c99a5dd	0.018755848
189	0xbb75312d	-0.0037413344
190	0x3d3bcf6a	0.045852102
191	0xbd17b21b	-0.03703509
192	0x3c71a1a2	0.014748009
193	0x3b779fba	0.0037784413
194	0xbcadae01	-0.021201136
195	0xbc9ba597	-0.018999858
196	0x3bfb0f1d	0.0076617138
197	0x3d0466f3	0.032324743
198	0xbadac5ec	-0.0016691065
199	0x3c7ba083	0.015358093
200	0xbd3cf4ea	-0.046132006
201	0x3d31c03d	0.043396223
202	0xbd04d2fa	-0.032427765
203	0x3cc59fc9	0.024124043
204	0xbcf4d8b7	-0.029888494
205	0xbc3a5caa	-0.011374632
206	0xbd20b42f	-0.039234336
207	0xbcbd7ea8	-0.023131683
208	0xbd251d45	-0.040311117
209	0x3d1abf6e	0.037780218
210	0x3d179f96	0.037017427
211	0x3d1fab67	0.03898182
212	0xbce96ad0	-0.028493315
213	0xbcf8dc85	-0.03037859
214	0xbd1d8b7f	-0.038463112
215	0x3cc79ce3	0.024366802
216	0x3d0b8fc7	0.034072664
217	0x3d000b29	0.031260643
218	0xbd3c2a49	-0.045938764
219	0x3d3d9e4e	0.04629355
220	0x3c593dc9	0.01325936
221	0xbd1adae7	-0.037806418
222	0xbcba0c84	-0.022711046
223	0x3d2b5a21	0.041834
224	0x3d2e6f17	0.042586412
225	0x3d3c9359	0.04603896
226	0x3cd90b08	0.026494518
227	0x3ca3f346	0.020013463
228	0x3c479787	0.012182123
229	0x3c876f3a	0.01653253
230	0x3cda3765	0.026637742
231	0x3a993c93	0.0011691026
232	0x3d33c628	0.04389015
233	0x3caac32d	0.02084502
234	0x3a8eaeff	0.0010885893
235	0x3d407acd	0.046992112
236	0x3ce3ed6e	0.027823176
237	0xbce9ad53	-0.02852503
238	0xbbb78a10	-0.005601175
239	0xbcb76dfc	-0.022391312
240	0x3c8acd32	0.016943548
241	0x3cbc8ff0	0.023017853
242	0x3cd78980	0.026310682
243	0xbd2df584	-0.04247047
244	0xbd345de5	-0.044034857
245	0xbd17b4d1	-0.037037674
246	0xbbea280b	-0.007145887
247	0x3c5df303	0.013546708
248	0x3bfd51da	0.0077307047
249	0xbcd284e0	-0.025698125
250	0xbb17feec	-0.0023192717
251	0x3ca454d4	0.02005998
252	0x3d4089f2	0.047006555
253	0x3c118acd	0.00888319
254	0xbc3bf99b	-0.011473085
255	0x3c897a55	0.016781965

fcs1.bias f4 [400]
0	0xbb97c5ee	-0.0046317494
1	0x3dccbb46	0.09996657
2	0x3d8a7d88	0.067622244
3	0xbd9ff02b	-0.0780948
4	0x3d869cab	0.06572851
5	0xbd963139	-0.07333607
6	0x3cca1eaf	0.024672834
7	0x3c78925b	0.015171613
8	0xbd578eef	-0.052626546
9	0x3c90cbda	0.017675329
10	0x3d1325fe	0.035924904
11	0xbccce393	-0.02501086
12	0xbdc6fe64	-0.0971649
13	0xbb48372d	-0.0030550465
14	0xbd2088df	-0.03919303
15	0xba635b6c	-0.0008672986
16	0xbe0ac42f	-0.135514
17	0xbc739f79	-0.014869564
18	0x3d02d91c	0.031945333
19	0x3d8cfaa6	0.06883745
20	0xbda94be5	-0.08266429
21	0x3d7ad9cf	0.061242875
22	0xbdabb409	-0.08383948
23	0xbdaa099b	-0.08302613
24	0x3dfe61e4	0.12421015
25	0x3df83381	0.121191986
26	0xbc9f329a	-0.019433308
27	0x3d5a0675	0.053228814
28	0xbd8e5f9a	-0.06951828
29	0x3d329eee	0.0436086
30	0xbcd7fa2f	-0.026364414
31	0x3d6c66de	0.05771529
32	0xbdcfec8c	-0.101525396
33	0xbdfe3e59	-0.124142356
34	0x3deef8a3	0.116685174
35	0x3da6b3ae	0.0813974
36	0x3e0f4435	0.13990863
37	0x3c2432c8	0.010021873
38	0xbde5ec28	-0.11226684
39	0x3d818257	0.063236885
40	0xbaef6e5c	-0.0018267143
41	0x3e07797e	0.1322994
42	0x3cb1f87f	0.021724937
43	0x3d6630a5	0.056198735
44	0xbe0ed64c	-0.13948935
45	0x3dbf8ecd	0.09353409
46	0x3d4b3744	0.049613252
47	0x3da8e5db	0.082469665
48	0x3dc5c8a5	0.096574105
49	0xbd041ef8	-0.032256097
50	0x3d5ab631	0.053396408
51	0x3d77f802	0.060539253
52	0x3da1fb38	0.07909244
53	0xbcc696c2	-0.024241809
54	0x3da3c74a	0.07996996
55	0x3d35603c	0.04428123
56	0xbdfb09bc	-0.12257716
57	0xbdb647a8	-0.08900386
58	0x3dd0168c	0.101605505
59	0xbd027370	-0.03184837
60	0xbcbc4dc6	-0.022986304
61	0x3d6cc065	0.05780067
62	0xbcedff1a	-0.029052306
63	0x3ce04eb8	0.027381286
64	0xbe082a0b	-0.13297288
65	0x3d17c2a5	0.037050862
66	0xbc5b1836	-0.013372472
67	0x3d252073	0.04031415
68	0xbd267484	-0.04063846
69	0xb9f717dc	-0.00047129288
70	0x3d85f872	0.06541528
71	0xbd225e55	-0.039640743
72	0x3d57cb17	0.052683916
73	0x3d71e965	0.059060473
74	0xbc3c0a45	-0.011477058
75	0x3d2f5183	0.042802345
76	0xbd704a7b	-0.05866478
77	0x3d9b79c4	0.07591584
78	0x3dc65934	0.09684983
79	0x3da1851c	0.07886717
80	0x3e0f7cb6	0.14012417
81	0xbe067d5d	-0.1313376
82	0xbdba16b1	-0.09086359
83	0x3e0ddeed	0.1385457
84	0xbe032936	-0.1280869
85	0x3e04f7ba	0.12985125
86	0x3ccfcbfe	0.025365826
87	0x3ce4f72e	0.027949896
88	0xbe08f3de	-0.13374278
89	0x3d66812c	0.05627553
90	0xbd0a5b17	-0.033778276
91	0x3d08e957	0.033425655
92	0x3d6ce4d3	0.05783541
93	0xbd6200cb	-0.055176537
94	0xbe045468	-0.12922823
95	0xbdf69524	-0.12040165
96	0x3b638507	0.0034716742
97	0x3d6f69d6	0.058450542
98	0xbdf4307f	-0.119233124
99	0x3c9f10bb	0.019417157
100	0xbdd5a803	-0.10432436
101	0x3d805b76	0.06267445
102	0xbc2ab2f0	-0.010418639
103	0x3d9b94a8	0.07596713
104	0x3dbb5304	0.09146693
105	0xbd66de0e	-0.05636411
106	0x3d205693	0.039145064
107	0xbd92c518	-0.07166499
108	0x3de9d1f3	0.11416998
109	0xbd892075	-0.06695644
110	0x3d2643a9	0.04059187
111	0xbc14f4c1	-0.009091557
112	0x3d4b86fe	0.049689285
113	0xbd302f7f	-0.043014046
114	0x3d970ed3	0.07375874
115	0xbd9bc35a	-0.0760562
116	0x3d83be20	0.06432748
117	0x3da8872d	0.08228908
118	0xbd845f87	-0.06463533
119	0xbdc13f13	-0.094358586
120	0xbd17d2d0	-0.03706628
121	0x3de326bd	0.11091373
122	0xbdae34bc	-0.08506152
123	0x3d4ff130	0.050767124
124	0x3e0c1447	0.1367961
125	0xbdd59885	-0.104294814
126	0xbdead947	-0.114672236
127	0xbd257ef5	-0.04040428
128	0x3e05ca24	0.13065392
129	0xbe07046a	-0.13185278
130	0x3d34ef0c	0.044173285
131	0xbde9e167	-0.11419945
132	0x3cfc8e11	0.030829461
133	0x3e047622	0.12935689
134	0xbcffb082	-0.031212095
135	0x3cfbe74b	0.030749938
136	0x3de7c251	0.1131636
137	0x3d27e1db	0.040986877
138	0xbd093047	-0.033493306
139	0x3e00908c	0.1255514
140	0xbdd89c77	-0.10576718
141	0xbd6db12c	-0.058030292
142	0x3ba4a085	0.005024018
143	0xbe0375c2	-0.1283789
144	0x3dd1e50e	0.10248767
145	0x3dbafc76	0.09130184
146	0x3db7b671	0.08970345
147	0xbd965a0e	-0.07341395
148	0x3d9a9f3c	0.07549903
149	0xbddb4f87	-0.10708528
150	0x3d0bcb64	0.034129515
151	0x3d87b788	0.06626803
152	0xbc664cc6	-0.01405639
153	0xbc39184e	-0.011297299
154	0xbcb556db	-0.022136142
155	0xbd9d7397	-0.07688063
156	0x3db51df8	0.08843607
157	0x3d842f1c	0.06454298
158	0xbe0280a1	-0.1274438
159	0xbd365219	-0.04451189
160	0xbd84b47a	-0.06479736
161	0xbe02fb22	-0.12791112
162	0xbb7e9b0a	-0.0038849735
163	0xbd7197e1	-0.058982734
164	0x3a79dc98	0.0009531467
165	0x3e02776b	0.12740867
166	0x3a2c6653	0.0006576527
167	0x3d8eac34	0.06966439
168	0xbdb9220d	-0.09039698
169	0xbda4c3c6	-0.08045153
170	0xbd533fa9	-0.051574383
171	0x3d9e5b10	0.077322125
172	0xbcaa169b	-0.020762732
173	0xbd91bb86	-0.071158454
174	0xbd749f62	-0.05972231
175	0x3e0aa102	0.13537982
176	0xbdd6561b	-0.10465642
177	0x3d7cae43	0.061689626
178	0x3e02c4a7	0.1277033
179	0x3dce6308	0.100774825
180	0x3b749ea9	0.0037326014
181	0xbdb5bdbc	-0.088740796
182	0x3ddfc1b4	0.10925618
183	0xbdc7772d	-0.09739528
184	0x3e11bb4a	0.14231601
185	0xbd18be1b	-0.037290674
186	0x3dfcd2fa	0.12344928
187	0xbd70e9c9	-0.058816705
188	0xbe0d1aff	-0.1377983
189	0x3cce0d90	0.025152951
190	0x3d23cfad	0.039992977
191	0x3e01e385	0.12684448
192	0x3ceceaf4	0.028920628
193	0xbddbc254	-0.107304245
194	0x3d36c452	0.04462082
195	0xbdf9f8c5	-0.12205652
196	0x3d71e6c6	0.059057973
197	0xbe015297	-0.12629162
198	0xb99692a2	-0.0002871948
199	0x3e0fc14f	0.14038585
200	0x3e0790c5	0.13238819
201	0xbd15ae03	-0.036542904
202	0xbe10aaf5	-0.14127715
203	0xbd5aa506	-0.053380035
204	0x3dbdfe4a	0.092770174
205	0x3d5834b7	0.052784648
206	0xbdbdfc51	-0.09276641
207	0xbbc2349d	-0.005926682
208	0xbbed9756	-0.0072507067
209	0x398e6022	0.00027155975
210	0x3c9255d5	0.017863194
211	0x3dc7240d	0.09723673
212	0x3da35825	0.079757966
213	0xbc813cf3	-0.015776133
214	0xbdb5d578	-0.088786066
215	0xbb851a59	-0.004061979
216	0xbdb1754d	-0.086649515
217	0xbd33312d	-0.04374807
218	0x3bd0fb16	0.006377588
219	0xbdfa5333	-0.122229
220	0x3d74d680	0.059774876
221	0x3d8350d5	0.06411902
222	0xbdc443a0	-0.09583211
223	0x3ca06c49	0.019582884
224	0xbdf89155	-0.12137095
225	0xbdcde1a7	-0.100528054
226	0xbd85f0de	-0.065400824
227	0xbdc28656	-0.09498279
228	0x3daccde9	0.08437712
229	0xbdcc1a41	-0.09965945
230	0x3e099c92	0.13438633
231	0xbe05b8e5	-0.13058813
232	0x3d81a8ea	0.06331046
233	0xbdb1e7d5	-0.086867966
234	0xbd829e08	-0.06377798
235	0x3df04391	0.11731637
236	0xbdcf1a9f	-0.101124994
237	0xbe0a9536	-0.13533482
238	0xbdd636bc	-0.104596585
239	0xbca6064c	-0.020266674
240	0x3da874f7	0.08225434
241	0x3d57f4cb	0.052723687
242	0x3df8286b	0.12117084
243	0x3be499da	0.0069763483
244	0xbe08df1b	-0.13366358
245	0x3de499fa	0.11162181
246	0xbda2d1f5	-0.079502024
247	0xbc48ec17	-0.012263319
248	0xbdd51ab3	-0.10405483
249	0x3c664425	0.014054333
250	0xbdec8bf3	-0.11550131
251	0xbdada823	-0.08479335
252	0xbbad267a	-0.005284128
253	0xbd168fcf	-0.03675824
254	0x3d94e17f	0.072695725
255	0x3db1dce3	0.08684709

fc2.weight f4 [256, 404]
0	0xbd5a3a68	-0.053278357
1	0xbd2cb1c6	-0.042161725
2	0x3cc9e4f9	0.024645315
3	0x3cd9d30a	0.02658989
4	0x3c18c182	0.00932348
5	0xbab9135e	-0.0014120152
6	0x3c081b06	0.008307224
7	0x3ce35c25	0.027753899
8	0x3d3a309d	0.045456517
9	0x3c02c089	0.007980474
10	0x3c5e0a62	0.01355228
11	0x3d66f8ff	0.056389805
12	0x3d0939aa	0.03350226
13	0x3caa9757	0.020824118
14	0x3be74085	0.007057252
15	0xbcbd8cc1	-0.023138406
16	0x3ac285d8	0.0014840914
17	0x3b6fab21	0.0036570507
18	0xbc0667d3	-0.008203465
19	0xbc8cbd6c	-0.017180167
20	0x3cd346b4	0.02579055
21	0xbd048eba	-0.032362677
22	0x3cb0a9ad	0.021565283
23	0xbc15c60c	-0.009141456
24	0x399f96b1	0.00030439117
25	0xbcff9bff	-0.031202314
26	0x3d4c04a6	0.04980912
27	0x3b5db759	0.0033831208
28	0xbaac9b92	-0.0013168922
29	0xbc94be4f	-0.018157152
30	0xbc728d0e	-0.014804138
31	0x3d6be4bf	0.057591196
32	0x3c84e2ba	0.016221393
33	0x3d068082	0.0328374
34	0xbd14745c	-0.03624378
35	0x3d616192	0.05502469
36	0x3cf992f2	0.030465577
37	0x39d7e115	0.00041175695
38	0xbc2fe54b	-0.01073582
39	0x3d3f0c9a	0.046642877
40	0x3d265b75	0.040614564
41	0xbd7523ce	-0.0598486
42	0xbc2d90a3	-0.010593566
43	0x3d3ac010	0.04559332
44	0xbd3218d7	-0.04348072
45	0xbcbccbc9	-0.023046391
46	0xbd44a4f2	-0.048008867
47	0x3d26a61b	0.040685754
48	0x3d7342b6	0.059389792
49	0x3d0486f3	0.03235526
50	0x3cef1d73	0.029188847
51	0xbd1b57ba	-0.03792546
52	0xbd63d1b3	-0.055619907
53	0x3ca32445	0.019914756
54	0x3d50d85e	0.050987594
55	0x3d493492	0.0491224
56	0x3d3a09fe	0.045419686
57	0xbd3851ea	-0.044999994
58	0xbd5e6638	-0.054296702
59	0xbd7671bf	-0.06016707
60	0xbd5498f4	-0.05190368
61	0xbce2b745	-0.02767528
62	0xbbb068de	-0.005383595
63	0xbce9f4c6	-0.0285591
64	0x3cc0395d	0.023464853
65	0xbd756c7a	-0.059917904
66	0x3cf29604	0.029612549
67	0xbd6c39dc	-0.057672366
68	0xbc74ddd8	-0.01494547
69	0x3ba14c8d	0.0049224556
70	0xbc67ec70	-0.014155492
71	0x3d2c92d9	0.042132232
72	0x3d3b138c	0.04567294
73	0xbc8dc357	-0.01730506
74	0xbc2cd24a	-0.010548184
75	0x3d792fb5	0.060836513
76	0x3c8c3b96	0.017118257
77	0xbb295a4d	-0.0025841177
78	0x3cc9749a	0.024591733
79	0xbc3a8cf4	-0.011386145
80	0xbd4df173	-0.050279092
81	0xbd6c4925	-0.057686944
82	0xbc90bfba	-0.017669547
83	0x3d20d7de	0.039268367
84	0xbd4fc16d	-0.050721575
85	0xbd4021b6	-0.04690715
86	0x3d251600	0.040304184
87	0x3d2f26aa	0.042761482
88	0xbd18716f	-0.037217554
89	0xbc2b5d7e	-0.010459302
90	0x3ce84487	0.028352989
91	0x3d05e4e6	0.032688998
92	0x3cc52474	0.024065234
93	0x3c473c41	0.012160362
94	0xbd2450db	-0.040116172
95	0xbd310f2a	-0.043227352
96	0x3c11c8ba	0.008897955
97	0xbcf41190	-0.02979353
98	0xbd3fb2d5	-0.046801407
99	0xbd65fc43	-0.05614878
100	0x3a505b32	0.00079481595
101	0xbd315faf	-0.04330414
102	0xbb80d0c5	-0.0039311373
103	0xbca8dfd0	-0.020614535
104	0x39779527	0.00023611319
105	0xbc6f754b	-0.014615367
106	0xbd6ea5e4	-0.058263674
107	0xbd4ecc0b	-0.05048756
108	0x3d5e5f82	0.054290302
109	0xbd42ac4d	-0.0475276
110	0xbcd1480c	-0.02554705
111	0x3c3dc521	0.011582644
112	0x3cf776f1	0.030208083
113	0x3c111d75	0.008857121
114	0x3bddf839	0.006773975
115	0x3d57193a	0.052514292
116	0x3d3872c2	0.045031317
117	0x3d401564	0.0468954
118	0x3d2b6071	0.04184002
119	0x3d15829b	0.03650151
120	0x3d4f0d16	0.05054959
121	0xbcdcc222	-0.026948038
122	0x3d2011cd	0.039079476
123	0x3cf47d13	0.029844796
124	0x3d2c1d04	0.04201986
125	0xbd3a6a1b	-0.045511346
126	0x3d72b752	0.05925686
127	0x3c472fa0	0.012157351
128	0x3d346724	0.044043675
129	0xbd7b4672	-0.06134648
130	0xbd63e047	-0.05563381
131	0x3cec1df7	0.028822882
132	0xbcbafbfc	-0.022825234
133	0x3d5b10a6	0.053482674
134	0x3d370032	0.04467792
135	0xbcfa556f	-0.030558316
136	0xbcc4e272	-0.024033759
137	0xbcaea4d1	-0.021318825
138	0x3d0d57e7	0.03450766
139	0x3cf9e40e	0.030504253
140	0x3cf93df3	0.030425048
141	0x3b833389	0.004003946
142	0xbc6cd891	-0.01445593
143	0x3d544df2	0.051832147
144	0xbd4bfccf	-0.049801644
145	0x3cca95d9	0.024729656
146	0xbd69660b	-0.05698208
147	0x3c75a49e	0.014992861
148	0xbd299921	-0.0414058
149	0x3d531b3b	0.05153964
150	0xbd663143	-0.056199323
151	0x3cdb11e3	0.026741927
152	0xbd268a43	-0.0406592
153	0x3c0e7834	0.008695651
154	0x3d14ce0e	0.03632932
155	0x3c587a1e	0.013212709
156	0x3d4a1152	0.049332924
157	0xbc3e6929	-0.011621752
158	0xbb6a21e3	-0.0035725764
159	0x3d1a21ab	0.037629765
160	0xbb512993	-0.003191565
161	0x3d5243ab	0.051334064
162	0xbd09a6cb	-0.03360633
163	0xbd182297	-0.037142362
164	0x3b495b39	0.003072454
165	0xbd5e444d	-0.054264355
166	0xbcb14696	-0.021640103
167	0xbcaac646	-0.020846497
168	0xbae9b941	-0.0017831699
169	0xbd6f548f	-0.05843025
170	0x3d0ae192	0.033906527
171	0xbc984127	-0.018585755
172	0x3d25878a	0.040412463
173	0x3b1be7d4	0.0023789303
174	0x3ca87e60	0.020568073
175	0xbca1af65	-0.019736955
176	0x3d06bcab	0.03289477
177	0xbc2418ed	-0.010015708
178	0x3c62ae22	0.013835462
179	0xbcd4f80f	-0.02599719
180	0xbd74613b	-0.05966304
181	0x3c136146	0.00899536
182	0x3d0d77be	0.034538023
183	0x3d5b481a	0.05353556
184	0x3d7126ea	0.058875002
185	0x3cd31b5e	0.025769886
186	0x3c8eac94	0.017416276
187	0xbac7b1cd	-0.0015235484
188	0x3d39fda7	0.045407917
189	0x3cf6ddd7	0.030135078
190	0xbd0317a4	-0.032004967
191	0x3cb701af	0.02233967
192	0x3a4b27a0	0.000774974
193	0x3c3cc211	0.011520878
194	0x3d277524	0.0408832
195	0xbd18ba5d	-0.037287105
196	0xbd29f45d	-0.04149281
197	0xbcf8389e	-0.030300435
198	0x3cfa1562	0.030527774
199	0xbc6b43a2	-0.014359387
200	0xbd351ca9	-0.044216786
201	0x3d750924	0.05982317
202	0xbd19b058	-0.03752169
203	0x3b8b9c8e	0.004260606
204	0xbc7d135f	-0.015446513
205	0x3d625c8d	0.055264045
206	0xbd3b2798	-0.045692056
207	0xbd551afc	-0.052027687
208	0xbd64f21b	-0.055894952
209	0x3d5c06cb	0.053717416
210	0x3d7b1b53	0.061305355
211	0xbc14ac72	-0.009074317
212	0x3d43b065	0.047775645
213	0x3d7d2adc	0.061808452
214	0x3d565358	0.052325577
215	0xbcd91dca	-0.026503462
216	0x3c30decf	0.010795309
217	0xbd27de59	-0.04098353
218	0xbd03dcb4	-0.0321929
219	0x3d630009	0.055419955
220	0x39e0e8a2	0.00042897934
221	0xbcd54f71	-0.026038857
222	0x3c156a2c	0.009119552
223	0x3bcd322e	0.0062620854
224	0x3d29cd52	0.041455574
225	0x3c78ef5f	0.015193789
226	0xbd1511eb	-0.03639404
227	0x3c2e1c1a	0.010626817
228	0x3bbbd12d	0.005731723
229	0x3d0167d1	0.031593148
230	0x3c93ea46	0.018056046
231	0x3cab55da	0.02091496
232	0xbcdf533f	-0.027261375
233	0x3b6e3200	0.003634572
234	0x3d21c6c6	0.039496206
235	0xbd6055b8	-0.054769248
236	0xbc8daa7d	-0.01729321
237	0xbd2d7576	-0.042348348
238	0x3c2d052a	0.010560313
239	0x3c24b6aa	0.010053316
240	0x3d18edb3	0.037336063
241	0xbcc0dcb2	-0.023542736
242	0xb968fba8	-0.00022218993
243	0x3d5a7592	0.05333478
244	0x3d4d7d9e	0.050168626
245	0xbd7f89ef	-0.062387403
246	0x3c000379	0.007813328
247	0xbd6b4fbd	-0.05744909
248	0x3a9f8ce6	0.0012172728
249	0x3ca3814d	0.019959116
250	0x3ad5970a	0.0016295623
251	0xbd49a016	-0.049224935
252	0x3c8108ce	0.015751269
253	0x3d612c34	0.054973796
254	0xbc2fa62a	-0.010720769
255	0x3ca4ecd2	0.020132456

fc2.bias f4 [256]
0	0xbc6d8570	-0.014497146
1	0x3cd6e720	0.026233256
2	0x3d318ebe	0.04334902
3	0x3cadcaea	0.021214921
4	0x3b845ea0	0.0040396005
5	0x3d303838	0.043022364
6	0xbd1a990f	-0.037743624
7	0x3d00d337	0.03145143
8	0x3bb00a26	0.0053723035
9	0xbcf713ad	-0.03016075
10	0xbc960f3e	-0.018317815
11	0x3c8dad42	0.01729453
12	0x3cd464de	0.025927003
13	0x3d1c8f78	0.03822276
14	0xbbedd16c	-0.007257631
15	0x3d272813	0.040809702
16	0xbc98e435	-0.018663505
17	0xbd093bb7	-0.033504214
18	0x3c48dd2f	0.0122597655
19	0xbd10b691	-0.03533036
20	0x3d2ef6c4	0.042715803
21	0xbd4696fb	-0.04848383
22	0x3cc95f2b	0.024581512
23	0x3d212c66	0.039348982
24	0xba8fc61a	-0.0010969073
25	0x3cfdaadf	0.030965267
26	0x3d15ab38	0.03654024
27	0x3c5593df	0.0130357435
28	0x3cc9a305	0.024613867
29	0x3c171abf	0.009222685
30	0xbd44f5a4	-0.048085824
31	0xbd19eb18	-0.03757772
32	0xbd03be0b	-0.03216366
33	0xbd158ddf	-0.036512252
34	0x3cbbfd26	0.022947859
35	0xbcb03803	-0.021511083
36	0x3d3bea2a	0.045877613
37	0x3be86fc3	0.007093401
38	0x3d05206f	0.032501634
39	0xbc62a619	-0.013833546
40	0x3b08a443	0.002084986
41	0xbd139775	-0.036033113
42	0x3d349df7	0.04409596
43	0x3c9b5b8b	0.01896455
44	0x3d362c85	0.04447605
45	0x3cdf7421	0.027277054
46	0x3ca79bf7	0.020460112
47	0x3ce9a922	0.028523032
48	0x3cc682d8	0.024232313
49	0xbcb595fc	-0.022166245
50	0x3b7496c6	0.0037321313
51	0x3b9649f6	0.0045864535
52	0x3d07a02f	0.033111747
53	0xba2d3695	-0.00066075596
54	0x3c480e2f	0.012210413
55	0xbc1624e5	-0.00916407
56	0xbc629ae2	-0.013830872
57	0xbcff77a2	-0.031184975
58	0x3ce2fc3d	0.027708167
59	0xbc8173b0	-0.015802234
60	0x3cf4f91c	0.02990394
61	0x3cfb0187	0.030640377
62	0xbcc5367e	-0.024073835
63	0xbc8e01a7	-0.017334772
64	0xbd1fc282	-0.039003856
65	0xbd1e29d9	-0.038614128
66	0x3c8c955d	0.017161066
67	0x385d8828	5.281731e-05
68	0xbd2d8b33	-0.04236908
69	0x3c629aef	0.013830884
70	0xbd30a6fa	-0.04312799
71	0xbd1e9a88	-0.03872159
72	0xbcf29b71	-0.029615136
73	0x3ceae633	0.02867422
74	0x3bd7648c	0.0065732654
75	0x3caac3f5	0.020845393
76	0x3d12b83e	0.03582024
77	0x3d3b2f18	0.04569921
78	0x3cdb0a65	0.026738355
79	0x3b4a7e97	0.0030898207
80	0x3d2a0ca8	0.041515976
81	0xbcc277f9	-0.023738848
82	0xbca67590	-0.02031973
83	0x3cadb875	0.02120612
84	0xbd0b8347	-0.034060743
85	0xbc90b64e	-0.017665055
86	0xbc50c1ed	-0.012741548
87	0x3cbe8206	0.02325536
88	0x3c875642	0.016520623
89	0xbd42d941	-0.04757047
90	0x3ce901dd	0.028443271
91	0x3c9efb54	0.019406952
92	0xbd075b2f	-0.033045944
93	0x3bcfbb43	0.006339462
94	0x3c90a84e	0.017658379
95	0x3ca93bdb	0.020658424
96	0x3d331561	0.04372156
97	0xbd20d3cd	-0.03926449
98	0xbca33f26	-0.019927572
99	0x3d3fcf2c	0.046828434
100	0xbc9f4a47	-0.019444598
101	0xbc477a63	-0.012175175
102	0xbcd8597d	-0.026409859
103	0x3c39b140	0.011333764
104	0x3ca7a217	0.020463033
105	0xbc8242d0	-0.015901
106	0x3c5ecee1	0.013599128
107	0x3c031957	0.008001647
108	0x3d455ed4	0.04818614
109	0xbc8aae2d	-0.016928757
110	0x3c1d1a69	0.009588816
111	0xbc7727f7	-0.015085212
112	0x3c6b198c	0.014349353
113	0xbd15ad92	-0.036542483
114	0xbd1c83c6	-0.038211606
115	0xbcf62547	-0.030047072
116	0x3d1440ff	0.036194798
117	0x3d34e4cb	0.044163506
118	0x3d2eaaed	0.042643476
119	0xbd0381d1	-0.032106224
120	0xbd29090c	-0.041268393
121	0x3c190df6	0.009341707
122	0x3cbc35e4	0.022974916
123	0x3b2756ff	0.0025534031
124	0x3bd7579a	0.006571722
125	0xba5534a9	-0.0008133152
126	0xbd2a4c51	-0.041576687
127	0xbc38c843	-0.011278215
128	0x3cd1849c	0.025575928
129	0xbca6adbe	-0.020346519
130	0xbd1a2e9e	-0.037642114
131	0x3c22d447	0.009938306
132	0x3d197aa3	0.03747047
133	0xbce0ba0e	-0.027432468
134	0xbd266f82	-0.040633686
135	0x3d43d6e9	0.047812376
136	0xbd196a84	-0.037455097
137	0xbc9f5438	-0.019449338
138	0xbcde133f	-0.027108787
139	0x3cec9307	0.028878702
140	0xbcd60dbf	-0.026129602
141	0xbd0b2476	-0.03397032
142	0x3d366f9e	0.04454004
143	0x3c4c2a84	0.012461308
144	0xbcffe57f	-0.031237362
145	0x3d07ecc0	0.033184767
146	0xbd28c4e9	-0.041203413
147	0xbc612b62	-0.013743253
148	0x3d3a94b2	0.045551963
149	0x3cc1e136	0.02366696
150	0x3c4cfea1	0.01251188
151	0xbd29d506	-0.04146292
152	0xbd06be6c	-0.032896444
153	0xbcec6c16	-0.028860133
154	0xbcc2ff5f	-0.023803411
155	0xbc17e4a9	-0.009270825
156	0x3d2614fa	0.04054735
157	0x3c597af3	0.013273942
158	0xbbb3a947	-0.005482826
159	0x3d268bd2	0.040660687
160	0x3cfe81db	0.03106778
161	0x3d1085b2	0.03528375
162	0x3cbab779	0.022792565
163	0x3bcd900c	0.0062732752
164	0x3c909012	0.017646823
165	0x3d40e442	0.047092684
166	0xbd47ca71	-0.048777048
167	0x3c743c38	0.014906935
168	0x3d2b3f20	0.041808248
169	0xbc888a08	-0.01666738
170	0xbd0c3d56	-0.034238182
171	0x3c96a4d4	0.018389143
172	0xbd04ffbc	-0.03247045
173	0xbb9725d6	-0.0046126647
174	0x3d4aaf1c	0.049483404
175	0x3d18aefd	0.037276257
176	0x3c635052	0.01387413
177	0x3cbe22d3	0.023209965
178	0xbd3cb4c5	-0.046070833
179	0x3cb511a5	0.02210314
180	0xbcc66caf	-0.024221746
181	0xbd131694	-0.035910204
182	0x3c538fcd	0.012912703
183	0xbd3a0365	-0.045413394
184	0x3cd7e197	0.026352687
185	0xbcec78ba	-0.02886616
186	0xbcbff9b6	-0.023434501
187	0x3c92b5b8	0.017908916
188	0xbd017dfa	-0.03161428
189	0x3cae43a5	0.02127249
190	0xbc4dd73e	-0.012563525
191	0x3c883742	0.016627911
192	0xbca8b18d	-0.020592475
193	0xbbf88758	-0.0075844936
194	0x3d2b6ace	0.041849904
195	0xbca026b2	-0.019549701
196	0x3b9f27e8	0.004857052
197	0xbc1193f0	-0.008885369
198	0xbd3730e9	-0.04472438
199	0xbd0b6f2f	-0.03404158
200	0xbc85d998	-0.016339108
201	0xbcc899ed	-0.02448746
202	0x3d12bd73	0.035825204
203	0xbcacb2cb	-0.021081349
204	0x3d1a3491	0.037647787
205	0x3c633026	0.01386646
206	0xbc78a268	-0.015175439
207	0x3c67fd7e	0.014159558
208	0xbd2f6d79	-0.04282901
209	0x3b344092	0.0027504307
210	0x3cd171ef	0.025567023
211	0xbce7e536	-0.028307538
212	0x3c11d9d5	0.008902033
213	0x3bc6c53c	0.0060659926
214	0x3d3cff48	0.046141893
215	0x3cb9c4ac	0.022676788
216	0x3cbb07a9	0.022830801
217	0x3b9d309c	0.0047970545
218	0x3d42eac1	0.04758716
219	0x3b40ed35	0.0029438261
220	0x3cba1e7e	0.022719618
221	0x3d2394c1	0.039936785
222	0x3cd320b8	0.025772437
223	0x3d2468c5	0.04013898
224	0x3c5aa6ce	0.013345433
225	0x3cb3a3a5	0.021928618
226	0x3c79be17	0.015243075
227	0x3bcbf450	0.0062241927
228	0xbc4287c0	-0.011873186
229	0x3c9a4daf	0.01883587
230	0x3d17a009	0.037017856
231	0xbc8d25a8	-0.01722987
232	0x3c495cc1	0.012290181
233	0x3a55359d	0.0008133294
234	0x3ce3bcb9	0.02779995
235	0x3c1f9a53	0.009741384
236	0xbd05e1fb	-0.032686215
237	0x3cd5de04	0.026106842
238	0xbd320e7c	-0.043470845
239	0xbb1bb1d1	-0.002375711
240	0xbc982f6f	-0.018577306
241	0xbc93da2d	-0.01804837
242	0x3b6eef02	0.0036458378
243	0xbcfe397a	-0.031033266
244	0x3bc13f4f	0.0058974396
245	0x3cfa0d72	0.03052399
246	0xbce7e66e	-0.02830812
247	0x3cd584af	0.026064245
248	0x3ca94925	0.02066476
249	0x3d20744d	0.039173413
250	0xbcbcac3b	-0.023031345
251	0xbcf98dd4	-0.030463137
252	0x3d2fd47d	0.042927254
253	0x3cc2465d	0.023715192
254	0xbd279e0c	-0.04092221
255	0xbd228c25	-0.039684433

fc3.weight f4 [1, 256]
0	0x3a9981ad	0.001171162
1	0xba1202ae	-0.00055698573
2	0x39f2aa9c	0.0004628495
3	0xb617a0b1	-2.2594288e-06
4	0x3aa6e2ef	0.0012732426
5	0x3997f229	0.00028981388
6	0xba4b6a3b	-0.0007759665
7	0x3a33e800	0.0006862879
8	0xb907373f	-0.00012895184
9	0xbb32f286	-0.00273052
10	0x39f38873	0.00046450234
11	0x3ab8cf1a	0.0014099807
12	0x3b0ec612	0.002178554
13	0xba05064c	-0.00050744857
14	0x3ad81991	0.0016487112
15	0x3ad76807	0.0016434201
16	0xb910f7b2	-0.00013825184
17	0x3ac33466	0.0014892935
18	0xb7c8afe0	-2.3923756e-05
19	0x3b46856a	0.0030291923
20	0xba5dba2b	-0.0008458222
21	0x3b13818f	0.0022507643
22	0xbaabb3b3	-0.0013099819
23	0xb9c6c142	-0.0003790949
24	0x3abe8ce5	0.001453784
25	0x3aa4d07e	0.0012574343
26	0xbb07be26	-0.0020712703
27	0xba8ea69e	-0.0010883396
28	0x3b5b1cb2	0.0033433852
29	0xb909d048	-0.00013142929
30	0xbb0d5254	-0.0021563964
31	0x3aa776b9	0.0012776471
32	0x3b0c0d63	0.0021370284
33	0x3b00da34	0.001966131
34	0x3aecce21	0.0018066802
35	0xb9a260d2	-0.00030971185
36	0x38c467d6	9.365349e-05
37	0x39a15af4	0.00030776078
38	0xbb2b6b2b	-0.0026156406
39	0xba03431b	-0.0005007253
40	0x3ada7449	0.0016666736
41	0xb9730389	-0.00023175603
42	0x394fe949	0.00019827964
43	0xbae28a1a	-0.0017283589
44	0xb9d626da	-0.00040846207
45	0x3b5745b4	0.0032847943
46	0x3b37c860	0.0028043017
47	0xbac2c5be	-0.0014859957
48	0xbaa029ed	-0.0012219526
49	0x3940b20f	0.00018376879
50	0x370177e0	7.71691e-06
51	0x3b2afec8	0.0026091803
52	0xbaf82ee6	-0.0018934875
53	0xbb524aa6	-0.003208795
54	0xbaee3cae	-0.0018176043
55	0x3b161c48	0.002290504
56	0x39a5b74b	0.00031607816
57	0xba911bce	-0.0011070909
58	0x3b15357d	0.0022767477
59	0x3a8af14f	0.001060048
60	0xb96d8e10	-0.00022655004
61	0x3b4b4906	0.0031018867
62	0x3916ae84	0.00014370127
63	0xbb1433ab	-0.0022613804
64	0xbb58ec46	-0.0033099814
65	0x3a28ab47	0.0006434214
66	0xbb0ffbfc	-0.0021970263
67	0xbb35d218	-0.0027743634
68	0x39b811c0	0.0003510844
69	0xba3f7759	-0.0007303856
70	0x395a7c40	0.00020836387
71	0xbadb7975	-0.0016744571
72	0xbb12d711	-0.0022406022
73	0xb8a2c06e	-7.760605e-05
74	0xbae702f7	-0.0017624785
75	0x3a337e48	0.00068471255
76	0xb9bba8f9	-0.00035793314
77	0xbb33167d	-0.0027326636
78	0xb98ef040	-0.0002726335
79	0x39691696	0.00022229025
80	0xbac386a8	-0.001491745
81	0xba7381de	-0.0009289066
82	0x3b0e52a2	0.0021716733
83	0x3a28693d	0.0006424373
84	0xba2e6855	-0.000665312
85	0x3b265a70	0.0025383495
86	0x3ab9625d	0.0014143694
87	0x3b3191b4	0.0027094902
88	0x3a9fdef3	0.0012197181
89	0xbabc7896	-0.0014379199
90	0x3a9e1c7e	0.0012062935
91	0xba1384c7	-0.00056273903
92	0x3b05f0e8	0.002043778
93	0x3a9ff4f2	0.0012203737
94	0x3ab4794c	0.001376906
95	0xba1ae68e	-0.0005908989
96	0xbb03c1c2	-0.0020104502
97	0x3a77badb	0.0009450146
98	0xb95cee99	-0.0002106972
99	0x3b28a96a	0.0025735744
100	0xba26de99	-0.0006365567
101	0x3965c768	0.00021913426
102	0x3a7953f2	0.0009511105
103	0xb8ae5340	-8.312473e-05
104	0xba4659e6	-0.00075664965
105	0xba8482ad	-0.0010109745
106	0xba889f7a	-0.0010423504
107	0xba6b68eb	-0.00089801726
108	0x395dac95	0.00021140494
109	0xb9f61050	-0.0004693293
110	0xbb2dffd1	-0.0026550184
111	0xba93a0d3	-0.0011263139
112	0xbb16a4c8	-0.00229864
113	0x3a204bdc	0.00061148196
114	0xbb0b8312	-0.002128784
115	0x399dbd7b	0.00030086547
116	0x3886dd0b	6.4307904e-05
117	0x3b7d0156	0.0038605533
118	0xbab714a3	-0.0013967942
119	0x39f809be	0.00047309505
120	0xbb29a466	-0.0025885343
121	0x39d366f1	0.00040321753
122	0xbaa758e3	-0.0012767579
123	0x3aef0772	0.0018236472
124	0xbaebc439	-0.0017987556
125	0x3a8f5450	0.0010935161
126	0x3a1db76b	0.0006016406
127	0x3a1d2bda	0.0005995609
128	0x3b0adf0a	0.002119007
129	0x3990a2a1	0.00027586988
130	0x3aae9e67	0.0013322354
131	0xbae57e67	-0.0017508984
132	0xbabe9d87	-0.0014542796
133	0xbac77283	-0.0015216622
134	0x3ad99324	0.0016599637
135	0xba1263f4	-0.0005584352
136	0xba8d2f3f	-0.0010771527
137	0xb97f1ca5	-0.00024329366
138	0x391f24bb	0.00015177105
139	0xbaa6f47d	-0.0012737658
140	0x3a6abd92	0.000895464
141	0x3b4bbf0e	0.003108922
142	0x398e376e	0.0002712565
143	0xbb2f300d	-0.0026731521
144	0x3a347d77	0.0006885151
145	0x3a936d0c	0.0011247708
146	0x3aa00618	0.0012208847
147	0xbb22418d	-0.002475831
148	0xbac0bf99	-0.0014705538
149	0x395c1af3	0.00020990874
150	0x3a2b983c	0.0006545817
151	0xbadbf4a8	-0.0016781287
152	0x3a8befd4	0.0010676333
153	0xb9577ebd	-0.00020551211
154	0xbb027973	-0.0019908815
155	0xba905e66	-0.0011014461
156	0xbb278eab	-0.0025567214
157	0x389fed26	7.625883e-05
158	0x3a8fe0db	0.0010977046
159	0xba77308d	-0.0009429537
160	0x3b4de0fa	0.0031414614
161	0x3add4ef6	0.0016884494
162	0x39b076e7	0.00033657925
163	0x3b1b93f4	0.002373931
164	0x3ab22c66	0.0013593554
165	0x3a39c82a	0.0007087017
166	0x3b31c4eb	0.002712543
167	0xbafb13fd	-0.0019155737
168	0xbb25c1fc	-0.0025292626
169	0xb9fa42f9	-0.00047733614
170	0xbaf56adb	-0.0018723862
171	0x3af14bec	0.0018409467
172	0x395c2d0b	0.00020997615
173	0x3ab47748	0.0013768459
174	0xbb1cde9b	-0.0023936394
175	0xba7d8d74	-0.0009672262
176	0xbb16a973	-0.0022989183
177	0x3a04b833	0.0005062848
178	0x3b23a986	0.002497287
179	0xbb5ab8b3	-0.003337425
180	0xbac412d1	-0.0014959221
181	0x3afd6a55	0.0019334058
182	0x3997b88a	0.00028938457
183	0xba39f3f9	-0.00070935447
184	0xbb0d2941	-0.0021539482
185	0x3aaf5b0f	0.0013378578
186	0xbb2edd87	-0.0026682334
187	0xba93c50f	-0.0011273938
188	0xba8863f2	-0.0010405763
189	0x3a7f6042	0.00097418216
190	0xbb206ee6	-0.0024480163
191	0xba84b237	-0.0010123913
192	0xb94d3bc1	-0.00019572584
193	0x3a6cb496	0.0009029595
194	0x3a38b6db	0.00070462906
195	0x3a61226e	0.0008588199
196	0x3b49a520	0.0030768588
197	0xbaea7f6a	-0.0017890756
198	0x3a7d030c	0.0009651638
199	0x373f9f7c	1.142162e-05
200	0xbb042ae2	-0.0020167162
201	0x3ae792c9	0.0017667647
202	0x3afba56a	0.0019199078
203	0x3b5f96f1	0.0034117068
204	0xb7ec7a1c	-2.8190254e-05
205	0x3b077914	0.0020671533
206	0xbad5d2b9	-0.0016313411
207	0xbab0c024	-0.0013484997
208	0x3b73d777	0.0037207284
209	0x3b4bc960	0.003109537
210	0x3accb808	0.001561881
211	0xbad8fc04	-0.0016554599
212	0xba64a41d	-0.00087219646
213	0x3b04f2f1	0.0020286406
214	0x3b583825	0.003299245
215	0xbab8939f	-0.001408208
216	0x3ab0f72c	0.0013501397
217	0x3a3549fb	0.0006915626
218	0xba1a31ee	-0.0005882074
219	0x3ab76d2b	0.0013994327
220	0x3b3c1fc5	0.002870546
221	0xbb004a63	-0.0019575588
222	0xb96f4488	-0.00022818346
223	0x3b072211	0.002061967
224	0x3a96853c	0.0011483799
225	0xbb5ff36c	-0.003417219
226	0xbb232095	-0.0024891247
227	0x3a0f7b16	0.00054733583
228	0xba0c117c	-0.00053431815
229	0xbac71575	-0.001518889
230	0xbac7b976	-0.0015237767
231	0x3ab38af9	0.0013698033
232	0x3ad55a03	0.0016277436
233	0xba130a15	-0.00056091073
234	0x3b1651e0	0.0022936985
235	0xbaa0f3b6	-0.0012279663
236	0xbb20998e	-0.0024505588
237	0xbb14cf49	-0.002270656
238	0x3937dbcf	0.00017534125
239	0xbb0876fd	-0.0020822876
240	0x3a9379e9	0.0011251542
241	0xba262966	-0.00063385663
242	0xba179fdb	-0.0005784013
243	0xba7eb0c6	-0.00097156723
244	0x3ac0474c	0.0014669686
245	0x3b2cf57d	0.002639144
246	0x3b0123e2	0.0019705226
247	0xba4fc7cf	-0.0007926197
248	0x3ad2be27	0.0016078398
249	0xbb4554cc	-0.0030110357
250	0xbb272a7d	-0.0025507503
251	0x3b343845	0.002749936
252	0xba935eb4	-0.0011243434
253	0xbabbde3f	-0.0014333202
254	0xb75002c4	-1.239841e-05
255	0xbaf1ffbe	-0.0018463058

bn.weight f4 [400]
0	0x3de7f4e8	0.11326009
1	0x3f73cf53	0.95238227
2	0x3f320449	0.6953779
3	0x3f190911	0.5977946
4	0x3e9302a0	0.2871294
5	0x3dace820	0.08442712
6	0x3e190b74	0.14945775
7	0x3eabf852	0.3358789
8	0x3edf1d18	0.43576884
9	0x3d02e1c0	0.031953573
10	0x3f1e5d8c	0.6186149
11	0x3f38fdfc	0.7226255
12	0x3e87e47a	0.265415
13	0x3f26de90	0.65183353
14	0x3e9f3b56	0.31099957
15	0x3ee9bea4	0.4565326
16	0x3f272b16	0.6530012
17	0x3ed8e820	0.42364597
18	0x3f3155d4	0.6927159
19	0x3e15c2f0	0.14625144
20	0x3f05f9bd	0.52334195
21	0x3e1b6c74	0.1517809
22	0x3f23133e	0.63701236
23	0x3f45f30d	0.7732399
24	0x3f20c23c	0.6279638
25	0x3f31016f	0.6914281
26	0x3f02c69a	0.5108429
27	0x3e726b78	0.23673809
28	0x3e5e43c0	0.21705532
29	0x3d957180	0.07297039
30	0x3f2e299a	0.6803223
31	0x3ec399b0	0.38203192
32	0x3f4fc363	0.8115751
33	0x3f172f21	0.5905629
34	0x3f5552c5	0.8332942
35	0x3f24c517	0.64363235
36	0x3f18bbb6	0.59661424
37	0x3f4fc107	0.8115391
38	0x3ec466ac	0.38359582
39	0x3dc07ae8	0.093984425
40	0x3f082c73	0.53192824
41	0x3e699080	0.22809029
42	0x3f2dc693	0.67881125
43	0x3f46963b	0.77572984
44	0x3ec8e52a	0.39237338
45	0x3c86f7e0	0.016475618
46	0x3f54abed	0.8307484
47	0x3f09c0d2	0.53809845
48	0x3f4223d8	0.75835943
49	0x3e80fc04	0.25192273
50	0x3e71d84c	0.23617667
51	0x3f22704f	0.6345262
52	0x3ea7a4ea	0.32743007
53	0x3f30201b	0.6879899
54	0x3f21f3ec	0.6326282
55	0x3e2be8e0	0.16788054
56	0x3f2704cc	0.65241694
57	0x3e8c7eca	0.27440482
58	0x3f39ff76	0.7265543
59	0x3d3fe9e0	0.0468539
60	0x3f609c62	0.8773862
61	0x3ed2d742	0.41179854
62	0x3e4cb8ec	0.19992417
63	0x3eeaa1fe	0.45826715
64	0x3f0612d9	0.5237251
65	0x3eee1d2a	0.46506625
66	0x3f42bcca	0.7606932
67	0x3d61d250	0.05513221
68	0x3f25e728	0.6480584
69	0x3eb2f7a6	0.34954566
70	0x3f03d401	0.5149537
71	0x3f4f69be	0.81020725
72	0x3ef928d8	0.48663974
73	0x3e543670	0.20723891
74	0x3d2753f0	0.040851533
75	0x3f78b4ff	0.9715118
76	0x3e8c627a	0.27418882
77	0x3f7756c9	0.966168
78	0x3f4474bf	0.7674064
79	0x3dd63a38	0.10460323
80	0x3f1f6fd5	0.6228002
81	0x3ea82966	0.32844085
82	0x3f111550	0.56673145
83	0x3f715199	0.94265133
84	0x3e7a3e4c	0.24437827
85	0x3ebf28c0	0.37335777
86	0x3f223e56	0.6337637
87	0x3d8f7208	0.070041716
88	0x3e8e65f8	0.2781217
89	0x3f264ab8	0.6495776
90	0x3ea9c70c	0.33159673
91	0x3ef5e2dc	0.48024642
92	0x3f36e9eb	0.7145068
93	0x3be37300	0.0069411993
94	0x3f5fe4d4	0.8745854
95	0x3f4b6b4e	0.7946061
96	0x3f6a21a3	0.91457576
97	0x3f0f91b5	0.56081706
98	0x3f221b24	0.63322663
99	0x3cc4f560	0.024042785
100	0x3f0eb134	0.5573914
101	0x3f2af057	0.6677298
102	0x3ec17ab8	0.3778894
103	0x3e9bf0a2	0.30457026
104	0x3f2d1cf4	0.67622304
105	0x3f5db1aa	0.8659922
106	0x3e89322a	0.26796085
107	0x3f456ea6	0.7712196
108	0x3ecca456	0.39969128
109	0x3da1ad70	0.07894409
110	0x3ef9448c	0.4868511
111	0x3f3e035a	0.74223864
112	0x3c8be7e0	0.01707834
113	0x3f3637cd	0.71178895
114	0x3f2a68c3	0.66566104
115	0x3f34ee0f	0.7067575
116	0x3e25c474	0.16188222
117	0x3dda2e60	0.106533766
118	0x3f08b8a4	0.5340674
119	0x3f3741ab	0.71584576
120	0x3f52c1c3	0.82326907
121	0x3f067c7c	0.525337
122	0x3f669e5d	0.90085393
123	0x3eda6db0	0.4266181
124	0x3f05a522	0.522051
125	0x3f61be16	0.88180673
126	0x3e8e1318	0.27748942
127	0x3f3c6f3f	0.7360725
128	0x3e769064	0.24078518
129	0x3ef1b8b6	0.47211236
130	0x3f50d738	0.815784
131	0x3f752da4	0.9577277
132	0x3f3f561e	0.7474078
133	0x3da818f0	0.082078815
134	0x3e809d4a	0.25120002
135	0x3f6e5476	0.9309763
136	0x3f3af83a	0.73035014
137	0x3f206ba0	0.6266422
138	0x3f217843	0.6307413
139	0x3f2c8da4	0.67403626
140	0x3f509711	0.8148051
141	0x3e691b04	0.22764212
142	0x3f556bb7	0.83367485
143	0x3f5c8ef0	0.86155605
144	0x3f463583	0.774254
145	0x3eb88106	0.36035937
146	0x3f3728c0	0.71546555
147	0x3ef4d226	0.4781658
148	0x3f45b518	0.7722945
149	0x3f7e388b	0.9930503
150	0x3f5f96b5	0.87339336
151	0x3f0de92f	0.55433935
152	0x3f5c7147	0.8611035
153	0x3f02c6b1	0.5108443
154	0x3f7a88e9	0.9786516
155	0x3dc67d08	0.096918166
156	0x3dc8c4a0	0.09803128
157	0x3ed671c4	0.4188367
158	0x3f7fd460	0.99933434
159	0x3e918484	0.28421414
160	0x3f4a335d	0.78984624
161	0x3e7d9458	0.2476362
162	0x3e83aef2	0.2571941
163	0x3f76d34e	0.96416175
164	0x3f2cc41e	0.6748675
165	0x3f4791b2	0.7795669
166	0x3f36726c	0.71268344
167	0x3f1b768c	0.60727763
168	0x3f5931f3	0.8484184
169	0x3f776fb7	0.9665484
170	0x3f244764	0.64171433
171	0x3d562e30	0.05229014
172	0x3ee1a206	0.44068927
173	0x3ea367b6	0.31915063
174	0x3ed09b4e	0.40743488
175	0x3f2bbf1d	0.6708849
176	0x3ea7e5a2	0.32792383
177	0x3f1bed67	0.6090912
178	0x3e9e5f8a	0.30932266
179	0x3e8f0518	0.27933574
180	0x3f232f4f	0.6374406
181	0x3e0ebe8c	0.13939875
182	0x3d276250	0.040865242
183	0x3f0a513d	0.5403021
184	0x3f3118c6	0.69178426
185	0x3f7a95c0	0.9788475
186	0x3f2c7eaf	0.67380804
187	0x3f30abda	0.69012225
188	0x3e5d9fa4	0.2164293
189	0x3f68b85d	0.90906316
190	0x3e87f964	0.26557457
191	0x3e4e9b58	0.20176446
192	0x3f670414	0.902406
193	0x3edfb9f0	0.43696547
194	0x3f4844b6	0.78229845
195	0x3e65fc98	0.22459638
196	0x3edc0374	0.42971385
197	0x3f4ecc90	0.8078089
198	0x3f221ba1	0.6332341
199	0x3d99e9b0	0.075152755
200	0x3f57dd59	0.84322125
201	0x3f7d2c19	0.9889541
202	0x3eaaca9a	0.33357698
203	0x3f1d24cc	0.6138427
204	0x3f32696f	0.6969213
205	0x3efa9d32	0.48948056
206	0x3e7968c4	0.24356371
207	0x3eb44ad4	0.3521334
208	0x3f2a65d2	0.66561615
209	0x3ea3560c	0.31901586
210	0x3eb652aa	0.35609943
211	0x3c9afec0	0.018920302
212	0x3e2daea8	0.16961157
213	0x3f03a7a1	0.51427656
214	0x3f1d44bb	0.61433
215	0x3c8e3000	0.017356873
216	0x3f578265	0.8418334
217	0x3f717216	0.94314706
218	0x3f619552	0.8811847
219	0x3f19f48c	0.60138774
220	0x3ec61c9e	0.38693708
221	0x3f31e18c	0.6948478
222	0x3e353050	0.17694211
223	0x3ef64e7e	0.4810676
224	0x3f279dd2	0.6547519
225	0x3e564204	0.2092362
226	0x3f38e2f9	0.7222133
227	0x3e4a4910	0.19754434
228	0x3ed69f8a	0.41918594
229	0x3f2b3b0d	0.6688698
230	0x3e598ec8	0.21245873
231	0x3f104b18	0.56364584
232	0x3d32bd10	0.043637335
233	0x3f1acc4c	0.6046798
234	0x3f111af3	0.56681746
235	0x3edee5a6	0.43534583
236	0x3e620bdc	0.22074836
237	0x3ec4453a	0.38334066
238	0x3f61f4ec	0.88264346
239	0x3d784df0	0.060621202
240	0x3f35d38c	0.7102592
241	0x3eaa5e84	0.33275235
242	0x3f2f2462	0.6841489
243	0x3ee8b52c	0.45450723
244	0x3f02b47d	0.51056653
245	0x3f0a4d65	0.54024345
246	0x3e2a90ec	0.16656846
247	0x3e82dd36	0.25559396
248	0x3f5c50d8	0.8606086
249	0x3e42cc80	0.19023323
250	0x3ef23dc4	0.47312748
251	0x3ea1334a	0.31484443
252	0x3f7b352b	0.98128
253	0x3e989750	0.29802942
254	0x3f5b2662	0.8560544
255	0x3f30c75d	0.69054204

bn.bias f4 [400]
0	0x00000000	0.0
1	0x00000000	0.0
2	0x00000000	0.0
3	0x00000000	0.0
4	0x00000000	0.0
5	0x00000000	0.0
6	0x00000000	0.0
7	0x00000000	0.0
8	0x00000000	0.0
9	0x00000000	0.0
10	0x00000000	0.0
11	0x00000000	0.0
12	0x00000000	0.0
13	0x00000000	0.0
14	0x00000000	0.0
15	0x00000000	0.0
16	0x00000000	0.0
17	0x00000000	0.0
18	0x00000000	0.0
19	0x00000000	0.0
20	0x00000000	0.0
21	0x00000000	0.0
22	0x00000000	0.0
23	0x00000000	0.0
24	0x00000000	0.0
25	0x00000000	0.0
26	0x00000000	0.0
27	0x00000000	0.0
28	0x00000000	0.0
29	0x00000000	0.0
30	0x00000000	0.0
31	0x00000000	0.0
32	0x00000000	0.0
33	0x00000000	0.0
34	0x00000000	0.0
35	0x00000000	0.0
36	0x00000000	0.0
37	0x00000000	0.0
38	0x00000000	0.0
39	0x00000000	0.0
40	0x00000000	0.0
41	0x00000000	0.0
42	0x00000000	0.0
43	0x00000000	0.0
44	0x00000000	0.0
45	0x00000000	0.0
46	0x00000000	0.0
47	0x00000000	0.0
48	0x00000000	0.0
49	0x00000000	0.0
50	0x00000000	0.0
51	0x00000000	0.0
52	0x00000000	0.0
53	0x00000000	0.0
54	0x00000000	0.0
55	0x00000000	0.0
56	0x00000000	0.0
57	0x00000000	0.0
58	0x00000000	0.0
59	0x00000000	0.0
60	0x00000000	0.0
61	0x00000000	0.0
62	0x00000000	0.0
63	0x00000000	0.0
64	0x00000000	0.0
65	0x00000000	0.0
66	0x00000000	0.0
67	0x00000000	0.0
68	0x00000000	0.0
69	0x00000000	0.0
70	0x00000000	0.0
71	0x00000000	0.0
72	0x00000000	0.0
73	0x00000000	0.0
74	0x00000000	0.0
75	0x00000000	0.0
76	0x00000000	0.0
77	0x00000000	0.0
78	0x00000000	0.0
79	0x00000000	0.0
80	0x00000000	0.0
81	0x00000000	0.0
82	0x00000000	0.0
83	0x00000000	0.0
84	0x00000000	0.0
85	0x00000000	0.0
86	0x00000000	0.0
87	0x00000000	0.0
88	0x00000000	0.0
89	0x00000000	0.0
90	0x00000000	0.0
91	0x00000000	0.0
92	0x00000000	0.0
93	0x00000000	0.0
94	0x00000000	0.0
95	0x00000000	0.0
96	0x00000000	0.0
97	0x00000000	0.0
98	0x00000000	0.0
99	0x00000000	0.0
100	0x00000000	0.0
101	0x00000000	0.0
102	0x00000000	0.0
103	0x00000000	0.0
104	0x00000000	0.0
105	0x00000000	0.0
106	0x00000000	0.0
107	0x00000000	0.0
108	0x00000000	0.0
109	0x00000000	0.0
110	0x00000000	0.0
111	0x00000000	0.0
112	0x00000000	0.0
113	0x00000000	0.0
114	0x00000000	0.0
115	0x00000000	0.0
116	0x00000000	0.0
117	0x00000000	0.0
118	0x00000000	0.0
119	0x00000000	0.0
120	0x00000000	0.0
121	0x00000000	0.0
122	0x00000000	0.0
123	0x00000000	0.0
124	0x00000000	0.0
125	0x00000000	0.0
126	0x00000000	0.0
127	0x00000000	0.0
128	0x00000000	0.0
129	0x00000000	0.0
130	0x00000000	0.0
131	0x00000000	0.0
132	0x00000000	0.0
133	0x00000000	0.0
134	0x00000000	0.0
135	0x00000000	0.0
136	0x00000000	0.0
137	0x00000000	0.0
138	0x00000000	0.0
139	0x00000000	0.0
140	0x00000000	0.0
141	0x00000000	0.0
142	0x00000000	0.0
143	0x00000000	0.0
144	0x00000000	0.0
145	0x00000000	0.0
146	0x00000000	0.0
147	0x00000000	0.0
148	0x00000000	0.0
149	0x00000000	0.0
150	0x00000000	0.0
151	0x00000000	0.0
152	0x00000000	0.0
153	0x00000000	0.0
154	0x00000000	0.0
155	0x00000000	0.0
156	0x00000000	0.0
157	0x00000000	0.0
158	0x00000000	0.0
159	0x00000000	0.0
160	0x00000000	0.0
161	0x00000000	0.0
162	0x00000000	0.0
163	0x00000000	0.0
164	0x00000000	0.0
165	0x00000000	0.0
166	0x00000000	0.0
167	0x00000000	0.0
168	0x00000000	0.0
169	0x00000000	0.0
170	0x00000000	0.0
171	0x00000000	0.0
172	0x00000000	0.0
173	0x00000000	0.0
174	0x00000000	0.0
175	0x00000000	0.0
176	0x00000000	0.0
177	0x00000000	0.0
178	0x00000000	0.0
179	0x00000000	0.0
180	0x00000000	0.0
181	0x00000000	0.0
182	0x00000000	0.0
183	0x00000000	0.0
184	0x00000000	0.0
185	0x00000000	0.0
186	0x00000000	0.0
187	0x00000000	0.0
188	0x00000000	0.0
189	0x00000000	0.0
190	0x00000000	0.0
191	0x00000000	0.0
192	0x00000000	0.0
193	0x00000000	0.0
194	0x00000000	0.0
195	0x00000000	0.0
196	0x00000000	0.0
197	0x00000000	0.0
198	0x00000000	0.0
199	0x00000000	0.0
200	0x00000000	0.0
201	0x00000000	0.0
202	0x00000000	0.0
203	0x00000000	0.0
204	0x00000000	0.0
205	0x00000000	0.0
206	0x00000000	0.0
207	0x00000000	0.0
208	0x00000000	0.0
209	0x00000000	0.0
210	0x00000000	0.0
211	0x00000000	0.0
212	0x00000000	0.0
213	0x00000000	0.0
214	0x00000000	0.0
215	0x00000000	0.0
216	0x00000000	0.0
217	0x00000000	0.0
218	0x00000000	0.0
219	0x00000000	0.0
220	0x00000000	0.0
221	0x00000000	0.0
222	0x00000000	0.0
223	0x00000000	0.0
224	0x00000000	0.0
225	0x00000000	0.0
226	0x00000000	0.0
227	0x00000000	0.0
228	0x00000000	0.0
229	0x00000000	0.0
230	0x00000000	0.0
231	0x00000000	0.0
232	0x00000000	0.0
233	0x00000000	0.0
234	0x00000000	0.0
235	0x00000000	0.0
236	0x00000000	0.0
237	0x00000000	0.0
238	0x00000000	0.0
239	0x00000000	0.0
240	0x00000000	0.0
241	0x00000000	0.0
242	0x00000000	0.0
243	0x00000000	0.0
244	0x00000000	0.0
245	0x00000000	0.0
246	0x00000000	0.0
247	0x00000000	0.0
248	0x00000000	0.0
249	0x00000000	0.0
250	0x00000000	0.0
251	0x00000000	0.0
252	0x00000000	0.0
253	0x00000000	0.0
254	0x00000000	0.0
255	0x00000000	0.0
