projects/tennis/checkpoint/early/E09.01_actor0_6000.pt (torch_old, 453689 bytes, 6 tensors)

fc1.weight f4 [400, 24]
000000 47 1f e9 3c 48 dc 84 bd 83 94 70 bc 55 01 1c bd
       0.028457297 -0.06487328 -0.014683845 -0.038087208
000010 f3 63 ed bb a0 85 b1 bd d6 91 f6 3c 99 a2 dc bc
       -0.007244581 -0.08668065 0.030098837 -0.026933001
000020 01 29 0b bd c1 1f 41 bd d7 50 e4 3c 80 a9 8e ba
       -0.03397465 -0.047149424 0.027870579 -0.0010884255
000030 68 0e c7 bd 73 f4 81 bd 3b d1 ac bc 18 9f 91 bd
       -0.09719545 -0.06345453 -0.021095863 -0.07110423
000040 21 94 4e 3d 8b 47 a4 bd b1 79 17 3d 82 c5 35 bd
       0.050434235 -0.08021458 0.03698129 -0.04437781
000050 21 e7 5d bd 02 5d a3 bd f3 f8 65 3d ce cc 57 bd
       -0.0541755 -0.07976724 0.05614562 -0.05268555
000060 6f 3c 6a bd da f7 32 3c 36 f4 c9 bc 19 fe 3c 3d
       -0.05718654 0.01092335 -0.024652582 0.046140764
000070 28 96 43 3d fb 18 9b 3c 72 0b 82 bc 3b 37 9c bb
       0.047750622 0.01893281 -0.015874598 -0.004767326
000080 c5 5d 31 bd f8 ed ee bc 07 a0 87 3c 9a e2 2f 3d
       -0.043302316 -0.029166207 0.0165558 0.042940713
000090 03 71 c3 3b d2 b1 9f 3d ee f2 08 3c 0c 83 13 3d
       0.0059644 0.077975884 0.0083587 0.036013648
0000a0 3e d8 9a bd 8a 04 e8 3c 24 d2 79 bd 43 ef 8a bd
       -0.07560776 0.028322477 -0.06099142 -0.06783917
0000b0 87 1f 24 3d 44 3c d9 3c 54 ab b3 bb 85 9c 79 bd
       0.04006913 0.026517995 -0.0054830704 -0.060940284
0000c0 3b 1d 1b bd 68 6b cc bb f7 eb 99 3c 2b ec 7e 3d
       -0.037869673 -0.0062383898 0.018789275 0.062236946
0000d0 e6 d7 fd 3c 0f 67 ab ba 27 db 86 3c 19 54 b2 3c
       0.030986737 -0.0013076979 0.016461922 0.021768617
0000e0 ba c0 e4 3c 49 89 92 bd 0b 90 ae 3c 13 2a 47 bc
       0.02792393 -0.07155091 0.02130892 -0.012156027
0000f0 27 28 e8 bc 1b 28 fa bc 73 d8 20 bd 7b fe ae 3d
       -0.028339459 -0.030536702 -0.039268922 0.08544632
000100 de fe 03 bd a4 da 63 bd 67 3c 5a bd 51 3e e4 3d
       -0.032225482 -0.055628434 -0.05328026 0.111446984
000110 51 62 12 3b d4 2e 62 3d 44 be b7 bd 49 a2 85 3d
       0.0022336433 0.05522044 -0.08971837 0.06525094
000120 37 9d 00 bc d1 60 26 3d 8a 72 5c 3d 9d fc 78 3d
       -0.007849983 0.040619675 0.05382017 0.060787786
000130 90 6f e8 bd 8b f6 1e 3d e0 f7 8a 3c 59 ff eb bb
       -0.11349404 0.03880934 0.0169639 -0.0072020707
000140 06 f4 46 3d 86 2a 12 3d a0 39 a6 3c e2 2d 9d bc
       0.048572563 0.035685085 0.02029115 -0.019186918
000150 a3 01 87 bc af d1 ad bd b7 1f 21 bd ee 64 cc bb
       -0.016480273 -0.084872596 -0.039336886 -0.0062376177
000160 7a 3b 3f 3d 0a 08 08 3d 54 42 85 bd e3 eb 3d 3c
       0.04668758 0.03321079 -0.06506792 0.011591884
000170 17 4e b5 bd 58 f8 97 3b 83 fa e6 bc e3 94 f2 bc
       -0.08852785 0.004637759 -0.028195625 -0.02961201
000180 64 dd f7 bc 83 bc d9 3d ea f7 be 3c 58 7e 9e 3d
       -0.030256934 0.10631659 0.023311574 0.07738942
000190 ec 2b b0 bd 10 17 47 3d ba 72 8e 3c e4 10 3a 3d
       -0.086021274 0.04860598 0.01738869 0.045426264
0001a0 e7 02 40 bd b9 47 7e 3d d1 10 13 bd a2 2e 3b 3d
       -0.046877768 0.06208012 -0.03590471 0.04569877
0001b0 b9 3c 79 bc 2a 89 0e 3d c6 68 b4 3b 96 12 4f bc
       -0.015212231 0.03479878 0.005505654 -0.012638709
0001c0 ad 90 d9 3a 06 40 c2 3d 00 a6 ac 3b 20 42 66 bd
       0.0016598903 0.09484868 0.005268812 -0.056215405
0001d0 ca da cf 3c be 81 5c 3d 0c ac 5e bc 76 5e 01 bd
       0.025372881 0.05383467 -0.013590824 -0.031584226
0001e0 24 c9 c9 3c 5e 9c 5d bd b9 af 9a bc 00 e2 6c 3d
       0.024632044 -0.0541042 -0.01888262 0.057832718
0001f0 7c d1 f6 3b d6 ca bb bc e4 19 9b 3d 72 c9 7b 3d
       0.0075322967 -0.022923868 0.075732976 0.06147141
000200 1f 5e 03 bd 88 ee 1e bc 35 33 00 bc bf da e1 3d
       -0.032072183 -0.009700425 -0.007824709 0.11028051
000210 f9 3f 1e bb 7d 1a 23 bc 15 1a 2d 3d 19 c2 12 3d
       -0.0024147017 -0.009955046 0.042261202 0.035829637
000220 38 4b bc bc ea 6a e3 bc 70 a1 3a bd 71 ea 0f 3e
       -0.022985086 -0.027760942 -0.045564115 0.14054276
000230 fa ee 1a 3d 45 0a 82 bc cc 84 8f bd ba 88 cc 3d
       0.037825562 -0.015874038 -0.07007751 0.09987016
000240 91 5c 87 3d c7 55 13 bd 67 ae 6f 3d 53 bf df 3c
       0.066094525 -0.035970476 0.058515932 0.02731291
000250 f5 4b cd 3c 88 77 39 bd 76 22 99 3d 68 46 eb bc
       0.025060633 -0.04528001 0.07477276 -0.028720096
000260 35 e7 84 3d 0c 40 1d 3c d0 33 97 bd 4e 4c 36 39
       0.06489412 0.0095977895 -0.07382929 0.00017385298
000270 26 d5 3d bd bf bd 41 bd 64 26 8c bd cf 15 7c 3c
       -0.046345852 -0.047300097 -0.0684326 0.015386059
000280 27 9f c0 3c 67 06 0c bd 46 50 a4 3a 4f fb 48 3b
       0.02351339 -0.034185793 0.001253613 0.003066737
000290 40 5f eb bd 98 6e 52 3d be 7f 2b 3d a9 fd 89 bd
       -0.11492777 0.051375 0.04186987 -0.06737835
0002a0 f7 9b 1b bd 16 c9 83 3c d9 62 5d bd 25 f2 d6 bc
       -0.037990537 0.016087096 -0.054049347 -0.02623851
0002b0 83 c0 e5 bd 8d 4d 28 3d 6b 45 02 bc f7 61 92 bc
       -0.11218359 0.041089583 -0.007951121 -0.017868979
0002c0 9a 4f 5f bd cb d5 6e 3d 8f b6 16 bd 94 7a b8 ba
       -0.054519273 0.058309358 -0.036795195 -0.0014074617
0002d0 b0 0a a6 bd d0 47 7e bc b2 42 4b bc 0d 7c 99 bd
       -0.08107507 -0.015520051 -0.012406038 -0.07494364
0002e0 b2 c5 08 bd 17 34 c5 bb f5 dd 58 3d 4a ca 1f bd
       -0.033391662 -0.0060181725 0.05294605 -0.039011277
0002f0 87 89 97 bd cd f7 54 bd 79 76 77 3c b1 04 8e 3b
       -0.07399278 -0.051994134 0.01510393 0.0043340554
000300 ba 80 4c bd dd 03 c6 bd 66 d8 59 3d 4d fc 4d 3d
       -0.04992745 -0.096687056 0.05318489 0.05028944
000310 37 38 5d 3d 3c f4 06 bd 5c 4c 4a 3d 42 e8 bf 3c
       0.05400869 -0.032947764 0.04938923 0.023426179
000320 ac 6e 9e bc ea ac 89 bd e6 4e c8 bc 41 dd 81 3d
       -0.019339882 -0.06722434 -0.024451684 0.06341029
000330 cd f0 49 3c 12 ce 3d bd 3a 03 a3 bc 94 9a ae 3d
       0.012325478 -0.046339102 -0.019899 0.08525577
000340 bf 34 70 bd 1f 77 03 bd df e7 86 3a 41 6a 04 3d
       -0.058644053 -0.032096025 0.0010292492 0.032327894
000350 8f 0f b6 bb 7c 7f 27 bd 76 cf 33 bd 73 1b 6a 3c
       -0.005556054 -0.040893063 -0.043899022 0.014288771
000360 41 f9 35 bd 4c 35 c2 3d c7 89 49 3d 11 88 64 bd
       -0.04442716 0.09482822 0.04920366 -0.055793826
000370 c4 88 4f bd 0a 3c 4c 3d f2 07 a2 bc 6b 72 58 bd
       -0.05066754 0.049861945 -0.01977918 -0.052843492
000380 db e8 4e bc 09 c7 c3 3d ca 3f 26 bd f6 85 d1 bb
       -0.012628759 0.09559447 -0.040588178 -0.006394143
000390 2f 3f a4 bd b1 83 df 3c f9 f8 a3 3b f4 87 c9 b9
       -0.08019864 0.027284475 0.005004045 -0.00038439
0003a0 1c 2e 6d bd ee cd 78 3d 5e e9 64 bd 0e e0 9f 3b
       -0.0579053 0.060743265 -0.05588662 0.0048790043
0003b0 a5 73 9a bd 6b 72 0d 3e a5 b3 fb bc ed e9 59 3d
       -0.07541589 0.13813178 -0.03072531 0.053201605
0003c0 d9 8d 55 bd ad eb f6 bc 38 81 9f bc 6c b4 3e bd
       -0.05213723 -0.030141676 -0.019470796 -0.046558782
0003d0 66 c0 d8 bd 44 5a 29 3d 09 ff 29 bd 44 a2 95 bc
       -0.10583572 0.04134585 -0.041502986 -0.01826585
0003e0 f7 ab ac 3c f1 a7 26 3b 8b d3 fe bc 20 cd 51 3c
       0.021078093 0.002542969 -0.03110673 0.012805253
0003f0 e5 45 f2 bd 57 ca 02 3c a5 2d 3c bc e9 96 7c bd
       -0.118297376 0.007982812 -0.011485492 -0.061667357

fc1.bias f4 [400]
000000 d5 fc 3d 3e 7d 05 22 be 56 2e 4b 3e 9a 53 84 bd
       0.18553479 -0.15822406 0.19841895 -0.06461258
000010 e2 49 8e 3d fb 76 8b bd f7 af eb 3d 3a c7 a2 3d
       0.06947686 -0.06809803 0.11508172 0.07948156
000020 69 49 67 3e 76 f3 a1 3d d1 53 43 3e 10 11 8b bd
       0.22586598 0.079077646 0.19074942 -0.06790364
000030 de e2 09 be 68 76 13 be f5 db b6 3d 8c 0b 36 3e
       -0.13465449 -0.14400637 0.08928672 0.17777842
000040 9d b0 1e 3e 73 a2 1d be 17 3d 15 3e da e0 f3 3d
       0.1549706 -0.15394 0.14574085 0.119081214
000050 6d bc 17 be 48 dc a1 bd cc 69 88 3c 1a f7 28 3e
       -0.14817972 -0.079033434 0.01665201 0.16500512
000060 63 6c 0f 3e d7 ee 87 bd c1 10 04 be b1 c7 9a bd
       0.1400619 -0.06637352 -0.12897016 -0.07557619
000070 d4 4a a0 bd 4b 79 f8 bd 02 aa c3 3d c2 61 ac 3d
       -0.07826772 -0.1213251 0.09553911 0.08417083
000080 6c a5 a3 3d 55 9b 37 3e bb a5 3c 3e 8b 40 01 3e
       0.07990536 0.17930348 0.18422596 0.12622277
000090 48 12 12 be 79 b4 7a bd 0f e7 40 3e 3d f3 a1 bd
       -0.14264786 -0.06120727 0.18838142 -0.07907722
0000a0 30 16 d7 bd b0 8e 28 be b4 27 47 be 5d e2 0e bc
       -0.10502279 -0.16460681 -0.1944874 -0.008720961
0000b0 2d fa d5 3b db 33 40 be 88 30 26 be ca 25 cb 3c
       0.0065300674 -0.18769781 -0.1622945 0.024798293
0000c0 28 de 54 3e 7a 2f 6b bd 9f 4d 1b 3c e8 11 56 bc
       0.20787871 -0.057418324 0.0094789555 -0.013065793
0000d0 b3 5e ce bd 4f b7 3b bd cb ab 17 3e 56 be 55 3e
       -0.10076656 -0.045829114 0.14811628 0.20873389
0000e0 54 dc f4 bc 49 fe 36 b9 ce fd 71 3e 1c 6d 5b bd
       -0.029890217 -0.00017451601 0.23631975 -0.05357085
0000f0 f1 f3 36 3e 66 21 09 3e 82 65 61 3e f3 35 e1 3d
       0.17866494 0.13391647 0.22011378 0.10996618
000100 4b 9f 05 3e 75 30 36 3d 88 90 14 3d d8 6c 62 3d
       0.13049047 0.044479806 0.03627065 0.055279583
000110 7d 2b fc bd 01 79 aa bd ac 45 fd bd ea be bc 3d
       -0.12312982 -0.08323861 -0.123668045 0.092161015
000120 4a dc 33 3e 7d 82 cb 3d d1 75 25 3e 15 45 1d 3e
       0.17564502 0.09936998 0.16158225 0.15358384
000130 8a bb 91 bd 6a 53 19 3e ec 48 00 3e 64 81 5c 3e
       -0.07115848 0.14973226 0.12527817 0.21533734
000140 83 4d 47 3e c7 f2 72 3e c5 9a 56 bd 7a 9d c5 bc
       0.19463162 0.23725425 -0.052393693 -0.024122942
000150 10 37 98 bd e2 ce c5 3d 91 b2 cb 3d b1 61 cd 3d
       -0.07432377 0.096586004 0.09946168 0.10028399
000160 c1 e2 a5 bd ed d5 3a 3c a4 78 11 bc 1d 40 c1 3d
       -0.080998905 0.011403543 -0.008878861 0.09436057
000170 a6 56 cf 3b 1c b8 3f bd 05 64 1d be ef 04 eb bd
       0.006327468 -0.04680644 -0.15370186 -0.114755504
000180 82 36 cc 3c a7 7c 0c 3d b0 ff 1e 3e 58 20 1b be
       0.024928335 0.034298565 0.15527225 -0.15149057
000190 6c fc d5 3d 29 f3 d1 3d 5c 4a 30 bd 09 40 36 3e
       0.10448536 0.10251457 -0.043039665 0.17797865
0001a0 2a ba 9a bc ef b1 35 be 48 75 b3 3c e8 a1 8a 3d
       -0.018887598 -0.17743658 0.02190651 0.067691624
0001b0 36 c3 59 3b 91 f0 17 3e 5a 65 19 bc 72 13 cf 3d
       0.0033227927 0.14837863 -0.009362543 0.10111131
0001c0 71 45 ab 3d b8 36 a9 bc 3c 9e 02 bb 8f 57 e6 bd
       0.08362854 -0.020655975 -0.001993074 -0.11247169
0001d0 36 a2 84 3e aa 51 47 3e 97 bb be bd 3b 2e 04 3e
       0.25905007 0.19464746 -0.09313124 0.1290826
0001e0 33 58 b8 bd 4f f4 0b be 0c 81 41 3e 49 78 1b be
       -0.09001198 -0.13667415 0.18896884 -0.15182604
0001f0 7d c0 43 bc 42 24 2e be d5 8f bc bd 7d 18 b3 3d
       -0.011947748 -0.17006019 -0.09207121 0.08744905
000200 a8 df f7 bd 9d f4 0f be 1b 49 d0 bd 0a 26 35 bc
       -0.12103206 -0.14058156 -0.10170194 -0.0110564325
000210 16 ef d6 bd 23 98 8b 3c 8a d2 18 3d a5 7b d4 3d
       -0.10494821 0.017040318 0.03731016 0.10375146
000220 89 38 49 be 42 eb 97 bd f8 af 40 3e 62 8c 9b 3a
       -0.19650473 -0.07417919 0.18817127 0.0011867399
000230 4c 3b 54 3e dd b4 54 3e ad f7 d1 3d 49 1c 0c be
       0.20725745 0.20772119 0.102523185 -0.13682665
000240 91 ee 3b be 2f 54 a9 bc 48 2c 12 be cd df db 3d
       -0.18352725 -0.020670025 -0.14274704 0.10736046
000250 ea ac 00 be d5 6e 06 bd ac 6f f8 3d 1a 73 d8 bd
       -0.12565961 -0.03282054 0.12130675 -0.10568829
000260 5e 55 1a be 35 33 2d be 06 d1 60 bd 9b 0f 06 be
       -0.15071627 -0.16914065 -0.05488684 -0.1309189
000270 96 f7 dc 3d fd 40 f7 bd 51 e7 a7 3d dd 5c 1b bd
       0.10789411 -0.120729424 0.08198417 -0.03793036
000280 36 5a 0d 3e 41 1e 44 be f5 e8 06 be 76 99 9e 3d
       0.13803944 -0.19152166 -0.13174804 0.07744114
000290 d3 e1 36 3e 0b 95 3f 3e 36 a7 3d 3e b5 62 e1 3d
       0.17859583 0.18709199 0.18520817 0.11005155
0002a0 0b 38 2b bd b6 10 ea 3c ea 7e 72 bd 1b 9a 43 3e
       -0.041801494 0.028572422 -0.059203066 0.19101755
0002b0 2e 17 2f bc ff 1d 13 3d d1 fd 61 3e 2a e9 8d bc
       -0.010686679 0.03591728 0.2206948 -0.017323095
0002c0 1c f0 b8 bd 46 d4 d6 bd 5b fa 1f 3e 48 dd 66 3e
       -0.09030172 -0.10489707 0.15622847 0.2254535
0002d0 f8 31 83 3d 90 d8 03 3e 41 70 96 bc 03 5e 6a bc
       0.06406015 0.12875581 -0.018364074 -0.014304641
0002e0 33 7b 11 bc 16 97 9e bb 0a 67 86 3e 4f 56 15 be
       -0.008879471 -0.004839788 0.26250488 -0.14583705
0002f0 08 fb bd bd 9f 85 0a be ae 84 46 3e be f9 57 3e
       -0.09276396 -0.13527535 0.19386551 0.21091363
000300 27 a7 3a bd b5 2c 61 3e 5c a5 34 be f6 54 40 be
       -0.045569565 0.2198971 -0.17641205 -0.1878241
000310 37 1e 3b 3e 04 f2 06 be 88 dd 0d be 23 a3 f1 3c
       0.18273245 -0.13178259 -0.13854039 0.029496735
000320 ad 3b 54 3e 75 f6 cb bd 6e e0 d5 bc ab 0f 5b 3b
       0.2072589 -0.09959117 -0.026107993 0.0033426087
000330 0d 15 50 3e e1 f1 c8 bd 0c 18 0f be 73 96 9b 3d
       0.2032053 -0.0981176 -0.13974017 0.07597055
000340 f1 32 c7 3d fb 6c 52 3e 47 d6 b5 3d 5d 9e d8 3d
       0.09726513 0.20549385 0.08878761 0.105770804
000350 79 8b 6a 3e c1 bd a0 bd 6c 46 0d bc ad 0c 5f bd
       0.22904767 -0.07848693 -0.008622747 -0.054455448
000360 19 1c 4a 3e 9f d4 18 3e a8 aa 6a bd cb bc 7a 3c
       0.19737281 0.14924859 -0.057291657 0.015303801
000370 65 88 12 3e 8f 7a 3f 3e 7e 45 2b be 97 06 d4 bd
       0.14309843 0.18699096 -0.16725728 -0.103528194
000380 c2 dd 31 bd 0a db 34 3e 47 3c 4b 3e 84 13 f2 3d
       -0.043424375 0.17661682 0.19847213 0.118201286
000390 2b 04 64 bd e2 15 68 3e 92 64 72 bc 1c b1 79 3d
       -0.055668037 0.22664598 -0.014794486 0.06095992
0003a0 a6 76 2d 3e 5a db 56 3d 4d 05 03 3e 6e 1c a1 3d
       0.16939792 0.052455284 0.12794991 0.07866751
0003b0 2c 85 01 3e 92 55 5b 3e c0 15 26 3e 64 8e 9c bd
       0.12648457 0.21419361 0.16219234 -0.07644346
0003c0 ab 97 0e 3e 2d 7f c6 bd 24 50 92 bc b6 f0 da 3d
       0.13925044 -0.096922256 -0.01786048 0.10690443
0003d0 83 3a 2e 3e b8 e6 06 be a1 cb 09 bd 6e 50 0f be
       0.17014508 -0.1317395 -0.03364146 -0.13995525
0003e0 8b 53 97 3d b9 c2 55 3e 74 6b 45 bd 31 a8 f6 3d
       0.073889814 0.20875062 -0.04819818 0.12043799
0003f0 d7 65 ac 3d 85 17 54 be d4 51 2d be b7 1f 43 3e
       0.08417862 -0.20712097 -0.16925746 0.19055067

fc2.weight f4 [256, 400]
000000 aa ea 3e bc f7 8c 12 3d 4f 37 31 bd a0 37 26 3c
       -0.011652628 0.035778966 -0.043265637 0.010145098
000010 94 80 9c 3d 9d 28 9a 3d f8 46 45 3b 16 1c 0c 3d
       0.07641712 0.075272776 0.0030102115 0.034206472
000020 ea d2 91 bd 90 c9 8d 3d 1c 02 8b bb 3a 12 3d bd
       -0.07120307 0.069232106 -0.004242195 -0.04615996
000030 53 5b fc bc 44 fb 18 bc e5 4c 6d 3c f2 e1 1e bc
       -0.030805266 -0.00933725 0.014483665 -0.009697424
000040 c3 a6 60 3d 59 72 8a 3d 05 58 ba bc da 88 78 bd
       0.054846536 0.06760091 -0.02274705 -0.060677387
000050 47 e8 96 3b d6 ad cc 3c d4 3f 91 3c 00 8f 93 3b
       0.0046053263 0.024985235 0.017730631 0.004503131
000060 8a 3e 3e 3c a8 76 62 bd 88 9f 1a bd 9c ea 1e bd
       0.01161159 -0.05528894 -0.037749797 -0.03879796
000070 30 57 17 bd 51 3a 28 3d a0 6a 18 3d 42 44 dd 3b
       -0.036948383 0.04107124 0.03721106 0.0067525217
000080 1b fe 8c bb 94 14 71 3d cb 4b 75 bd 9c eb ad 3c
       -0.0043027527 0.058857515 -0.059886735 0.021230511
000090 69 4d 8e 3c a2 f9 44 3d e2 bf 39 bd 99 11 7d ba
       0.017370896 0.04808963 -0.04534901 -0.00096538063
0000a0 9e 7a 80 3d 20 f5 88 3c 69 4b 08 3d 37 7d 53 3c
       0.06273387 0.016718447 0.03327504 0.0129082715
0000b0 aa 40 43 bd 6c 16 40 3d ec 37 ab 3b 2f ee bc bc
       -0.04766909 0.046896383 0.0052251723 -0.023062794
0000c0 ed bf 46 bd 79 32 5e bc 58 91 97 3d 24 54 c0 3d
       -0.04852288 -0.013561838 0.07400769 0.093910486
0000d0 a8 76 bb 3c 1d c1 54 3c 1b e3 14 bd 15 9d a7 bc
       0.022883728 0.012985495 -0.036349397 -0.020460645
0000e0 11 5a e7 3a e9 e2 a9 bc 97 0d 32 3c 8f 24 83 3d
       0.0017650743 -0.020738082 0.010867498 0.064034574
0000f0 0d 8a ef bc 70 a5 5b bd c5 b4 f7 3c 63 f2 bf bd
       -0.029240632 -0.05362457 0.030237565 -0.093724035
000100 30 92 a7 3b 97 8d 60 3d ad 0c 43 bc ec a1 bf 3d
       0.0051138625 0.05482253 -0.011904878 0.09357056
000110 0c f4 91 3c 85 fd cd bc 58 88 aa bc 31 ef 02 3d
       0.017816566 -0.025145302 -0.020816967 0.031966392
000120 3e 5b b3 3d 37 c5 6b bc 08 87 91 3c ef ee 1a 3d
       0.087576374 -0.014390281 0.017764583 0.03782552
000130 fd a5 0d 3d d3 4c 1f 3c e6 c2 a7 bd 93 65 37 bd
       0.034582127 0.009722906 -0.08191471 -0.044774603
000140 96 3b eb 3d 63 d9 0e bd c8 4a 0a bd 97 d3 ca 3c
       0.114859745 -0.034875285 -0.033762723 0.024759097
000150 9c a8 1d 3c 3f 24 d7 3c 42 a5 d1 3c 8e 6e 29 bd
       0.009622719 0.0262624 0.025591496 -0.0413652
000160 77 3d c1 3b f5 65 35 bd 5f 09 6a bc 4f b4 cc bb
       0.0058972198 -0.044286687 -0.014284461 -0.0062470804
000170 af 45 f4 bc f9 3c 7c bd 1a 5d ec bd 2b 89 4f 3d
       -0.029818384 -0.061581586 -0.11541195 0.050667923
000180 69 33 54 3d e8 5b 89 3c c1 00 3b 3b 96 b4 2e bd
       0.05180684 0.016767457 0.0028534385 -0.04265269
000190 a6 12 11 bc 81 46 63 bd cb 0d 28 3d 1d 85 9b bd
       -0.008854544 -0.05548716 0.04102878 -0.07593749
0001a0 ee 21 63 bd 4b db 44 3d bd 0f ab 3d 2a f1 19 bc
       -0.05545228 0.048060697 0.08352611 -0.009395877
0001b0 44 a0 b1 3d a8 ec 36 bd 42 47 11 bd 79 b2 5b 3d
       0.08673146 -0.044659287 -0.035468347 0.053637
0001c0 ff b7 29 bb 5b e2 a1 bc e0 d8 62 3d fc a0 d6 3c
       -0.0025897024 -0.019761255 0.05538261 0.02619981
0001d0 e4 1c 0a 3d 54 dc f4 bb 20 9b fd 3b 45 44 85 3c
       0.03371896 -0.007472554 0.0077394396 0.016267905
0001e0 cc 19 f1 bc 48 9f cf 39 e5 bc fd bc 2c d4 6f 3d
       -0.029431246 0.0003960079 -0.030973861 0.058551952
0001f0 a7 93 ee 3c 03 cd ca bc 12 6e 2a 3d c0 ba 66 3d
       0.02912314 -0.02475596 0.041608877 0.056330442
000200 6d af 40 bd 74 3c 32 3d 20 8b 30 3b a0 15 93 3d
       -0.0470423 0.043514684 0.0026938394 0.07181859
000210 ac f8 83 3d 4f 17 27 3d 96 5b a8 bd a2 22 22 3e
       0.06443915 0.040793713 -0.08220594 0.15833524
000220 6c 8b 8d 3c 7f ce 49 bb 5f 9b 7f bd 6f d4 23 bd
       0.017278396 -0.0030793247 -0.062404033 -0.039997514
000230 83 0d 85 bc 05 67 bb 3d 0b ae 87 3d 6e 92 42 3c
       -0.016241794 0.09150509 0.06624993 0.011875732
000240 a4 2e 3f ba 51 ad f2 3c 02 a6 84 3d 90 70 72 3b
       -0.0007293022 0.02962366 0.06476976 0.0036993362
000250 9d 49 7e bc e6 f7 a9 3c d0 46 1b bd 48 ab 0f 3d
       -0.01552048 0.02074809 -0.03790933 0.035075456
000260 01 de 95 bd d4 1e 76 3d d2 bb 0f 3d e0 ad af 3c
       -0.073177345 0.060087994 0.03509123 0.021445215
000270 0e 60 0d 3d 92 ba 20 3d 92 e6 6a 3d a0 ba 0a bc
       0.034515433 0.039240427 0.057348795 -0.008467346
000280 8f 1f b2 3c 1f b0 53 bd 81 a6 09 3c 21 d4 8c 3c
       0.021743564 -0.051681634 0.008401514 0.017190995
000290 1c c8 8b 3d 77 ad 72 3d 41 fa 17 bd 4d 38 3d 3d
       0.06825277 0.05924746 -0.037103895 0.04619627
0002a0 5c 62 8e 3d 79 d2 e2 bc ff 96 4f 3d 31 84 f5 bc
       0.06952354 -0.027688252 0.05068111 -0.02997026
0002b0 fc bf 2f 3c 8c bd 9a bc e5 7c df 3b 0a 98 4b bd
       0.010726925 -0.018889211 0.0068203085 -0.049705543
0002c0 10 7c 0a 3c d2 aa 12 bd 4c 83 a7 3d 3d e9 ec bc
       0.00845243 -0.03580744 0.0817934 -0.02891981
0002d0 26 dd 80 3c 36 70 87 bb c1 2f a1 bd e5 de e8 bc
       0.015730452 -0.0041332496 -0.078704365 -0.028426597
0002e0 68 57 b1 bd 88 67 23 bd 5e c3 30 3d b5 45 30 bd
       -0.086592495 -0.039893657 0.043155067 -0.043035228
0002f0 74 97 a5 3d c4 bd 15 3d 58 83 f4 3b 8e 45 be 3c
       0.08085528 0.036557928 0.0074619465 0.023226526
000300 bf f4 f4 bb 0b 45 ad bc fb 4f 89 3d 8f da 87 bd
       -0.007475465 -0.021151086 0.06704708 -0.066334836
000310 ff b8 d0 3c f8 90 0c bd 82 db 9a bc 54 24 36 bc
       0.025478838 -0.03431794 -0.018903498 -0.01111706
000320 21 f8 ab bd 5f cd ab 3d 00 1e 26 bd 89 0b c3 bb
       -0.08396936 0.08388781 -0.040555954 -0.005952303
000330 97 68 ee bb 82 af 67 bd 75 26 42 3d 65 58 28 3d
       -0.0072756517 -0.05656386 0.047399957 0.041099925
000340 94 5b 74 bc 67 de 60 bc fa 10 17 3d d5 a0 eb 3c
       -0.014914412 -0.0137249 0.036881424 0.028763214
000350 49 e0 37 3d 79 36 df 3d c6 94 9a 38 3a fb c2 bc
       0.04489163 0.10899062 7.3710034e-05 -0.023801435
000360 d1 ba 03 3d 39 ed 59 3d 8e ab ab 3c 87 51 37 3d
       0.032160584 0.05320475 0.020955827 0.044755485
000370 56 34 42 bc 1c e1 70 bc 0f 0b 9f 3d 29 46 4c bd
       -0.011853298 -0.014702108 0.07765781 -0.049871597
000380 9d bb 24 3d 02 a7 49 bd 6a 8f 63 3d 59 fc e9 3c
       0.040217984 -0.049231537 0.055556692 0.028562712
000390 eb 76 3b 3d 0f ab 71 bb b5 71 5d 3c 54 9e 48 3d
       0.045767706 -0.003687564 0.013515879 0.04897912
0003a0 62 c1 6e bd 26 d4 f2 bc fd b9 43 3c 87 e5 c0 bc
       -0.058289893 -0.029642176 0.0119461985 -0.023546947
0003b0 39 8b fe ba 55 f9 42 3d 11 9b cc 3c f3 2d 92 ba
       -0.0019420154 0.047601063 0.024976285 -0.001115261
0003c0 be 6f 37 3d 43 6c 00 bd ce 02 11 bd 86 2d 0b bc
       0.0447843 -0.031353246 -0.035403065 -0.00849474
0003d0 f9 0e bb 3c 57 15 f9 bc 59 88 9b bc cd 71 9e 3d
       0.022834288 -0.030405683 -0.018985914 0.077365495
0003e0 c9 9e 52 3d 52 5c f6 bc 1f aa 39 3c be 86 30 bd
       0.05142096 -0.030073319 0.011332064 -0.04309725
0003f0 de d4 b8 3d a0 3c 53 3c 68 6c d1 3d 06 00 4b 3d
       0.09024976 0.012892872 0.10225755 0.04956057

fc2.bias f4 [256]
000000 69 48 16 bd 6c e7 cf 3c 53 47 84 3d 06 00 0f bd
       -0.03669015 0.025378905 0.064589165 -0.03491213
000010 36 9c 85 bc f6 4d c5 bb d5 a7 a8 3b 7c 79 68 bd
       -0.016309839 -0.0060212566 0.0051469603 -0.05675648
000020 8d fa d4 3c 32 93 22 bd 3b 64 d5 3c b7 a0 c4 3c
       0.025998378 -0.039691158 0.02604877 0.024002416
000030 73 48 f3 bc 96 54 9a bb 38 d0 dc bc a6 37 b0 bc
       -0.029697632 -0.0047097905 -0.026954755 -0.02151091
000040 0c c2 5a 3c 42 b1 b8 bc ed 87 cf 3c a0 b9 57 bd
       0.013351928 -0.02254546 0.02533337 -0.05266726
000050 c1 6f bc 3a 04 ed 78 bc ce d3 a4 3c 3a 0f 34 bc
       0.0014376567 -0.015193228 0.020120528 -0.010989958
000060 70 91 46 bd 9c 4d 23 3c 74 5f b1 3c 63 9f 4c bb
       -0.048478544 0.009967234 0.02165196 -0.0031222932
000070 8f cb de bc a5 60 ec bb 21 00 91 3c f6 be 34 3d
       -0.027196674 -0.0072136694 0.017700257 0.044127427
000080 4e d8 09 3c 62 cb 84 bd b5 e6 e1 3c 71 09 f5 bc
       0.008413387 -0.06484105 0.02757583 -0.029911729
000090 2d db 93 bb 50 32 1f 3d 4a 32 1f 3d b9 4c 22 ba
       -0.004512212 0.03886634 0.03886632 -0.0006191242
0000a0 ca 4c 45 bc 81 67 56 bb eb c5 40 3d d3 04 97 bb
       -0.012042234 -0.0032715502 0.04706375 -0.0046087294
0000b0 86 c0 04 bd 11 fe a6 39 6f 93 c5 3b 39 40 ee bc
       -0.032410167 0.00031851282 0.0060295383 -0.029083358
0000c0 14 1e 9f bb 5a 8a 7f 3c bc bb 77 3d 28 b9 3e 3d
       -0.0048558805 0.01559695 0.06048177 0.046563298
0000d0 a5 d7 c5 bb d9 e5 91 bc 88 75 23 bd df e3 23 3d
       -0.0060376697 -0.017809795 -0.03990701 0.040012237
0000e0 a2 86 50 bd f6 be 07 3d 38 fe b9 bc a0 98 82 3c
       -0.050909646 0.0331411 -0.022704229 0.015941918
0000f0 60 6a 55 3c 19 f0 01 3d f3 8d 4f bd 66 cc a7 3d
       0.01302585 0.031723116 -0.050672483 0.08193283
000100 07 eb 77 bd d4 6c 12 bd e1 e2 00 3d 0d 6f 49 3d
       -0.060526874 -0.035748318 0.03146637 0.049178172
000110 3c a5 59 bc b5 40 cd b9 d7 1e e0 3c b4 d5 59 bb
       -0.013284024 -0.00039148857 0.027358456 -0.003323895
000120 c7 62 11 3d 3d f1 3c bc 04 d4 fc bc c6 73 40 3d
       0.035494592 -0.011532125 -0.030862816 0.04698541
000130 dd a6 5b ba d0 5a a3 bd 59 2d cb 3c 2c 9e 2d 3d
       -0.00083790516 -0.079763055 0.024801897 0.042387173
000140 d5 0c 19 bc f3 60 d9 3b 2b ef 5b 3d db 79 6b 3c
       -0.009341438 0.0066338717 0.053694885 0.014372314
000150 c5 87 b2 3c f1 2e 81 bb 34 99 a3 3d 27 16 dd 3b
       0.021793256 -0.0039423634 0.079882056 0.0067470255
000160 98 c7 97 3b 94 58 93 3c ee e7 3e bd 4c 36 45 3a
       0.0046319477 0.017986573 -0.046607904 0.00075230445
000170 0d a2 c6 bc 7e e8 f1 3b 41 1e 80 bc 3f 55 27 3d
       -0.024247194 0.0073824516 -0.015639426 0.04085278
000180 54 ef 11 3d 9f 44 6b 3d 02 e0 55 3d d8 be 3a 3d
       0.03562863 0.05743849 0.052215584 0.04559216
000190 45 da e0 3c a3 b2 2b 3c 90 d6 36 3c f9 a9 82 3d
       0.027447829 0.010479602 0.011159554 0.06380076
0001a0 15 71 39 3c c1 7f 2e 3d e6 fe 6f 3d 09 c2 f1 3c
       0.011318465 0.042602304 0.0585927 0.029511468
0001b0 4c 62 c8 bc ad c6 00 3d 76 b2 de 3b f7 82 8d 3d
       -0.024460934 0.031439472 0.0067961765 0.06909745
0001c0 c3 be 9b 3d b4 2b 36 bd 74 d2 bf 3b 09 03 0a 3d
       0.07604744 -0.044475272 0.0058539454 0.0336943
0001d0 9c ca a4 bc b6 3b 77 3c 87 aa 19 3c 5e 35 db 3c
       -0.020116143 0.01508992 0.009379036 0.026758846
0001e0 cf 82 1e 3d 47 4c f3 bc 09 74 ce bb b5 d5 8a bc
       0.038698968 -0.029699458 -0.0063004536 -0.016947607
0001f0 5c 01 00 bd fb 5c 00 3d cc 5e ec bb 4e 71 3a bd
       -0.031251296 0.031338673 -0.007213449 -0.045518212
000200 aa aa a2 bd e7 75 90 3c ef b5 a8 3c 5f 54 a7 bc
       -0.07942708 0.017634345 0.020594565 -0.020425973
000210 2e 1d 8b ba 35 3a d9 3b 30 f6 f7 bb f6 fe 71 3d
       -0.0010613555 0.0066292533 -0.0075671896 0.05908104
000220 44 71 1a 3d f9 55 0a 3d de d0 be bc 4e f1 f8 39
       0.037705675 0.033773396 -0.023292955 0.00047482032
000230 ad fc 4f bd 62 9c 06 3d e1 04 5f bc 57 77 8f 3a
       -0.05077808 0.032863982 -0.013612003 0.00109456
000240 f7 1a 25 3d b0 8b 19 bd 45 c6 f1 3b fd 8f 20 bd
       0.04030892 -0.037486732 0.007378372 -0.039199818
000250 9b d8 bf bc a0 16 d1 3c d7 b6 22 bb 56 67 99 bc
       -0.023418715 0.025523484 -0.002482822 -0.018726032
000260 a2 05 a5 bc 12 d5 97 bc 0c 6a 0b 3d 21 a2 9d 3c
       -0.020144287 -0.018534217 0.03403668 0.019242348
000270 98 5d 2b 3c b7 29 1c bc 89 11 80 bc 8b d2 bf 3c
       0.010459326 -0.00953143 -0.015633361 0.023415824
000280 80 39 b2 3b 33 50 b8 bd c2 e1 29 3d 3d 34 61 bc
       0.0054389834 -0.08999672 0.041475065 -0.013745365
000290 88 be 16 3d 24 62 0d 3d 20 6c 12 bc 53 8d d7 3c
       0.0368028 0.034517422 -0.008936912 0.026312506
0002a0 01 59 5d 3d 11 e5 d7 bc a0 d9 1e 3d f3 58 1b bd
       0.05403996 -0.026354345 0.038781762 -0.037926625
0002b0 79 b5 64 bd b2 23 8c bd 82 bf 5a bb a6 06 24 3b
       -0.05583713 -0.06842746 -0.0033378308 0.0025028377
0002c0 18 c9 b9 3b 09 e9 d3 3b 79 81 a9 3a ff 25 39 3a
       0.005669724 0.006466989 0.0012932263 0.0007062852
0002d0 a8 14 4e 3d e9 f2 4b 3c 5a a5 96 3c 6e 9e 35 bc
       0.050312668 0.012448051 0.018389393 -0.011085136
0002e0 50 ff b2 bc 56 85 55 bd 78 c2 82 bc 55 e0 23 39
       -0.021850258 -0.052129112 -0.01596187 0.00015628462
0002f0 ab a1 ba 3c 33 7f 9f 3c 46 97 78 3c e5 2c 43 bc
       0.022782167 0.019469833 0.015172785 -0.011912559
000300 17 6d 2e bc e5 ef 2e bc 53 1b c8 bc d4 d6 37 bc
       -0.010646126 -0.0106773125 -0.024427092 -0.011220653
000310 43 1f 63 bc b7 b8 3b 3c 1d 71 7d 3b 61 a0 73 3d
       -0.013862434 0.011457614 0.0038672157 0.05947912
000320 2f 41 34 3d 8f 0d 5e 3d 2d 82 6f 3d e3 64 6e ba
       0.044007476 0.05421215 0.058473755 -0.0009094013
000330 9c cb 56 3d c4 96 37 bc 2d 4f 2b 3c 65 83 41 bd
       0.05244027 -0.011205379 0.010455889 -0.04724445
000340 15 15 d0 bc 09 d5 0c 3d 3c 40 f0 bc 11 28 06 bc
       -0.025400678 0.034382854 -0.029327504 -0.0081882635
000350 f2 07 39 3d 86 8c 88 3c 62 e7 af bc fe c0 7c 3d
       0.045173593 0.01666857 -0.021472637 0.06170749
000360 b7 94 23 bd f6 ee 8d 3c 00 ce 85 3c c6 3a 85 3d
       -0.039936747 0.01732586 0.01633358 0.06505351
000370 64 2c 3d 3d 8d e6 1b 3d 35 07 3a bc 53 95 ba bc
       0.046184912 0.038061667 -0.011354257 -0.022776281
000380 74 6b 88 3c a5 41 9f bc c1 f4 54 3c be 9a aa 3d
       0.0166528 -0.019440481 0.012997807 0.08330296
000390 25 e3 99 bd 18 9d b7 3c fb 69 8a bb cb eb 80 3d
       -0.075140275 0.022413775 -0.0042240596 0.06294974
0003a0 35 05 76 bc ab 50 49 3b 22 d4 d6 bc 35 32 a3 3c
       -0.01501589 0.0030718248 -0.0262242 0.019921402
0003b0 6b 5b 13 bd ae 14 ff bb 05 28 17 3d fe 13 78 3d
       -0.035975855 -0.0077844476 0.0369034 0.06056594
0003c0 3f c6 38 3d 40 18 2e bd 55 8f 48 bc df 98 b0 bc
       0.045110937 -0.042503595 -0.012241204 -0.02155727
0003d0 13 a6 d6 3c d9 da 04 3d e6 de 68 bd 45 06 3e 3d
       0.026202237 0.032435272 -0.056853198 0.046392698
0003e0 8d 17 41 3d 80 3f 15 3d 70 87 a2 3c fa c9 28 3c
       0.0471416 0.03643751 0.019839972 0.010302061
0003f0 40 d5 38 bc 41 67 9a 3b 5b cc 0f 3d 35 58 6c 3d
       -0.0112813115 0.004712016 0.035106998 0.05770131

fc3.weight f4 [2, 256]
000000 dc 71 d5 bd c2 f2 4f 3d 39 ed ea bc f6 6f 0b 3d
       -0.104221076 0.05076862 -0.02867757 0.03404232
000010 e7 e7 52 3d 2e 27 fc 3c de 00 5e 3e 63 3c fa 3d
       0.05149069 0.030780401 0.21680018 0.12218549
000020 18 32 7f 3d 70 3e 19 bd 25 e9 58 3d b9 17 4c bc
       0.062303632 -0.03741306 0.05295672 -0.012456828
000030 18 86 b6 3c 53 ce 59 bd c6 df 3f bd 56 16 8c 3d
       0.022280738 -0.05317528 -0.046844266 0.06840198
000040 3e 0d c7 3c 25 12 17 3d 17 c9 58 bd 00 51 84 3c
       0.024298307 0.03688254 -0.05292615 0.016151905
000050 09 f1 9f 3d 5c 3e ec bc 7a 5c b5 bc 37 3b 72 bd
       0.07809646 -0.028838329 -0.022138823 -0.059138503
000060 36 8d 21 3d 72 0b 29 3e fb 5a 14 3d 5e aa 9b bc
       0.03944131 0.16508272 0.03621958 -0.019002136
000070 57 3d 36 bd 29 bb fd 3c f5 3d 53 3d 7d f7 93 bd
       -0.044492092 0.030973034 0.05157276 -0.07224939
000080 56 cc c0 3c 45 99 ee 3c 14 e8 5f bd 44 45 77 3c
       0.023534935 0.029125819 -0.054664686 0.015092198
000090 48 a6 15 3d 2b d4 12 3d 2c 5e 2c 3d f7 3c 75 bc
       0.03653553 0.03584687 0.042081997 -0.014968148
0000a0 df af b8 bc 7d e1 3b 3d 79 eb c5 bc 61 ee 1e 3d
       -0.0225448 0.04586934 -0.024160134 0.038801555
0000b0 66 28 08 3e de 6b 65 3e 44 0b ff 3d f8 ef 0b 3e
       0.13296661 0.2240443 0.124533206 0.1366576
0000c0 e9 ec e6 bc fb ee eb 3c 56 f5 06 3d 15 4a 2f bd
       -0.02818914 0.028800478 0.032948814 -0.04279526
0000d0 3a 52 0e 3d da b1 60 bc ee 2e 8c bd 18 cc e2 bc
       0.034746386 -0.013714278 -0.06844889 -0.02768521
0000e0 d9 68 d9 3c de c6 09 bd b0 82 24 3d 98 8a f6 3c
       0.026539253 -0.03363692 0.040163696 0.030095384
0000f0 0c fe 67 3c cd 3d 58 3d bf d6 17 3d 3d ce 82 3d
       0.014159691 0.052793313 0.037070032 0.06386993
000100 51 a0 84 3e 4f 9f 2a bd a0 52 69 bd 7e 7d 13 3d
       0.25903562 -0.041655835 -0.056963563 0.03600835
000110 51 cc 1b bd b8 0d 49 bc 97 f9 63 bd 48 bb 06 bd
       -0.03803665 -0.012271337 -0.05565795 -0.03289345
000120 14 02 3c 3d 9f 7f 1b 3d 99 74 94 bd c0 33 50 bd
       0.04590042 0.037963506 -0.07248802 -0.050830603
000130 59 98 77 3d 41 61 25 bb b7 c7 06 3d 72 a2 0a bd
       0.060448024 -0.002523497 0.032905307 -0.033846326
000140 04 fe e7 bd 17 05 ee 3d 2c 6a 58 bd e8 32 37 3e
       -0.113277465 0.116220646 -0.05283563 0.17890513
000150 fb 63 21 3d b9 29 d9 3c cd 6c 94 3c d0 b4 9c bd
       0.03940199 0.026509153 0.018118287 -0.07651675
000160 11 db 1e bd dd be f3 bc 23 88 6c 3d a3 16 94 bc
       -0.038783137 -0.029754097 0.057747018 -0.0180772
000170 cf f8 18 be d2 e5 ae 3c d7 8c 20 3d 7d 1a 11 3e
       -0.14938663 0.021349821 0.039196815 0.1417026
000180 09 44 da 3c 2d 90 22 3d 28 6d 82 3d a0 83 c0 3c
       0.02664377 0.039688278 0.06368476 0.023500264
000190 a2 c2 07 bd 4f d5 7f bd ec 12 77 bd ae c4 83 bc
       -0.0331446 -0.062459286 -0.06032078 -0.016084995
0001a0 0f e9 a3 3c 22 4c 9c bc 00 b4 39 bd fa 60 16 3d
       0.020008592 -0.019079272 -0.045337677 0.036713578
0001b0 43 38 9e 3c a1 14 44 bd 3b 67 6c 3d 53 60 1f bd
       0.019313937 -0.047871236 0.057715636 -0.03891022
0001c0 e3 01 c9 bc 98 a4 23 3b b5 2a 9b bc b8 40 a0 bc
       -0.024537032 0.0024969932 -0.018941263 -0.01956211
0001d0 19 3d 0b bd fa 5d 2d 3d 00 f3 05 bd 09 f2 df 3c
       -0.033993814 0.04232595 -0.032702446 0.027337091
0001e0 8f 09 b8 bc d2 dc 4d 3d f1 d0 11 bd e9 5a 1e bd
       -0.022465495 0.05025942 -0.035599653 -0.038660917
0001f0 fe c6 13 3d 25 96 79 bc da 73 15 3d 55 de 81 3d
       0.036078446 -0.015233551 0.036487438 0.063412346
000200 ca 09 26 3d 6a f6 fa 3c b8 45 54 3d 4a 7f 0b 3d
       0.04053668 0.030635078 0.0518243 0.03405694
000210 1c c2 af 3c 46 68 d7 3c b0 c9 8a bb cc 5b 95 3d
       0.021454863 0.026294839 -0.004235469 0.072928995
000220 39 a3 c7 3c 95 18 eb bc be f7 19 3d a2 19 19 3d
       0.024369823 -0.028698245 0.03758978 0.03737796
000230 6c 46 bd 3d 51 3b 37 bd 8a a7 37 3d d8 f2 21 bd
       0.092419475 -0.044734303 0.044837512 -0.039538234
000240 66 78 39 bd 38 26 3e bd 6c 09 2f 3d e6 de d7 3b
       -0.045280837 -0.046423167 0.042733595 0.006587851
000250 74 59 4d bd 93 46 30 bd 96 09 0b bd f1 0b bc bb
       -0.050134137 -0.043036055 -0.03394469 -0.005738728
000260 0e dc 16 3d ca a4 5f bd 58 c0 59 bc 33 f7 f1 bc
       0.036830954 -0.054600514 -0.013290487 -0.02953682
000270 ca 84 11 bd ca c3 6f 3d bc 3d a1 3c c6 3c 4b 3d
       -0.03552703 0.05853633 0.019682758 0.049618505
000280 61 2c 1f 3d de 58 b2 bd a6 1f 6d bc 47 4e ec 3d
       0.038860682 -0.08708356 -0.014472878 0.11538368
000290 0c 93 84 bd 48 59 bc 3c 69 d9 63 bd 52 86 82 bc
       -0.064733595 0.022991791 -0.05562726 -0.01593319
0002a0 92 de 0c bd b3 75 04 3d 0b 76 c0 bc d2 44 1e bd
       -0.034391947 0.03233881 -0.023493787 -0.03863985
0002b0 a5 0c a6 3d 1a d6 92 bd 17 e1 b9 3c 5b c9 0c 3d
       0.081078805 -0.07169743 0.022690339 0.034371715
0002c0 af 2a fe bc c9 d6 41 3e ee 92 5d bd 1e 89 c9 bc
       -0.031026212 0.1892959 -0.0540952 -0.024601515
0002d0 e0 6e 43 bd 68 d2 f4 3c f2 bc 11 bd c4 3f 2b 3d
       -0.04771316 0.029885486 -0.035580583 0.04180886
0002e0 09 b2 19 3d ca 07 3c 3d 2a ed 41 bd 0b 2d 2a 3d
       0.037523303 0.045905866 -0.047345318 0.041546863
0002f0 62 96 8a 3d 18 95 40 bc dc 3c dd 3c a5 9e 25 bd
       0.067669645 -0.011754297 0.02700656 -0.0404345
000300 c3 7c 17 3d 8f 43 04 3e ee 09 1c bd eb e4 a7 3d
       0.036984216 0.12916397 -0.038095407 0.081979595
000310 f2 89 ea 3d 70 eb 04 3d 23 23 40 bd 14 72 a4 bc
       0.11452092 0.032451093 -0.04690851 -0.020073928
000320 bd 61 88 3d f0 29 7d 3d 72 0b 04 bd 67 d1 7a 3d
       0.06659267 0.061807573 -0.032237478 0.061234858
000330 3e 9f 65 3d b3 05 9d 3d 53 d4 16 3d d5 94 8b ba
       0.05606007 0.07667103 0.036823582 -0.0010649214
000340 c4 8e b6 bc d2 4d d6 bc 9d 62 4a 3e fb 06 45 bd
       -0.022284873 -0.026160154 0.1976418 -0.04810236
000350 89 64 3b bd 4f 03 14 bd b0 6b 10 3d 21 82 a3 bc
       -0.045750175 -0.036135968 0.03525895 -0.019959511
000360 e7 27 00 be 0a 2f 43 bc e8 aa cd 3c 9d c0 9d bc
       -0.12515222 -0.01191307 0.025105909 -0.019256884
000370 4e 94 e5 3c 88 9e cb 3c e3 a0 88 3d 7a 13 84 3d
       0.028024819 0.024855867 0.06671312 0.06449027
000380 e5 d5 c2 bc 55 c8 0d bd 6a c3 3b 3e 03 04 ba bc
       -0.023783633 -0.03461488 0.18336263 -0.022706991
000390 21 f3 72 3c 35 b4 6e bc 57 9c 2c 3d e5 23 a8 bc
       0.014828474 -0.014569332 0.042141285 -0.020524928
0003a0 30 0e 9c bc cf 21 e6 bd a8 d8 14 bc d5 23 ff 3c
       -0.019049734 -0.11236917 -0.009084858 0.031145016
0003b0 e2 09 ee 3d be 08 57 bd 00 fe 08 be 2b 5c ce bc
       0.11622979 -0.05249857 -0.13378143 -0.025190433
0003c0 ba a7 72 3d 70 c6 4e 3d a8 f9 1e 3d c3 0c b3 3d
       0.059241988 0.050482213 0.03881231 0.087426685
0003d0 88 28 41 3d bb b1 21 bd 0b 2b e8 3c 1c 98 48 3d
       0.047157794 -0.039476138 0.028340837 0.048973188
0003e0 9f b5 dd bc 6b 1b 30 3d ee c6 3d 3d 17 44 51 bc
       -0.027064143 0.042994898 0.046332292 -0.012772582
0003f0 c1 77 93 bc 9f c0 17 3d e2 e8 d1 bc 77 b3 d8 bc
       -0.018001439 0.037048932 -0.025623742 -0.026452763

fc3.bias f4 [2]
000000 2b 21 22 bd 25 16 b8 3d
       -0.039582413 0.08988599
