projects/tennis/checkpoint/E15/E15.11_actor1_15000.pt (torch_old, 453689 bytes, 6 tensors)

fc1.weight f4 [400, 24]
000000 d6 6f 91 3c 8b 8c 79 3c ee fe f9 bc 25 1b 0f 3d
       0.017753523 0.015231262 -0.030517068 0.034937996
000010 b8 63 41 bd ff fa 42 3d 10 d5 be 3b 15 15 53 bc
       -0.04721424 0.04760265 0.005823739 -0.012883444
000020 1b 24 6d bc c0 12 32 bd d5 87 eb 3c 1b 25 ca 3c
       -0.01447394 -0.043474913 0.028751293 0.024675896
000030 a8 6f fc bc 1a 4b 36 3d 43 b3 6f bc e1 61 30 bd
       -0.03081496 0.044505216 -0.014630142 -0.043062095
000040 15 8b 1b bd 91 e4 90 bc 74 99 ee 3c 45 ff 98 bb
       -0.037974436 -0.017687114 0.029125907 -0.0046691024
000050 9f eb 29 3d f4 a3 e8 3c f0 50 67 3c d0 7e 3c bc
       0.04148447 0.028398491 0.014118418 -0.011504844
000060 a6 0d 29 3c 41 53 a4 bc 7b b9 ac 3c 31 4e d7 bc
       0.010318195 -0.02005923 0.021084538 -0.026282402
000070 01 37 16 3d f7 bc 23 bd 7e 99 66 3c 9f 64 9d bc
       0.03667355 -0.039975133 0.014074681 -0.019213019
000080 4d fa 01 bd c8 f6 fc bb f4 0c 4a 3d 6b df 15 3d
       -0.031732846 -0.0077198483 0.04932876 0.03659002
000090 a7 a1 48 3d 06 1e 1f bd c4 a3 c1 3c 35 02 4e bd
       0.04898229 -0.038846992 0.02363766 -0.050295074
0000a0 93 71 d1 3c c5 34 3a bd b9 c9 15 bd 63 7e 98 bc
       0.025566852 -0.04546048 -0.03656933 -0.018614953
0000b0 6c b0 5c 3d f2 4c 41 bc b8 73 2a bd 9c a6 36 bd
       0.053879187 -0.01179813 -0.041614264 -0.044592485
0000c0 67 5d 88 bb c8 a2 fc bc a5 0f a3 3c e5 57 eb bc
       -0.004161525 -0.030839339 0.01990492 -0.028728435
0000d0 8e 26 cd 3c 89 7b fa 3c a3 16 50 3d 46 e8 40 3d
       0.025042798 0.030576484 0.050802838 0.047096513
0000e0 39 5d f0 3c c8 95 36 bd d1 0b 61 bc 45 12 2b 3d
       0.029341327 -0.044576436 -0.013735727 0.04176547
0000f0 b3 96 b7 bc 1b 8d f1 bb e0 4b 35 bc 6a 85 22 3c
       -0.022410726 -0.0073715574 -0.011065453 0.009919504
000100 56 f7 17 3d 62 56 40 bd fa 0a ca 3b 21 f2 9a bb
       0.037101112 -0.04695738 0.0061658593 -0.004728571
000110 5d 5e 2c bc b6 65 04 bd 72 d9 d3 3c c8 10 d3 3c
       -0.010520545 -0.03232356 0.025860522 0.025764838
000120 21 2f 86 3c da ed f7 bc 54 7c 5b 3a de a3 14 3d
       0.016379895 -0.030264784 0.00083727133 0.03628909
000130 eb 45 53 bd c2 71 61 3d 2c 5b 20 3d c1 3c 56 3b
       -0.05158035 0.05504013 0.03914945 0.003269002
000140 25 23 80 bb 5a fd 11 bd d5 96 0b bd c7 0a 34 bc
       -0.0039104396 -0.035642006 -0.03407939 -0.010988898
000150 d9 0c 2e bb 0c 2e b5 3c f5 bf ce bc 90 a9 02 bd
       -0.002655795 0.022116683 -0.025238017 -0.03189999
000160 0b de 02 3c 03 16 10 3d 74 a1 e0 3c 7b 7f 31 3d
       0.0079875095 0.035177242 0.027420737 0.043334465
000170 29 75 5d 3b 5e 4c 4e 3d 76 d5 06 3d 16 6f 49 bd
       0.0033791757 0.0503658 0.032918416 -0.049178205
000180 88 5f 8a 3c 0e ec 1a 3d 6a 93 0d bd f3 83 b8 bc
       0.016891256 0.037822776 -0.034564413 -0.022523856
000190 75 e5 3f 3c 10 b7 1a bd 52 bb be bc 50 c8 27 3d
       0.011712422 -0.03777224 -0.02328268 0.040962517
0001a0 a5 23 30 bd f9 b2 bd bc e8 68 f5 3c 30 9b 35 3d
       -0.043002743 -0.02315663 0.02995725 0.04433745
0001b0 5e 5b a1 3b 11 c1 45 bc 6a ae 76 bc 50 d3 5a 3c
       0.004924222 -0.012069956 -0.015056232 0.013356045
0001c0 ac 1b 2b bc 2e 8e 31 3d 34 49 85 3c be 2e f3 ba
       -0.010443609 0.043348484 0.016270258 -0.0018553359
0001d0 ca 0d 4c bd 85 14 68 3d f8 d0 95 bb 6e 81 19 bc
       -0.049817838 0.056660194 -0.00457203 -0.009369237
0001e0 a8 44 e4 bc bc 1e 0b 3d 84 3d c9 3c 74 c8 50 bd
       -0.02786477 0.033964857 0.024565466 -0.050972417
0001f0 a5 4c f0 bb d5 ce 5e 3c 24 bb 0e 3d 53 8d 70 3c
       -0.0073333555 0.013599117 0.03484644 0.014682132
000200 ed 89 23 bd ca 27 d5 bc 23 1a 3c bd d7 c7 77 bc
       -0.03992646 -0.02601995 -0.045923363 -0.015123329
000210 65 2a cb bc 3c 59 0f bd 1e 5b bb bc f9 07 18 bd
       -0.024800489 -0.03499721 -0.022870596 -0.03711698
000220 e5 86 3f bd b9 ed b7 3c ea 3a 5c bd b0 4f 3e bc
       -0.046759505 0.022452222 -0.053767122 -0.011615679
000230 24 e7 4b bd ae 31 02 3d 1e 7b 38 bd e6 e7 e8 3c
       -0.04978098 0.03178566 -0.04503929 0.02843089
000240 c2 91 e7 3c 47 97 f9 3c ad 1a 3c 3d 31 3f 9d ba
       0.028267745 0.030467642 0.045923878 -0.0011996982
000250 5e a6 4a bd 05 5a a2 3c c3 6a b7 bc f5 ff 36 3d
       -0.049475066 0.019818315 -0.022389775 0.044677693
000260 f3 e2 87 bc ba 70 67 bd 93 d1 9a bc 55 f4 5b bd
       -0.01658771 -0.05650399 -0.01889876 -0.05369981
000270 d3 c2 32 bd 01 12 fa 3b 09 8b 06 3d 72 be 3a bd
       -0.04364283 0.0076315408 0.032847438 -0.04559178
000280 1d d6 9c 3b db ae 89 bc 4a c0 99 bc 17 ad de 3c
       0.0047862665 -0.01680701 -0.018768448 0.027182145
000290 81 27 4c bd f8 a3 43 3c f9 01 3a bd 07 bd 0c 3d
       -0.04984236 0.011940949 -0.045412038 0.034359958
0002a0 f6 99 c6 bc 9a 23 24 3d 15 37 6d 3c 40 52 58 3c
       -0.024243336 0.040073015 0.014478465 0.013203204
0002b0 94 2e 00 bd 32 51 e4 bc b1 cc 92 3c fb c7 13 3d
       -0.03129442 -0.027870748 0.01791987 0.036079388
0002c0 19 79 05 bd 4d 66 b2 3a d3 3f 4b bd ab 4e 55 bc
       -0.03258619 0.001361081 -0.049621414 -0.013019244
0002d0 02 f8 66 bd aa 53 08 3c 8f 08 a7 bb 85 2d 11 3d
       -0.056388862 0.008320728 -0.005097456 0.0354438
0002e0 70 11 ba 3c 04 5b e1 3a 2a cd 2e 3c 9f ad 9c 3c
       0.022713393 0.0017193262 0.010669032 0.019125758
0002f0 28 bd 19 3d 40 ec 9c bc b8 1c 31 bc df 0d b4 3c
       0.03753391 -0.019155622 -0.01081007 0.02197927
000300 6a c1 4d bd 34 59 47 bd af ad ce 3c d5 66 c7 3c
       -0.050233282 -0.048669055 0.025229303 0.024341026
000310 2b d2 54 3d 2e 48 3c 3d f1 fe 2d 3d 54 f3 f3 3c
       0.051958244 0.045967273 0.04247946 0.029779114
000320 d9 a6 20 3d 44 9d fa bc 68 a8 13 bd 08 eb 24 bd
       0.03922162 -0.030592568 -0.036049277 -0.040263206
000330 86 df ea 3c bf 3c fd 39 b5 94 99 3c ec fe d4 3c
       0.028671037 0.0004830118 0.018747667 0.026000462
000340 d9 38 0d 3c e3 28 2a bd 75 b6 2f bc e0 e4 ce 3c
       0.008619511 -0.0415429 -0.0107246535 0.02525562
000350 e7 a1 ff bc e0 2a 9a bc 26 50 5f bc 7c 95 d8 3c
       -0.03120513 -0.018819273 -0.013629949 0.026438467
000360 22 8e bf bc a8 c4 18 3d a2 56 aa 3c f1 b8 30 bd
       -0.023383204 0.03729692 0.020793263 -0.043145124
000370 09 01 62 3c ed 69 1a bd 28 a1 39 3d 4d df ff bc
       0.013794192 -0.037698675 0.045319706 -0.031234408
000380 eb 34 ad 3c 11 52 5a bd 08 af 5a 3c 52 1e 2d 3d
       0.021143397 -0.05330092 0.013347395 0.042265244
000390 dc 40 ed bc be 7d 1d 3d 2a 3c 27 3d 91 78 46 bd
       -0.028961591 0.038449995 0.04082886 -0.048454825
0003a0 dc df 0b 3d b3 92 57 bc db 64 06 3d ef 6f 0a bd
       0.034149036 -0.013157534 0.032811027 -0.033798154
0003b0 d3 5c e3 bc ef 2a 73 3c f3 9e 20 3d 2f a1 c9 3c
       -0.027754223 0.014841779 0.039214086 0.024612991
0003c0 af cd 8e 3a fe 2c 2a bd 93 81 f2 3a 61 4a 31 bd
       0.0010895039 -0.041546814 0.0018501751 -0.043283824
0003d0 0d 71 5d 3d 2d dc 8a 3b 2c a8 1b 3c fe 61 67 bc
       0.05406289 0.004237673 0.0095005445 -0.014122484
0003e0 45 3b ce 3b d5 49 c9 3b 69 be 2f 3d 63 20 50 bc
       0.0062936866 0.0061428347 0.0429062 -0.012703034
0003f0 a7 2d 79 3b 81 08 98 bc 52 d6 0a bc 0a 0f 53 bd
       0.0038021596 -0.018558742 -0.0084739495 -0.051528014

fc1.bias f4 [400]
000000 f8 dd a3 bd ac 1a b2 3d 82 41 1e 3e 7a 22 c9 bd
       -0.080013216 0.086964935 0.15454677 -0.09821029
000010 a6 20 45 be ff 02 0e bd d8 ff 01 3e 66 1e 4e 3e
       -0.19250736 -0.034670826 0.12695253 0.20128784
000020 22 fc e7 3d 73 8f 4a 3d 50 80 f4 bd ee d8 2a 3e
       0.113273874 0.04945321 -0.11938536 0.16684315
000030 ca e1 9e 3d d8 28 ed 3d 7e c8 58 3e 22 84 de bd
       0.077579096 0.11580056 0.21170232 -0.10865046
000040 ee 09 13 3d 85 d2 b4 3d e0 76 13 3e 3e df 1e bd
       0.03589814 0.08829216 0.14400816 -0.03878712
000050 4e 67 56 3a 46 02 1a 3e 84 00 76 bb 77 6d 58 3d
       0.0008178846 0.1503993 -0.0037536928 0.05283877
000060 c6 70 04 be 30 96 19 3e 85 f9 f1 bd 7b f6 1d 3e
       -0.12933645 0.14998698 -0.1181517 0.15426056
000070 4f a6 0d be a8 4c 27 3e 27 6d b3 bd bf bf 2b be
       -0.13832973 0.16337836 -0.087610535 -0.16772364
000080 3c 5f 15 be 8a 59 cc bc 35 9a 45 be 61 23 4a bd
       -0.1458711 -0.02494504 -0.19297107 -0.049350146
000090 8d b4 79 bd 13 56 3b be 95 ea c3 bd 45 f1 d5 bc
       -0.060963202 -0.18294553 -0.09566227 -0.026116023
0000a0 46 e1 1e 3e 27 66 de 3c 9d f4 91 3b 6f 41 98 bd
       0.15515622 0.02714832 0.004454209 -0.074343555
0000b0 84 89 31 3e 69 d4 55 3e d0 9a 2a 3e 5b 50 3c be
       0.17337614 0.2088181 0.16660619 -0.18390028
0000c0 33 a6 f3 bb 00 ef cd 3d 46 5c 41 3d 49 5c ee bc
       -0.007435584 0.10055351 0.04720714 -0.02909674
0000d0 30 14 b4 bd 7b 92 a1 bd b2 83 fa bd fb 24 48 be
       -0.08792913 -0.07889267 -0.1223215 -0.19545357
0000e0 8b 9d d2 3d 3d 80 0f 3e 13 4a 8a 3d 4e 39 88 3d
       0.10283955 0.14013763 0.0675241 0.06651555
0000f0 e9 5e 91 bc 39 46 fd bd 82 7e 84 bd 2e 74 16 be
       -0.017745452 -0.123669095 -0.06469442 -0.14692757
000100 fb 92 36 be b5 94 9c 3d d2 64 44 bc 4d 8c 15 be
       -0.17829506 0.07645551 -0.011986928 -0.14604302
000110 3f 43 c9 bd 4f ce a9 3d 19 fa 42 3e b1 27 14 bc
       -0.09827279 0.08291303 0.19040717 -0.009042666
000120 2e 2e 47 3e fa b6 4e bd 08 9c e3 3d 7e a0 43 3e
       0.1945121 -0.05046747 0.11113745 0.19104192
000130 32 96 d2 3d 64 a1 24 be 66 87 98 3c 0d d3 36 bd
       0.10282554 -0.1607719 0.01861925 -0.044634867
000140 f4 64 21 be dc d4 3b 3e 8a 0e 01 3d ed 46 0e be
       -0.15761167 0.18342918 0.031508006 -0.13894244
000150 6b 33 0d 3e d8 46 29 be fc 9e f8 bd c4 ec fa bc
       0.13789146 -0.16530931 -0.12139699 -0.030630477
000160 f4 d4 35 bc 8f 45 22 be fb d2 2b be e7 8a b5 3d
       -0.011098135 -0.15846847 -0.16779701 0.08864384
000170 8b b9 fe 3d 75 64 97 3d 66 fa 9a 3d df 0f 47 be
       0.12437733 0.073922075 0.07567291 -0.19439648
000180 c2 0e 37 3e 0a a2 2d bd ec 09 10 3e 03 19 e1 bc
       0.17876723 -0.04239086 0.14066285 -0.027477747
000190 34 84 51 3e 30 81 9f 3d d5 73 9b 3d 8f 7b 16 be
       0.20460588 0.077883124 0.075904526 -0.14695571
0001a0 33 44 35 be 3d 1a 69 3c d8 1f ea 3d 6f 2b 0a 3e
       -0.17701797 0.014227447 0.11431855 0.13493131
0001b0 62 0b 4c 3e b0 58 6a 3d b1 1c 2f be 0e f7 3a be
       0.19926217 0.057213485 -0.17100789 -0.18258306
0001c0 90 09 f9 bc 82 11 46 3d 32 d4 2a 3e 56 79 6e 3b
       -0.030400068 0.04835654 0.16682509 0.003638824
0001d0 a5 fa 40 be c1 a1 16 3e 7e 6b 58 3d d5 a2 0b be
       -0.18845613 0.14710142 0.052836888 -0.13636334
0001e0 12 95 a7 3a 1c 0f 9d 3d 45 1c 0d be 2c cc 99 bd
       0.0012785515 0.076688975 -0.13780315 -0.07509646
0001f0 54 80 13 be 62 50 7f bd 4d 2d 8a 3d a9 f4 8f 3c
       -0.14404422 -0.06233252 0.06746922 0.017572718
000200 81 ef 18 be 16 8f 31 be 9f f7 77 3d 87 91 4d 3b
       -0.14935113 -0.17339739 0.060538884 0.0031367259
000210 ff e9 0a 3e df 98 0f be b0 aa 83 bd b6 16 a2 3d
       0.13565825 -0.1402316 -0.064290404 0.07914488
000220 21 06 52 3e 70 6a f5 bc a3 a5 52 3e 0c c8 0f bc
       0.2051015 -0.02995798 0.20570998 -0.008775722
000230 76 51 7c 3d 35 4d ea 3c 00 6f 1d 3d 3d c7 92 3c
       0.061601125 0.028601268 0.038435936 0.01791727
000240 8f 43 e0 3d de 06 0f be 33 fd 20 3e b0 0e d3 bd
       0.10950386 -0.13967463 0.15721588 -0.10305536
000250 c7 a1 ff 3c 59 5a 0f 3e 24 9b 1a 3e ce 2d 40 3e
       0.031205071 0.13999309 0.15098244 0.18767473
000260 4b 69 50 3d 37 ee ac bd cf a0 48 be cb cb 18 3e
       0.050881665 -0.084438734 -0.19592594 0.14921491
000270 ee 1d 19 3e 57 14 22 3e b7 3c 1c bd 0e ba ee 3d
       0.14952824 0.15828072 -0.03814384 0.11656581
000280 65 10 1d 3e ca 15 c4 3d 71 3b a0 3d 0d b4 1d be
       0.15338285 0.095744684 0.078238375 -0.15400715
000290 d6 ba 2a be 0c f3 88 bd 12 84 d5 3d 34 46 3f be
       -0.16672835 -0.066869825 0.10425581 -0.18679124
0002a0 e8 cf db bc 88 90 33 be ef f3 25 3c a4 a3 73 bd
       -0.026832536 -0.17535603 0.010128959 -0.05948223
0002b0 b6 8a bc bd 05 46 78 3d 68 60 05 3e 59 bc 2f 3e
       -0.092061445 0.06061365 0.13025057 0.17161693
0002c0 c5 7c 37 be c1 72 87 bd c7 a6 4d 3e 2d 5e d2 bd
       -0.1791869 -0.066136844 0.20083152 -0.10271869
0002d0 d9 50 03 bd 01 02 2f be 67 23 26 3e 53 8e 3f 3e
       -0.032059524 -0.17090608 0.16224442 0.18706636
0002e0 d4 23 98 bd b9 ea 19 3e 70 b4 04 be 18 cf 1b be
       -0.07428709 0.15030946 -0.12959456 -0.15215719
0002f0 06 f8 28 be 2e 74 ae 3d c3 e6 28 3d 92 61 2d 3e
       -0.16500863 0.08518253 0.041235697 0.16931751
000300 d8 d1 27 3e ba 3c c2 bb c0 8f 68 3d bb 87 b8 3d
       0.16388643 -0.0059276493 0.056777716 0.090102635
000310 01 ba 15 3e 2b 91 14 be 59 92 21 be 99 5d 3c be
       0.14621736 -0.14508502 -0.15778483 -0.1839508
000320 9b ad 53 3e 41 be 18 3e df 00 9d bd c3 b1 17 3e
       0.20671694 0.14916326 -0.07666182 0.14813904
000330 87 e9 4b 3e ed 79 18 be 46 37 a8 bd d2 bb ca bc
       0.19913302 -0.14890261 -0.082136676 -0.024747763
000340 6d d4 db bd 62 f1 20 bd 94 74 81 3d cd de 17 3e
       -0.107338764 -0.0392927 0.06321064 0.14831086
000350 cb 36 36 3d 38 10 34 be d9 96 1e 3c 27 cc 70 bd
       0.04448585 -0.17584312 0.00967952 -0.058788445
000360 4f 88 95 bc 5d 68 9e bd ca c6 2b be 92 df 2f bd
       -0.018253474 -0.077347495 -0.16775051 -0.042937823
000370 e8 6f 51 3e e7 12 d4 3d de 6e e7 3d 89 15 4e 3e
       0.20452845 0.10355168 0.11300443 0.20125403
000380 73 9b 10 be ae c6 04 be 2e c9 3a 3e 00 6a 22 be
       -0.14121799 -0.12966415 0.18240806 -0.15860748
000390 24 79 0e 3e 47 e9 16 be 46 fc 72 3d 1d 44 1d be
       0.13913399 -0.14737426 0.059322618 -0.15358014
0003a0 4e a6 00 bd df ca 44 3e f2 b4 54 3e 50 25 41 3d
       -0.0314086 0.19218014 0.2077215 0.047154725
0003b0 0f 14 45 3e 8f ac 78 3d 51 ca db bd ac b6 a0 bd
       0.19245933 0.06071144 -0.10731948 -0.07847342
0003c0 d5 8d 3b 3e ea fe 8a bd b1 df ef 3c 51 26 f2 bb
       0.18315823 -0.06786902 0.029281469 -0.0073898216
0003d0 3d a4 27 be 0e bd 46 be cf 3d 80 bc 43 5d 2f 3e
       -0.16371246 -0.19408056 -0.015654473 0.1712542
0003e0 d2 8c 50 3e 52 57 38 3e a0 ed 02 3d bf f5 3c be
       0.20366219 0.1800206 0.031964898 -0.1845312
0003f0 6a 54 e6 bd ce 3d 57 3e c9 9e 06 bd 1c 70 88 bd
       -0.112465695 0.2101967 -0.032866273 -0.06662008

fc2.weight f4 [256, 400]
000000 a6 eb de bc 59 5c 22 3d 24 d8 e4 bc b1 fc 35 3d
       -0.027211975 0.03963885 -0.027935095 0.04443044
000010 4d 74 3e 3d cc a5 88 bb a2 0a 46 3d b3 57 49 3d
       0.04649763 -0.004170155 0.048349984 0.049155902
000020 9b 9b 4a 3d b8 75 e2 3c 36 30 65 bd f2 a0 d6 bb
       0.049464803 0.027644023 -0.05595418 -0.006549948
000030 c2 e8 68 3d f5 16 3e bb 7f 7f 28 3b 59 5d 48 bd
       0.0568626 -0.0029005383 0.002571076 -0.04891715
000040 6f 09 22 3c d7 d7 24 bd d6 1e 01 3d 0f 25 40 bc
       0.009889944 -0.040244903 0.031523548 -0.011727585
000050 13 83 27 bc eb d9 b8 bc 44 49 43 ba 46 b9 70 3c
       -0.010224122 -0.022564849 -0.0007449577 0.01469261
000060 c8 8c 55 3d 23 92 04 bc a4 e3 e5 bb 29 92 8b 3c
       0.052136213 -0.008091482 -0.0070156623 0.017037468
000070 22 3b 61 bd b9 c5 03 3d c7 ba 5e bd 78 60 e8 bc
       -0.054988034 0.032170985 -0.054377344 -0.028366312
000080 f5 c5 df 3c e5 98 df 3c 36 a8 79 3d 0c 6b 52 3d
       0.027316073 0.027294585 0.060951434 0.05137162
000090 68 59 ba 3c 14 c7 1c 3d 4b 09 96 3c d8 77 32 3d
       0.02274771 0.038275793 0.018314978 0.043571323
0000a0 81 e9 ec bc 2c 93 0c bd 15 b9 93 ba ef a5 1d 3d
       -0.028919937 -0.03432004 -0.0011270369 0.038488325
0000b0 64 73 77 3d 98 9d 45 bc 2f 4e 21 3c 9e f8 b9 bc
       0.06041278 -0.012061499 0.009845301 -0.022701558
0000c0 a5 4c ce 3b 8a 19 f9 3c a7 59 81 3c c6 48 c9 3b
       0.006295758 0.030407686 0.01578982 0.0061427085
0000d0 24 a4 4b ba 2b f7 d8 bc 78 b4 07 3d 12 6e f8 3c
       -0.00077682943 -0.026485046 0.033131093 0.030325923
0000e0 5c 6a 33 bd da 3d 43 3d a9 27 5c bc 34 0b 80 3d
       -0.043802604 0.047666408 -0.01343719 0.06252137
0000f0 11 ec a6 bc fd b7 7c 3c 09 56 45 bd a3 9a 24 3d
       -0.020376237 0.015424726 -0.048177753 0.040186536
000100 63 9a 49 bd 58 0d df ba ba 3a 35 3d 18 db ba bc
       -0.0492195 -0.0017017527 0.04424546 -0.02280955
000110 75 30 cf bb a3 a9 94 3c a6 f0 5f bd 20 35 60 bb
       -0.006322915 0.018147295 -0.05467286 -0.0034211352
000120 fc 0b 5c 3d 8f af 66 3d c0 9f 95 3c 73 54 d6 bc
       0.053722367 0.05631977 0.018264651 -0.026163315
000130 60 34 1c 3c 4e e0 4a bc 42 eb 8f 3b 43 21 4d 3d
       0.009533972 -0.01238258 0.0043920586 0.05008055
000140 94 64 58 bd cb f5 c9 bb 48 0c 04 3d 46 77 8d bc
       -0.052830294 -0.006163334 0.032238275 -0.017268788
000150 7e 09 15 3d 82 97 df bc 2a 4b 73 3d 72 37 56 bc
       0.036386006 -0.027293924 0.059397854 -0.013074743
000160 d0 d5 1f 3d d5 02 0d 3c 51 28 35 3d 75 d7 0b 3d
       0.039022267 0.008606632 0.0442279 0.034141023
000170 86 c0 29 bd 1b 5f 19 3d 97 6f 8f 3b 33 86 4c bd
       -0.04144337 0.037444215 0.004377316 -0.04993267
000180 e9 a4 0a 3d b4 f9 17 3d 11 2a 47 3d 95 b8 91 3c
       0.033848677 0.03710337 0.048624102 0.01778821
000190 e2 e6 ac bc 42 42 66 3c 0b 41 a9 3c 23 83 14 bc
       -0.021106187 0.014053883 0.020660898 -0.009064469
0001a0 2e 52 07 3d 22 ae d0 b8 18 06 a9 3c 0d 0e 5b 3d
       0.033037357 -9.950648e-05 0.020632789 0.053480197
0001b0 7f 2a 38 3c be 76 1d bd b2 ca be bb 26 02 97 3c
       0.011240601 -0.03844332 -0.005822503 0.018433642
0001c0 4d 3c 00 bd 33 69 0f 3d 5c 32 23 bd 92 0d 59 bd
       -0.031307507 0.035012435 -0.03984295 -0.052991457
0001d0 35 98 0d 3d d8 31 07 bd 5e 4a 83 3c e8 d5 3c 3d
       0.034568984 -0.03300652 0.016026672 0.046102434
0001e0 2c ff 6b 3c 41 9f a8 3c b8 fa 0e bd 0b 7c 77 3d
       0.014404099 0.02058375 -0.034907073 0.06042103
0001f0 5f cc 4f 3d 63 4d 5d bd 9d b6 85 3c 4b 0a 9c 3c
       0.050732013 -0.05402888 0.016322428 0.019047877
000200 7b 1c 29 3d 65 5b 45 3d 36 bc 04 bd 90 23 8e ba
       0.041286927 0.048182864 -0.032406054 -0.0010844339
000210 6b b9 db bc 45 94 fa 3b e6 fb 6b 3d 4b ef 05 bc
       -0.026821813 0.0076470696 0.057613276 -0.008174728
000220 d8 bd 8e bc 07 11 81 3d 7a d3 5c bd 67 c1 51 3d
       -0.017424509 0.06302076 -0.053912617 0.051209833
000230 bf 66 04 3d dc c5 65 bd da bb 72 bc 07 26 6e ba
       0.03232455 -0.056096897 -0.014815295 -0.0009084646
000240 aa f2 e7 bb d2 14 fb 3c 91 0f 30 bc 8b 2d 41 3d
       -0.0070784884 0.030649576 -0.010745899 0.047162574
000250 89 ef 5c bd 55 36 cd bc a6 24 e6 3b aa 70 8d 3c
       -0.053939376 -0.025050322 0.007023412 0.017265636
000260 c8 95 8b 3d be 92 dd ba d5 79 f7 38 37 92 00 bd
       0.06815678 -0.0016904694 0.00011800571 -0.03138944
000270 9f 48 87 3d 75 08 73 3c 0d 4c 14 3d 1b 51 3c 3d
       0.06605648 0.014833559 0.03620534 0.045975786
000280 b2 89 3d 3b 09 f6 56 bd c4 3a 85 3c d3 a7 de bb
       0.0028921184 -0.05248073 0.016263373 -0.0067949085
000290 0b a0 d8 bc ca 8b 4e 3d 08 3e 28 3d e0 95 18 bb
       -0.026443502 0.050426282 0.041074783 -0.0023282692
0002a0 7e 4f 28 bd a7 1a 02 bd 89 d8 a2 3c 5d 90 2c 3d
       -0.041091435 -0.0317637 0.019878643 0.042129863
0002b0 fc c0 0f bd ec a1 11 bd a5 76 49 bd a4 be 31 3d
       -0.035096154 -0.03555481 -0.049185414 0.0433947
0002c0 e6 0d eb bc 97 42 57 bc d4 95 48 3d 12 f0 92 bc
       -0.02869315 -0.013138435 0.048971012 -0.01793674
0002d0 d0 95 91 bc c6 ab 20 bd ce 3d 53 bc 0f 51 e1 bb
       -0.017771631 -0.039226316 -0.012893153 -0.006876118
0002e0 58 c2 29 bd 04 65 0d bd fc 37 37 bd dd 7f 1d 3d
       -0.041445106 -0.034520164 -0.044731125 0.038452018
0002f0 4c 12 cf bc 58 6f d7 3b a5 49 00 bd a8 9c 37 bc
       -0.02527728 0.0065745525 -0.031320233 -0.011206783
000300 e4 a7 6f 3d f3 2a 11 3d 39 08 93 bc 88 ba 0c 3d
       0.058509722 0.03544135 -0.017948257 0.034357578
000310 d6 df 3a bd 83 5a d0 3c 97 d4 a6 bc 5c 25 3f bc
       -0.045623623 0.025433784 -0.020365043 -0.011666622
000320 84 f5 14 3c 73 cd 66 bc d0 55 e7 bc 20 95 83 3d
       0.009091739 -0.014087069 -0.02823916 0.06424928
000330 54 09 8d 3d e8 c4 0b 3d bf 59 07 bd 4c cf 1d bd
       0.06886545 0.03412333 -0.033044573 -0.03852777
000340 34 e0 3d 3a 70 a6 48 3d 25 9f b3 bc 0e 3c c6 bc
       0.00072431867 0.048986852 -0.021926472 -0.024198558
000350 e3 20 ba bb cd c9 39 3c a0 55 ae bc 79 ea ee 3c
       -0.00568019 0.011339617 -0.021281064 0.02916454
000360 d3 f7 f2 bc 79 18 54 bc 2e 53 b8 39 be 73 93 bc
       -0.029659187 -0.012945288 0.00035157189 -0.017999526
000370 4e b1 65 3d 68 a2 5b bd a3 48 73 3d 08 2b 1e bd
       0.056077294 -0.05362168 0.059395444 -0.038615257
000380 5f dd 53 3d 49 d5 00 3d 26 f1 7d 3d e4 fe 49 bd
       0.051724788 0.031453405 0.061997555 -0.04931535
000390 d3 29 3e bd 3b eb 8a 3d c4 73 10 bd 78 36 04 bd
       -0.046426605 0.06783148 -0.035266653 -0.032278508
0003a0 83 fb 67 3d ce 2f a5 bc db dd 68 3d fe 37 09 3d
       0.056636345 -0.020164397 0.056852203 0.033500664
0003b0 49 41 14 3c 9d 72 88 3c 35 42 45 3d 19 f9 97 3b
       0.009048768 0.016656214 0.048158843 0.004637849
0003c0 35 7a f2 3c fe 29 1b bd 02 d9 2e bc f6 a3 3b bd
       0.029599288 -0.037881844 -0.010671856 -0.045810662
0003d0 71 f4 d8 3c 2f cb 11 3d af b2 85 3d b3 13 e0 ba
       0.026483746 0.03559416 0.06528222 -0.0017095715
0003e0 bc 76 35 3d 73 ed 3c bd ad c6 52 bb 36 3c 4a 3d
       0.044302687 -0.046124887 -0.0032161877 0.049373828
0003f0 78 67 65 3c 8b 50 0e bd 1e 72 01 3d db f1 84 3d
       0.01400172 -0.03474478 0.03160297 0.06491443

fc2.bias f4 [256]
000000 0e aa c4 bc 07 28 c9 3c 7d df 6c bb 7e 04 14 bc
       -0.02400687 0.02455522 -0.0036143952 -0.009034274
000010 ad 35 60 3d e5 c3 c6 3c 8b ab c4 3b 18 15 f5 bc
       0.05473869 0.024263332 0.006001895 -0.029917285
000020 c6 77 1c 3d 4b 5a 23 3d d7 b0 92 bc ab b9 3a 3d
       0.038200162 0.039881032 -0.01790659 0.045587223
000030 2d 17 58 3d cb df ec bc c2 24 6f bc c7 31 a4 3c
       0.052756477 -0.028915307 -0.014596166 0.020043267
000040 f7 82 05 3d 3d 56 89 3c 6d b6 23 3d bf 2e 03 3d
       0.0325956 0.016764754 0.039968897 0.032027002
000050 a2 13 8a bb 91 3c 9b bc 3b a7 83 3c 8b c3 d9 bc
       -0.004213766 -0.018949779 0.016070953 -0.0265825
000060 31 23 11 ba 71 f6 f9 bc ea 41 9b bc 67 93 ff 3a
       -0.0005536555 -0.03051302 -0.018952329 0.0019498885
000070 06 23 72 bc a9 b1 db 3c 73 50 d5 bb f5 8a b0 bc
       -0.014778858 0.026818113 -0.0065098344 -0.021550635
000080 a0 ed 7f 3c c6 7c 57 3d cf cc 5d 3d de 3e f5 bc
       0.015620619 0.052609228 0.0541504 -0.029937204
000090 01 48 82 bc 63 23 01 bd 4d 2e e4 3c 9d a2 07 bb
       -0.015903475 -0.031527888 0.02785411 -0.002069629
0000a0 50 25 5a 3d 7c 6c 5b 3d cf 7c 7b bc 86 98 88 bc
       0.05325824 0.053570256 -0.015349581 -0.016674291
0000b0 8d e5 b9 bc 9f 41 fa bc 37 e9 d8 bc 93 22 1b 3d
       -0.022692466 -0.030548869 -0.026478393 0.03787477
0000c0 81 2b 57 bc 1f 53 2f bb 7a 69 da bc 17 ea 74 b9
       -0.013132931 -0.0026752425 -0.026661623 -0.00023356859
0000d0 2e f7 62 3d fa 03 5b 3d 2d 8c dc bc b6 07 09 bc
       0.05541151 0.05347059 -0.02692231 -0.008363655
0000e0 63 b6 4c 3d 66 82 9f 3c 62 9d 4b 3c f6 4a 07 3c
       0.049978625 0.019471359 0.01242766 0.008257618
0000f0 8a 53 32 3d 69 0d 58 3d 5f 34 d5 bc b2 e3 da 3c
       0.0435367 0.052747164 -0.026025949 0.026719902
000100 5d 76 f1 3c bb 6c da 3c 31 cb b5 3c 1f 55 f2 bc
       0.029475385 0.026663175 0.022191616 -0.029581605
000110 76 07 3e 3d 49 6e 18 bd d6 cd fd 3b 95 71 00 3c
       0.046393834 -0.03721455 0.007745485 0.00783958
000120 34 2f 15 bd 1c bb fc bb 64 10 8c 3c 94 b1 8c bb
       -0.03642197 -0.007712735 0.01709766 -0.00429363
000130 57 d1 30 3b 77 ec 59 3d 2b 9e bb bb cd b2 29 3c
       0.0026980245 0.053204026 -0.005725642 0.010357571
000140 03 a6 42 bc 0e ad db 3b d8 1c 45 3d f8 a4 20 3b
       -0.011880401 0.0067039793 0.04812321 0.0024512392
000150 d9 42 c4 3c e1 66 37 bc 42 74 b2 bc 7c a8 21 bc
       0.023957657 -0.011193962 -0.021783952 -0.00986683
000160 bb 68 98 3c e3 95 25 3d 5e 11 9c b9 2c 66 18 3d
       0.018604627 0.040426146 -0.00029767578 0.037206814
000170 76 6f e9 bb ed bf 3e 3d b1 2a 37 3d 91 5a 7e 3b
       -0.007123883 0.046569753 0.044718448 0.0038811306
000180 a9 90 07 3d bb 90 64 bb c3 85 2e 3d 1e 05 0d bd
       0.033096943 -0.0034876305 0.042608034 -0.03442871
000190 89 72 f9 bc 7d c6 c8 bc 56 ac 0e 3c ef 83 0a 3d
       -0.030450122 -0.02450871 0.00870808 0.033817228
0001a0 35 22 0b 3d c8 8f 87 3c 91 d5 da bc 61 30 29 bd
       0.03396817 0.016548052 -0.026713165 -0.041305903
0001b0 fa 5e 4d 3d ef 17 41 3c 40 78 b7 3b 2b b3 7f 3c
       0.050139405 0.011785491 0.0055990517 0.015606682
0001c0 2f e7 65 3d d6 ec 91 bb 2b ad 01 3b c2 1c e7 38
       0.056128677 -0.004453282 0.0019787054 0.00011020295
0001d0 08 3f 6d bc a5 e3 59 bc 05 38 36 bc e5 35 2a 3d
       -0.01448036 -0.013298904 -0.011121755 0.041555304
0001e0 f9 17 f0 bc b9 07 11 3d 34 c1 47 3d 5c 28 42 bc
       -0.029308306 0.035407756 0.048768237 -0.011850443
0001f0 ca 64 b9 3c 90 6c 4a 3c 38 7c 4c 3d 02 c6 da 3c
       0.022631068 0.012354985 0.04992315 0.026705746
000200 67 86 9c 3c 9f e6 ca 3c cd d5 55 3d 97 ef 10 3b
       0.019107057 0.024768172 0.05220585 0.0022115463
000210 f0 f1 45 bd f1 fb ea bc ad 91 44 3b cd eb 2e 3d
       -0.048326433 -0.028684588 0.0029994056 0.042705346
000220 b7 53 48 3c 6b c0 9f bc fa 01 a1 bc 72 4c e1 bc
       0.01222699 -0.019500932 -0.019654263 -0.027502272
000230 1a 8c 07 3c 5d 2d 42 3d 89 af 68 3d ca e4 63 bc
       0.008273149 0.047406543 0.05680803 -0.013909528
000240 b0 89 dd bc 4d 55 01 bd 43 0c 13 bd ac e7 e7 3c
       -0.027043194 -0.03157549 -0.035900366 0.028308712
000250 f4 cc 5a 3d 01 46 5c ba 07 20 d3 3c ba e8 0f 3d
       0.053418115 -0.00084027654 0.025772108 0.035134055
000260 86 05 1c 3d ee 2b b7 bc 92 51 70 b9 0a e7 8d bc
       0.038091205 -0.022359814 -0.00022918571 -0.017322082
000270 5f a9 65 bc 30 b2 65 3d 57 ab 11 bd a8 e1 1f bd
       -0.014017432 0.056078136 -0.035563793 -0.039033562
000280 b4 7d 7d 3c 4d 7e 80 3c 75 5c 35 bd 38 86 07 3c
       0.0154718645 0.015685225 -0.044277627 0.008271746
000290 ce 6a 8b 3c 6e e1 27 bd 80 7c 80 bc 1d 7e a8 bc
       0.017018702 -0.04098647 -0.015684366 -0.020567948
0002a0 5a c1 9e bc 57 08 34 bc 9c 5f 2e bd 88 ef 48 3d
       -0.019379307 -0.0109883165 -0.04257165 0.04905656
0002b0 4b b2 cf 3c 21 df 3f 3d 1d 8c 14 bd 9f ee af 3b
       0.025353571 0.04684365 -0.036266435 0.005369022
0002c0 e4 ae 4d 3d d8 f5 1e 3d fd 3b e6 3c 12 6b 27 3d
       0.050215617 0.038808674 0.028104777 0.040873595
0002d0 7b 1b a0 bc 3c 2c be 3c 61 71 fe ba c6 fb 2f bc
       -0.019544354 0.023214452 -0.0019412452 -0.01074118
0002e0 2a 12 bc 3c c2 4f 48 3d df f3 2d 3d 61 60 d7 bc
       0.02295788 0.048904188 0.0424689 -0.026291074
0002f0 69 ee 6f bc d8 b4 c7 3b 2b df 16 3d 42 06 86 3c
       -0.014644244 0.0060945563 0.036833923 0.016360406
000300 74 19 36 bb d2 3f 27 bd 23 4f 8e 3b 81 b8 55 3c
       -0.0027786167 -0.04083235 0.00434293 0.013044477
000310 38 1e e2 3b 13 66 07 3d 88 02 e3 3c 23 bf 80 b9
       0.006900575 0.03305633 0.027711168 -0.0002455647
000320 82 84 06 bd 9d fb 26 3a ac 07 28 bb 89 33 58 3d
       -0.032841213 0.0006369891 -0.0025639338 0.052783523
000330 ec 36 e3 3c 67 bc 1b 3d 00 56 93 3b 29 1d 27 bd
       0.02773615 0.03802147 0.004496336 -0.040799294
000340 72 53 10 3c 47 28 8c 3c b0 6b 7f 3b ec f4 0c 3d
       0.008808957 0.01710905 0.00389741 0.034413263
000350 c0 f1 ce 3c 0c 61 f1 bc 96 9a 1f 3d 1d f8 c5 3c
       0.02526176 -0.02946522 0.038965784 0.024166161
000360 f7 b9 53 3d d9 c2 56 3d e6 ff 0b bd 49 32 01 3d
       0.05169102 0.052431915 -0.03417959 0.031542096
000370 1a 2a 8e bb dd 40 5c 3d 6a 10 31 ba ca 92 ad 3c
       -0.004338515 0.053772796 -0.000675446 0.021188159
000380 38 25 97 3c 96 79 f2 3b 0b fe 05 bd 51 71 e5 3c
       0.018450364 0.007399748 -0.032712977 0.028008135
000390 de 6d 59 3c 0d 9e 84 bb f3 ab 07 bd 05 bf 50 3d
       0.013270823 -0.0040471614 -0.033122968 0.05096342
0003a0 16 a4 46 3d c3 26 32 bc 36 f2 b4 3c a7 a3 e8 bc
       0.04849633 -0.010873499 0.022088151 -0.028398348
0003b0 58 9b 26 3d 67 8b 56 3b 93 d5 af 3b b4 2f 13 bd
       0.04067549 0.00327369 0.005366036 -0.035934165
0003c0 6f b5 6d 3c f4 fd ab 3c 32 45 bc 3c be ff 14 bc
       0.014508589 0.020995118 0.022982214 -0.009094177
0003d0 a1 2b 3d 3c d9 d1 62 3c 4f 7c fb bc 69 fe 5c bc
       0.0115460465 0.013843977 -0.030698923 -0.0134883905
0003e0 c8 6e ac bb 77 21 28 3d da 03 4c 3d 7d 55 ba 3c
       -0.0052622296 0.04104754 0.04980836 0.022745842
0003f0 7a 15 20 3d 01 d5 45 bb 7d be 04 bc e9 ed 6b bc
       0.03908298 -0.0030186775 -0.008102057 -0.014399984

fc3.weight f4 [2, 256]
000000 6e f7 ff 3b 9b 73 f8 3b b9 30 b6 3b df 5f f0 3b
       0.0078114783 0.0075821406 0.0055600074 0.0073356475
000010 e0 fb f3 3b 13 ae 04 3c f8 6a 91 3a 90 27 d7 3b
       0.0074457973 0.008098143 0.0011094501 0.0065659955
000020 f6 a6 0f 3c 8a cd 0c 3b 82 0f 3c 3c b2 1f 31 3c
       0.008767834 0.0021484816 0.011478307 0.010810779
000030 1d ee 33 3c f7 fc 30 3c da a0 4e 3b e7 69 49 3c
       0.010982064 0.010802499 0.003152898 0.0122933155
000040 1c 61 11 3c 73 f9 3a 3c 26 26 23 3c 8d 5f 23 3c
       0.00887325 0.011412012 0.009957826 0.009971512
000050 2f 5c 26 3c 95 dc 28 3c bc be 51 bb e8 6a eb 3b
       0.010153814 0.010306497 -0.0032004556 0.007184375
000060 e7 1f 0e 3c 02 d3 4e 3c c4 2a eb 3b 37 b8 01 3c
       0.008674598 0.01262355 0.007176729 0.007917455
000070 29 1a 0b 3c 85 cf c8 bb 91 82 a3 3b b9 1a 0e 3c
       0.008490124 -0.006128254 0.00498993 0.008673363
000080 82 9b d0 3b 98 13 d0 3b 67 ff 11 3c ce bb 4a 3c
       0.006366194 0.006349992 0.00891099 0.012373878
000090 27 dd 25 3c 47 b5 79 bb 45 43 f7 3b a8 89 03 3c
       0.010123528 -0.0038102434 0.007545861 0.008028425
0000a0 c9 77 1e 3c bf 53 31 3c 2d a5 d0 3b b9 4b 3a bb
       0.009672114 0.010823189 0.0063673467 -0.0028426482
0000b0 ee c5 5c 3b 67 97 59 3c d0 21 35 3c be a1 1b 3a
       0.0033687311 0.013280726 0.011055425 0.0005936882
0000c0 53 22 36 3c 27 36 40 3c e8 c1 e8 3b ad 5a 32 3c
       0.011116582 0.011731661 0.0071031936 0.010885877
0000d0 e3 93 28 3c 05 b3 c1 3b 6b 92 18 3c 5e 4e 32 3c
       0.010289165 0.0059112334 0.0093122525 0.010882942
0000e0 c2 f5 2c 3c 25 55 f0 3b 82 df ba 3b 0c 6e 2a 3c
       0.01055664 0.007334369 0.0057029137 0.010402214
0000f0 22 41 12 3c c7 86 2b 3c 86 72 e9 3b 7d b8 5f bb
       0.008926662 0.010469145 0.007124248 -0.0034137063
000100 62 9a f1 3b 68 74 ba 3b 95 72 0e 3c 39 f3 78 bb
       0.00737314 0.0056901462 0.008694311 -0.003798677
000110 26 ba 05 3c ba 31 32 3c 39 91 c1 3b f2 47 05 3c
       0.008162057 0.010876114 0.0059072045 0.008134829
000120 8f 13 c8 bb 57 e6 17 3c d0 22 cf 3b 27 b2 19 3c
       -0.006105847 0.009271226 0.0063212886 0.009380854
000130 1e b8 34 3c 08 93 27 3c fc 96 36 3c cb 51 22 3c
       0.011030225 0.010227926 0.011144396 0.009907196
000140 bf d6 2c 3c 2c b5 27 3c 99 fa 3f 3c 9e 48 21 3c
       0.010549246 0.010236066 0.011717462 0.009843973
000150 bc 50 b2 3b 18 41 e4 39 42 1a 0c 3c be 7d ec 3b
       0.005441753 0.00043536047 0.008551182 0.007217138
000160 10 29 83 3b 8e 3c 1c bb 44 23 5a 3b c1 d0 49 39
       0.0040026978 -0.0023839804 0.003328518 0.0001924662
000170 23 e1 38 3c 8f 3c 8c 3b eb 07 0f 3c 78 41 03 3b
       0.0112841455 0.00427968 0.008729915 0.0020028036
000180 c0 79 e0 3b d5 15 0e 3c 12 1c 4d bb 22 6d 06 bb
       0.006850451 0.008672197 -0.0031297249 -0.0020511826
000190 95 95 60 3c c5 3e 01 3c 6f a1 c5 3b c2 65 19 3b
       0.013707538 0.007888501 0.0060312073 0.00234066
0001a0 b5 ee dc 3b 39 31 2a bb fc b7 d6 3b af 77 33 3c
       0.0067423233 -0.002596928 0.0065526944 0.010953828
0001b0 f9 14 33 3c b7 30 90 3b 62 6a 39 3c 6d 3d 23 3c
       0.010930293 0.0044003385 0.011316868 0.0099633755
0001c0 21 db c8 3a 2d 43 29 3c 8f 25 82 3b 6c 39 10 bc
       0.0015324095 0.010330957 0.0039717625 -0.008802753
0001d0 37 97 09 3c e2 5d 0f 3c 12 53 37 3c 43 71 1c 3c
       0.008397869 0.008750411 0.011189239 0.009548488
0001e0 d7 03 24 3c c1 76 01 3c b2 df 5e 3b d2 4e f8 3b
       0.010010681 0.007901848 0.0034007845 0.0075777555
0001f0 ad ef 7e 3a 65 80 03 3c 4b 56 cc 38 f6 0d 1b 3c
       0.00097250455 0.008026217 9.743551e-05 0.009463778
000200 ba 14 da 3b 60 9c 0d 3c 27 28 a2 3b 7c 36 fa b6
       0.006655303 0.00864324 0.004948634 -7.4569234e-06
000210 a0 f7 89 ba 45 f0 04 3c 29 6a 12 3c d7 f0 39 3c
       -0.0010526069 0.008113925 0.008936443 0.011348925
000220 58 64 34 3c 3c 1f 09 3c 28 ce 1b bb 40 1a f0 3b
       0.011010252 0.008369263 -0.0023774002 0.007327348
000230 3f d6 4c 3c 34 29 fa 3b 1e eb 38 3c 70 08 11 3c
       0.012502252 0.0076343063 0.011286525 0.008852109
000240 c7 0c 1e 3c ff 3d 64 3c 1c 4a cd bb 8d cb 08 3c
       0.009646601 0.013930797 -0.006264938 0.008349312
000250 17 20 15 3c 84 6c 06 bc d2 b9 41 3c f4 ba a4 bb
       0.009101889 -0.008204583 0.011824088 -0.0050271694
000260 c9 b6 3f 3c d8 26 46 3c 6d e1 1d 3c 41 8d 17 3c
       0.011701294 0.012094222 0.009636265 0.009249986
000270 a4 c1 14 3c ab 81 0b 3c ae 1d ce 3b 28 d4 33 3c
       0.009079371 0.008514802 0.006290159 0.010975875
000280 b8 0a c7 bb 65 9d 3e 3c 68 c3 da ba 1e 8a 8b 3b
       -0.006074276 0.0116342055 -0.0016690316 0.004258408
000290 d1 c1 87 3b 56 d0 2d 3c 48 e1 28 3c 00 5b f9 3b
       0.0041429778 0.010608753 0.0103076175 0.007609725
0002a0 2d 8c 75 3b 38 9e 34 3c 4a 06 d9 3b eb d7 1c 3c
       0.0037467584 0.01102405 0.006623064 0.009572963
0002b0 9f 35 8b ba cf 7d 2d 3c 20 0c 08 3c 6a c0 c4 3b
       -0.0010620839 0.010589077 0.008303672 0.006004383
0002c0 df 1e 55 3c 1c 3c e1 b9 97 0e 4d 3b ff 84 7b 3b
       0.0130078485 -0.0004296013 0.0031289214 0.0038378832
0002d0 d2 95 4c 3c 94 0a 21 3c e0 af 33 3c 97 9d c1 bb
       0.012486892 0.009829182 0.010967225 -0.0059086788
0002e0 d4 13 ff 3b 5e 64 03 3c b4 cb b9 3b cc 08 1e ba
       0.007784346 0.008019535 0.0056700353 -0.00060285325
0002f0 6c 28 1e 3c b0 69 12 3c 5c ba ed 3b e7 d2 93 bb
       0.009653192 0.008936331 0.007254882 -0.0045112255
000300 21 be db 3b d4 e3 14 3c e7 9b 25 3c 0f ae 1d 3c
       0.0067060147 0.009087522 0.010107971 0.009624018
000310 55 b0 f8 3b a4 55 0d 3c fd a9 d2 3b 1a 39 1a 3c
       0.00758938 0.008626375 0.0064289556 0.009413028
000320 f4 9a 0c bb 96 7f 10 3c b2 73 2b 3c 80 98 cb 3b
       -0.0021454664 0.008819481 0.010464596 0.006213248
000330 43 d5 11 3c 77 46 05 3c 27 6a 36 3c 20 3a c9 3b
       0.008900943 0.008134476 0.011133707 0.0061409622
000340 04 ba e6 3b 79 59 ef bb b9 5b d3 ba 10 22 57 3b
       0.0070412178 -0.007304367 -0.0016125358 0.00328267
000350 db e3 95 bb e7 a9 1f 3c b5 42 41 3c cc 06 10 3c
       -0.0045742816 0.009745098 0.011795689 0.008790683
000360 d1 69 e0 3b a4 1e 4a 3c bd bf 22 3c 22 9d 18 3c
       0.006848552 0.012336407 0.009933409 0.009314807
000370 f9 37 31 3c 08 f9 1c 3c ed 04 f6 3b 81 1b 0d 3c
       0.010816568 0.009580858 0.0075079114 0.0086125145
000380 c8 d7 13 3c 82 e7 4a 3b e7 2b 36 bb 85 bb 22 3c
       0.009023614 0.0030960743 -0.0027797164 0.009932403
000390 af 69 3b 3c 92 cb 13 3c 03 0f 04 3c 65 2d be bb
       0.011438771 0.009020703 0.00806022 -0.0058037513
0003a0 a9 62 14 3c 1d 88 c9 ba 57 a1 1c 3b eb af 7d bb
       0.009056726 -0.0015375648 0.0023899877 -0.0038709592
0003b0 07 c9 17 3c d7 59 b3 3a c2 85 23 3c f2 8c 80 bb
       0.009264237 0.001368339 0.009980621 -0.003923052
0003c0 de c3 0c 3c 39 11 4e 3c 70 73 ea 39 a0 76 dc ba
       0.00859162 0.012577348 0.00044717966 -0.0016820021
0003d0 e1 5e 2a 3c 80 aa 28 3c 91 9d f2 3a 3b a0 4e 3c
       0.010398597 0.010294557 0.0018510093 0.012611444
0003e0 4d ea 25 3c 11 48 10 3c 74 4a 27 3c 8f 59 cc 3b
       0.010126662 0.0088062445 0.010210622 0.006236262
0003f0 17 df ee b9 4f 9e 12 3c 3e 76 f1 ba 57 0a 1d 3c
       -0.00045561112 0.0089488765 -0.001842208 0.009584985

fc3.bias f4 [2]
000000 59 c9 e5 bb 85 4c 42 3c
       -0.007012528 0.011859064
