projects/tennis/checkpoint/E15/E15.18_critic1_15000.pt (torch_old, 502006 bytes, 9 tensors)

fcs1.weight f4 [400, 48]
00000000: 5aaf 67bc 6535 70bb 505b 4ebc adf7 04bb
00000010: 9140 bc3c 6d42 073d de3b 98bb 1d1f 3bbc
00000020: 717e 5fbb e688 893c 37e8 dfbb afce 9d3b
00000030: b7b4 1c3d 1c89 da3b 716e d8ba 6e96 abbc
00000040: 0736 1d3d 0a23 c6bc 2795 783b ad1d 6fbb
00000050: 09b3 6cbc c7f7 19bd aa59 243d f4f7 543c
00000060: 2333 abbb 56db 5d3c 1f14 703b e2e1 173c
00000070: 433a 15bd 0661 4bbc 0f6e 15bd 0019 a7bc
00000080: 3daf 79bc 6cce 9bbb f11b ce3b feb1 90bc
00000090: 7491 55bd 8e4d af3c 544f 203d 46e0 dbbc
000000a0: fc1d c7ba e7ad dfbc 1da6 993c d7e8 b9bc
000000b0: 4f9d ff3c cfa9 bb3b 5d61 043d 36f5 cb3c
000000c0: 9df2 323d 3f0b b73c 4c64 80bc e1bf 2a3c
000000d0: 387b 393c 17fa 7d3c b7bf 3bbc 7695 8bbc
000000e0: aeae 083c 2b3c 043c ceef db3c da95 9cbc
000000f0: 203a 213c 9d72 f2bc c84b eb3c 53ee 2dbb
00000100: 311f 2b3d 57c3 59bc 1ce4 2dbd 395e 073b
00000110: 2c88 0fbd cb01 fa3c de69 1b3c 902a 78bc
00000120: 40ad 823c 8548 04bd 7fdd 903c edb5 2fbc
00000130: 312e 7dbc 9a9e 57bc 78cf 04bb 5d33 023c
00000140: e4a5 073c 462d 933c f005 d6bc 4c32 033c
00000150: f875 19bd bfe7 bc3c e6b3 cbbc c24c 2d39
00000160: 73ea 08bc c85b 40bb 16d6 0e3d 869a 993b
00000170: fe50 fcbc 42e1 d0bb 8f82 1dbd e333 213c
00000180: b3d1 e43c b03e fbbc e634 703c 8072 7bb5
00000190: 31c7 febb ae12 57bc 5792 e83b b561 48bb
000001a0: cf69 b93c 33bc 14bb e021 31bc 32ea 15bb
000001b0: a338 043c d805 993c 59f3 d6ba ff2c 5f3c
000001c0: 6ccc a1bc d7eb ea3b a073 bbba 9b60 7cbc
000001d0: 5137 5cbc dfb0 023d 819e 03bc c5ab 1b3c
000001e0: 963b aa3c 7f56 9bbc a37a 0cbd f4a5 dfbc
000001f0: 593e e93c bdfa 20bb 927f d2bc e08d 9bbc
00000200: c797 04bd ff95 9bbc 6311 2b3d ad6e bc3c
00000210: 5fc9 a63c 585f 053d 258a 92bb 0db3 613c
00000220: 27f4 853c fb68 da3c 6730 5f3c c386 b73a
00000230: 950b 203c fde9 ef3c f862 6ebb def7 a13c
00000240: d3d3 223c d453 8abc 3bc5 bfbc cc43 8b3b
00000250: 12dc a2bc ee50 f8bb 0ee2 993c 15e9 0eba
00000260: 29df adbc 6444 53bb c44f 86bb 307c 1d3c
00000270: 88dd 78bc 9dfa 5abc 5cb8 bf3c 4beb 15bb
00000280: a702 383b 8eff b53c 814e a43c 3f3b 893a
00000290: f480 1bbc 3b5c aabc 248e e1bc 230b c8bb
000002a0: c692 7f3c 8d97 40bc 6f0e c13b c77f 40bc
000002b0: 8793 963c 90ee 01bc 3fb7 3d3a f981 67bb
000002c0: b2d8 b83b 7210 0c3b 60bb b9bc a2a3 de3b
000002d0: 2cd2 4fbc 69ae 90bb 2236 aa3c 3081 6ebc
000002e0: 02ff 06bd 7065 80bb c084 cb3a 2515 fc3b
000002f0: 4c64 cc3c bc3a dcbb 8a06 04bc bd5b 3abb
00000300: e8bd d33b 4b2c 083c e1cd 10bc 1869 1cbc
00000310: 8e27 8b3c ed97 39bd 8b0f 863c 21d4 893a
00000320: 72b8 d8bc d9b7 fbbb e10e b33c cfb6 9abc
00000330: 7d2e c43c b892 6f3c 2cbe f6bc a3a3 38bb
00000340: 23c5 0dbd 1a14 67bc 8bda c6bc f03a 1abc
00000350: 3af9 1cbc 84d9 b9bc 0c86 18bd 20c9 2a3c
00000360: bbf0 8c3c 1917 4c3c bcdf 9b3c 410b 9abb
00000370: 3105 1abc b758 f23a c64c ad38 8ec9 e43c
00000380: a67b 08bd 4376 b1bb 2700 fc3c 59a9 393b
00000390: 6942 00bd be7e c2bc d037 4b3c 3aa7 3dbb
000003a0: e0bf 2c3c 0228 67bc a5b1 3b3d 386e 863b
000003b0: 7647 9ebc ca47 633c 305e 0f3c c09e 543c
000003c0: ea62 dabc 261d 94bc 7660 68bb 4b29 cd3c
000003d0: ad89 be3c 94fb b8bc a9bf 493c e2a7 2abc
000003e0: 6903 dcbc d18a c83b 115b e6bc 2fd5 84bc
000003f0: 39ed 033c 6314 083d 8db4 b8bc 493a 28bc
-0.014140928 -0.003665292 -0.012595013 -0.0020289228 0.022980006 0.033022333 -0.0046458086 -0.011420992
-0.0034102465 0.016788911 -0.006833102 0.0048158984 0.03825828 0.0066691767 -0.0016512406 -0.020945754
0.038381603 -0.02418663 0.0037930699 -0.0036486194 -0.014446982 -0.037589815 0.040124573 0.01299857
-0.005224602 0.013541063 0.0036633087 0.009270163 -0.036432516 -0.012413269 -0.036481913 -0.020397663
-0.015239534 -0.004754832 0.006289952 -0.017662998 -0.052140668 0.021399286 0.039138153 -0.02684034
-0.0015191431 -0.027304603 0.018755967 -0.022694035 0.03120294 0.00572703 0.032319415 0.0248972
0.043688405 0.02234423 -0.015672825 0.010421724 0.011320882 0.015501521 -0.011459283 -0.017039042
0.008342428 0.008070986 0.026847746 -0.019114424 0.009840518 -0.029595667 0.028722659 -0.0026539757
0.041777793 -0.013291202 -0.04245387 0.0020655526 -0.035041973 0.030518433 0.00948569 -0.015146866
0.015951753 -0.032295723 0.017683743 -0.010724527 -0.015452907 -0.013160372 -0.0020265263 0.007946816
0.0082792975 0.017965924 -0.026125878 0.008007597 -0.03746602 0.023059724 -0.024866056 0.0001652716
-0.008356678 -0.002935158 0.034872137 0.00468761 -0.030800339 -0.006374509 -0.03845459 0.009839031
0.027932024 -0.03066954 0.0146610495 -9.3671406e-07 -0.0077752103 -0.013127012 0.007097523 -0.0030575816
0.022633461 -0.0022695183 -0.010811299 -0.0022875187 0.008070144 0.018679544 -0.0016399428 0.013621568
-0.019750796 0.0071692276 -0.0014301427 -0.015403892 -0.013440923 0.03190696 -0.008033396 0.009501402
0.020780366 -0.018962143 -0.034296643 -0.027300812 0.028472112 -0.0024563514 -0.025695596 -0.01898855
-0.03237131 -0.018992422 0.04176463 0.023001993 0.020359693 0.03256163 -0.0044720345 0.013775599
0.016351772 0.026661387 0.01362238 0.0014001954 0.009768386 0.029286379 -0.0036374908 0.019771513
0.009938198 -0.016885675 -0.023409477 0.0042500254 -0.019880328 -0.007578007 0.01878455 -0.0005451602
-0.021224575 -0.003223681 -0.0040988643 0.009612128 -0.015189536 -0.013365415 0.02340334 -0.0022875841
0.0028077753 0.022216585 0.020056965 0.0010469927 -0.009491194 -0.020795932 -0.027533598 -0.006104843
0.015598958 -0.0117548825 0.005891613 -0.0117492145 0.018380893 -0.007930413 0.00072370836 -0.0035325272
0.0056410665 0.0021372107 -0.022672355 0.006794409 -0.012684386 -0.0044153226 0.020777766 -0.014557168
-0.03295804 -0.0039183423 0.0015527233 0.0076929503 0.024950169 -0.006720869 -0.0080582 -0.0028436028
0.0064618476 0.0083113415 -0.008838148 -0.009546541 0.016986635 -0.045310903 0.016364833 0.001051549
-0.026455138 -0.0076818285 0.02185768 -0.018885998 0.023947949 0.014622383 -0.030119978 -0.0028173707
-0.034611832 -0.014103914 -0.024274131 -0.009413466 -0.009580905 -0.022686727 -0.037237212 0.0104239285
0.017204633 0.012456679 0.019027583 -0.0047010486 -0.009400652 0.0018489574 8.263583e-05 0.02792814
-0.033321045 -0.005415709 0.030761791 0.0028329699 -0.031313334 -0.023742076 0.012403443 -0.0028938786
0.010543793 -0.01410866 0.045823712 0.0041024946 -0.019321185 0.013872096 0.008750483 0.012977302
-0.026658494 -0.018080305 -0.0035457886 0.025044104 0.023259008 -0.0225809 0.012313762 -0.010416003
-0.026857095 0.006120064 -0.028119596 -0.016214935 0.008052164 0.033222567 -0.02254703 -0.0102678025

fcs1.bias f4 [400]
00000000: db55 5cbc bbc6 b73d 0176 3b3c c33d a9bd
00000010: 0d0b 2639 9d01 e8bb 7589 ec37 e5b6 9d3d
00000020: 5a27 d8bc ab93 c0bc f422 b3bd aba5 bbbd
00000030: fc77 91bd fbc6 e03c 0727 95bd 5469 6d3d
00000040: 1487 29bb 8f6c 9fbd 1cdd 973d 32ad 6c3d
00000050: 459b 10bc 0e7f d83c 5240 59bd 4e6a 003d
00000060: c3f8 bd3d 437e 14bd d53d 883c afa3 57bc
00000070: d061 bbbd 326f 91bd 1275 f43c 91fe 03ba
00000080: b5d8 6e3d 2499 39bd 24c3 5bbb c399 96bd
00000090: 1149 65bd c6ac 32bd 16fa bc3d 3837 7dbb
000000a0: 19c5 333c 2165 c1bc 150e a73d 07d2 253d
000000b0: 2c8c a33c a665 c2bc e856 51bd 16ce a63d
000000c0: e211 753d 24e5 e43b 238b 483b bf5f 2dbd
000000d0: 8ba8 383d 04a5 293d 1b71 62bd 385c c2bd
000000e0: 3d65 c5bc 74dd a5bb 1d3f 69bc a503 11bd
000000f0: 051b 443d 5727 743c d4bf 5f3d ec1c babd
00000100: 0097 60bd 9190 92bd 518f e33c 0da6 a03d
00000110: 4700 03bd 37b3 8f3b 334d 823c 3f8d 7a3c
00000120: b343 aa3d a371 cbbd 52ff 7ebc c8f1 683d
00000130: 5681 fdbc 897c 8f3c bbe3 03bd 2ace 80bd
00000140: 3eff cd3d c0bb 4f3c a449 95bd 7afc bebc
00000150: 3b8f d43d 2647 25bd 72e9 a83d 7b0c 8a3d
00000160: a70c a3bc 1891 a1bd 6cd2 23bb ae5b e1bb
00000170: 3f46 bf3d 8502 4a3d bcc8 2cbd afee 29bc
00000180: b939 ecbd 292c d03d 2219 0bbd 1b4d 1b3d
00000190: 5217 ebbc 7d70 99bd 7553 08bd 46d8 ffbb
000001a0: 8508 993d bca4 a73d 6add 9d3d eaab 93bd
000001b0: 1577 66bd a75d 653d 81e4 8dbb d66e 9bbd
000001c0: abcf db3b 550a 89bc 1a4b 4a3d f70e dcbc
000001d0: e2c8 3abd 3f97 84bb efbe 85bd cf5c 2f3b
000001e0: 5bcd fe3b 4c98 97bd eae4 1cbd 807d 2839
000001f0: 7754 94bd 532f ab3d 935a d53d f63f 303b
00000200: 9776 d03d aa39 06bd e48b 963d 983c 743c
00000210: 7fe7 fe3c df4f 8bbd 796e 103a 5d22 943d
00000220: ce67 2dbd d825 afbc 60fc 9e3c 1072 02bd
00000230: fb71 683c 57a1 f7bc 82aa 343a 4577 d23c
00000240: aca9 293c 2189 d03b 4b0d dcbd 2aa6 7f3d
00000250: 6e76 c5bc 5200 e3ba dd85 9e3d 4cf5 a13d
00000260: 7ecd 2d3d c9f3 b6bd e039 383d 4ca7 9cbd
00000270: 6c18 9fbd 3997 35bd f6d9 49bb 301d 4f3d
00000280: fa15 9d3d f66a 86b7 a024 5738 ed61 93bb
00000290: 8a7d f23c 530b cf3d d2a5 38bd d19a c3bd
000002a0: a423 0dbc b73f 763d f767 74bc 0977 06bd
000002b0: 60ab 0e3a a93e 9b3c de61 6bbc f873 ddbc
000002c0: adbc 153d 245c 203c 2d5c e3bd a97a a2bc
000002d0: 1b09 cc3d d551 8cbd 06e2 733d f515 dd3b
000002e0: d036 49bd 2c06 5b3d 8e2f 7fbc eb36 4bbd
000002f0: 2223 dbba 6279 ad3d 17f3 fbb9 0a71 adbc
00000300: 5c32 213c a051 3ebd a2e0 aebd 0fa2 013c
00000310: 3fb1 b13d 711a 39bc 2855 1f3d adf0 c8bc
00000320: 5840 573d 658b 5c3c 583c 263c 11d0 33bd
00000330: e732 cb3d 6a14 f6bb 5284 863d c318 dabd
00000340: 040f 53bd 9b31 8ebd 5531 4e3d c849 bebd
00000350: a3e0 2b3d b6c3 583d 34a6 143b 5dc9 b73d
00000360: 5d33 593c 2a8c b2bc 80a1 e13b efb2 afbd
00000370: b91e 7d3d d920 a53d 5c71 72bd 7b35 99bb
00000380: 5c67 753c 533e 3fba 33eb b03d e230 e03c
00000390: 7f2d 4a3d fffa eb3d 4b7d 98bb df85 98bd
000003a0: 9a61 603c 40cd 3bbd 91e8 173d 3bd8 823c
000003b0: b112 13bc 6279 a53d 5fde 213d bbc2 8bbd
000003c0: 2c4b 623d 2210 9fbc 2767 e8bc 8a3f c13c
000003d0: f0ea 93bc d940 62bd 7726 9cbd 80c7 26bd
000003e0: d2fd 88ba ce92 a03d 2834 51bd 5a26 01bc
000003f0: b7df 13bb 7f39 9a3c 2a6c 0d3c ad4d 5d3d
-0.013448204 0.08973452 0.011441709 -0.08263733 0.0001583511 -0.0070802704 2.81974e-05 0.077009
-0.026385952 -0.023507914 -0.08746901 -0.09162458 -0.07102963 0.027438631 -0.072828345 0.057961777
-0.0025867866 -0.07784378 0.0741522 0.05778236 -0.008826082 0.026427772 -0.053039856 0.03135138
0.09275963 -0.036253225 0.016631046 -0.013161584 -0.09149516 -0.07101287 0.02984098 -0.0005035187
0.058312137 -0.045312062 -0.003353306 -0.073535465 -0.055977885 -0.0436218 0.092273876 -0.003863765
0.010972285 -0.023607792 0.08156983 0.0404835 0.0199643 -0.02373011 -0.05110827 0.081447765
0.059831508 0.0069853235 0.003060051 -0.04232764 0.04508261 0.041417137 -0.055283647 -0.094902456
-0.024096126 -0.0050617997 -0.014236239 -0.035403866 0.04787733 0.0149019575 0.0546263 -0.09087548
-0.054831505 -0.0715648 0.0277783 0.07844172 -0.031982686 0.0043853777 0.015905952 0.015292465
0.08313694 -0.09933784 -0.015563803 0.056871206 -0.030945461 0.017515438 -0.032199603 -0.06289323
0.10058449 0.01267904 -0.072894365 -0.02331375 0.103788815 -0.040351056 0.08247651 0.06740662
-0.019903494 -0.078890026 -0.0024997247 -0.006877384 0.0933957 0.04931881 -0.042183623 -0.010371848
-0.11534447 0.10164673 -0.033959515 0.03791533 -0.028697643 -0.074921586 -0.033282716 -0.007807764
0.07472328 0.081857175 0.07708247 -0.072105244 -0.05626591 0.055997517 -0.0043302183 -0.075895
0.0067081056 -0.01672856 0.04938803 -0.026862605 -0.045601733 -0.0040463503 -0.06530558 0.00267582
0.007775945 -0.07402095 -0.038304247 0.00016068481 -0.07242673 0.08358636 0.10417666 0.0026893592
0.10178869 -0.032769836 0.07350901 0.014907025 0.031116245 -0.068023436 0.0005509626 0.07233117
-0.042335324 -0.02138035 0.019407451 -0.03184706 0.014187331 -0.0302283 0.0006891863 0.025691638
0.010355394 0.0063640033 -0.10744723 0.062414326 -0.024104323 -0.0017318821 0.07740376 0.07908115
0.0424323 -0.08933217 0.04497707 -0.07649097 -0.0776833 -0.04433367 -0.003080008 0.050564945
0.07670207 -1.6023852e-05 5.1294104e-05 -0.0044977576 0.029600877 0.10109582 -0.045080014 -0.09551013
-0.008614454 0.060119357 -0.014917365 -0.032828365 0.0005442407 0.018950777 -0.014366595 -0.027032837
0.03655689 0.009787593 -0.111015655 -0.01983388 0.09962674 -0.06851546 0.059541725 0.0067470022
-0.04912454 0.053472683 -0.015575303 -0.04961292 -0.0016718844 0.084704176 -0.00048055567 -0.021172065
0.009838667 -0.046464562 -0.08538939 0.007912173 0.08676385 -0.011297808 0.03889957 -0.024528826
0.052551597 0.013460969 0.010146223 -0.0438996 0.09921818 -0.0075097578 0.06568207 -0.10649254
-0.051527992 -0.06943055 0.050340015 -0.092914164 0.041962277 0.05292102 0.0022682073 0.08973954
0.013256875 -0.021795351 0.0068857074 -0.08579051 0.061796878 0.08062906 -0.05919014 -0.004675565
0.014978256 -0.0007295359 0.08638611 0.02736706 0.049359795 0.11522483 -0.004653608 -0.07447409
0.013695145 -0.04585004 0.037087027 0.015972247 -0.008976624 0.080797926 0.03951871 -0.06824251
0.05524747 -0.019416872 -0.0283695 0.023589868 -0.018056363 -0.055237625 -0.07624524 -0.0407176
-0.0010451621 0.07840501 -0.05107513 -0.007882679 -0.0022563764 0.018826244 0.008631745 0.054029156

fc2.weight f4 [256, 404]
00000000: b5f1 debc e228 b0bb 0eb0 0f3c bdfb 813c
00000010: 2254 abbc 4456 9dbb 4751 3f3c 68ba dfbc
00000020: 03e0 80bc ff7c f8bc c3b7 2cbc a750 cc3c
00000030: d426 aabc 03f1 eb3c 90a3 963c 11a8 fe3c
00000040: d763 89b9 1dd9 723c 538e 9dbb e5c0 a83b
00000050: e5d6 41bc 1e6a cb38 bce8 79bc 2f06 473c
00000060: 0757 a43c 0e2b 9e3b c628 283b 461d c53b
00000070: 76e1 a23b bf2a 463c 92a1 2cbb 826b 1f3c
00000080: 0efd 073c 6ac5 d138 2813 aa3c 4e7f cfbc
00000090: 112c d0b9 9c65 253c ab26 1a3c 14b6 e8ba
000000a0: 290a c7bc a5cf a1bc 6a9d 4b3c acf7 aa3b
000000b0: 969c dfba ffc4 febc 5f0b 36bc 480c 873b
000000c0: 4cb4 0e3a d705 6db9 c6c9 e4bc 7db5 fc3c
000000d0: cf63 833b 4f9c cc3c 1864 223b 6314 933b
000000e0: 3913 c13b dbbc dc3c dd41 66bc 2f76 1b3c
000000f0: 14e2 81bb d4ff a43c efaa a1b9 aa38 a9bc
00000100: 8c04 2bbc ad6f a4bb 1b08 a83b ff07 ceba
00000110: 9d47 ddbc 9333 a03b d3b4 e3bb 4758 d0bc
00000120: eaf0 86bb 14ec 9ebc 4a03 e63c 323e 4a3b
00000130: 0b55 ab3b be4c 023d 3d46 ccbc d002 793c
00000140: fe2f cf3c f8a1 8abc 9d7a 36ba 1af3 233d
00000150: 12b0 06bc 2263 9cbb 63ea 9a3b 44ed 0d3d
00000160: bf45 0a3c 1502 213c 06fe e0ba 6d77 b53c
00000170: 330f 8c3a e06b bdbb 7f39 ccbc d8ed dd3c
00000180: e13a 44bc 88c9 b4bc 63fa fcbb 6660 c63b
00000190: 10af c7bc 94c0 69bc 5411 6dbc d40e e73c
000001a0: a402 c33c 7bfa 83bc ef70 8bbc 7dbe d53c
000001b0: 64c5 5aba d9d4 bdbb 6d10 853c ff34 91bb
000001c0: 3b30 9f3c 2716 b6bb 5058 49ba 5df5 203c
000001d0: 3497 cb39 80ec 04bc 3ddf 573c 6fd8 a2bc
000001e0: f44e c2bc fed8 cb3b f792 83bb 78a7 20b9
000001f0: 9688 d5bc aab7 263b b112 47bc fce1 1c3c
00000200: 993d 29bc 94f7 633b 6435 5dbc c8eb f9bb
00000210: 770b c43c e37f a3bb e6ec 9e3b 0a9d 4fbc
00000220: 04d1 0cbc 86a7 833c 1be8 edbc 394e 793c
00000230: 1c62 78b8 4b76 cb3b de35 8d3c e4e9 44bb
00000240: 20ee bcbc bad0 173c d0c2 0abb ae95 203c
00000250: 7816 3ebb 5a1a 163c 1a5a c9ba c6d4 8bbc
00000260: e693 d93c c82f 91ba 66da 97bc 4086 4e3c
00000270: 5bbe 4f3c 58ff 703b f20d b8bc 535e 0fbc
00000280: f17d f53b 64ed ec38 ca48 4e3b 40e7 aaba
00000290: 9981 abbb 5e2a 3639 cadc 103b 0f8a 2abb
000002a0: 9577 e43b 470e c23c f78c b9ba d2a2 8b3c
000002b0: 05f9 263b 3ccd 433c 3022 b0bb c0eb 153d
000002c0: 6100 2f3b 188b 07bb e79a c7bb 5d75 61bb
000002d0: b92c 5abc fc07 15bc 7c5b 9f3c 6354 66bc
000002e0: 3839 a8bc a979 1bbb d69a 933b 4b52 973c
000002f0: 42a0 c2ba 3b84 91bc c339 3839 e5ce 683c
00000300: d42a aebc e49c 9ebc a90d bd3c 0927 1dbc
00000310: 8731 fb39 8ed4 edbc 4717 dfba b96f 40bc
00000320: c1f6 d83c 592c cbbc ba8d 23bc d03c a8bc
00000330: 7be5 cfbc 3086 e53b 6d0c 863c 1df5 e4bb
00000340: 68ca a8ba 4798 b43a dd39 dd3a c4db c3bc
00000350: ba5c c63c 15da 21bb fe4a 3bbc 2f81 cc3b
00000360: 962c 253c a36b b53c 0394 5e3c edfb 3f3b
00000370: d620 9fbc f4f8 b73c c4ba a43c b6f3 8cbc
00000380: 144e 24bc 8f7f 81bc 381b 233b 639f 613a
00000390: 3d88 3c3c c8d7 683b 3445 9e3c ae9c 12ba
000003a0: 2e4d e13c 4a56 9c3c 627f 8a3a 5d2b f1bc
000003b0: d3ba 8abc 05b9 8b3c b87f 8237 ebce e4bc
000003c0: 1052 8abc 8427 ca3c f645 863c e5d3 a93c
000003d0: 5cd9 b03c cbe6 d2bc 131c d23c 47f6 86bc
000003e0: 4caf cbbc 23cf 3abb a9ac ae3c d80a 543c
000003f0: b9f8 0a3c 77ea 0bbc d0f7 863c f0dc f53c
-0.027214864 -0.0053759674 0.008770002 0.015867108 -0.020914141 -0.0048015434 0.011677093 -0.027310565
-0.015731817 -0.03033304 -0.010541859 0.024940802 -0.020770468 0.028801447 0.01838854 0.031086
-0.00026205063 0.014822272 -0.004808226 0.005149948 -0.01183102 9.69956e-05 -0.015253242 0.01214747
0.02006103 0.00482691 0.0025659068 0.0060154526 0.0049707247 0.012095152 -0.002634142 0.009730222
0.008300079 0.00010002668 0.020761088 -0.025329258 -0.00039705684 0.010095026 0.009408633 -0.0017754459
-0.024296837 -0.019752333 0.012427667 0.005217513 -0.0017060216 -0.031099794 -0.0111111095 0.004121337
0.00054437364 -0.00022604257 -0.027928244 0.03084826 0.004009701 0.024976877 0.0024778899 0.0044885143
0.005892184 0.026945522 -0.014053789 0.009488626 -0.003963718 0.02014152 -0.00030835668 -0.020656902
-0.010438096 -0.0050181956 0.0051279194 -0.0015718936 -0.027011687 0.0048889606 -0.006949046 -0.025432719
-0.0041180747 -0.01939968 0.02807774 0.0030859825 0.005228644 0.03181147 -0.024935836 0.015198424
0.02529144 -0.016922936 -0.000696102 0.04002676 -0.008220689 -0.0047725597 0.004727648 0.034650102
0.00843948 0.009827157 -0.0017165549 0.022151673 0.0010685682 -0.005780682 -0.02492976 0.027090952
-0.011976928 -0.022068754 -0.007720278 0.006053972 -0.024375468 -0.014267106 -0.014469463 0.028205313
0.02380497 -0.01611065 -0.017021624 0.026091808 -0.00083454535 -0.0057931957 0.016243184 -0.0044313665
0.019432178 -0.00555684 -0.0007680701 0.009824124 0.00038831832 -0.008113027 0.013175783 -0.019878594
-0.023719288 0.006220936 -0.0040153223 -0.00015321176 -0.026066106 0.0025439062 -0.0121504525 0.009575363
-0.010329627 0.003478502 -0.013501499 -0.0076269843 0.023931248 -0.0049896105 0.004850018 -0.012671718
-0.008594755 0.016071092 -0.02904134 0.015216404 -5.921918e-05 0.00620917 0.0172376 -0.0030046636
-0.023062766 0.009266073 -0.0021173246 0.009801311 -0.0029005092 0.009161556 -0.0015361935 -0.017069232
0.026559781 -0.0011076862 -0.018536758 0.01260525 0.012679662 0.003677329 -0.022467587 -0.008750516
0.00749182 0.000112975744 0.003147649 -0.0013038889 -0.005233955 0.00017372656 0.0022104257 -0.002602223
0.006972263 0.023688449 -0.0014156391 0.017045412 0.0025478017 0.011950787 -0.005375169 0.03660178
0.0026703107 -0.0020682272 -0.006091464 -0.003440223 -0.013316327 -0.009096142 0.019452803 -0.014058205
-0.020535097 -0.0023723638 0.004504542 0.018471858 -0.0014848786 -0.017763248 0.00017569125 0.014209484
-0.021260656 -0.01936192 0.023077803 -0.009591826 0.0004791135 -0.029032018 -0.0017020487 -0.011745387
0.026484849 -0.02480142 -0.009982521 -0.02053681 -0.02537798 0.007004522 0.016363347 -0.0069872276
-0.0012877705 0.0013778292 0.0016878207 -0.023908503 0.024214137 -0.0024696637 -0.011431454 0.006240986
0.010081431 0.022146052 0.013585093 0.0029294447 -0.019424837 0.022457577 0.020108588 -0.017206054
-0.010028381 -0.015807895 0.002488805 0.00086068193 0.011507091 0.0035529006 0.019320108 -0.0005592805
0.027502622 0.019084115 0.0010566527 -0.029439623 -0.016934788 0.017055998 1.5556681e-05 -0.027930697
-0.016884834 0.024677046 0.016390782 0.020730922 0.02158802 -0.025744816 0.025648152 -0.016474856
-0.024863862 -0.002850481 0.021322565 0.0129420385 0.008482152 -0.0085397875 0.016475588 0.030012578

fc2.bias f4 [256]
00000000: 4479 ed3c af9c fa3c e2d7 0abd 1091 d7bb
00000010: f22d bb3c 0022 c43c ad53 dc3b ecc1 2bbc
00000020: 2f37 073d 14e4 dbbc 05f0 03bc abfd f3bc
00000030: adf5 9e3b 63ea 193d 7060 033d 3582 b939
00000040: 4920 22bc c952 dab8 6924 29bd 3482 c53b
00000050: 0bee 9a3c 4c42 083d bb7f 71bc d73c ccbc
00000060: c59f 13bd cbe3 abbc b39e 61bc acdf ba3c
00000070: 5268 42bc a9dc 833c df73 0a3d 3938 903c
00000080: c46a 0a3c bf6f 20bd d6d9 06bd 3a90 133d
00000090: 4417 abbc 2cf8 a7bc 87f1 d2bc 7342 57bc
000000a0: 3a81 84bb 13d3 eebc ae07 98bc 5e8a b93c
000000b0: 4d81 643c f361 303c d9b2 1fbc 0e27 45bc
000000c0: 7ce3 d2bb c060 fa3c 78e3 e3bc 33fa e93b
000000d0: b1e2 17bc 405c e23c dfce 63bd aaeb 24bd
000000e0: ff4b 873c 59c2 c83a 8ebd 05bc 5ad6 0ebb
000000f0: e4fb 8fbc 558c 013d ffe7 a4ba 8a91 34bc
00000100: 548b 1bbc b576 413b ff7b 2dbd 2373 483b
00000110: 7aac 8c3c 5525 5d3c b2c0 983b b965 eabc
00000120: e0d7 31bc 9042 d33b bb92 2f3d d045 b0bc
00000130: e9c3 5fbc 56ae 33bc 76f8 b4bc 8778 8d3b
00000140: 5a0a 06bd b0c1 753c 2bd0 acbc 87e2 15bd
00000150: 6dd5 cbbb 9d76 17bd 0c80 a3bb 5cff 2e3c
00000160: 4a33 f93c b57a e4bc 8453 ab3c a08f 36bc
00000170: eed3 ebbc c138 bfbc 535c f53c 49cb f4bc
00000180: 7787 39bb 2432 09bc 5f6d bc3c bec8 0a3c
00000190: 7929 cdbc dbad 83bb cc6f f73b 9612 0c3d
000001a0: 1e53 2bbd 138d 1d3b 931b 30bd 8a8a a73c
000001b0: a29a 05bd dce6 723b 2012 2e3d 107a 07bb
000001c0: c907 8c3c feb5 123c c67e 093d c251 e8bc
000001d0: cebe a7bc e943 613c 93e8 46bb 10cc 8739
000001e0: 16a1 193d 7954 8dbc a00a 973b accd cc3c
000001f0: 0ef0 7bbb b1cd 913c 8201 91bc 1a49 8d3b
00000200: 891d ae3b 3b05 cd3c d590 e83c afaf 90bc
00000210: bfe3 dd3c 4e9f b33b 4a3e 25bc 3a7b 143c
00000220: 40a9 9dbc 8611 923c 5086 853c 605d 123d
00000230: 1af4 a53c 42be fcbb aed9 04bd fe05 e53c
00000240: b5a2 d5bc fdc9 0b3d e158 08bd 5d18 5f3c
00000250: b46b 5dbc 23e1 42bd a5ba c1bc 86e8 e2bc
00000260: 11e9 cbbc 0d80 dd3c fed5 a9bc faf1 c2bc
00000270: 8670 f9bc d079 e23c ec57 9fbc a501 793c
00000280: aae2 da3c 00a7 72bc cbe1 afbc 8b7b ca3c
00000290: de18 113d 544a bfbb 1a2c 0c3d 5f2f bbbb
000002a0: ecd7 14bd 3547 f83c 1735 b33b bf65 f3bb
000002b0: 9b5b ba3c 8855 1a3d 8d2b 9dbb 3b47 dbbc
000002c0: 8dc2 b33c 0ecb 2ebb 9368 0bbd c62c 123d
000002d0: 16d7 103c 8f39 dc3c 5295 e33c 6650 a6bb
000002e0: 2628 e7bb 4196 5bbc 5f16 163c 991d 17bd
000002f0: c601 613c 833a cf3a 9ca6 c23c 5df1 623c
00000300: 1676 983b eee1 d73c 1c7e 68bc b0ba c5bc
00000310: 7e70 073c a48f 94bc a6cb 8c3c 0378 9abc
00000320: 8c25 013d eea1 fdbb 76ca 343c 401c 753c
00000330: 8c79 7d3c 717a 883c 9400 543c e604 9bbc
00000340: 380f df3a 23d9 1c3d 1965 393b c07c a7bb
00000350: aadf 583c 5994 acbc 5c3c ad3b 8fda ee3a
00000360: 0633 5cbc 52a5 82bc 293d 6ebc 24de eebb
00000370: d990 cd3c e8a5 1cbc b6d3 913c 5ff2 2dbd
00000380: 7cd6 debc 0833 ec3c 0edd 1dbd 5479 713c
00000390: f1c0 a7bc 3931 4c3b 7130 fabc ce8c 11bd
000003a0: e996 c5bc 7f0e b2bc a22a c8bc 83f7 523c
000003b0: b6f0 fc3c a986 a43c f189 11bd b89a 4ebc
000003c0: f9c0 82bc a9b4 dbbc 5f32 8abc 2e8f 0bbc
000003d0: 209b e83c 2d54 983b 78f3 053d e122 983c
000003e0: 1dea a93c 9191 8dbc 2b50 cabc 0a94 44bb
000003f0: 42d5 133d 198d 9b3c 9c36 913a 3581 343d
0.028988488 0.03059229 -0.03389729 -0.006578572 0.022849057 0.023941994 0.006723842 -0.010483246
0.03301161 -0.026842155 -0.008052831 -0.029784044 0.004851064 0.037577044 0.03207439 0.00035382962
-0.009895393 -0.0001041047 -0.04129449 0.0060274843 0.018912336 0.03326635 -0.014739926 -0.024931354
-0.03604104 -0.020982644 -0.013770747 0.022811733 -0.011865692 0.01609643 0.03380191 0.017604934
0.0084483065 -0.03916907 -0.03292259 0.036026217 -0.020885117 -0.02050408 -0.025749935 -0.013138401
-0.0040437253 -0.029153382 -0.01855835 0.022648986 0.013946843 0.01076554 -0.00974723 -0.012033237
-0.0064358097 0.030563712 -0.027818426 0.007140422 -0.009270356 0.027631879 -0.05561721 -0.04026381
0.01651573 0.0015316709 -0.008162869 -0.0021795244 -0.017576165 0.03162797 -0.0012581347 -0.011021027
-0.009493668 0.0029520218 -0.04235458 0.0030586205 0.017172087 0.01349767 0.004661643 -0.028612958
-0.010854691 0.006447144 0.042864542 -0.021517664 -0.013657548 -0.010966858 -0.022091132 0.0043173465
-0.032724716 0.014999792 -0.021095356 -0.036592986 -0.0062205107 -0.036978353 -0.0049896296 0.010681
0.030419964 -0.027890543 0.020913847 -0.011142641 -0.02878758 -0.023342492 0.02995125 -0.02988209
-0.0028309503 -0.008373771 0.023001371 0.008470712 -0.02504419 -0.004018528 0.007551169 0.034197412
-0.041827314 0.0024040386 -0.042995047 0.020451803 -0.032618172 0.0037063872 0.042497754 -0.002067212
0.017093556 0.008954523 0.033568166 -0.028359298 -0.020476725 0.013749101 -0.0030351027 0.00025901245
0.03750714 -0.017252194 0.004609421 0.025000416 -0.0038442644 0.017798277 -0.017700914 0.004311693
0.0053135795 0.025026908 0.028389374 -0.017661897 0.027086137 0.005481637 -0.010085652 0.009062583
-0.019245744 0.017830621 0.016299397 0.03573358 0.020257998 -0.00771311 -0.032434158 0.027956959
-0.026078561 0.034128178 -0.033287887 0.0136166485 -0.013514448 -0.04757799 -0.02364857 -0.027698766
-0.024891408 0.027038598 -0.020731922 -0.023797024 -0.030449163 0.027645975 -0.019451104 0.015198146
0.02671941 -0.014810324 -0.021469971 0.024717113 0.035424106 -0.005837718 0.034221746 -0.005712434
-0.03633873 0.030307392 0.0054689753 -0.0074279006 0.022748759 0.037679225 -0.0047964514 -0.026767364
0.021943355 -0.0026671323 -0.034035277 0.03568723 0.008840343 0.026882915 0.027781162 -0.005075502
-0.0070543466 -0.013402523 0.009160607 -0.03689346 0.013733333 0.0015810285 0.023761086 0.013851491
0.004652749 0.026352849 -0.014190223 -0.024136871 0.008266566 -0.0181349 0.01718695 -0.018856054
0.031529948 -0.007740251 0.011034599 0.014960349 0.015470874 0.016659947 0.012939591 -0.018923234
0.0017018085 0.038293015 0.0028289019 -0.005111307 0.013236919 -0.021066831 0.0052867364 0.0018223095
-0.013439899 -0.015947971 -0.014540949 -0.007289665 0.025093483 -0.0095610395 0.017801147 -0.04246747
-0.027201883 0.028832927 -0.038540892 0.0147384 -0.020477744 0.0031157269 -0.030540677 -0.035534672
-0.024119811 -0.021735428 -0.024434391 0.012876394 0.030876499 0.020083742 -0.03553194 -0.01261013
-0.015961157 -0.026819544 -0.016869722 -0.008518023 0.028394282 0.0046487064 0.032702893 0.018571319
0.020741517 -0.017281326 -0.02469643 -0.0029995465 0.03609205 0.018988179 0.0011078897 0.044068534

fc3.weight f4 [1, 256]
00000000: 7186 db3a 544b ec3a a89b 27bb b1f8 963b
00000010: cde8 593b 6d46 083c 164a aabb 14d2 1dbb
00000020: b2b2 79bb b56f 9e3b 0736 b73b 9222 78bb
00000030: 88f5 fc39 23b2 363b 5be4 103b 9c38 e2bb
00000040: 5831 69bb 9363 8dbb ecc9 923b b61b 5a3b
00000050: 3c16 6cbb 05fb f53b 9d1a 3a3b 8c0f 00bc
00000060: 2f03 77bb a51c e3ba 0e59 f9ba 9384 08bc
00000070: c49b 353a 5e22 4fba a310 783b 7645 2639
00000080: ea29 753a 03ae 4b3b 1961 963b e1e8 70ba
00000090: 77a1 c83b cc00 38bb 5b51 b8bb 8f42 6fbb
000000a0: c69c 9abb d06e 91ba f0a3 d3ba 2db3 653b
000000b0: 8c32 6fbb 2e43 f53a 01f6 0b3c 3f94 99bb
000000c0: 22ab 36bb eb94 bcbb b695 a5bb 76b7 2cbb
000000d0: f20d 903b 9edf 96ba c2da 353c 5f17 223b
000000e0: 82ce 41b9 5ddb 213c d2d4 8e3b 91dd 623b
000000f0: 7716 123b 7fb7 593b 0650 a63b 03b3 933b
00000100: 3651 dcb9 60e5 883b 91f8 a13b c805 15bb
00000110: 5419 4ebb 1f1d 643b 21f1 4a3a 1834 943b
00000120: 4cd5 783b 4b25 c1bb 562f a8bb b77e f83b
00000130: 421e bb3b e515 a6ba 24ef 84bb a4cf 22bb
00000140: 58fa c9bb c996 5cbb b4da 4abb 85f0 46bb
00000150: eb93 d7ba c3fd dfbb 5535 deba 88cf 2e3b
00000160: cf9f a63a 107d c43b d432 16bb c4dd 0fbb
00000170: 6878 4abb 5332 883b c8d6 6a3b 59a2 6ebb
00000180: 1259 213a b65c b93b f0d9 c63a 4746 293b
00000190: 8774 b2bb b1c6 393b 9416 833b 304e 933b
000001a0: 0787 523c d8c9 9cbb 64be 853c 056c 043c
000001b0: 57de f3ba acac 8fbb 738c b5bb 13c8 40bb
000001c0: 5d70 1a3b e4aa 843b ac7a dd3b 1271 9f3b
000001d0: 6d85 fd3b eca0 e8bb 4876 d6ba 5f7d 673c
000001e0: 54ec 3bba 34a0 c03b 553b d03a 6bea 9639
000001f0: c635 ee3b 36be 23bb 21e5 683b 1a73 eb3b
00000200: 1c35 1fbb 168a debb f552 0d3c 0506 63bb
00000210: e7c6 1d3b 3d80 eebb 52be e7bb de16 923b
00000220: 4053 93ba 0ec5 f03a 5db2 653b a798 90bb
00000230: 4018 46b9 1fc4 85bb 7e2d 2fbb 9eb5 183b
00000240: a655 043c 2112 213b 89ca 7b3c 65d8 5d3b
00000250: 7a35 fbbb 1eb5 733c 6f03 413b 0cb8 0fbb
00000260: ad93 52bb 01e5 033b 47b0 2ebb 0add 193b
00000270: 36dc a3bb 3aa8 b4b9 216f 42bb 8f38 e1bb
00000280: c546 d0bb 4093 bfbb bda2 c73b 2d8b 31bb
00000290: e388 c3bb 2bec 78bb 5880 03bb a8eb 473a
000002a0: c5cc 953b 140c 943b c35b 213c a018 04bc
000002b0: 3c8f 8ebb 8bf0 58bb 2aee 9d3b d6ce 003c
000002c0: 6820 3c3b c84f 043c 0873 b8ba a65c a23b
000002d0: f5f4 8f3b 7807 5eba 3444 50bb 92b7 cd3b
000002e0: f07d cc3b 2adf 84bb b76e 983b a332 9d3b
000002f0: dc83 95bb c607 1a3c 77c4 0a3b 3c5f cf3b
00000300: c0a1 af3b 3328 dd3b dd0e 15bb f312 573b
00000310: baac d8ba d295 d03b cb76 c33b 027f bb3b
00000320: 84fd 2e3b 5623 61bb b1b2 6abb cf34 903b
00000330: 877b 2b3a eb01 4d3b 99f0 a0bb 0217 89bb
00000340: ce8e 573b 3ead 03bc ee12 a03a e065 97bb
00000350: c9f6 06bb fa9c 13bb d962 d53b 0216 4cba
00000360: 7100 b43a 8a4d 37bb 922e 80bb afff ac39
00000370: e6c6 173b 9df9 27bb 7e65 6a3b 6464 293c
00000380: cae6 15bc 8540 a5bb e308 a6bb bfca c1bb
00000390: fb93 64bb eff8 9b3a bfc7 55bb cfdb 433b
000003a0: aa1b b13b 1da6 c43b 2b99 ec3b 98c3 6a3b
000003b0: cf16 f7ba be5e 90bb 6efb 103b e653 6b3b
000003c0: 4916 623b 7f16 99bb 6dbd a8bb dc7d 13bb
000003d0: 4b9a a13b 2fb3 643b 17f9 5a3b daee 9e3b
000003e0: 0069 6f3a c548 07bc 3708 d1ba 198b a63a
000003f0: b478 0a3c cc09 553b 6b7b 183b c2ea 683b
0.0016748441 0.0018027821 -0.0025574956 0.004607283 0.0033250332 0.008317572 -0.00519682 -0.0024081515
-0.0038100895 0.004835094 0.0055911574 -0.0037862402 0.0004824812 0.0027877174 0.0022108767 -0.006903721
-0.003558239 -0.0043148487 0.0044796374 0.0033280677 -0.0036023995 0.0075067305 0.002839721 -0.007816207
-0.0037691107 -0.0017327262 -0.0019023733 -0.008332389 0.0006927813 -0.00079015444 0.0037851713 0.0001585687
0.0009352254 0.003107906 0.0045892117 -0.0009189975 0.0061227637 -0.0028076647 -0.0056249327 -0.0036508178
-0.004718396 -0.0011095647 -0.001614688 0.0035049424 -0.0036498634 0.0018712038 0.008542539 -0.0046868618
-0.0027873 -0.005755057 -0.0050532473 -0.0026354468 0.0043961937 -0.0011510735 0.011099519 0.0024733169
-0.00018482844 0.00987896 0.0043588663 0.0034616927 0.0022291222 0.0033220944 0.0050754575 0.004507424
-0.00042022177 0.0041777343 0.0049429615 -0.0022739042 -0.0031448202 0.0034807397 0.00077416195 0.0045228116
0.0037968932 -0.0058943382 -0.005132596 0.007583465 0.005710394 -0.001267132 -0.004056828 -0.0024843002
-0.0061638765 -0.003365921 -0.003095311 -0.0030355763 -0.0016447281 -0.0068356707 -0.001695315 0.0026673991
0.0012712422 0.005996354 -0.002291848 -0.002195225 -0.0030894522 0.0041563897 0.0035833586 -0.0036412685
0.0006154935 0.005656804 0.0015171152 0.0025829242 -0.00544602 0.002834719 0.0040004943 0.0044954047
0.012849576 -0.004784804 0.016326137 0.0080823945 -0.0018605691 -0.0043845978 -0.0055404245 -0.0029416129
0.002356551 0.004048692 0.0067590084 0.004865774 0.007736853 -0.0070992615 -0.0016362155 0.014129012
-0.00071686995 0.0058784727 0.0015886823 0.00028784884 0.007269594 -0.00249852 0.0035536962 0.007185352
-0.002429313 -0.0067913635 0.0086257355 -0.003464104 0.0024074854 -0.007278471 -0.0070722485 0.0044582924
-0.001124002 0.0018369274 0.003504894 -0.004412729 -0.00018891785 -0.0040822173 -0.0026729996 0.0023301612
0.008077061 0.0024577456 0.015368112 0.0033850905 -0.007666287 0.014874725 0.002945151 -0.002192977
-0.0032131479 0.002012551 -0.0026655362 0.0023477697 -0.0050006164 -0.00034457614 -0.0029668289 -0.0068731974
-0.0063560926 -0.005846411 0.006092398 -0.0027091012 -0.005967246 -0.0037982564 -0.0020065513 0.0007626363
0.0045715296 0.0045180414 0.009848538 -0.008062512 -0.004350571 -0.003310236 0.004819651 0.0078618135
0.002870584 0.008075662 -0.0014072368 0.004954892 0.004393215 -0.0008469741 -0.0031778933 0.006277987
0.006240599 -0.0040549235 0.00465187 0.004797296 -0.004562838 0.009401267 0.002117423 0.0063284915
0.0053598583 0.006749177 -0.0022744455 0.003281769 -0.0016530969 0.006365516 0.005965089 0.0057219276
0.00267014 -0.0034353337 -0.0035812075 0.0044008265 0.00065415393 0.003128166 -0.004911494 -0.004183651
0.0032891515 -0.00803691 0.0012212673 -0.0046202987 -0.0020593873 -0.0022523985 0.0065120277 -0.0007785262
0.0013733042 -0.00279698 -0.0039118016 0.00032996896 0.0023159324 -0.002563096 0.003576606 0.010338876
-0.009149263 -0.0050430917 -0.0050669773 -0.005914062 -0.0034878242 0.001189975 -0.0032620279 0.0029885655
0.005404909 0.0060012476 0.0072204075 0.003582215 -0.0018851402 -0.0044058254 0.002212252 0.0035908162
0.0034498146 -0.004671871 -0.0051495344 -0.0022505438 0.0049317232 0.003489684 0.003341263 0.0048502507
0.00091327727 -0.008257096 -0.0015947883 0.0012706249 0.008451629 0.003250706 0.0023266922 0.0035540317

bn.weight f4 [400]
00000000: 8e6a 4e3f a482 d03e 6695 c53e 6b0e 533e
00000010: 0a9a 4b3f ded6 193f aa3c 86bb ccc9 ea3e
00000020: f238 583f 7ed7 513f b9a6 363e c6fa 003c
00000030: c1c1 bc3e 1ede 193f a2ad a03e 8cb2 643f
00000040: b323 e53e 2c19 ee3e ba7a 5d3f 8701 263f
00000050: b2cf a63e 0561 7e3e 24fe 2b3f b539 3f3f
00000060: d59a 153f 19f0 0c3f 63b9 ab3e 04f2 b23e
00000070: 7de9 ab3d 196d 2e3f 81ce 5a3e 19ee 353d
00000080: 8b52 e33d 4d2b 163d a012 fe3e 4ca2 443c
00000090: 4f18 113f feeb 023f 24f4 673f 6579 063f
000000a0: 8591 403e dbc2 ed3e be49 e33e 50f9 3c3f
000000b0: 8a74 e03e 35dc 393f 5069 4a3f 3cc7 a13e
000000c0: 0ccd 343e 427a eb3c 5354 073f adde 493f
000000d0: ba7f 3b3f e11d 2c3f 7ff5 543e 8026 733f
000000e0: 0190 9b3e 18e3 2c3f 4c71 7d3d c799 603f
000000f0: 2389 7f3e 8e72 273f c25e 4a3d 717d 343f
00000100: d809 683f 6f19 c03e 464f 0c3f 417b 6a3f
00000110: 15e4 333f de17 143f 271c b63e 16cf 483e
00000120: 5e43 403d 2795 6d3f 0a80 9e3e 656d e53d
00000130: 8687 363f 9280 4b3f 7a1e 2d3e d257 fb3e
00000140: d309 0b3f a9f5 fa3e fa38 3b3f 309c 633f
00000150: a582 cf3e 7e84 a73e 3573 fc3d ae9b 533f
00000160: 5145 4d3d c86d 203e 3f0f 063f ffb0 223e
00000170: b1f2 b33e 8f6e 933e c3ac 583f feb2 c83e
00000180: 1566 313f d1de 5e3d 2e1f 2f3f 788a 203f
00000190: 2530 233f 625f f93e 3609 1d3f 5347 3a3f
000001a0: 9a6d 943e c864 a53e 83a2 a83e cc15 953e
000001b0: 1098 393e 15a1 723e c495 523f da2a a33e
000001c0: 539a 993e 556b 553f af0d 533e 5136 4d3f
000001d0: 017b 683f dd82 fb3e 0c13 883e cf32 6b3f
000001e0: 7948 ee3e cd1c 313e 6388 043d 00b8 293c
000001f0: cc50 703f bdde df3e 70b0 013f 43e2 8a3c
00000200: dc03 213f 2d4e 593e 48f9 2b3f 52d6 4b3f
00000210: e053 6c3e aa23 5b3f 3688 6f3e 16b7 0c3f
00000220: cc12 4d3f 708a 1c3f 01c3 573f a3b1 5c3f
00000230: 9839 633d e7e3 8e3e ff9a 883d a434 2b3f
00000240: d3e9 2a3e 00a2 c03d 94fd 963e e9f1 0c3f
00000250: e454 6a3f e068 b23e 0cc2 0b3d 6f20 6a3e
00000260: bbca f73e 2bc1 db3e ad75 4b3f 3fe4 313f
00000270: baad 2f3e 6aae 1a3d ffbb ac3e 60b5 0f3f
00000280: 959a 6f3f 8300 043d 1656 eb3c cbc3 2e3f
00000290: d81e 203f 32ea e43d e1d0 883e e7e8 883e
000002a0: 22bd 5e3f 72e6 083f e939 bd3e 47f6 bd3e
000002b0: 7788 1f3e 8b4d 763e a9a7 943d ed5b 0b3f
000002c0: 11c5 ab3e 9968 1a3f 1353 113f 8971 3a3f
000002d0: dbb0 dd3e 7f3e 3e3f da14 043e 64ac b23e
000002e0: 4233 6f3e 1416 4b3f 8122 f83d ee97 e93e
000002f0: 201a 293e 735c fb3e b2fc 133d 2939 3a3e
00000300: ef59 1d3d 7733 723f 8a01 923d 3bdb f83e
00000310: 00f5 d73d 1947 063f d8a7 853e 0f20 5c3f
00000320: 76a0 c53e 8ed3 df3e d054 e93e 79db 423f
00000330: 8576 293f f0b4 dc3d f09a 5e3e cbb9 433f
00000340: 67ce ac3d cd49 8f3e 69c2 2a3e 9cd2 423f
00000350: a6a4 583e d042 473e 301f 823e 0ebb 1b3e
00000360: 3203 503f 15fe 403e 9e5c b63e 0d93 2f3f
00000370: 67a0 e33e 5f7b a63a 7d35 be3e a063 223f
00000380: 4360 da3e 3ae3 e23d a11d 7d3e 7419 003e
00000390: a3f8 cc3e 4fb1 2d3f b7e7 393f 6855 403f
000003a0: c640 153f 6749 b43e e8c3 733e e58a 233f
000003b0: 4f5e f83e 6aca ed3d 2091 053e efc9 db3e
000003c0: 6ef5 703f 8783 d03e f2d5 673f cbd9 bb3d
000003d0: 695e 133f 971a c03e adc1 653d a710 1f3f
000003e0: c7c8 5d3f b6bf 1f3e 4a29 643f 71ff 573f
000003f0: e05a 723e c7c8 683f 61ef 3a3f 3006 2e3f
0.8063134 0.4072467 0.38590544 0.20610969 0.7953192 0.60093486 -0.004096587 0.45857084
0.8446189 0.8196944 0.17837037 0.007872289 0.36866572 0.6010455 0.3138247 0.8933494
0.447538 0.4650358 0.8651539 0.6484608 0.32580334 0.24841698 0.6718466 0.7469743
0.5843938 0.5505386 0.33539876 0.34950268 0.08394144 0.6813522 0.21367837 0.04441652
0.11099728 0.03666239 0.49623585 0.012001585 0.56677717 0.51141346 0.90606904 0.52528983
0.18805511 0.46437725 0.44392198 0.7381792 0.43838912 0.72601634 0.79066944 0.31597316
0.17656344 0.02874482 0.52863044 0.788554 0.7324177 0.6723309 0.20796774 0.9498062
0.30383304 0.6753402 0.061875626 0.87734646 0.24954657 0.6540917 0.049406774 0.7050391
0.9064002 0.37519404 0.5480846 0.9159432 0.702699 0.5784892 0.35568354 0.19610247
0.046939246 0.92805713 0.3095706 0.11202506 0.7130054 0.7949306 0.16906157 0.4909044
0.54311866 0.4901555 0.73133814 0.889102 0.4052936 0.3271827 0.123266615 0.82659423
0.050114933 0.15666878 0.52367014 0.15887831 0.35146096 0.28795287 0.84638613 0.3919906
0.6929639 0.054411713 0.6840695 0.62711287 0.6374534 0.48705584 0.6134218 0.7276508
0.2898987 0.32303452 0.32936487 0.29118192 0.18124413 0.2369426 0.82259774 0.3186863
0.30000553 0.833669 0.20610689 0.80161005 0.9081269 0.49123278 0.26577032 0.918744
0.46539667 0.17296143 0.03235663 0.01035881 0.93873286 0.43724623 0.5065985 0.016953593
0.62896514 0.21221228 0.6717725 0.796239 0.23078871 0.85601294 0.23391804 0.54966867
0.80106807 0.6114874 0.8428193 0.8620855 0.055474848 0.2790825 0.06670188 0.668772
0.1669076 0.09405899 0.2949034 0.55056626 0.9153578 0.34845638 0.034120604 0.22863935
0.4839686 0.42920813 0.79476434 0.694889 0.17156115 0.03776399 0.3373718 0.5613613
0.9359525 0.03222705 0.028727572 0.68267506 0.62547064 0.11177482 0.26721862 0.2674019
0.87007344 0.5347663 0.36958244 0.37101957 0.15579401 0.24053018 0.07258541 0.5443714
0.33548787 0.60315853 0.56767386 0.7282949 0.43298993 0.7431411 0.12898579 0.3489715
0.23359397 0.79330564 0.12115956 0.45623726 0.16513872 0.4909397 0.03612966 0.18185867
0.038415845 0.9460978 0.071292 0.4860476 0.10544777 0.52452236 0.26104617 0.8598642
0.38598984 0.4371609 0.4557252 0.7611614 0.6619647 0.107766986 0.21738791 0.7645537
0.084378056 0.27985993 0.16675724 0.76102614 0.21156558 0.1945908 0.2541442 0.15208074
0.81254876 0.18846925 0.35617536 0.68583757 0.44458315 0.0012701562 0.37150183 0.63433266
0.42651567 0.11078496 0.24718334 0.1250971 0.40033445 0.67848676 0.72619194 0.7513032
0.5830196 0.35212252 0.23805201 0.6388381 0.48509452 0.11610873 0.13043642 0.429275
0.94124496 0.40725347 0.9056083 0.091724 0.57565933 0.37520286 0.056092907 0.62134784
0.86634487 0.15600476 0.891255 0.8437415 0.23667479 0.9093136 0.73021513 0.6797819

bn.bias f4 [400]
00000000: 916d 323b 3038 463b 8397 313c d9ce be3b
00000010: 9092 6b39 2081 a1bb df10 c13b c9c1 163c
00000020: 49a3 97ba b437 15bb b07a b73a f458 86bb
00000030: 408b 783b 5374 12bb 5c3e 17bc 78de f5bb
00000040: 7aa5 f0bb 8d0d 4c3c e499 443a af42 fb3b
00000050: 9c1d 513c 175d 073c 7cf1 a8bb 3899 aebb
00000060: 60fd fabb 776b d0bb 8084 1cbc 1706 7fbb
00000070: 5444 fd3a 90eb 303b 9302 e7bb f996 9ebb
00000080: cca8 cebb fea8 4bbb bc9e af3b d240 3d3b
00000090: c496 9dbb d861 ba3b 4cd8 b93b 65db 81ba
000000a0: 58a7 7dbb 5f03 063c 9d8f 64bb 7812 573c
000000b0: 4de5 2a3c 8eef ab3b 47c7 cc3b bc71 71bb
000000c0: a9ec 8a3b b01f c7bb a5b0 2d3a 2204 4dbc
000000d0: bc2e 313c 6766 18bb 0804 0b3c ffac 423b
000000e0: 7ada cbbb 7285 d53b c31a 07bb b2e7 963b
000000f0: f720 8bbb 17a9 c13b e6be 9f37 eca2 2fbb
00000100: 2b4e 633b a954 b13b 94a3 bbbb 9443 0f3c
00000110: 82bb 1dbb 1881 903b a512 463a f12a a53b
00000120: c479 15ba de06 883c 8a6a c43a 0189 d5b8
00000130: c5e7 fc3b df25 6b3b 835b 793b e9ad f839
00000140: ac0c f93b 5a18 27ba a0ec a0bb 6db8 7a3c
00000150: 4768 463b c67c 283c f3ad 273b 4c7f 8abb
00000160: 2e9f 0639 655f 573b adc7 37bc 06bd aa3b
00000170: 1ea4 1d3b de68 f23b 4ac3 c0bb 90a1 2b3a
00000180: 36e7 983b 2730 bc3b f53d 5c3b 51fc d6bb
00000190: a2fa f03b 2e7b b6bb e14e db3b 52a3 373b
000001a0: d748 a1ba 9eb6 49bc 0f40 e6bb ae58 e8b9
000001b0: 9f1b 7ebb f51a 8a3b 6105 00bc a493 59bb
000001c0: 0551 c03b b899 dc3a b273 afbb ad4f 46bb
000001d0: 3f9f ddba 9e55 ee3b 3079 88bb 373f 423c
000001e0: 46f6 813b e627 dd3a 04bc 6d3b 11f2 85ba
000001f0: a557 69bb 0005 8cbb 5ec7 be3b 7c09 21ba
00000200: 610e e2bb b100 9bba 4350 88bb cd55 f039
00000210: 9dcd f1b9 e194 da3b b421 e93b 98e0 b8bb
00000220: 8d93 1dbb 041a c13b bc8f 2abc ef14 233b
00000230: 314c b23b 3530 b53b 701d e0ba 861f d73b
00000240: 4780 293b df09 cb3b a18f cd3b c772 793a
00000250: 0297 993b a9e5 99ba c6c0 613b cacb ba3b
00000260: be4f 7b3c 96ad 1fbc 6c85 113b 859b 363a
00000270: 8d43 e9bb 8adc 573b 6e2c 92b7 2f1c 32bc
00000280: c1c5 e13b f5c9 5d3b 0563 973a 06cf 803a
00000290: 3ffc e13b 6b1d 91bb ad5e 903b 2a44 713b
000002a0: dfa8 f6ba 6c79 8ebb 2482 e0bb 5fbe 7e3b
000002b0: fc7e a439 8023 1ebb 613e 123b 62d7 56ba
000002c0: 231a ddbb c5e9 ec3b c0de b43b 4a8b 98bb
000002d0: b2c6 18bc f62b f73b 2e93 f03a 48ae b43b
000002e0: 8646 9f3b 37c2 e43b 157f 76ba b61d 2a3c
000002f0: c0e3 a9bb 35b7 98bb b387 8cbb 09fc bfba
00000300: 472f 74bb c3d0 e13b fe23 f83b a11e 183b
00000310: faee 6fb8 4319 80ba ad47 8c3a baeb 7fbc
00000320: cc6a 89bb 126f 66bb 52eb fe3b add5 553b
00000330: 1f6d 0c3c e118 603b 0990 b83a 7710 133c
00000340: 9276 383b e5d1 213a 3c53 7b36 da50 6cbb
00000350: 16d9 833a 2248 02ba dc3e 133b 0f3f 1ebb
00000360: 5496 033b 27b5 163c c2fe 8b3a 3ba1 afbb
00000370: 00ca 9a3b 6956 833a 51cb 293a de03 543b
00000380: 682b 8cbb d353 93bb b640 843b cfce 05bc
00000390: 6b72 a83b 948e 14bc 468e 67bb ad19 cb3b
000003a0: 1e8d 313b 6ec5 793b b186 0cbc f5ef 233c
000003b0: ed81 89ba 4be5 723b 80c4 a73b 8a62 103c
000003c0: 53ab f13b 0cd5 103b 2b07 be3b 7fc8 dabb
000003d0: 0756 dcbb 5b0c 7c3a bae7 b4ba 632f 8abb
000003e0: 30f4 a53b 8499 70bb 26ff 0c3b 3d0c 43bb
000003f0: 7fbf 50bb 91f4 47ba f57e 8fba 2fe7 103c
0.0027225951 0.0030245893 0.010839346 0.005822998 0.00022465945 -0.004928723 0.005891904 0.009201475
-0.0011569049 -0.0022768797 0.0013998356 -0.0040999595 0.0037924796 -0.0022347167 -0.009231176 -0.007503327
-0.007343945 0.012454403 0.0007499738 0.0076678614 0.012763407 0.00826194 -0.0051557403 -0.0053283237
-0.007659599 -0.006360467 -0.009553075 -0.0038913542 0.0019322732 0.0026995875 -0.0070498674 -0.0048397747
-0.0063067432 -0.003107607 0.005359499 0.0028877747 -0.0048092324 0.0056879334 0.0056715365 -0.0009907304
-0.003870448 0.008179515 -0.003487564 0.013126962 0.010430646 0.005247063 0.0062493416 -0.0036841473
0.004239638 -0.0060767755 0.00066257484 -0.012513192 0.010814365 -0.0023254396 0.008484848 0.0029705164
-0.006221113 0.006516152 -0.0020615316 0.004605257 -0.004245873 0.0059100497 1.9043171e-05 -0.002679999
0.0034684043 0.0054117036 -0.005726287 0.008744139 -0.0024068062 0.0044099204 0.0007555879 0.0050405194
-0.00057020434 0.016604837 0.0014985364 -0.000101821504 0.007718059 0.0035880727 0.003804893 0.0004743182
0.0076003876 -0.0006374173 -0.0049110204 0.01530276 0.0030274556 0.010283655 0.002558586 -0.0042266008
0.00012838535 0.0032863256 -0.01121704 0.0052105216 0.002405412 0.007397755 -0.0058826553 0.0006547207
0.0046662344 0.005743045 0.0033606265 -0.00656084 0.0073540965 -0.0055688834 0.0066927527 0.002802093
-0.0012305033 -0.012311606 -0.0070266793 -0.0004431656 -0.0038773788 0.0042146393 -0.007813782 -0.0033199573
0.0058690333 0.001683048 -0.005354368 -0.0030259893 -0.0016908421 0.00727339 -0.0041648373 0.011855892
0.0039661257 0.0016872853 0.0036275396 -0.0010219236 -0.0035605219 -0.004273057 0.0058221063 -0.0006143076
-0.0068986868 -0.0011825768 -0.0041599586 0.00045840294 -0.00046120296 0.00667058 0.0071146134 -0.005642008
-0.0024044246 0.005892994 -0.0104102455 0.0024884304 0.0054412116 0.0055294284 -0.0017098617 0.006565037
0.0025863813 0.006196245 0.0062732254 0.00095156993 0.004687191 -0.0011741418 0.0034447177 0.005700563
0.015338836 -0.009745976 0.002220477 0.0006965923 -0.0071186484 0.0032937848 -1.7425245e-05 -0.010870977
0.006890029 0.00338423 0.0011549896 0.0009827323 0.006896525 -0.0044285557 0.0044058175 0.003681431
-0.0018818638 -0.0043479707 -0.0068514515 0.0038870794 0.00031375128 -0.0024130046 0.0022315013 -0.00081955467
-0.0067475005 0.007230016 0.005519718 -0.0046552764 -0.009324716 0.0075430823 0.001835441 0.00551394
0.004860702 0.00698116 -0.0009403092 0.01038306 -0.0051846206 -0.004660512 -0.0042886375 -0.0014647256
-0.0037259625 0.0068913414 0.00757265 0.0023211616 -5.7204605e-05 -0.0009773154 0.0010702513 -0.015620166
-0.0041936394 -0.0035161418 0.007779517 0.0032628581 0.008570938 0.0034194516 0.0014081012 0.0089760935
0.0028146845 0.00061729393 3.7450363e-06 -0.0036058933 0.0010059203 -0.0004969855 0.0022467887 -0.0024146473
0.0020078616 0.0091984635 0.0010680782 -0.0053597963 0.0047237873 0.0010020259 0.0006477135 0.0032350938
-0.0042776354 -0.0044960766 0.0040360345 -0.008166983 0.005140593 -0.009067196 -0.0035332604 0.006198129
0.002709217 0.0038112062 -0.008577035 0.010005941 -0.0010490991 0.0037062939 0.00511986 0.008812556
0.0073751598 0.0022099642 0.0057991943 -0.006676733 -0.0067241224 0.0009614878 -0.001380197 -0.0042170747
0.00506451 -0.0036712596 0.0021514385 -0.0029761933 -0.0031852422 -0.0007627691 -0.001094787 0.008844181
