projects/tennis/checkpoint/E15/E15.15_critic1_15000.pt (torch_old, 502006 bytes, 9 tensors)

fcs1.weight f4 [400, 48]
000000 16 ef c1 bc 0a 44 2a bd ee 80 8c 39 88 db 29 3a
       -0.023673575 -0.041568793 0.0002679894 0.0006479551
000010 ee ae 88 3c 9a 66 ad bc 64 2e 0b 3c 19 48 d8 3b
       0.016684975 -0.021167088 0.008494947 0.0066003916
000020 47 41 09 3d 3c 8b 2e bb f2 79 9a bc 14 f6 20 3c
       0.03350952 -0.0026633283 -0.018856976 0.009824295
000030 b1 74 e4 3b e5 c1 f5 3c df 59 b7 3c 27 5f 3b 3b
       0.0069719185 0.029999683 0.022381721 0.002859065
000040 b2 99 90 3c ce b2 e3 bc 78 84 4c 3c 26 8c 69 bc
       0.017651413 -0.027795222 0.012482755 -0.014254605
000050 0f d0 2d bd c2 6c 13 bb d9 b5 07 bd 89 09 7b bc
       -0.04243475 -0.0022495245 -0.033132408 -0.015322098
000060 24 e8 b4 bc fc fc 29 bd 87 03 8c 3c ac f0 46 b9
       -0.02208335 -0.04150103 0.017091526 -0.00018972409
000070 2e 01 dd bc 60 8c 33 bc 99 fa 19 3c 29 7d 18 ba
       -0.026978102 -0.010958761 0.009398126 -0.000581699
000080 03 22 16 3d e0 fc 80 3b 34 35 0a 3d d2 a5 49 3c
       0.03665353 0.003936395 0.033742145 0.012307601
000090 3a 3c e7 bb 3e 40 e6 bc f8 f1 cd bc cb b6 b5 3c
       -0.00705674 -0.028106805 -0.025139794 0.022181889
0000a0 4e 36 16 bc d7 d6 b0 bc 49 2e 26 3d 22 74 71 3c
       -0.009168221 -0.021586819 0.040571485 0.014737161
0000b0 d8 71 fd 3b bb 37 72 3c 3e 31 23 bc e2 e6 2c 3c
       0.0077345185 0.014783795 -0.009960471 0.010553094
0000c0 ce 74 3d bd a4 6e 8e bc 62 77 43 bc e1 23 43 3c
       -0.04625397 -0.017386742 -0.011930319 0.01191041
0000d0 a4 84 cf bb 69 ec 7c 3c bf 80 44 3d 8e 0f eb bc
       -0.0063329507 0.015437224 0.047974344 -0.02869394
0000e0 72 ec 4c bd ea 5a 5c 3c 15 3b 9d 3b 39 ca 8b bc
       -0.05003018 0.01344941 0.004798303 -0.0170642
0000f0 4d ed 57 ba a8 dd 43 bd f0 8b e8 3c ad 46 92 bb
       -0.00082369597 -0.04781881 0.02838704 -0.0044639916
000100 87 df cd 3c 10 0e 0b 3d df 8e 6a bb 0c dd 8e b7
       0.025131 0.033948958 -0.0035790724 -1.7030652e-05
000110 4a 50 55 3d 2d 5b a3 3c 4d a4 a8 bb 7d e4 8c bb
       0.052078523 0.019940937 -0.0051465393 -0.004299699
000120 1b 9d 15 bd 06 c1 bc 3c f4 db af bc 71 e3 10 3d
       -0.03652678 0.02304126 -0.021467187 0.035373155
000130 55 03 16 bd 8e 07 15 bd 5e 1f 1c bd 5b b5 ac 3c
       -0.03662427 -0.036384158 -0.03811585 0.02108257
000140 df 98 67 bc af 44 a6 3a 06 68 f5 bc 06 3c e5 bc
       -0.014135568 0.0012685264 -0.029956829 -0.027982723
000150 91 4b 96 bc 7a 69 bb 3c bc 61 4a 3c f4 bc 03 bd
       -0.01834658 0.022877444 0.012352403 -0.03216262
000160 10 d0 cd 3c 7c 64 2d bb d2 17 bf bc d1 5f e7 bc
       0.025123626 -0.0026457598 -0.023326788 -0.028243931
000170 73 79 ad bc 1d a7 2c bd d6 24 06 bc cc 7e e6 3b
       -0.021176076 -0.04215156 -0.008187493 0.0070341583
000180 36 86 07 bd 4e 29 17 bb bf 11 4c 3c 2f 51 d0 3a
       -0.033086978 -0.002306539 0.012455403 0.0015893335
000190 f6 6e 66 3c c2 38 f9 3c 2b 70 9d bc b4 ed b2 3a
       0.014064541 0.030422572 -0.019218525 0.0013651163
0001a0 09 73 1a 3c ee 44 d2 ba ba 9f a5 bc e6 5a be 3b
       0.009426841 -0.0016042271 -0.020217765 0.005809176
0001b0 4a c4 09 bd 11 bb 72 3b b8 7c bd bc f7 cd aa 3a
       -0.03363446 0.003703777 -0.02313076 0.0013031353
0001c0 b6 d4 56 bc 03 1a 8f 38 03 50 a8 3a c5 67 b5 39
       -0.013112238 6.8236164e-05 0.0012841228 0.00034600325
0001d0 36 71 02 3d e2 a6 5e bc ad bf ba ba 4d 70 1a 3b
       0.031846248 -0.013589593 -0.0014247798 0.0023565472
0001e0 b5 31 53 3c 56 24 fe 3b 17 c0 45 bc 76 fd 24 bb
       0.012890269 0.0077557964 -0.012069724 -0.0025175489
0001f0 df 10 2f bc 06 4e f8 3c ed 85 ea 3b 6c 40 8f ba
       -0.010685175 0.030310642 0.0071570785 -0.0010929233
000200 c5 61 bc 3b 9a b4 e5 bb e6 f9 3f bb a2 93 81 bb
       0.0057489597 -0.007010055 -0.0029293238 -0.003954367
000210 6e 0d 15 3d d1 38 9d bc b4 6b 3c 3c d9 b0 bb bb
       0.03638976 -0.019192131 0.011500288 -0.005727869
000220 5f 59 04 3d f6 0d 01 bc ca c6 83 3c 80 ae bf 3b
       0.032311793 -0.007876864 0.016086001 0.0058496594
000230 68 7d 19 3b 84 53 b5 bb ac bf 03 3c 70 52 be 3b
       0.0023420695 -0.0055336375 0.008041304 0.005808167
000240 7e e0 04 3d 91 17 26 bd b1 9d f3 bc e9 c0 20 bd
       0.032440655 -0.04054982 -0.029738279 -0.039246473
000250 ac e8 2c 3d 3e 0a 57 bd 4c 62 f0 bc 47 63 cf 3c
       0.04221408 -0.052500002 -0.029343747 0.025315894
000260 1f e2 ce bc db 68 c1 3a 9b 8a 29 bd 37 fc d4 bc
       -0.025254307 0.0014755981 -0.04139195 -0.025999172
000270 a7 a8 7b 3c a6 80 93 3c cf b0 37 3d b8 36 97 3c
       0.015360034 0.01800568 0.044846352 0.01845871
000280 0f 18 2e 3d 94 db bc bc ac 9c b7 3b 73 b6 00 3c
       0.042503413 -0.023053922 0.0056033935 0.007855999
000290 c6 83 2a 3d cc 22 10 3d 8e 51 f1 3b 69 85 08 bd
       0.041629575 0.035189435 0.0073644584 -0.033330355
0002a0 be 09 0b 3d 55 c1 ba 3b af 95 4f 3c 2c 5a d0 bc
       0.033944838 0.0056993165 0.012669965 -0.025433622
0002b0 05 37 a6 3c 9e f4 db 3c 22 5b b3 bc 1d 18 0f bd
       0.020289907 0.026850041 -0.021894041 -0.034935106
0002c0 54 e0 fe bc ea 9c 68 3b f7 08 ce bb db 92 c5 bc
       -0.031112827 0.0035493919 -0.00628769 -0.024117878
0002d0 af a4 f9 3c 19 70 36 bd ec 5c 0d bd 9b bb 01 3c
       0.030474035 -0.0445405 -0.034512445 0.007918264
0002e0 b4 46 39 3d c1 a3 f7 bc 31 71 30 3d 8c 54 8c 3c
       0.045233443 -0.030229451 0.043076698 0.017130159
0002f0 69 41 3b 3d a8 09 b7 bc cb 72 21 bd 87 c5 33 bd
       0.045716677 -0.022343472 -0.039416116 -0.04388955
000300 43 98 7a 3b f9 f8 8a 39 53 12 99 ba da 91 98 b9
       0.0038237728 0.0002650691 -0.0011678435 -0.00029100367
000310 c1 c2 ba bc 01 52 8b ba 72 b0 ac 3b 87 87 bc ba
       -0.022797944 -0.0010629297 0.0052700574 -0.0014383652
000320 ae 48 a7 3b c3 12 26 3b 9f 4d de 3b 3c 8b 7f b9
       0.0051050996 0.0025340773 0.0067841555 -0.00024370564
000330 54 35 c4 ba 36 73 bb 3a f7 d6 2d 3c e2 b1 71 b9
       -0.0014969506 0.0014301303 0.010610334 -0.00023049818
000340 e4 5a 37 3b b9 22 57 ba 43 00 8f ba d5 0f 5f b9
       0.002797776 -0.0008206773 -0.0010910112 -0.00021272835
000350 dc 44 8b bc 90 ac 66 bb 37 5e 4b 3c f0 fd a4 ba
       -0.017000608 -0.003519807 0.012412599 -0.0012587886
000360 10 df 28 3a d1 ae c8 38 52 b2 5c 3a db 49 81 bb
       0.00064419303 9.569305e-05 0.0008418906 -0.003945572
000370 36 4a 11 bc 94 cd 38 39 36 ef 9f 3b 8e e2 2e b9
       -0.008867791 0.00017624191 0.004880811 -0.00016678331
000380 64 0f 44 ba cb 71 ee 38 67 9a 06 bc 16 ed dc 3a
       -0.00074791 0.0001136992 -0.008215523 0.0016855325
000390 9c ae be bc ca 9d 1a 3c 44 d7 c9 b9 a4 a4 39 39
       -0.02327662 0.009437034 -0.00038498093 0.00017704308
0003a0 a9 d0 8e 3a d5 97 5f 39 dc 06 36 3a e7 e6 ed b7
       0.0010895926 0.00021323499 0.0006943771 -2.8360124e-05
0003b0 92 5a 90 3c b2 b6 48 3b 4a ba 3a 3a 86 cc 83 38
       0.017621312 0.0030626473 0.0007123096 6.284662e-05
0003c0 36 89 ad bc 3c c9 18 bc d8 f9 f9 3c 6a 31 16 bd
       -0.021183591 -0.009325322 0.030514643 -0.03666822
0003d0 12 83 da bc f7 32 9e bc 1c e4 08 3d 8e 13 f6 bc
       -0.026673827 -0.019311411 0.033420667 -0.030038621
0003e0 b9 f1 13 3d 48 23 5b bb 14 65 83 3a 9b 5d e0 bc
       0.036119197 -0.0033437777 0.001002463 -0.027388385
0003f0 b9 89 3d bd 77 fd 6d bc 94 eb 9d 3c d9 db e9 bb
       -0.04627392 -0.014525763 0.019277371 -0.0071368036

fcs1.bias f4 [400]
000000 5b a0 54 bd df 3c a7 bd 10 75 05 bc 73 ba cd 3d
       -0.05191074 -0.08165907 -0.008145586 0.10045328
000010 4a 81 ba bc 74 1c 0d bd 9b 5e ab bc 88 ee 00 bd
       -0.022766728 -0.034450963 -0.020919135 -0.03147748
000020 c8 6d b1 bd 27 58 4d bd 38 20 c0 bc be 54 9b 3d
       -0.08663517 -0.050132897 -0.023452863 0.07584523
000030 f7 67 c2 3c 0b 45 7a 3c 19 35 1e bd ad 19 55 3d
       0.023731215 0.01527525 -0.038624857 0.05202644
000040 dc ff b5 bd c2 f5 c4 bd f1 73 35 bd e5 f6 85 bc
       -0.08886692 -0.09617187 -0.044300023 -0.01635308
000050 05 d7 9e 3c e7 9d 98 3d 55 e4 b9 bc a0 a5 58 3d
       0.019389639 0.074519925 -0.022691885 0.052892327
000060 d5 84 6f bd 3c 6a c2 bd 6c a9 10 bd 43 b9 8d 3d
       -0.058476288 -0.09492919 -0.035317823 0.069201015
000070 6f 63 ae b7 ff 0c 37 3d 86 64 92 3d d2 0c de 3c
       -2.0788719e-05 0.04469013 0.071480796 0.027105723
000080 02 c8 29 bb d6 32 55 3d 6f 51 7f 3d a7 30 ea 3c
       -0.0025906567 0.052050434 0.06233352 0.028587652
000090 49 45 c3 ba ec 3a ab bd 70 4c ad bc e0 1f af 3d
       -0.0014897968 -0.08360848 -0.021154612 0.085510015
0000a0 13 45 6d 3d 98 66 41 bd 52 38 8f 3d df 46 93 3d
       0.057927202 -0.04721698 0.06993164 0.07191252
0000b0 05 89 53 bd 76 a3 d5 bd bf 1c dc bc 97 d8 7d bc
       -0.051644344 -0.10431568 -0.026869176 -0.015493534
0000c0 4c be 12 bd d3 43 a2 3d a2 9b a1 bd 23 9b 4d bc
       -0.035826012 0.07923093 -0.07891013 -0.0125491945
0000d0 aa b6 f6 bc 9c ad 1d 3d da b9 8d bd ad 89 63 3d
       -0.030116398 0.038495645 -0.06920214 0.05555122
0000e0 be fc 94 bc fe 28 d9 bc e8 f1 d1 bd 2d 57 37 bd
       -0.018186923 -0.026508804 -0.10251218 -0.04476087
0000f0 9d 4e 1c 3b dd b6 89 bd 86 b9 c0 bb 78 ec 3f bd
       0.0023850568 -0.067243315 -0.005881491 -0.046856374
000100 af 8c 84 3a 62 57 bb bc 9b 40 84 bc a9 5d 84 3d
       0.0010112728 -0.022868816 -0.016144088 0.06463177
000110 c5 73 0f 3d a6 0f 96 3a eb 8a 2d 3d 69 90 b1 bd
       0.035022516 0.0011448755 0.04236881 -0.08670122
000120 bb 5a e1 bc 12 4b 92 bd 00 b3 85 bd 72 0d 01 bd
       -0.027509084 -0.07143225 -0.06528282 -0.031506963
000130 28 53 6c bb 45 b4 2f bc a7 d1 93 3d 2e 64 bf 3b
       -0.0036060307 -0.010724132 0.072177224 0.0058408
000140 1b c4 ad bd 61 77 72 bc 46 8e 92 bd 76 00 44 bb
       -0.0848467 -0.01479897 -0.07156043 -0.0029907501
000150 4e 21 6f 3d 81 b1 84 3d 41 11 7f bd b7 33 95 bd
       0.05838137 0.06479169 -0.062272314 -0.072852544
000160 b3 bc 6a 3d 58 07 81 3d 92 25 ce 3c 37 78 85 bb
       0.057308864 0.06300229 0.0251644 -0.0040731686
000170 d8 9c 8d bb 0b 3d c8 3d 3d 95 16 3d 3c 4b bc bd
       -0.0043216757 0.09777268 0.03676342 -0.09194037
000180 fa 77 0e 3d b1 4a e0 3b 19 bf 41 3d 49 db 37 bd
       0.034782387 0.0068448414 0.047301386 -0.04488686
000190 e0 3a 23 3d f3 33 3c 3d b1 6c 84 3c 3d 23 4d bd
       0.03985107 0.04594798 0.01616511 -0.050082434
0001a0 64 aa de 3c c8 12 5c 3d 6d 2d 5d 3d a7 d9 73 3b
       0.027180858 0.05372885 0.0539984 0.0037208588
0001b0 f1 09 25 bd 0b 3b 28 bd 02 5a 6a bd 8c 55 c1 3c
       -0.040292684 -0.041071933 -0.057214744 0.023600362
0001c0 07 a2 6b 3c 62 4f 90 3c 92 ba 8f b9 27 c5 50 bc
       0.014381892 0.017615978 -0.0002741409 -0.012742317
0001d0 ca 75 42 3a b9 f2 0b bd 4e 37 c6 3a 34 18 4f bd
       0.00074180646 -0.034167025 0.0015122683 -0.05056019
0001e0 ee be 67 3d 7e 99 54 3d 5e b2 3a bc 94 3a d3 bb
       0.05657857 0.051904194 -0.011395065 -0.006446192
0001f0 92 b3 7b bd 9d 44 92 39 f6 be 07 3b 88 85 1c 3b
       -0.06145055 0.0002789841 0.0020713187 0.0023883302
000200 d0 bf bb 3c cd 4a e9 3c d3 6c e7 b8 2d 34 00 3a
       0.022918612 0.02847805 -0.000110352084 0.00048905873
000210 a3 cc 41 3d a2 66 9b 3c 22 07 8b bc d4 67 41 bd
       0.047314297 0.018969838 -0.016971175 -0.04721816
000220 8d bd 04 3d d9 59 4d bd 72 61 f8 3c b9 6e 95 bd
       0.032407332 -0.050134514 0.030319903 -0.07296509
000230 3a db 2c 3c ce 21 61 3c 7b 0f c9 3c 06 da b3 bc
       0.010550315 0.01374097 0.024543514 -0.021954548
000240 c0 ed cd 3c 80 19 b1 bb b6 ff 64 bd ba 3b c4 bc
       0.025137782 -0.005404651 -0.055907927 -0.023954261
000250 29 7d 4e bc ac d8 21 3c 0d 72 6a 3d f7 25 69 3d
       -0.012603083 0.009878319 0.057237674 0.05692097
000260 58 e7 10 bc 3c 3a 42 3b 90 ef ec bc f6 7c a4 3d
       -0.008844219 0.0029636761 -0.028922826 0.08031647
000270 22 48 5b 3d 21 be 3f 3c ff 58 83 bc 6f 58 3f 3a
       0.053535588 0.011703045 -0.016033648 0.00072992494
000280 66 9f c6 bd 11 1f cb bb 11 1b 97 bc 0b 37 0e 3d
       -0.096983716 -0.0061987718 -0.018445523 0.03472046
000290 2f f0 a0 3d f8 f7 13 3d 11 af 47 bd a5 c4 8a 3d
       0.078583114 0.036125153 -0.04875094 0.06775788
0002a0 85 1f cb bc 6c 96 b4 bc f4 25 05 3d 35 6b 37 3d
       -0.024795303 -0.022044383 0.032506898 0.044779975
0002b0 ab 25 15 3c 03 d0 96 3d 48 27 34 bd 94 49 02 3e
       0.009103219 0.07363894 -0.043982774 0.1272338
0002c0 11 33 40 3d 4c e8 ae 3c c5 20 53 bc 60 a4 82 3c
       0.0469237 0.021351002 -0.012886231 0.01594752
0002d0 23 a4 e2 bc 8c d9 45 bd cc b9 dc bc 6b 32 d9 3d
       -0.027666157 -0.048303172 -0.026944064 0.106053196
0002e0 c3 8f 2c bd e6 24 3f 3d 3a d2 4c 3d 4b 1d ad bd
       -0.04212929 0.04666605 0.050005175 -0.08452853
0002f0 7e 0c ef 3d 5a a3 03 39 f5 f3 86 ba a5 c5 4a bd
       0.116723046 0.00012553987 -0.0010296094 -0.049504895
000300 0e 20 1c b8 49 45 8e bc 60 06 d9 36 37 6a 3e 3d
       -3.722315e-05 -0.017367022 6.467846e-06 0.046488013
000310 c7 4b 69 bd e1 b5 41 bd 78 f4 81 ba 05 7a a4 bd
       -0.056957033 -0.047292594 -0.0009914776 -0.08031086
000320 0c 01 c4 bb 15 99 8b 3d 0d 88 61 3b 02 17 4e 3d
       -0.00598157 0.068163075 0.0034413368 0.05031491
000330 7d aa 9d bc 03 4f 59 3c 09 f1 83 bd 89 f5 8d bd
       -0.019246334 0.013263467 -0.06442458 -0.06931598
000340 87 8a 4a 3d 3d 3c 07 bd ff dd b3 ba 75 02 cf bd
       0.049448516 -0.033016432 -0.0013722776 -0.101078905
000350 6e 4a a7 bc 1d 30 a6 bd c5 42 1d 3d 24 42 9b 3d
       -0.020421233 -0.08114646 0.038393755 0.07580975
000360 c2 b1 09 3d 60 5e b6 bd 54 b6 be 3d 6f c1 88 bc
       0.03361679 -0.08904719 0.0931212 -0.016693799
000370 b7 da 9e bd 2b 11 b9 bd 62 04 52 bc e2 e8 31 3d
       -0.0775656 -0.09036478 -0.012818428 0.043434985
000380 cf 65 82 bc 04 20 84 ba aa 85 b1 bd 33 13 cb 3c
       -0.015917687 -0.0010080342 -0.086680725 0.024789428
000390 64 70 ee 3c de c4 36 3d 08 1a bd 3d 8f 11 1c 3d
       0.029106326 0.04462134 0.09233481 0.038102683
0003a0 a2 93 86 3d b7 c3 96 3c 81 61 84 bd 96 57 8c bd
       0.065711275 0.018403871 -0.0646391 -0.06852643
0003b0 04 ad c9 bd b4 c0 a4 3b db 46 e9 bb cf e3 b4 bd
       -0.09847453 0.005027855 -0.0071190423 -0.088325135
0003c0 56 02 90 3d c5 f9 94 3b 30 a0 da 3c 00 75 e0 3d
       0.070316955 0.0045463764 0.026687711 0.10959816
0003d0 09 37 8f bd 89 27 23 bc 98 51 9f 3d 69 a1 53 bd
       -0.06992919 -0.009958156 0.07779235 -0.051667605
0003e0 39 7b 94 bc 0c ad c8 38 c9 b3 9c bc c8 bb 8c 3d
       -0.018125163 9.568976e-05 -0.019128697 0.06871754
0003f0 86 19 12 b8 fd e3 02 ba ae a4 ae 3c af 61 5c bd
       -3.4832883e-05 -0.00049930793 0.02131876 -0.053804096

fc2.weight f4 [256, 404]
000000 c6 46 ca bc af 56 2f 3d c9 c9 a4 bc c4 9d ef 3c
       -0.02469195 0.042807277 -0.02011575 0.029250033
000010 fa b6 61 39 fa a1 87 bc 9e 9f 72 3a 5c 38 44 bc
       0.00021525836 -0.016556729 0.0009255352 -0.011976328
000020 c2 25 d2 3c 70 01 14 3d c6 3f 11 bd 2e e2 92 bc
       0.02565277 0.036134183 -0.03546121 -0.017930117
000030 96 7e 94 bc 41 15 02 3c 2e 67 c8 3c 2f 70 20 3d
       -0.018126767 0.007939638 0.024463262 0.039169487
000040 a0 8d 17 bc 3d 7b e7 bb f9 10 f2 3c 52 cf fc bc
       -0.009250075 -0.0070642517 0.029549109 -0.030860577
000050 a4 11 77 bc c9 3b f1 3c 57 76 9e 3c 45 c7 49 3c
       -0.015079889 0.029447453 0.019343538 0.012315576
000060 41 cd 60 3c a6 a4 b5 3c 22 d8 1c 3c ad 7d 28 3d
       0.013720811 0.022173237 0.009573014 0.04113548
000070 43 0c 9d b8 87 97 d1 bc 84 18 4f 3d b8 fe 1a bc
       -7.488627e-05 -0.02558495 0.05056049 -0.009460144
000080 07 d7 2c bd b2 46 04 3d c2 b8 92 bc 58 48 15 3d
       -0.042197254 0.032293983 -0.017910365 0.036445946
000090 84 05 df bb 51 88 f8 bc 49 20 0e bd a5 71 2c bd
       -0.0068060774 -0.030338438 -0.03469876 -0.042100567
0000a0 a3 16 ee 3c 40 b6 40 bc 84 2c b7 bc 18 c9 5c 3d
       0.029063528 -0.011762202 -0.022360094 0.053902715
0000b0 8b 92 36 3c c0 0a 30 b9 85 c2 ee bb e0 b5 1d bc
       0.011143337 -0.00016788673 -0.007286372 -0.009625882
0000c0 36 b9 01 bd e8 87 b9 bb 1f 09 40 3d a8 e9 52 ba
       -0.03167077 -0.0056619532 0.0468837 -0.0008045682
0000d0 eb 4f 05 bd 6c 32 d5 bb d9 1a 0a bd cf 8d 2d bb
       -0.03254692 -0.006506255 -0.03371701 -0.002648223
0000e0 83 6a b1 3c a4 ab 0c 3d 8f 93 c6 3a d9 f3 c3 bb
       0.021657234 0.034343377 0.0015150177 -0.0059799966
0000f0 22 51 10 37 4e 77 90 bc 61 b8 a7 3c 99 09 9c bc
       8.601959e-06 -0.017635014 0.02047366 -0.019047545
000100 1b 33 01 3d e0 4c bc bb 8d 29 26 3d 3d 0b 9d bb
       0.03154288 -0.005746469 0.04056697 -0.0047925995
000110 96 2f 7f bc 45 a8 ca 3c d9 21 f8 3b e4 5a 34 3d
       -0.01557531 0.02473844 0.0075723943 0.044031993
000120 f9 a0 28 3c ef 0c 9b 3b e2 db 38 bd 72 3a cb bc
       0.010292285 0.0047317664 -0.04513157 -0.024808142
000130 3a af 00 3d 2f d2 ce 3c 36 77 b6 3a 11 9d 52 bd
       0.03141711 0.025246708 0.0013921026 -0.05141932
000140 fa d0 82 3c c9 f5 5f 3c c0 08 36 3c a7 94 16 3c
       0.015968788 0.01366944 0.011110485 0.009190715
000150 12 02 82 3c 68 3c 8c bb 9e 71 40 bc 58 37 d1 3b
       0.015870128 -0.004279662 -0.011745838 0.0063847713
000160 6b 20 72 3c 1a 0d b8 bc 0e 21 0e 3d c9 08 37 bc
       0.014778237 -0.022467185 0.034699492 -0.011171528
000170 cd c8 71 3b 22 24 22 bd ec e8 32 3d 7e 6b fb 3c
       0.0036893368 -0.03958524 0.043679163 0.030690905
000180 f9 b6 83 bc 3c 45 ce 3b b8 7c 3e 37 7f 98 50 3b
       -0.01607846 0.0062948745 1.1353921e-05 0.0031829176
000190 88 51 9c bb b0 4f a4 3c ff 9a 1c bd 1f 06 bd bc
       -0.0047704615 0.02005753 -0.038233753 -0.023074208
0001a0 70 fc 03 3d c1 b1 39 3d 2f 09 56 bc 5d 76 a7 3c
       0.032223165 0.045335535 -0.013063713 0.020442182
0001b0 ea e3 b5 bc b4 5a 75 bb ee 7a 16 3d 31 17 0a bd
       -0.022203404 -0.0037438096 0.03673833 -0.033713523
0001c0 7a 30 7b bb 5a 43 3f 3d 7d bd 7c 3b 66 2d 95 bc
       -0.0038328455 0.04669509 0.0038565092 -0.018210124
0001d0 66 a0 d4 b9 fd 6c e5 bc c6 b7 34 3d 1d a2 b4 3c
       -0.00040555297 -0.028006071 0.044120573 0.022049958
0001e0 6f 00 f2 bc 32 ee 0f bd 26 6d 02 bd 29 28 16 3d
       -0.029541222 -0.03513927 -0.031842373 0.036659393
0001f0 56 ed b4 bc 17 d0 35 bd 97 b8 28 bd a7 dc 1e 3c
       -0.022085827 -0.044387903 -0.041191664 0.009696162
000200 6a cc b5 ba 87 ff f2 3c 3a 97 94 3c 3a d5 94 3a
       -0.0013870124 0.02966286 0.018138517 0.001135505
000210 5a a6 67 3c 2a ff 5d bb ce 2f 27 bd 75 40 b9 ba
       0.014138782 -0.0033874013 -0.040817074 -0.001413359
000220 fb ec f3 3c 63 6e 37 bd b2 b1 8a ba ba 69 41 3d
       0.029776087 -0.044783007 -0.0010581522 0.04721997
000230 51 08 66 bc 0c 03 0c bc 49 ec 5a 3d 38 52 d1 bc
       -0.014040069 -0.008545648 0.053447995 -0.0255519
000240 c2 35 39 3d 20 3e 5f ba a3 97 1b bd 8f f3 22 bd
       0.045217283 -0.0008516032 -0.03798641 -0.039783057
000250 ff 2e 46 3d 07 0c 1d bc c7 e1 31 bd 96 f7 97 3c
       0.048384663 -0.009585387 -0.04342821 0.018550675
000260 b6 38 5d bd 3e aa f0 bb 68 d8 0b 3d 62 25 76 bc
       -0.054009162 -0.007344513 0.034141928 -0.015023561
000270 3a c3 05 bc 51 66 13 bd aa 86 12 bd 55 aa b5 3b
       -0.008164221 -0.03598625 -0.035772957 0.005543987
000280 eb fa c9 3b 24 c8 d8 3c e7 6a 58 3d 4c 02 d2 bc
       0.006163945 0.026462622 0.052836325 -0.02563586
000290 76 d6 f5 3c b5 7e c6 bc c9 75 65 3c a8 77 02 bd
       0.03000949 -0.02423034 0.014005133 -0.031852394
0002a0 bd 5e 33 bc 76 0c 4b 3a ec 14 e8 bc 70 b6 c1 3c
       -0.01094788 0.0007745692 -0.028330289 0.023646563
0002b0 c5 9b 8e bc c9 74 22 bd d0 6f 32 bd 36 7f c1 bc
       -0.017408261 -0.039662156 -0.043563664 -0.02362023
0002c0 41 cd a5 3c 7e e5 1a 3c 43 28 98 bc 62 80 aa bc
       0.020239474 0.009454129 -0.018573886 -0.02081317
0002d0 af ad 22 bd a8 8b b9 bc 6c f3 69 3c 47 38 cc 3c
       -0.03971642 -0.022649601 0.014279228 0.024929179
0002e0 a7 22 a5 bc fb af 05 bd 8a de 0b bd 5b 89 19 3b
       -0.020158125 -0.03263853 -0.034147777 0.0023427818
0002f0 24 0e 4e 3c f2 92 be b6 57 65 3f 3c f1 a8 c6 bc
       0.012576614 -5.679548e-06 0.011681876 -0.02425048
000300 e1 d2 09 3c 1a 40 68 bc ee 00 be b6 1f 2c 19 3b
       0.008412094 -0.014175439 -5.6625495e-06 0.0023372245
000310 c9 80 f8 bc 2e f0 7e bc 9c 2a d1 3c 92 38 7b bc
       -0.030334847 -0.015560193 0.025533013 -0.015333312
000320 df ab f1 bb bb e4 f8 bc 76 bf 89 bc 60 7c 93 bb
       -0.007375225 -0.030382505 -0.016814929 -0.0045009106
000330 3f 20 9c 3c 25 c9 40 3c ca 19 45 39 1d 6b ad 3c
       0.019058345 0.011766707 0.00018796991 0.02116924
000340 98 ba 4d 3d 86 35 34 3b 59 ca 09 3c cd 82 83 3c
       0.050226778 0.0027497723 0.00841006 0.016053582
000350 fc b2 2d bd 18 29 ff 3c 00 49 f5 3c f8 3d 94 3c
       -0.04240702 0.031147525 0.029942036 0.018095955
000360 6c 32 a9 3c 89 f8 0b 3c a0 9b 80 bc 86 82 1e bd
       0.020653926 0.008543142 -0.015699208 -0.038698696
000370 47 8c 4f 3d b8 44 5f bc 42 a1 a8 bc ed a5 a1 bc
       0.05067089 -0.013627224 -0.020584706 -0.01973244
000380 35 67 de bb 15 74 14 bd 2c 32 08 3d 80 42 9f 3c
       -0.0067872056 -0.036243517 0.033250973 0.01944089
000390 e6 6d 27 3d 87 dc c2 bc aa 79 21 3d 95 f0 08 bd
       0.04087629 -0.023786796 0.03942267 -0.033432562
0003a0 1c e9 44 3d e1 cf 00 bd 0b 31 f2 bc 57 b9 36 bc
       0.048073873 -0.03144825 -0.029564401 -0.011152587
0003b0 b3 aa b3 bc 6e 30 b4 bc 38 d2 5c 3c 4d 3f 09 bd
       -0.021931982 -0.02199575 0.013477854 -0.033507634
0003c0 20 78 63 3b 52 1f 3d 3d e7 5b 61 3c 25 7c 8e 3c
       0.0034709051 0.046172448 0.013754821 0.017393181
0003d0 4a 94 a3 bc f2 05 17 3d bd df 6d 3c a1 b7 06 3d
       -0.01996817 0.036870904 0.014518675 0.032889966
0003e0 3e 93 36 bd 63 4f 97 3a b8 77 46 bd 52 04 c0 bb
       -0.044574015 0.0011544045 -0.048454016 -0.00585989
0003f0 9c f8 da 39 b3 1d f9 3a 60 ad 08 3d 9e 03 b4 3a
       0.0004176543 0.0019006043 0.03336847 0.0013733988

fc2.bias f4 [256]
000000 4f c8 7b bc 69 e7 a1 3c f1 39 32 3d f4 07 13 3a
       -0.0153675815 0.019763665 0.04351229 0.000560879
000010 12 92 0b bd 54 99 dc 3c bd 80 c5 39 6d 34 7b bb
       -0.03407485 0.026928581 0.00037670686 -0.0038330809
000020 ed af 1d bd 3b 5c f8 bc 66 75 8c bc fc 16 06 bd
       -0.038497854 -0.030317416 -0.017145824 -0.032736763
000030 fa fc 71 3b b4 91 08 bd aa 02 38 3c e5 10 35 bd
       0.0036924467 -0.03334208 0.011231104 -0.044205565
000040 c7 e8 ab 3b 89 d9 23 3c ac dc 0f 3b 70 f2 9e bc
       0.005246255 0.010000595 0.00219516 -0.019402713
000050 6d db c1 3b 59 d3 9a bb d3 2d 12 3c 25 2e b7 bc
       0.00591605 -0.0047249016 0.008922058 -0.02236087
000060 a3 64 e1 bc f7 13 59 bc 4d 06 e6 3c cd 20 46 bc
       -0.027513808 -0.013249389 0.028079176 -0.012092781
000070 d8 97 25 bd 6c ff 52 bc dc ce 36 bd be be 1d bd
       -0.040428013 -0.01287828 -0.04463087 -0.038511984
000080 b0 c9 2d 3d 65 c9 27 3d cf da 75 bc e5 a6 0f bc
       0.042428672 0.04096355 -0.015005781 -0.008767818
000090 c0 23 8d ba 73 6a a6 bc 5d 3e 10 bd db 2f b0 bc
       -0.0010768101 -0.02031443 -0.035215724 -0.021507194
0000a0 89 b5 0d 3d 92 ec fc bb bf a4 3d bd e9 c8 b3 bc
       0.034596954 -0.007718631 -0.046299692 -0.021946387
0000b0 45 91 00 3d c6 1c bb 3b d7 67 be 3c 24 ab 09 bc
       0.03138854 0.005710217 0.023242874 -0.0084026195
0000c0 f5 1a 16 3d 8c a4 42 bc 7e ae 2e bd cc 44 5e 3c
       0.036646802 -0.011880051 -0.042646877 0.013566207
0000d0 3e 37 36 3d 60 b9 03 3d f2 85 ce bc 1a d1 98 ba
       0.044486277 0.03215921 -0.025210354 -0.0011658997
0000e0 ba ef df 3b 29 95 47 bc 46 a6 d8 3c fa 06 44 ba
       0.0068339976 -0.012181559 0.026446473 -0.0007477846
0000f0 90 60 9a 3c 6b 1d 36 3d 8c 29 00 bd da a7 b7 bc
       0.018844873 0.04446165 -0.031289622 -0.022418905
000100 57 77 30 bd 98 79 06 bd 8d 9f b8 3c b0 de f1 bc
       -0.04308256 -0.032830805 0.022537017 -0.029525131
000110 bc d6 fb 3b 0f 68 8f bc 5f 66 10 bb 0d f0 96 3c
       0.0076855104 -0.017505674 -0.0022033674 0.018425012
000120 16 c5 22 bd 89 b2 13 bd c5 4a 19 bd c1 dd 1c bd
       -0.039738737 -0.036058936 -0.03742482 -0.03829742
000130 bb 70 96 3c c5 da 5c bc ae 6e 28 3d bd 88 be 3c
       0.018364301 -0.013479893 0.041121177 0.023258561
000140 0f 73 3f bd 75 df cf 3c b0 b1 52 3b c3 69 c0 bc
       -0.046740588 0.025375107 0.0032149367 -0.023487931
000150 8e e6 27 bc a9 3c 24 3d 64 14 9f ba da aa 10 3d
       -0.01024784 0.040096913 -0.0012136814 0.035319187
000160 19 49 d0 3c 95 5b 92 3b 73 6b 42 3d 60 e5 5e bb
       0.02542548 0.004466484 0.047465753 -0.003401123
000170 df 37 16 3d e9 0a 68 bc 7a 9c 36 3d 51 d1 ef 3c
       0.036674377 -0.014162757 0.04458282 0.029274615
000180 87 b3 26 3d 47 62 08 bd 11 e4 0b bc 9a d7 71 bc
       0.040698554 -0.03329685 -0.008538262 -0.014760876
000190 2a fc b8 bc 12 e1 18 bc 37 10 11 3d 4a 44 40 3d
       -0.022581179 -0.009331005 0.035415854 0.046940126
0001a0 e2 2a be 3c e7 fd ae bc f8 80 03 3b b4 0b 13 3d
       0.023213807 -0.021361304 0.0020065885 0.035899833
0001b0 e3 c8 19 bd 24 98 86 3c ab 68 69 bb ec 5e e0 ba
       -0.037545096 0.016429968 -0.0035615365 -0.0017118133
0001c0 ee af 26 bc e9 e7 fd bc ce 90 e4 3c 6b 0b a0 3c
       -0.010173781 -0.030994372 0.02790108 0.019536695
0001d0 12 be 2b bd 53 80 0c 3d 75 08 2b 3d 0d 1d 1a bd
       -0.041929312 0.034302067 0.041756112 -0.03762536
0001e0 dc ec 4b bc e7 00 35 bd ef 1f 99 3c cb cd 1f bd
       -0.012446608 -0.044190314 0.018691985 -0.03901462
0001f0 dc 19 2b bc a9 4d 23 bc 26 b9 f1 3c 0a 76 3b bd
       -0.010443177 -0.009967246 0.029507231 -0.045766868
000200 66 b2 42 bd 53 4d 86 bc 54 98 ee bc fb 3e de ba
       -0.047533415 -0.016394293 -0.02912537 -0.0016956026
000210 10 de 1f 3c 89 31 14 3d f1 52 5b bc ac 93 c3 bc
       0.009757534 0.036180053 -0.013386474 -0.023874126
000220 13 68 2e 3d 50 94 80 3c 95 aa a8 bb b6 e2 d5 bc
       0.04257972 0.01569572 -0.005147288 -0.02610908
000230 52 34 b8 bc 5d 98 d4 bc aa 6a 3c 3d 3b 3a 1f 3d
       -0.022485886 -0.025951559 0.04600016 0.038873892
000240 23 55 24 bd 24 bd ee 3c cd 26 ff 3c aa 2b bb 3c
       -0.040120255 0.029142924 0.031146431 0.02284797
000250 bf 68 a9 bc 00 a3 07 bc 18 36 bb bc f4 a3 30 bd
       -0.02067983 -0.008278608 -0.022852942 -0.043125108
000260 d3 1c 06 bd 6c da cc bb 96 a0 17 bc c0 30 be 3c
       -0.032742333 -0.006251624 -0.009254595 0.023216605
000270 27 88 14 bd 7b 43 6a 3c 4c 99 19 3d d0 53 28 bd
       -0.036262657 0.014298315 0.03749971 -0.041095555
000280 5c c1 b3 bc 05 31 bb bc d7 3a 88 3b 1a 08 07 bd
       -0.021942787 -0.022850523 0.004157405 -0.03296671
000290 10 bd 4a 3d 57 75 1b 3d 42 a9 f0 bc 77 f0 8d 3c
       0.04949671 0.0379537 -0.029377583 0.017326577
0002a0 10 64 15 3d 69 6e a6 bb 72 3c ec bc aa a9 85 bc
       0.03647238 -0.00507908 -0.028837416 -0.016316254
0002b0 e4 38 d2 3b f1 9d 85 bc f3 24 64 3c ee 9d b9 3c
       0.0064154733 -0.016310664 0.013924825 0.022658315
0002c0 55 6c c5 3c a2 8d 7f 3a 0c ac 70 ba 08 9f ce 3c
       0.024099508 0.0009748583 -0.00091809104 0.025222316
0002d0 ea da 40 3d e9 e8 f5 3b b8 dd 9f 3c f6 fa 0d bd
       0.047083773 0.0075045717 0.019514903 -0.034663163
0002e0 ff f3 10 3d 04 07 02 3d 80 33 8d bc 37 2c d5 3c
       0.035388943 0.031744972 -0.017236471 0.02602206
0002f0 54 9f 04 3d b3 11 3a bd e6 57 2a 3c 99 61 9f bc
       0.03237851 -0.045427036 0.010396933 -0.019455718
000300 37 bf 3d bc ff 9d 55 3c 4a 14 6d bc b2 47 68 3c
       -0.011581234 0.0130381575 -0.014470169 0.01417725
000310 6b 2d 70 3a a7 7e f0 bb e4 0f bb bb 2a 3d d1 bc
       0.0009162041 -0.007339317 -0.0057086814 -0.02554186
000320 ab df 0e bd 6b f4 b8 3c 9f ec 22 bd 03 26 21 3d
       -0.034881275 0.022577485 -0.03977644 0.03934289
000330 f7 ac f0 3b fb 2b de bc 9b 1e 8c bb 4e ea fc bc
       0.0073448378 -0.02712058 -0.0042761094 -0.030873444
000340 8a 56 df 3c 12 f0 1f bd 12 ba 15 3d 64 ae 2b bd
       0.027262945 -0.03904731 0.036554404 -0.04191436
000350 de 1b 29 3d 9e 07 0f 3d e9 e2 96 3c 7c 00 fa bc
       0.04128634 0.034919374 0.018418746 -0.03051781
000360 5b ce ef bc a6 90 f2 bc 8b 12 26 bd b8 02 39 3d
       -0.029273203 -0.02960999 -0.040545028 0.04516861
000370 9e 84 08 3d 39 3a 8d 3c 27 7e 0a 3d 41 2b 55 3c
       0.0333296 0.017239677 0.033811715 0.013010801
000380 6f fd 42 bd c6 dd 12 bd 40 97 08 bd 04 c1 2e 3d
       -0.047604974 -0.03585603 -0.03334737 0.042664543
000390 e8 3b be bc a3 06 a5 3c 2f 26 85 3c 31 a3 af 3c
       -0.023221925 0.020144766 0.016253559 0.02144012
0003a0 94 0d a6 3c 69 95 05 bd 73 f6 10 3c bd ec 37 bd
       0.020270146 -0.03261319 0.008847821 -0.044903506
0003b0 ee 28 20 bd a8 b1 18 bd 14 04 87 bc 1b e4 f2 3c
       -0.039101534 -0.0372788 -0.016481437 0.029649785
0003c0 09 8d 53 3c f8 be e7 3c 64 ac af ba 38 12 25 3c
       0.012912043 0.028289303 -0.0013402817 0.0100751445
0003d0 20 41 23 bd 18 68 0e 3c 9f 10 d5 3c ca 4a 2c bd
       -0.03985703 0.00869181 0.026008902 -0.042063512
0003e0 61 c6 ac 3c 2e ea e0 bc 87 58 73 3c c6 66 22 bd
       0.021090688 -0.027455416 0.0148526495 -0.039648794
0003f0 a6 c9 38 bd e6 70 15 3d f3 15 50 3c 15 3b 24 bc
       -0.045114182 0.03648462 0.012700546 -0.010023852

fc3.weight f4 [1, 256]
000000 96 3c 0b bb 76 5d 94 3b bb 26 16 3b 2d 86 8e 3b
       -0.0021245829 0.004527743 0.0022911269 0.004349491
000010 72 a7 0b bb ea 32 a8 3a 2c 9a 14 ba ad f4 99 3b
       -0.0021309522 0.0012832556 -0.00056687254 0.004698357
000020 e6 89 5b bb cf 65 00 3b e4 ff d6 3b 25 19 be 3b
       -0.0033498942 0.0019591933 0.0065612663 0.0058013373
000030 36 fa 80 3b cc 1c 22 bb 63 47 5a b8 76 09 2d 3b
       0.0039360775 -0.0024736403 -5.2041734e-05 0.0026403344
000040 2f 84 8b 3b e2 e9 a1 ba 6e 25 8c 3a b4 ce ca 3b
       0.004257701 -0.0012353028 0.0010692307 0.0061891917
000050 28 82 4a 3b e4 87 62 3b cc 18 b3 3a 70 dc 3f 3a
       0.0030900333 0.003456586 0.0013664006 0.00073189195
000060 05 8c 60 3b 99 f0 2a bb a3 5d 3f 39 ee ca a1 3a
       0.0034263146 -0.0026083349 0.00018250062 0.0012343803
000070 29 1e 04 39 e0 dc 51 3b 50 13 c8 3b c3 21 7b 3b
       0.00012599737 0.003202252 0.006105818 0.0038319684
000080 95 7e 6a 3b 16 c6 4e bb 49 ed 6d 3b bb 01 39 ba
       0.0035781015 -0.0031551174 0.0036304763 -0.0007057448
000090 6e d8 64 3b 27 11 9b 3b d9 76 96 3b 5d 86 7d 3b
       0.0034919041 0.0047322693 0.0045918045 0.0038684823
0000a0 d8 2e 18 3b d3 b6 2d 3b b2 c0 4c 3b 9d 6c e0 3a
       0.002322128 0.0026506677 0.0031242785 0.0017122213
0000b0 bd d3 0d 3b d1 fc 6f 3b 09 e0 3b ba ba a3 03 38
       0.0021641098 0.0036619196 -0.0007166868 3.1385316e-05
0000c0 9c 77 c9 3b f5 d8 9c 3b 7c f5 b5 3b e3 b2 46 3b
       0.0061482918 0.0047866055 0.0055529457 0.0030319027
0000d0 e9 cd 3a 3b a3 64 55 3b 5b c0 bb 3a 07 21 64 3b
       0.002850408 0.0032561205 0.0014324294 0.0034809725
0000e0 c6 d4 f2 3a 03 c7 35 ba 63 d4 db 3a 49 07 f0 3a
       0.0018526546 -0.0006934257 0.001677167 0.0018312718
0000f0 9f ee 15 3b 7c a3 3d bb fe 5d 19 3b ba 6c f3 ba
       0.0022877825 -0.0028936556 0.002340197 -0.0018571832
000100 16 c1 8a ba d7 94 0e 3b 55 e2 a1 bb 2b ce 0d 3b
       -0.0010586109 0.0021756196 -0.004940311 0.0021637778
000110 e4 87 c5 3b 42 78 b6 3a 7b c7 87 3b 90 89 70 bb
       0.0060281623 0.0013921338 0.004143653 -0.0036703087
000120 21 0f 08 3b 5a 87 65 37 32 39 5b 3b 0f a4 9e ba
       0.002076097 1.3680978e-05 0.003345084 -0.0012103337
000130 3c 43 7e 3b ab d4 fa 3b 26 33 c5 3b 7d 39 08 3b
       0.00387974 0.0076547465 0.0060180603 0.0020786219
000140 6b ad 4a bb f9 7e b9 3b cd d3 82 3b b9 8f 10 bb
       -0.003092612 0.0056608883 0.003992534 -0.0022058322
000150 08 28 97 3b 12 49 9f 3b 04 e9 a9 3b a9 66 8b 3b
       0.0046129264 0.0048610056 0.0051852483 0.0042541814
000160 67 7a 58 3b 91 b5 bf 3b 65 63 1b 3b c8 a1 3e 3b
       0.0033031942 0.005850502 0.0023710367 0.0029088128
000170 e8 9c cc 3a ce 75 59 3b f1 bf ba 3b 31 56 a4 3b
       0.0015610727 0.003318179 0.0056991507 0.0050151576
000180 5a 26 28 3b 32 25 16 3a 58 ff 37 39 d6 f8 44 ba
       0.0025657625 0.00057275884 0.00017547363 -0.0007513886
000190 43 6c 3b 3b 4a e5 32 b9 69 ba d2 3b 60 f5 82 3b
       0.0028598465 -0.0001706082 0.006430913 0.003996536
0001a0 b8 c3 5a 3b 3f 8f 60 3b 12 01 99 3b e0 b5 6c 3a
       0.0033380818 0.0034265069 0.004669317 0.0009029787
0001b0 83 e5 d1 ba 7e 3e 26 3b 67 dc 5e 3b 81 f6 3c 3b
       -0.0016013834 0.0025366838 0.0034005882 0.0028833451
0001c0 96 b9 69 3b a9 d7 91 3b b2 ce be 3a 9a 90 ad 3b
       0.0035663596 0.0044507575 0.001455745 0.005296779
0001d0 2c ab 1b 3b ac 94 05 bb e1 c0 a9 3b 69 3f a1 ba
       0.002375315 -0.0020382805 0.0051804637 -0.0012302223
0001e0 e6 83 c7 3b ed 9a 77 3a df b1 4c 3b a4 28 d8 3b
       0.0060887216 0.0009445388 0.003123395 0.0065966416
0001f0 a5 de 8c 3b 44 be c9 3a ea ce 3c bb 53 1d cf 3b
       0.0042990022 0.0015391787 -0.0028809854 0.0063206344
000200 74 f8 cf 39 56 c9 d0 39 c1 bd fd 3a 4d da 90 3b
       0.0003966723 0.00039822859 0.0019358919 0.0044205547
000210 f6 0a 18 bb a6 6c 44 3b 74 9e 6f 3b 1a 4a 86 3b
       -0.0023199893 0.0029971986 0.0036562951 0.004098189
000220 75 14 a7 3b 39 bd 79 3b 29 27 98 3a ec 3f 85 3b
       0.005098874 0.003810717 0.001160835 0.004066458
000230 5f 6f 2f 3b f8 f6 bd 3b 12 dc a6 ba f3 8d 89 3b
       0.0026769263 0.0057972632 -0.0012730381 0.00419783
000240 d1 32 66 3b a1 aa a1 39 1d 2d 4c 3b 73 94 7f 3b
       0.0035125504 0.0003083544 0.003115482 0.0038998395
000250 a3 63 8c 3b 30 6b 33 3b 11 c0 81 3b 3c 14 3f 3b
       0.0042843386 0.002737712 0.0039596637 0.0029156348
000260 f6 b3 d5 3a 42 98 fa 3a 2a 1b 1f 3b 74 f0 89 3a
       0.0016304243 0.0019118863 0.0024277666 0.0010523931
000270 6d d3 37 bb 88 79 ab 3b 3d c5 da 39 9b a3 e4 b9
       -0.0028049604 0.0052329935 0.00041727154 -0.00043609444
000280 48 df 48 ba d1 dd 1f 3b a4 0d e5 3b 9d 7e b2 ba
       -0.0007662666 0.0024393687 0.0069901515 -0.0013618056
000290 07 1b 99 3b 25 67 3a 3b 97 44 23 3b 0a 79 57 3b
       0.0046724114 0.0028442827 0.002491271 0.0032878541
0002a0 37 a0 6a 3b 08 ec b7 ba 7b 79 94 b9 71 4c 5b 3b
       0.0035801062 -0.0014032135 -0.0002831927 0.003346231
0002b0 e7 7d 37 3b 70 20 1e 3c 9e 43 a7 3b 3a 1e 83 3a
       0.0027998628 0.009651288 0.005104496 0.0010003515
0002c0 f9 ac 88 bb f3 ef 23 ba 74 dc 2b 3b fd 66 99 3b
       -0.0041710106 -0.0006253712 0.002622393 0.0046814666
0002d0 97 25 85 3b 3e a1 90 3b 27 0e d2 3a 76 55 b3 3b
       0.004063319 0.004413753 0.0016025946 0.005472834
0002e0 e6 ac 06 3a 5c 3e ba 3b 77 25 b7 3b 2b 04 62 3b
       0.0005137458 0.0056837033 0.005589183 0.0034487348
0002f0 0f 87 95 3b c5 21 c6 3b 69 45 71 3b 95 c1 19 3b
       0.0045632194 0.006046506 0.0036815053 0.002346133
000300 34 78 ac 3b 90 9c 96 3b 06 fb be 39 54 ef 88 3b
       0.0052633528 0.0045963004 0.0003642665 0.0041789208
000310 10 5a 94 3b 5a cd 9c ba c6 bf c6 3b 4f a2 9e ba
       0.004527338 -0.0011963055 0.0060653416 -0.0012102815
000320 b4 72 f4 3b 0e 81 e4 ba 11 a0 0f bb 40 fd f1 39
       0.0074599627 -0.0017433481 -0.0021915475 0.00046155788
000330 e7 08 b2 3b c2 45 fc 37 0d d5 8d bb 70 1d 80 3b
       0.00543319 3.0073224e-05 -0.004328376 0.003909759
000340 c8 ef db 39 15 47 83 3b ae 02 8d 3b f5 8a 0d b9
       0.00041949586 0.0040062764 0.004303298 -0.00013498573
000350 66 94 5a 3b 5d 48 e4 b9 df f8 b2 3b c9 fb 63 3b
       0.0033352613 -0.00043541464 0.0054617967 0.0034787527
000360 53 88 5f bb b5 9b 0b 3b ae 3f 30 3b 10 8e 51 ba
       -0.0034108355 0.0021302525 0.0026893425 -0.0007993886
000370 41 33 49 3b 96 45 a4 3b f9 fa a1 3b 31 13 89 3b
       0.0030700716 0.005013178 0.0049432484 0.004183196
000380 aa c2 1e 3b 8e 50 a4 3a 8d b1 86 bb e8 23 9f 3b
       0.0024224916 0.0012536214 -0.004110521 0.0048565753
000390 a3 af 0b 3b f2 c8 ad 3b a6 e7 13 bb 90 54 9c ba
       0.0021314404 0.0053034956 -0.0022568493 -0.0011927057
0003a0 e3 c2 6f 3b 75 7b 4f 3b 8f 7b 67 3b d4 dd 69 b9
       0.0036584667 0.003165928 0.003532145 -0.00022303249
0003b0 36 09 ef 3b a8 7c a9 b9 48 47 ea 3a 70 86 f1 ba
       0.007294799 -0.00032327068 0.0017874027 -0.0018426906
0003c0 8b 90 8e 3b 39 2d 12 3b cf 38 91 3b da 64 6b 3b
       0.004350727 0.0022304787 0.004431821 0.0035918267
0003d0 a7 9d ad 3b 8b b4 5b 3b 7b 9c 19 3b 63 51 c8 3b
       0.0052983346 0.003352436 0.0023439217 0.0061132177
0003e0 fc 39 58 3b 4d db 14 3b 3d 2f 8e 3b ca da 91 3b
       0.0032993546 0.0022713721 0.0043391273 0.0044511305
0003f0 17 e0 3e 3a fc 8e c6 3a e9 8f 69 ba 3f e3 81 3b
       0.0007281317 0.0015148814 -0.0008909689 0.0039638574

bn.weight f4 [400]
000000 f8 4c 57 3e a6 8e 6b 3f 9e 9c 94 3d b0 67 d1 3e
       0.21025455 0.9201454 0.07256435 0.4089942
000010 5a 7e cc 3c e4 46 60 3f 31 46 90 3d b2 e3 c2 3c
       0.024962593 0.8760817 0.07044638 0.023790214
000020 77 6f df 3e 55 dc fd 3e 12 2f 4e 3f ce 7b 5e 3f
       0.43639728 0.49582162 0.80540574 0.8690766
000030 0f d7 3f 3f 44 32 86 3e 5e 11 c1 3e 25 a8 c8 3e
       0.7493753 0.26210225 0.37708563 0.39190784
000040 f6 ef 13 3f 55 56 2f 3f 7d fc 6d 3f 99 65 ca 3e
       0.57788026 0.6849111 0.9296339 0.39530638
000050 ad fb 93 3e 1e f7 01 3e 56 a6 87 3e 87 79 ee 3e
       0.2890295 0.12691924 0.26494092 0.46577093
000060 1f f0 96 3e de 99 ea 3e 58 7c 48 3e 59 a2 c6 3e
       0.29480073 0.45820516 0.19578683 0.38795736
000070 fa 1b 7c 3b a4 6b d1 3e e4 c5 22 3f 7e cb 84 3e
       0.0038468824 0.40902436 0.6358321 0.25936502
000080 d8 70 ac 3e ef 20 6c 3f 11 80 be 3e 29 2b 51 3f
       0.33679843 0.9223775 0.37207082 0.8170648
000090 bc c8 11 3e 0f 45 4a 3f a9 f7 68 3f da ea 14 3f
       0.1423673 0.79011625 0.910029 0.58170855
0000a0 04 b0 6d 3f 33 cc ff 3e 6b 38 23 3f 5c 0b 56 3f
       0.92846704 0.4996048 0.6375796 0.83611083
0000b0 dc 41 de 3d 83 21 58 3f cd 3a 02 3e 44 6b e1 3d
       0.108524054 0.84426135 0.12717743 0.110067874
0000c0 bb 7c a1 3e e4 19 22 3f d8 bc 02 3f f2 41 02 3d
       0.31540474 0.63320756 0.510694 0.03180117
0000d0 a1 f6 2e 3f 68 e8 93 3d c6 53 30 3e ac e2 e1 3e
       0.68345076 0.07222062 0.17219457 0.4411825
0000e0 aa c2 13 3e 47 db d5 3e a2 a5 c3 3e 5f 80 2f 3f
       0.14429727 0.41768858 0.38212305 0.68555254
0000f0 69 0a d5 b9 70 03 8c 3e 61 78 54 3f 69 55 28 3d
       -0.00040634282 0.27346373 0.82996184 0.04109708
000100 cf a8 03 3f 62 9f a7 3c e2 a8 fe 3e 1c a5 da 3e
       0.51429456 0.020461742 0.49738222 0.42704093
000110 c0 7e 99 3e 2a 26 dd 3e 7d 5b be 3d b5 7e db 3e
       0.29979515 0.4319318 0.09294794 0.42870107
000120 a7 99 3d 3f 39 62 22 3e 46 3c a8 3e fa d2 34 3f
       0.7406258 0.15857781 0.32858485 0.70634425
000130 64 f3 ec 3e ca a5 0c 3f cf 6b 22 3d 87 c6 1e 3f
       0.46279442 0.54940474 0.039653596 0.6202168
000140 03 2b 5d 3f 2c db e9 3e 47 f4 bd 3d f7 e6 bf 3e
       0.86393756 0.45675027 0.09275108 0.374809
000150 cb 5e fa 3e d7 e1 45 3e 82 65 2e 3f 68 81 6c 3f
       0.48900446 0.19324432 0.6812364 0.9238496
000160 2d 6b 57 3e 4c fe 1e 3f 52 74 0e 3f 25 dd 2e 3e
       0.21036978 0.62106776 0.5564624 0.17076547
000170 91 78 bc 3e 61 ba ec 3e d3 75 68 3f 00 9b 24 3f
       0.36810735 0.46235946 0.90804785 0.6429901
000180 5e e1 31 3f 56 61 e5 3e 0a 40 a1 3e e7 4f af 3d
       0.6948451 0.44800824 0.3149417 0.08560162
000190 d4 84 3c 3f ae c6 58 3d 37 14 83 3e 46 32 34 3e
       0.7364018 0.05292385 0.2560136 0.17597303
0001a0 c9 d1 0c 3e f1 dd 44 3f e4 f8 a3 3e 2e 81 e6 3e
       0.13751902 0.76901156 0.32025826 0.4502043
0001b0 09 16 ff 3e 8e 06 f7 3e 5c f0 64 3f 3a a9 1e 3f
       0.498215 0.48247188 0.8942926 0.6197697
0001c0 2a 3f 0d 3e c3 2c e6 3e 93 4f 27 3d 06 f4 de 3e
       0.13793626 0.44956025 0.040847372 0.4354555
0001d0 0d 31 e1 3d d2 7c cf 3e 16 4a a7 3e 73 af 59 3f
       0.10995684 0.40524918 0.3267371 0.8503334
0001e0 6a de 85 3e cc 91 59 3f e5 91 30 3e 24 ad 83 3e
       0.2614625 0.84988093 0.17243154 0.25718033
0001f0 d0 f8 60 3e 9c 69 06 3f da 3d 91 3e 2c e8 1b 3e
       0.21969914 0.525049 0.28367501 0.15225285
000200 aa f3 53 3e 01 97 60 3f b7 38 13 3f bc 5b 63 3d
       0.20698419 0.87730414 0.57508415 0.055507407
000210 4a 29 02 3f d2 64 93 3e a5 1b 0f 3f de 8c 53 3f
       0.5084425 0.28787857 0.5590156 0.8263682
000220 0b c0 b3 3e cc aa 0f 3f a2 5c 2c 3f 62 86 cd 3e
       0.35107455 0.5611999 0.67328846 0.40141588
000230 e5 59 5a 3e 63 b3 44 3f a7 aa 04 3f 2d e5 0c 3f
       0.21323355 0.7683622 0.51822895 0.55037194
000240 81 ae 90 3e 1a 7b 08 3e dc 1e 39 3f 10 15 35 3f
       0.28258136 0.1332821 0.7231271 0.70735264
000250 a5 88 40 3f 52 a8 ef 3e 7b 1c 32 3e f5 db e4 3e
       0.75208503 0.46808106 0.17393677 0.44699064
000260 33 b8 5c 3f ec 97 46 3d 33 5e 12 3f 44 13 16 3f
       0.86218566 0.048484728 0.57174987 0.58623147
000270 07 a8 65 3f 74 ee 00 3f 58 b3 8c 3e 78 96 cb 3c
       0.89709514 0.5036385 0.27480578 0.024852023
000280 11 84 57 3f d7 e9 e7 3e 42 69 38 3f 7f 2f 6b 3f
       0.8418589 0.45295593 0.7203561 0.9186935
000290 2d 0d 72 3f 0c b0 42 3f 0b 72 6a 3e e9 22 4a 3f
       0.94551355 0.76049876 0.22895066 0.7895952
0002a0 28 3c a0 3e a0 03 fd 3d 54 e8 50 3f 62 57 47 3e
       0.31295896 0.12354207 0.81604505 0.19466928
0002b0 a4 26 63 3f 3a 94 62 3f 7f 3f 2d 3f 65 67 0f 3f
       0.88730836 0.88507426 0.6767501 0.5601714
0002c0 cd a1 e3 3d 50 e6 3e 3e ba 99 5e 3f bc 6a bc 3d
       0.111148454 0.18642545 0.8695332 0.092000455
0002d0 21 96 48 3f 34 06 1a 3f 9c 8f c3 3e b9 ce 6e 3f
       0.7835408 0.60165715 0.38195503 0.93284184
0002e0 2e 2b e2 3e 86 2d 3e 3f ea e4 5e 3f d1 53 43 3f
       0.44173568 0.74288213 0.87068045 0.7629977
0002f0 76 3b 69 3f 3f 57 1c 3c b6 e3 02 3f 7c 5d 13 3e
       0.91106355 0.009542285 0.5112871 0.1439113
000300 35 c5 fd 3c 23 86 4d 3f ba 25 ec 3a 93 e5 b7 3d
       0.030977825 0.802828 0.0018016614 0.08979335
000310 7a 9a dd 3e 71 2c fc 3e bd 48 ab 3e d8 a3 5d 3e
       0.4328192 0.49252656 0.33453932 0.21644533
000320 ae 28 04 3d 8c 8e 4c 3f 53 27 3c 3f 65 99 42 3f
       0.032265358 0.7990501 0.73497504 0.7601531
000330 7a 04 65 3f e9 65 0c 3e 96 97 0e 3f 22 b5 9b 3e
       0.89459956 0.1371075 0.5570005 0.3041163
000340 12 3e 1b 3f 29 3c f8 3e 25 e1 d4 3c 64 f9 52 3f
       0.60641587 0.484834 0.025986264 0.8241179
000350 b5 26 f4 3d 06 bf 1a 3f 66 28 f6 3e 90 3f 13 3f
       0.11921445 0.6044773 0.48077697 0.57518864
000360 ed a8 83 3e be 3c 35 3f 8b 09 05 3f 02 6d 82 3e
       0.25714818 0.7079581 0.51967686 0.2547379
000370 27 ba d4 3e f3 b7 4c 3f 55 f8 36 3e 6a aa fd 3e
       0.41548273 0.79968184 0.17868169 0.49544078
000380 6d 48 b7 3d fc 6c e2 3d 7c 7a 48 3f 2b 8e dd 3d
       0.08949361 0.11055943 0.78311896 0.10818132
000390 34 24 57 3f f6 68 88 3e 86 4a 09 3f 57 44 d7 3e
       0.84039617 0.2664258 0.5362934 0.42044327
0003a0 04 f8 e7 3e 63 45 17 3f 1b 66 f1 3e b1 65 08 3f
       0.45306408 0.5909025 0.47148213 0.5328017
0003b0 3d a7 fa 3e e2 2e 5c 3f dc 7b d7 3e e2 82 ce 3e
       0.48955718 0.8600904 0.42086685 0.4033423
0003c0 cb 65 d0 3d 80 63 d9 3e a0 ff 06 3f d5 d9 52 3f
       0.101756655 0.42458725 0.527338 0.82363635
0003d0 57 a8 79 3e ab dc 51 3f f9 cb 9b 3e 82 60 90 3e
       0.24380623 0.8197734 0.30429056 0.2819863
0003e0 d6 c2 bf 3e 28 af 6e 3c 10 85 f6 3e b3 c1 b9 3d
       0.37453336 0.014568128 0.48148394 0.09070148
0003f0 4a e1 21 3c 78 b4 52 3d b4 08 ca 3e b3 9d ad 3d
       0.009880373 0.05144164 0.39459765 0.08477344
