projects/tennis/checkpoint/E15/E15.03_critic0_15000.pt (torch_old, 502006 bytes, 9 tensors)

fcs1.weight f4 [400, 48]
-0.015012456 -0.020668276 0.013468953 0.0024806666 -0.038684648 -0.017683445 -0.03385192 -0.012066713
-0.008575153 0.0073284893 0.031380653 -0.016110286 0.030279791 -0.03358916 -0.0139380805 0.005556644
0.01959703 -0.02295831 -0.0010050712 0.0033574922 -0.004776813 -0.021291697 0.017562663 0.0016146756
-0.005785637 -0.019941693 -0.014884494 0.010273961 -0.017977476 -0.033031497 -0.013209242 0.02100053
0.012498767 -0.013113894 0.025926556 -0.0010951179 0.035783064 -0.022697758 0.022841297 0.0066206213
-0.03486292 -0.03548257 -0.03413931 -0.016294174 -0.04531303 -0.007457154 0.03293481 0.018432954
-2.9571122e-05 0.0045076297 -0.00072771765 -0.00025657652 -0.0150028635 0.004196397 0.023408927 -0.00027214352
0.007884355 0.002646347 -0.01782567 -0.0005979499 0.0046366565 0.0025166408 9.4675204e-05 -0.00019399592
0.0035226776 -0.0020686423 -0.008591075 -0.00044527583 -0.0076605696 0.0052965917 -0.0017917434 -0.000183319
0.007483362 -2.4432105e-05 0.00040324434 7.827793e-06 -0.0072582057 -0.010863559 -0.008973184 -0.0030661232
0.011343516 0.0018525848 0.0071837916 -0.0030079063 0.0021099932 -0.0015172154 -0.022424474 0.0052096304
0.026299568 -0.0018068498 -0.004184818 0.0012374395 -0.0073362067 -0.0078956345 0.004179089 0.0012909658
0.03900614 -0.022280797 0.008829871 -0.0049742484 -0.0051330165 -0.00012327543 0.006498453 -0.01955634
0.015452731 -0.009625148 -0.017585225 -0.014704346 -0.01902702 -0.023587367 -0.024537295 0.021060375
0.0069739083 -0.023745267 -0.003424945 0.011096602 -0.0060778596 0.016510548 -0.011087264 0.015147824
0.009879018 0.00999784 0.025367891 -0.0003027052 -0.031268667 -0.020458406 0.015555631 -0.00029227592
0.036595967 0.0011436731 0.0077959495 0.0018303406 -0.024018293 0.0033153056 -0.034360394 0.0021600586
0.031382713 -0.00036285698 0.025189292 0.0031678213 0.0027182389 -0.021293744 -0.02471336 0.003160729
-0.026928015 -0.0068775364 -0.024337027 -0.0068556024 -0.034098294 0.0030007728 0.039186884 0.01494586
-0.023608122 0.013616331 0.028023213 0.013138375 -0.034657225 -0.012410248 -0.0100202225 -0.016738039
0.020425064 -0.004924204 -0.04653087 -0.0047561806 -0.02289246 0.036195114 0.01953508 0.0034560424
0.018786065 0.017767789 0.027763184 -0.0041809753 0.033898294 0.0023916664 0.02788603 -0.012126732
-0.0023714544 -0.016932748 -0.020783104 -0.00563732 0.0121568935 -0.017282091 -0.0055175056 0.009801478
0.02743031 -0.026177764 -0.015038898 -8.084046e-05 0.033670682 -0.010576991 -0.009226841 0.00723076
-0.003814576 -0.014682171 0.0270063 -0.014218206 -0.008394665 0.007784757 0.023487316 -0.0067527876
0.007962649 -0.0042974795 -0.004638971 -0.013087856 -0.04311447 0.03018987 0.011725297 0.0032187814
-0.02361389 0.01201217 -0.017082518 -0.0056820544 -0.009311737 -0.028930776 0.03640377 0.018874273
-0.0035169404 0.00022925362 0.0240292 -0.019601613 0.0016992276 -0.0325513 -0.03844379 0.0020846028
-0.023005469 -0.010731006 -0.040035937 -0.011615002 0.0032818802 0.03138214 -0.019739954 -0.015880086
0.03837178 -0.0015721418 0.002547691 0.015507105 -0.029138459 -0.012289883 -3.3398217e-05 0.003468501
0.0038526396 -0.0013699926 0.007864075 -0.0077918787 0.003065209 -0.030501075 0.035961844 0.0047592362
-0.0006868915 0.0073118974 -0.009164216 0.005255018 0.021061713 -0.0038819571 0.027567593 -0.0038595651
00000000: cef6 75bc 8450 a9bc e2ac 5c3c ae92 223b
00000010: cb73 1ebd dfdc 90bc 50a8 0abd 76b3 45bc
00000020: cc7e 0cbc d323 f03b 0089 003d b8f9 83bc
00000030: 530d f83c c994 09bd 8c5c 64bc 8214 b63b
00000040: f389 a03c 1113 bcbc 98bc 83ba 5f09 5c3b
00000050: d086 9cbb ed6b aebc 93df 8f3c 86a3 d33a
00000060: 7195 bdbb c35c a3bc 18de 73bc 1e54 283c
00000070: 8045 93bc 094c 07bd 946b 58bc 4e09 ac3c
00000080: a1c7 4c3c a8db 56bc ee63 d43c 0f8a 8fba
00000090: 4391 123d a6f0 b9bc ac1d bb3c ccf1 d83b
000000a0: 6ccc 0ebd 2c56 11bd a9d5 0bbd 5c7b 85bc
000000b0: 289a 39bd 245b f4bb a7e6 063d b500 973c
000000c0: 800f f8b7 bdb4 933b 4ec4 3eba 1e85 86b9
000000d0: 92ce 75bc ee81 893b 14c4 bf3c 7cae 8eb9
000000e0: 622d 013c 566e 2d3b 2407 92bc bdbf 1cba
000000f0: 18ef 973b 3aee 243b 5d8c c638 626b 4bb9
00000100: b9dc 663b 0f92 07bb 95c1 0cbc e973 e9b9
00000110: 8405 fbbb 088f ad3b efd8 eaba 5239 40b9
00000120: fe36 f53b 8cf3 ccb7 8a6a d339 1d54 0337
00000130: 3ed6 edbb 12fd 31bc 4304 13bc 03f1 48bb
00000140: 28da 393c 6ed2 f23a 0366 eb3b 4b20 45bb
00000150: d047 0a3b 4ddd c6ba 88b3 b7bc 8cb5 aa3b
00000160: 3172 d73c d2d3 ecba cc20 89bb 9431 a23a
00000170: 9064 f0bb b15c 01bc bdf0 883b a035 a93a
00000180: e7c4 1f3d 3886 b6bc 2aab 103c 05ff a2bb
00000190: dd32 a8bb 7f43 01b9 faf0 d43b 9e34 a0bc
000001a0: 742d 7d3c ccb2 1dbc e40e 90bc 7fea 70bc
000001b0: 8ede 9bbc 4b3a c1bc 7002 c9bc cf86 ac3c
000001c0: 6285 e43b 6f85 c2bc 0b75 60bb 86ce 353c
000001d0: c828 c7bb 2141 873c 5ba7 35bc 942e 783c
000001e0: 9bdb 213c fbcd 233c 53d0 cf3c 67b4 9eb9
000001f0: 9313 00bd 6398 a7bc 0cdd 7e3c 9c3c 99b9
00000200: a7e5 153d 4de7 953a 2a75 ff3b 0ae8 ef3a
00000210: 03c2 c4bc 9945 593b 7cbd 0cbd c58f 0d3b
00000220: 298b 003d d73d beb9 c659 ce3c 399b 4f3b
00000230: 7b24 323b 3870 aebc ac73 cabc 3c24 4f3b
00000240: 2498 dcbc f55c e1bb 725e c7bc f6a4 e0bb
00000250: a7aa 0bbd 9da8 443b 6d82 203d 7bdf 743c
00000260: d265 c1bc 0817 5f3c f090 e53c 5742 573c
00000270: bcf4 0dbd 5a54 4bbc dc2b 24bc 361e 89bc
00000280: 7752 a73c 385b a1bb 2797 3ebd bcd9 9bbb
00000290: f888 bbbc 5441 143d 0808 a03c c57e 623b
000002a0: 3ce5 993c c18d 913c 9e6f e33c 9000 89bb
000002b0: f0d8 0a3d 81bd 1c3b 3e71 e43c 33af 46bc
000002c0: 676a 1bbb 8cb6 8abc 5441 aabc 45b9 b8bb
000002d0: b52d 473c 2c93 8dbc 31cc b4bb 6196 203c
000002e0: 88b5 e03c c072 d6bc b665 76bc e488 a9b8
000002f0: 45ea 093d 1e4b 2dbc 2d2c 17bc 03f0 ec3b
00000300: f7fd 79bb 7d8d 70bc 513c dd3c 7af3 68bc
00000310: c789 09bc 4617 ff3b 7968 c03c 7d46 ddbb
00000320: c575 023c dfd1 8cbb 8202 98bb 726e 56bc
00000330: cc98 30bd bf50 f73c 761b 403c 31f2 523b
00000340: eb71 c1bc b1ce 443c a3f0 8bbc 8730 babb
00000350: 4190 18bc 3c00 edbc 1f1c 153d 389e 9a3c
00000360: 787c 66bb cd63 7039 e3d8 c43c 9093 a0bc
00000370: 9eb8 de3a 8354 05bd 3c77 1dbd d59d 083b
00000380: f775 bcbc 1ad1 2fbc b9fc 23bd d94c 3ebc
00000390: d014 573b 8f8a 003d afb5 a1bc f416 82bc
000003a0: ba2b 1d3d 5310 ceba 2af7 263b 8311 7e3c
000003b0: c7b3 eebc 815b 49bc 1015 0cb8 ca4f 633b
000003c0: 917c 7c3b 5391 b3ba 52d8 003c 0453 ffbb
000003d0: ace1 483b 64dd f9bc ba4c 133d 5ef3 9b3b
000003e0: 8210 34ba a498 ef3b 8225 16bc 4932 ac3b
000003f0: 9d89 ac3c 6f68 7ebb 6fd5 e13c c2f0 7cbb

fcs1.bias f4 [400]
0.050230894 -0.012620511 -0.055144124 0.005056356 -0.004546956 0.024540557 0.021618536 0.05655298
-0.061865754 -0.00015824723 0.030736666 -0.032207686 4.185311e-05 -0.03215114 0.017478466 0.00038261368
-0.0039385404 0.034028783 0.0037878302 -0.0012540715 -0.026238061 -0.054507174 0.0013465013 -0.039835233
-0.060750745 -0.00059110095 -0.006879473 -0.0039183665 -7.5989985e-05 -0.001018641 -0.012240718 -0.028188353
-0.027798077 -0.010747406 0.009088451 -0.054593254 0.0006026459 0.013565831 0.008809066 -0.0074348086
0.030330263 -0.041889768 -0.008264043 0.030163571 0.007978404 0.0020671224 -0.012012109 0.040961955
0.01329334 -0.0052478425 0.005083715 -0.012841249 -0.0019484945 -0.049002565 -0.06508869 -0.00025108844
0.026557049 -1.4886949e-05 -0.015043628 0.05119348 0.05294484 -0.022083804 -0.018474089 -0.02099114
0.012545553 -0.020113392 0.038480338 -0.020044366 -0.016252592 -0.008828791 -0.015635265 0.041270886
-0.0099484855 -0.0011253618 0.03799162 -0.00049997383 -0.00061778893 0.030884698 -0.0036693967 0.04232127
0.02870069 -0.0010695382 0.034277346 0.013604015 0.018618757 0.03772936 0.0025994694 -0.056145336
0.0145879425 -0.021243708 0.040749636 -0.002767091 0.040900722 -0.00020540024 0.019512834 -1.478287e-06
0.009609368 -0.0065094293 -0.007695719 0.025930468 0.019331288 0.0017597773 0.00037634023 0.00028654956
-0.020888994 -0.0014029795 0.0022070557 -0.026057066 -0.01809252 -0.0709969 -0.041665196 -0.0011745754
-0.00061414525 0.0051223976 -0.009144529 -0.00046455866 -0.0030978345 -0.036074493 -0.015302465 0.010742003
0.021707883 -9.128948e-05 -4.276844e-05 0.043856367 0.032984477 0.0019272136 0.06290675 0.0018008341
-2.69996e-06 -0.005285731 0.06619843 0.0024205607 -0.01525638 -0.024217136 0.005802685 -0.042421207
0.005935018 0.00045635697 0.0072351005 -0.0017779315 0.009120843 -0.0041186 0.034080528 0.0006254379
0.050376337 0.05039765 0.01862043 0.043422047 -0.0057081487 0.00817357 -0.016705772 0.08119165
0.00035896135 -0.06803274 -0.019593755 -0.03961413 -0.003137185 0.00017859532 0.00084016705 -0.015197678
-0.018462969 0.010392062 0.0055073826 -0.018087905 -0.06458421 -0.0003210504 0.0016419659 0.022799531
-0.037797745 0.046895217 0.02256683 -0.033092618 -0.036934644 -0.0017566606 -0.0005402825 -0.06245055
-0.0004265888 -0.0019526029 0.0040806253 -0.0011622891 -0.026447862 0.0036157113 0.039165247 0.015157326
-0.06324714 -0.0009998545 0.036866553 0.0012241278 0.016794799 0.029255753 -9.248302e-05 9.8229175e-05
-0.01154902 0.0023884173 0.021002991 0.018832736 -0.00054472446 -0.034007438 -0.03344784 -0.056916066
-0.0067233155 -0.027478123 -0.0007198469 0.0016122261 -0.011641634 0.0032191807 -0.03610934 0.01596237
-0.0024382041 -0.018193318 -0.0026910177 -0.005815233 0.025032664 -0.006988153 0.045597862 -0.0001966
-0.0022792255 0.009734223 -0.01757127 -0.019970773 -0.026944635 0.04179331 -0.0019641535 -0.03105482
-0.041881926 -7.458898e-07 0.030723026 0.0054041673 -0.06445959 0.0034422053 -0.048896708 0.010242314
0.00017986223 -0.00384523 0.016419778 0.008127093 0.0009783034 0.027793163 -0.043207534 0.015809907
0.05191036 0.0051947087 -0.01780233 0.012457423 -0.018674597 0.0031140333 -0.0028769996 -0.02819298
0.00036456232 0.042349298 -0.050236113 0.0025344251 0.039969184 0.05362614 -0.04462154 -0.003035972
00000000: e9be 4d3d 43c6 4ebc cede 61bd caaf a53b
00000010: a2fe 94bb 4709 c93c 5b19 b13c 19a4 673d
00000020: f266 7dbd 2bef 25b9 76cb fb3c 35ec 03bd
00000030: 6f8b 2f38 eab0 03bd 002f 8f3c 8a99 c839
00000040: df0e 81bb c461 0b3d 3f3d 783b a85f a4ba
00000050: 34f1 d6bc ea42 5fbd 167d b03a 452a 23bd
00000060: c6d5 78bd 1df4 1aba 346d e1bb a465 80bb
00000070: d05c 9fb8 ec83 85ba 4b8d 48bc 43eb e6bc
00000080: cbb8 e3bc e315 30bc bae7 143c 2d9d 5fbd
00000090: e2fa 1d3a 3843 5e3c e753 103c b29f f3bb
000000a0: 2c77 f83c 9b94 2bbd e965 07bc 9819 f73c
000000b0: dab7 023c 8f78 073b 70ce 44bc b9c7 273d
000000c0: 4fcc 593c 18f6 abbb 4b95 a63b 1a64 52bc
000000d0: a064 ffba eab6 48bd 384d 85bd 85a4 83b9
000000e0: 2b8e d93c f6c2 79b7 8d79 76bc 41b0 513d
000000f0: b0dc 583d 18e9 b4bc f956 97bc 9cf5 abbc
00000100: dd8b 4d3c d7c4 a4bc 8f9d 1d3d 1534 a4bc
00000110: 2824 85bc a2a6 10bc 8715 80bc a90b 293d
00000120: f9fe 22bc e080 93ba 1a9d 1b3d ad10 03ba
00000130: 1df3 21ba e801 fd3c 437a 70bb 1159 2d3d
00000140: b61d eb3c bf2f 8cba 6766 0c3d 60e3 5e3c
00000150: 5d86 983c 1a8a 1a3d dc5b 2a3b a7f8 65bd
00000160: 4402 6f3c 4907 aebc 17e9 263d 1558 35bb
00000170: 8487 273d b560 57b9 61d9 9f3c 8e69 c6b5
00000180: 9c70 1d3c 0d4d d5bb 5f2c fcbb 226c d43c
00000190: a65c 9e3c 54a8 e63a 884f c539 083c 9639
000001a0: 651f abbc 2ee4 b7ba 40a4 103b a175 d5bc
000001b0: c436 94bc d366 91bd 20a9 2abd 36f4 99ba
000001c0: 97fe 20ba c9d9 a73b efd2 15bc 0290 f3b9
000001d0: 0a05 4bbb d9c2 13bd 31b7 7abc 3aff 2f3c
000001e0: bbd4 b13c ab72 bfb8 4362 33b8 bca2 333d
000001f0: bb1a 073d 8f9a fc3a 41d5 803d f709 ec3a
00000200: f630 35b6 ed33 adbb 0b93 873d 45a2 1e3b
00000210: e5f5 79bc 0463 c6bc 7324 be3b dcc1 2dbd
00000220: 8a7a c23b 3243 ef39 6c14 ed3b 7b09 e9ba
00000230: 976f 153c 52f5 86bb 0698 0b3d 6df4 233a
00000240: 6b57 4e3d c46d 4e3d df89 983c 51db 313d
00000250: 6c0b bbbb 70ea 053c 8bda 88bc cf47 a63d
00000260: fa32 bc39 c054 8bbd 1583 a0bc 6d42 22bd
00000270: 3b99 4dbb 5145 3b39 a83e 5c3a aeff 78bc
00000280: a73f 97bc 7843 2a3c 4677 b43b 162d 94bc
00000290: ba44 84bd a852 a8b9 3c37 d73a 15c6 ba3c
000002a0: cfd1 1abd 3315 403d 13de b83c 208c 07bd
000002b0: c848 17bd c03f e6ba bfa1 0dba 26cc 7fbd
000002c0: c8a7 dfb9 7bee ffba c4b6 853b f357 98ba
000002d0: 30a9 d8bc 92f5 6c3b bd6b 203d 6f56 783c
000002e0: b787 81bd 8d0d 83ba 6201 173d ea72 a03a
000002f0: 3f95 893c c3a9 ef3c 71f3 c1b8 6300 ce38
00000300: 1a38 3dbc fe86 1c3b 770e ac3c 1c47 9a3c
00000310: d7cb 0eba 624b 0bbd 9a00 09bd d220 69bd
00000320: 424f dcbb cd19 e1bc 1cb4 3cba 5551 d33a
00000330: 8dbc 3ebc e4f8 523b 63e7 13bd 84c3 823c
00000340: 47ca 1fbb 270a 95bc c95b 30bb b68d bebb
00000350: 4d11 cd3c e0fc e4bb d3c4 3a3d 6926 4eb9
00000360: 0f5f 15bb 4a7c 1f3c a0f1 8fbc bf99 a3bc
00000370: ffba dcbc 762f 2b3d 07b9 00bb ae66 febc
00000380: 628c 2bbd 2839 48b5 dbae fb3c 7115 b13b
00000390: 6403 84bd 9f96 613b ea47 48bd 61cf 273c
000003a0: 6699 3c39 4100 7cbb c582 863c 8027 053c
000003b0: 6a3a 803a 7dae e33c 62fa 30bd c783 813c
000003c0: f59f 543d 6038 aa3b 31d6 91bc 381a 4c3c
000003d0: 78fb 98bc cf14 4c3b 0b8c 3cbb f7f4 e6bc
000003e0: ba22 bf39 7576 2d3d 62c4 4dbd 9918 263b
000003f0: bab6 233d 15a7 5b3d 13c5 36bd 28f7 46bb

fc2.weight f4 [256, 404]
-0.02329597 -0.0006659793 -0.0035609591 -0.012402061 -0.02180582 -0.019323196 0.016766028 -0.011891787
0.014270376 0.00039730914 3.6644466e-05 0.022149896 -0.0001327245 0.006945423 -0.00026228797 -1.0873637e-05
0.032686427 -0.00850678 0.0007464207 -0.016619092 -0.005761163 -0.015818637 0.006352318 0.0027968606
-0.034977395 -0.0019072584 0.02624011 0.021423507 -0.010571232 -0.001138643 0.000555847 -0.010985209
-0.0001504125 0.0041957987 0.018498885 0.010983934 -0.029398758 -0.020398175 -0.009013657 0.0022437472
-0.023526466 -0.008823392 0.0021114447 0.0090223 0.032986775 0.017472126 0.0055094506 -0.015617641
0.015969748 -0.0023363766 -0.00620892 0.01020969 0.0031401955 -0.011484207 0.013556195 -0.0027176568
0.03628966 0.00018001864 -0.0057214517 -0.0002947758 -0.003139573 -0.022831392 -0.00029703684 -0.025964953
-0.014328034 -0.020179825 -0.006892554 0.032075826 0.0050760545 -0.00939093 0.023518257 0.014798915
-0.0005151639 1.8898683e-05 0.018252805 -0.014302359 -0.0013113111 0.03413139 -0.021688648 -0.0026543285
-0.0006199075 -0.024411768 -0.0006790766 -0.0139603345 0.00016424283 -0.021868745 -0.0020458177 0.019303469
0.015611515 -4.357914e-05 -0.016802859 -0.0134252375 -0.037730277 -0.0003964132 0.007397647 3.7898835e-06
-0.036795672 0.0046626693 0.012508881 -0.010532033 -0.010079082 0.0054271244 -0.007325697 -0.0045241457
0.00085971097 -0.0025225338 -0.0030378886 0.008495494 -7.342166e-05 0.0019286751 -0.016544651 -0.0017274999
-0.006781523 0.03200489 0.0010590064 -0.01651944 -0.013812216 0.010494489 0.0006486095 -0.008392828
0.001647608 0.0010420836 -9.056369e-05 -0.01776621 0.0037078995 -0.015385635 0.004282582 -0.000697587
-9.035171e-06 0.004269426 0.013411988 0.021313261 -0.003642696 -0.026828775 0.005348031 -0.0024895011
-0.008496509 5.449269e-05 -0.0027268548 -0.007468428 0.039758135 -0.02053726 -0.0062118433 -0.0050296104
-0.027908104 0.03208437 -0.000513438 0.013743088 -0.036359392 -0.0031985021 0.015110545 0.016665973
0.00023440814 -0.031759728 -0.009132347 0.021007678 -0.028295819 0.0009839071 0.0053664264 -0.0053606555
0.0210156 0.003784884 0.0043422133 -0.004599034 0.016884703 -0.013738257 -0.004669036 -0.0059697754
-0.009118565 0.0016082044 -0.018885134 -0.014007931 -0.020205095 0.014723286 -0.0050960933 -0.022785885
-0.028130027 -0.0034122607 0.0031628064 0.0067766276 -0.020499898 -0.02592683 -0.033202976 -0.024945352
0.036125563 0.0016642492 0.011509202 0.0020740416 -0.012164114 -0.02053884 -0.0041025 0.00020479006
0.0055649364 0.023725314 0.007021934 0.026246352 -0.0027742109 0.013011786 0.009018392 0.000380729
-0.0041986555 -0.004421482 -0.004114509 0.007679356 0.01312024 -0.01141696 -0.015874105 -0.016542988
0.021770729 0.026300803 -0.014795401 -0.008798913 0.0012826364 -0.025219956 0.015317974 0.000575981
-0.011714318 -0.003055848 -0.0069695218 0.020807672 0.0017013008 -0.023673682 0.002248092 -0.0005468201
-0.0032499598 3.0460706e-05 0.0014209399 -0.0038859956 -0.010163071 0.01384641 0.021080045 -8.168998e-05
-0.0008815774 -0.00052859774 0.005889067 -0.006591473 0.013734299 0.02737398 0.015938686 6.0271377e-05
0.041613296 0.028762825 -0.034873612 0.014963092 -0.00534033 -0.018172676 0.0020800075 -0.010999217
0.0009785207 -0.006728281 -0.028207466 0.0028578246 0.0015582296 -0.028315084 -0.0060981316 0.0056090695
00000000: 31d7 bebc 1d95 2eba fb5e 69bb 0432 4bbc
00000010: 1ea2 b2bc ae4b 9ebc e958 893c c5d5 42bc
00000020: 4cce 693c ee4d d039 b2b2 1938 b373 b53c
00000030: f62b 0bb9 6e96 e33b b283 89b9 ea6d 36b7
00000040: 34e2 053d 0560 0bbc 72ab 433a c324 88bc
00000050: 23c8 bcbb 1696 81bc 1b27 d03b 894b 373b
00000060: 7544 0fbd f9fc f9ba 80f5 d63c 5a80 af3c
00000070: f632 2dbc 853e 95ba 43b6 113a 4efb 33bc
00000080: 0cb8 1db9 e97c 893b f98a 973c f5f5 333c
00000090: aad5 f0bc 131a a7bc 05ae 13bc d50b 133b
000000a0: 93ba c0bc fd8f 10bc 2a60 0a3b 45d2 133c
000000b0: 241d 073d b421 8f3c 9f88 b43b 22e1 7fbc
000000c0: fdd2 823c e51d 19bb 3274 cbbb 8b46 273c
000000d0: bdcb 4d3b 4128 3cbc ce1a 5e3c b71a 32bb
000000e0: 77a4 143d 63c3 3c39 047b bbbb 238c 9ab9
000000f0: 4bc1 4dbb e608 bbbc 9cbb 9bb9 74b4 d4bc
00000100: 21c0 6abc 2950 a5bc efda e1bb f161 033d
00000110: 0855 a63b 6adc 19bc 5ca9 c03c 2677 723c
00000120: 100c 07ba 9d88 9e37 e886 953c 7154 6abc
00000130: 4de0 abba 5bcd 0b3d 64ac b1bc 3ef4 2dbb
00000140: 4a81 22ba 30fb c7bc 0f04 32ba e3b9 64bc
00000150: 9938 2c39 1526 b3bc 2013 06bb 4f22 9e3c
00000160: 71c7 7f3c bfc8 36b8 26a6 89bc 87f5 5bbc
00000170: 108b 1abd aed5 cfb9 f667 f23b b455 7e36
00000180: 0fb7 16bd 4ec9 983b 0df2 4c3c 8c8e 2cbc
00000190: bc22 25bc 05d6 b13b 670c f0bb 493f 94bb
000001a0: 3a5e 613a 1851 25bb 5017 47bb af30 0b3c
000001b0: f4f9 99b8 99cb fc3a a688 87bc 476d e2ba
000001c0: 8a37 debb 8f17 033d 5cce 8a3a c753 87bc
000001d0: a24c 62bc 14f1 2b3c 7207 2a3a 1282 09bc
000001e0: 8df4 d73a 8696 883a 03ed bdb8 718a 91bc
000001f0: 3b00 733b 0814 7cbc e754 8c3b 45de 36ba
00000200: c495 17b7 8be6 8b3b f4bd 5b3c 2699 ae3c
00000210: 4cba 6ebb 05c8 dbbc 893e af3b e626 23bb
00000220: f134 0bbc 158f 6438 08b5 32bb b7b9 f4bb
00000230: 6dd9 223d c23d a8bc b88c cbbb 6ecf a4bb
00000240: 899f e4bc e66a 033d 3e98 06ba b02a 613c
00000250: 96ed 14bd f69d 51bb 3892 773c 1487 883c
00000260: 75cb 7539 7d16 02bd d79f 15bc 4b18 ac3c
00000270: a2cc e7bc 72f6 803a d9d8 af3b 70a8 afbb
00000280: e828 ac3c d10b 783b 2049 8e3b 7eb3 96bb
00000290: ca51 8a3c 6d16 61bc b6fe 98bb 1b9e c3bb
000002a0: 0966 15bc 63ca d23a ffb4 9abc 8581 65bc
000002b0: 2885 a5bc f039 713c 21fd a6bb 77a9 babc
000002c0: f170 e6bc 3ca0 5fbb 1647 4f3b 790e de3b
000002d0: 67ef a7bc 8164 d4bc d8ff 07bd 325a ccbc
000002e0: 66f8 133d f022 da3a 1891 3c3c a5ec 073b
000002f0: fe4b 47bc 1241 a8bc 446e 86bb eabc 5639
00000300: 125a b63b 975b c23c 4018 e63b 9702 d73c
00000310: 89cf 35bb 632f 553c e1c1 133c 959c c739
00000320: e094 89bb 14e2 90bb 01d3 86bb 1ba3 fb3b
00000330: 46f6 563c 330e 3bbc 690a 82bc 2985 87bc
00000340: 8758 b23c c874 d73c 6968 72bc 5129 10bc
00000350: 231e a83a 159a cebc 3df8 7a3c 6efd 163a
00000360: 69ed 3fbc 9f44 48bb 9660 e4bb da74 aa3c
00000370: 2ffe de3a 4fef c1bc ba54 133b 7a58 0fba
00000380: 47fd 54bb de85 ff37 d53e ba3a 30ac 7ebb
00000390: 0283 26bc 0edc 623c 0fb0 ac3c f950 abb8
000003a0: a819 67ba 9891 0aba 13f9 c03b 48fd d7bb
000003b0: d305 613c 663f e03c d991 823c e6cb 7c38
000003c0: b472 2a3d 04a0 eb3c a2d7 0ebd c227 753c
000003d0: effd aebb ddde 94bc bc50 083b 0f36 34bc
000003e0: b541 803a e978 dcbb 5813 e7bc 574a 3b3b
000003f0: 823d cc3a 09f5 e7bc d6d2 c7bb 49cc b73b

fc2.bias f4 [256]
-0.030135887 0.020788472 -0.0173542 0.022107733 0.011926411 -0.012382683 -0.0050785723 -0.06826146
0.026582094 0.02623772 0.027506582 -0.016373686 -0.0103676515 -0.0026842505 0.0063419277 -0.03001156
-0.025159433 0.020997122 -0.0016629286 -0.0029365348 -0.008190017 0.009937994 0.009094807 0.023058495
-0.0016675799 -0.030737154 -0.0075604334 -0.008873754 0.0033198106 0.024942152 -0.0064141005 -0.0016841737
0.001857265 0.018317569 -0.01582616 0.028214503 -0.0016738776 0.022416672 0.024069846 0.003770925
0.0073124547 0.015057536 0.041656546 -0.04113626 -0.001374466 0.0003212155 -0.027685875 0.0020638122
0.0062433947 -0.0111944135 -0.022294503 0.002488512 0.037071627 0.02011735 0.02785983 -0.0031778768
0.0070509356 0.0021325313 -0.011547859 0.04041275 -0.037649028 -0.021669716 -0.015050167 -0.029414892
-0.013022325 0.022405112 0.01203053 -0.025871908 -0.017223924 -0.012190009 -0.012300805 0.016094537
0.0083588185 0.020668723 0.018452818 0.0033384806 -0.0045955656 0.003578943 0.031300414 0.013165609
0.03459326 0.0232805 0.018843736 0.02379628 -0.017497107 0.0063661705 0.018770965 -0.0004044081
-0.005289497 -0.036140174 -0.0001884539 0.0061020614 0.014525413 0.020290725 0.00035281712 -0.02657113
-0.003689129 0.0010887166 -0.0030839723 -0.004311882 -0.02488853 0.0057743723 -0.019230936 -0.014491421
-0.032457657 -0.0020605316 -0.0027143778 0.024600904 -0.005507317 -0.011469652 0.012928705 -0.005126121
-0.010244232 -0.007546569 0.008678469 0.036805596 0.013040348 0.029810062 0.027108002 -0.00035489947
-0.03876717 0.0023545627 -0.00018338907 0.022120295 -0.025213037 0.019118728 0.015561138 0.01091828
-0.008421918 -0.008391854 0.036736384 0.012092326 0.03651387 -0.0010908642 -0.0051296693 0.004272908
0.017145935 -0.0271195 -0.010571579 7.1590803e-06 -0.009080288 0.020138804 -0.008029631 0.018203339
-0.028702665 0.00031045228 -0.014329304 -0.0077512315 -0.0008523644 0.021821303 -0.013443556 0.012398337
-0.0024764426 0.016514247 -0.017738279 -0.011932584 -0.015785523 0.017302886 0.03947471 0.0067622196
0.010302069 0.024004314 -5.6176286e-05 -0.009718315 -0.0028606262 -0.00014750432 0.009201244 0.002088416
-0.020465283 0.0028079364 -0.02485036 0.0005820434 0.0030217778 0.024201775 0.0057733823 0.004744497
0.0043895734 0.032167263 -0.036008216 0.0016675708 0.013926699 -0.023242136 0.000103997445 -0.01960727
0.0014180859 0.0003240564 0.0062550646 -0.02884338 0.03728345 0.011887315 0.023330774 -0.018709324
0.015059269 -0.01490156 -0.01151752 -0.03341646 -0.0002695472 0.0011749867 0.008306353 -0.024344588
-0.019465849 0.01896792 -0.012350314 -0.029759383 -0.0022842293 -0.0018900692 0.006988129 -0.024877284
-0.0010601432 -0.0052267937 0.022212377 -0.035296496 0.0031637717 0.030364964 0.008980268 0.020796167
-0.010528347 0.02860784 0.0011029068 -0.04473819 0.004298375 -0.0029161032 0.008060137 -0.0021461174
-0.0025388275 -0.002704779 0.0023741738 -0.026408616 -0.03306029 -0.0073203593 0.030804252 0.0030599146
-0.0007622631 0.001706946 -0.004930145 0.0034056427 0.003692493 -0.026131043 0.003730701 0.0335641
0.029699335 -0.0042094965 -0.037150532 -0.024743792 0.019064687 -0.03713816 -0.002607167 0.030586757
-0.020394934 0.014601485 -0.0048443195 0.0192424 0.015795015 -0.015067365 0.021883609 0.009269149
00000000: 89df f6bc 964c aa3c 652a 8ebc 471b b53c
00000010: fe66 433c bde0 4abc 276a a6bb aacc 8bbd
00000020: b1c2 d93c 7df0 d63c 7c55 e13c 1c22 86bc
00000030: 15dd 29bc 40ea 2fbb f2cf cf3b ceda f5bc
00000040: 281b cebc 2802 ac3c a0f6 d9ba e172 40bb
00000050: 6c2f 06bc f8d2 223c 6302 153c 2be5 bc3c
00000060: b292 daba 7ccc fbbc 83bd f7bb 3963 11bc
00000070: 2e91 593b 7c53 cc3c 602d d2bb 7ebf dcba
00000080: 796f f33a ba0e 963c dda5 81bc 1a22 e73c
00000090: 0366 dbba 2ba3 b73c 202e c53c a021 773b
000000a0: 519d ef3b e2b3 763c 0ea0 2a3d 7f7e 28bd
000000b0: 6d27 b4ba d168 a839 7dcd e2bc 0641 073b
000000c0: 6495 cc3b c668 37bc f6a2 b6bc 4e16 233b
000000d0: 6bd8 173d 24cd a43c 4c3a e43c ed43 50bb
000000e0: 890b e73b f0c1 0b3b 3b33 3dbc d787 253d
000000f0: de35 1abd b084 b1bc fa94 76bc 80f7 f0bc
00000100: 975b 55bc ed8a b73c b31b 453c 53f1 d3bc
00000110: 3019 8dbc 9ab8 47bc 5189 49bc b1d8 833c
00000120: 6df3 083c 7451 a93c 5d2a 973c 69ca 5a3b
00000130: 6696 96bb b38c 6a3b dd34 003d 91b4 573c
00000140: aab1 0d3d bfb6 be3c 2e5e 9a3c 6bf0 c23c
00000150: 1856 8fbc 4f9b d03b 91c5 993c bd06 d4b9
00000160: 8453 adbb b807 14bd b59b 45b9 cdf3 c73b
00000170: fffb 6d3c bc38 a63c 50fa b839 b3ab d9bc
00000180: 50c5 71bb 44b3 8e3a 781c 4abb b04a 8dbb
00000190: 08e3 cbbc f236 bd3b 328a 9dbc 6d6d 6dbc
000001a0: 52f2 04bd fc09 07bb b4e3 31bb d687 c93c
000001b0: b976 b4bb 35eb 3bbc ebd2 533c 05f9 a7bb
000001c0: 6cd7 27bc 3649 f7bb 2330 0e3c 77c1 163d
000001d0: 2fa7 553c 3b34 f43c 9a11 de3c cd11 bab9
000001e0: 53ca 1ebd 024f 1a3b 214c 40b9 9f35 b53c
000001f0: 928b cebc e19e 9c3c 25f4 7e3c 96e2 323c
00000200: 16fc 09bc fd7d 09bc e478 163d e41e 463c
00000210: 918f 153d 54fb 8eba c916 a8bb c003 8c3b
00000220: a275 8c3c b729 debc 6b34 2dbc 0838 f036
00000230: 7dc5 14bc 22fa a43c b78e 03bc 2b1f 953c
00000240: da21 ebbc 33c4 a239 75c5 6abc 0bfe fdbb
00000250: 3571 5fba 97c2 b23c 5c42 5cbc 6522 4b3c
00000260: d04b 22bb e348 873c de4f 91bc e380 43bc
00000270: a450 81bc c8be 8d3c 3cb0 213d 9c95 dd3b
00000280: 02ca 283c b2a4 c43c d49e 6bb8 9139 1fbc
00000290: 5879 3bbb 64ab 1ab9 d1c0 163c cedd 083b
000002a0: cfa6 a7bc 5b05 383b fb92 cbbc 4594 183a
000002b0: 0509 463b cd42 c63c a42e bd3b ba77 9b3b
000002c0: 69d6 8f3b d2c1 033d 5a7d 13bd 6492 da3a
000002d0: cf2c 643c 4b66 bebc 3419 da38 6d9f a0bc
000002e0: 11df b93a 1de6 a939 49f7 cc3b f448 ecbc
000002f0: 88b6 183d 03c3 423c 2e20 bf3c 4c44 99bc
00000300: 27bb 763c ac25 74bc fbb3 3cbc b3df 08bd
00000310: 0352 8db9 0302 9a3a 5f17 083c 4d6e c7bc
00000320: d876 9fbc 9d62 9b3c f958 4abc f3c9 f3bc
00000330: 02b3 15bb 33bc f7ba adfc e43b 72cb cbbc
00000340: 81f4 8aba 8645 abbb bbf6 b53c 0f93 10bd
00000350: 4857 4f3b f2bf f83c f921 133c b95c aa3c
00000360: 177f 2cbc fd5a ea3c 698f 903a 643f 37bd
00000370: 62d9 8c3b 181c 3fbb aa0e 043c e0a5 0cbb
00000380: 7562 26bb a942 31bb 0798 1b3b e256 d8bc
00000390: 3a6a 07bd a0df efbb 3359 fc3c d988 483b
000003a0: 9cd2 47ba 9abb df3a 0e8d a1bb 3431 5f3b
000003b0: c1fd 713b c510 d6bc c77e 743b 827a 093d
000003c0: 054c f33c d1ef 89bb 282b 18bd 7eb3 cabc
000003d0: 8c2d 9c3c 2f1e 18bd 01dd 2abb 1491 fa3c
000003e0: 4713 a7bc 113b 6f3c 19bd 9ebb 3da2 9d3c
000003f0: 8c64 813c 1cdd 76bc 4145 b33c a1dd 173c

fc3.weight f4 [1, 256]
0.015779605 -0.016735116 -0.007771434 0.010623882 0.009618676 0.0050428305 -0.0061918953 0.034635246
0.010888274 0.016114308 0.015050577 0.006663835 0.008763787 -0.0008261106 -0.00660201 -0.01088726
0.016341202 0.013778563 0.0035604276 0.009256635 0.0049426523 0.005638847 0.0047622668 -0.007227219
-0.006654826 0.009271434 -0.009574512 0.005425676 0.00010440476 0.025941845 -0.0036203542 0.003989396
-0.0010594056 -0.01098149 0.013175281 0.018775837 -0.0066644875 0.0045431396 0.016040888 0.014550494
0.007999221 0.006169495 -0.011811156 0.017667066 0.0105124395 0.0016048372 0.00970062 0.0010574547
-0.01036227 0.013964937 -0.015497812 0.0041195475 -0.018086212 -0.008652373 0.016025858 0.017432196
-0.011822218 0.0065973657 -0.01536087 0.018006139 0.015091398 0.008552959 -0.008172536 0.0074021374
0.0036626677 -0.004849984 0.019027395 0.011610837 -0.011598194 0.005127406 0.0068749986 0.0019673386
0.0020554797 0.008036127 0.005323621 -0.00020001669 0.008852811 -0.015456764 0.0141624035 0.008877013
-0.016791241 0.010853528 -0.0065315515 0.010344697 -0.0033971826 -0.0057107606 0.0047542104 -0.00014684754
0.00989132 0.015745496 -0.00024858007 -0.013809315 0.0037483342 -0.015930261 -0.0003995307 0.011362537
-0.011428806 -0.0060640294 0.0123408 0.01121618 0.014798084 0.007149626 0.014239251 0.005503314
0.01098376 -0.0065197116 0.017255459 -0.014114223 0.009702509 0.011921161 0.0048108175 0.010553656
0.010528317 -0.012978483 -0.007071735 -0.013327905 -0.011070224 0.018649112 0.009799478 0.0003280816
0.017182704 0.0062942174 0.00037086994 0.009495741 -0.012007789 0.013125219 -0.013438275 -0.020857515
0.005218301 -0.004632565 0.01180869 -0.0073855245 0.008985151 -0.017649245 -0.0026546728 0.010744096
-0.008150895 -0.022336707 0.0022069723 0.006182628 -0.017332623 -0.0090956725 -0.0029579583 0.0052974904
-0.011843994 0.0023011393 -0.009735739 -0.0022335518 0.003114441 0.008112715 -0.0035985536 0.0018115098
0.012068018 -0.011080436 0.0057747425 0.006452162 0.004547644 -0.011288203 -0.0072924537 0.0023311637
0.008580429 -0.005652827 0.0002664342 0.0052353726 0.0047695492 -0.010020561 0.012053876 0.005098015
0.024112076 -0.0055168644 0.016906695 -0.006579456 -0.013539662 -0.007815527 -0.020628426 0.010843065
-0.0030830533 -0.011170849 0.027559912 0.00320781 -0.009974765 0.017368501 -0.013220052 0.010924588
0.004460246 0.0026619064 0.004600041 0.005204201 -0.01745902 0.0037660028 -0.0075461357 0.012275828
-0.008196375 -0.007188104 0.014981781 0.01663658 -0.0071737915 0.007364063 -0.0127270315 0.004973982
-0.013867098 0.0036190334 0.0045690103 0.009420567 -0.009700508 0.009046272 0.0039442647 0.011247265
-0.00022969555 -0.0014203375 -0.0045568105 0.01890487 -0.012152504 -0.010074268 -0.0053623547 -0.0079413075
0.0040226704 -0.0057823923 -0.002798342 -0.029930627 0.014755235 -0.017565053 -0.0140912365 -0.033165976
-0.0069164764 0.010705498 -0.014699466 -0.008147399 -0.013173503 0.010279526 -0.006675387 0.00052406423
0.011833345 -0.016670946 -0.018512065 0.008004975 0.006596148 0.020556185 0.010232523 -0.010471658
0.016321454 0.0054946044 0.020272575 0.013190759 0.017464988 0.018787134 -0.004872735 -0.011601063
-0.009574334 -0.008365818 0.01197598 -0.01299589 -0.009145275 0.0053623244 0.0079144705 0.008788426
00000000: 3b44 813c 1518 89bc 83a7 febb ca0f 2e3c
00000010: a797 1d3c 543e a53b 62e5 cabb b0dd 0d3d
00000020: bb64 323c 2702 843c b296 763c 4d5c da3b
00000030: fd95 0f3c 588f 58ba ad55 d8bb 7a60 32bc
00000040: fcdd 853c 7bbf 613c 1056 693b 24a9 173c
00000050: f9f5 a13b 14c6 b83b ca0c 9c3b 4fd2 ecbb
00000060: ba10 dabb 36e7 173c 6ade 1cbc dec9 b13b
00000070: e1f3 da38 fe83 d43c 7743 6dbb 7bb9 823b
00000080: c1db 8aba b5eb 33bc 22dd 573c c9cf 993c
00000090: c661 dabb 9ede 943b 2e68 833c 3265 6e3c
000000a0: 2a0f 033c 7a29 ca3b 9483 41bc 86ba 903c
000000b0: 5e3c 2c3c 6759 d23a 59ef 1e3c 4b9a 8a3a
000000c0: 83c6 29bc 31cd 643c 89ea 7dbc 45fd 863b
000000d0: 8929 94bc afc2 0dbc a948 833c f7cd 8e3c
000000e0: fab1 41bc b72e d83b 29ac 7bbc 9c81 933c
000000f0: e941 773c b621 0c3c 1ae6 05bc a18d f23b
00000100: 5e09 703b 9dec 9ebb 57df 9b3c 613b 3e3c
00000110: 5a06 3ebc cd03 a83b ab47 e13b 77ee 003b
00000120: 3ab5 063b f6a9 033c c571 ae3b 92bb 51b9
00000130: 610b 113c 5e3e 7dbc 6d09 683c e470 113c
00000140: c98d 89bc ffd2 313c a006 d6bb ce7c 293c
00000150: 44a3 5ebb 5521 bbbb 35c9 9b3b 16fb 19b9
00000160: 340f 223c b3fc 803c da53 82b9 7740 62bc
00000170: 9da6 753b 2e80 82bc 1a78 d1b9 ef29 3a3c
00000180: e33f 3bbc c4b4 c6bb 1131 4a3c 12c4 373c
00000190: aa73 723c 6947 ea3b bf4b 693c 2555 b43b
000001a0: 3af5 333c 4ea3 d5bb 525b 8d3c 583f 67bc
000001b0: 46f7 1e3c f950 433c 10a4 9d3b 3ee9 2c3c
000001c0: f67e 2c3c b4a3 54bc 03ba e7bb 495d 5abc
000001d0: e35f 35bc 06c6 983c fd8d 203c 5e02 ac39
000001e0: bec2 8c3c b93f ce3b 5271 c239 0694 1b3c
000001f0: 51bc 44bc 290b 573c 362c 5cbc 61dd aabc
00000200: 48fe aa3b c6cc 97bb 3c79 413c 4502 f2bb
00000210: 7436 133c 2695 90bc 05fa 2dbb 0108 303c
00000220: 558b 05bc 78fb b6bc daa2 103b a597 ca3b
00000230: 25fd 8dbc 0406 15bc 4eda 41bb 9296 ad3b
00000240: 500d 42bc b6ce 163b a682 1fbc c860 12bb
00000250: a61b 4c3b 31eb 043c b6d5 6bbb 2f70 ed3a
00000260: f0b8 453c b88a 35bc 0d3a bd3b a86c d33b
00000270: 6704 953b 28f2 38bc 89f5 eebb 70c6 183b
00000280: ed94 0c3c 5a3b b9bb 31b0 8b39 7d8d ab3b
00000290: e149 9c3b 472d 24bc 9f7d 453c 400d a73b
000002a0: b086 c53c d0c6 b4bb e97f 8a3c 7a98 d7bb
000002b0: 75d5 5dbc b20c 00bc f2fc a8bc 1ca7 313c
000002c0: 0d0d 4abb f005 37bc 53c5 e13c 1f3a 523b
000002d0: 326d 23bc 6348 8e3c eb98 58bc 0bfd 323c
000002e0: 4127 923b 6173 2e3b f1bb 963b 0188 aa3b
000002f0: 3806 8fbc 0bcf 763b 9345 f7bb 8e20 493c
00000300: 174a 06bc 308a ebbb 2576 753c 7049 883c
00000310: 2012 ebbb 3d4e f13b 0a85 50bc c9fc a23b
00000320: d332 63bc 4e2d 6d3b a3b7 953b b958 1a3c
00000330: e1ee 1ebc d136 143c e43e 813b 7346 383c
00000340: 6eda 70b9 9e2a baba 4c51 95bb 63de 9a3c
00000350: 4c1b 47bc 8b0e 25bc b1b6 afbb 421c 02bc
00000360: 9bd0 833b 397a bdbb 6364 37bb 1331 f5bc
00000370: f1bf 713c 96e4 8fbc eede 66bc 0cd9 07bd
00000380: 9ca3 e2bb 1d66 2f3c 07d6 70bc ab7c 05bc
00000390: add5 57bc 756b 283c 34bd dabb 5b61 093a
000003a0: a5e0 413c 8291 88bc 9da6 97bc 4c27 033c
000003b0: 8024 d83b 7265 a83c 50a6 273c 5191 2bbc
000003c0: 92b4 853c 150c b43b ac12 a63c 0e1e 583c
000003d0: bc12 8f3c 7ae7 993c 77ab 9fbb 6312 3ebc
000003e0: abdd 1cbc c910 09bc e736 443c b7ec 54bc
000003f0: 10d6 15bc 70b6 af3b b2ab 013c 55fd 0f3c

bn.weight f4 [400]
0.8461344 0.3991138 0.48407292 0.6348875 0.7005875 0.3751036 0.37047312 0.29130372
0.4133746 0.0087016765 0.0023295812 0.34565014 0.0038717461 0.6721764 0.031776104 0.007292287
0.6122474 0.54810107 0.23544313 0.5020521 0.15461318 0.82792133 0.08844715 0.28907737
0.5485464 0.14607288 0.81534404 0.6516687 0.09989156 0.05499705 0.4329008 0.25791207
0.08298401 0.08601788 0.33923075 0.48843554 0.7652703 0.5298156 0.18921344 0.48715055
0.7168224 0.66832876 0.835509 0.6840063 0.7681105 0.65164876 0.3212629 0.6732882
0.6718924 0.17638461 0.19556165 0.8310628 0.032086696 0.71890104 0.26752847 0.6133106
0.667965 0.010441452 0.24823713 0.642678 0.2298335 0.73009264 0.0630612 0.69231325
0.7559542 0.7013995 0.55174714 0.38919604 0.09533817 0.24591155 0.53037786 0.5670158
0.8499366 0.05386098 0.5361066 0.513336 0.06296332 0.46513405 0.21134338 0.21946873
0.39448962 0.44871 0.115955785 0.33426034 0.050892703 0.83031327 0.44813335 0.779597
0.39056048 0.0025470708 0.33307934 0.5616684 0.7525689 0.024570258 0.13950337 0.001991042
0.81636846 0.064225554 0.8485757 0.7892183 0.4214096 0.37650543 0.12099756 0.08843396
0.032982443 0.08162834 0.25610015 0.3083818 0.0031574613 0.5669488 0.7249045 0.022387339
0.27996483 0.81721413 0.019949237 0.49893263 0.34785253 0.71581924 0.17599216 0.15359886
0.095549375 0.21385679 0.0030357074 0.66182137 0.1512576 0.25270328 0.7390895 0.28541574
0.00047956538 0.41726342 0.60296595 0.56696373 0.083052844 0.5772605 0.83331794 0.16232027
0.06666612 0.018247634 0.4112738 0.7688325 0.8570217 0.46641245 0.058522083 0.13324054
0.52419585 0.6636453 0.18727748 0.6488787 0.5082196 0.17947705 0.09070091 0.5011687
0.031376462 0.83772177 0.4302326 0.5171213 0.62826467 0.078266144 0.05174881 0.3318283
0.61196613 0.16314153 0.20499513 0.39352643 0.71078396 0.1828837 0.7908305 0.43448314
0.40883875 0.31118587 0.4632078 0.46509686 0.5436694 0.76903105 0.06740763 0.7549228
0.40428078 0.14346024 0.052038178 0.2675944 0.5716053 0.4337566 0.44301233 0.5961834
0.65463203 0.044720188 0.4034604 0.22301361 0.36160365 0.49192777 0.057655104 0.0011737641
0.17240314 0.7287348 0.7024923 0.6521654 0.050504155 0.42760006 0.47804973 0.8801803
0.5533277 0.7382786 0.11945481 0.24677771 0.83804494 0.33385202 0.59012675 0.27692708
0.4379698 0.39528593 0.41662925 0.32846898 0.16399139 0.4362662 0.8596056 0.00570009
0.18394741 0.7116909 0.3496273 0.37503117 0.03966824 0.38098663 0.17727606 0.40917575
0.38766593 0.0009416499 0.24830472 0.56916666 0.8152174 0.15047516 0.7913291 0.009922595
0.023729458 0.17411804 0.1430239 0.20145841 0.3092524 0.5775792 0.50802094 0.00510037
0.46678594 0.87633157 0.7017296 0.075467326 0.5446468 0.32011348 0.24054523 0.14750403
0.82203066 0.47159696 0.4606743 0.063336484 0.8609061 0.53806657 0.5989294 0.06666386
00000000: 449c 583f a558 cc3e 68d8 f73e fd87 223f
00000010: b459 333f 940d c03e a7ae bd3e c325 953e
00000020: d6a5 d33e 7a91 0e3c e3ab 183b 0ef9 b03e
00000030: 1fbd 7d3b c113 2c3f a927 023d 23f4 ee3b
00000040: 3fbc 1c3f 5a50 0c3f 0118 713e 7d86 003f
00000050: eb52 1e3e a7f2 533f c823 b53d f301 943e
00000060: 896d 0c3f 2194 153e 63ba 503f c3d3 263f
00000070: f293 cc3d 9644 613d 2ca5 dd3e 0d0d 843e
00000080: 85f3 a93d 242a b03d a7af ad3e 3914 fa3e
00000090: c1e8 433f ffa1 073f 2bc1 413e cc6b f93e
000000a0: ac81 373f 9817 2b3f ebe3 553f 091b 2f3f
000000b0: e4a2 443f 74d2 263f 927c a43e 9e5c 2c3f
000000c0: 2401 2c3f 2b9e 343e 5041 483e 88c0 543f
000000d0: 576d 033d e609 383f 7ef9 883e ec01 1d3f
000000e0: c1ff 2a3f a012 2b3c e031 7e3e 8c86 243f
000000f0: 7959 6b3e 5ae7 3a3f 3b26 813d 713b 313f
00000100: 3786 413f eb8e 333f 4d3f 0d3f b444 c73e
00000110: a940 c33d 3dd0 7b3e d8c6 073f f327 113f
00000120: 7295 593f 559d 5c3d 483e 093f fd69 033f
00000130: eaf2 803d 0d26 ee3e 666a 583e 69bc 603e
00000140: 8bfa c93e 51bd e53e 3a7a ed3d 2c24 ab3e
00000150: de74 503d 698f 543f bc71 e53e ab93 473f
00000160: 8bf7 c73e c2ec 263b 6089 aa3e 80c9 0f3f
00000170: 5ba8 403f 9147 c93c f9d9 0e3e 247c 023b
00000180: 86fd 503f b088 833d 423c 593f 360a 4a3f
00000190: 00c3 d73e 52c5 c03e 92cd f73d dd1c b53d
000001a0: 9918 073d c22c a73d 8f1f 833e 38e4 9d3e
000001b0: 69ed 4e3b 8e23 113f 5793 393f a765 b73c
000001c0: 8d57 8f3e f234 513f 956c a33c 1974 ff3e
000001d0: ba19 b23e ee3f 373f 4a37 343e 0549 1d3e
000001e0: 64af c33d 46fd 5a3e b8f2 463b 206d 293f
000001f0: 46e3 1a3e 5362 813e f834 3d3f 0322 923e
00000200: 2d6e fb39 8da3 d53e fa5b 1a3f 8924 113f
00000210: 9c17 aa3d 58c7 133f 5354 553f 4937 263e
00000220: 3f88 883d 107c 953c 7b92 d23e 35d2 443f
00000230: c665 5b3f 9dcd ee3e dab4 6f3d 3570 083e
00000240: b331 063f a9e4 293f abc5 3f3e ea1c 263f
00000250: ae1a 023f d5c8 373e 66c1 b93d 984c 003f
00000260: 9b84 003d ef74 563f 7347 dc3e 1062 043f
00000270: f4d5 203f 004a a03d 8ff6 533d 66e5 a93e
00000280: d0a9 1c3f 930e 273e 3eea 513e 4c7c c93e
00000290: f0f5 353f dd45 3b3e de73 4a3f 9374 de3e
000002a0: 5053 d13e c153 9f3e 9329 ed3e 2d21 ee3e
000002b0: eb2d 0b3f 38df 443f 030d 8a3d 9f42 413f
000002c0: e4fd ce3e 3ee7 123e fc25 553d 2202 893e
000002d0: ba54 123f 5815 de3e 83d2 e23e 7a9f 183f
000002e0: f795 273f 842c 373d 5d92 ce3e ae5d 643e
000002f0: 1d24 b93e f5dd fb3e c227 6c3d fdd8 993a
00000300: 738a 303e 5d8e 3a3f 89d6 333f 50f4 263f
00000310: 72dd 4e3d 65ee da3e efc2 f43e 7f53 613f
00000320: e2a6 0d3f d4ff 3c3f b9a4 f43d 4cb3 7c3e
00000330: 1d8a 563f a7ee aa3e 8c12 173f 63c9 8d3e
00000340: 943d e03e eb62 ca3e 6e50 d53e 162d a83e
00000350: 5ced 273e 495e df3e 1d0f 5c3f d2c7 ba3b
00000360: b65c 3c3e 6031 363f 5902 b33e 1604 c03e
00000370: 2a7b 223d ae10 c33e db87 353e 7c7f d13e
00000380: 267c c63e 0ed9 763a 9843 7e3e e8b4 113f
00000390: 16b2 503f 2916 1a3e 8b94 4a3f 6192 223c
000003a0: 4864 c23c 004c 323e db74 123e 1d4b 4e3e
000003b0: 5556 9e3e 3bdc 133f a90d 023f 0121 a73b
000003c0: 91fe ee3e 4457 603f 8da4 333f 9d8e 9a3d
000003d0: f96d 0b3f eae5 a33e 7d51 763e 4c0b 173e
000003e0: 9a70 523f 2875 f13e 80dd eb3e 8fb6 813d
000003f0: 5864 5c3f bbbe 093f 7053 193f 1087 883d

bn.bias f4 [400]
-0.0021861987 -0.0020615254 -0.0014446123 -0.001859128 0.01348455 -0.0048732674 0.0019167995 0.002448377
-0.002316215 -0.002606102 0.00020076794 0.0004736175 0.0024740563 0.0039358195 -0.00058866997 0.0018470169
0.004196762 -0.0043879524 -0.0017547063 0.0037858763 0.011299765 -0.004765694 -0.003956007 0.0021377914
0.0031616199 -0.008041887 0.0044888626 0.009821972 -0.0107691195 -0.0014611583 0.008192097 0.001965261
0.009315276 0.0011097604 -0.002575056 0.004871997 0.005541244 -0.0030335162 -0.0069002598 -0.0019501558
0.0039377455 -0.004251155 0.004247761 0.0068736924 -0.0033705838 0.0034917318 0.0019438217 -0.010788915
0.003439606 0.0017461459 0.00061290694 0.00661958 0.0011573847 -0.00041716517 -0.0024474058 0.004970924
-0.003803211 0.001697256 -0.0034734914 -0.0073312903 -0.003948651 0.008099106 -0.0049200202 0.0024379343
0.007102569 0.0061256383 0.00028141827 0.0077578668 0.00020529827 -0.009674369 6.953652e-05 0.00040301628
0.009730268 -0.00380383 -0.0036093812 -0.0044551156 0.0022428746 -0.003008644 -0.004402025 0.0049389177
-0.010778488 0.003242513 1.153164e-05 0.0012217737 -0.0039531053 0.0034521772 0.003764409 0.009816284
0.0048571285 0.0024480748 0.0019676385 -0.013427047 0.011800363 0.0068809823 -0.0032177607 -0.0005857024
0.0068838024 -0.0037677465 -0.0051822513 0.0010436559 -0.003648892 0.0038445164 -0.006757054 0.003850041
-0.0014955868 -0.0013250258 0.0012303131 -0.004455362 0.0010075007 0.0039838003 0.0065117585 -0.0019848621
-0.00089009607 0.0036753088 0.00049905013 -0.0010957672 -0.0008280245 -0.0002815562 -0.0011827535 -0.0074022436
-0.0057120365 -0.004338864 -0.00055002124 0.011594901 0.006675762 0.0020050895 -0.0034629733 -0.004020988
0.0027205455 -0.0055905203 -0.0006659406 -0.005599281 0.0026356445 -1.877533e-05 -0.0043927627 0.0046682036
0.0028976426 -0.00425102 2.7276079e-05 0.006050849 -0.004106987 0.0034149848 6.992956e-05 -0.003456282
-0.00199523 -0.00083334616 -0.0018229467 0.00054437754 0.015044063 0.0078754155 -0.00033465357 -0.0028520466
0.0011478456 -9.7416e-05 0.010343501 -0.0003994157 0.0010779053 0.005735539 0.003935491 -0.0075124307
0.0053487923 -0.007364678 0.0014779826 0.0015835363 0.0013654116 0.0017096408 -0.011211606 0.0018585398
0.016902333 -0.00021549047 0.008242372 0.0022533643 0.0029912766 -0.002651877 -0.0032577403 -0.0058929157
0.006111426 -0.0050991485 -0.004279228 -0.0049998104 0.007992628 -0.0046747536 0.006250796 0.0061233
0.007918813 -0.0012030869 -0.004168374 -0.00049744727 -0.0011838684 0.0071616466 0.004533571 -0.0011745306
-0.00011876166 0.0046896744 0.0068961782 -0.0024741557 0.0043306667 -0.017010488 0.010163225 0.009973028
0.004906153 0.0040789875 -0.0025218457 0.00027547608 0.0063179745 -0.00142755 -0.006216159 0.0007623754
-0.002485408 -0.016024541 0.0009749969 0.004994329 0.0024900697 -0.00418209 0.003480764 -0.0025587543
0.014327072 -0.004728867 -0.002680606 -0.0028071427 0.0014035655 0.0018574237 0.0074198605 -0.0057474584
0.0027741892 0.0009431544 0.003809524 0.0012659087 -0.003848699 -0.0005214692 -0.001656827 0.00044551224
0.0069991825 -0.0071865376 -0.0034962434 0.005283598 -0.0004312779 -0.0009012724 -0.0038172647 0.0016790914
-0.007157774 0.00902231 0.0036122757 -0.0015760752 0.0046789153 -0.004888396 0.008301548 -0.0034925516
-0.010780213 0.0029908635 0.0009940134 -0.0020858687 0.0061051226 0.003246664 0.0016169254 -0.0071184607
00000000: 5446 0fbb a81a 07bb 2559 bdba fcad f3ba
00000010: 4dee 5c3c eeaf 9fbb 1e3d fb3a f374 203b
00000020: a4cb 17bb 23cb 2abb 3c85 5239 dd4f f839
00000030: c723 223b 0cf8 803b f950 1aba 9a17 f23a
00000040: fe84 893b d0c8 8fbb 2cfe e5ba 771c 783b
00000050: a622 393c 8a29 9cbb 64a1 81bb 301a 0c3b
00000060: 2e33 4f3b 1ec2 03bc 4f17 933b 56ec 203c
00000070: f670 30bc 5684 bfba 2538 063c 9ccb 003b
00000080: 199f 183c 6175 913a 45c2 28bb 46a5 9f3b
00000090: 5393 b53b f5cd 46bb 931b e2bb 5f9c ffba
000000a0: 3408 813b 464d 8bbb cd30 8b3b b63c e13b
000000b0: 03e5 5cbb 8ad5 643b d5c7 fe3a fdc3 30bc
000000c0: 036b 613b efde e43a 7dab 203a 10e9 d83b
000000d0: 63b3 973a f6b6 dab9 a864 20bb 22e3 a23b
000000e0: 4b3f 79bb 7676 de3a 84a3 63bb 523b f0bb
000000f0: af63 81bb 1db2 043c 1f38 a1bb c0c5 1f3b
00000100: abbc e83b 94b9 c83b 528b 9339 b435 fe3b
00000110: 5645 5739 3f81 1ebc 23d4 9138 ee4b d339
00000120: b46b 1f3c ad49 79bb 5e8b 6cbb 38fc 91bb
00000130: 31fd 123b ac2c 45bb dd3e 90bb a5d6 a13b
00000140: 4198 30bc 5780 543b 0478 4137 ec23 a03a
00000150: 0d89 81bb ec3d 623b 4eb4 763b 7bd4 203c
00000160: 8c28 9f3b e16f 203b 7ff3 003b 1efd 5bbc
00000170: 4f56 413c dd79 e13b 11e1 52bb d389 19ba
00000180: 8591 e13b 4cec 76bb e0cf a9bb 48cb 883a
00000190: 4022 6fbb 48f4 7b3b 476a ddbb f850 7c3b
000001a0: 9107 c4ba 7dac adba 7542 a13a 49fe 91bb
000001b0: 1d0e 843a 8a8a 823b 9760 d53b 7614 02bb
000001c0: 5655 69ba 73dd 703b b0d2 023a d99f 8fba
000001d0: c90f 59ba d59d 93b9 9f06 9bba 858e f2bb
000001e0: 092c bbbb 072d 8ebb 4d2f 10ba 8af8 3d3c
000001f0: 5ac0 da3b d267 033b 0df3 62bb 7ec2 83bb
00000200: 2e4b 323b af30 b7bb 8492 2eba 2c7a b7bb
00000210: c7ba 2c3b b77f 9db7 2af1 8fbb bbf7 983b
00000220: 60e6 3d3b 244c 8bbb efce e437 3346 c63b
00000230: e793 86bb f0cd 5f3b 26a7 9238 ca82 62bb
00000240: 68c2 02bb ea74 5aba f1ef eeba 8fb4 0e3a
00000250: 607b 763c e307 013c 7174 afb9 67e9 3abb
00000260: 4f73 963a d14b ccb8 ca77 293c ab68 d1b9
00000270: 8048 8d3a 30f1 bb3b 4bf5 803b d62a f6bb
00000280: ec44 af3b 6653 f1bb deb8 c13a a98e cf3a
00000290: 9cf7 b23a 0716 e03a e2b0 37bc 3f9a f33a
000002a0: c376 8a3c 48f5 61b9 040b 073c 2ead 133b
000002b0: 4b09 443b 1dcb 2dbb d07f 55bb 5c19 c1bb
000002c0: 5b42 c83b c216 a7bb c438 8cbb 73d5 a3bb
000002d0: 83f3 023c ad2e 99bb 7ad3 cc3b f7a5 c83b
000002e0: e9bd 013c e6b0 9dba db96 88bb 1f67 02ba
000002f0: 082c 9bba 3fac ea3b 5a8e 943b b5f2 99ba
00000300: ae0f f9b8 d7ab 993b 56f9 e13b 7225 22bb
00000310: 44e8 8d3b 9459 8bbc a883 263c e965 233c
00000320: cbc3 a03b 07a9 853b 8d45 25bb c66d 9039
00000330: 0307 cf3b a11c bbba ecb0 cbbb 26da 473a
00000340: 3ae2 22bb e645 83bc ef96 7f3a 78a7 a33b
00000350: 7030 233b ea09 89bb 881d 643b c6b0 27bb
00000360: 18bc 6a3c 9df4 9abb 1bad 2fbb 0af8 37bb
00000370: d8f7 b73a cc74 f33a 4d22 f33b 2d55 bcbb
00000380: 2ccf 353b 053e 773a 35a9 793b d9ec a53a
00000390: 743a 7cbb 35b3 08ba e429 d9ba a493 e939
000003a0: 6659 e53b 0c7d ebbb 3b21 65bb 0822 ad3b
000003b0: 241d e2b9 5e43 6cba 132b 7abb f514 dc3a
000003c0: c38b eabb 50d2 133c eebb 6c3b 4f94 ceba
000003d0: 9651 993b d62e a0bb 3703 083c 4be3 64bb
000003e0: 7e9f 30bc 5d02 443b 8e49 823a 12b3 08bb
000003f0: 7b0d c83b fcc5 543b 03ef d33a fa41 e9bb
