projects/tennis/checkpoint/E15/E15.18_actor1_15000.pt (torch_old, 453689 bytes, 6 tensors)

fc1.weight f4 [400, 24]
000000 10 76 30 bd 47 a1 4f bd 40 86 0a bd 9a de a6 bc
       -0.043081343 -0.050690915 -0.033819437 -0.020369817
000010 58 9e 1a 3d 05 91 0c 3d 41 04 31 3d 5b 19 43 3c
       0.037748665 0.03431799 0.043216947 0.011907901
000020 0c b2 2e bd 29 b4 37 bc e2 a2 1e 3a fa d3 7f 3c
       -0.042650267 -0.011212387 0.0006051493 0.015614504
000030 bf 06 18 bd e4 9d 62 3c 30 cd 1a 3d 5f cb 43 bc
       -0.03711581 0.013831589 0.03779334 -0.011950343
000040 a1 b7 f8 39 b3 eb 15 bd cb 83 05 3d 88 b2 a5 bb
       0.0004743906 -0.036601733 0.03259639 -0.005056683
000050 83 fd 04 bd 6c db 93 3c 77 7c 2e 3d 66 75 ad bb
       -0.03246833 0.018048964 0.042599168 -0.005293536
000060 a2 a5 78 3c 08 f5 11 bb d0 19 b3 bc c4 6e 69 3b
       0.015176209 -0.0022271294 -0.021862894 0.0035619
000070 00 21 58 3d 4d 15 00 bc 3d f9 4c 3d 34 27 59 3d
       0.052765846 -0.0078175785 0.05004238 0.053015903
000080 47 23 28 3c 4e 97 2a bd 52 b2 48 3d 47 5f 06 bc
       0.010262317 -0.0416482 0.048998185 -0.008201427
000090 5f d9 ea bc ed 41 13 b7 ce 2a 0c 3d 5e 4b 2a 3d
       -0.028668104 -8.777232e-06 0.03422051 0.041575782
0000a0 e9 e8 03 bc 6d 75 ce 3c 8e 54 b9 3c 8d 10 13 3d
       -0.008051136 0.025202477 0.022623327 0.035904456
0000b0 b9 fc 33 bc 1a 1e 96 bc 47 e3 4d bd 0b 85 16 3c
       -0.010985547 -0.0183249 -0.050265577 0.009186993
0000c0 37 16 1c bc 0b 16 d8 3b 3e 48 42 bc 6e c4 25 bd
       -0.009526781 0.0065944246 -0.011858044 -0.040470533
0000d0 80 97 25 3d 9d 68 b1 3c 4e ae e3 bb 1c 3f 1a bd
       0.040427685 0.021656329 -0.006948269 -0.037657842
0000e0 96 b3 a4 3b cf aa 4e bd db 96 0c bd b8 1d fa 3c
       0.005026291 -0.050455865 -0.034323554 0.03053175
0000f0 55 bc f3 3c 31 0c 31 bd e4 c9 d6 3c f3 cf 2d bd
       0.02975289 -0.043224517 0.026219316 -0.042434644
000100 42 b9 35 bd 3d 1e 66 bc b8 b6 5a bd c1 a3 b4 3b
       -0.04436613 -0.014045295 -0.05339691 0.005512685
000110 4b 4f c4 3b 6f 73 25 bb 19 d7 6a 3c a7 85 b7 bc
       0.005990898 -0.0025245806 0.01433351 -0.022402598
000120 c1 53 37 3d e9 84 25 3d d5 d0 40 3d 98 5f 81 bc
       0.04475761 0.040409956 0.047074158 -0.015792653
000130 bf b9 ca 3c fd 22 bb bc 16 95 0c bd e8 a3 d3 3c
       0.024746774 -0.022843832 -0.034321867 0.025834993
000140 e4 64 85 bc d4 ce ec bb e2 bd e2 3c 20 d4 bb 3a
       -0.01628346 -0.0072268043 0.027678434 0.0014330186
000150 ec 35 ee bc 03 44 9a bc cd a3 14 3d 95 ed d7 bb
       -0.029078446 -0.018831259 0.036289025 -0.0065896013
000160 f1 1b 17 3d f7 83 dc 3c 46 61 87 bb cc 2d d2 3c
       0.03689188 0.026918394 -0.004131469 0.025656603
000170 0f 0d b0 3c f0 54 26 bb 38 73 07 bd 00 10 08 3d
       0.021490602 -0.0025380217 -0.033068866 0.033218384
000180 fe 6c 6b bc 72 db 31 3d c2 f5 d7 bc 9e 41 9f bc
       -0.0143692475 0.04342217 -0.026362304 -0.019440468
000190 a1 dc 59 3b b6 73 39 3d ec df f8 bc a6 3b 2d 3d
       0.0033243077 0.045276366 -0.030380212 0.042293213
0001a0 e3 96 4c bd b4 bc 65 bc 09 6e 3f bd d0 43 1e bc
       -0.049948584 -0.014022041 -0.046735797 -0.009659722
0001b0 b3 73 0d bd d1 11 ed 3c 40 33 f2 3b 3c 30 33 bc
       -0.034534167 0.02893916 0.0073913634 -0.010936793
0001c0 59 1c 48 bd ca 6e 00 b8 19 b5 de 3c 7d 8e bf bc
       -0.04885516 -3.062076e-05 0.027185963 -0.023383373
0001d0 14 88 18 bd b2 3a cc bc af be b2 3c eb d6 6b 3c
       -0.03723915 -0.024930332 0.02181944 0.014394502
0001e0 b7 da 8e 3c a3 2e da 3a bf a6 31 ba b6 02 b4 bc
       0.017438276 0.0016645979 -0.0006776861 -0.021973949
0001f0 3a 89 f1 3c 2e 91 37 3d b9 51 32 3c 7f 54 c5 3c
       0.02948438 0.04481619 0.010883742 0.024088142
000200 c2 fd 34 3d 91 75 20 bd 9b aa 3a bd 4a ed 5a bc
       0.044187315 -0.03917462 -0.04557286 -0.013362238
000210 26 64 2d bd 7e 25 47 3b 4e 6d e7 bc c4 cb 13 3c
       -0.042331837 0.0030387337 -0.028250363 0.0090207495
000220 ca e7 84 3b 18 b4 5a 3b 25 e0 2d bd 36 76 10 3d
       0.0040559517 0.0033371504 -0.04245009 0.035268985
000230 5f 29 2e bd 85 80 11 3d cd 2a 03 3d eb 58 42 3c
       -0.042519923 0.035522956 0.03202324 0.01186202
000240 47 fa a7 3c d0 a6 40 bd f8 00 c8 3c 9f e0 20 bc
       0.020505084 -0.047034085 0.024414524 -0.009819179
000250 28 a6 2c 3d 9f 05 1a bd 37 dc 08 3d 2d e0 33 bd
       0.042150646 -0.037603017 0.03341314 -0.043914963
000260 bc 75 17 3d 2d 6a a8 bc f8 2b c7 bc 21 35 bd 3b
       0.036977515 -0.020558441 -0.024312958 0.0057741557
000270 75 2e 29 bd 4f c8 21 3d 1a 46 53 bd 66 ea 12 3d
       -0.04130407 0.03949767 -0.051580526 0.03586807
000280 4d 16 32 3c e1 1c ab 3c 64 1a 0f bb d9 71 82 3c
       0.010869575 0.020887794 -0.0021835798 0.015923427
000290 ad c4 80 bc ae 78 a0 3b 54 98 08 3d 4a 1f 07 bd
       -0.015718782 0.0048971986 0.033348396 -0.032988824
0002a0 0c 99 24 3d 2c b6 c5 3c 00 ad 4e 3c ef d7 a1 bc
       0.04018502 0.024134718 0.012614489 -0.019756285
0002b0 49 9c 08 3d 6f 0b 06 3d 38 40 f4 3c 3c 6f 12 bd
       0.03335217 0.032725748 0.029815778 -0.035750613
0002c0 3d 8a 9c bb a8 f2 bc bb 15 79 36 3d 37 5a 2d bc
       -0.0047772215 -0.0057662316 0.044549067 -0.010580591
0002d0 ca 77 b7 bc 01 0c 67 bc d1 e3 3d 3d 3d 5e 80 3c
       -0.022395987 -0.014101983 0.04635984 0.015669936
0002e0 8e 82 22 bd 02 6c 98 bc 7b bb 2b bd ab 6a 99 bc
       -0.039675288 -0.01860619 -0.041926842 -0.018727621
0002f0 bb c5 12 3d 7f ad 52 3d 4f 1a 87 3b 74 66 12 bd
       0.0358331 0.05143499 0.0041230093 -0.03574224
000300 7d ad e8 3c 1a 2d b3 bc 6f 1e 9c 3c ff ab ee 3b
       0.028403038 -0.021872092 0.01905748 0.007283687
000310 c8 4d 0b 3c cd ed 51 bc 1a cb 42 bb 79 65 17 bd
       0.008502431 -0.012813044 -0.0029723109 -0.036962006
000320 a1 b6 94 3b b2 ef bf 3c 45 fb 3d bc 7b ed e6 3c
       0.0045383726 0.023429725 -0.011595552 0.028189411
000330 19 8a f1 3c b3 9f 1d bd d4 e2 a2 3c d1 fa 50 3c
       0.029484795 -0.03848238 0.01988355 0.012755112
000340 43 1b c5 bc 03 96 10 bd e0 e8 31 bd 43 8d 31 bd
       -0.024060851 -0.035299312 -0.043434978 -0.04334761
000350 a2 0f 04 3c 75 f9 ca 38 ad cf 53 bd 43 5c a0 bb
       0.008060368 9.6785756e-05 -0.051711727 -0.004893811
000360 eb ec f5 3b fa 50 b3 3c ee a9 41 3c 00 91 cb b9
       0.0075050495 0.021889199 0.0118203 -0.0003882721
000370 a9 2e 32 3d 0f 92 00 3d c6 5b 45 3b ca 5e 53 bc
       0.04350153 0.031389292 0.0030114516 -0.012901017
000380 07 bd ab bb aa 3e 7f bc 28 10 3c 3d 6b eb 32 3c
       -0.0052410397 -0.015578905 0.045913845 0.010920386
000390 6c 2c 26 3c 4a c4 0b bc c2 d6 25 ba b2 52 33 bd
       0.010142427 -0.008530686 -0.0006326252 -0.043780036
0003a0 1a c9 16 bd 68 54 05 3c 3b 70 b5 3c f4 db 5d 3d
       -0.03681288 0.0081378 0.022148242 0.05416484
0003b0 b1 f4 eb bc 8c 8a 05 bd 53 3c db 3c 72 3b 54 3d
       -0.028803201 -0.03260283 0.026762163 0.051814504
0003c0 af 9c 1a bd 37 5c e9 bc 32 35 ba 3b ad f9 32 3c
       -0.03774708 -0.028486354 0.005682611 0.010923785
0003d0 e3 59 4c 3d 4e 60 fb bb 3f 1d 4a bd 32 e5 ab 3b
       0.04989041 -0.0076713925 -0.049344297 0.005245828
0003e0 d0 97 0f 3b 89 79 37 3a 58 f3 1d 3d f3 5d e0 bb
       0.0021910556 0.0006999006 0.03856215 -0.006847137
0003f0 61 47 58 3b ed 69 fa bc 1f 52 4d bd 31 72 90 bb
       0.003300153 -0.030568087 -0.050127145 -0.004408144

fc1.bias f4 [400]
000000 72 19 c7 3d 7c ed ad bc 0f ff 87 3d 64 90 00 be
       0.0972165 -0.021231405 0.066404454 -0.1255508
000010 3c 56 03 be e7 7e 17 be 00 ad 9d 3c a7 2a 15 3e
       -0.12825865 -0.14794503 0.019247532 0.14567052
000020 2f b9 ad bd 52 1c fa 3d 04 87 cd 3d bd b5 42 3e
       -0.084825866 0.12212433 0.10035518 0.1901464
000030 51 c7 32 bc 8a 0b 4b be 40 aa 23 3e 7b 73 17 3e
       -0.010911779 -0.1982862 0.15982914 0.14790146
000040 96 8b 83 3c 8c 26 af bd c9 e2 d8 3c 56 9a 05 3e
       0.01605777 -0.08552274 0.026475327 0.13047156
000050 f6 45 4a 3e ff 7f da 3d d3 7a 25 3d c2 89 44 3b
       0.1975325 0.106689446 0.040400337 0.0029989337
000060 55 fb 1a 3d 0b 8b 15 bd aa 38 1a bd b6 6c 40 3e
       0.037837345 -0.036509555 -0.037651695 0.1879147
000070 ac 44 32 3e 83 0e 17 3e 2e 04 d3 3d f7 71 6a bd
       0.17409009 0.1475163 0.103035316 -0.05723759
000080 fc ac 39 3e c6 8a 89 bd c8 ac 52 bc 71 0e 5a 3d
       0.18132395 -0.06715922 -0.012858577 0.05323643
000090 b0 a4 3e 3e 20 c9 28 be fa d3 c8 bb 1e 3e 0b be
       0.18617511 -0.16482973 -0.006128785 -0.13597915
0000a0 6a 8c 45 3e 95 8c 51 3e 4b 91 b2 3d 66 aa d6 3d
       0.19291845 0.20463784 0.08719119 0.1048172
0000b0 21 e1 c7 3c 93 de 55 3d 73 7a db bd 18 1d b1 3d
       0.024399342 0.052214216 -0.10716715 0.08648127
0000c0 cf 16 41 be 17 fd a4 3d 2c f2 cc bd 74 04 dc 3c
       -0.18856357 0.080560856 -0.10007128 0.026857592
0000d0 2f 06 08 be c2 b3 b2 bd 9f fb c6 bd 65 29 31 be
       -0.13283609 -0.08725692 -0.09715962 -0.17300947
0000e0 de 4d bd bd 3b 7f 38 3e 7a cd 44 3e fb 92 2a be
       -0.092433676 0.18017285 0.19219008 -0.16657631
0000f0 3c b1 28 3e d2 b1 1c bd 30 c1 81 3d f4 e4 30 bd
       0.1647386 -0.03825552 0.06335676 -0.043187097
000100 23 26 69 3d 73 95 cc bd 41 f5 4d 3e f4 62 35 3e
       0.056921136 -0.09989443 0.20113088 0.17713529
000110 b6 9b be 3d 22 b1 2d 3e 2d 4c b1 3d 47 f7 81 bb
       0.09307043 0.16962102 0.086571075 -0.0039662453
000120 ae b8 84 bb 41 f9 4f 3e 72 b7 bb 3d 73 9a 4e be
       -0.004050336 0.20309927 0.09165849 -0.20176105
000130 1f 49 e7 bd 7d be 8f bd 2d 21 28 be 8a b3 33 be
       -0.112932436 -0.07018755 -0.16418906 -0.17548957
000140 34 ff 77 3d 03 b4 3f 3e 30 aa 2b be 76 f5 ef 3c
       0.060546115 0.18721013 -0.1676414 0.02929185
000150 f6 f2 55 bd c2 88 ef 3d 8a 25 30 be 3d 86 41 bd
       -0.05223366 0.11696006 -0.1720182 -0.04724716
000160 25 8a bf bd 05 c4 11 3e 41 79 3b bd be 43 06 3e
       -0.09352521 0.14234932 -0.045769934 0.13111779
000170 54 fd a2 3c bb 3f 2e be 93 62 29 3e b1 d5 10 be
       0.019896187 -0.17016499 0.1654151 -0.14144017
000180 f0 bb fa bd b6 53 30 3e d6 07 e5 bd e4 2d aa bd
       -0.122428775 0.17219433 -0.11183135 -0.08309534
000190 b4 af 1b be 46 26 f3 3d 5f d6 08 3e 7d 5d ac 3b
       -0.15203744 0.118725345 0.13363026 0.005260168
0001a0 14 bf 2b 3e 32 c5 07 3c 03 ad cc 3c ac 38 15 bd
       0.1677211 0.008286761 0.024984842 -0.036431
0001b0 b7 f9 13 3e 50 bc 09 3e 20 9d 81 bd 52 a9 f3 3d
       0.14450727 0.13450742 -0.06328797 0.1189753
0001c0 e6 7a 24 3e 5a be 3f 3e 20 a7 4b 3e 89 0a 22 be
       0.16062507 0.18724957 0.19887972 -0.15824331
0001d0 58 b1 fe bd 62 0e 2b 3e 1f 97 53 3d f0 4f bb bd
       -0.124361694 0.16704705 0.051657792 -0.09146106
0001e0 30 f6 04 3e 0a 0d fe bc 8e 5a 38 3b 49 f3 cb 3d
       0.12984538 -0.031012077 0.0028130147 0.09958512
0001f0 0d 88 0b 3e 89 e1 7f 3d 61 7a e8 bd 8e fb 90 bd
       0.13626118 0.062470946 -0.11351467 -0.0707923
000200 c6 0c 9d 3d 31 9f fb bc e5 e3 93 3d fa 9f af bc
       0.07668452 -0.030715557 0.07221202 -0.021438587
000210 c2 dd 25 3c 6f 00 88 bd eb 5d bc 3c 2e 6f 37 be
       0.010123672 -0.06640708 0.022994002 -0.17913505
000220 98 2d 51 bd 4a 81 c9 bd f8 eb 31 3e cb ac 4c be
       -0.051068872 -0.09839113 0.17375171 -0.1998779
000230 78 a2 ef 3d eb 7c 7e 3d 27 cd 65 bd e1 d1 d2 bd
       0.1170091 0.06213085 -0.05610385 -0.102939375
000240 bb 77 ce bd e8 3e d1 3b 6a 42 38 be b1 e9 f2 bd
       -0.100814305 0.006385673 -0.17994085 -0.11860979
000250 05 9c c1 bd 1c 0a 52 3d 09 99 c7 3d ea 3e 39 bc
       -0.094535865 0.051279172 0.09745986 -0.011306504
000260 9c 44 b0 3b 2c d8 cc 3c ac 06 3a be bd c2 2a bd
       0.0053792726 0.025005423 -0.18166608 -0.041689623
000270 3e db 44 3e 70 6b 8f bd 30 84 1a be 59 e1 36 3e
       0.1922426 -0.07002914 -0.15089488 0.17859401
000280 8d bc 4f 3c 3f ea 33 3e e3 08 cd bd 57 9b da 3d
       0.012679231 0.17569827 -0.10011461 0.1067416
000290 68 91 8c bd 78 3b 15 3c 51 ad 33 be 28 48 2d 3e
       -0.068636715 0.009108417 -0.17546584 0.16922057
0002a0 16 9e 90 3d bf 1a ff 3a ed e9 1e be d5 22 58 3d
       0.070614025 0.0019462927 -0.15518923 0.052767593
0002b0 5a f6 81 bd 7f 9b 1d be 6f 24 4d be f9 fe e6 3c
       -0.06345816 -0.15391348 -0.2003343 0.028197752
0002c0 65 42 5b bd 8c 5b 16 3a 13 3d 19 3e 91 18 c2 bd
       -0.053530116 0.00057356874 0.14964704 -0.09477342
0002d0 35 74 a0 3d bd 04 3f 3d 66 eb da 3d ad a0 22 3e
       0.07834665 0.04663538 0.1068943 0.15881605
0002e0 88 77 26 3e 8f c2 7e 3d fc 5c a5 3d b3 ab 37 be
       0.16256535 0.062197264 0.08074376 -0.17936592
0002f0 2c 6e 3f be 2e d9 aa bd c2 b6 39 be 20 9c 2a 3e
       -0.18694371 -0.08342205 -0.18136123 0.1666112
000300 2d 4a de bd 55 08 36 3e e3 93 3e 3e fa 4d 30 be
       -0.10853992 0.17776616 0.18611102 -0.17217246
000310 ae 8b 9c 3d d2 b8 cd 3d fa 61 f6 bd d3 76 be 3c
       0.07643829 0.10045017 -0.12030406 0.02325002
000320 bc 89 cf bc 80 1d a8 bc aa 12 a4 3c fe a4 a8 3b
       -0.025334232 -0.02052188 0.020028431 0.0051466217
000330 07 6c 39 be b1 b9 77 bb d9 83 2b be 83 bc 49 3e
       -0.18107615 -0.003779989 -0.16749515 0.19700818
000340 a1 dd d3 3d a3 be 3a 3c 22 f8 48 3d da 6b dd 3d
       0.10345007 0.01139799 0.049064763 0.10811587
000350 15 ce 55 3d 3f dc d4 bd 63 a0 50 bd e9 50 d7 bd
       0.05219849 -0.10393571 -0.050934207 -0.10513479
000360 df 9d 2c be 53 86 aa bd f0 6e 14 3e 20 3a 84 bd
       -0.16857098 -0.083264016 0.14495444 -0.06456399
000370 57 22 e4 bd 67 ce 38 3e aa fc 2f bd 76 6b 49 3e
       -0.11139362 0.18047486 -0.04296557 0.196699
000380 71 60 17 3e d2 66 8f 3d 47 cc 07 3e ec c5 0f 3d
       0.14782883 0.07002033 0.1326152 0.035100862
000390 7b f7 7c 3d eb 2d fe 3b 9c a3 0f 3e 02 98 04 3e
       0.061759453 0.0077569387 0.14027256 0.12948611
0003a0 e0 b5 0a be 29 2a 0d 3e 65 e3 1c be d1 04 50 bd
       -0.13545942 0.13785614 -0.15321119 -0.050785843
0003b0 5c 12 1e 3e c1 4e 9c 3c 44 30 a7 bd 76 27 26 be
       0.15436691 0.019080522 -0.08163503 -0.1622599
0003c0 b0 ba e0 bd 94 40 36 bd 68 57 95 bd 6f 06 d2 3d
       -0.10973108 -0.04449518 -0.07292062 0.10255133
0003d0 f5 c7 e3 3d 43 6c 81 bd 35 a8 4c be 26 4d 05 3e
       0.11122123 -0.063194774 -0.19986041 0.13017711
0003e0 7c 6c 93 bd ed 90 f2 3c 94 a7 53 3e 72 6d b5 3d
       -0.07198426 0.029610122 0.20669395 0.08858766
0003f0 c2 dd f1 3d fb b6 e8 3c 56 cd bb 3d 80 7a d3 bc
       0.11809875 0.028407564 0.09170024 -0.025815248

fc2.weight f4 [256, 400]
000000 08 03 2e 3d 95 1a 1d bd 87 fe 80 3b ff 11 99 3a
       0.04248336 -0.03835543 0.003936592 0.0011678337
000010 5c d1 97 bc c5 0c 11 3d 3a 45 20 3d 21 4d 73 bd
       -0.018532448 0.03541257 0.03912852 -0.059399728
000020 4c f5 65 3d c8 72 19 3d df 7e f7 bc e1 d0 47 bd
       0.056142136 0.03746298 -0.030211864 -0.048783187
000030 18 50 5c bd 22 d9 78 bd f5 ae cd 3a 27 9c 49 bd
       -0.05378732 -0.06075395 0.00156924 -0.049221184
000040 2b 27 1e 3b 0d b5 cc 3c b2 31 62 bd f0 52 64 3a
       0.0024132233 0.024988675 -0.055223174 0.00087098684
000050 08 36 46 3d 91 c9 22 3d b9 a0 3b bd 9a ef 55 3c
       0.048391372 0.03974301 -0.045807574 0.013057614
000060 6e 02 0a 3d 86 dd 0a bd eb fa 30 bd 17 0a 52 bd
       0.033693723 -0.033902667 -0.043208044 -0.051279154
000070 fd 22 cb bc 60 b6 3d bd 7b 53 3a bd 6b 30 26 3d
       -0.024796957 -0.046316504 -0.04548977 0.04057352
000080 38 79 54 3d f7 96 1e bd 85 c1 49 bd 7a 00 c3 3c
       0.051873416 -0.03871819 -0.04925682 0.023803938
000090 2f ba d9 bc 68 7e 10 bd 94 6b 17 bd a0 23 8a bc
       -0.026578037 -0.0352768 -0.03696783 -0.01686269
0000a0 fc eb 05 3d a0 ed 26 3d 0f 1b 6b bd 18 a1 e2 bc
       0.032695755 0.04075396 -0.057398852 -0.027664706
0000b0 3f e7 58 3d 59 24 54 bc ac 36 a1 3c 54 4f 3e bd
       0.05295491 -0.012948119 0.01967939 -0.046462372
0000c0 14 3d 69 3d c5 b2 30 bd f7 0c 63 bd 9f 30 4e 3d
       0.056943014 -0.043139238 -0.055432286 0.050339337
0000d0 11 f1 5c 3c f2 be 12 3d bf 5d 89 3c 24 f1 10 3d
       0.013485209 0.03582663 0.016768334 0.03538622
0000e0 79 6f 3a bd a2 db c7 bc f5 02 d1 3c 5b 58 cf bc
       -0.045516465 -0.024396721 0.025514105 -0.025310686
0000f0 3e 35 dc 3b 3a 8a b5 3b bd b5 88 3c 06 59 5b bd
       0.006720214 0.0055401595 0.016688222 -0.053551696
000100 cc 3c 79 bd 06 b5 19 3d 45 c8 15 3d 2b d9 52 bd
       -0.060848996 0.037526153 0.036567945 -0.05147664
000110 82 31 72 3d 40 c1 28 3d fb 9a 5e 3d e8 19 44 bc
       0.059129246 0.041199923 0.05434702 -0.011969067
000120 f5 47 e2 3c 71 cb 6c bd 60 29 c1 ba 3f e8 ee bc
       0.027622202 -0.057811204 -0.0014737062 -0.029163478
000130 33 eb a1 3c b9 44 77 3d 68 ee c1 bc 0e a7 33 3d
       0.019765472 0.060368273 -0.023673251 0.043860488
000140 dd c2 86 3c a3 83 31 3c 22 be b6 3b e1 39 9a bc
       0.01645034 0.010834607 0.005576865 -0.018826427
000150 51 cc 16 3d a4 1e 26 3d 89 ca 88 bc a7 af 35 3d
       0.036815945 0.040556565 -0.016698139 0.04435697
000160 90 fd a6 3c 32 c2 20 3c 7c 1f a9 3a b1 71 71 3d
       0.02038458 0.009811925 0.001290306 0.058946315
000170 2f a8 9b bb 30 49 04 3d 70 a8 6a bd 0a 04 d0 3c
       -0.0047502737 0.03229636 -0.05728954 0.025392551
000180 54 83 83 bc 49 f8 53 3d eb 4a 19 3d 8b ac a3 3c
       -0.016053833 0.051750455 0.037424963 0.019979736
000190 ca 2e 03 bc 66 11 d8 3c 49 b7 37 3d 9c 09 7b 3b
       -0.008006761 0.026375484 0.04485253 0.0038305288
0001a0 ee 99 4c bd 9c ec 2c 3d 50 b7 74 3d c5 ca 6e bd
       -0.049951486 0.042217836 0.059745133 -0.058298845
0001b0 de 6c f8 bc cf 95 3c bd d9 62 d2 3c 3f e2 ab 3b
       -0.03032535 -0.046041306 0.0256819 0.0052454765
0001c0 af 18 75 3d 0f aa 7c bd e7 3b a6 3c ed ca 0e bb
       0.059837993 -0.061685618 0.020292236 -0.0021788434
0001d0 27 5a bd 3b 6a 55 51 bd e4 8c 80 bd 63 7f a9 3c
       0.0057785693 -0.051106848 -0.06276873 0.020690626
0001e0 0e 9c 72 3c 55 75 e4 3c 06 96 0b 3d 45 e0 0a bc
       0.014807714 0.02788798 0.03407862 -0.008476322
0001f0 33 05 e0 3b 85 6f 11 3c 5b 92 7e 3d ef 84 60 3d
       0.0068365573 0.008876686 0.062151294 0.054814275
000200 8a 59 95 bc 57 81 14 3b 62 35 43 bd 8b 7d 70 3d
       -0.018231172 0.00226601 -0.04765833 0.058713477
000210 f8 6d 4d bd ad e0 3f 3d 77 18 43 3d 26 5f 48 bd
       -0.050153702 0.046845127 0.047630753 -0.048918866
000220 b9 6a 6c 3d 53 65 29 bd 90 29 0e 3d 0d 15 49 3d
       0.057718966 -0.041356396 0.034707606 0.04909234
000230 c3 34 49 3c 1a fb 25 3d 0a 36 3f bc 89 32 65 bd
       0.012280646 0.040522672 -0.011670599 -0.055956397
000240 b4 9c 44 3c 2d 47 e1 3c 66 a0 52 bc 8b eb ec 3c
       0.012000252 0.02749976 -0.012855625 0.02892091
000250 37 93 8d 3c ec 02 52 bd 59 c3 5a bd 4c 8b 59 bd
       0.017282112 -0.051272318 -0.053408954 -0.05311136
000260 ed 7c 55 bd a2 36 78 3d 13 d1 17 bd 94 90 89 3b
       -0.05212109 0.060598977 -0.037064623 0.0041981433
000270 48 e2 67 bd 4e 8c ca 3a b1 e2 e1 bc 51 8e 15 3a
       -0.056612283 0.0015453191 -0.027573915 0.0005705106
000280 6f 80 9c bc cc 3d c9 bc 51 57 42 3d e9 5a b7 3c
       -0.01910421 -0.0245656 0.047446553 0.022382217
000290 d1 52 4e 3b 48 be e4 bc c2 e7 0a bd 57 fd 15 3c
       0.0031482468 -0.027922764 -0.033912428 0.009154639
0002a0 9b 45 4e bd 60 f3 f2 3c ab b1 88 3b 2b 83 fc bb
       -0.05035935 0.029657066 0.0041715703 -0.007706066
0002b0 b9 be 77 3d 56 80 ec bc 15 67 f2 bc eb 6e ef 3b
       0.06048462 -0.02886979 -0.029590169 0.0073069236
0002c0 75 e9 56 3c 7c 66 27 3b 02 fe ea bc 86 77 10 3d
       0.013117184 0.0025543263 -0.028685573 0.035270236
0002d0 2b a5 3a 3d 48 00 d3 3b 33 70 0f 3c d1 58 de bc
       0.045567673 0.0064392425 0.008754778 -0.02714196
0002e0 46 1e 94 bc ef 9a 41 bd 51 4f bb 3c d3 74 97 bc
       -0.018080842 -0.047266897 0.02286497 -0.018488323
0002f0 43 c1 29 3d 59 54 99 3c c4 2c 82 bc b4 b6 2d 3d
       0.041444074 0.018716978 -0.015890487 0.042410567
000300 cf 76 01 bd bb 19 32 bd 4c 6a 13 3d 9e ef 57 bd
       -0.031607445 -0.04348157 0.035990044 -0.05271875
000310 29 cf a1 3b 71 de 55 bd 14 15 6a 3d dd 7f f4 3c
       0.0049380255 -0.05221409 0.057149008 0.029846126
000320 c2 fc cf 3c 31 12 39 3d 5f ef 2c 3d e1 5f 67 bd
       0.025389079 0.045183364 0.04222047 -0.05648792
000330 99 93 dd 3c e4 70 68 3d 39 00 58 bd c0 70 31 bd
       0.02704792 0.056748286 -0.052734587 -0.043320417
000340 c6 80 e9 3c a4 fe 46 3d 16 9a 15 3d 39 56 75 3d
       0.028503787 0.048582688 0.0365239 0.05989668
000350 7b 2c 6c 3d 6a 79 44 3c 77 6c 96 bc e5 43 10 bc
       0.057659607 0.011991838 -0.018362267 -0.00880525
000360 ba 86 d8 bb cd 78 09 3d 05 fb 1c bd f9 7d 34 3d
       -0.0066078575 0.03356247 -0.03832533 0.04406545
000370 18 ce 19 bd 9b 00 37 3d 0d b7 36 bd 5d 51 5e bd
       -0.037550062 0.04467831 -0.044608165 -0.054276813
000380 63 71 2b bd 94 e6 59 bd 92 2d 82 ba a9 3f 26 bd
       -0.04185618 -0.053198412 -0.0009931794 -0.040588055
000390 d2 31 68 b9 08 1e 60 3d 89 d5 72 bd 25 4c 6e 3d
       -0.00022143804 0.05471614 -0.059285674 0.058178086
0003a0 59 41 cb 3b c1 86 2a bd 5d fb 12 3d 12 f9 91 bc
       0.0062028584 -0.041632418 0.03588425 -0.017818961
0003b0 4f 56 07 bd b3 3a d5 bb c9 9c 68 bc a6 cf 56 3d
       -0.033041295 -0.0065072416 -0.014197537 0.052444123
0003c0 1b 66 20 3d 33 f7 99 b9 c2 5c ef 3a 98 39 dc bc
       0.039159875 -0.00029366612 0.0018261897 -0.026882932
0003d0 46 66 f9 bb 92 c6 f4 3c e4 df 7d bd 1a 20 cf bb
       -0.007611069 0.029879842 -0.061981097 -0.0063209655
0003e0 0a fc 09 bd 65 8e a4 bb d2 00 2f bd a4 21 41 3d
       -0.03368763 -0.0050218576 -0.04272539 0.047151223
0003f0 eb 29 92 bc 50 c0 a3 bb db ad f9 bc b8 3d 97 3b
       -0.017842254 -0.0049972907 -0.030478409 0.0046155117

fc2.bias f4 [256]
000000 b6 78 be bc 8a 26 e6 bc 13 9b db bc a6 a4 83 bc
       -0.023250919 -0.028094549 -0.026807344 -0.016069721
000010 55 6b 2d 3c 88 78 d2 3c 00 6c 90 b8 56 0c 0a bc
       0.010584672 0.02569224 -6.886572e-05 -0.008425793
000020 ce 80 9c ba 74 14 82 3c 4d f3 37 bc e8 ef 01 bd
       -0.0011940242 0.015878893 -0.011227441 -0.031722933
000030 b6 42 a8 3b ce b3 24 bd 2a 01 fc 3b c1 69 db bc
       0.0051349057 -0.040210538 0.0076905685 -0.026783826
000040 f0 8f c9 bc 7f 82 14 bd ee c4 4a 3d 93 b1 ef 3a
       -0.024604768 -0.036257263 0.049504213 0.0018287174
000050 f9 df 28 3d eb a4 48 3d c5 90 52 3d 46 01 0e bd
       0.041229222 0.048985403 0.051407594 -0.034669183
000060 4a 1d 19 3d 49 3c 34 bd 60 e1 8d bc 4c c6 e6 3c
       0.037381448 -0.044002805 -0.017319381 0.028170727
000070 ae 2b 44 3c 67 39 0f bd 74 35 33 bd 75 6d cb bc
       0.011973305 -0.034966853 -0.04375215 -0.024832467
000080 d9 db 0c 3d d9 7d fb bb 74 e9 1d 3d a8 a0 8b 3a
       0.03438935 -0.0076749143 0.038552716 0.0010652738
000090 5d 53 6d bc a1 fb 7d 3c 94 4f 8c 3c ed 22 5c 3d
       -0.014485207 0.015501888 0.01712779 0.053744245
0000a0 f1 ef 35 3d 5b 59 fb ba f5 4b 32 bc 8a c9 ff bc
       0.04441828 -0.001917641 -0.010882367 -0.031224031
0000b0 17 9c 3b 3d c2 84 2c bd 57 ad e9 3c f2 90 d5 bc
       0.045803156 -0.042118795 0.028525038 -0.026070092
0000c0 3d 84 29 3c a0 17 84 bc 20 e9 30 bc d0 7d 9f 3c
       0.0103464695 -0.016124547 -0.010797769 0.019469172
0000d0 01 68 e3 3c c4 3d 32 bd cc f1 30 3d 56 2b 33 bc
       0.027759554 -0.043515936 0.043199345 -0.010935625
0000e0 0d e7 06 3d 26 cb 4b bd c1 d4 3c 3d 96 5e a4 3c
       0.03293519 -0.049754284 0.046101335 0.020064633
0000f0 37 55 cd bc 9d df 46 bc 1f df 88 3c 62 f3 d1 bc
       -0.025065048 -0.0121382745 0.016707955 -0.02562875
000100 af a7 9b bc 9e c6 b3 3b 96 31 ca bc 5e 59 1e 3d
       -0.019000856 0.0054863235 -0.024681848 0.038659446
000110 97 7e 26 bb 3b 90 b9 3c 05 91 75 3c cb 1d 21 3c
       -0.0025405043 0.022651782 0.014988189 0.009833763
000120 29 91 11 3c 09 18 64 3c 50 e6 9c 3b 87 bd be 3c
       0.008884707 0.013921746 0.0047881976 0.023283733
000130 d1 c2 33 bd d9 ef 85 3b 6b 5e 7f 3c 61 a2 27 bd
       -0.043886963 0.00408743 0.015586476 -0.04092634
000140 e0 c4 47 ba ab eb 1b 3d d9 57 d9 3c df fc 76 bb
       -0.0007620584 0.038066547 0.026531147 -0.0037687344
000150 5e 01 07 3d 1a 14 19 3d 15 93 fd bc 33 9a 1d bd
       0.03296029 0.037372686 -0.030953923 -0.038477134
000160 7e 83 80 bc d6 f1 3a bd 69 66 f5 bc 2d 1e 1d 3d
       -0.0156877 -0.04564079 -0.02995606 0.038358856
000170 0d 82 18 bd 9e 6b 4b bc ce e9 b9 3a 58 5d 30 3d
       -0.0372334 -0.012415795 0.0014184059 0.04305777
000180 a5 80 3b 3d 50 d6 a8 3c cc a6 d0 bc 6c 1b f4 3a
       0.04577698 0.020610005 -0.02547016 0.0018623895
000190 41 fb 08 3b d1 cc b1 3c 80 d9 1b 3d 54 01 08 3d
       0.0020901712 0.02170411 0.03804922 0.03320439
0001a0 5a 7b cc bc 67 60 88 bc 5e 3a 9a bc 43 b9 0a 3b
       -0.024961162 -0.01664753 -0.01882666 0.0021167553
0001b0 a8 ef 1d bc da bd 26 3d 27 8a 1b 3d 00 d3 3b 3d
       -0.009639658 0.0407084 0.03797355 0.045855522
0001c0 42 0f b9 3b 3d 3d ba 3c 2f 1e db bc c1 4e ef bc
       0.005647571 0.022734279 -0.026747791 -0.029212357
0001d0 28 42 4e 3c e1 e1 b9 bc 8c b8 1d 3c 39 56 af 3c
       0.012589015 -0.022690715 0.009626519 0.021403419
0001e0 65 92 94 bc 9f 51 51 bc e7 f0 a3 3c e5 6a 2b bd
       -0.018136213 -0.012775808 0.020012332 -0.04184999
0001f0 b9 78 09 bd 65 ed 32 3c 60 de 25 3d d2 57 43 3c
       -0.033562396 0.010920857 0.040495276 0.011922793
000200 ed 5a f2 3c 3d f3 1f 3d 78 d7 24 3d c8 38 03 bd
       0.029584372 0.03905033 0.04024455 -0.032036573
000210 3d af d5 bc bd df 1a bc 0b 55 a4 3c bf 6f 2f 3d
       -0.026084537 -0.009452757 0.020060083 0.04283118
000220 52 64 0c 3d 4b 46 80 3c 0d 09 c3 3c 8d 3b 1e bc
       0.03427536 0.015658518 0.023808027 -0.009657753
000230 a3 a9 38 bd 0a cf df 3c 42 2d 6c bb e6 a8 82 bc
       -0.045083653 0.027320404 -0.0036037718 -0.015949678
000240 28 9d 1b bc ca 78 0a 3d 95 8b 17 3d 56 0c c1 bc
       -0.009497918 0.0338066 0.03699835 -0.023565453
000250 51 9a 1d 3d 57 e9 fe 3b df 01 53 3d 7d 91 ba bb
       0.038477246 0.007779281 0.051515456 -0.005693613
000260 dd 20 37 3c a3 13 34 3d 3d 69 45 3d e3 d0 9a bc
       0.011177269 0.04396404 0.048196066 -0.018898433
000270 f7 42 00 3d 59 1d 15 bc 13 27 37 3a 8e cb 49 3c
       0.031313863 -0.009101235 0.00069867185 0.012316598
000280 4e 4b a0 bb fe 1c cf 3c a6 23 25 bc 6b 24 58 3c
       -0.0048917895 0.02528238 -0.0100793 0.0131922765
000290 6a 0c 22 bd 12 c4 48 bd d2 cc bd 3c 74 6e 2f 3c
       -0.03956262 -0.049015112 0.023168955 0.010707486
0002a0 12 f6 94 bc 8b f8 ea bc 6b 50 44 3d 1f 4e 4f bc
       -0.018183742 -0.028682968 0.047928255 -0.012652903
0002b0 78 1d 9b bc 09 8b bf bb d4 a4 0b 3d 0b a9 54 3c
       -0.01893495 -0.0058454317 0.03409274 0.012979756
0002c0 8b 94 38 bc b7 b6 3a 3d 7a 54 6b 3c c9 cc 3d 3d
       -0.011265884 0.045584407 0.0143634025 0.046337876
0002d0 d0 3a e7 bc d8 50 34 bd 5c 03 cc 3c ef cf 78 3c
       -0.028226286 -0.04402241 0.024903946 0.015186294
0002e0 97 cf 0a bd ab 5f 2f bd 6d de 1f bd 08 48 bf bc
       -0.03388938 -0.042815845 -0.03903048 -0.023349777
0002f0 9b 22 1f bd a4 53 58 3c ed 5c 81 bc 36 3b 26 bc
       -0.03885136 0.013203535 -0.01579138 -0.010145953
000300 fd 09 55 3d 7b dd 47 3c 93 ef 02 bd bd f8 ba bc
       0.05201148 0.012198801 -0.031966757 -0.022823686
000310 83 d1 d6 bc 5e 07 7d 3c e3 17 93 bc 38 dc e1 3c
       -0.02622295 0.015443651 -0.017955726 0.027570829
000320 c5 8f 01 3d 4e bb 17 bd 3c de 6d bc 51 66 1d bc
       0.03163125 -0.037043862 -0.014518317 -0.009606914
000330 52 c4 29 3c 35 2e 84 3c 2f 67 26 3d ed b5 1a 3d
       0.010361748 0.016135314 0.040625747 0.037771154
000340 33 2d fe bc b1 48 4f 3c 75 7e 01 bd 48 09 15 3c
       -0.031027412 0.012651608 -0.03161474 0.009096451
000350 be e1 af 3b 28 06 81 3c e2 4e ce bb ca 07 6f bc
       0.0053674867 0.015750006 -0.0062960247 -0.014589259
000360 6b 30 3e 3c 97 17 0a bd ae bf 04 3c 8f 7d 1a bd
       0.011608223 -0.033713903 0.008102341 -0.0377174
000370 17 78 d9 3c 3e a3 07 3d 51 75 36 bb 96 ca 25 3d
       0.026546521 0.033114664 -0.0027840922 0.040476404
000380 5f ca 8d 3c 5a e4 16 3d 00 ce 03 3c 7c fd 48 3c
       0.017308412 0.036838867 0.00804472 0.012267467
000390 a7 3b a4 bc ae 91 f1 bc 1b 5b 3a 3d 03 f6 1b bd
       -0.020047976 -0.02948841 0.04549704 -0.038076412
0003a0 47 5c 33 bd fe 4f 0b bd 74 5d b2 bc be e5 d1 bc
       -0.043789174 -0.034011833 -0.021773078 -0.025622245
0003b0 ed 90 0c 3d 4d 5b 06 3d 83 1e 0e 3d 66 7d 38 3d
       0.0343179 0.032801915 0.034697067 0.045041464
0003c0 bd c9 d4 3c 35 7e c5 bc c6 db 36 3b 43 58 49 3d
       0.025975103 -0.024108032 0.0027901991 0.04915644
0003d0 da ae 6e 3c e1 50 12 bd 93 02 dd bb 20 c9 1f 3c
       0.014568055 -0.035721663 -0.0067446916 0.009752542
0003e0 38 c2 52 3d ee 3d 83 3a b2 c2 54 3c f1 5a af bc
       0.051454753 0.0010012963 0.012985872 -0.021405669
0003f0 4e 7d ac 3c d7 a3 d1 bc 6b 09 07 bd b9 61 f3 bb
       0.021055844 -0.02559082 -0.032967966 -0.007427421

fc3.weight f4 [2, 256]
000000 e7 c0 34 bb dc 31 25 bb d1 4c df bb ae 56 13 bc
       -0.00275808 -0.002520672 -0.006814577 -0.008992834
000010 2a 27 b1 bb e3 d4 9d bb 24 71 ad 3a 9e e4 ba bb
       -0.00540628 -0.004816638 0.0013232571 -0.005703523
000020 cb f3 01 bc 85 ce 01 bc 19 4c b1 bb 23 31 16 bc
       -0.00793166 -0.007922773 -0.005410683 -0.009166989
000030 46 33 c9 bb 28 9c 03 3a 8f a1 01 bc 3d 90 ef ba
       -0.0061401455 0.00050205225 -0.007912054 -0.0018277239
000040 73 c5 f7 bb f6 f2 28 bc d3 c2 bf bb e1 e7 da bb
       -0.0075613796 -0.010311833 -0.0058520823 -0.006680474
000050 ad d3 fd bb 9c 76 6c bb 14 d1 f2 bb 9f 76 af bb
       -0.007746181 -0.003608144 -0.007410178 -0.005354717
000060 6c 31 01 bc 75 54 02 bc 77 cf 10 bc 4d cc ed bb
       -0.007885318 -0.007954706 -0.008838526 -0.0072570206
000070 71 6f 1f bc a7 94 a9 bb 49 a5 b7 bb 96 5d ee bb
       -0.00973116 -0.0051751914 -0.0056044203 -0.00727434
000080 85 ad 23 3a 43 3c ee bb 4a 16 b7 3a 0b 5f 2d bb
       0.0006243813 -0.0072703674 0.0013968435 -0.0026454355
000090 a0 f4 cf bb 85 27 06 bc 7e bc df bb a7 93 d6 bb
       -0.0063463002 -0.008188133 -0.00682789 -0.0065483632
0000a0 cf f0 fa bb e2 dd ce bb 0f ac b1 bb ef d0 02 bc
       -0.007658101 -0.0063130716 -0.0054221223 -0.007984384
0000b0 71 5f eb bb 36 55 45 39 b5 79 18 bc 15 33 19 bb
       -0.0071830084 0.00018819128 -0.009306361 -0.0023376395
0000c0 a2 80 c2 bb 61 06 12 bb 94 bb 0c bc 03 e5 d9 bb
       -0.0059357444 -0.0022281634 -0.008589644 -0.006649615
0000d0 61 7c b0 bb 13 a3 95 bb 92 e3 6a bb 80 8c d4 ba
       -0.005385921 -0.004566559 -0.003584121 -0.0016216189
0000e0 bd c9 08 bc f4 6b 1a b9 f1 45 f1 ba ba 70 ee bb
       -0.008348879 -0.000147268 -0.0018407685 -0.0072766216
0000f0 9d d6 a5 bb 2c d6 f2 b9 2d e2 c9 bb 6e 85 d0 ba
       -0.0050609843 -0.00046317407 -0.0061609955 -0.0015908906
000100 be 1b e7 bb 69 8f 0c bc be 0f 89 bb e0 a8 e3 bb
       -0.0070528677 -0.0085791135 -0.004182785 -0.0069476217
000110 16 3e 00 bc dd 06 aa bb 74 6c b2 bb 0c 97 08 bc
       -0.007827302 -0.0051888064 -0.0054450575 -0.008336794
000120 10 87 e8 ba 1a 0b 3d bb c2 ce 2b ba de e2 0e bc
       -0.0017740447 -0.0028845728 -0.00065539416 -0.008721082
000130 2b 1f a2 bb 8a 4e a4 bb 80 4b 0e bc 39 29 26 bc
       -0.004947563 -0.0050142454 -0.008684993 -0.010141664
000140 97 c6 3e bb ab b0 8b bb 95 fc 09 bc 3b 2b 69 ba
       -0.0029110068 -0.004263004 -0.008422037 -0.00088946865
000150 11 71 ec b7 09 df 81 bb 34 03 00 bc 01 c3 d7 bb
       -2.8186043e-05 -0.0039633554 -0.007813264 -0.0065845256
000160 80 e7 40 bb 22 50 c7 bb bf 49 06 bc 5b a0 fa bb
       -0.002943486 -0.0060825506 -0.008196293 -0.0076485104
000170 2d c7 6d bb cc 0b 51 3b 0d 15 e8 bb 85 4f 73 ba
       -0.0036282048 0.00318979 -0.0070825876 -0.00092815637
000180 d9 68 da bb c6 9e 06 39 50 58 ef bb 60 9f 03 bc
       -0.006665331 0.00012838384 -0.007304229 -0.008033603
000190 0e aa c7 3a 4f 23 0c bc c8 c8 8e bb bf 2a 53 bb
       0.0015233175 -0.00855334 -0.004357431 -0.0032221524
0001a0 9f 20 02 bc 31 2d 00 bc 5d 20 2f bb 3a c5 06 bb
       -0.007942348 -0.0078232745 -0.002672217 -0.0020564334
0001b0 d5 cf a3 bb 1c 5d da 3a 8f 91 88 bb cf 56 00 bb
       -0.0049991407 0.0016659829 -0.0041677426 -0.0019582992
0001c0 94 0d 04 bc 22 62 c5 bb 25 1e 03 bc 2b cf c6 bb
       -0.008059878 -0.0060236612 -0.0080027925 -0.006067177
0001d0 33 eb 03 bc eb 32 fa bb 4e 82 c6 ba d7 25 0f bc
       -0.008051681 -0.0076354644 -0.0015145035 -0.008737049
0001e0 c1 e8 29 bb 1e 26 92 bb f1 7f f7 bb f5 38 fa bb
       -0.0025926086 -0.0044601103 -0.0075530936 -0.0076361843
0001f0 93 ea 0e bc 78 26 b2 bb 0a cd 87 bb e1 19 e5 bb
       -0.008722919 -0.0054367147 -0.0041443156 -0.0069916104
000200 6f cf 99 bb 39 ad 33 bc 28 c5 3b bb 45 4d 31 bc
       -0.0046939175 -0.0109665925 -0.002865145 -0.010821645
000210 3d 49 e1 bb 50 7c 08 bc 7c a5 0e bc 33 b8 06 ba
       -0.0068751858 -0.00833042 -0.008706447 -0.0005139142
000220 f4 c5 04 bc 71 ea 49 bb 34 bf da bb 74 ef aa bb
       -0.008103836 -0.0030809904 -0.006675625 -0.0052165333
000230 bc 78 5d bb 57 6f 08 bc 8a 38 6b 3a 06 1c 80 bb
       -0.0033793887 -0.008327327 0.00089729636 -0.0039095907
000240 5d 00 ee bb d2 43 45 ba 47 f5 81 bb d2 ef 2e bb
       -0.007263227 -0.00075250596 -0.003966007 -0.0026693237
000250 0d c2 70 bb 3d 16 a6 bb 88 f5 cc bb 8b e7 f1 bb
       -0.0036736757 -0.005068569 -0.0062548555 -0.0073823384
000260 9f a8 dc bb 9c cb 11 bc c2 10 dc ba 2c ab 42 bb
       -0.0067339684 -0.008898642 -0.0016789662 -0.0029704077
000270 c9 a1 96 bb e2 e2 c8 bb 21 4b d5 bb 90 97 d7 bb
       -0.004596923 -0.006130562 -0.0065092 -0.006579347
000280 5e 89 9a bb 59 b7 15 bc bd c1 98 ba 38 09 d3 bb
       -0.0047160825 -0.009137952 -0.0011654418 -0.006440308
000290 80 46 dc bb 4d f1 0a ba fb 56 b5 bb c8 36 37 bb
       -0.0067222714 -0.0005300239 -0.0055340505 -0.0027956236
0002a0 0a b9 79 bb ed 3e aa bb 2a 55 6c 3a c1 4d f3 bb
       -0.0038104677 -0.0051954896 0.0009015376 -0.0074250405
0002b0 83 38 5d bb aa ec 33 39 b7 ac 1d bb 89 e5 f0 bb
       -0.0033755607 0.00017158934 -0.0024059245 -0.0073515815
0002c0 88 00 d6 bb 8e 45 bd bb 33 1e b5 bb fa ca cd bb
       -0.006530825 -0.005776114 -0.0055272817 -0.0062803
0002d0 90 b2 c5 bb ae 7f dc bb f7 94 a4 bb cf b5 f9 bb
       -0.006033249 -0.006729088 -0.005022641 -0.00762055
0002e0 dd df a2 bb 69 e1 85 bb ba 6f 83 bb c6 9f cf bb
       -0.0049705342 -0.004085709 -0.0040111216 -0.006336185
0002f0 24 27 f7 bb a6 b9 51 bb ed b7 f7 bb ac 7b ca 38
       -0.0075425077 -0.0032001524 -0.0075597675 9.655146e-05
000300 64 d3 cf bb b2 e1 e9 bb 3f 74 0e bc 72 9c db b9
       -0.0063423384 -0.0071375007 -0.008694707 -0.00041887496
000310 80 39 0c bc 1f 61 0d bc 18 df 66 bb 43 c0 10 bc
       -0.008558631 -0.0086291125 -0.003522819 -0.008834901
000320 67 fe ad 38 f8 cc dd bb 45 ee f4 bb 8a 05 7e 3a
       8.296669e-05 -0.006768819 -0.007474693 0.00096901564
000330 52 99 98 bb f8 a5 1c bb a2 d0 fb bb 3f bb f0 bb
       -0.004656949 -0.0023902636 -0.007684783 -0.00734654
000340 65 fe f9 bb d2 ad e3 ba 49 c7 c0 bb e4 6e d8 bb
       -0.007629203 -0.0017370528 -0.0058831316 -0.006605016
000350 fc d9 8a bb ad cf 93 bb dd 9d 01 bc 00 d8 8a b2
       -0.0042374115 -0.004510841 -0.007911173 -1.616354e-08
000360 bc ce be bb 86 c8 83 bb df f9 c4 bb 4d 99 36 bb
       -0.0058229845 -0.004021707 -0.0060112323 -0.002786237
000370 65 82 04 bc 23 98 0b bc 62 18 bf bb d1 ce 9c bb
       -0.008087729 -0.008520159 -0.005831764 -0.0047853966
000380 f2 53 f9 bb fb 0b 0f bc 4a 5e 02 bc e3 ec 25 bc
       -0.007608884 -0.008730884 -0.007957051 -0.010127279
000390 3c cb dc bb 8c 98 e6 bb fe af 27 bb 04 4e ad 3a
       -0.0067380946 -0.007037228 -0.0025587077 0.0013222103
0003a0 59 87 0a bc 20 45 f8 bb 41 50 29 3a 60 2b 09 bc
       -0.008455121 -0.0075765997 0.0006458797 -0.008372158
0003b0 d6 dd 94 3a af 24 9a bb d8 d6 1d bb ad 3a ca bb
       0.0011357616 -0.00470408 -0.0024084356 -0.0061715455
0003c0 0a c6 f2 bb fb 3a b4 bb 70 8a 2a bb af 59 02 bc
       -0.007408862 -0.005500195 -0.0026022457 -0.007955953
0003d0 9b 5a 18 bc 56 38 20 39 a9 e2 a1 bb 1b ac 1a bb
       -0.009298946 0.00015279776 -0.00494035 -0.0023601118
0003e0 ab 56 a6 bb b4 99 05 bb e6 ce 71 bb b3 a4 19 ba
       -0.0050762496 -0.0020385804 -0.0036897003 -0.0005861029
0003f0 84 52 83 bb f6 e5 0a bc 99 5a e2 bb f5 a4 20 3a
       -0.0040076394 -0.0084776785 -0.0069077727 0.0006128096

fc3.bias f4 [2]
000000 61 3f 82 bd c3 27 4c bc
       -0.06359745 -0.012460652
