projects/tennis/checkpoint/E15/E15.15_actor1_15000.pt (torch_old, 453689 bytes, 6 tensors)

fc1.weight f4 [400, 24]
00000000: 3270 b2bc d5c3 273d f5f7 43bd 68f1 06bd
00000010: c2bc 1e3d e95d 573d d558 60bd 9973 9b3b
00000020: abcf 893c 929a 493b 060b c9bc fda1 33bd
00000030: f427 563d e5fd 4cbb d668 3abd 091c e0bc
00000040: b3f4 0dbd a5f9 513c cabd 8c3c f61a 5c3d
00000050: 30e9 353d d439 0ebd f16d 3bbd e0a3 2cbc
00000060: d2cc 1ebd 545b 26bd 891d 5bbd ab39 1abc
00000070: f0a9 fabb 935d a73a d439 03bd 8473 c0bc
00000080: 00ae 5bbd 7a87 b73c ceb2 c4bc 2f32 563b
00000090: ff30 35bd 6a6e dd3c 0b60 e5bb 2633 b63c
000000a0: 96fb 53bc 1fe8 20bd 716e 57bd b44d 173d
000000b0: 7ccd c13c aef7 0abd 48b3 3bbd 6ae0 bc3c
000000c0: dba5 1d3d e331 5a3c 3e68 ed3b f1ea d93b
000000d0: 8432 c73b 8018 23bd 9053 933c 0e36 ce3a
000000e0: 80e5 68bd 017b 093d abd2 423d 9cab 4cbd
000000f0: 70da 48bd 2069 a93c 10e3 f5bc 4aae 103d
00000100: 5b07 f2bc dc52 053d 5438 143d 27c3 bc3c
00000110: 95dd b3bc cf9c 533c fc76 0e3d eb50 8d3c
00000120: 3c35 fa3b 3feb 5d3c 7b79 ff3b d5df f3ba
00000130: 1188 873c d754 b43c ead6 0a3c 54c6 0d3b
00000140: 8c67 013d e817 0c3d 8d74 f63b 2edd 47bd
00000150: 5b2c 08bd 9ea0 023d 2373 c8bb 77db a6bc
00000160: c4dd 6ebc 5dd2 1bbd 20e4 3e3d 990f 1abd
00000170: ec05 ed3c 71c9 823c ecbd 333d 55a0 06bd
00000180: 6c9b 87bc 0a64 52bd 04ae d6bc 706a 07bd
00000190: bd80 413d 70ed 313c 367a 31bd 43af 36bb
000001a0: f2d3 05bd cc9e 13bd 28b6 a6bb 6807 143c
000001b0: 5e43 cf3b a695 42bc 131d 0ebd e3db 32bd
000001c0: 2bdf 90bc 26af c33c e048 edbc 09d9 4c3d
000001d0: da86 02bd 60fb 013d 59bb 103d 5851 c03b
000001e0: 0a61 233d 4207 e2bb b927 dd3c 3c9d 4d3d
000001f0: bb3c ce3c c4b4 343d a95d 58bd 6e13 33bd
00000200: 00a6 eebb 735b 54bd d954 12bb 4fc6 493c
00000210: fa28 863c 21d2 013d 1c2e 39bc 5bfa 29bd
00000220: 1956 00bd 5d4e 133d 2d02 1cbd 9afc c93c
00000230: 1993 7bbc 950e 573d 9ed4 64bd dabe 09bd
00000240: 2633 c63a 5152 ee3c 2798 18bd c045 8a3c
00000250: 7405 31bd 2d3a b63c a636 043d 8e25 c93c
00000260: 9143 933c 1410 a8bc 4cf7 2d3d bd1d 443c
00000270: 681d 3e3d b321 83bc 87ac 3dbd f75c 62bc
00000280: 666f 1abd c416 a3ba e44e 003d da7d f4bc
00000290: 7eb3 2cbd cfe7 05bb 1bfd 30bd 5908 e3bb
000002a0: 581e 0abd 920d 55bd c711 34bd 46a5 68bc
000002b0: 1145 8d3c 0773 d63c 9e37 123c fbb2 82bc
000002c0: de9e 343c c741 1c3c a275 e13c 7893 693c
000002d0: 025f 363d d23f 16bd 93c8 24bd fa88 053d
000002e0: 2cc1 56bd 5088 19bd 25b2 803c d611 203d
000002f0: 1d40 073d 43cf 21bd 6e7c 14bb ce4d 40bd
00000300: 9133 c2ba 73bf d43c 0522 c53c 638d 11bc
00000310: c083 e3bc 3acd 26bd d8d5 353d d66e ddbc
00000320: 857a 043d 0cdc 2ebd ebb6 e3ba 6698 a5bc
00000330: 45d3 71bb 97dd 3a3d 4311 d03c ecbb e9b9
00000340: fe60 29bd b00d dcbc be10 1c3d 6668 36bd
00000350: 9df9 763c ac01 553d c8eb 41bd f4de 2ebd
00000360: 9389 493d 2e77 443d 3093 1ebc d04f dc3c
00000370: 66f3 a3ba 6cb2 c9bc 0ec5 2fbd 183b 093d
00000380: 965d 34bd e919 483c 0e5a ed3c 370f 36bd
00000390: 93aa 95bc e99b 2dbd 8fe3 adbc 49c4 e33c
000003a0: 1b1c 3e3d b0a8 bd3c 7b61 403d 203c 3b3d
000003b0: 84d3 7cbc 1538 30bd acd0 c1bc 5986 cdbc
000003c0: 528b e7bc 60e5 a53c 1604 063d 8097 f63c
000003d0: 271b ae3c 1cfa e9bc d451 a4bc 5402 df3c
000003e0: 19b0 03bd abfb 7fbc faf0 063d 503a 30bd
000003f0: e85f 993c c6da 14bd 32d2 d73c b3f8 24bd
-0.021782015 0.040958244 -0.047843892 -0.032945067 0.038754232 0.052579794 -0.054772217 0.004744005
0.016822657 0.0030762297 -0.02454139 -0.043855656 0.052284196 -0.0031279263 -0.045510136 -0.027357118
-0.03465719 0.012815868 0.017180342 0.05373665 0.044411838 -0.034723118 -0.045759145 -0.010537118
-0.03876955 -0.04061444 -0.053494964 -0.009413163 -0.0076496527 0.0012768976 -0.03203757 -0.023492582
-0.053632736 0.022403467 -0.024011042 0.003268372 -0.04423618 0.027030189 -0.0069999746 0.022241186
-0.012938401 -0.039283868 -0.05259556 0.036939338 0.023657553 -0.033927612 -0.045825273 0.023056228
0.03848825 0.013317558 0.0072450927 0.0066503217 0.00607902 -0.039818287 0.017984182 0.0015732662
-0.056859493 0.03356457 0.04756419 -0.049968347 -0.049036443 0.02068001 -0.030015498 0.035322465
-0.029544523 0.032549724 0.03618653 0.023042275 -0.021956244 0.012915804 0.03478144 0.017250499
0.0076357406 0.013544857 0.007796464 -0.0018606136 0.016544374 0.022013111 0.008474091 0.0021633105
0.03159289 0.034202486 0.007521218 -0.048794918 -0.033245426 0.031891458 -0.006117241 -0.02036832
-0.01457924 -0.038042415 0.046604276 -0.03761253 0.028933488 0.015965195 0.043882295 -0.03286775
-0.016553603 -0.051364936 -0.026206024 -0.03306049 0.047241915 0.010859832 -0.04332944 -0.002787546
-0.03267283 -0.036040112 -0.0050876327 0.009034969 0.0063251695 -0.011876499 -0.034695696 -0.04366673
-0.01768454 0.023887228 -0.028965414 0.05001167 -0.031866886 0.03173387 0.03533492 0.005869072
0.039887466 -0.006897838 0.02699648 0.05019878 0.025175443 0.044117704 -0.052823696 -0.0437197
-0.0072829723 -0.051845025 -0.0022328405 0.012315347 0.016376961 0.031694535 -0.011302497 -0.041498523
-0.03133211 0.035963405 -0.038088012 0.024656583 -0.015354895 0.05250414 -0.05586683 -0.033629276
0.0015121445 0.029091986 -0.03725448 0.016878963 -0.04321809 0.022244537 0.03227868 0.02455404
0.017976554 -0.02051548 0.04247217 0.011969981 0.046414763 -0.01600728 -0.046307113 -0.01381611
-0.037703894 -0.0012442698 0.031325236 -0.029845167 -0.042163365 -0.0020432358 -0.04321013 -0.0069284854
-0.033720344 -0.052014895 -0.043962266 -0.0141995605 0.017244847 0.026177896 0.008924393 -0.015954485
0.011024205 0.009537167 0.027521912 0.014256351 0.0445242 -0.036681958 -0.040230345 0.032601334
-0.052430317 -0.037483513 0.015709946 0.03907951 0.033020128 -0.0395043 -0.0022657174 -0.0469492
-0.0014816393 0.025970196 0.024064073 -0.008883807 -0.027772784 -0.040723063 0.04439339 -0.02703039
0.032343406 -0.04269032 -0.0017373239 -0.02021427 -0.0036899608 0.04562148 0.025398856 -0.00044581236
-0.041352265 -0.026861995 0.038101904 -0.044533156 0.015074161 0.052003548 -0.047344 -0.042693093
0.049203467 0.04796522 -0.009678647 0.026893526 -0.0012508451 -0.024621211 -0.042912535 0.03350362
-0.044034563 0.012213209 0.028973605 -0.044448104 -0.018269813 -0.042385016 -0.021226672 0.027803557
0.046413522 0.023151726 0.046967965 0.045711637 -0.015431289 -0.043022234 -0.023659073 -0.025088476
-0.028264675 0.020250976 0.03271874 0.030101538 0.021253182 -0.028561644 -0.02005855 0.02722279
-0.03215036 -0.015623967 0.032944657 -0.04302436 0.01872249 -0.03634145 0.026345346 -0.04027624

fc1.bias f4 [400]
00000000: 2758 2abe 9683 ae3c 5f2c 063e 7caf 2abe
00000010: b343 ebbd 893e ddbd 4941 8ebd 654d a8bc
00000020: 30ea 9f3d fe63 4dbe ab1a 4f3e 5e42 aa3d
00000030: 3cb9 18be 6eed 0cbe 7eef 31be 04c5 e3bd
00000040: c08c 0b3d 7a7c 773d 3116 36be 98c1 053e
00000050: 41ac 7cbd ebd6 ef3d e5f2 563e ca23 bb3d
00000060: 43e2 123e 29a9 ce3d 3a80 49be dcb2 96bd
00000070: 2e34 453e 1300 113e fd20 0b3d 2b5c 473c
00000080: 2cb8 2dbe 1ac2 25be 27d2 3a3e 50d5 0bbe
00000090: bea2 03be 27ab 043e 6b64 a4bd 796c 283e
000000a0: b3c5 00be 2994 d1bd d4e2 873c 44c2 d93d
000000b0: dcd7 06be 6803 e7bd f144 533d acab b5bd
000000c0: e935 4c3e 46ed 203d 9508 6ebd 3076 70bd
000000d0: a0cb ed3d 54a5 d13d 6f29 193e ac8a e03d
000000e0: 2272 603d 20ef 353c 9523 263c 15df bbbd
000000f0: 0ea0 2abe a96f 0d3e be01 f53d e296 12be
00000100: 5142 32be f11a dcbd 7d8c 04be fe45 c83d
00000110: 8564 283e 574c 223e 4319 1abe 6b72 85bd
00000120: 8a71 8fbd a376 bc3d 9c0e 1b3b 27f3 84bd
00000130: 553c bf3d 5584 933c bc7c 633c baf8 093e
00000140: 607c c83d e9a0 30be 767b 6b3d e3dc e2bd
00000150: 5cdc b2bd cfb6 a1bd 6451 fa3d 0065 453e
00000160: 38cc 26be d478 223e 1e85 db3d 8cb2 5f3d
00000170: 688c 5c3d 1732 21bd 65df a73d 9e2a a2bd
00000180: bd50 0fbd 42cd 2abe da7a 63bd bdbf 733c
00000190: ccc3 213e 98c5 38bc 5838 223e c885 0fbe
000001a0: d6ae c0bd 1384 06bc 726c cdbc 96c2 16be
000001b0: 5b0e 2e3e bd18 38be 1c09 1c3e a436 093e
000001c0: b9a1 cb3d 0611 0abe 7be6 063d e57f be3b
000001d0: 6747 08be 2ea9 90bc 80d6 92bd 4b8c 673c
000001e0: c988 283e 2e22 d8bd 98ea fb3d 0824 95bd
000001f0: cc78 1cbe 277a 88bc de85 12bd 0201 b63c
00000200: 951c 163d f892 933d 0cf3 2dbd bf1d 15be
00000210: 1f56 903c f813 0b3e c56f 5fbd ef51 cdbd
00000220: 0a95 233e a18e 2c3e c2ff b9bd cd18 d1bd
00000230: aa63 bb3d 127a 023e 869d 3abe e1a9 d0bd
00000240: 45bd 37be 8f82 1bbe 94e5 093e f2e9 7dbd
00000250: fd73 1fbd 8b75 38be 67ac 8b39 b621 c5bd
00000260: c965 9cbd 66c8 03be c20b c3bd 97ed fd3c
00000270: 3b44 b23c b819 a03d 7c92 0b3e a53b 253d
00000280: 17f9 d4bc 03e2 d13d 756a c63d ac0d a13d
00000290: f04e 503e 7726 593d ad8a 3e3e 44b1 913d
000002a0: a6bc 2b3e 99f6 75bd f5bc 183e d74c ae3d
000002b0: 7eba 69bd 2d09 eb3c 4c0f 603b 0959 c5bd
000002c0: 75c6 363e 9384 4e3e 1a34 eebb 771a 2dbc
000002d0: 62ce 1c3d dceb aab9 a15f a5bd a414 d6bd
000002e0: 9e20 9fbd e5d4 023d 35da 3fbe c816 5e3d
000002f0: a30d 4ebd 1378 2ebd 204e d5bb f4e6 203e
00000300: 6905 49bd a06e 123e e812 00bb a1d6 d4bd
00000310: 9c87 963b 600b e1bd d0e1 0d3d a277 14be
00000320: 5d27 dfbd 343b 7c3c 37e7 9c3d 4f17 173e
00000330: 16f1 4f3e 0fc4 2bbe 677d 213e f8a2 863c
00000340: 3e80 363e 2e07 78bc d9e2 1fbe 3769 e23d
00000350: 2417 a23d b784 dcbd b59b ea3d c703 3f3e
00000360: ee50 1cbe a058 38bd 5981 6d3d 691c d03d
00000370: 90cc bebb d4ca 1dbe 0e73 95bc 74e1 00be
00000380: d58e d4bd 6d0c 0bbe 229f 2ebe b273 403e
00000390: 13ae 00be 975b c6bd 9792 4c3d 6782 613d
000003a0: 6d98 98bd e565 3f3e 513d 15be 59d3 473d
000003b0: cc0e 313d ef70 b03d 1b36 063d 95d8 45be
000003c0: e5eb 2d3e 0f7a 243e d227 85bd 9b9d a7bd
000003d0: 2ed7 a63d 657c 1e3d 310f 333d 3991 7ebd
000003e0: 1d59 333e 3d63 183e 396b 0a3d 9983 a9bc
000003f0: e18e 73bc 4490 01bd 0703 ebbd b064 333e
-0.1663519 0.02130298 0.13102864 -0.16668504 -0.11487522 -0.10802943 -0.06946046 -0.020544717
0.078083396 -0.20057675 0.20225017 0.0831344 -0.14914411 -0.13762447 -0.17376515 -0.11121562
0.034069777 0.060421444 -0.17781903 0.13062131 -0.06168771 0.11710914 0.20991094 0.091376856
0.14344124 0.100908585 -0.19677821 -0.073583335 0.19258186 0.14160185 0.033967007 0.012167971
-0.16964787 -0.16187325 0.1824423 -0.13655591 -0.1285505 0.12955914 -0.08026966 0.16447629
-0.12575416 -0.102333374 0.016587652 0.10632756 -0.13168281 -0.112799466 0.05157942 -0.088706344
0.1994244 0.03928878 -0.058113653 -0.058706462 0.11611104 0.10236612 0.14957212 0.109639496
0.054796346 0.011104375 0.010140319 -0.09173409 -0.16662619 0.13812126 0.11963223 -0.1431537
-0.1740811 -0.10747326 -0.12944217 0.09778975 0.16444595 0.15849434 -0.15048699 -0.06515964
-0.07004078 0.09202316 0.002365983 -0.0649169 0.09337679 0.018007437 0.013884719 0.13473788
0.09789348 -0.17248882 0.05749079 -0.11077287 -0.087334365 -0.07896196 0.12222555 0.1927681
-0.16288841 0.15866405 0.107187495 0.054613635 0.05384484 -0.03935441 0.08196906 -0.07918285
-0.034989107 -0.16679862 -0.055537082 0.014877257 0.15797347 -0.011277579 0.15841806 -0.14015877
-0.09408347 -0.0082102 -0.025076125 -0.14722666 0.16997664 -0.17978187 0.1523785 0.1339975
0.099429555 -0.13483056 0.032934647 0.005813586 -0.13308488 -0.017658796 -0.07169819 0.01413257
0.1645843 -0.10553394 0.123006046 -0.07282263 -0.15280455 -0.01665981 -0.035772197 0.022217277
0.03664835 0.072057664 -0.042468116 -0.14562128 0.01761919 0.13581836 -0.05454995 -0.10025393
0.15974823 0.16851284 -0.09081985 -0.102098085 0.09149869 0.12741879 -0.18224153 -0.10188652
-0.17943294 -0.15186523 0.13466483 -0.061990686 -0.038928974 -0.18013589 0.00026640596 -0.096255705
-0.076366015 -0.12869415 -0.09523727 0.03099708 0.02176105 0.078174055 0.13630098 0.040340085
-0.025997682 0.102481864 0.09688274 0.07863936 0.20342612 0.0530152 0.18607588 0.07113889
0.16771182 -0.060049627 0.14915831 0.0851075 -0.05706262 0.028690899 0.0034188805 -0.09636123
0.17849143 0.2016776 -0.0072693946 -0.010565392 0.03828276 -0.00032600656 -0.080748804 -0.10453156
-0.07769893 0.031941313 -0.18735583 0.054220945 -0.050305974 -0.04259498 -0.0065095574 0.15713102
-0.049077425 0.14300013 -0.001954252 -0.103925 0.0045938026 -0.10988498 0.03463918 -0.14498761
-0.1089618 0.0153949745 0.07661288 0.14754985 0.2030681 -0.16774009 0.15770493 0.016435131
0.17822358 -0.0151384305 -0.1561388 0.110552244 0.0791457 -0.10767501 0.1145548 0.18653785
-0.15265247 -0.045006394 0.057984684 0.10161669 -0.0058227256 -0.15409404 -0.018243339 -0.12586004
-0.103788055 -0.13578959 -0.17052892 0.18794134 -0.12566404 -0.09685438 0.049944486 0.055056002
-0.07450948 0.18691213 -0.14574172 0.04878554 0.043227002 0.086152904 0.032766443 -0.193209
0.16984518 0.16062187 -0.06501736 -0.08184358 0.08146511 0.03869285 0.04371566 -0.062150214
0.17514463 0.14881606 0.03379366 -0.020692633 -0.014865608 -0.031631723 -0.11475187 0.17518878

fc2.weight f4 [256, 400]
00000000: 87e6 67bd 5e4d 07bd ff3c 803d f36f 073d
00000010: f150 413d a9ba 4e3d 7d3f 2e3c 92bf 823c
00000020: 43ee 1ebc c15d 5cbc e944 313c 5682 21bd
00000030: f575 58bd 5708 6abc 1447 063c 217c 113d
00000040: 2858 40bd 7126 073d 3aed 2dbd dbcf aa3b
00000050: 316c 43bc 5f15 753d 168b 19bd e615 a73c
00000060: dceb f93c 7a02 4f3c c4cb 33bc 8afd 733d
00000070: 5417 1fbd fbc9 6ebb eabe abbc 553a c03c
00000080: 4052 4b3d ba49 683d 5cbf 3dbd 2a95 5b3d
00000090: 7ecf 033d 36a3 50bc 9a19 4b3d adbb 823c
000000a0: dc5f fcbc 4ac9 c43b 3595 d8bc 2d1a 91bc
000000b0: 90d0 d5bc 267d 393c acdb 8c3c 383f 09bb
000000c0: b444 593d 31f7 2d3d c8da 9a3c c431 25bc
000000d0: 45ed 963c 1a1c 7a3d f0c0 43bc 359c 4c3d
000000e0: 7f94 6e3d e646 f63a 3167 c43c 338f 093d
000000f0: cfbb 67bd f48b 493c dc6c 3bbb 1562 1e3d
00000100: a790 803d 87ea e13c b05c 5d3d e029 8bbc
00000110: 48be 223d dd31 373d 3b75 15bd d7f2 523d
00000120: b720 1fbd 770c 513d e3c6 c8ba 445a 5cbd
00000130: 11e9 783d 82a0 533c a951 253d cbcc fdbc
00000140: df68 8b3d 096d 39bd 7632 1c3c a52e a73b
00000150: aaff 2b3d 9a1a 013d 86bf 5d3d aa72 6fbd
00000160: 1887 82bc 84cd 9e3b d1ed 603d 2b07 2c3c
00000170: b150 2c3c 2cc8 57bd be83 173d bd02 c6bc
00000180: 2552 fabc 997a b73c 5529 213d 08ad d0bb
00000190: 60e3 5a3d 4043 6abc bb08 fbbc 2b90 253c
000001a0: aa7f 9e3c d9f4 763b 7bf6 1bbd 2c9f 633d
000001b0: 4fbe b43c 72a5 183d 6988 51bc 425e 06bd
000001c0: ce33 f23c 41f7 0e3c 28ab 1fbd dc6e 4a3c
000001d0: 7296 fa3c f739 ed3b 56c2 d93c afaf 77bc
000001e0: b754 a7bc aa93 353d 915a 653d 7097 0bbd
000001f0: ed36 0a3c d0ea 123d 2b52 7f3d 87f6 243d
00000200: 3946 693c 87f6 1d3c c645 7d3d d8fd 733d
00000210: 4cf2 173c 4a92 043d 5119 1c3d 04cf 563c
00000220: 4d01 1ebd b0b7 233d 136c 2d3d c87c f6bc
00000230: d4ed aa3b c790 213d f9fe 68bd d419 0d3c
00000240: 7193 66bd 0863 153d aee9 143d 5323 03bd
00000250: 4198 083d 5bb3 1dbd 37f3 47bd 47b4 f1bc
00000260: e55e a8bb 1ddf 65bd 79a5 6abc 9527 3bbb
00000270: bbd2 863d c813 3abd 6588 80bc c7eb 10bd
00000280: deaa 753d 3747 d7bb 5ddf 803d b572 ddbc
00000290: cd04 37bd 7166 113d 2ff1 99bc 8d19 b539
000002a0: e671 8e3c 0758 3fbd 6cf7 403d ce45 73bd
000002b0: 0af6 293d 4345 153b e147 aa3c 1c34 d13b
000002c0: 8f6b 583d 4c7f 42bc 268f 90bb 56dd 083d
000002d0: dde4 513d 34e7 123d 736b b23c 9405 ccbc
000002e0: 1b7b a63b 2281 ec3c 5469 4abc a9e1 03bd
000002f0: 7f4c b63c 9d07 3a3d ef3a de39 fe15 3bbd
00000300: 0ba4 2dbd e212 e937 19c5 f3bc 35e2 46bc
00000310: 2391 0a3d c533 e3bc b5b4 be3c 33c7 5ebd
00000320: 460f e3bb faad f83c 0d18 8fbc aa3c cc3c
00000330: bc6d 453d 93a9 433d 7ebb 74bd a95d 13bd
00000340: b95c 273d b173 09bd d6b5 bdba 8e69 58bd
00000350: 3bfc 3e3d 5720 633d d29a fe3c 75bf a43c
00000360: 6c1e 72bc 854e 3a3d d5e2 583d bfb5 5b3d
00000370: c88e c23c ae5b 363d ea37 56bd 07c7 5ebc
00000380: 745c 393c 94df 7d3c 9e89 473d 6fd6 40bd
00000390: 539b 283b 6a81 423b fe33 e23c ef26 a43c
000003a0: 41f1 5fbd 8bbb a3bb e39a 25bd 948c d73b
000003b0: fb30 a3bc e848 22bd 3af4 073d c859 20bd
000003c0: 7b47 67bd b114 d53c 4324 3cbb e4a0 e838
000003d0: db67 4fbd 41c7 28bd 2df6 6dbd 678c 153d
000003e0: 027a 553d b878 2b3d e6c6 7d3d db7e 5d3d
000003f0: ee88 44bd 5538 49bd 7a48 55bc f11f e2bb
-0.056616332 -0.033032767 0.06261634 0.033065747 0.047196332 0.05047098 0.010635254 0.015960488
-0.009700361 -0.013450087 0.010819652 -0.03943094 -0.052846868 -0.014284215 0.008195657 0.03551877
-0.046959072 0.032995645 -0.042462565 0.0052127666 -0.01192765 0.059834834 -0.03748616 0.020396184
0.030507974 0.012634868 -0.0109738745 0.059567966 -0.038840607 -0.0036436308 -0.020965058 0.023465315
0.049638987 0.056710936 -0.046325073 0.05360905 0.0321803 -0.012734225 0.049584962 0.015958631
-0.030807428 0.006005441 -0.026438335 -0.017712677 -0.026100427 0.011321342 0.017194591 -0.0020942222
0.053044036 0.04247207 0.018903151 -0.010082666 0.018423686 0.061061956 -0.011947855 0.049953658
0.058247086 0.001878944 0.023974987 0.03358383 -0.056575593 0.012301434 -0.002859882 0.038667757
0.0627759 0.027577652 0.05404347 -0.016987741 0.039732248 0.044725288 -0.036488753 0.05150112
-0.03884956 0.051037278 -0.0015318062 -0.05379702 0.060769144 0.012916686 0.04036108 -0.030981442
0.06807112 -0.04527 0.009533515 0.005101996 0.041991867 0.03151951 0.05413773 -0.05845896
-0.015933558 0.0048462767 0.0549143 0.010499756 0.010517285 -0.052681133 0.036990874 -0.024171228
-0.030556748 0.022397326 0.039346058 -0.006368283 0.053439498 -0.01429826 -0.030643811 0.010105173
0.019347984 0.0037682562 -0.03807686 0.05557172 0.022063402 0.037267156 -0.01278887 -0.032804735
0.029565718 0.008725942 -0.038981587 0.0123555325 0.030589316 0.007239576 0.026581924 -0.01511757
-0.020426137 0.044330277 0.055994574 -0.03407997 0.008435947 0.035868466 0.06233422 0.04027417
0.014237934 0.009641296 0.06183412 0.059568256 0.009274077 0.032366075 0.03811008 0.01311088
-0.03857546 0.0399701 0.042339396 -0.030088797 0.0052163396 0.03944471 -0.056883786 0.008612115
-0.056292955 0.036471397 0.036355667 -0.03201611 0.033348326 -0.038501125 -0.048815932 -0.029504908
-0.0051382654 -0.05612098 -0.014321678 -0.0028557528 0.065831624 -0.04542902 -0.015690038 -0.035381105
0.059977405 -0.006569769 0.06292603 -0.027032236 -0.044682313 0.035498086 -0.018791763 0.00034542047
0.017388295 -0.04671481 0.04711096 -0.059392743 0.041494407 0.002277688 0.020786228 0.0063843857
0.05283695 -0.01187117 -0.004411596 0.033414207 0.05124365 0.035865024 0.021779751 -0.024905004
0.0050805933 0.02887017 -0.012354214 -0.03219763 0.022253273 0.045417417 0.0004238705 -0.04567527
-0.04239277 2.7784557e-05 -0.02975707 -0.012138893 0.03382982 -0.027734647 0.023279527 -0.05438919
-0.006929311 0.030356396 -0.017467523 0.02493127 0.048200354 0.04776914 -0.05974912 -0.035977993
0.04085991 -0.033557598 -0.0014473747 -0.05283504 0.046627264 0.055450764 0.031079683 0.020110825
-0.014777761 0.04548504 0.0529507 0.053640123 0.023749724 0.044521026 -0.052299418 -0.0135972565
0.011313546 0.0154952 0.048715226 -0.0470795 0.0025727346 0.0029679188 0.027612682 0.020038096
-0.054673437 -0.004996722 -0.040430915 0.0065780375 -0.019920817 -0.03962031 0.033191897 -0.039148122
-0.056464653 0.026010843 -0.0028708137 0.0001109259 -0.050636154 -0.04120565 -0.0580961 0.03651085
0.05211831 0.041863173 0.061957262 0.054076057 -0.04798215 -0.049125988 -0.013017768 -0.0069007804

fc2.bias f4 [256]
00000000: 9b17 0cbd 46e2 a7bc 2c50 70bc 28a9 dbba
00000010: dbeb 3a3d 4501 343d 4162 3c3d 2607 243d
00000020: 3e9e 2a3d 8677 de3c 8aba c1bc c7ff a13c
00000030: 2d97 963c d810 15b9 0f9c 733c bb08 313d
00000040: 3491 29bd d64f 0bbb 5b2e b23c 81f7 ff3c
00000050: afd1 ddbc 8e41 413d 9872 e23c 99e3 543a
00000060: 9831 373d 6aab 1a3d 0063 18bd c824 a63c
00000070: 660e fbbc e701 12bd 6291 10bd 8e58 363d
00000080: db2d a3bb 3d16 b93c 56eb 163d 06f6 1a3d
00000090: 38b8 c4bc 58ae 24bc 345d 2f3d 887b 82bc
000000a0: 63c4 433d 5682 2f3d 4a0a 353d 30ab 883c
000000b0: 60ca 16bc cb5e 01ba 866a 4d3d 043c 5ebc
000000c0: 24fa 18bd 28cb 27bc 673b eebc abee 20bc
000000d0: dc90 93bc 867e 0d3d 5c9c 5d3d f5f1 1fbc
000000e0: 55d1 373d e47a 15bd 4b7e fa3a 8333 d43b
000000f0: 3846 623d 0729 0e3d 1f4a 203d 1135 4e3d
00000100: bce6 3dbc a82d f83c 3c9a 513d 6d8e 693b
00000110: 26fe cebc fe0e 4a3d 63de 253d 5fc8 ddbc
00000120: e129 6b3d 8e2c 533d 7445 f23c f8af 2a3c
00000130: 11bb 17bd 36be 843c 6904 b5bc ed13 163b
00000140: 7af7 093d 8415 be3c a41c a5bc dfb2 26bd
00000150: 2bb2 7a3b 2c86 463b f84f 1c3d 4dc3 663d
00000160: fd99 28bd bd6d 673c b480 88bc ce25 00bc
00000170: d044 4fbb 267e 5a3d 1eeb 4f3d 5ea9 f9bc
00000180: 9e1d 343b d578 823c 95e4 0b3d a895 f1bb
00000190: a295 da3c 493f 453d 5197 cf3c a0bb 0bbd
000001a0: 46b5 2e3d e4f3 a23c 428e 05bd a23e 993c
000001b0: 83ac 103d 0301 51bb 68af e0bc 3668 c3bc
000001c0: 62c0 923c e30a 493d 6df8 453d 8734 33bd
000001d0: 3ef8 fbbb 380e 5c3c 84de 1ebd e820 a03c
000001e0: 085d a0bc bfb9 5b3d a5c1 083d db7b 1abc
000001f0: 090c 11bd 9d72 d03c 0764 483d a2c4 aebc
00000200: a6d8 563d 82a8 f43b 8ec0 063c 1943 f93c
00000210: 90cd e5bb 6f63 09bd ee76 d53c 2cb2 3e3c
00000220: 97d9 123d 6a4f 5a3d 3a6c b53b 26eb 373b
00000230: 4b42 553c 8026 143c 0794 493c 97d6 103c
00000240: 784c 3bbc 0fd9 1dbc a509 de3c 87f4 0bbd
00000250: 8f47 f9bc e252 c0bb d949 093d 5eda efbc
00000260: be14 343d 16c3 4e3c ff09 ac3b e35a 123d
00000270: 0bec c53c 06d5 24bc 5824 1f3c df4d 1cbd
00000280: ba2e e73c c24e bf3c 2a50 b23c d6ea 8abc
00000290: a422 61bc e682 22bd ccd5 20bd 76bb 213c
000002a0: c7a3 d7bc 9cac 7abc 5cde 43bd e975 37bd
000002b0: 0091 523d 2e30 b9bc fd9c 263d a368 a6bc
000002c0: 07b6 373b 825c 8cbc 6f9a 4c3b ae69 3cbc
000002d0: 3f6a 553d 0fde 47bd e47c a73b 9ec6 30bd
000002e0: a130 9d3b 4805 183d d963 0dbb f219 5e3d
000002f0: 429a afbc 1f99 043c 59fd bfbc 4057 3a3d
00000300: 4c72 4c3d 0510 1bbd e841 9abc fe35 963c
00000310: 9f3a 16bd 8063 1c3d 6174 0abc 568c 14bc
00000320: 90e0 45bc 1918 393d e168 8b3c 7fed 253d
00000330: 64f4 ebb9 88e2 e5bb 49a7 b43c 4311 5b3d
00000340: 33ef 3a3c c473 a53c 4f0b efbc 3136 dc3c
00000350: 0658 f9b9 6080 603d 88a8 513c 5d83 6d3d
00000360: 1fef d23c a398 433d bede a03c 2daf d43a
00000370: a1c2 47ba 5677 8abc 0ea2 273d d468 243d
00000380: be5b 44bb 8b64 fc3c eb4b 2a3c cc44 083d
00000390: 7002 eabc 1ad1 e33c 4406 4b3c 632c f33b
000003a0: 2d94 1fbc 27b9 793b 0999 eebc 583e a6bc
000003b0: 682e ab3c 9b2a 333d 3ea7 263c e079 ed3c
000003c0: 1998 0fbc 89af f9b9 c3e4 81bc 001b 1e3d
000003d0: eb8a 603d a706 42bb 1612 653d ef16 f93c
000003e0: c1cc 663d 802c a8bc 549a 413d 9a64 1cbd
000003f0: 9d4a 09bc aa89 683b 397d 24bd e5f5 bb3c
-0.0342022 -0.020493638 -0.014667552 -0.0016758787 0.045635086 0.043946523 0.04599214 0.04004588
0.041654818 0.027156603 -0.02364852 0.019775284 0.018382633 -0.00014216022 0.01486875 0.043221217
-0.041398242 -0.0021257303 0.02175062 0.031245949 -0.027077524 0.04718166 0.027642533 0.0008121073
0.04472503 0.03776113 -0.03720379 0.02028121 -0.030646514 -0.035646345 -0.035294898 0.044518046
-0.0049798316 0.022593612 0.036845528 0.037832282 -0.024013624 -0.010051332 0.042813495 -0.015928045
0.04779471 0.042848907 0.044199266 0.016683191 -0.009203523 -0.0004935085 0.050150417 -0.0135641135
-0.037347928 -0.010241307 -0.02908106 -0.009822528 -0.01801341 0.03454449 0.054104194 -0.009762277
0.04487737 -0.03649415 0.0019111125 0.0064758672 0.055242747 0.034707095 0.039133187 0.050343577
-0.011590656 0.030295208 0.05117248 0.003563787 -0.025267672 0.049330704 0.040495288 -0.027073083
0.057412986 0.051556163 0.029574133 0.010417931 -0.037043635 0.01620398 -0.02209683 0.002290006
0.033683278 0.023203619 -0.020155258 -0.04069793 0.003825317 0.0030292375 0.0381622 0.056338597
-0.04116248 0.014125285 -0.016662933 -0.007821513 -0.0031626709 0.05334296 0.050761335 -0.030476268
0.0027483474 0.015926758 0.03415354 -0.0073725767 0.026682679 0.048156057 0.025340708 -0.03411448
0.042653345 0.019891687 -0.03260637 0.018706623 0.03532077 -0.0031891472 -0.02742739 -0.023853403
0.017914 0.049082648 0.04833262 -0.043751266 -0.007689505 0.013431124 -0.038786426 0.01954694
-0.01957561 0.05364394 0.0333878 -0.0094289435 -0.03541187 0.025445277 0.04892352 -0.021333996
0.052452706 0.0074663768 0.00822462 0.030427502 -0.0070130304 -0.033542093 0.026057687 0.011639159
0.03585204 0.05329839 0.0055365833 0.0028063743 0.013016294 0.009042382 0.012303359 0.008840225
-0.011431806 -0.00963427 0.027104208 -0.034168746 -0.03042963 -0.0058692554 0.033517692 -0.02927893
0.043965094 0.012619754 0.005250215 0.035731208 0.024160406 -0.010060554 0.009713255 -0.0381602
0.028220523 0.023352984 0.02176674 -0.016957682 -0.013741169 -0.039675616 -0.039266393 0.009871354
-0.026323212 -0.015299942 -0.04781948 -0.044790182 0.051407814 -0.022605982 0.04067706 -0.020313567
0.002803208 -0.017133955 0.003121998 -0.011499805 0.052103277 -0.048795756 0.0051113237 -0.043158166
0.004797057 0.03711441 -0.0021574406 0.054223962 -0.02143586 0.008093148 -0.023436235 0.045493364
0.04991369 -0.037857074 -0.018830255 0.018336292 -0.036677 0.038180828 -0.008450598 -0.009066662
-0.012077466 0.045188997 0.017017784 0.040509697 -0.00045004778 -0.00701553 0.022052424 0.05348326
0.011409569 0.020196803 -0.029180197 0.02688131 -0.00047558564 0.054809928 0.012796529 0.057986606
0.025748787 0.047752988 0.019637462 0.0016226523 -0.00076202495 -0.016902607 0.04092603 0.040139034
-0.002996191 0.030809661 0.010394077 0.033268735 -0.028565615 0.027809668 0.012391631 0.007421063
-0.009739918 0.0038104744 -0.029125707 -0.0202934 0.020896152 0.043741804 0.01017171 0.028988779
-0.00876429 -0.00047623765 -0.015856152 0.038599968 0.054819982 -0.0029606016 0.05592545 0.030406443
0.056347612 -0.020529032 0.04726632 -0.03818188 -0.008379606 0.0035482445 -0.040158484 0.0229444

fc3.weight f4 [2, 256]
00000000: 0663 ca3b 7b9e e2bb a568 1e3c dc52 11bc
00000010: 22e4 b0bb 3aa1 84bb 4773 29bc ad4e 63bb
00000020: 571f 17bc 8556 8ebb d23b 5cbb b59d 0a3c
00000030: c6c1 f6bb 85b6 86bb 1159 6cbb a097 e1ba
00000040: 60d5 0cbb 2c2f ebbb c340 e73a 6c44 15bc
00000050: a34e acbb a205 20bb 3c92 dbbb 0158 9abb
00000060: 989a 7dbb 5802 a33a 8df4 04bb a58a 6e3a
00000070: 6537 0ebc 9c0f 21bc 6de8 88bb fc84 02bc
00000080: e619 eebb 7cc1 d4bb 4095 15bc f979 25bc
00000090: ec79 3d3b f87c 44bc 1f50 fdbb a9fb 13bc
000000a0: 6fc2 2cbb afa4 85ba a443 31bc ef93 29bc
000000b0: 5a94 c5bb 8045 e6ba fdaf f3bb 6c84 14bc
000000c0: 28ae b5bb 277a abbb 22e7 983a b895 263a
000000d0: a15f 15bc db0f a7bb 2ef8 15bc 0cad 65bc
000000e0: 31c9 37bc a406 b8bb b05d eebb 6a64 e8bb
000000f0: 81cf f9bb 2213 8cbb f428 b7bb a036 d53a
00000100: c125 95bb 1c65 b43b 09ca 9ebb 0daf 1a3b
00000110: 1781 e9bb b62f 103a 3c9d 0abc 7faf ebbb
00000120: 801b a3bb eb78 af3a cd5c efbb ade3 debb
00000130: 566c d9bb c95b 2cbc c47e 03bc d00b 11bb
00000140: e75e edbb 6ae0 05bc 885f 00ba 8b8b c0ba
00000150: cc48 0bbc b630 b3ba 3d78 84bb 2d74 edbb
00000160: 282c 233c 3cd3 68bb 9b02 29bb 2a9b c3bb
00000170: 05a1 9f3a abe3 e43b 74fd dcbb a50e bcbb
00000180: f419 31bc d7a6 0bbc dd18 08ba ef21 bfbb
00000190: 394c fcbb 93a7 dfbb 869f 98bb 5a38 f1ba
000001a0: 7aef cabb 2bfa ecbb 228b 36ba a298 193b
000001b0: 0811 c3bb 2283 a1bb 0e3b 3d3a e23e d13b
000001c0: 0d82 1cbc a378 07bc 1f7d 87bb c311 443b
000001d0: a473 16bc bc91 e4bb 319e 63bc 270b e83a
000001e0: e16f e7bb 889d a2bb 82d2 8fbb ffff af3a
000001f0: bd8a 3fbb 2cbc 933a 893f ddba 8fd1 1abc
00000200: 2666 03bc f3f7 edbb e3a2 f5bb 661b fb3b
00000210: 6cd6 01ba c616 a0bb bcc9 fbbb 319d d2bb
00000220: c04e e4bb 3688 0bbc 1453 e7ba d819 043a
00000230: 44ba b7ba 3cfc c6bb ec74 98bb 48b9 25bc
00000240: e11f 083c 7053 0f3c d24d f3ba 81f7 abbb
00000250: bee3 883b b781 97bb 8db3 a4bb 1b32 abbb
00000260: 7d21 e3bb d5f3 a4bb 1ccb 20bc 3c58 ccbb
00000270: 1681 0cbc b8e4 cfbb cb78 50bb 3770 a83b
00000280: 33c6 0cbc 2bed f6bb d101 bebb 80f6 bc3b
00000290: 2caf 263a 932e 2bbb 9545 e73a 2268 25bb
000002a0: 71fa 06bc f35c f2bb 5408 d1ba f555 163a
000002b0: b4d1 85bb 11d8 fbbb f19c 0dbc cbf9 edbb
000002c0: a65c 11bb 80b7 3cbc 0f71 e7bb 0ada f838
000002d0: f3b2 aabb 7547 9a39 d75a fabb c00d fbbb
000002e0: f52c a9bb db9f e7bb 6535 31bc f2a4 cdbb
000002f0: 16e8 c2bb 3091 60bb f4a7 f9ba 2915 ecbb
00000300: 956e c7bb b485 c0bb 0978 f5bb ac64 00bc
00000310: 0082 25bc 5357 223c 9780 afbb 855b 25bc
00000320: f47e 603b 58d2 c6bb 537f 02bc 83ef dabb
00000330: ffab a33a bc3b 363c e0ad 5c3a 9b0b 6abc
00000340: 3a1f 0a3b 99c8 3cbc e477 05bc 0fbe 0bbc
00000350: 2af0 bbbb 315c 03bc 7548 16bc 37de 04bc
00000360: f1b2 973a d58b bd3b 42b5 3bbc 2d9e 0db9
00000370: d54e 55bb 5401 12bc d9be c5bb 11cf 3bbb
00000380: 449c f7bb f0f9 0fbc 91b3 97b9 a1f1 84bb
00000390: 2530 bdbb 2246 97ba f3c8 cdbb 3ada 9cbb
000003a0: 0c4a e2bb f49f 223b 590d edbb a717 18bc
000003b0: 2e69 11bc 8e5c f5bb b1cb 4fbb 0a2c 1b3c
000003c0: 6d17 d0bb 0e09 19bc ea95 b73b 2832 e9bb
000003d0: f799 aabb cbc1 e73a 6a7e 3dbc 599f efbb
000003e0: 78d4 d1bb 5afb 6838 bc5d dabb 2765 9cbb
000003f0: 39ac f2bb 3f73 fabb ec18 68bb 4e2d 473c
0.0061763553 -0.006915865 0.009668504 -0.008869853 -0.0053982893 -0.00404754 -0.010342426 -0.0034684346
-0.009223781 -0.00434381 -0.0033604992 0.008460452 -0.007530424 -0.0041111135 -0.003606383 -0.0017211325
-0.0021489486 -0.007177254 0.0017643202 -0.009110551 -0.0052583977 -0.002441742 -0.006700782 -0.004710198
-0.0038696881 0.0012436612 -0.0020287365 0.0009099639 -0.008680199 -0.009830382 -0.004178098 -0.007966276
-0.007266271 -0.0064927917 -0.009129822 -0.010099881 0.0028911782 -0.0119926855 -0.0077304984 -0.009032168
-0.0026361009 -0.0010196174 -0.010819349 -0.0103502115 -0.006029648 -0.001756832 -0.007436751 -0.009064775
-0.0055444427 -0.0052330676 0.0011665563 0.00063547073 -0.009117038 -0.0050983257 -0.009153409 -0.014018308
-0.011217401 -0.005616026 -0.007274352 -0.0070920484 -0.0076236133 -0.0042747417 -0.005589599 0.001626689
-0.0045516198 0.0055052172 -0.004845862 0.0023602874 -0.0071259844 0.00055002735 -0.008460339 -0.0071925516
-0.0049776435 0.0013387477 -0.007304764 -0.0068020434 -0.006635229 -0.01051993 -0.008025829 -0.0022132285
-0.0072439793 -0.00817118 -0.0004897048 -0.0014690025 -0.008501243 -0.0013671133 -0.004042654 -0.0072465152
0.009959258 -0.0035526296 -0.0025788906 -0.0059694247 0.0012178725 0.006985148 -0.006744081 -0.0057390505
-0.01080941 -0.008523664 -0.0005191693 -0.0058329026 -0.007699516 -0.0068253963 -0.0046576886 -0.0018403635
-0.0061930986 -0.007231971 -0.00069634814 0.0023436924 -0.005952958 -0.0049289623 0.00072185777 0.00638567
-0.009552491 -0.008268508 -0.0041347886 0.0029917813 -0.009182844 -0.0069753807 -0.013892696 0.0017703519
-0.0070628976 -0.004962627 -0.004389108 0.0013427733 -0.0029226982 0.001127129 -0.0016879897 -0.009449377
-0.00801996 -0.007262224 -0.0074962243 0.0076631783 -0.0004952911 -0.0048855273 -0.0076839607 -0.00642743
-0.0069673955 -0.008516362 -0.001764866 0.00050392514 -0.0014017303 -0.006072549 -0.00465261 -0.010114975
0.008308382 0.00874792 -0.0018562621 -0.0052480106 0.0041775396 -0.0046236175 -0.005026287 -0.005224479
-0.0069314823 -0.00503395 -0.00981405 -0.0062361043 -0.008575698 -0.006344404 -0.003181028 0.00514033
-0.008592176 -0.007535597 -0.0057985564 0.00576669 0.00063585 -0.002612029 0.0017644638 -0.002523907
-0.008238421 -0.0073963343 -0.0015947917 0.00057348545 -0.0040838365 -0.007685669 -0.008643375 -0.0072624437
-0.0022180467 -0.011518359 -0.007063038 0.000118661745 -0.0052093207 0.0002942641 -0.0076402235 -0.0076615512
-0.00516283 -0.007068617 -0.010815953 -0.0062757665 -0.005948077 -0.0034266226 -0.0019047246 -0.007204671
-0.0060861805 -0.0058753137 -0.007491116 -0.007836502 -0.010101795 0.009908515 -0.0053559053 -0.010092621
0.0034255357 -0.0060675554 -0.007964927 -0.006681384 0.0012487172 0.01112264 0.00084182434 -0.0142849935
0.0021075741 -0.011522436 -0.00814626 -0.0085292 -0.005735417 -0.008017586 -0.009172549 -0.008109621
0.0011573714 0.0057844915 -0.011456789 -0.00013505733 -0.0032548208 -0.008911449 -0.0060347137 -0.0028657357
-0.00755647 -0.008787617 -0.00028934752 -0.0040571247 -0.0057735615 -0.0011541287 -0.0062800585 -0.004786757
-0.0069057997 0.0024814578 -0.007234257 -0.009282983 -0.008875174 -0.00748784 -0.0031707103 0.009470949
-0.006350449 -0.009340538 0.005602588 -0.007116575 -0.0052063423 0.0017681656 -0.011565784 -0.007312697
-0.006403502 5.55472e-05 -0.006664006 -0.0047728005 -0.0074057844 -0.007643133 -0.0035415245 0.012156798

fc3.bias f4 [2]
00000000: b3e4 02bd 59cc 373d
-0.031956386 0.044872615
