projects/tennis/checkpoint/E15/E15.16_actor0_15000.pt (torch_old, 453689 bytes, 6 tensors)

fc1.weight f4 [400, 24]
00000000: 3c0f 01bc 0558 2d3d e004 4fbd 1053 64ba
00000010: b9eb a23c 9d8f 1b3d ae8c 01bd dab7 0dbd
00000020: 2516 2b3d 6ce7 38bd dc5d 05bd 23b5 bcb9
00000030: a076 c23c b702 33bd b306 813c 4b9f 303d
00000040: 30ce f93c 21a6 16bc 83aa 89bc 5016 4a3d
00000050: 1900 353d 1394 20bd bab7 143d 526a 0f3d
00000060: 6ba5 ef3c 61ae 30bd e2d2 533d b9fc 26bd
00000070: fee1 82bb 490f b93c 227d 7e3c c032 4abd
00000080: 65d2 1ebd 8c0b 873c a9e7 993c 58c2 b23b
00000090: 506e 313d b623 40bd 01e2 b13c 78ee 1abd
000000a0: 363e 11bc f402 aabc bf63 f6bc 2224 3e3c
000000b0: d852 493d 4098 bcbc 3a7d 10bc f76b 433d
000000c0: 084a e73b 1573 4abc f149 1fbd eab2 13bd
000000d0: 86e3 1f3d fb80 083d 3fb1 e8bc 9037 833b
000000e0: 5267 37bd c588 1a3d 564b a5bc 7ebc c1bc
000000f0: 49c3 ed3c 3e14 4a3c c11b fbbc 833e 09bd
00000100: 3d55 0e3b b771 3dbd 6444 b43b 0586 9a3c
00000110: b97a 463d af9b 31bd 2cf5 48bd 8521 e43c
00000120: 535a 1dbd 974b 3a3b 0948 993b 9947 46bd
00000130: 4f55 3bbd c0aa 8f3b 1f9c c7bc 85e0 1c3d
00000140: c62d f2ba 8b31 a8bc de8b adbc a2d9 3ebd
00000150: da29 acbc fdc8 ee3c 3443 8eba 3ecf 2abd
00000160: 6c4d 093c 04b0 4abd 20f4 f73c 73f8 4ebd
00000170: 84dd 113d 53ac e6bc 34d8 813c c1df 393d
00000180: 431d b6bc 0ff8 29bd f1a9 fb3c a4ba 9dbb
00000190: 376d b53c 5109 0a3c 89c9 2e3c 584b 093d
000001a0: f56a c93c 7513 26bd 7057 4e3d 06ec bebb
000001b0: a80c 9a3a f3cb 0f3d e18b 3abd aed5 413c
000001c0: 13b6 483b 9c8e c7ba 4afe 0bbd 2a97 223d
000001d0: 64c4 c0bb 8319 b9bb b7f1 9a3c 6f95 0dbd
000001e0: e60e 54bd 7381 053d 6b55 0ebd 2e51 16bd
000001f0: fe7d 753c 2f46 3abd e23a a33b fba8 303d
00000200: a759 9fbc 0e64 54bd 392f 9a3c 9443 073c
00000210: cd27 e83c 583c 843c 8e2f 803c 2621 1bbd
00000220: 8705 bebc d849 df3a b3b0 d23c 3b3d b23c
00000230: c274 943c 3c5c 253d f3dd 34bd 4e65 4a3c
00000240: d95e 38bd 51e7 d93c 99cf 49bd c523 bcbb
00000250: d7f7 b13c 4778 b5bb 8513 0bbd 29fe 3f3d
00000260: 2196 d23c 583f 6bbc 4304 dabc 84da 3ebd
00000270: 5f68 3f3d e68f 1d3d 2776 f5bb 22c1 fdbc
00000280: f883 183d d631 79b9 028b c53b 05a4 353d
00000290: 20a2 6a3c 06ca 73bc ba6d 1ebd 124e b13c
000002a0: b5e8 3c3c cb44 1ebd 74de f53b afd6 f1bc
000002b0: 7874 53bd bcac 8cbc 892e 2bbc 6f4a 91bc
000002c0: 78a2 e33b 3129 213b c0a7 403d 3cfb 28bd
000002d0: 5472 733c 19d7 b43c e6d9 a93c 0088 143d
000002e0: 8359 b6bc 9c56 54bd 1df3 1fbd 86c7 d43c
000002f0: 9ce5 46bd f3a3 93bc 6fd3 d5bc c437 223c
00000300: ebd2 c3bc bc9c 103d 0b4e 98bc 2186 253d
00000310: e73d 513d 629a b8bc 04c5 183d 1206 27bd
00000320: 8c21 d0bc 720f 1e3b 00ae cc3c ee99 cabc
00000330: 626e 473c 1596 47bc 0841 0d3d 7628 233d
00000340: d9bc 0fbd 560f b9bc a6fb 6fbc 32a4 aa3b
00000350: f4a8 14bd 425c f63c f622 f93a 9f68 87bc
00000360: c459 57bc 00d2 0fbd 88ad 9c3c 572c 95bc
00000370: c01e 3fbd f874 dd3a f871 a93c d867 d8bb
00000380: 151a 753c 5fb2 a93c e45b 43bd a416 9a3c
00000390: 0293 3abd a054 b23c e566 653c 4754 523c
000003a0: 8799 d33a b24e dcbc b7c1 d7bc d970 4aba
000003b0: d2c7 2f3d f886 35bc 8795 c4bc f0d5 0f3d
000003c0: 4e7f 88bc ae12 d2ba 3092 21bb 2c37 45b8
000003d0: b902 893c 8285 54bc 3dcf 00bd 184a 24bd
000003e0: 8465 b83c ec46 3abd daf6 3d39 c9c4 143d
000003f0: 1842 10bd 130c 21bd f878 32bd 7283 bdbc
-0.007877167 0.04232027 -0.05054176 -0.0008709887 0.019887792 0.037978757 -0.031628303 -0.034599163
0.041769166 -0.045142576 -0.032560214 -0.00035993112 0.023738205 -0.04370376 0.015750265 0.043120664
0.030493826 -0.009194882 -0.01680494 0.049337685 0.044189546 -0.039203715 0.036308028 0.035013504
0.029253682 -0.04313505 0.051714785 -0.04076836 -0.0039942255 0.022590296 0.015532764 -0.049364805
-0.038774867 0.016484998 0.018787222 0.0054552965 0.043318093 -0.046909057 0.021714212 -0.037825078
-0.00886493 -0.020753361 -0.03007686 0.011605294 0.04915127 -0.023021817 -0.008818919 0.047710385
0.0070583858 -0.012356539 -0.038888875 -0.036059298 0.039035343 0.03332613 -0.02840483 0.0040044263
-0.04477627 0.03772809 -0.020177525 -0.02364945 0.029023783 0.012333928 -0.030652883 -0.03350688
0.0021718286 -0.046251025 0.005501317 0.018862734 0.04845688 -0.043361362 -0.04906194 0.027848015
-0.038416218 0.0028426403 0.0046777767 -0.048408125 -0.045735653 0.0043843687 -0.024366437 0.038300056
-0.0018476776 -0.020531436 -0.021184858 -0.04659427 -0.02101605 0.029148573 -0.0010853768 -0.041701548
0.008380275 -0.049484268 0.030267775 -0.05052991 0.035611644 -0.028158342 0.015850164 0.045379404
-0.02223075 -0.041496333 0.030720683 -0.004813509 0.022146804 0.008425073 0.010668167 0.03351912
0.024587134 -0.0405459 0.050376356 -0.005826476 0.001175304 0.03510661 -0.045543555 0.01183073
0.0030626103 -0.0015224996 -0.034178056 0.039694943 -0.0058827866 -0.005648793 0.018914087 -0.03456634
-0.05177202 0.032594156 -0.03474943 -0.036698513 0.014983652 -0.04547709 0.0049813846 0.043129902
-0.01945193 -0.051853232 0.018821346 0.008255858 0.028339291 0.016142055 0.015647676 -0.03787341
-0.023195995 0.0017035557 0.025719022 0.021757713 0.01812208 0.040371165 -0.04415698 0.0123532545
-0.04501233 0.026599558 -0.049270246 -0.0057415687 0.021724625 -0.00553802 -0.033954162 0.046873245
0.025706353 -0.014358364 -0.02661336 -0.04659511 0.046730395 0.03846731 -0.0074908915 -0.030975882
0.03723523 -0.00023765056 0.006028534 0.044345874 0.01432088 -0.014879709 -0.038678862 0.021643672
0.011530091 -0.038639825 0.007503325 -0.029521314 -0.051624745 -0.01717221 -0.010448107 -0.017735688
0.006946858 0.0024591202 0.04703498 -0.04125522 0.014858801 0.022075223 0.020733785 0.036262512
-0.02225948 -0.05184041 -0.03905021 0.025974046 -0.048558816 -0.018022513 -0.026101796 0.009900991
-0.023904284 0.035305724 -0.018591901 0.04041112 0.051084425 -0.022534553 0.037297264 -0.040777273
-0.025406621 0.0024118093 0.024985313 -0.024731603 0.012172313 -0.012181778 0.034485847 0.03983351
-0.03509221 -0.02259032 -0.0146474 0.005207562 -0.03629394 0.030073289 0.0019007612 -0.01652938
-0.01314396 -0.03511238 0.019125715 -0.01820962 -0.046660185 0.0016895821 0.020684227 -0.006604176
0.014959832 0.020714937 -0.047695056 0.018809624 -0.045550354 0.021768868 0.014001583 0.012837476
0.0016143777 -0.026892994 -0.026337488 -0.0007722504 0.042915173 -0.011079542 -0.023997081 0.035116136
-0.016662266 -0.0016027295 -0.0024653785 -4.7019843e-05 0.016724931 -0.012971284 -0.031447638 -0.040109724
0.022509344 -0.045477793 0.00018116404 0.03632048 -0.035219282 -0.039318155 -0.043572396 -0.023133967

fc1.bias f4 [400]
00000000: 3f81 94bd 593b bfbd 8158 9abc cb09 e63d
00000010: d7e0 3cbe c5d6 a43b fd33 283d 70b5 33be
00000020: ed52 293e 346d b73d 60fa eb3d 7b9a 4b3e
00000030: 7842 9bbc 60d7 43be 735f 8e3d e0a3 d2bd
00000040: 3dba 4fbe 184b 51be e1e4 a53d 5426 023e
00000050: 3d49 c33d edb8 1cbe 6cf0 22be f750 a7bd
00000060: 9f87 6b3d b0d0 8dbd d190 8d3d 9caf 413d
00000070: 95dd 4abd d00a ccbd 45ef 563d 90b0 083c
00000080: 1788 83bc db4f 2dbe d617 05be 4ddd c13d
00000090: e9b0 6ebd 5e7d cbbd ec24 c63d aab2 e63d
000000a0: 7252 4d3e f656 bebd 419f 4d3d 55d8 083e
000000b0: 9d92 d73d c6df a2bc fda8 9bbd 2c5e 2c3d
000000c0: e68c 403e ccd5 20be 4761 0c3e 181d 4cbe
000000d0: 7b42 84bc b8d6 44be 89b5 873d 3ccd 1f3d
000000e0: e896 4b3e df3f 91bd f310 6fbd 421f c83d
000000f0: 68ab 523d aaeb fa3d 2fc2 ecbc ad1e 0a3e
00000100: 68f3 adbd 7b72 2cbe c710 ccbc c927 babd
00000110: 5d3f 463e c729 953c ac20 86bc 6d0d ac3d
00000120: f222 e8bd 2054 e53c b077 f0bd ce9f 23be
00000130: e04e 0c3e 0347 453c da0c 313e 1188 9dbd
00000140: 9b32 233d 75f5 1dbd f86c 863d 118d 2dbe
00000150: 97c2 00be 57ca 083e d24f 58bd 2e3d c5bd
00000160: 3df4 8f3d d579 aabd 8b29 2cbe aebd 163e
00000170: 4031 1f3e d795 263e 602c 47be 59f2 c5bd
00000180: 39b2 f33c 3dd5 9abd 3477 f53c aaf1 f2bd
00000190: 7a65 21be c7f7 343e e75f 333e b73b 093e
000001a0: c159 0fbd df78 abbc 3df1 8f3d cc47 1ebe
000001b0: deee 4d3e b309 0abe dacf e53d 310f 87bd
000001c0: 0bb6 493e 0ee4 cd3d cf4d 13be a50c bfbd
000001d0: 40dc ccbd 83f8 293e af7e 1bbe 8716 b13d
000001e0: f624 15bd 3583 edbd 8e42 89bd b8d8 19bd
000001f0: 93f1 9d3d 4cf0 51bd 4ccb 4bbe 2926 273c
00000200: e9cc 35be 4b98 783d c95a 443e 74c8 ecba
00000210: 2b61 48be 3d19 023d 38a9 6cbb 7eb4 30be
00000220: e150 bf3d 9cee 23bc d313 cebd d047 4dbe
00000230: 0cbe a83c 0653 3fbe 73f2 463e 7504 17bd
00000240: 8d0a a0bd fc44 e03d 8806 303d d1d9 063e
00000250: 24b0 483d 8f4b 253e f322 f6bc 1f8a 473e
00000260: b0a6 243d 48cf 1fbe f21a 223e e63b d63d
00000270: 859a 3dbe 889c 2ebe c8b8 70bd 3de6 86bd
00000280: ef80 3e3d 47d8 2cbd d505 8e3d ce23 b63c
00000290: c7de 0aba 13f1 20be acbc d33d cf26 1c3e
000002a0: 2f2e e03d 2a09 2b3d 40e7 a83c 35d5 963d
000002b0: 9c69 77bd 4efa 1f3e fb47 2cbe 5d58 a8bc
000002c0: 356b 273d f837 efbd b513 1dbc 8abc 463d
000002d0: 1f95 0ebc e595 3a3e 6c54 ff3d 0553 d13c
000002e0: 33c9 cf3d 8491 3e3d 55fc ffbc fa8b 453e
000002f0: 3c47 3f3d 5a15 0a3e 1ec6 be3d 1abd e33d
00000300: 9986 febd 088b dfbc 17ee 0cbe 9af8 043e
00000310: e722 013d e4cd c8bd 5e01 b9bc f0ad 35be
00000320: 9b95 183d 4460 c93d a5a3 49be e58d a83d
00000330: 7778 363d 5309 933d 9386 d03d 3e70 2cbe
00000340: 3db9 80bc 0c01 463e 7ff3 1ebe 9e4e 1c3e
00000350: d15a a7bd 870e e53d 5478 223e 95a3 423e
00000360: 4838 dc3b b80c 30be 8de5 25bd 5acb 553d
00000370: f2cc b2bd 29c4 8cbd 9b21 3dbe 0112 22be
00000380: fcc7 4fbe 12b9 2e3d 7f4e c73d 1e0d ddbd
00000390: 8b82 f63d d050 2e3d a38e 473e e911 e83d
000003a0: 3f44 c8bd a319 173e abee 01be ba0c bfbd
000003b0: c205 373e d19d 4a3e 2166 833c fbc4 37be
000003c0: 93b0 5c3b 90e1 473e 5131 debc 0244 15bd
000003d0: 4f2e 1bbe e142 113d e94d 47bd fa62 ebbd
000003e0: 018b 373e eb48 353e 4e86 863d d807 55bd
000003f0: 4977 663c 8418 32be 56de 0b3e a05e 2fbe
-0.07251214 -0.093374915 -0.01884103 0.112323366 -0.18445145 0.0050304853 0.041065205 -0.17549682
0.1653554 0.08956376 0.115223646 0.19883148 -0.018952593 -0.19125128 0.06951799 -0.10285163
-0.20285888 -0.20438802 0.08100296 0.12709934 0.095354535 -0.15304919 -0.15912026 -0.0816974
0.057502385 -0.069245696 0.06912387 0.047286615 -0.049527723 -0.09963 0.05247428 0.008342877
-0.016056104 -0.16924994 -0.12997374 0.09466038 -0.058274183 -0.09936021 0.09675011 0.11264546
0.20050982 -0.0929393 0.050200704 0.13363774 0.10526011 -0.019882094 -0.07600591 0.042081997
0.18803748 -0.15706557 0.13708983 -0.19932973 -0.016144982 -0.19222534 0.06626422 0.039014086
0.19881785 -0.070922606 -0.058365773 0.09771587 0.051432997 0.122519806 -0.028901188 0.13488264
-0.08493692 -0.16840546 -0.024910344 -0.0908962 0.19360109 0.018208398 -0.016373001 0.08400998
-0.1133479 0.027994215 -0.117415786 -0.1597893 0.13701963 0.012040856 0.17290059 -0.07691968
0.039843183 -0.038564164 0.06563753 -0.16948344 -0.1257423 0.13358437 -0.052810498 -0.0963081
0.07029007 -0.08324019 -0.16812722 0.14720795 0.15546131 0.16268097 -0.19450521 -0.09665365
0.02974807 -0.07560203 0.029964067 -0.118625 -0.15761366 0.17672645 0.17517053 0.13401686
-0.034997705 -0.02093166 0.070284344 -0.15457076 0.20110652 -0.13480262 0.11221285 -0.065946944
0.1969835 0.100532636 -0.1438515 -0.09328584 -0.10002947 0.16598706 -0.15185045 0.08646875
-0.0364122 -0.115972914 -0.067021474 -0.037560195 0.07712092 -0.051254556 -0.1990177 0.010201969
-0.17753948 0.060692113 0.19175257 -0.0018065111 -0.19568317 0.03176235 -0.0036111604 -0.17256352
0.09341598 -0.010005619 -0.10062375 -0.20046926 0.020598434 -0.18684015 0.19428425 -0.036869485
-0.078145124 0.10950658 0.04297498 0.13169028 0.048996106 0.16142105 -0.030045962 0.19486283
0.040198028 -0.15606415 0.15830591 0.104606435 -0.18515976 -0.170519 -0.05876997 -0.06586883
0.04650968 -0.042198446 0.06934706 0.02223387 -0.00052974786 -0.15716963 0.10338721 0.1524918
0.10946309 0.041756786 0.020618081 0.07364885 -0.06040345 0.15622827 -0.16824333 -0.020549947
0.040873725 -0.11680597 -0.009587218 0.04851965 -0.008702545 0.18221243 0.12467274 0.025552282
0.101457976 0.046525493 -0.031248251 0.19291678 0.046698794 0.13484707 0.093151316 0.11120053
-0.12428016 -0.027287975 -0.13762699 0.12985459 0.031527426 -0.098048955 -0.02258366 -0.17742133
0.03725205 0.09832814 -0.19691332 0.08230189 0.044548478 0.07179513 0.10181918 -0.16839692
-0.015713328 0.19336337 -0.15522574 0.15264365 -0.08171619 0.111844115 0.15866214 0.19007714
0.0067205764 -0.17192352 -0.04050212 0.052195884 -0.087304965 -0.06873352 -0.1846985 -0.1582718
-0.20291132 0.042656966 0.09731769 -0.107935175 0.12036618 0.042557538 0.19488005 0.11331541
-0.09778642 0.14755873 -0.12688701 -0.09328599 0.1787329 0.19786765 0.01603991 -0.17946236
0.0033674582 0.19519639 -0.027123125 -0.03644181 -0.15154384 0.03546417 -0.048658285 -0.11493488
0.1792412 0.17703597 0.06568585 -0.052009434 0.014066526 -0.17392164 0.13659033 -0.1712594

fc2.weight f4 [256, 400]
00000000: 4b2b 163a ff3e 6a3a 4981 4dbd 9d17 8abc
00000010: 646d 6e3c 13bb 1b3c 2706 bbbb 7532 9fb8
00000020: c5be c1bc 29c7 04bc 556c b6bc 7ce6 d2bc
00000030: 14a7 8f3c ecbd 393c b154 69bc c051 18bd
00000040: 8d08 113c 07d2 3a3d 69db 2d3d d31b 613d
00000050: 28e8 0d3d d4b4 763c 8bfd b9bc 0c22 8e3c
00000060: 9693 61bd d3cf 01bd 0b56 013d 8847 273d
00000070: b374 303d ddda eebb b03e 243d 04dc 5b3d
00000080: 57b2 653c a87d c53c ec25 eebc a1c4 3bbb
00000090: 7f10 3c3d 7b11 5ebd 2e5e 6fbb 7de2 93bc
000000a0: 8b53 4e3d 9829 a3bc 3f42 003d 35db 39bd
000000b0: 64d3 62bd 78cd 7bbd 8336 a73c ef17 60bd
000000c0: 04d1 2abb 0827 67bd 54ce a83c f171 6cbd
000000d0: 1615 6c3d ef9d dc3c dafc d7ba b0f5 65ba
000000e0: 101c f7ba 0cb6 c8bc 7581 b2bc 055b c4bc
000000f0: 757d 0d3d 3d3a cc3c 2018 7b3d 7ce0 0abd
00000100: f05b b6bc ec94 47bd ba4f 06bd f77b c83c
00000110: feee 1e3d 8001 fa3c 70cc 623d eac6 1fbd
00000120: 290c b7bc fdd8 ecbc dd43 273d 9bdb c4bc
00000130: c777 523d 4081 b63c 4d74 8b3b dea6 4bbd
00000140: 0e96 3e3c f4db 993c 1566 10bd 3b1f d53c
00000150: b521 44bd fc8f ecbb 87e0 bebc b4d8 db3c
00000160: 95f3 50bd 3a36 34bd fda5 853c f895 28bb
00000170: 93c4 953c a565 5f3d 0321 dabc f722 7f3d
00000180: 95eb 09bd 6f0e 87bc 69b6 95bc ad5f 63bd
00000190: 25a3 ef3b 49bb 0d3b 9cde 663d e5bc 4dbc
000001a0: fad7 483d 767f 603d 8ba9 f13b 7b6a aabc
000001b0: 0467 72bd 96f9 02bd 3e59 36bd 4355 5c3d
000001c0: 5895 c23c c51c 3c3d c5da 7dbb b7ea 183d
000001d0: 81cd 593d e640 09bd b2dd 12bb a511 b13c
000001e0: 0c15 e03b d46e a8bc bd0e 66bc 2695 7abd
000001f0: c159 523d bd90 403b 5871 953c 6a94 1a3d
00000200: 0648 933c 9a02 103b 4bef d13b 37a0 20bd
00000210: e160 cbbc 74b4 503d 50ce 243c 75c7 c13b
00000220: b1a6 11bd 53f0 1eba 8d41 c43c 40e1 9b3b
00000230: c8e3 b33c ab74 2b3d 9d85 c83c 2a62 0cbd
00000240: 8c6e 083c a3a9 e33c cdcb 063d 5f8e 213d
00000250: e068 30bd f08f 81bc 9f99 94bc fd78 07bd
00000260: 228b 9f3c 724b b43c bac7 41bd 7009 5e3d
00000270: 4220 2e3d 4610 14bd 90aa afbc e500 49bd
00000280: 6429 3bbd 30d9 30bc 92ec 733d 8f7a 7d3c
00000290: ef88 483d 67bf 5c3d 5184 23bc 2c4b c9bc
000002a0: 9447 e33c b8a1 573d 5b72 26bd f08f dcbc
000002b0: 50db b13c 6a90 51bd 2d80 533d dc7b 7ebd
000002c0: 10b4 2fbd b605 9e3c ed92 c23c c3d3 b33c
000002d0: 9f0b 293d 9b3d cd3c a0e2 f6bc 8e17 44bd
000002e0: 5b48 b83c e320 143c d28a 25bb fd49 393d
000002f0: c047 c4bc 60ca 0fbd 6dbb 6b3d 884c 5dbd
00000300: e929 c1bc 5126 423d aeae 3d3c b78a 65bd
00000310: 1bab 333c 5860 38bc fb16 2b3d 581a fd3c
00000320: a94c 4a3d 9afb b8bc 6567 63bd 552c 16bd
00000330: 027e 603d f9d6 433d edea a83c 2d71 c23b
00000340: 9f37 623c 2fb1 6bbd 099b 353d 8675 9cbc
00000350: 1bfb 223d 8a9d 3cbd 7604 4dbd fd54 36bd
00000360: 3bb5 cebc 4971 333d 16a4 553d 0a82 b03c
00000370: 3d41 2dbd 737c 53bd 1a92 713c efd6 7abd
00000380: a8be 1e3d f616 0dbd bcb7 4f3d 7f6f 273d
00000390: 5d40 ed3b 7f0c b9bc f7b7 bd3c 0884 aabc
000003a0: 82b3 063d 1afc 37bd b22f 61bd 0807 313d
000003b0: 211e 673d dfbc 3b3d b75f 583d e39c bd3c
000003c0: bce7 d8bc 9ed4 2a3c f752 adb9 98d8 8dbc
000003d0: c3e4 143b 32be d73c 44d4 6a3d 4701 99bc
000003e0: 7359 5bbd 0cd2 8f3c 8eb9 08bd 3ed7 ebbc
000003f0: fdf7 ef3c 301c 3d3d a968 8abc e75d 43bd
0.0005728497 0.0008935779 -0.050172124 -0.016856963 0.014552448 0.009505051 -0.0057075205 -7.591109e-05
-0.023650536 -0.008104124 -0.022268454 -0.02574467 0.017535724 0.011336785 -0.014241383 -0.037187338
0.008852136 0.045610454 0.042445574 0.054958176 0.03464523 0.015057761 -0.022703907 0.01735022
-0.05507239 -0.031692337 0.031576198 0.040839702 0.043080043 -0.007289274 0.040098846 0.05367662
0.01401957 0.02410777 -0.029070817 -0.0028651136 0.04591417 -0.05421589 -0.0036524641 -0.018052334
0.05037264 -0.019917294 0.031313177 -0.045375068 -0.05537738 -0.061475247 0.020411735 -0.054710325
-0.0026064524 -0.056433707 0.020606197 -0.05772585 0.057637297 0.026930777 -0.0016478554 -0.0008772267
-0.0018852968 -0.02450087 -0.021790246 -0.023969183 0.034543473 0.024930114 0.061302304 -0.03390549
-0.022260636 -0.048726007 -0.032790877 0.024473174 0.03880214 0.030518293 0.055370748 -0.03900806
-0.022344666 -0.028912062 0.040836204 -0.024030497 0.05138376 0.022278428 0.0042558075 -0.049719684
0.0116324555 0.01878164 -0.035253603 0.026015868 -0.047883708 -0.0072193127 -0.023300422 0.02683673
-0.051013548 -0.043997027 0.016314501 -0.0025724154 0.01828221 0.054540295 -0.02662707 0.062289204
-0.033671934 -0.016486375 -0.018275457 -0.055511165 0.0073131495 0.0021626523 0.05636464 -0.012557243
0.049034096 0.054809056 0.0073749474 -0.020802727 -0.059180275 -0.031976305 -0.0445187 0.05379225
0.023752853 0.045925874 -0.0038735133 0.037333217 0.0531745 -0.033509158 -0.0022409973 0.021614859
0.0068384465 -0.02056066 -0.0140416 -0.061177395 0.051355127 0.0029383146 0.018242523 0.037739195
0.01797868 0.0021974207 0.0064067 -0.039215293 -0.024826469 0.050953344 0.010058954 0.0059136697
-0.03555936 -0.0006063033 0.023957038 0.0047570765 0.0219592 0.04185931 0.024477774 -0.034273304
0.008327138 0.02779085 0.032909203 0.039442416 -0.043068767 -0.015815705 -0.018139658 -0.033074368
0.019475523 0.022008631 -0.047309615 0.05420822 0.042511232 -0.036148332 -0.021443635 -0.04907312
-0.04569377 -0.010793969 0.059551783 0.015471115 0.048958715 0.053893473 -0.009980277 -0.024571978
0.027744092 0.05264446 -0.0406364 -0.026924103 0.021711022 -0.051163115 0.05163591 -0.06212984
-0.04289633 0.019289833 0.0237517 0.021951562 0.04127085 0.02505379 -0.03013736 -0.047874026
0.02249544 0.009041044 -0.0025259745 0.045236576 -0.023959994 -0.03510511 0.05755179 -0.054028064
-0.023579555 0.047399823 0.011577291 -0.056040492 0.010966088 -0.011253439 0.041769963 0.03089635
0.049389515 -0.02258091 -0.055518527 -0.036663372 0.05480767 0.047812436 0.020619834 0.0059339018
0.013807206 -0.057542022 0.044337306 -0.019099008 0.039790254 -0.04604868 -0.050053082 -0.044514645
-0.025232902 0.04380921 0.052158438 0.021546382 -0.042298544 -0.051632356 0.014744306 -0.061240133
0.038756043 -0.034445725 0.050712332 0.040877815 0.0072403387 -0.022588966 0.02315901 -0.02081491
0.032886036 -0.044918157 -0.054977126 0.043219596 0.056425218 0.04583442 0.052825656 0.023146098
-0.026477687 0.010426668 -0.00033058945 -0.017315194 0.002271936 0.02633581 0.05733134 -0.018677367
-0.053552102 0.017556213 -0.033380084 -0.028789159 0.029293055 0.04616946 -0.016895609 -0.047696974

fc2.bias f4 [256]
00000000: 0d3f 23bd ee63 33bc 4e8a aabc 1f03 21bb
00000010: fc67 4c3d aae9 0e3d 7a2e 8d3c b9cc 13bd
00000020: 9c49 8e3c dd65 da3b fc35 033d 2340 11bd
00000030: 41c1 193c a9c2 8b3c 42eb 323d 035b 9f3c
00000040: 796b 69bc efe8 023d d6d0 323d 425e 07bd
00000050: 078e d3bc 8335 9d3c 745d 343c 112a 38bd
00000060: 3375 2a3d 9d65 40bd 7e32 f3bb eed7 d33c
00000070: bb3b bb3c faad febc decd 0a3d 4397 4fbd
00000080: be17 0fbd 959c 51bc 1e9e 8fbc 76aa 223d
00000090: e2b8 e83b ff88 1abc cbd9 323d efa9 603c
000000a0: ed59 3a3c ec50 613b a13f 96bb 9644 1f3d
000000b0: 4116 ea3b 345b 473d 947d 14bd 764a 2e3c
000000c0: bea7 2a3d 6a54 d73c a3a7 a73b 94d1 a03b
000000d0: bfb8 bf3c 04dc 3d3b 256e 14bb 806f 9c3c
000000e0: aa5c 62bc e105 d1bb 4cff e13c 61cd 143d
000000f0: 1bc4 42bd b734 13bd 5a3e 1fbd f08a 1abd
00000100: 10c1 cb3b 3883 273c befa d6bc fe1b 553b
00000110: 0ead ca3a 6039 073d 0e0e ba3c 53fd 28ba
00000120: c67d 40bc da97 3b3c 4b44 44bd f1c0 b3bc
00000130: b604 dbbc e515 403d 98a6 fe3c f6c1 2ebd
00000140: 324c f5bc ca41 813c 7d53 83bb ae87 1a3d
00000150: 8bef eebc aaba 283b b9d8 02bd 9e64 4dbd
00000160: 8020 3fbd 1012 173d cabe 73bb fd1f 163d
00000170: 83d6 f53c e5d3 d1bb 87aa 3dbd 2a42 e8bc
00000180: 91b1 88bc b1a4 113d 55fb 7b3c 4659 63ba
00000190: b9d2 c7bc 0712 fa3c 9b4d a7bb 264b 17bd
000001a0: 8f10 bcbb 05b2 433d 504d 383d 201b 173d
000001b0: 3fe7 ce3c 74f4 143d 1725 16bd 0e13 39bd
000001c0: 5c43 3abd 5e8c 3bbd 4974 dcbb 0b6a 1d3d
000001d0: 84d2 ec3c 3381 223c cddd 2fbd 8a35 9fbc
000001e0: 957f 353d bcf0 87ba 44da 80bb 247f a9bc
000001f0: 5796 143d 4e0f 3a3d a4a0 6dbc 4d36 30bd
00000200: b9fc f1bc 64da 753c cece 123d 7078 46bd
00000210: 8422 033c 7bdc b5bc 12b8 f6bb 403f 353d
00000220: 8202 febc 2836 a53b 6d16 153d fc6c d1bc
00000230: 3366 cabc 2b5c 253d 2428 c1bc 277b 95b9
00000240: e47a 8cbc 7fd5 373d 21c3 4e3d 890a 1a3d
00000250: ff7e b83c 1c0d 043c f682 d2bb bda7 213d
00000260: 5d9d babc 08fe c0bb f0cf 11bd c210 663b
00000270: 7495 17ba 87dc 093d c9e9 293c ff81 97bc
00000280: f37b 1d3d 0778 0abd 3710 e53c 3763 8d3c
00000290: 0c36 22bd 5f40 243d 6a27 a039 6d37 01bd
000002a0: 82a8 10bd 51c8 1ebd 0aa9 3e3d 55c2 1f3d
000002b0: 963a 523d 0ee7 043d 4710 d4ba 6a43 20bd
000002c0: 4b73 273d c3d8 8a3c bc44 9a3c 1dd0 353d
000002d0: d8ca c83c a241 413b e953 ce3c 1f74 43bd
000002e0: 53bf 86bc 8138 283d 4d44 f33c 60e7 3d3d
000002f0: 08a0 d83b 6849 cbbc ccd0 39bb 8d2d 3bbd
00000300: 0b63 8f3c dd91 26bd 4e31 e13b 0880 16bd
00000310: d7d5 663c c524 e63c 2038 4dbd 8d2d 323d
00000320: 1e25 98bc e7cb b33c 16ce 11bc 9421 eb3c
00000330: ef80 5cbc bb94 22ba 6594 24bd d683 a8bc
00000340: b1db 113d 9aca 883b 049d 573c ea9e 0b3d
00000350: 409e 2cbc 070d 603b 45b8 803c 467a 293d
00000360: 3d44 dabc cb87 8e3c d5a3 323c d974 ed3c
00000370: 2b83 fdbc 7dd7 b93b 6cfc 403d 3197 3bbd
00000380: 6435 5e3c b0bf 57bc 2900 353d ea22 2bbc
00000390: adf0 753c 27ed e83c fab7 a3bc fc2f 0ebd
000003a0: 07ca ee3c a78b e1ba 3161 61bc a6ea 523d
000003b0: 5171 3abd 18f7 753c 23c1 24bd a54b 993c
000003c0: 9aeb 7fbc d517 473d f1d5 57bc ad20 863c
000003d0: 3914 21bc 6331 2a3d df34 893c f95a a4bc
000003e0: fac4 3d3b 335c 0c3c f1ad eebc 44dc 0f3c
000003f0: a53c 35bd 212c 4fbc b6fb 3ebd 3524 2a3d
-0.03985505 -0.010949118 -0.020817902 -0.002456851 0.049903855 0.03489081 0.017234076 -0.03608391
0.017369084 0.006664975 0.032033905 -0.035461556 0.009384454 0.017060595 0.04368139 0.019452577
-0.014246815 0.031960424 0.043656193 -0.033048876 -0.02582456 0.019190555 0.011008609 -0.044961993
0.041615676 -0.046971906 -0.0074217906 0.0258598 0.02285563 -0.031088818 0.033887736 -0.050681364
-0.03493475 -0.01279368 -0.01753145 0.039713345 0.007102118 -0.0094320765 0.043664735 0.01371239
0.011373979 0.0034380509 -0.004585222 0.038883768 0.007143766 0.048670962 -0.036252573 0.01063787
0.041663878 0.026285369 0.0051164194 0.004907796 0.023403523 0.002897025 -0.002264866 0.019096136
-0.013816038 -0.0063788746 0.027587555 0.036328677 -0.047550302 -0.035938945 -0.038877822 -0.037730157
0.006218083 0.010224156 -0.02624261 0.0032517905 0.0015462951 0.0330137 0.02271178 -0.00064464397
-0.011748737 0.011449778 -0.04791669 -0.021942588 -0.026735645 0.04689588 0.031085297 -0.042665444
-0.02994356 0.015778441 -0.0040077553 0.03772705 -0.029166957 0.0025746026 -0.031944964 -0.050144784
-0.046661854 0.03688246 -0.0037192577 0.0366516 0.030009514 -0.0064034336 -0.046305206 -0.028351862
-0.016686233 0.035557453 0.015379746 -0.00086726656 -0.024392473 0.030526174 -0.005105687 -0.0369369
-0.0057392786 0.047777195 0.044995606 0.036891103 0.025256751 0.03636594 -0.036656465 -0.045184188
-0.045474395 -0.04578816 -0.0067277295 0.03843121 0.028908975 0.009918499 -0.042936135 -0.01943471
0.044311125 -0.0010371427 -0.0039322693 -0.020690508 0.036276188 0.045424752 -0.014503632 -0.043020535
-0.029539453 0.015005682 0.035841756 -0.048454702 0.008003835 -0.02219986 -0.007529267 0.044249773
-0.031007055 0.0050418563 0.03639834 -0.025564663 -0.024706936 0.0403711 -0.02357871 -0.0002851125
-0.017148443 0.04488134 0.05047906 0.037607703 0.022521494 0.008059766 -0.006424303 0.03946661
-0.022780115 -0.005889658 -0.035598695 0.0035105203 -0.0005782463 0.033657577 0.01037068 -0.018494604
0.038448285 -0.033805873 0.027961833 0.017259223 -0.039602324 0.04010045 0.00030546944 -0.031547
-0.03531695 -0.038765255 0.046547927 0.03900369 0.051325403 0.032446913 -0.0016179167 -0.03912679
0.040881436 0.016949063 0.018831603 0.044387925 0.024510786 0.0029488583 0.025186496 -0.047718164
-0.016448652 0.04106951 0.029695654 0.046363235 0.006610874 -0.024815276 -0.0028353212 -0.045697737
0.017503282 -0.04066645 0.0068723327 -0.036743194 0.014089069 0.028093705 -0.050102353 0.04350047
-0.018572386 0.021947814 -0.008899232 0.028702535 -0.013458475 -0.0006201972 -0.040180583 -0.020570677
0.035609905 0.0041745426 0.013159994 0.0340871 -0.010535777 0.0034187452 0.015712867 0.041376375
-0.026643867 0.017398736 0.010903318 0.028986381 -0.030946335 0.00567144 0.04711573 -0.045798484
0.013562534 -0.01316826 0.044189606 -0.010445336 0.015010995 0.028433396 -0.019985188 -0.03471373
0.029149069 -0.0017207757 -0.013756082 0.05149331 -0.045518223 0.015012525 -0.040223252 0.018712828
-0.015620137 0.048606712 -0.013173566 0.016373003 -0.009831482 0.041551005 0.016748844 -0.02006291
0.0028956519 0.008566904 -0.029135676 0.008780543 -0.04424729 -0.0126447985 -0.04662677 0.041538436

fc3.weight f4 [2, 256]
00000000: 498e a43a 6221 9dbb ea2f 863a c923 54bb
00000010: 3e16 fdb9 7614 89bb e42b 4bbb 4985 743a
00000020: b029 3dbb cb02 2cbb 9d37 4cbb 1e47 363a
00000030: b6dd 6b3a f505 98b8 cfa7 88bb 6d2e fdba
00000040: edd3 62bb 0261 27bb fa95 8ebb aa3f 8cbb
00000050: 8fdd 34bb 8ec2 153b bbdd 63ba 34bb d3ba
00000060: e8a3 92bb bd12 a9ba fe21 b8ba be83 6abb
00000070: f411 74ba c252 4cbb 97f9 9a38 7ec0 103b
00000080: ceca 9fbb 9c58 d0ba c404 0dbb d5d1 503a
00000090: ec5a f639 1e07 eaba c0bf 02bb 6d07 5b3a
000000a0: 3552 ee39 9c95 3bbb 6900 35bb 3555 68bb
000000b0: d205 82bb 84eb 9838 1b76 12bb f62b feba
000000c0: 79aa 2fba b946 abba 4a89 b0b8 cb23 7bbb
000000d0: da72 7f39 825f 70b9 3b0c 2038 e25f cdb9
000000e0: b601 7bbb 359d 55bb 3039 aaba c101 c03a
000000f0: bd4a 43bb 7ea4 ebba 4d87 95b9 582f e339
00000100: 8cf7 17bb a559 573a e40d 01bb d290 91ba
00000110: dacb 15bb 305a e3ba 0112 a5bb 9805 adba
00000120: abeb 16bb e6cb 7bbb d695 48bb 37d7 bd39
00000130: a50a 12bb 58e6 c9ba 9e8d 68bb ade8 b2ba
00000140: a6f8 8abb b47c 72bb d711 87bb b855 50bb
00000150: ba96 62bb 9ef0 bbb9 8a0e 8cb9 bcd6 3a3a
00000160: 75de 57bb 7eef 91bb fd9e 0f38 5146 44ba
00000170: e5e2 3a39 a5eb 7f3a 3731 8fbb 8687 f53a
00000180: 4aca 08bb 83e5 073a 6b81 51bb 8437 9bb9
00000190: f1be d1ba 17c3 e53a 8383 11bb 2c77 dfba
000001a0: ce0e fe3a 5cb2 32ba 26ee bfba 69d0 eaba
000001b0: 58ee 97bb 9d85 9eba 3da2 29b9 df67 59bb
000001c0: 9176 82bb ca4f 42bb cb5a 95bb 4d2c 53bb
000001d0: e6dc 61ba e933 5abb 90ab 36bb 55c6 60bb
000001e0: d870 4fba 0022 51bb ab98 eb39 3ea5 83bb
000001f0: 92ca 34bb 14ec a8b9 6f97 1eb9 f394 39bb
00000200: 7454 d239 1911 c8ba d82a 50bb 2a24 1d39
00000210: b674 a3ba cb5f 65bb 4203 d8b9 d64f 8f3a
00000220: 21a7 99bb c681 55bb e9e4 7ebb e606 2b3a
00000230: 5638 80bb b1d0 25bb abf1 87ba 6ad3 58b9
00000240: e4c5 0bb9 3619 72b9 fade 2ebb bf7d f7b9
00000250: ef55 d1b9 4e4c 28bb 41ac 953a 150e 9ebb
00000260: fbe9 2dbb 0b6d dc39 33bd 8fbb 06e0 8ebb
00000270: 2a15 26bb 81d3 e3ba 1405 fcba 91be 953a
00000280: 484c 8abb 33bb 53bb 946e f0ba d1c5 1e3a
00000290: 903b 69bb ce64 3c3a ff62 b5ba a247 8d3a
000002a0: c187 c7ba b1fa 2bbb 1384 71bb 0608 3ebb
000002b0: 33db 79bb 7980 84ba f3a1 16bb 18c3 96bb
000002c0: 939e 42bb 20ea 14bb 85b1 2b3a 7ca7 20b9
000002d0: 6c53 503a e6ba c1ba 5649 c9b9 0220 a3bb
000002e0: 10e2 82ba 1e0f 78bb 0b71 3fba 03ac 5cbb
000002f0: 2fa5 1ebb f76d 7bb9 1223 82bb 0042 82bb
00000300: 19b9 30bb 2ac3 38bb a5bb 4fba abe4 9cbb
00000310: cad8 69bb 619c c4ba da44 9c3a a37a 55bb
00000320: 4301 2bbb 03a7 a2bb e1bc 36bb f89b cd3a
00000330: 2e4c e1ba fe4b 86bb 0be2 41bb 0584 28bb
00000340: 4fa4 a238 f0c1 a93a 8add a2bb 6e3d c5b9
00000350: 4dea 9e3a f9ba 37bb 4259 a0bb a603 a53a
00000360: e049 59bb 8bba 453a 8be8 c1b9 1899 2fba
00000370: dbf6 30bb 8f1a 59bb cc89 e8ba 0b6d 91bb
00000380: 7a0d 95ba 9f99 c837 88ae 143a 32c2 deba
00000390: 644b 1abb ab40 7cbb 8d4a 75bb 414c 76bb
000003a0: 1814 bfb9 5069 5fb9 97af 64bb 4e20 0ebb
000003b0: beab 3c3a a103 32bb 7432 9bbb d011 71bb
000003c0: ffef 84bb ce88 5537 fdee 97b9 6d1d 48bb
000003d0: 63da 1abb 162c 953a eeaf 4bbb 2016 f9b9
000003e0: 0969 67bb 09cf 81ba 3bce 82bb 6d41 2fbb
000003f0: 189f e039 4d65 0fba 19a2 31bb 2237 8fbb
0.0012554611 -0.0047952393 0.0010237668 -0.0032369962 -0.00048272492 -0.0041833473 -0.0031001503 0.00093277224
-0.002886396 -0.0026246782 -0.0031161078 0.00069533463 0.0008997576 -7.2490344e-05 -0.004170395 -0.0019316204
-0.003461118 -0.002554 -0.0043513747 -0.0042800503 -0.002759788 0.002285156 -0.0008692403 -0.0016153813
-0.0044751056 -0.0012899261 -0.0014048216 -0.003578409 -0.00093105366 -0.0031177257 7.389782e-05 0.002208739
-0.004876471 -0.0015895548 -0.0021517733 0.0007965838 0.00046988518 -0.0017854904 -0.0019950718 0.00083552935
0.00045456146 -0.002862311 -0.0027618653 -0.0035451178 -0.003967979 7.291793e-05 -0.0022348228 -0.0019391763
-0.00067011226 -0.0013067342 -8.417906e-05 -0.0038320895 0.0002436148 -0.00022923763 3.8158363e-05 -0.00039172085
-0.003830058 -0.0032594923 -0.0012987014 0.001464896 -0.0029799186 -0.00179781 -0.00028520302 0.00043332088
-0.002318832 0.0008214957 -0.0019692117 -0.0011105782 -0.00228571 -0.0017345604 -0.0050375466 -0.001320052
-0.0023028653 -0.0038421093 -0.0030606887 0.00036209237 -0.0022284177 -0.0015403731 -0.00354848 -0.0013649665
-0.004241067 -0.0037000598 -0.0041219997 -0.0031789374 -0.0034574703 -0.00035846693 -0.00026713713 0.0007127335
-0.0032938991 -0.0044535985 3.4241926e-05 -0.00074872846 0.00017822867 0.0009762592 -0.0043698805 0.0018732406
-0.0020872527 0.0005184041 -0.0031968008 -0.00029605266 -0.001600234 0.0017529455 -0.0022203631 -0.0017049066
0.0019383074 -0.0006816739 -0.0014643117 -0.0017914894 -0.004636567 -0.0012094263 -0.00016177534 -0.0033173484
-0.0039814194 -0.0029649609 -0.0045579425 -0.003222245 -0.0008615985 -0.00332951 -0.0027873255 -0.0034297903
-0.00079132384 -0.0031911135 0.0004493644 -0.004017501 -0.0027586562 -0.0003221935 -0.00015124468 -0.002831754
0.00040117244 -0.0015263885 -0.0031763818 0.00014986159 -0.0012470696 -0.0034999724 -0.00041201158 0.0010933827
-0.004689113 -0.0032578572 -0.0038893765 0.000652416 -0.0039129658 -0.0025301392 -0.0010371705 -0.00020678123
-0.00013329793 -0.0002308831 -0.0026683197 -0.000472052 -0.00039927612 -0.0025680247 0.0011419134 -0.004823456
-0.0026537168 0.00042042913 -0.004386568 -0.004360202 -0.0025342205 -0.0017381759 -0.0019227588 0.0011424591
-0.004220519 -0.0032307624 -0.0018343502 0.00060566986 -0.003558848 0.0007186652 -0.0013838707 0.0010778795
-0.0015222953 -0.0026241953 -0.0036852404 -0.0028996482 -0.0038125038 -0.0010109089 -0.0022984713 -0.0046008937
-0.0029696568 -0.0022722557 0.0006549585 -0.00015321182 0.0007947001 -0.0014780432 -0.00038392347 -0.004978181
-0.0009985585 -0.0037850807 -0.00073029165 -0.0033671863 -0.0024207344 -0.0002397819 -0.003971466 -0.003975153
-0.0026965796 -0.0028192499 -0.00079243846 -0.0047880015 -0.0035682195 -0.0015000218 0.0011922375 -0.0032574318
-0.0026093281 -0.004963757 -0.0027883577 0.0015686741 -0.0017188841 -0.0040984144 -0.0029584195 -0.0025713455
7.755367e-05 0.0012951475 -0.004970257 -0.00037620537 0.001212427 -0.0028035028 -0.004893453 0.0012589588
-0.0033155605 0.00075427507 -0.00036985087 -0.0006698533 -0.0027002606 -0.0033127402 -0.0017741262 -0.0044380478
-0.0011371814 2.3913393e-05 0.0005671759 -0.001699513 -0.0023543471 -0.0038490694 -0.003742847 -0.0037582072
-0.0003644533 -0.00021306169 -0.0034894699 -0.0021686736 0.00071972224 -0.0027162808 -0.004736239 -0.0036784299
-0.00405693 1.2727642e-05 -0.00028979025 -0.0030535117 -0.0023628704 0.0011380936 -0.0031080204 -0.00047509465
-0.0035310409 -0.000990362 -0.0039918697 -0.0026741878 0.00042843143 -0.0005470112 -0.0027104674 -0.004370586

fc3.bias f4 [2]
00000000: 68bd 193c d1d3 38bc
0.009383537 -0.01128097
