projects/tennis/checkpoint/E15/E15.08_critic1_15000.pt (torch_old, 502006 bytes, 9 tensors)

fcs1.weight f4 [400, 48]
0	0x3d1c649a	0.03818188
1	0xbd098c68	-0.033581167
2	0x3cc52cbd	0.024069184
3	0xbbb92654	-0.005650321
4	0xbcd62d23	-0.02614457
5	0x3d463b1d	0.04839622
6	0x3d00dd10	0.03146082
7	0x3abaf215	0.001426282
8	0xbc769f14	-0.015052576
9	0x3c508796	0.012727639
10	0x3cb2ad8f	0.021811275
11	0x3c90c382	0.01767135
12	0xba8e4ab5	-0.0010856005
13	0xbd0d4f9c	-0.03449975
14	0xbcf57b66	-0.029966068
15	0xbb25a8b2	-0.0025277552
16	0xbd13d0b5	-0.03608771
17	0xbd2fc66e	-0.042913847
18	0x3bf4afd6	0.0074672503
19	0x3c829d43	0.015944129
20	0xbd07ee8b	-0.033186477
21	0x3cb024d9	0.021501945
22	0xbcc81aa7	-0.024426771
23	0xbb376ebb	-0.0027989584
24	0x3d108037	0.035278525
25	0xbd266175	-0.040620286
26	0xbb2504de	-0.0025179903
27	0xbbf6684c	-0.0075197574
28	0x3c2d7f7c	0.010589477
29	0xbca6c139	-0.020355808
30	0x3c4b6fb1	0.012416766
31	0xbc1f9be3	-0.009741756
32	0x3d47ee50	0.048811257
33	0x3c7d4e50	0.015460566
34	0xbd197bd4	-0.037471607
35	0x3d030e21	0.031995896
36	0x3ba71c94	0.0050998423
37	0xbcddbcaf	-0.02706751
38	0x3932cc1a	0.00017051437
39	0xbc295b83	-0.0103367595
40	0x3d18a444	0.03726603
41	0xbd47e03b	-0.048797827
42	0x3ca430aa	0.020042736
43	0x3c9ac4ad	0.01889261
44	0x3cf900f9	0.030395972
45	0xbc06ef6c	-0.008235794
46	0xbd16afff	-0.036788937
47	0xbae8788c	-0.0017736121
48	0x3d01e7ac	0.03171508
49	0x3ce3d59a	0.027811814
50	0xbc991938	-0.018688783
51	0x3cca058a	0.024660844
52	0xbd245704	-0.040122047
53	0xbbffc943	-0.0078059747
54	0xbb8161fd	-0.0039484487
55	0xbca2a704	-0.01985503
56	0xbcfcac04	-0.030843742
57	0xbc849c73	-0.016187882
58	0x3ba8cac3	0.005151124
59	0x3ce12d5e	0.027487453
60	0xbb14bd8d	-0.002269599
61	0xbc365432	-0.011128472
62	0xbcb150ee	-0.021645036
63	0x3cfd49bc	0.030918948
64	0xbc8b5e18	-0.01701264
65	0xbc0a43b9	-0.008438998
66	0xbc298822	-0.010347398
67	0xbc1aafd1	-0.009441332
68	0x3d128e3c	0.035780177
69	0x3d071f16	0.03298863
70	0xbcd66b03	-0.026174074
71	0xbcb5580b	-0.022136709
72	0x3b4bdfb3	0.0031108677
73	0x3d1b4107	0.03790381
74	0xbad03238	-0.0015884107
75	0xbcb3c966	-0.02194662
76	0x3c6b4659	0.014360034
77	0x3b485ab7	0.0030571648
78	0x3d170ae3	0.036875617
79	0x3cdf6c02	0.027273182
80	0xbc9290db	-0.017891338
81	0x3d0b5073	0.03401227
82	0xbcfe932e	-0.03107604
83	0x38f7a3eb	0.0001180841
84	0xbd306991	-0.043069426
85	0xbb30bc38	-0.0026967656
86	0x3b31f96b	0.0027156721
87	0xbbd88f1c	-0.006608857
88	0xbd2c9c94	-0.042141512
89	0x3c91bd9b	0.017790606
90	0x3d1028ea	0.03519527
91	0xbbe90fc7	-0.0071124765
92	0x3d20317b	0.03910969
93	0x3d347e27	0.04406562
94	0x3bfadc6b	0.0076556704
95	0xbb5c7874	-0.0033641132
96	0xbb9da029	-0.0048103523
97	0x3c4a4d31	0.012347505
98	0xbcdadede	-0.0267176
99	0x3be00815	0.006836901
100	0xbd007e97	-0.031370725
101	0xbd472762	-0.048621543
102	0xbc978d11	-0.018499883
103	0x3cc6e0fb	0.0242772
104	0xbccda542	-0.025103215
105	0x3cdb64c2	0.026781444
106	0x3d307de4	0.04308881
107	0x3a0a5f7e	0.00052785117
108	0xbd202bb2	-0.03910417
109	0x3b8f72c1	0.0043776934
110	0x3c43ae33	0.011943388
111	0xbcbdfb6d	-0.023191178
112	0x3cd467f5	0.025928477
113	0xbcb436f6	-0.021998864
114	0x3c547a6d	0.012968642
115	0x3ce860c0	0.028366446
116	0xbcb18612	-0.021670375
117	0xbbd59ba0	-0.006518796
118	0xbca03195	-0.019554893
119	0x3d1501b5	0.03637858
120	0xbd0041eb	-0.031312864
121	0x3d125b68	0.035731703
122	0xba338911	-0.00068487326
123	0xbbb37ce3	-0.005477534
124	0xbd395506	-0.0452471
125	0xbcf8188f	-0.030285148
126	0xbcaeec60	-0.021352947
127	0x3bdb563f	0.006693631
128	0xbc6636c1	-0.01405114
129	0x3c87e9e1	0.016591014
130	0xbca352ef	-0.019937007
131	0x3c346ee1	0.011012764
132	0xbbb08c55	-0.0053878226
133	0xbc98d56f	-0.01865646
134	0xbc7d3fef	-0.0154571375
135	0xbcef2286	-0.029191267
136	0x3d4a20f9	0.04934785
137	0x3cd5aa72	0.026082251
138	0x3ca7819a	0.020447541
139	0x3c979b5e	0.018506702
140	0xbd30456f	-0.043034967
141	0x3ac149f9	0.0014746777
142	0x3ca7ead7	0.020497723
143	0xbc5c99ce	-0.013464404
144	0x3d2419f4	0.040063813
145	0xbb8c221c	-0.004276527
146	0x3c8ca355	0.017167727
147	0x39934a2a	0.0002809328
148	0xbd0ace23	-0.033887994
149	0xbc89bbb8	-0.016813144
150	0x3ced905f	0.028999506
151	0xbc3fab87	-0.01169861
152	0x3cffd7a3	0.031230753
153	0xbc72a198	-0.014809035
154	0xbce3b030	-0.027793974
155	0xbb5c4d4b	-0.0033615406
156	0xbcaf39bc	-0.021389835
157	0x3cde256b	0.027117452
158	0xbb664214	-0.00351346
159	0x3ca3b29c	0.019982629
160	0xbbf678a3	-0.0075217052
161	0x3c731929	0.014837542
162	0x3cb46941	0.022022845
163	0x3c9cdf0d	0.019149328
164	0xbcfd0a4e	-0.030888703
165	0x3b3fd336	0.0029270179
166	0x3c142369	0.009041646
167	0x3ca58423	0.02020461
168	0x3d133726	0.035941266
169	0xbc169350	-0.0091903955
170	0x3bfa09be	0.007630556
171	0xbc82276c	-0.015887938
172	0xbc8c49ff	-0.017125128
173	0xbccb1249	-0.024788992
174	0xbcb9706c	-0.022636615
175	0xbbab7d71	-0.0052334596
176	0xbd1557ed	-0.036460806
177	0xbc9f2673	-0.019427514
178	0x3d170bea	0.036876597
179	0x3cb64789	0.022250907
180	0xbbf32317	-0.0074199545
181	0x3cd25e98	0.025679871
182	0x3ceff9d2	0.029293928
183	0xbcacc006	-0.021087658
184	0x3bf48e33	0.0074632405
185	0xbc635a0d	-0.01387645
186	0x3c493706	0.012281185
187	0x3a330167	0.0006828517
188	0x3ce95f1c	0.028487734
189	0x3c35f00f	0.011104598
190	0xbba35ea7	-0.0049856487
191	0xbc820306	-0.015870582
192	0x3c6f5ad7	0.01460906
193	0xbc6d71e2	-0.014492484
194	0x3d2d7768	0.042350203
195	0x3cc5674b	0.024097105
196	0xbb3bfd07	-0.0028684752
197	0xbaeec377	-0.0018216212
198	0x3d09c15e	0.033631675
199	0x3c4ee06e	0.01262675
200	0x3cfde698	0.030993745
201	0x3c291b58	0.010321461
202	0x3c727a70	0.014799699
203	0x3bb07de0	0.005386099
204	0x3b9c2da1	0.0047661816
205	0x3d215511	0.039387766
206	0x3c8f6b80	0.017507315
207	0x3d16e599	0.036840055
208	0xbd0c8770	-0.03430885
209	0xbc6b740e	-0.014370931
210	0x3cbd3595	0.023096839
211	0xbd09ff37	-0.033690657
212	0xbd23bc05	-0.03997423
213	0x3ca69670	0.020335406
214	0xbcb83b76	-0.02248929
215	0xbd0986b5	-0.033575732
216	0xbbccb341	-0.0062469547
217	0x3d15da51	0.036585156
218	0xb896963f	-7.180543e-05
219	0xbc9d9014	-0.01923374
220	0x3c652500	0.013985872
221	0x3d03131a	0.03200064
222	0xbba072ba	-0.004896489
223	0xbd078d46	-0.033093713
224	0x3ccba77d	0.024860138
225	0x3bac9c8c	0.0052676853
226	0xbc86b068	-0.016441539
227	0x3bff2d02	0.007787348
228	0xbd2b8809	-0.04187778
229	0xbcae8110	-0.021301776
230	0xbcccf711	-0.025020154
231	0xbd05931e	-0.032611005
232	0xbd026179	-0.03183124
233	0xbc0cdd24	-0.008597646
234	0xbd0e2255	-0.03470071
235	0x3c04eaf7	0.008112661
236	0xbb384cb5	-0.0028121893
237	0x3c2daa88	0.01059974
238	0x3d4a3502	0.04936696
239	0xbc930a12	-0.017949138
240	0xbb33db3b	-0.0027443904
241	0x3d0babbb	0.03409932
242	0xbcd215c9	-0.025645154
243	0xbc942722	-0.018085066
244	0x3bbb38b7	0.005713548
245	0x3d18fe7b	0.037352066
246	0x3c7f322d	0.015575928
247	0x3ca6373e	0.020290013
248	0xbd0e8057	-0.034790363
249	0xbd0c6b43	-0.03428198
250	0xbc944bfe	-0.018102642
251	0xbc973407	-0.018457426
252	0xbb26df1a	-0.0025462569
253	0x3c3b0e59	0.011416995
254	0x3c684830	0.014177367
255	0x3cf25ee4	0.029586263

fcs1.bias f4 [400]
0	0xbd18f424	-0.037342206
1	0x3da18a34	0.07887688
2	0xbafb58d1	-0.001917625
3	0x3c6c414e	0.014419867
4	0x3d0e118a	0.034684695
5	0x3dd835b9	0.10557122
6	0x3dc57553	0.096415184
7	0xbdac5e2b	-0.084163986
8	0xbc949acc	-0.01814022
9	0xbb73c1f1	-0.0037194456
10	0x3c2618c9	0.010137745
11	0xbc82b72d	-0.015956486
12	0xbd3287d4	-0.043586567
13	0xbe05d611	-0.13069941
14	0x3cd07f42	0.025451306
15	0x3dcfff28	0.10156089
16	0x3de021e7	0.10943966
17	0x3cced5d2	0.025248442
18	0xbd2c2480	-0.042026997
19	0x3ce1d3ce	0.027566817
20	0x3de6d1e5	0.11270503
21	0x3dea3ecb	0.11437758
22	0x3d1cc64b	0.038275044
23	0x3d18c661	0.037298564
24	0x3d2f2b57	0.04276594
25	0x3d9634cb	0.07334288
26	0xbcff29c3	-0.031147843
27	0xbd009753	-0.031394314
28	0x3d03e37c	0.032199368
29	0x3d4087d9	0.047004554
30	0x3dc475b3	0.09592762
31	0x3bb3ae44	0.0054834206
32	0xbda5eb3c	-0.08101508
33	0x3c95ebb5	0.01830087
34	0xbd79aa88	-0.060953647
35	0x3d145cff	0.0362215
36	0xbdce6165	-0.1007717
37	0xbd7977bc	-0.060905203
38	0xbdd02e7b	-0.101651154
39	0xbdb92a5f	-0.09041285
40	0xbc57d4df	-0.013173311
41	0xbaf59596	-0.0018736597
42	0x3c19e22c	0.0093923025
43	0xbdc27a3b	-0.0949597
44	0xbda9aa8b	-0.082844816
45	0xbac70363	-0.0015183504
46	0xbe120a50	-0.14261746
47	0x3dbef23f	0.093235485
48	0xbd323b89	-0.04351381
49	0x3dafc877	0.085831575
50	0x3e07e8c3	0.13272385
51	0xbc786e13	-0.0151629625
52	0x3cc47cf1	0.023985358
53	0xba55cb00	-0.00081555545
54	0x3d815141	0.06314326
55	0xbd85d713	-0.06535163
56	0xbc7655c4	-0.015035097
57	0x3d847b77	0.064688616
58	0x3d95e6ad	0.073193885
59	0x3ccd6fbd	0.025077695
60	0x3c94e0fb	0.018173685
61	0xbd047041	-0.032333616
62	0x3d781e2b	0.060575645
63	0xbc9b1735	-0.018931964
64	0x3daa809e	0.08325313
65	0xbd5118b2	-0.051048942
66	0x3dc27758	0.09495419
67	0xbc0c3799	-0.008558177
68	0xbc89dd53	-0.016829168
69	0xbda450d0	-0.08023226
70	0xbc936963	-0.017994588
71	0xbd9c0f32	-0.07620086
72	0x3b857c5b	0.004073662
73	0xbdd6b099	-0.10482902
74	0xbde91ada	-0.11382075
75	0xbc6d3df9	-0.014480107
76	0x3cf64970	0.030064315
77	0x3cb578e5	0.022152374
78	0x3cab69ca	0.020924468
79	0x3de3cfc6	0.11123614
80	0x3d998878	0.074967325
81	0xbcc4969b	-0.023997596
82	0xb995e55c	-0.0002859038
83	0x3d895a7a	0.0670671
84	0xbd5a36b8	-0.05327484
85	0x3d550c13	0.052013468
86	0x3dd5210a	0.10406692
87	0xbb630968	-0.0034643058
88	0x3cafd562	0.021464054
89	0xbddd6046	-0.10809378
90	0xbcfb2e5f	-0.03066176
91	0x3cef9ca2	0.029249493
92	0xbb4411db	-0.002991787
93	0x3da6c554	0.08143106
94	0x3d8acb4b	0.06777056
95	0x3dfa664c	0.12226543
96	0x3d206e27	0.03916755
97	0xbca231bf	-0.019799111
98	0x3dc34559	0.095347114
99	0x3cbc276e	0.02296802
100	0x3d0a2d11	0.033734385
101	0xbdbee1dc	-0.09320423
102	0x3dae5cfa	0.085138276
103	0x3c355f24	0.011070047
104	0x3d07b51f	0.033131715
105	0xbc1e6805	-0.009668355
106	0xbc8546d1	-0.01626912
107	0x3d1abdfc	0.03777884
108	0xbd7c9f9a	-0.061675645
109	0xbdce4c02	-0.10073091
110	0xbc70d1a8	-0.014698423
111	0x3d5ee934	0.05442162
112	0xbd9893aa	-0.0745004
113	0x3c07d67c	0.008290883
114	0xbcaffe4c	-0.021483563
115	0x3ca0ccb0	0.019628853
116	0xbd3d34d4	-0.04619296
117	0xbd057457	-0.032581653
118	0xbc898153	-0.0167853
119	0xbd6ebeb8	-0.058287352
120	0xbd0e0c7b	-0.03467987
121	0xbc598621	-0.013276608
122	0xbc0f621a	-0.008751417
123	0x3d7a42ee	0.061098985
124	0xbd7b2e7c	-0.061323628
125	0xbd75bdaf	-0.05999535
126	0x3dc1e81c	0.094680995
127	0xbde3b9a7	-0.11119395
128	0x3c337b95	0.010954757
129	0xbde02603	-0.1094475
130	0x3db72be1	0.08943916
131	0xbcd5203f	-0.026016353
132	0x3d90bfa9	0.07067806
133	0x3dda51fa	0.10660167
134	0xbc96e2ce	-0.018418696
135	0xbdde77e8	-0.10862714
136	0x3cc8d393	0.024514949
137	0xbaaa6e6b	-0.0013002878
138	0xbda5b43f	-0.0809102
139	0xbcf8c598	-0.030367658
140	0xbcf77ed3	-0.030211842
141	0xbdc778d9	-0.09739847
142	0x3d921d9e	0.07134555
143	0xbdbeb68e	-0.09312163
144	0xbda38b5e	-0.079855666
145	0xbd21a318	-0.03946218
146	0xbd437801	-0.047721867
147	0xbcea2d16	-0.028585952
148	0xbd8e0187	-0.06933885
149	0x3dee5bf6	0.11638634
150	0xbd22ea8b	-0.03977446
151	0x3db351b6	0.087558195
152	0xbd16d374	-0.03682275
153	0x3d4ec348	0.050479203
154	0x3d3b8f65	0.04579105
155	0x3d88dd4d	0.06682835
156	0xbdacaa08	-0.084308684
157	0xbd857724	-0.06516865
158	0xbdb1b6fc	-0.086774796
159	0xbd8486f2	-0.06471051
160	0xbd90a807	-0.07063299
161	0xbd79094f	-0.060799893
162	0x3d5ee21a	0.054414846
163	0x3cf76d88	0.030203596
164	0xbda3638e	-0.07977973
165	0xbd4016e0	-0.046896815
166	0xbc4e8255	-0.012604316
167	0xbdc230b2	-0.09481944
168	0x3b5a4430	0.0033304803
169	0x3ddc19f7	0.1074714
170	0xbb60f51f	-0.003432579
171	0x3dd41815	0.10356156
172	0x3de326f8	0.11091417
173	0x3da56502	0.08075906
174	0xbd83428d	-0.06409178
175	0xbc6e8c1d	-0.014559773
176	0xbddf3f94	-0.109007984
177	0xbdc18e55	-0.09450976
178	0x3d127084	0.035751835
179	0x3dece95f	0.115679495
180	0x3d87d899	0.066331096
181	0xbdbb5983	-0.091479324
182	0xbdb777d2	-0.08958401
183	0x3dde94bb	0.10868212
184	0x3dcd20f1	0.10016049
185	0x3b3838aa	0.0028109946
186	0xbca0111c	-0.019539408
187	0x3d4ed2a8	0.050493866
188	0x3d9848e3	0.07435777
189	0x3d73dbfc	0.059535965
190	0x3c70b671	0.014691935
191	0xbdae6645	-0.085156
192	0xba2914dd	-0.0006449947
193	0x3c54ab0f	0.012980237
194	0x3d0e6346	0.034762643
195	0x3a266e94	0.0006348875
196	0x3dd48fdf	0.10379004
197	0xbdcbb963	-0.09947469
198	0xbdeb86b2	-0.115003005
199	0xbd86aa85	-0.06575493
200	0x3d4d3ef6	0.050108872
201	0xbdc76eb3	-0.09737911
202	0x3d36c9da	0.044626094
203	0x3cd15926	0.025555205
204	0x3d857a7e	0.06517504
205	0x3dd69e6f	0.104794376
206	0xbc8b0d55	-0.01697413
207	0xbc33286f	-0.010934933
208	0x3dcf54fd	0.10123632
209	0x3e09e12d	0.13464804
210	0xbcbd9c59	-0.023145841
211	0x3cdf0db5	0.027228216
212	0x3bb1aa83	0.005421938
213	0x3dcd1c05	0.1001511
214	0x3d8d7615	0.06907288
215	0xbdf8ea1d	-0.121540286
216	0xbab26224	-0.001360957
217	0x3d8895e9	0.06669218
218	0xbd038209	-0.032106433
219	0x3d91e0e9	0.07122976
220	0x3d404bac	0.046947166
221	0x3d8b4ddc	0.0680196
222	0xbc872e71	-0.016501637
223	0xbd09358a	-0.033498324
224	0xbdf98014	-0.12182632
225	0xbdcb7b71	-0.09935654
226	0xbabb3d47	-0.001428523
227	0xbd6504ec	-0.055912897
228	0x3d269230	0.04066676
229	0xbc1336a7	-0.008985198
230	0x3dae73b8	0.08518165
231	0x3a7fdfea	0.0009760844
232	0xbd897ec2	-0.0671363
233	0x39a87051	0.0003212714
234	0x3c712247	0.014717645
235	0xbd0e954d	-0.034810353
236	0xbdbc4ef5	-0.09194747
237	0xbdf5b97c	-0.11998269
238	0x3d6d3b7a	0.05791805
239	0x3dd4ee33	0.103969954
240	0x3d9d5198	0.076815784
241	0xbd817883	-0.06321814
242	0x3a7ba7b9	0.0009599883
243	0xbd87c03f	-0.06628465
244	0x3c2ebe1a	0.010665441
245	0x3d0d9277	0.034563508
246	0x3dd20289	0.1025439
247	0x3d6367c6	0.055518888
248	0xbc6ec917	-0.014574311
249	0x3abf983d	0.0014617514
250	0xbdcf644a	-0.101265505
251	0x3c7a5b29	0.015280523
252	0xbd79fd12	-0.061032362
253	0x3dbc85eb	0.0920523
254	0x3d7cd3f9	0.06172559
255	0xbd9d6254	-0.0768477

fc2.weight f4 [256, 404]
0	0x3d293aa5	0.041315693
1	0xbc9e10cf	-0.019295124
2	0xbbd2c765	-0.006432461
3	0xbcf8c9c4	-0.030369647
4	0x3c062648	0.008187838
5	0x3b7d0745	0.003860907
6	0xbcc49d41	-0.024000766
7	0xbca4e95e	-0.02013081
8	0x3cf58b09	0.029973524
9	0xbb699bcb	-0.0035645838
10	0xbd00b57c	-0.031423077
11	0x3c55689f	0.013025432
12	0x3ccd025b	0.025025537
13	0xbcbacc2f	-0.02280244
14	0x3b59771a	0.0033182562
15	0x3a9b8b07	0.0011866995
16	0x3ce5ebd6	0.028066557
17	0xbcd60f46	-0.02613033
18	0x3b91d6a4	0.004450636
19	0x3c9c52e5	0.019082496
20	0xb9329acb	-0.00017033068
21	0xbcd926aa	-0.026507694
22	0x3c3e14fe	0.011601685
23	0xbc83594b	-0.01603379
24	0x3af7f4d7	0.0018917572
25	0x3c284775	0.010270943
26	0xbccbb9c6	-0.024868857
27	0x3d0aa94e	0.033852868
28	0xbc9a5ce9	-0.018843131
29	0x3b2a013c	0.0025940677
30	0xbb596c6f	-0.0033176204
31	0x3ab4d93f	0.0013797655
32	0xbbc4bbc2	-0.006003828
33	0xbcbb997b	-0.022900334
34	0x3d2ef240	0.042711496
35	0x3c925999	0.01786499
36	0x3d121d4f	0.035672482
37	0xbbdc31e0	-0.0067198128
38	0x3caa4f60	0.020789802
39	0xbbf7fa5a	-0.007567686
40	0x3c8218ad	0.015880907
41	0x3c877c4a	0.016538758
42	0x3c24d1bf	0.010059773
43	0xbd09ad03	-0.033612262
44	0x3c5a5599	0.013326072
45	0xbbdc5e56	-0.006725113
46	0xbc3e8983	-0.011629465
47	0xbcb7d03c	-0.022438161
48	0xbcb90165	-0.022583673
49	0x3cf4f514	0.029902019
50	0x3d252e05	0.04032709
51	0x3baa2d53	0.0051933913
52	0x3c3c197f	0.011480688
53	0x3cab6802	0.020923618
54	0x3c606abb	0.0136973215
55	0x3c2e5af2	0.0106418
56	0xbd0d23e4	-0.034458056
57	0xbd28ca84	-0.04120876
58	0x3d1535c1	0.036428217
59	0xbbe527ed	-0.006993285
60	0x3d140fec	0.036147997
61	0xbcda0d10	-0.026617557
62	0xbcb6f557	-0.022333784
63	0x3d18446b	0.037174623
64	0x3c814c79	0.015783535
65	0xbaef95d0	-0.00182789
66	0xbb141a71	-0.0022598768
67	0xbad022ee	-0.001587955
68	0x3bf73a6c	0.007544806
69	0x3d0f973f	0.03505635
70	0xbc08f61f	-0.008359461
71	0xbceac16a	-0.02865668
72	0xbcddda70	-0.027081698
73	0xbcedf4d8	-0.029047415
74	0x3d195641	0.037435774
75	0xbd1a3d97	-0.037656393
76	0x3c13e641	0.009027065
77	0xbd013aa7	-0.031550076
78	0x3caf271c	0.021380953
79	0x3cfc32da	0.030785967
80	0xbd0f3649	-0.03496388
81	0xbd146d00	-0.036236763
82	0x3ca258ad	0.019817675
83	0xbcc66c78	-0.024221644
84	0x3bd368da	0.0064517083
85	0xbb74d02e	-0.003735553
86	0xbbd92651	-0.006626882
87	0x3bdcb5fb	0.006735561
88	0xbc0aea8d	-0.008478773
89	0x3bdeedc1	0.006803245
90	0xbcb77d76	-0.022398692
91	0xbb8f30e6	-0.004369843
92	0xbce2e897	-0.027698798
93	0x3ccb09fb	0.024785032
94	0x3afaede7	0.0019144387
95	0xbcafef05	-0.021476278
96	0x3d05eae4	0.032694712
97	0x3bc037fc	0.005866049
98	0xbc99d4c6	-0.018778216
99	0x3b1e2f01	0.0024136903
100	0xbccd8852	-0.025089417
101	0xbb29d7fe	-0.0025916095
102	0x3b4ee04d	0.00315668
103	0x3b121583	0.0022290654
104	0xbd1a90b9	-0.037735675
105	0x3d10266c	0.035192892
106	0xbd3922fe	-0.045199387
107	0xbd299384	-0.041400447
108	0x3ad56593	0.0016280882
109	0xbc21e7df	-0.0098819425
110	0xbb00e434	-0.001966727
111	0x3a8a3c5a	0.0010546551
112	0xbc0037b0	-0.007825777
113	0xbc2e0a06	-0.010622507
114	0xbbb3ad12	-0.005483278
115	0xbc9632a8	-0.018334702
116	0x3b87a096	0.0041390164
117	0x39a5a4d6	0.00031594065
118	0x3cdb9c7d	0.026808018
119	0xbb9789e6	-0.004624593
120	0xbc706145	-0.014671628
121	0xbccfa356	-0.02534644
122	0xbb482321	-0.0030538517
123	0xbd011e88	-0.031523257
124	0xbc1534bd	-0.009106812
125	0xbc178d9b	-0.00925007
126	0xbcfee556	-0.031115215
127	0xbd130c91	-0.035900656
128	0xbc5b079d	-0.013368514
129	0xbc6b5f59	-0.014365994
130	0x3bf25743	0.0073956563
131	0x3ceec8c3	0.029148465
132	0xbcacaf9b	-0.021079829
133	0xbc672176	-0.014107099
134	0xbc941cba	-0.018080104
135	0x3cdbf234	0.02684889
136	0xbc841be3	-0.016126579
137	0x3a5cd4da	0.00084240513
138	0x3c2f657d	0.010705349
139	0x3c131dc1	0.008979262
140	0xbc4ba318	-0.012429021
141	0x3c9dc594	0.019259252
142	0x3ca3bd60	0.019987762
143	0xbcfb52bc	-0.0306791
144	0xbcadc8bb	-0.02121388
145	0xbb241739	-0.0025038256
146	0xbc216be2	-0.009852381
147	0xbc670222	-0.01409963
148	0x3d379237	0.044817176
149	0x3ce2cdf9	0.027686106
150	0x3cde039f	0.027101336
151	0xbb5ed143	-0.0033999241
152	0xbbf6fea0	-0.007537678
153	0x39b68fbb	0.00034820833
154	0x3c5f8384	0.013642196
155	0x3d1860bb	0.037201624
156	0xbc836ea6	-0.016043972
157	0xbc435a62	-0.011923404
158	0xbc276c61	-0.010218711
159	0x3cd3798e	0.025814798
160	0xbc453d51	-0.012038545
161	0x3c955839	0.018230544
162	0xbc97623f	-0.018479465
163	0x3cfa25a0	0.03053552
164	0x3d0dacbd	0.034588564
165	0xbbff1ecd	-0.007785654
166	0x3d0ebbb6	0.034846984
167	0xbd0c53e5	-0.034259696
168	0x3cbc758a	0.023005266
169	0x3c625811	0.013814942
170	0xbd1f0aa6	-0.038828515
171	0xbccb8214	-0.0248423
172	0x3a97e630	0.0011588987
173	0x3cb18f8c	0.021674894
174	0x3cbcd322	0.023049895
175	0xbd0b5905	-0.034020443
176	0xbc352b43	-0.011057678
177	0x3bc2cede	0.0059450706
178	0x3d00dad6	0.0314587
179	0x3d001ba0	0.031276345
180	0xbc82fb41	-0.015988948
181	0xbd45957d	-0.048238266
182	0x3ac71ded	0.0015191414
183	0xbd089f6c	-0.03335516
184	0x3ce59e12	0.028029475
185	0xbd24e0d2	-0.040253468
186	0x3caae7d2	0.020862494
187	0xbcd38557	-0.025820417
188	0x3d592052	0.05300934
189	0x3ca3bd8a	0.01998784
190	0xbc8e43be	-0.017366286
191	0x3ce76163	0.02824468
192	0x3cb90fc8	0.022590533
193	0x3c118276	0.008881202
194	0x3a599e55	0.00083014864
195	0xbbf2b69d	-0.007407023
196	0xbb111aef	-0.0022141298
197	0x3d17556f	0.03694671
198	0xbab9bf41	-0.0014171378
199	0x3bfeabc6	0.007771942
200	0x3d0723d4	0.032993153
201	0x3d155aef	0.036463674
202	0xbca87997	-0.020565791
203	0x3cba4580	0.022738218
204	0x3b914986	0.0044338135
205	0x3c8dc16c	0.017304145
206	0x3cffc46e	0.031221595
207	0x3ca51ec8	0.02015628
208	0xbcd5c4e5	-0.026094863
209	0xbd0699d4	-0.032861546
210	0x3d369f24	0.044585362
211	0xbc5851e6	-0.01320312
212	0x3cd63968	0.02615042
213	0x3d1de615	0.0385495
214	0x3ca3829a	0.019959737
215	0x3ca29937	0.01984845
216	0x3c74bc23	0.014937433
217	0xbcadbad4	-0.02120725
218	0xbcc4b6c9	-0.02401294
219	0xbc00796d	-0.00784145
220	0xbba3ee68	-0.0050027855
221	0xbc774522	-0.015092166
222	0x3d208cbb	0.03919671
223	0x3d06fb1f	0.03295433
224	0xbce8ddc3	-0.028426057
225	0x3bbd6c74	0.005780751
226	0x3cf7cd3e	0.030249234
227	0xbb259325	-0.0025264707
228	0x3c7ef096	0.01556029
229	0x3bbbdb13	0.005732903
230	0x3cf88dc9	0.030341046
231	0xbc129dd7	-0.008948765
232	0x3ca86f21	0.020560803
233	0xbc82e1c5	-0.015976796
234	0x3ca50541	0.020144107
235	0xbcb4f289	-0.022088306
236	0x3cdf5117	0.027260346
237	0xbcbbe233	-0.022935009
238	0xbd1cd859	-0.038292263
239	0x38ac71f8	8.2228275e-05
240	0xbc284431	-0.010270164
241	0xbb21b10e	-0.0024672183
242	0x3cbb9d04	0.02290202
243	0xbb123145	-0.00223072
244	0x3cd96762	0.026538555
245	0xbb8be528	-0.004269261
246	0x3cfc2402	0.030778889
247	0xbc11a0aa	-0.008888403
248	0x3c79d4ca	0.015248487
249	0x3d166ed3	0.036726784
250	0x3d282c47	0.04105785
251	0x3ca5b499	0.020227717
252	0x3cc55720	0.024089396
253	0xbce1700f	-0.027519254
254	0x3c028f9a	0.007968808
255	0xbac2a051	-0.0014848803

fc2.bias f4 [256]
0	0x3d062f8a	0.03276018
1	0x3becaf35	0.0072230347
2	0x3c56f2db	0.013119425
3	0xbc8fe719	-0.01756625
4	0xbd1efb0f	-0.038813647
5	0x3acbe729	0.0015556562
6	0xbcdaa4da	-0.026689935
7	0x3cb908ef	0.022587268
8	0x3c405b8b	0.011740576
9	0x3d3f205d	0.046661723
10	0x3cd10c0d	0.025518442
11	0xbd1aa094	-0.037750795
12	0x3c96d662	0.018412773
13	0xbafc1780	-0.0019233078
14	0x3c455500	0.012044191
15	0xbb17eae3	-0.0023180775
16	0x3d06501f	0.032791253
17	0xbc00f700	-0.007871389
18	0xbd303f54	-0.043029144
19	0x3ce30598	0.027712628
20	0x3b8939f4	0.0041878168
21	0xbcaca139	-0.02107297
22	0xbd166d22	-0.03672517
23	0xbd1e9a95	-0.03872164
24	0x3be3e64c	0.0069549438
25	0x3d2b32e0	0.041796565
26	0xbca24670	-0.019808978
27	0x3c260abf	0.010134398
28	0xbd1bb4b2	-0.03801412
29	0x3c72f17b	0.014828081
30	0xbcc414d2	-0.02393571
31	0x3d3537b5	0.04424258
32	0x3b19be47	0.0023459361
33	0xbc591cd9	-0.013251507
34	0xbc517e84	-0.012786511
35	0xbce9dc25	-0.028547356
36	0xbc3d6f36	-0.011562159
37	0xbcda98ea	-0.026684243
38	0xbd1efa96	-0.038813196
39	0x3aec2257	0.0018015605
40	0x3c5b7730	0.013395116
41	0xbcdccea3	-0.026954
42	0x3d0dc005	0.034606952
43	0x3c8b8980	0.017033339
44	0xbc9fbf75	-0.019500474
45	0xbc0d11fe	-0.008610247
46	0x3c8e6fcd	0.017387295
47	0xbbc792ca	-0.0060904967
48	0xbc6620ba	-0.014045889
49	0xbd3234d4	-0.043507412
50	0xbc5d9851	-0.013525085
51	0x3c6fc378	0.014634006
52	0xbc9c1ca3	-0.019056624
53	0xbb183d13	-0.0023229762
54	0x3d24aca2	0.040203698
55	0xbbcdf64a	-0.0062854635
56	0xbbab3a6f	-0.0052254717
57	0x3ad77792	0.0016438833
58	0x3d1636aa	0.036673225
59	0x3ce49c71	0.027906628
60	0xbc428fa4	-0.011875067
61	0x3c9c3f19	0.019073056
62	0x3ca3e7d3	0.020008003
63	0x3d0b7d50	0.034055054
64	0xbbfc535e	-0.007700368
65	0x3be4a0fc	0.0069771986
66	0xbd4b7358	-0.049670547
67	0x3c63d260	0.013905138
68	0x3d2defde	0.042465083
69	0x3bd43138	0.006475594
70	0x3d1caff5	0.038253743
71	0xbb9e6202	-0.004833461
72	0xbc84922f	-0.016182987
73	0x3ce91876	0.028454047
74	0x3be21708	0.006899718
75	0xbb8716af	-0.004122577
76	0xbce917fa	-0.028453816
77	0x3c979687	0.018504394
78	0xbbf0171b	-0.007326973
79	0x3d3b0aa6	0.045664452
80	0x3b85d623	0.004084365
81	0x3c1406d0	0.009034827
82	0x3b905f0c	0.0044058617
83	0x3c0b3050	0.008495405
84	0xbd2caed4	-0.042158917
85	0x3d2b356b	0.04179899
86	0x3c0a010b	0.0084231
87	0x3c3c5038	0.011493735
88	0xbcdf9fab	-0.027297815
89	0x3d3d38d5	0.046196777
90	0x3d22c143	0.03973509
91	0xbcaaad54	-0.020834602
92	0x3d050c79	0.032482598
93	0x3d36f4fb	0.044667225
94	0x3ca02832	0.019550417
95	0xbd1fd85f	-0.039024707
96	0xbcb86291	-0.022507938
97	0xbd10403e	-0.035217516
98	0x3c02aa9b	0.007975246
99	0x3d04dd46	0.032437585
100	0xbca86208	-0.020554557
101	0xbd0df23a	-0.034654833
102	0xbd144ee8	-0.036208063
103	0x3c8eac72	0.017416213
104	0xbcf61e27	-0.030043675
105	0x3a85d754	0.0010211268
106	0x3cbc5fa4	0.022994824
107	0xbd1068ea	-0.035256304
108	0xbd18c05e	-0.03729283
109	0x3ae0f605	0.0017163163
110	0x3d1de8e4	0.03855218
111	0x3ce0ae34	0.027426817
112	0x3cc3d1e8	0.023903802
113	0xbd0a693c	-0.033791766
114	0xbd3e4a1e	-0.046457402
115	0x3d3a4bf5	0.045482595
116	0xbbe3b5d4	-0.006949166
117	0x3c722148	0.014778443
118	0x3c09b0ea	0.008403996
119	0xbcfbf6c5	-0.030757317
120	0xbc37652f	-0.011193558
121	0x3b4833b3	0.0030548393
122	0x3d2b6043	0.04183985
123	0x3d065b0c	0.032801673
124	0xbcf851f3	-0.030312514
125	0x3ba5d84f	0.0050611864
126	0x3c14c2c5	0.00907964
127	0x3d11c245	0.03558566
128	0xbb7fdfbb	-0.0039043266
129	0x3ab1d518	0.0013567535
130	0x3d273407	0.0408211
131	0x3cb09b7d	0.021558518
132	0xbcd83bac	-0.026395641
133	0xbb9dbac9	-0.0048135263
134	0xbcca806e	-0.024719443
135	0xbccde1da	-0.025132108
136	0xbd337a06	-0.043817542
137	0x3c2f3210	0.010693088
138	0x3d2711ec	0.040788576
139	0x3b058d4b	0.0020378407
140	0xbd080a49	-0.033212934
141	0xbc92fa8c	-0.017941736
142	0xbd260880	-0.04053545
143	0xbce0a7ca	-0.027423758
144	0x3a93a60f	0.0011264699
145	0xbcc6b712	-0.024257217
146	0x3c9d3568	0.019190505
147	0x3d3a235f	0.04544389
148	0x3d0afa07	0.03392985
149	0xbd2647f4	-0.040595964
150	0x3d3b56ca	0.045737065
151	0x3c6d4ebd	0.014484105
152	0xbccffbf3	-0.025388693
153	0xbd238980	-0.039926052
154	0xbd39b443	-0.045337927
155	0xbd0a1b4c	-0.03371744
156	0xbd2f8e06	-0.042860053
157	0xbd107bf2	-0.035274453
158	0x3ca29ce1	0.019850196
159	0x3c8a03af	0.01684746
160	0xbcf2c031	-0.02963266
161	0xbd3a1844	-0.045433298
162	0x3d2ada12	0.041711874
163	0xbbd13feb	-0.0063857934
164	0x3cdee2d2	0.027207766
165	0x3caae2cb	0.020860096
166	0xbd2ce1ac	-0.042207405
167	0xbc20eec6	-0.009822553
168	0xba045202	-0.00050476205
169	0x3b9d7568	0.0048052557
170	0xbc5b8ada	-0.013399804
171	0x3d29406e	0.04132121
172	0xbc229ff8	-0.009925835
173	0x3b073945	0.00206335
174	0xbd30ee97	-0.043196287
175	0x3d1fa691	0.03897721
176	0xbc39065a	-0.011293018
177	0xbcb490b8	-0.022041664
178	0x3c317f33	0.010833549
179	0xbcd18e7f	-0.025580643
180	0xbd39b6c0	-0.0453403
181	0x3d2910af	0.041275676
182	0x3c7d3a33	0.01545577
183	0xbca6059e	-0.02026635
184	0xbd1103e6	-0.03540411
185	0xbcf1fce8	-0.02953954
186	0x3d4f6cf1	0.050641004
187	0xbcddc2c6	-0.027070414
188	0x3cab7a61	0.020932378
189	0xbcf92f29	-0.030417996
190	0x3d05fe14	0.03271301
191	0xbb0d94aa	-0.0021603503
192	0x3d40633a	0.04696963
193	0x3c4591e9	0.0120587135
194	0xbc5529bc	-0.0130104385
195	0x3c149cfa	0.009070629
196	0xbc0c99b0	-0.008581564
197	0xbc8edbd3	-0.017438805
198	0xbd0271b9	-0.031846736
199	0x3ca8354a	0.020533223
200	0x3cad3311	0.021142514
201	0xbd032664	-0.032019034
202	0x3d25672e	0.040381603
203	0xbc723dbf	-0.014785229
204	0x3d2adafb	0.041712742
205	0x3c0213fa	0.007939333
206	0xbba8b252	-0.0051482106
207	0xbcfc88bc	-0.030826919
208	0x3cac94f3	0.021067118
209	0xbb2936dd	-0.0025820055
210	0x3ccb92f3	0.024850344
211	0x3d2ad799	0.041709516
212	0xbce57ecd	-0.028014565
213	0xbcea08dd	-0.02856868
214	0xbc52dee3	-0.012870523
215	0xbd116b99	-0.035503004
216	0x3c2200ca	0.009887883
217	0x3cf61302	0.03003836
218	0x3d072b61	0.033000354
219	0xbba421ee	-0.0050089275
220	0x3c6c5da7	0.014426625
221	0x3d16e5d5	0.03684028
222	0xbca731cb	-0.020409485
223	0xbd2aa2a4	-0.041659012
224	0xbd3f5e07	-0.04672053
225	0xbd15e252	-0.03659279
226	0xbcc147f4	-0.02359388
227	0x3c4f02e2	0.012634965
228	0xbc92e739	-0.017932521
229	0xbd01feb1	-0.031737033
230	0xbc634a73	-0.013872731
231	0x3c39b5ae	0.01133482
232	0x3c8ae985	0.016957054
233	0xbd2d9149	-0.042374883
234	0xbd00508c	-0.031326815
235	0xbd2349b2	-0.039865203
236	0x3c764e86	0.01503337
237	0x3bbb1722	0.0057095448
238	0xbc9ebf63	-0.01937837
239	0x3b954754	0.004555622
240	0xbced9f54	-0.029006638
241	0x3d3037ce	0.04302197
242	0xbd213b38	-0.039363116
243	0xb8e981b0	-0.00011134462
244	0xbd1ff0db	-0.039048057
245	0xb9d1cd1d	-0.00040016408
246	0xbd31fca9	-0.043453846
247	0x3b07232a	0.0020620325
248	0x3d1ed127	0.038773682
249	0xbd2c8113	-0.042115282
250	0xbd0e688f	-0.034767684
251	0xbcd6218c	-0.026139043
252	0x3c83fc8c	0.016111635
253	0xbd37711b	-0.0447856
254	0x3c752790	0.014963046
255	0xba0771b9	-0.00051667873

fc3.weight f4 [1, 256]
0	0x3a564434	0.0008173615
1	0x3b66a9f0	0.0035196505
2	0xbb129e40	-0.0022372156
3	0x3b847f7d	0.004043518
4	0x3ba73c72	0.005103641
5	0x3774726c	1.4570174e-05
6	0xbb8250fb	-0.003976939
7	0xbb386815	-0.002813821
8	0x3b2ab38d	0.0026046962
9	0xbb2fc045	-0.0026817482
10	0xbba0c1f0	-0.0049059317
11	0xbb44a4ee	-0.0030005532
12	0x3ad6e138	0.0016394025
13	0x3b35a119	0.002771443
14	0x3b031baa	0.0020005503
15	0xbbd1172a	-0.006380935
16	0xbbbc9a4a	-0.0057556974
17	0xbb8df9dd	-0.0043327645
18	0xbb24f8b2	-0.0025172648
19	0xbb82e9b7	-0.003995146
20	0x3c3b6f26	0.011440074
21	0xbb6d2bcf	-0.0036189442
22	0xbba34589	-0.0049826545
23	0x3b3c39ed	0.002872105
24	0x3b8a0e3f	0.004213124
25	0x3b91f4b9	0.004454222
26	0x3a7e75ea	0.00097069016
27	0x3ba5d778	0.0050610863
28	0xbae61af1	-0.0017555637
29	0xbb202c1a	-0.002444035
30	0xba5b696f	-0.0008369898
31	0x3b196f64	0.0023412341
32	0xbb665a3c	-0.0035148999
33	0x3b4cf13e	0.0031271721
34	0x3b224d3c	0.0024765274
35	0x3bc2bcc7	0.005942914
36	0xbbb402d4	-0.005493501
37	0xbbe170ba	-0.006879893
38	0xbb4078e5	-0.0029368934
39	0x3b58c136	0.0033074147
40	0xbae39217	-0.0017362264
41	0x3b958ae6	0.004563677
42	0xbb289559	-0.0025723784
43	0xbbac88f7	-0.005265351
44	0xbb34491a	-0.0027509392
45	0xbb0260c1	-0.0019894096
46	0xbb60415f	-0.0034218652
47	0x3bc4eac5	0.006009432
48	0xbb5f243a	-0.0034048692
49	0xbbaf9096	-0.005357812
50	0xbb66b19e	-0.0035201083
51	0xbb9ebd6e	-0.004844359
52	0x3b8a8577	0.004227336
53	0x3b9e2452	0.004826107
54	0xbb1d65b7	-0.0024016926
55	0xba4cefcf	-0.00078177167
56	0xbb0dfddb	-0.0021666202
57	0xbae62627	-0.0017558978
58	0xbb8fb905	-0.0043860697
59	0x3b92bbd1	0.004477956
60	0x3af12831	0.0018398819
61	0xbbaca39e	-0.005268528
62	0xbab5ba9a	-0.0013864816
63	0x39e8038c	0.0004425313
64	0xbb8a4cd2	-0.0042205835
65	0xb8d295c8	-0.00010041479
66	0x3c13dde8	0.009025075
67	0xbb021b47	-0.0019852684
68	0x3b80b60f	0.003927953
69	0xbb819936	-0.0039550317
70	0x3b808a2b	0.003922721
71	0xbab1ebbd	-0.0013574284
72	0xbb8d6750	-0.0043152943
73	0xbb68f4b6	-0.003554625
74	0xbb38ab78	-0.0028178375
75	0x3b0e77c7	0.0021738873
76	0x3bdb4c44	0.006692441
77	0xbb5d0a26	-0.0033727973
78	0x3b16e39e	0.0023023854
79	0xbaf51c98	-0.0018700538
80	0xbb5de39a	-0.0033857585
81	0xbb060bd9	-0.002045384
82	0xbb240b42	-0.0025031124
83	0x3b1f14fb	0.002427398
84	0x3c02de93	0.007987636
85	0x3b91b5f4	0.0044467393
86	0x3b2e98d6	0.002664139
87	0x3a40989c	0.00073469593
88	0xbba29487	-0.0049615535
89	0x3b7f9542	0.0038998877
90	0x3b426576	0.0029662526
91	0xbb22616d	-0.0024777309
92	0xbb8158cb	-0.0039473525
93	0xbad99767	-0.0016600908
94	0x3a8d4e0b	0.0010780705
95	0x3be5ee50	0.0070169345
96	0xbb26b302	-0.0025436287
97	0xbadb99ab	-0.0016754171
98	0xb9efc551	-0.00045732645
99	0x3bf16b25	0.007367509
100	0xbaca6ed2	-0.0015444404
101	0x3b2a5e8d	0.0025996298
102	0xbb8d9851	-0.004321136
103	0xb9d3c49a	-0.00040391536
104	0xbb3c58d6	-0.0028739474
105	0x3aa36090	0.0012464691
106	0xbae5d5d8	-0.0017535044
107	0x3a6b3b69	0.00089733914
108	0x3b917e90	0.0044401363
109	0x3badf70b	0.005308991
110	0xbb31f591	-0.0027154426
111	0xb94bca05	-0.00019434847
112	0xbb51c544	-0.0032008449
113	0x3b575e2a	0.0032862523
114	0x3b867dd0	0.0041043535
115	0xbba6253f	-0.005070358
116	0xbb26d633	-0.0025457263
117	0x3b9e5ea9	0.0048330617
118	0xbb4a9aa0	-0.0030914918
119	0x3ad52b60	0.0016263537
120	0x3b00ed2c	0.0019672615
121	0x3c1db139	0.009624773
122	0x3b6e997d	0.0036407404
123	0xbb30334d	-0.0026886046
124	0x3baedf82	0.005336703
125	0xba98b4e2	-0.0011650587
126	0xbb0e404f	-0.0021705811
127	0xbbcb3e15	-0.006202469
128	0xbae6df86	-0.0017614223
129	0xba8c64a0	-0.0010711141
130	0xbba2fe12	-0.004974135
131	0xba7a0370	-0.00095372554
132	0xbbaa2bdb	-0.0051932163
133	0xbafbb5cf	-0.0019203963
134	0x3c13e4e1	0.009026737
135	0xbba8bf55	-0.0051497617
136	0x3b2bb2ec	0.0026199175
137	0x3b440137	0.002990795
138	0x3ba956bb	0.00516781
139	0xbab1c3e8	-0.0013562413
140	0xbb0171f6	-0.0019751764
141	0x3a5711ca	0.000820425
142	0xbbd5bb30	-0.0065225586
143	0xbb70b3fc	-0.0036728373
144	0xbafc0446	-0.0019227348
145	0xbb7cf96b	-0.0038600813
146	0xba8657f4	-0.0010249601
147	0xbb1f0353	-0.0024263456
148	0x3a9faec5	0.0012182823
149	0xb9c0a21e	-0.0003674188
150	0xbbb33360	-0.005468771
151	0x394f8cb6	0.00019793477
152	0xbba14a06	-0.0049221544
153	0x3b2ef1bd	0.002669438
154	0x3b64832a	0.003486822
155	0xba82e8d8	-0.0009987606
156	0x3b8b0858	0.004242938
157	0xbaf4df62	-0.0018682296
158	0xbb76812d	-0.0037613616
159	0xbb89e466	-0.0042081354
160	0xbbaf9c29	-0.005359192
161	0xbb38a8bf	-0.0028176752
162	0x3a4b8e37	0.0007765027
163	0x3b4758c4	0.0030417899
164	0xbb68455e	-0.0035441737
165	0x3bed8e39	0.0072496203
166	0x3b515178	0.0031939428
167	0x3ab50e0e	0.0013813393
168	0xbbab9b1e	-0.0052369973
169	0xbb9d8a49	-0.0048077446
170	0x3bf4ee57	0.0074747014
171	0xbabc738f	-0.0014377701
172	0xbbb70ea0	-0.00558646
173	0x3b94d503	0.0045419945
174	0xbb41e210	-0.0029584207
175	0xbb6859b3	-0.0035453856
176	0xbac36934	-0.0014908672
177	0xba18ee97	-0.00058338925
178	0xb9e29d61	-0.00043223336
179	0x3c4ee694	0.012628216
180	0x3ad07262	0.0015903229
181	0x3b4a1875	0.0030837331
182	0xb82a9ed9	-4.0679097e-05
183	0x3c14fadb	0.009093012
184	0x3b74c127	0.0037346573
185	0x3b1c9982	0.0023895209
186	0xbb7803c6	-0.0037844046
187	0x3a942fba	0.0011305728
188	0x39dea6af	0.0004246733
189	0xbbabc4c6	-0.005241963
190	0xbb8a47ee	-0.0042200005
191	0x3b89e828	0.0042085834
192	0x3b5b060f	0.003342036
193	0xbac7de44	-0.0015248735
194	0x3b8cef51	0.0043009897
195	0x3aaef3a7	0.001334776
196	0x3b561cd2	0.0032670987
197	0x3b8c2581	0.0042769318
198	0xbacdb424	-0.0015693945
199	0x3b80b679	0.0039280024
200	0x3b4ec3ec	0.0031549884
201	0x3b10e59c	0.0022109514
202	0x3bc3f7f9	0.0059804884
203	0xbbcc01ac	-0.0062257852
204	0xbb81e00c	-0.003963476
205	0x3af71a73	0.0018852487
206	0x3b4c2e31	0.0031155462
207	0x3b93fb8e	0.0045160716
208	0xbb72ff9e	-0.003707863
209	0xbbc2eaa4	-0.0059483815
210	0xb9e99a98	-0.00044556404
211	0xbb414165	-0.002948844
212	0x3b899af0	0.004199378
213	0x3a2d67b2	0.0006614878
214	0x3b822ec7	0.0039728615
215	0xbb93207e	-0.0044899574
216	0x3b2411e1	0.002503507
217	0x3b3caf8c	0.0028791158
218	0xbb6447af	-0.0034832766
219	0xbb301458	-0.0026867595
220	0xbb9be1fb	-0.0047571636
221	0x3bebbfb6	0.0071944846
222	0xbba550fc	-0.0050450545
223	0xb9bda722	-0.00036173413
224	0x3c2b982e	0.010473294
225	0xbb38cc1e	-0.0028197835
226	0xbbaa1d43	-0.0051914765
227	0x3b22a24f	0.0024815982
228	0x3b3a2c5a	0.0028407783
229	0x3b0539bd	0.0020328604
230	0x3b63cead	0.003476064
231	0xba1ea06f	-0.0006051128
232	0xba8000f2	-0.0009765907
233	0x3b849946	0.004046592
234	0xbb794d73	-0.0038040548
235	0x3b395979	0.002828209
236	0x3b40707b	0.0029363919
237	0x3abce032	0.0014410077
238	0xbb349fa0	-0.0027560964
239	0xbb7892c6	-0.003792928
240	0x3b24b030	0.002512943
241	0xbb910dc0	-0.004426688
242	0xbb610a6b	-0.0034338485
243	0x3b55cad1	0.0032622109
244	0xbbc105f3	-0.005890602
245	0xbb325c7e	-0.0027215774
246	0xbbda95b1	-0.0066706766
247	0xbb1c4af9	-0.0023848398
248	0xbb11bd79	-0.0022238179
249	0xbbd6f923	-0.006560461
250	0x3bf77d4b	0.007552778
251	0x3b68b457	0.0035507882
252	0xbae7addc	-0.0017675715
253	0xbb3dfcbd	-0.0028989755
254	0xbba87f9b	-0.005142165
255	0xbadb68ea	-0.0016739641

bn.weight f4 [400]
0	0x3f51e643	0.81991976
1	0x3eb18973	0.34675178
2	0x3ddb51e6	0.1070898
3	0x3e2fede4	0.17180592
4	0x3f0c1444	0.5471842
5	0x3ef1fd3a	0.4726351
6	0x3ef80661	0.48442367
7	0x3f536ce0	0.82588005
8	0x3f0abb4f	0.5419206
9	0x3e837075	0.25671735
10	0x3d9d8ff6	0.07693474
11	0x3e396231	0.18103863
12	0x3f299e20	0.66256905
13	0x3f0c0f6e	0.54711044
14	0x3e38e6ff	0.18056868
15	0x3e0d07c6	0.13772497
16	0x3ebeb6c3	0.3724881
17	0x3d7743a7	0.060367253
18	0x3f22e5cc	0.6363189
19	0x3ed7c359	0.42141226
20	0x3dc2304c	0.09481868
21	0x3f6599c2	0.8968774
22	0x3f09651e	0.5366992
23	0x3e8a5381	0.27016833
24	0x3e849325	0.25893512
25	0x3eef947e	0.46792978
26	0x3ef48fc1	0.47765926
27	0x3ccb3b22	0.02480847
28	0x3db38137	0.0876488
29	0x3e9b6ce8	0.30356526
30	0x3f1d9f65	0.6157134
31	0x3f08e421	0.534731
32	0x3eb4a935	0.35285345
33	0x3f3ebb96	0.74504983
34	0x3f6100da	0.87891924
35	0x3f0628d6	0.5240606
36	0x3efcf6a7	0.4940693
37	0x3e382707	0.17983638
38	0x3f2655a7	0.64974445
39	0x3f05906e	0.5217351
40	0x3f2b562a	0.6692835
41	0x3cdccdf2	0.026953671
42	0x3c4aab1b	0.012369896
43	0x3e8c0f80	0.27355576
44	0x3e93f6ed	0.28899327
45	0x3e752669	0.23940434
46	0x3f129209	0.5725408
47	0x3d8f6102	0.07000925
48	0x3f2cb918	0.6746993
49	0x3ef86d63	0.48520955
50	0x3f0a0ea2	0.5392858
51	0x3e47b7f3	0.19503765
52	0x3f3aa3f8	0.72906446
53	0x3dbdde0e	0.09270869
54	0x3f6e0f13	0.9299175
55	0x3eeddf83	0.46459588
56	0x3f4f1bad	0.80901605
57	0x3eede6cd	0.4646515
58	0x3e518c0d	0.20463581
59	0x3f64b01c	0.8933122
60	0x3da7ae8a	0.081875876
61	0x3f379cd4	0.71723676
62	0x3f5ea769	0.869742
63	0x3eb13677	0.34611866
64	0x3f3d15fd	0.73861676
65	0x3e5ba051	0.21447875
66	0x3f11d00d	0.56958085
67	0x3ec98cfe	0.3936538
68	0x3f4df81d	0.80456716
69	0x3f460539	0.7735172
70	0x3ece3e78	0.40282035
71	0x3ea52086	0.32251376
72	0x3f08b5ae	0.5340222
73	0x3f1ca337	0.61186546
74	0x3c31ae79	0.01084482
75	0x3f61e5d2	0.882413
76	0x3f07fe95	0.53122836
77	0x3f261c76	0.6488718
78	0x3f0421bc	0.51613975
79	0x3ea8640e	0.32888836
80	0x3ed618be	0.41815752
81	0x3e193772	0.14962557
82	0x3ee9e098	0.45679164
83	0x3f3f1256	0.74637353
84	0x3f599977	0.84999794
85	0x3f0c939a	0.5491272
86	0x3ea41758	0.3204906
87	0x3e7b4018	0.24536169
88	0x3f0de9fd	0.5543516
89	0x3f1a00d2	0.601575
90	0x3ed4600c	0.41479528
91	0x3f418c6b	0.75604886
92	0x3ef5de49	0.48021153
93	0x3e5615e1	0.20906784
94	0x3e8ae695	0.27129045
95	0x3f090162	0.53517735
96	0x3f54735e	0.82988536
97	0x3e8771fe	0.26454157
98	0x3f6e634e	0.93120277
99	0x3f3845d7	0.7198157
100	0x3ea1c0cc	0.31592405
101	0x3ec445b9	0.38334444
102	0x3e1f16a7	0.15535985
103	0x3e7a6e44	0.24456125
104	0x3f19ca0b	0.6007392
105	0x3dc60c4d	0.09670315
106	0x3f52fdbf	0.82418436
107	0x3f3f9d79	0.7484966
108	0x3f0dbf52	0.55370057
109	0x3db25354	0.087073
110	0x3ec2eab4	0.3806969
111	0x3ecf7f0e	0.40526623
112	0x3f6b9dc4	0.92037606
113	0x3edbae2a	0.42906314
114	0x3e886d48	0.26645875
115	0x3ee31301	0.44350436
116	0x3ef69d97	0.48167107
117	0x3f246cc6	0.64228475
118	0x3de19b27	0.11015921
119	0x3dbdf48f	0.092751615
120	0x3f6cd461	0.92511564
121	0x3f0f8e8f	0.560769
122	0x3f0137f1	0.50475985
123	0x3e75860b	0.23976915
124	0x3ed5e950	0.41779566
125	0x3f5f7192	0.8728267
126	0x3f6217e5	0.8831771
127	0x3e548f0e	0.20757696
128	0x3f67f955	0.90614825
129	0x3f4d5491	0.80207163
130	0x3eed3678	0.4633062
131	0x3e06ce29	0.13164581
132	0x3f3951df	0.7239055
133	0x3f606a84	0.8766253
134	0x3f787f40	0.9706917
135	0x3ef1dcd3	0.47238788
136	0x3f67e470	0.9058294
137	0x3df4a0b1	0.11944712
138	0x3f4c145c	0.79718566
139	0x3e1cdaaa	0.15317789
140	0x3ec4395a	0.38325006
141	0x3ee8aa05	0.45442215
142	0x3f52e0a0	0.82374
143	0x3f0c9a0c	0.54922557
144	0x3e868b41	0.26278117
145	0x3f397a63	0.7245237
146	0x3f650576	0.8946146
147	0x3d09ca6e	0.033640318
148	0x3f50f25a	0.816198
149	0x3e557dce	0.20848772
150	0x3eddcc41	0.43319896
151	0x3f6b3fbd	0.9189413
152	0x3f2333a3	0.63750666
153	0x3e20472e	0.15652153
154	0x3f170153	0.58986396
155	0x3f609a05	0.87735015
156	0x3f56328f	0.83670896
157	0x3f54ba16	0.83096445
158	0x3f6a1521	0.9143849
159	0x3e086b20	0.13322115
160	0x3e8e3922	0.27777964
161	0x3f1acf5d	0.6047266
162	0x3f2d81d7	0.67776245
163	0x3f44e586	0.76912725
164	0x3e080be9	0.13285793
165	0x3f565e51	0.83737665
166	0x3e334d24	0.17509896
167	0x3f5a1d35	0.85200816
168	0x3f78aba0	0.9713688
169	0x3f5119eb	0.8168017
170	0x3e294b0f	0.16532539
171	0x3eba87f6	0.36431855
172	0x3f56229e	0.8364657
173	0x3f199f81	0.6000901
174	0x3ecb783a	0.39740163
175	0x3f27a30d	0.6548317
176	0x3e944f53	0.2896677
177	0x3ed94305	0.42433944
178	0x3f3b36a8	0.73130274
179	0x3df6587f	0.12028598
180	0x3f31c89e	0.6944674
181	0x3f49dd8d	0.78853685
182	0x3be1cf79	0.0068911877
183	0x3e916995	0.28400865
184	0x3edc54a7	0.43033335
185	0x3eb4ef32	0.35338742
186	0x3f6e1eaa	0.9301554
187	0x3f4d1479	0.80109364
188	0x3f7550ec	0.958266
189	0x3f2297ec	0.63513064
190	0x3f34df4f	0.7065324
191	0x3de1a805	0.11018375
192	0x3e217e1f	0.15770768
193	0x3e501f92	0.20324543
194	0x3da99315	0.08280007
195	0x3f4b0369	0.7930208
196	0x3ecb95b2	0.39762646
197	0x3f18e375	0.5972207
198	0x3ea96ea3	0.33092222
199	0x3eb69ab7	0.35664913
200	0x3ed66b09	0.41878536
201	0x3de677f8	0.11253351
202	0x3f58c8e7	0.8468155
203	0x3f105b65	0.56389457
204	0x3eeafaf0	0.45894575
205	0x3e46cea4	0.19414765
206	0x3f1bc0bd	0.6084097
207	0x3f70d4a7	0.9407448
208	0x3efce684	0.4939462
209	0x3f716a4f	0.9430284
210	0x3f5ccf45	0.8625377
211	0x3dd00093	0.101563595
212	0x3f63bb77	0.88957924
213	0x3f6ef4be	0.93342197
214	0x3f2163d2	0.6304294
215	0x3f46ef33	0.7770874
216	0x3e8197d0	0.25311136
217	0x3f62c8fe	0.8858794
218	0x3f5230ab	0.8210551
219	0x3e913486	0.28360385
220	0x3ec345c6	0.3813917
221	0x3f7285b5	0.9473527
222	0x3f072b17	0.52800125
223	0x3eab0baf	0.3340735
224	0x3f6af016	0.9177259
225	0x3f3549c1	0.70815665
226	0x3f3f0b19	0.7462631
227	0x3ea5d54a	0.3238929
228	0x3eee8016	0.46582097
229	0x3f4ea2c8	0.80717134
230	0x3d06564d	0.032797147
231	0x3c4d00c1	0.012512387
232	0x3eabe622	0.33574015
233	0x3f08a540	0.5337715
234	0x3ec8bf87	0.39208624
235	0x3f21c24b	0.6318709
236	0x3e82124c	0.25404584
237	0x3f6d75f2	0.92758095
238	0x3ec9e684	0.39433682
239	0x3e8b9a65	0.2726623
240	0x3f75df8b	0.96044225
241	0x3d0b22e0	0.033968806
242	0x3f37ccb8	0.7179675
243	0x3ed0c0ca	0.40772086
244	0x3e287836	0.16452107
245	0x3f710caa	0.9415995
246	0x3e9838ef	0.29730937
247	0x3ee266f8	0.44219184
248	0x3f03c5e0	0.5147381
249	0x3e8e360a	0.27775604
250	0x3e970659	0.2949703
251	0x3f6cdffc	0.92529273
252	0x3f412526	0.7544731
253	0x3d01663d	0.031591643
254	0x3e7c437b	0.24635117
255	0x3d35739c	0.044299707

bn.bias f4 [400]
0	0x3bfc782c	0.0077047553
1	0x3a87df32	0.00103662
2	0x3c3eb6ce	0.011640264
3	0x3b8eac10	0.0043540075
4	0xbc07156d	-0.008244854
5	0x3b09bd13	0.0021017238
6	0xbc0464a7	-0.008080638
7	0x3ad19b7a	0.001599177
8	0x3a0dd63a	0.00054106454
9	0x3bd0cfbe	0.006372421
10	0x39ce4720	0.00039344374
11	0x3b1a8684	0.0023578713
12	0xbb11566e	-0.002217676
13	0x3bbc8ca5	0.005754071
14	0x38d50d99	0.00010159164
15	0x3b70eb89	0.0036761484
16	0xbbe984e7	-0.007126439
17	0x3b2d9995	0.0026489247
18	0xbc57df91	-0.013175861
19	0x3ba242fa	0.004951832
20	0x3c04a584	0.008096103
21	0x3b1d0f43	0.0023965396
22	0xbc1aa2bd	-0.009438214
23	0x3b458cb3	0.0030143678
24	0xbbd9cd61	-0.0066467975
25	0x3b188e4a	0.002327817
26	0x3b9b9709	0.0047482294
27	0xbb4e1054	-0.0031442838
28	0xbb958a92	-0.004563638
29	0x3b9a5a16	0.004710446
30	0xba84e6a3	-0.0010139536
31	0x3b6a2266	0.003572607
32	0x3bc200d9	0.005920511
33	0xb998f53f	-0.00029174422
34	0x3b9c98b8	0.0047789477
35	0x3ba5cd91	0.005059906
36	0x3c01639e	0.007897286
37	0x3bc1ba8b	0.0059121302
38	0x3b836198	0.004009437
39	0x3acc14f8	0.0015570214
40	0x3ba7c962	0.0051204422
41	0xba929063	-0.0011181947
42	0xba1ccd25	-0.00059814967
43	0x3b41dcb6	0.0029581017
44	0x3a97e700	0.0011589229
45	0xbb955989	-0.0045577926
46	0x3bc97b28	0.0061487146
47	0x3b59aba2	0.0033213873
48	0x3a03b89a	0.0005024761
49	0xbb1e7249	-0.0024177006
50	0x3b1a7eaa	0.0023574033
51	0x3c3273fe	0.0108919125
52	0x3af5f762	0.0018765742
53	0xb9c62a90	-0.00037797214
54	0x3b7a4ffe	0.0038194652
55	0xbb1f326d	-0.002429153
56	0xba2152d4	-0.0006154005
57	0x3a6fb763	0.0009144453
58	0xbbc454a5	-0.0059915357
59	0x3a8cffd1	0.0010757392
60	0x3aeda5a3	0.0018131029
61	0x3b8e130a	0.0043357657
62	0xba2b726a	-0.00065401813
63	0xbb6735da	-0.00352799
64	0x3aadf144	0.0013270755
65	0xbc1642e6	-0.009171223
66	0xb96b23db	-0.00022424704
67	0x3b13f7f5	0.0022578214
68	0x3bd16fb5	0.0063914903
69	0xbb9bf796	-0.004759739
70	0x3b86acfd	0.0041099773
71	0x3b31b8f3	0.0027118295
72	0xba543e40	-0.0008096434
73	0xbaf5c8fd	-0.0018751916
74	0x3ab6e681	0.0013954194
75	0xbabac643	-0.001424976
76	0xbbce0a30	-0.0062878355
77	0xbb9eb288	-0.00484306
78	0xbb799428	-0.0038082693
79	0xbaeee0dc	-0.0018224972
80	0x36711ae0	3.5927442e-06
81	0xbb820840	-0.0039682686
82	0xbc0f43a3	-0.008744153
83	0x3ba1428e	0.004921264
84	0xb73c4dd3	-1.1223793e-05
85	0x3995394c	0.00028462184
86	0xbb28d41f	-0.00257612
87	0x3b06cb48	0.0020567942
88	0x392d6e73	0.00016539711
89	0xbbf3c075	-0.007438714
90	0x3b83bd28	0.004020352
91	0x3b6a5522	0.003575631
92	0xb6c4b240	-5.862006e-06
93	0xbb12a4e6	-0.002237612
94	0xbbaae393	-0.0052151172
95	0x3b74507b	0.0037279415
96	0xbb0b860f	-0.0021289622
97	0x398dc6d2	0.00027041748
98	0xbb4ed5ef	-0.003156062
99	0xb893ce8c	-7.0479786e-05
100	0xb8945332	-7.072686e-05
101	0x3c03e7e1	0.00805089
102	0xbabd65e6	-0.0014449924
103	0xbbab72f3	-0.005232209
104	0x3b45d433	0.0030186295
105	0xb883bf04	-6.282146e-05
106	0x3b5a785f	0.0033335907
107	0x3b21cde9	0.0024689382
108	0xbb387483	-0.0028145618
109	0xb9b53a10	-0.0003456627
110	0x3b3bff04	0.0028685937
111	0x3b3737f7	0.0027956942
112	0x39a311f2	0.00031103153
113	0xbb65e431	-0.003507864
114	0x3bb0d44d	0.005396402
115	0x3a644c8e	0.00087089173
116	0x3942b969	0.00018570352
117	0x395a6477	0.00020827526
118	0xbad07bad	-0.0015905999
119	0xbc070a94	-0.008242268
120	0x3a79ce11	0.00095293025
121	0xbb098d3c	-0.0020988723
122	0x3a53f8ea	0.00080861023
123	0x3bb0cb6e	0.0053953445
124	0x3accf386	0.001563654
125	0xb94c4bc8	-0.00019483187
126	0xbb7e2dd1	-0.0038784633
127	0xbb4b7019	-0.0031042157
128	0xbbb29b4a	-0.005450641
129	0x3bb7d751	0.0056103845
130	0x3bd1cf30	0.0064028725
131	0x3b06c563	0.002056443
132	0x3b057731	0.0020365233
133	0xbbcf7171	-0.006330662
134	0x3c1a006e	0.0093995165
135	0xbb9aca45	-0.0047238194
136	0x3be2d5a4	0.0069224406
137	0xbb275088	-0.0025530178
138	0x3b1066fb	0.0022034037
139	0x3b0516a5	0.0020307687
140	0xbbb0e15b	-0.005397958
141	0x3b345996	0.0027519218
142	0xbb8ec435	-0.004356886
143	0x3b1ccf54	0.0023927288
144	0x3bae875e	0.0053261956
145	0xbbcb5236	-0.0062048687
146	0xbb9a72f4	-0.0047134105
147	0xbac512be	-0.0015035493
148	0x3c584a7e	0.013201354
149	0xb9da3f28	-0.00041627255
150	0x39975800	0.0002886653
151	0xba98ea0a	-0.0011666429
152	0xbacf3af6	-0.0015810418
153	0x378629d3	1.599352e-05
154	0xbb58592f	-0.0033012142
155	0xbac69054	-0.0015149214
156	0x3b6526f2	0.003496584
157	0x3b4eda14	0.003156309
158	0x38e3271e	0.000108314896
159	0xbaf9be43	-0.0019053895
160	0xbab70845	-0.0013964257
161	0x3b8968fd	0.004193424
162	0x3c39e491	0.011345998
163	0x3b75433e	0.0037424113
164	0x3b607a51	0.0034252594
165	0x3a620d16	0.0008623166
166	0x3b3fa27e	0.002924114
167	0x3bdaa07b	0.006671963
168	0x3aa00826	0.001220946
169	0xbb9f9265	-0.0048697465
170	0xbb89743a	-0.0041947635
171	0x3a919f0e	0.0011110024
172	0x3bcc6cc6	0.0062385527
173	0x3b26a96e	0.0025430578
174	0xbb050b5e	-0.0020300965
175	0xbbc34ff6	-0.00596046
176	0xbb63f68f	-0.0034784412
177	0xbb2e290f	-0.0026574766
178	0x3acf2866	0.0015804886
179	0x3b80246f	0.003910593
180	0x3afbc22d	0.0019207649
181	0xbb285018	-0.0025682505
182	0xb9f46e83	-0.00046621644
183	0xbc16ab8e	-0.009196175
184	0x3a70f450	0.0009191679
185	0x3b48b451	0.0030625055
186	0x3bad6954	0.005292097
187	0xba98a3f7	-0.0011645545
188	0x39d311db	0.0004025836
189	0x3b5d72be	0.0033790316
190	0xbaece1f8	-0.0018072715
191	0xbb1384a6	-0.0022509485
192	0xb763897c	-1.3562265e-05
193	0x3bab1f0b	0.0052222065
194	0x3a9bd447	0.0011888825
195	0x3b419288	0.0029536802
196	0x3b04575a	0.0020193667
197	0xbb1d35bd	-0.002398833
198	0xbb399472	-0.002831724
199	0x3ac2ce0b	0.0014862431
200	0xbb72d077	-0.0037050524
201	0x38f919cb	0.000118780496
202	0x3bc1715a	0.005903405
203	0x3b5c2d8d	0.0033596486
204	0x3aedc9bf	0.001814179
205	0x3b908df3	0.004411453
206	0xbbf41e98	-0.007449936
207	0xbae867b3	-0.00177311
208	0xb99fc87c	-0.00030476216
209	0x3baccde2	0.0052735666
210	0xbb51b1f4	-0.0031996937
211	0xba13d003	-0.0005638601
212	0x3ac3415f	0.0014896801
213	0xbb0dabae	-0.0021617222
214	0xbba66755	-0.005078236
215	0x373f3c8e	1.1398586e-05
216	0xbbc9f44f	-0.006163157
217	0x3b3e033d	0.002899363
218	0x3b5b1629	0.0033429957
219	0xbb5e2dc1	-0.0033901783
220	0x3b030a74	0.0019995244
221	0xba068ebf	-0.0005132965
222	0x3b21c736	0.002468539
223	0x3bbd3328	0.0057739206
224	0x3b2545d2	0.0025218618
225	0xba29284c	-0.0006452843
226	0xb920a5b2	-0.00015320515
227	0x3bfc107f	0.007692396
228	0x3a1d5d73	0.0006003
229	0x3b15e44d	0.0022871674
230	0x3c2e5d2b	0.01064233
231	0xba96083a	-0.0011446544
232	0xbb49493a	-0.0030713812
233	0x3ba4eccd	0.0050331117
234	0xba77e81a	-0.0009456888
235	0x3ba993ee	0.0051751053
236	0x3ba1fccc	0.004943466
237	0x3b7a86cb	0.0038227316
238	0x3ba3c6b0	0.0049980506
239	0xbb7a8539	-0.003822638
240	0x3a5ed2e1	0.00085000513
241	0x3b8508f2	0.0040599043
242	0x3c1703c4	0.009217206
243	0x3b101d81	0.0021990242
244	0x3b88ba6e	0.004172615
245	0xbb3b7738	-0.0028604995
246	0x3c03a639	0.008035236
247	0xbb30e5bf	-0.0026992408
248	0x3b466cf3	0.003027734
249	0x3b53768d	0.0032266707
250	0xbba2f5b0	-0.004973136
251	0x3c53698a	0.01290358
252	0x3b713df9	0.003681062
253	0x3c0879a5	0.008329784
254	0x39e282ba	0.00043203478
255	0xba749362	-0.0009329823
