projects/tennis/checkpoint/E15/E15.12_critic0_15000.pt (torch_old, 502006 bytes, 9 tensors)

fcs1.weight f4 [400, 48]
00000000: edcc cb3c 93d9 ac3b 7d7c a3bc 7c32 1fbc
00000010: 97a4 12bd f899 d3bc 3e0c e8bc 1a96 35bc
00000020: b974 8e3c 0bea 953c 4928 273c d859 323c
00000030: 4242 f93c 0121 09bc 0d03 c3bc 9127 953c
00000040: dfa0 1a3c 0d7c e0bc 5a3e d93b 58da ccbc
00000050: 7d29 8e3c ad4c 0abd 6eb0 823b 2b75 ac3b
00000060: 8346 6ebc 9f21 2bba 424c fa3c 1717 0a3c
00000070: 5d66 303c 3f19 24bb 6658 643c 8570 8a3c
00000080: fe74 ae3c 8e1c b83c 2feb 84bc c543 613c
00000090: 0724 d2bc 435e d9bc 8285 4c3c da85 60bb
000000a0: 90c7 6ebc f1e9 c53c 6473 94bc 12c7 77bb
000000b0: 8aba 30bd 3ed6 133d a582 233d 8778 0739
000000c0: b3a8 1a3c 511c 923a 4f3a 19bc 9c1f 02bb
000000d0: aec0 7dbc a4ea 84bb 992c 813c 9154 10bb
000000e0: 2e74 c23c d520 22b9 429f 313c b6c2 ad3a
000000f0: c580 80bc 8697 bd3b 35bc 6ebc 4ad7 fc3a
00000100: 3ae6 0f3c bdb9 263b e2f3 4139 0547 06bb
00000110: 2ab6 74bc 6a4c 49bc 9dcc c8bb 809b 01bb
00000120: 3300 2dbc 7f16 b33a 7345 f1ba 6ef0 9d3b
00000130: f8a5 f4bb 4ca9 3cbc 0b98 7bbc 6da4 bb3a
00000140: de8d 0eb7 1b15 333b b08f 993b 1b55 893b
00000150: f5d1 453c 1b7d 123b 7a94 ab3b ca73 b43a
00000160: 88a1 7bbb 96cc 803b 8e5d d6bb 86fc 943b
00000170: 987d 683c 30f2 9ebc 7b23 6dbb c50d abba
00000180: f5f9 87bb 4182 243c 0aa1 0c3c ed97 9fba
00000190: 6f65 a23b d6a5 023c 13d0 ad3b 5df1 ed3b
000001a0: d6ef acbc 7259 9b3b a590 ebbc bedc fb3b
000001b0: 0eb3 68bc 932f 253c eb92 c83c ae6e 113b
000001c0: 164a 69bc 7af9 a63b 94d7 10bc b3d5 5139
000001d0: c623 39bd 7f11 d43c 90f8 813c 53f7 ca3b
000001e0: 7950 91bc e6ed 173b 4845 e13c 7b6d 8fbb
000001f0: 24ab eebb 040e 4a3c 8581 d03c 62ef 74bc
00000200: 357f b53c 7870 983a 3dac dc3c 080e 7abc
00000210: 20e9 9a3c 4e3a 6bbc 58e2 e03b 0247 e5ba
00000220: ff9a 2bbb cf98 05bc 8f9a 0bbd f5b4 59bc
00000230: d2e8 bfbb 37a9 073b 3362 f93c 5916 5abb
00000240: df73 10bc 91fc a0b9 6956 3b3b 38dd 2a39
00000250: 6750 7abc ab79 9cbb 12c0 69b9 5223 2b39
00000260: b01e 1b3c 8b4f 9db8 cc2e 85ba d6e4 2e39
00000270: 6afb 62ba b18e d9bb 35f2 163b 80ed 2d39
00000280: 9f8c 093c 82ad ecb9 8b8e 2eba be48 5738
00000290: 3964 8bba 6ccc 583b 5e5e e03a 8d14 0e39
000002a0: b32e bfbb 7a02 34ba 9b23 f23b 1b38 14b9
000002b0: 43a7 87bc b800 3abb 8c30 27ba 2486 56b9
000002c0: 4223 a83b d2c3 3eba ae2b da3b 6302 1bb9
000002d0: a1f5 b3ba c809 8f3b 9043 0c3b d63e 5db9
000002e0: 3da2 4f3a 66a4 dab9 e09d 92bb c34f 90b8
000002f0: df7a be3c 76e4 9cbb 11d4 27bc b021 7139
00000300: 38a2 ae3c 0827 603c 78bc 4f3c fd04 6e3b
00000310: 87bb c73c ef1d a2bc 42d8 04bd ba93 1bbc
00000320: 10c4 06bc b25a 873c 3706 b93c c7a7 483c
00000330: 6170 a2ba b8b7 5a3c 7fd4 bbbc be1c 47bc
00000340: 6167 aebc 8fd9 893c ed05 ffbb 5a6e 0abc
00000350: 6a53 59ba 1697 f8bc 9dc8 7b3c 192c 32ba
00000360: 778a 003d 369f 903c d996 b43c e4ba 493c
00000370: 6195 00bd f96a 96bc f77a 963c 12dc 133c
00000380: 2c00 073c 5571 20bc f746 38bd 5bbd b1bb
00000390: f7d7 803b 3650 373c f07d f93c 7277 163c
000003a0: f54d 69ba dd8b eb3b 7da4 da3c f73b 9fba
000003b0: d929 473c d3b9 0fbd cb42 313b 4f72 983c
000003c0: aa32 443d c612 29bd 9e59 45bc 41aa 16bc
000003d0: 79c5 0bbd 382a 1fbd e27c e5bc 4ad6 46bb
000003e0: 7012 9abc b062 8fbc 55c9 923a b3a0 46bc
000003f0: bd96 0f3b 8a96 8e3b fed3 533c 3c2d 34bc
0.02487799 0.0052749603 -0.019956822 -0.009716626 -0.035801496 -0.025830254 -0.02832615 -0.01108315
0.017389642 0.018300077 0.010202476 0.010885678 0.030427102 -0.008369685 -0.023805166 0.018207343
0.009437769 -0.027402902 0.0066297473 -0.025006458 0.017353768 -0.03376453 0.003988317 0.005262991
-0.0145431785 -0.0006528142 0.03055394 0.008428357 0.010766593 -0.0025039462 0.013937091 0.016899357
0.02129602 0.022474553 -0.016225426 0.013749068 -0.025651945 -0.026534205 0.012483003 -0.003425947
-0.014573947 0.024159404 -0.018121429 -0.0037807864 -0.043146648 0.03609299 0.039919514 0.00012919503
0.009439635 0.0011147355 -0.009352281 -0.0019855266 -0.015487833 -0.0040562917 0.015768336 -0.0022023062
0.02373704 -0.00015461755 0.010841193 0.0013256881 -0.015686402 0.0057858853 -0.014571239 0.0019290235
0.008782918 0.0025440298 0.00018496768 -0.0020489108 -0.014936009 -0.012286285 -0.0061279074 -0.0019776523
-0.0105591295 0.001366332 -0.0018407538 0.004819921 -0.007466074 -0.011514973 -0.015356074 0.001431597
-8.496891e-06 0.0027325812 0.0046863183 0.0041910536 0.012073983 0.00223524 0.0052362056 0.0013767418
-0.003839584 0.0039306385 -0.0065419143 0.0045467047 0.0141901 -0.019402593 -0.0036184478 -0.0013050368
-0.0041496702 0.010040821 0.008583317 -0.0012176015 0.0049559395 0.007974109 0.0053043454 0.0072614388
-0.021110456 0.0047408873 -0.028755495 0.0076862266 -0.014202846 0.010082143 0.024484118 0.0022191214
-0.014238855 0.005095658 -0.00884046 0.00020011402 -0.04520013 0.025887249 0.015865594 0.006194034
-0.017738568 0.002318257 0.027498856 -0.0043770648 -0.007283585 0.012332443 0.025452385 -0.014949651
0.022155384 0.0011630198 0.026937598 -0.015262134 0.01890999 -0.014357163 0.00686292 -0.0017492475
-0.0026184914 -0.008154108 -0.034082945 -0.013287772 -0.0058566118 0.0020700225 0.030442333 -0.003327748
-0.008816688 -0.00030705755 0.002858544 0.00016294874 -0.0152779585 -0.004775246 -0.00022292163 0.00016320989
0.009467766 -7.5011594e-05 -0.0010161041 0.00016679181 -0.00086586794 -0.0066393246 0.002303255 0.00016587041
0.008395343 -0.000451427 -0.0006658814 5.132774e-05 -0.0010634727 0.003308083 0.0017117967 0.00013549831
-0.0058344244 -0.0006866824 0.0073894984 -0.00014135281 -0.016559249 -0.0028381776 -0.00063777785 -0.00020458602
0.005131156 -0.00072771043 0.006658039 -0.00014782841 -0.0013729819 0.0043651797 0.0021402575 -0.0002109961
0.0007920599 -0.00041702687 -0.0044743866 -6.881312e-05 0.023251949 -0.004787977 -0.010243432 0.000229961
0.021317586 0.013681181 0.012679212 0.0036318891 0.024381412 -0.019789664 -0.032432802 -0.00949567
-0.008225456 0.01652274 0.022585971 0.0122470325 -0.0012393111 0.013349466 -0.022928474 -0.012152849
-0.02128953 0.016827373 -0.007782689 -0.008449161 -0.0008290323 -0.03034548 0.015367654 -0.0006796732
0.03138205 0.017654043 0.022044586 0.012312625 -0.03139246 -0.018361555 0.018369181 0.009024637
0.008239787 -0.009792645 -0.044989552 -0.0054241843 0.003931995 0.011188557 0.03045556 0.009183751
-0.0008899861 0.007188304 0.026689762 -0.0012148608 0.012155973 -0.035089325 0.0027047868 0.018609194
0.04789988 -0.04127767 -0.012045292 -0.009195865 -0.03412387 -0.038858622 -0.02801365 -0.0030340129
-0.01880762 -0.017503113 0.0011198918 -0.012123275 0.0021909915 0.0043514417 0.012928961 -0.010997113

fcs1.bias f4 [400]
00000000: 9b5d 93bd 39ad e4b9 07db 263c 5cfc 95b5
00000010: 4a1d 8cbc 6e6d 403d 2ef0 8b3c 84c7 983a
00000020: dbb3 b7b9 e74b 2c39 a480 87b9 85c0 783b
00000030: df63 e8bc f623 db3c 44c6 0cba c43f 9bb6
00000040: 9393 433c 2b7f 80bd b442 e6bc eb2b 6ebb
00000050: dbfd 62bd 9010 a3bd d3b6 d3bc d3eb 42bb
00000060: 4016 843c 8ce5 ec3c 3496 80bd 53e0 2bbb
00000070: 7ff0 6abc 49c3 cfba a836 253a be68 513c
00000080: 08a1 39bb 23e6 883a aeb6 0c39 510a 89bc
00000090: e12a 113d 64ee 60bc 92bd edbb 544b d93c
000000a0: 3667 1d3d c245 0ebd aab3 293c 64fb f3bb
000000b0: d94f 44bc 402e 08bc 1e16 7cbb 7ee6 bb3a
000000c0: afae ab3a 40cd 86bb 2795 c43c 5b66 ba3b
000000d0: b12a 11bd b4dd d63a b5c7 dd3b 03a0 093b
000000e0: fc21 16bd 045c 55bd 3b15 71bc 8052 a8bc
000000f0: 43f1 52bc 9eac a23b 856f 973b a4ea 6dbb
00000100: 9c85 82ba e28e 84bb a52d c5bc b013 993a
00000110: dd1d a1bd 797e 9d3b d388 c9bc 90a6 52bb
00000120: 9177 5b38 5ea8 20bc 7db9 8d3c 420d f439
00000130: 7feb 0b3c 13de 0fb5 e2a1 cd3b 8b12 373c
00000140: b747 71bc a936 013d ebec 7bbd e319 7cbc
00000150: 5d47 f43c 674e 353b c783 35ba 2c9d 973c
00000160: cc96 59bc 1c39 a6bc 0834 6abb b24e 2e3d
00000170: 110d 0dbd 08f5 52bc 85cf 79bc dfdb 67bc
00000180: 143b f53b 29c6 393d dc30 c73c b59d 743c
00000190: 4e92 19b9 0bd1 ebbb 3005 3b3c 49ed ee3c
000001a0: 8e9e 93bc 3046 0dbc d244 2c3c ed9c 63bb
000001b0: 7ce8 013d b2a6 a13c e18d 21bb 815e 3738
000001c0: 7f4e e23b 674d f1bc 86db 52bb aa85 f63b
000001d0: c203 4bbc 8efa 3ebd 4009 e83b c572 943a
000001e0: 9308 b7bc 485c e7bb f5a1 08bc 27bb b53a
000001f0: 83ce bbba d0a8 27bb 1b5f 5639 e700 c4ba
00000200: fcd7 72bc d90b dabc 5f97 983b e295 32bc
00000210: 57a6 fa3c f144 01bb fbd4 b2bc a683 a43d
00000220: 1c3c 873a c9ed c2bb 4b4e af3c ac6e f33a
00000230: e6f9 1bbb eda4 ccbb 8b86 4e3b 42cb 863c
00000240: e544 43bc aa38 0a3d 6335 d3bc 7c24 deba
00000250: bcca 5e39 17af 03b8 0c85 cc3c a3ad d73c
00000260: 5d04 2cbc af08 173d 8b7a 25bc 8f60 50ba
00000270: 67c3 93ba 0d3a a23b 57c1 d839 8d81 dabb
00000280: b9ac e3bb 6773 9ebc 94ee c93c 919e 31bc
00000290: c5ae 9039 2032 c2ba 5fda 083c 7c38 66bc
000002a0: 5f3d 95b9 8e82 303c b401 f2bb 0436 003c
000002b0: 17b7 cd3a ca56 27bd d30c 343d 093c 013d
000002c0: 2e54 f73c d581 88bc c2cb e23c 005d cab4
000002d0: fab9 af3a 9381 cb3b 16f8 b33c 1211 26bd
000002e0: 1a9c 013d 8cc6 843b ffae 473c bab8 34b9
000002f0: 34fe c2b8 0168 7e3a ef43 88ba bebe b1bc
00000300: de98 423c a0c7 ab3b 5cad c9bc 3ba2 f0bc
00000310: 7fed 4839 c7e4 ba3c 62cd 023c dae6 703c
00000320: c367 113c d8da 78bd f03f f93c f062 9a39
00000330: 7155 72bb 4e05 243c e01c d43a 12d3 fd3a
00000340: 4216 363b cd8f 52b6 a37b 03bd 6994 7f3d
00000350: 8538 d43c 9e0a 8d3c b569 e8bc 200d f0ba
00000360: 9f68 563b 1f75 263a fa44 ea3a faa4 d23b
00000370: 819a 99bc 60a0 77bb 6a5b e23c d390 f8bc
00000380: 6e9e 0ebc 8343 e1ba 8219 a63c 98f1 fc3c
00000390: d987 14bd 0181 2dbc 6b13 bab9 bdf6 123d
000003a0: c59b ba3b a010 0dbd ef9b 05bc 311d 7ebb
000003b0: 8867 82bc b110 24bc 96bc 66b8 87b2 a9ba
000003c0: 142c 5b3b 9590 b0bc 6f64 363c df39 59bd
000003d0: 10bf 28bd 5b43 3d3c 78e6 b0bc 161a 883a
000003e0: e2f5 45bb d71d ccbb ac79 c3b9 bc15 df3c
000003f0: a0c2 1b3d 1883 0e3d a87c 1abd cfa0 e8bc
-0.07195588 -0.0004361661 0.010184056 -1.1174811e-06 -0.01710381 0.04697936 0.0170823 0.001165614
-0.00035038483 0.00016431474 -0.0002584505 0.0037956547 -0.028367935 0.026750546 -0.000537012 -4.6267833e-06
0.01193704 -0.06274255 -0.028107978 -0.0036342095 -0.055417877 -0.079621434 -0.025844013 -0.0029742613
0.01612389 0.02891805 -0.06278649 -0.0026226237 -0.014339565 -0.0015851046 0.0006302395 0.01278132
-0.0028324742 0.0010444563 0.00013419494 -0.016728552 0.035441283 -0.013728712 -0.0072552646 0.026525177
0.038428508 -0.034734495 0.010357777 -0.0074457396 -0.011981928 -0.008311808 -0.0038465331 0.001433566
0.0013098324 -0.004113823 0.023996903 0.0056884713 -0.035441104 0.0016392977 0.0067681917 0.0020999915
-0.036653504 -0.052089706 -0.014714534 -0.020547152 -0.012874904 0.004964425 0.0046214485 -0.0036303187
-0.0009958032 -0.0040453533 -0.024069617 0.0011678841 -0.07867024 0.0048063365 -0.024601376 -0.0032142736
5.2325024e-05 -0.009805767 0.017300362 0.00046549184 0.008540033 -5.359481e-07 0.0062754015 0.011173855
-0.014726571 0.03154627 -0.06150524 -0.015387031 0.029819185 0.002766514 -0.00069242384 0.018507563
-0.013280582 -0.020290904 -0.003573658 0.04255552 -0.03443629 -0.012875803 -0.01524723 -0.014151542
0.0074838493 0.045354996 0.02431529 0.014930178 -0.0001464572 -0.0071965507 0.011414811 0.02916588
-0.01801994 -0.008622691 0.010514455 -0.0034730986 0.031715855 0.019732807 -0.0024651217 4.3718614e-05
0.00690633 -0.029455854 -0.0032174303 0.007523258 -0.012391033 -0.046625666 0.007081181 0.0011325708
-0.022342956 -0.0070605613 -0.008339395 0.001386498 -0.0014328513 -0.0025582798 0.0002044406 -0.0014953882
-0.0148220025 -0.026616978 0.0046567167 -0.010899993 0.030596895 -0.001972493 -0.021830073 0.080329224
0.0010317597 -0.0059487564 0.021399638 0.0018572411 -0.0023800074 -0.0062452466 0.00315133 0.016454343
-0.011918281 0.033745445 -0.025782293 -0.0016948129 0.00021247094 -3.13959e-05 0.024965785 0.026327914
-0.010499087 0.036873516 -0.010100017 -0.00079489587 -0.0011273444 0.004950768 0.0004134278 -0.0066682757
-0.0069480804 -0.019342138 0.024649896 -0.010841028 0.00027596034 -0.0014815964 0.008352845 -0.014051553
-0.0002846522 0.010773314 -0.007385457 0.007825378 0.0015694824 -0.040854253 0.043957543 0.031551395
0.030191507 -0.016663471 0.02768505 -3.7693098e-07 0.0013406866 0.006210515 0.021968883 -0.040543623
0.03164301 0.004051989 0.012187718 -0.00017234954 -9.29799e-05 0.0009704829 -0.0010396222 -0.021697398
0.011877267 0.005242303 -0.024618797 -0.029374233 0.0001916196 0.022814168 0.007983537 0.014703477
0.008874836 -0.06075558 0.030425996 0.00029446883 -0.0036977197 0.01001103 0.0016182922 0.0019365272
0.0027784263 -3.1376142e-06 -0.03210033 0.062397394 0.025905857 0.017216977 -0.028370718 -0.0018314458
0.0032716168 0.000634985 0.001787334 0.006428358 -0.018750431 -0.00377848 0.02763148 -0.030342495
-0.008704765 -0.0017186258 0.020275835 0.03087692 -0.036262367 -0.010589839 -0.00035491152 0.03587984
0.0056948387 -0.034439683 -0.008154853 -0.0038774724 -0.015918508 -0.010013745 -5.5011908e-05 -0.0012946882
0.003344302 -0.021553317 0.011132344 -0.053033706 -0.041197836 0.011551703 -0.021594271 0.0010383751
-0.0030206372 -0.006229143 -0.0003728395 0.027232043 0.038027406 0.03479299 -0.037716538 -0.028396992

fc2.weight f4 [256, 404]
00000000: 33da d83c d990 d0bb efe7 583c 01f9 fdb9
00000010: 02db a8bc 4d33 36b8 8d25 79bb f19a f53a
00000020: 58d5 ca39 0e2d 03bb a91a a1ba e110 943c
00000030: bf1b 5a3a 3838 603c ce94 87bb 44b5 e9b7
00000040: 3299 1dbc a7cd 8b3b b7e3 063c 77ad 00bc
00000050: 9701 c13b 6f5b 0b3d 3503 a1ba 88bf 92bb
00000060: dd5d 16bc b8d5 a23a 8d6c 64bc 2d5e 93bb
00000070: 2a60 82b9 2903 e2bb f081 a2bb 8c7e 2fbc
00000080: dfe4 f7bb a9d4 c53a b0c8 453b 5f8a 033c
00000090: 1eec 8e3c e042 d4b8 5c6d 1e3b 0304 823b
000000a0: 8c0a 953c 4ed6 87bc 4cc9 583c 7ddd 82bc
000000b0: 0a8b bd3c b2b1 3f3a 86c5 463c c9bf 44bb
000000c0: 975f ba36 8ae4 9d3c 54d2 5137 c3e8 883c
000000d0: a9c1 f43b ac6a 283b 0215 6cbc ac4a 07bb
000000e0: 14a4 c13c 897d 013d 15be 61bb c244 2c3b
000000f0: 9180 f03c 1b42 41bc 8165 583c a6e1 16bb
00000100: a720 9b38 58ad a43a e5e2 9bb9 a798 0139
00000110: 3c58 783c b1f0 353c 37f2 a93a 5db4 47bc
00000120: 6b0b 01bb 2607 d03b 8212 c73a d540 903b
00000130: f000 443c 5841 a0b6 b8a4 0a3b 0fe1 283a
00000140: dea1 2039 b190 2cbc 6e74 a0ba 6869 d6bb
00000150: 2394 71b8 5a8c 9ebc 226f 56bb 2ecd c6bc
00000160: e999 d338 4967 d53c 811f 5ab9 c6f9 483c
00000170: dd09 b63a db83 c7bb 0f6b 96bb 7f99 0eba
00000180: 2eb7 413c 95ad 9ebc 059c 74bb 16c3 273b
00000190: 96ed a739 8860 c33c 49b7 86bb 2554 cc3b
000001a0: 8bab 58ba 0645 7fbc 14d6 133b 0e80 e53b
000001b0: d350 34ba 72dc 123d 3103 823a 5e75 b0bb
000001c0: a125 463c 0564 fd3c aed5 3cbc 8640 7e3c
000001d0: 1c06 5fbc 91f4 98b9 036c d039 0819 23bc
000001e0: 7807 5cbc 0439 f7ba a3aa 9dbc 9c96 483c
000001f0: a78c f13b fa9f 6c3b 2200 9d3a a135 01bb
00000200: b5ef 5bbb ef97 353c 953f 99bc bf5a 17ba
00000210: 3b68 c93b 8ea2 153c 3da7 bc39 225a 443c
00000220: a645 04b8 2326 f2bb 0a57 d1bb 76de 25b9
00000230: a126 27bc 0f72 37ba d78f babb 15d6 683c
00000240: 3b6a dfbc fb4c 01bc 160f bbbb 4363 cc36
00000250: cf79 0039 d67a 08bc 0932 0c3b a7f5 99bc
00000260: 695b 55bc 3880 d0ba f896 ba3c 1865 6b35
00000270: af14 ffba f03c de3a 10ec e9b9 4493 8d3c
00000280: 0f2f e33b 74ca f1bb ae81 46bc b4a6 3f3c
00000290: f78e 94b9 d2dd 8d3b fbd4 183c c9ad 393c
000002a0: 5f74 03ba 16ed a2bb d71b 973a 473b b1ba
000002b0: 113b 433c 136a 0d3c 75fd f8bc 6b26 3b3c
000002c0: dd14 85bb 1008 9dba a8a1 3e3c 295e 2238
000002d0: af22 a53b 48e0 d0bb 4afa 37bc 9049 ca3c
000002e0: a855 903c 65f8 e03c 30ba 0d3c 7103 f03b
000002f0: 8f49 653c 7c63 473c 6955 99bc dce0 043c
00000300: f63a 933a 9493 0e3b 2390 1d3a e207 593b
00000310: ecb1 0aba 5f93 eabc acd2 ffbb 0f7a 5dbc
00000320: 4b16 053c df48 84bb 6122 fd3a 5013 db38
00000330: 2eb0 083d e0ec 5db9 be87 883c 4718 33bb
00000340: abf9 ff3b f317 1739 c399 28bb f85f 90bb
00000350: 16ab 70b9 f7c5 073c 4673 953c 5bb6 60bb
00000360: 62cf 913b c02e 2ab8 6e1e c23b 3077 da3c
00000370: 7628 e5ba 06f3 00bb 8198 123b 921a bbba
00000380: fb46 943b b733 62b9 0959 b03c 9ff1 67ba
00000390: 6fd5 853c 2d6e 63bc b57e 8c39 096b c0bc
000003a0: af6c ae3b 639b 27bc 2462 d4ba 839f 1c3b
000003b0: 9ca4 3d3c 0173 de3c 1100 ecba 1951 6db9
000003c0: 01f7 00bb fd49 4a3c ad0f 21ba 7268 5bbc
000003d0: 0b05 ddbb c755 853c 18e9 603b af10 8dbc
000003e0: a4ef 213c d0a6 aebb 5d22 1fbb b45a 493c
000003f0: d900 9abc 515f e93c a9b1 c1bb e3d5 28bc
0.026471233 -0.0063649234 0.013238891 -0.00048441443 -0.020612244 -4.343996e-05 -0.0038016767 0.0018738193
0.00038687396 -0.0020015868 -0.001229127 0.018074455 0.00083201745 0.013685279 -0.004137612 -2.7860173e-05
-0.009619044 0.004266459 0.008233002 -0.007853857 0.005890082 0.034022745 -0.0012284281 -0.0044783987
-0.009177652 0.0012423312 -0.013941896 -0.0044973106 -0.0002486718 -0.0068973494 -0.0049593374 -0.0107113235
-0.0075651254 0.0015093285 0.0030179434 0.008028596 0.017446574 -0.00010121404 0.002417407 0.0039677634
0.018193506 -0.01658168 0.013231587 -0.015974754 0.023137588 0.00073125504 0.012132054 -0.003002154
5.55436e-06 0.019274015 1.2506342e-05 0.016712552 0.007469375 0.0025698347 -0.0144093055 -0.0020643873
0.023637809 0.03161386 -0.0034445573 0.00262861 0.02935818 -0.011795546 0.013207794 -0.002302268
7.397058e-05 0.0012563867 -0.00029732953 0.00012359266 0.015157755 0.011104749 0.0012965862 -0.012188998
-0.0019690644 0.0063485084 0.0015188011 0.00440226 0.011963114 -4.7759786e-06 0.002115531 0.0006442228
0.0001531909 -0.010532544 -0.001224173 -0.006543327 -5.759684e-05 -0.019354034 -0.003272005 -0.02426776
0.00010089932 0.026050227 -0.00020801836 0.012266582 0.0013888438 -0.0060887164 -0.004590399 -0.0005439743
0.011823459 -0.01936988 -0.003732444 0.0025598458 0.00032029737 0.02384974 -0.0041112048 0.0062356167
-0.0008265308 -0.015580421 0.002255802 0.0070037907 -0.0006878499 0.035854764 0.0009919164 -0.005385085
0.012093932 0.030931482 -0.011525555 0.015518313 -0.013612296 -0.00029173915 0.00039753327 -0.009954698
-0.013429515 -0.0018861596 -0.019246405 0.012242939 0.0073715034 0.0036106096 0.0011978189 -0.0019715803
-0.0033559625 0.011083587 -0.018707076 -0.0005773715 0.0061464584 0.009132994 0.00035982757 0.01198438
-3.1536118e-05 -0.0073898 -0.0063885497 -0.000158185 -0.010202081 -0.0006997892 -0.0056934166 0.014211197
-0.027272334 -0.007891889 -0.0057085855 6.0912294e-06 0.00012252408 -0.008330068 0.0021392128 -0.018793894
-0.013022282 -0.0015907353 0.022777066 8.769143e-07 -0.001946112 0.0016955417 -0.00044617103 0.017282136
0.0069331 -0.0073788706 -0.012115879 0.01169746 -0.00028335277 0.0043294216 0.009328122 0.0113329375
-0.0005014594 -0.0049721105 0.0011528683 -0.0013521694 0.011915938 0.008631247 -0.030394295 0.011422734
-0.004061325 -0.0011980552 0.011635222 3.8711503e-05 0.005039535 -0.0063743927 -0.011229107 0.02469328
0.01761897 0.027462194 0.008650348 0.007324629 0.0139945885 0.012169715 -0.018717485 0.008110251
0.0011232782 0.0021755444 0.0006010553 0.003311627 -0.00052907947 -0.028634725 -0.0078070965 -0.013517871
0.008122991 -0.004037007 0.0019312614 0.00010446331 0.033371143 -0.00021164445 0.01666629 -0.0027327703
0.007811745 0.00014409404 -0.0025726415 -0.0044059716 -0.00022951918 0.008286945 0.018243443 -0.003428838
0.004449771 -4.0574698e-05 0.0059240377 0.026668161 -0.0017483372 -0.0019676103 0.0022368731 -0.0014274886
0.004525063 -0.00021572305 0.02152683 -0.0008847955 0.016337125 -0.013881248 0.00026797285 -0.023488538
0.0053230147 -0.010229918 -0.0016203565 0.0023898787 0.01157489 0.027154448 -0.0018005391 -0.00022632293
-0.0019678476 0.012346742 -0.00061439985 -0.013391601 -0.006744986 0.016276253 0.0034318622 -0.01721987
0.009883795 -0.005329944 -0.0024281957 0.012289692 -0.018799232 0.028487833 -0.0059110713 -0.010304901

fc2.bias f4 [256]
00000000: 57ea 8d3b f348 303b 7587 57bd c72f eb3c
00000010: 7039 4f3c 7a43 e3bc ab67 4abc 15f5 aa3c
00000020: 24d7 4bbc e84b c3bc f5f8 25bc 5f23 6cbc
00000030: 660f 813c c4e1 ef3c dc29 213d fb01 353c
00000040: 149a a0bc 3d86 06bd c0be 9bbc 117b 82bc
00000050: 6227 ebbc 2dd6 d43c b4e4 053b 4142 89bc
00000060: 1565 913b 51bd 263b 2620 15bd 22bf 70bb
00000070: 0c08 7e3c 7fcc fabc 61a4 04bc 089d 8fbc
00000080: b330 cbbc 2028 d6bc 6dc7 7b3c facc 933b
00000090: e43c 35bc 98d9 8b3b 4ea5 9639 f919 26bc
000000a0: 0d17 9c3c af14 7a3c 2da1 e3bb 4353 00bd
000000b0: 7167 64bc 7370 953c 5d95 343c 152f ba3c
000000c0: 88fe 023d 87bb 1f3c 091f 8e3c 0f4c 94bb
000000d0: f0bb deba ceb5 11bd 21ae 003d 6515 b5bb
000000e0: 6f4b 653c 3c19 6c3b b247 f33c ee76 62bc
000000f0: 241c dfbc 801b 063d 933d da3b f55a eb3c
00000100: 7a32 2ebc 8875 233c 9777 bdbb bb2c 863c
00000110: fa99 44bc b09e 1b3c eac7 513c 555d c8bc
00000120: 0751 f03c 5f24 0fbd ff44 d7bc 9d39 eebc
00000130: 829e aa3c 0d51 12bb e486 bc3c 593c 22bc
00000140: 6f96 70bb 1c41 65bc f08d 71bb a4e2 dfbb
00000150: a7dd 253c f6e1 d1bc 59fe 773c aed2 2cbc
00000160: a08b 2dbc ceb3 dc3b 869a 713c b7a8 2bbd
00000170: a673 cd3c 0b6c 8fbc a8df 9f3b 362f 543c
00000180: c6d6 22bd aa5a 6a3c bfc8 e23b e6ae 513c
00000190: 475b 93bc 6ff6 0fbc 0032 cf3c fb53 a6bc
000001a0: 15cd 97bc ec00 b03b 85b0 25bd 7c82 78bc
000001b0: 708f fdbc cbae 413c 3f8f 23bc 3142 933c
000001c0: 2070 1c3d a033 c23c e600 843c f0c2 b2bb
000001d0: b93a 55bc cfb4 83bb 1e02 dabb fa89 5d3c
000001e0: a22a c93c 955f 2c3c 4066 863c 4d2e 553b
000001f0: 0c7b 5bbc a91e e83c 2796 60bb b816 1639
00000200: df57 54bc 2c7e d1bc 5095 633c ee20 eabc
00000210: 81f5 9ebc ae5e 5fbc 0deb d53b 0cb6 883c
00000220: 3f6d f3bb b7b5 36bb 2480 313d d4db 13bd
00000230: e174 723c bc88 b7bb 3143 d3bb 298c dfbc
00000240: e317 313c 6540 c23c ec1b 2abd afab 1cbc
00000250: 61dd acbc 1192 0a3d cf64 f039 648f a93b
00000260: 08c1 c43b 9e2b 1abd b7b3 08bc c811 35bb
00000270: 3523 63bc 0bd3 a2bc 83f7 8fbc d496 c63c
00000280: db74 1dbc 9a7e 50bc db54 d83b bbf3 9c3b
00000290: e64f 7d3c 6b58 8ebc 981e e0bc 3730 80ba
000002a0: de77 b7bc 1c44 74bb 8772 57bc 4a01 97bb
000002b0: 7994 07bc b1cf dbbc 8adf 15bd 2fd7 3b3c
000002c0: 1580 953c d103 cb3a 93fa b1bc a149 b83b
000002d0: df90 1c3c f55f f6bc a682 0939 8158 913c
000002e0: 285a 273c 4879 0f3c f0da a93c 7c21 2cbc
000002f0: 0376 c33c a7c5 0f3d c6a6 823a e5c5 df3c
00000300: ea1e 1a3c e621 02bd 4c90 bb3c ae6f ac3c
00000310: 9fec a23b c27e 15bd 38f7 b9bc ffa8 bb3c
00000320: 3da2 80bc a318 b13c dccd d9bc a30a 183c
00000330: b5b3 c53b 78f4 1dbd 535c d83c 7446 f23b
00000340: 9c98 b4bc 4ff1 d53c ebcf 7ebc c445 3c3b
00000350: efcc ecba 5d1f 93bb 52db 90bb 1a15 8a3c
00000360: 9028 f13c 7c21 94bc ff04 73bc 4910 f13c
00000370: d42b e4bc e1f2 c8bc 6b44 b03c 62e4 1d3c
00000380: 8097 07bc abb1 4cbc e627 7e3c f4d8 c13c
00000390: 0cb2 12bd 3c82 4dbc 8a1a debc ddfd 723b
000003a0: c97e 5c3c 6811 98bc c2e1 1cbc a819 cf3c
000003b0: a47f fb3c a99c f93c e27d e6bb 52d9 29bc
000003c0: ee3f 26ba eefc 743b 9b3f 463c 4d79 d4ba
000003d0: 940a 59bc e2b3 d7bc 17f9 dc3c 909d dd3c
000003e0: 4e77 7abc 61d0 613c 3a58 0d3b ceb2 593c
000003f0: 83f7 cb3b ec33 b6bc 3544 8bbc d2de 5abc
0.004330914 0.002689895 -0.052619416 0.028709305 0.0126479715 -0.027742136 -0.012353818 0.020868817
-0.01244143 -0.023839906 -0.010130157 -0.01441273 0.015754413 0.029282458 0.03934656 0.011047835
-0.01960472 -0.032842863 -0.019011855 -0.015927823 -0.028705303 0.025981033 0.0020430507 -0.016755225
0.0044370987 0.0025442431 -0.036407612 -0.0036735018 0.015504848 -0.03061509 -0.008095832 -0.017530933
-0.024803495 -0.02614218 0.015367371 0.004510519 -0.011061881 0.0042678826 0.0002873339 -0.010138028
0.01905396 0.01526372 -0.006946704 -0.031329405 -0.013940678 0.018242097 0.011021939 0.022727529
0.03198102 0.0097493 0.017348783 -0.0045256685 -0.0016993266 -0.035573773 0.031416062 -0.005526232
0.013995036 0.0036025783 0.029697273 -0.0138223 -0.027235098 0.03274107 0.0066601723 0.028729895
-0.010632152 0.009976752 -0.0057820785 0.016378751 -0.0119996015 0.009498283 0.012804011 -0.024458567
0.029335512 -0.034946796 -0.026278017 -0.029080207 0.020827536 -0.0022326142 0.02301354 -0.009902083
-0.003671076 -0.013992574 -0.0036858283 -0.0068324376 0.010123647 -0.025620442 0.015136325 -0.010548277
-0.010592371 0.0067353016 0.014746314 -0.041908946 0.02507956 -0.017507574 0.004878957 0.012950709
-0.039755605 0.014303843 0.0069209035 0.012798047 -0.01798786 -0.008786782 0.025292397 -0.020303717
-0.018530408 0.0053712036 -0.040451545 -0.015167829 -0.030952185 0.011821459 -0.009982883 0.017975898
0.03819287 0.023706257 0.01611371 -0.0054553673 -0.013014489 -0.004019357 -0.0066530844 0.013521666
0.024556462 0.010520835 0.016406178 0.0032528818 -0.013396036 0.028334932 -0.0034269185 0.00014313578
-0.012960403 -0.025572859 0.013890579 -0.028580155 -0.019404175 -0.013633413 0.0065282644 0.01668837
-0.0074287946 -0.0027879307 0.043335095 -0.036098316 0.014798374 -0.005601017 -0.006447219 -0.027288513
0.010808918 0.023712346 -0.041530535 -0.009562417 -0.021101655 0.033830706 0.00045851475 0.005174564
0.0060044564 -0.037639253 -0.008343629 -0.0027629007 -0.0138633745 -0.019876024 -0.017574077 0.024241842
-0.00961038 -0.012725497 0.0066019124 0.004789797 0.015460944 -0.017376145 -0.027358338 -0.0009779994
-0.022396024 -0.0037272042 -0.013149864 -0.004608308 -0.008275145 -0.026832433 -0.036590137 0.011464878
0.01824955 0.0015488808 -0.021725928 0.0056240116 0.009556024 -0.030075053 0.00013114008 0.017742397
0.010214366 0.008756943 0.02073428 -0.01050603 0.023859983 0.035100605 0.0009967915 0.027316043
0.009406785 -0.03177061 0.022895955 0.021049347 0.004972055 -0.03649784 -0.02270089 0.022907732
-0.015702361 0.021618193 -0.02658742 0.00927988 0.0060333856 -0.03856322 0.026411211 0.0073936526
-0.022045426 0.026116041 -0.015552501 0.0028728107 -0.0018066446 -0.004489823 -0.0044206763 0.016855765
0.029438287 -0.018082373 -0.014832734 0.02942671 -0.02785293 -0.024529876 0.021517 0.00963697
-0.0082758665 -0.012493531 0.015512442 0.023663022 -0.03581433 -0.012543257 -0.027112264 0.0037077584
0.013457962 -0.018562987 -0.009575309 0.025280789 0.030700512 0.03047021 -0.0070340494 -0.010366755
-0.0006341924 0.0037382203 0.012100126 -0.0016210467 -0.013247151 -0.026330892 0.026974244 0.02705267
-0.0152872335 0.013782592 0.002156748 0.013287259 0.006224574 -0.022241555 -0.017000297 -0.013358789

fc3.weight f4 [1, 256]
00000000: bf45 edbb 0d21 84bb 9c2c a63c a725 99bb
00000010: ae38 02bb 51d3 16bb d7fb de3b 2691 2abb
00000020: c654 0a3c 8ee3 463b 2ff1 c039 f1e7 723c
00000030: 5aac 233b 8475 9e3b 671b a4bb ab26 fa3b
00000040: 29af ad3b 2ff7 e0bb 58b4 bc3b 6099 083b
00000050: 0a67 493b 9e10 133c c930 c3bb a7b4 a93b
00000060: f4fa 2d3b 5873 9d3a 0b8c 183c ba1c 67bb
00000070: 1b51 043c 5d91 de3b b906 913b 134d 383c
00000080: 1848 943b 3f94 1ebc 3db1 afbb fe18 86bb
00000090: 2eea 443a 8899 e4bb 7eee db3a 03bb d53b
000000a0: 7f72 973b 4ec9 633b f3c0 453b c3be d6bb
000000b0: bd1d 8abb 542b 3dbb 49cd 24ba 5d19 023b
000000c0: 0a7c a2bb e01c cfbb afea 6039 c759 ffbb
000000d0: 4ca8 5739 f364 b6bb 6078 2a3b a2f4 dbbb
000000e0: 77d4 d139 c9c7 8dbb 479d 81bb 0b24 c1ba
000000f0: 5442 4dbb ff99 5a3b 5373 14bb c6e8 8d3b
00000100: 22ee 90bb 0557 833b df4b aabb c023 fe3b
00000110: 969c c73b 7936 2f3c ea21 1abc 0048 1dbb
00000120: c13a 7d3b fa5c 57bb c907 243c 51ce 283c
00000130: d08c aa3b 3327 14ba e6e1 ba3b 21d3 013b
00000140: 22e9 373c f89d c1bb 9b52 1dbc 0ecb d43b
00000150: 9259 173c 1114 123c e1ae 8cbb 8dd9 613b
00000160: 37ee 0c3b 1871 2b3c e989 acbb 9a29 413c
00000170: 09ac 95bb 0ce3 273c 5364 ab3b 6f5d 473b
00000180: ddca 5c3c cd1d cb3b 90d1 3e3b cc80 a73b
00000190: 6127 083b 16c5 693b 387d ec3b 65c4 b1bb
000001a0: cfc7 50bb 6512 873a d3a4 3c3c a060 98bb
000001b0: c3f9 c8bb b51f c93a f2b1 503b c57c df3b
000001c0: 1d15 52bb 901e 943b bb9d 71bb 2dc4 863b
000001d0: 25f0 84bb d81a e13b 347e 0b3b 2a90 b83b
000001e0: d275 6f3c af23 8d3b 2cb6 033a 7838 863c
000001f0: 8a86 36bb 6e8c f13b f32b ca3b d2c3 8e3b
00000200: 6dc2 a73b f926 3a3b cd58 15bb 7551 143c
00000210: b0e0 f93b b57c 223c df8e a33a 0648 99bb
00000220: 29f1 1d3a 3ba3 6fbb 4abe d7bb 8a9e c73b
00000230: 7088 823b 6e8f 18bb 4b3e cdba 075f afba
00000240: c529 d33a 5cb2 d63b 6782 353c f93a b4ba
00000250: 4013 443b e938 cf3a cc91 ca3b a918 c53b
00000260: 2db2 7c3b 7364 793c cead 643b 136a 693b
00000270: e542 713c b591 b83b c8b7 7bba b94c 9ebb
00000280: 3ba3 38bb ff8c 24ba fbbb 92b9 d2aa 48bb
00000290: 68c3 d93a b1fb 05bb 1b67 cdbb 28c8 c3bb
000002a0: 0c3d cf3b 056f 1439 5d31 953b 362a 9c3b
000002b0: df32 66bb e190 423c db90 b63b aa32 e63b
000002c0: ca84 963b e77a 9c3b 764a b93b 3260 b43b
000002d0: 2933 903a f75e 5d3b d5f4 a23b 343d 813b
000002e0: 5196 08ba 9207 87ba bbea ea3b 00f0 abba
000002f0: 5736 0cbc 02dc 7dba 984b 443b 23e8 2b3c
00000300: 5a22 ef3b 9c56 0d3c cccd d0bb d024 fdba
00000310: 03f4 553b 4028 87bb 061b 89b7 4859 b63b
00000320: 4ee6 ae37 0be0 fb3b 0606 9dbb cd3f 54bb
00000330: b270 8fbb f24c 1b3c e434 113c 6109 8039
00000340: 23c6 c63b 8149 31bb 7251 673c b219 383b
00000350: 4d18 973b a8d7 933a 5702 cabb 2913 fc3b
00000360: b10c d53a 0dd7 2fbb 4a6b e9b9 4cda f03b
00000370: 50ef 08bc caa1 903b a29d 20bb 485a 6cbb
00000380: 6fd0 9eba fea0 7b3b 6f8d bb3b 424b aa3b
00000390: 6989 f3bb a90e d4b9 a09d c3ba 4d01 1c3c
000003a0: 61aa 75ba f170 13bb 377d ef3b 34bd f33b
000003b0: edd4 8fbb 41d8 873b 1316 dbbb 8cca 1bbc
000003c0: f28e 69ba c293 443b f63e e53b 4489 3fb9
000003d0: c478 1139 24e1 153c b7bb 5abb 44eb 08bb
000003e0: 5b60 d13b c369 c03a 7758 e1bb 4664 a7bb
000003f0: d0da 643a e9b5 993b 3edf 2dbb f486 d3ba
-0.0072409804 -0.0040322603 0.020284943 -0.004673678 -0.001987021 -0.0023014138 0.006804924 -0.0026026457
0.008443063 0.0030348036 0.0003680079 0.014825807 0.0024974556 0.0048357863 -0.0050081494 0.007634004
0.0053004217 -0.006865404 0.0057588033 0.0020843372 0.0030731582 0.00897613 -0.0059567434 0.005179006
0.0026547285 0.0012012525 0.009310733 -0.0035264925 0.008075978 0.006792231 0.00442585 0.011248845
0.004525196 -0.009678899 -0.0053617046 -0.004092335 0.0007511702 -0.00697631 0.001677945 0.0065225377
0.0046218033 0.0034757438 0.003017482 -0.0065535023 -0.004214971 -0.0028864937 -0.00062866934 0.0019851543
-0.0049586343 -0.006320581 0.00021449731 -0.0077926847 0.00020566693 -0.0055662333 0.002601169 -0.006712512
0.00040021885 -0.0043267948 -0.0039555165 -0.0014735473 -0.0031320052 0.003335595 -0.0022651746 0.0043307273
-0.004422919 0.0040081763 -0.005197033 0.0077557266 0.0060916645 0.01069414 -0.0094075 -0.0023999214
0.0038639756 -0.0032861815 0.010011622 0.010303096 0.0052047744 -0.0005651593 0.0057031987 0.001980968
0.011225017 -0.005908724 -0.009602214 0.0064939326 0.009237664 0.008915917 -0.004293308 0.0034461946
0.0021504292 0.010463975 -0.0052654636 0.011789704 -0.0045676273 0.010247003 0.0052304654 0.003042068
0.013476101 0.006198621 0.0029116608 0.0051117893 0.0020775425 0.003567045 0.0072170757 -0.0054250234
-0.0031857376 0.0010305165 0.0115139065 -0.0046501905 -0.0061332895 0.0015344532 0.0031844345 0.0068202936
-0.0032056042 0.004520245 -0.0036867696 0.0041127414 -0.004056948 0.006869655 0.002128494 0.00563242
0.014615493 0.0043072323 0.0005024399 0.016384348 -0.0027851188 0.007371477 0.00616979 0.0043568397
0.005119613 0.0028404577 -0.0022788525 0.009052624 0.007625662 0.009917428 0.0012478492 -0.0046777753
0.00060250104 -0.0036565799 -0.0065839635 0.0060918974 0.00398355 -0.002327885 -0.0015658824 -0.0013379761
0.0016110471 0.006552024 0.011078454 -0.0013750485 0.00299187 0.0015809807 0.006181931 0.0060149026
0.003855835 0.015221703 0.0034893635 0.0035616204 0.014725422 0.005632604 -0.00096022757 -0.0048309234
-0.0028173465 -0.00062771136 -0.00027987346 -0.0030619395 0.0016614022 -0.002044421 -0.0062683946 -0.005974788
0.006324416 0.00014155738 0.0045530037 0.004765774 -0.0035125536 0.011875362 0.0055714673 0.0070250826
0.0045934664 0.0047753933 0.0056546284 0.0055046314 0.0011001575 0.0033778527 0.004973034 0.0039440636
-0.0005210387 -0.0010301939 0.0071690953 -0.001311779 -0.0085578775 -0.0009683968 0.0029952284 0.010492357
0.007297796 0.008626606 -0.006372189 -0.0019313339 0.0032646663 -0.004124671 -1.6344256e-05 0.0055648424
2.084966e-05 0.00768662 -0.004791978 -0.003238666 -0.004377448 0.009478794 0.008862708 0.0002442105
0.0060661 -0.0027051868 0.014118539 0.0028091487 0.004611051 0.001127948 -0.0061648297 0.0076927138
0.0016254393 -0.002683106 -0.0004452116 0.0073502418 -0.008357838 0.004413818 -0.002450802 -0.0036064554
-0.0012116561 0.003839552 0.0057236473 0.0051969597 -0.007432152 -0.00040446714 -0.0014924295 0.0095217945
-0.0009371397 -0.0022497738 0.007308628 0.0074383263 -0.0043893964 0.0041456525 -0.006685981 -0.00950874
-0.0008909545 0.0029995297 0.006996031 -0.00018266315 0.00013873266 0.009147916 -0.0033376047 -0.0020892182
0.0063896603 0.0014679957 -0.006877001 -0.005108389 0.00087301154 0.004690875 -0.0026530768 -0.0016138242

bn.weight f4 [400]
00000000: 4cd7 3c3f a36f 5a3e 09d1 1c3f 7510 393d
00000010: 01ff 4d3f aa1d 1d3f c4f3 653e a11a 4f3e
00000020: 4da8 5d3c 593a f13e 5c0b dd3d 9498 d23e
00000030: 45a5 9f3b 3c4b 043f 4ede 353e fa5e 023c
00000040: dd19 163f c2b5 3d3f 2fab ef3e f2e4 ef3e
00000050: 1e91 133f 86ff 463f 7121 0a3f 5325 7d3d
00000060: 851e cd3e aa88 aa3d 9c5c b43e dadd b33e
00000070: 2254 863e 0ab8 083e 7cfb e43e 3e5d 443f
00000080: 2f70 b53e 3453 f13d e4ec 153d 6857 313e
00000090: 184d 883e 0b26 693c 06b7 463e 2ef7 1d3f
000000a0: 8d8a 593f b5f0 dc3e 72a7 da3e c81b 093f
000000b0: 0d61 2f3f 5203 4d3c 7719 2a3f 7703 3e3f
000000c0: 8420 ac3a 0672 103f 95dd b439 f99d 403f
000000d0: 08ae 0f3f 6b1a eb3e 7837 163f 9fb7 b33e
000000e0: 0ff5 2c3f 19be 153f c8fd f23d 5e98 173f
000000f0: 38c4 553f 2f0b c83e 4df9 753e a81a 653d
00000100: b519 163c fe58 153f f570 0d3e 94d3 c93d
00000110: 0ebb 583f 5363 003f cec9 ce3e a290 243f
00000120: 00d9 813d 7b3e b13e 3846 163e 8751 623e
00000130: af11 e73e 3276 9138 53a5 c73d d61f d13d
00000140: aa89 3f3e b310 413f e915 423f b3fc 243e
00000150: 6525 743b 1c89 0f3f 3bd5 7c3d 01af 213f
00000160: 3531 863b 5cda 073f 17d0 063c 4fdd 0c3f
00000170: d2df 2d3d e736 ec3e a068 043f 435f aa3e
00000180: 2f4f 1f3f 7ead 293f d452 483f dfbf d33e
00000190: fb50 ff3c e95c 583f 8315 ef3d 2fc5 4d3f
000001a0: 5a33 8a3d cb41 e43e 1e0e 113e 8757 103f
000001b0: aeee 463e 63e2 273f e323 123f c959 6f3e
000001c0: d4bb 153f 00c5 1a3f 842f 1d3f 33cd 243f
000001d0: a938 bf3e 3e51 163f f550 533e ebed e53e
000001e0: 791f 863e 4fbd 723e 3b37 033f 0041 8f3e
000001f0: 77dc 9e3e 3858 1e3e cb3b e83d 6019 8c3e
00000200: 2480 e63e 4632 0f3f 88be f63e 1f01 3f3d
00000210: a3ad 573f 4ff1 5c3e 20c4 483c ec2c 563f
00000220: 4ac2 863a d1ae 2d3f 2aa4 213f 6719 a93b
00000230: 56ac 303f 793d a43d e013 0a3f 3098 3f3f
00000240: d697 5b3f 7b92 1d3e 896b 8f3e 14f4 293b
00000250: 4ffe 063d 5efa 933e 9124 e03e c348 e53e
00000260: 43f9 533f 19c7 893e 7377 3d3f 05c2 763c
00000270: d8ce c43d 2ca4 8e3d f2b3 b13c b537 343f
00000280: 4478 543f 6435 4f3e 3bcc b53e f15c d23e
00000290: a012 a73d 26e6 a93e d9e1 243f f32c d43e
000002a0: aa92 363e 0b58 e33d d28a 8b3e 3fd6 573f
000002b0: 4f02 4f3f a02e 263f e962 503f d85c b33e
000002c0: 7fa7 c93e ab9b 923d 3566 863e 2097 e73b
000002d0: 793b 7a3e dc6d 243f b1ae 513e 3105 333f
000002e0: 3285 de3e 13e4 2f3f 92ae 213f 3895 f63d
000002f0: 35fc 383f e8ad da3e 1707 db3e f23c dc3e
00000300: 5aeb cc3d b8a6 9e3d 3c2d ff3d 42f7 d13e
00000310: 2849 953c 9eba 1b3f c3d9 ae3e a330 ec3e
00000320: b8c3 083f e5a3 553e 3838 343d c00a 793d
00000330: 9183 4e3f e84d 983d f63a 2c3f 2edb a53e
00000340: d9d7 0c3f 4563 953a 6911 8d3e 7e35 1e3f
00000350: d18b 7c3e 9c26 b83e 4098 0a3f 61e3 2c3f
00000360: ec34 883e 1c69 8d3c abf6 033f 3733 293f
00000370: 2f89 9b3e 79ea 703e 7282 333f 4aa0 903e
00000380: 9f15 033f 8937 403d d0e2 203f 23a7 933e
00000390: edf8 3a3f f966 de3e c384 e23c 6de4 0d3f
000003a0: 3fa1 603e 5099 8c3e 9194 de3c 749d 033f
000003b0: e21f 293f 3ba7 1c3f 1bf1 1e3e 69ef e43c
000003c0: bc31 8c3e d482 083f 0365 bd3c 3139 063f
000003d0: be1d f63e e4df 173f 8683 1c3e fac1 0b3f
000003e0: 9073 963e f22e 8f3d 6ac8 a63e 6f50 b73e
000003f0: 9d12 3e3f 1b17 fc3e 6041 9e3e abd9 383f
0.73766017 0.21331649 0.6125646 0.04518171 0.8046723 0.6137339 0.2245627 0.20225002
0.013528896 0.47114828 0.10793182 0.41132033 0.0048719966 0.516773 0.17760584 0.0079572145
0.58633214 0.74105465 0.4681029 0.4685436 0.57643306 0.7773365 0.5395728 0.061803173
0.40062347 0.08326848 0.35226905 0.35130197 0.26236063 0.13351455 0.44723117 0.76704776
0.35437152 0.11783448 0.03660287 0.17318499 0.26621318 0.014230262 0.19405755 0.6170529
0.84977037 0.43152395 0.42705876 0.53558016 0.6850746 0.012512999 0.66445106 0.74224037
0.0013132249 0.56423986 0.00034497367 0.7524105 0.56124926 0.45918593 0.5867839 0.3510103
0.6756143 0.5849319 0.11864811 0.5921687 0.8350253 0.39071032 0.24020882 0.055933625
0.0091614025 0.58338916 0.13812621 0.098548084 0.8466042 0.50151557 0.4038834 0.6428319
0.063402176 0.3461798 0.14675224 0.22101413 0.4513068 6.9361544e-05 0.0974833 0.1021115
0.18704858 0.75416106 0.7581468 0.16112022 0.0037253734 0.5606859 0.06172679 0.6315766
0.0040952214 0.53067565 0.008228323 0.5502519 0.04244978 0.46135637 0.51722145 0.33275804
0.622302 0.66280353 0.78251386 0.41357324 0.031166544 0.8451677 0.11674025 0.80379003
0.06748076 0.44581446 0.14165542 0.56383556 0.19426987 0.65579814 0.5708601 0.23374094
0.5848973 0.6045685 0.6140063 0.6437561 0.37347916 0.58717716 0.20636351 0.4490808
0.26195887 0.23705028 0.5125615 0.2797928 0.31027576 0.1546334 0.113395296 0.2736311
0.4501964 0.55936086 0.4819224 0.04663193 0.84249324 0.21576427 0.012253791 0.83662295
0.0010281291 0.67844874 0.6314112 0.005160499 0.69012964 0.080195375 0.53936577 0.74841595
0.8577856 0.15387909 0.2801173 0.0025932835 0.03295737 0.28901953 0.43777898 0.44782075
0.8280222 0.26909712 0.7401039 0.015060906 0.09609765 0.06964907 0.02169225 0.703975
0.8299601 0.2023521 0.35507378 0.41086534 0.08157849 0.33183402 0.64407116 0.41440544
0.17829385 0.11100777 0.2725435 0.8431129 0.808629 0.64914894 0.81400925 0.35031772
0.39385602 0.071585976 0.26249853 0.007067576 0.2443675 0.6423013 0.20476796 0.69929796
0.43460995 0.6870739 0.63157 0.1204018 0.7225984 0.42710805 0.42778847 0.43015248
0.10005827 0.07746643 0.124598 0.41008955 0.01822336 0.6083163 0.34150514 0.46130857
0.53423643 0.20863302 0.043998927 0.060801268 0.80669504 0.074367344 0.6727747 0.32393783
0.5501686 0.0011397382 0.27552345 0.6180037 0.2466271 0.35966957 0.54138565 0.6753445
0.26602876 0.017262034 0.5154826 0.6609377 0.303781 0.23526944 0.7012092 0.2824729
0.51204866 0.046927962 0.6284609 0.28838453 0.7303608 0.43437937 0.027651196 0.55426675
0.2193651 0.27460718 0.027170451 0.5141213 0.66064274 0.61192673 0.15521662 0.02794619
0.27381694 0.5332463 0.023119455 0.5243102 0.48069566 0.59326005 0.15284547 0.5459286
0.29385042 0.06991376 0.3257478 0.35803553 0.7424715 0.49236378 0.30909252 0.72207135

bn.bias f4 [400]
00000000: 19de 5a3a 385a cb3a 5289 163c b290 993a
00000010: 0d80 123b f5c0 013c e456 8dbb a1ec b638
00000020: 0232 083b 1be2 dcba 4636 0dba b187 b2bb
00000030: f890 3db9 e586 8f3a b8bf 18ba b2dd bf39
00000040: da9a 783b 619a c03b 74ab b437 98f9 c6b9
00000050: fba7 8fbb ca20 37bc d507 d6bb b1d9 79bb
00000060: 5c23 223a 364a d13a b507 ec3b b05e bb38
00000070: 14fa db3b bedb 81bb 5b77 c0b9 e07d 9eba
00000080: c00c 61bb c0be e6ba 95cc 873b 9375 9d3b
00000090: 688a 813b 5fb5 caba af21 d73b 9789 8a3b
000000a0: 0e75 7f3b c453 d338 0d07 48bb ed3b 893b
000000b0: 9f27 59bb 41dd 18bb 6441 533a 8bf5 6d3b
000000c0: 368a 3bba 1eeb c53b 0cbd 74ba da00 f53b
000000d0: bf67 9a3a be5f 8939 8dda fe3b 929e 9fbb
000000e0: aa16 4aba b161 b9bb 29aa 93bb 9355 23bb
000000f0: 08f0 103b 5b8b 00bc b4ee 04bb 3a16 ddba
00000100: 5b8f f7b9 9037 bb3b 5956 64bb 74af 09ba
00000110: 842b 513b c675 93bb 29e5 2c3b 48af 59bb
00000120: 82a2 353a 10b7 a63b 8d9c 21bb d411 cfbb
00000130: 41b0 f13b 7c40 353a 2c24 1a3a c9d9 84bb
00000140: a058 1ebc 8043 893a 060d b8bb 2c97 91bb
00000150: e827 823a 3180 263b 1350 c0ba 8149 053c
00000160: 7184 1fbb cc97 49bb a7ab af38 3b01 cbbb
00000170: 66ca 66bb 6f27 323c 09fb 4c3b 3a08 ab3b
00000180: 8ebd 543b 5bd9 223b 35ae 473b 8b4a 83b9
00000190: 25ea 273a 4fcf 28bb 50c1 5eb8 f900 b03b
000001a0: c8f8 0c3b 962b 003c ff68 60bb ebbf 98bb
000001b0: 9fa0 993a 504f 883c ebcb 473b efca 0aba
000001c0: f07d 203a 4b49 4939 8e4e 823b 2bfe febb
000001d0: 1c30 24bb 14a9 183b 2bd7 9a3b f17f 243b
000001e0: 58dd df3b ea82 533b 91d0 8a3a 40a1 443a
000001f0: 3660 cb3b 0d3a 353b 800f 393b c90c 1d3b
00000200: 3702 e8b9 c466 833b 619a c7ba e664 fe39
00000210: 3c84 9a3a b7ba 5bbb 25e2 df39 e25f 663c
00000220: 8c29 6aba fc35 06bc 7773 00bc 9691 57ba
00000230: e1dc 84bb e207 1ebb de65 ee3b 8d8d 6cbb
00000240: 40b4 09bc cab1 53bb 0c87 acba 690f c9b9
00000250: 1dc0 88bb 012e 2abc d5d0 a33b c011 603a
00000260: f262 ebbb 6c39 d6ba 56f7 4f3b ee97 98bb
00000270: f1e2 f5ba 5f31 cab9 96b7 86bb 0505 743b
00000280: 0d92 e33b 038a 42ba 1ee8 af3b e957 773b
00000290: 1278 67ba 6693 7f39 9614 303c 4ac6 213b
000002a0: dee7 77ba 86be 8eba 1436 df39 356e 953b
000002b0: 72c1 99bb 8674 363c c9c0 913a 5b14 47bc
000002c0: 2b84 19b9 ec4f 18b9 0c49 063a c15e 4eba
000002d0: 5245 513b 640f 49bb 51b5 23bb ff38 09ba
000002e0: 2cb9 a83c 3db2 503b 1ab4 8d3a ca47 80b9
000002f0: a009 223c 1d64 9539 2ad7 5db9 0e6d 493b
00000300: 4f01 70b8 c098 a43a 687e edba e532 eb3b
00000310: f9ab 663a c9c1 9c3b 992e b3bb 38c7 ba39
00000320: 879d c0bb d1c1 43bc 7d31 b33a b64c 6e3a
00000330: b924 2bba 2321 33bb 4e05 7b39 0b55 b239
00000340: c1a6 6d3b 62bc abb8 257d 8eb9 c4a6 903b
00000350: 4aaf 5abb 50f0 ca3b 69a6 30ba 6414 c9bb
00000360: 8809 8fbb 11cf e5ba bca4 9839 81d6 afbb
00000370: 11e8 6a3b f1f7 a6ba fc8b eb38 b063 733b
00000380: 1bbb 95bb b178 e9b8 e9c6 cd3b f0a4 4abb
00000390: 6bc4 233c 5b1d 833c 6e50 d7b9 833e 25bb
000003a0: a5a0 563b 07b5 833b 1d79 20bb 5af5 c83a
000003b0: b692 2a3c bc97 70ba 596d 503b 5f59 6fbb
000003c0: 3488 80bb 4f99 aa3b 03ea c0ba 40c5 8fbb
000003d0: fee2 143b f434 be3b ead9 863b bd8a c83b
000003e0: ed78 d4bb f630 e0ba 0ac5 f03b 0b98 533b
000003f0: 4628 5b39 11a1 c63b e51f 0dbc 649b 9c3b
0.0008349135 0.0015514558 0.009188013 0.0011716096 0.0022354156 0.00791954 -0.0043133367 8.722512e-05
0.002078176 -0.0016852053 -0.00053868105 -0.0054483046 -0.0001807845 0.0010950236 -0.0005826908 0.00036595535
0.0037934096 0.0058777784 2.1537511e-05 -0.00037951465 -0.0043840385 -0.011177251 -0.0065316954 -0.003812414
0.00061850785 0.0015967551 0.007203067 8.934492e-05 0.0067131612 -0.003962963 -0.0003671002 -0.0012091957
-0.0034339875 -0.0017604455 0.004144261 0.0048052757 0.003953267 -0.001546543 0.0065652947 0.004227828
0.0038979682 0.000100768666 -0.003052178 0.004188052 -0.0033135188 -0.0023325237 0.0008058755 0.0036309685
-0.0007154079 0.006039991 -0.00093360315 0.007476908 0.0011780186 0.0002620201 0.007777518 -0.004871198
-0.00077090657 -0.0056573977 -0.0045063687 -0.0024922832 0.0022115726 -0.007845725 -0.002028388 -0.0016867586
-0.0004721832 0.0057134107 -0.0034841506 -0.000525228 0.0031916806 -0.0045001237 0.0026381707 -0.0033216048
0.00069288176 0.0050877407 -0.0024659962 -0.006319264 0.0073757474 0.0006914211 0.0005880024 -0.0040542823
-0.0096646845 0.0010472387 -0.005616787 -0.00444307 0.0009930106 0.0025405998 -0.0014672301 0.0081352005
-0.0024340416 -0.0030760644 8.376623e-05 -0.006195215 -0.0035215854 0.0108736595 0.0031277558 0.0052194865
0.0032461616 0.0024848792 0.0030468826 -0.00025041806 0.00064054347 -0.0025758331 -5.310896e-05 0.0053712097
0.002151059 0.007822892 -0.003424227 -0.0046615503 0.0011720842 0.016639382 0.0030486535 -0.00052945217
0.0006122282 0.00019196158 0.0039766496 -0.007781764 -0.002505309 0.0023294138 0.004725357 0.0025100673
0.006831806 0.0032274076 0.0010590722 0.0007500835 0.0062065376 0.002765301 0.0028237998 0.002396392
-0.00044252138 0.0040100534 -0.0015228504 0.0004852183 0.0011788676 -0.0033528039 0.00042702365 0.014060946
-0.00089325826 -0.008191582 -0.007840029 -0.0008223293 -0.004054651 -0.0024113585 0.007275327 -0.0036095113
-0.008404791 -0.0032302015 -0.0013162806 -0.0003834919 -0.0041732923 -0.010386945 0.00499926 0.0008547567
-0.007183426 -0.0016344017 0.0031733117 -0.0046567833 -0.001875965 -0.00038565227 -0.0041112406 0.0037234437
0.006944901 -0.0007421078 0.0053682467 0.0037741608 -0.00088298426 0.00024373605 0.010747096 0.002468484
-0.0009456853 -0.0010890521 0.00042574166 0.004560257 -0.00469225 0.01113618 0.0011120077 -0.012150849
-0.00014640453 -0.00014525623 0.0005122579 -0.0007872396 0.0031932187 -0.003067934 -0.00249799 -0.00052346283
0.02059611 0.003184452 0.0010811121 -0.0002446755 0.00988999 0.00028494085 -0.00021156357 0.0030735168
-5.7221678e-05 0.001255773 -0.0018119337 0.007177698 0.00087994296 0.004783843 -0.0054682014 0.00035625114
-0.0058781537 -0.011948065 0.0013671365 0.00090904103 -0.00065286044 -0.0027332983 0.00023939201 0.00034014168
0.0036262723 -8.1890044e-05 -0.0002717759 0.0044144113 -0.003336864 0.0061931983 -0.0006738664 -0.006136464
-0.00436515 -0.0017533024 0.00029114436 -0.005366147 0.0035843889 -0.0012738687 0.00011231747 0.0037138276
-0.004569424 -0.00011132786 0.0062798155 -0.0030921064 0.00999556 0.016005209 -0.0004106792 -0.0025214262
0.003274956 0.004019383 -0.0024486252 0.001533191 0.010410955 -0.00091778836 0.0031803458 -0.0036521775
-0.0039224867 0.005206264 -0.0014718178 -0.0043875277 0.0022718306 0.0058046523 0.004115333 0.0061200545
-0.006484142 -0.0017104435 0.0073477076 0.003228667 0.0002090047 0.006061681 -0.008613561 0.004779266
