projects/tennis/checkpoint/E15/E15.07_critic0_15000.pt (torch_old, 502006 bytes, 9 tensors)

fcs1.weight f4 [400, 48]
000000 30 d5 13 bd e2 37 0b 3d 56 1e 10 39 26 1e 00 3d
       -0.036091983 0.03398884 0.00013744211 0.03127875
000010 33 18 3a 3c 1f 1f 20 bd 94 f4 22 bc 58 6f 00 bd
       0.011358309 -0.03909218 -0.009946007 -0.031356186
000020 94 27 c2 bc de 87 fd 3c 30 76 33 bd ba 1f 1e 3d
       -0.023700513 0.030948576 -0.043813884 0.038604476
000030 7d e2 af ba fe 98 33 3d c2 90 dd 3b 29 f2 df ba
       -0.0013418939 0.043847077 0.0067616412 -0.0017085719
000040 78 8e 42 3c 05 f9 95 3c d2 09 48 bc ba a7 b8 3c
       0.0118747875 0.018307218 -0.012209373 0.022540916
000050 0a f2 b0 3c bb 91 43 3d fb 21 c0 3c 79 a5 b6 3c
       0.021599788 0.0477464 0.023453703 0.0222957
000060 cc 69 1b 3d 05 20 45 3d f8 1f ff 3c 5e 64 0c 3c
       0.037942693 0.04812624 0.031143174 0.008568851
000070 b6 a4 f1 bc 35 f3 ca 3c 13 8c 4e 3c 2f 95 ed 39
       -0.029497486 0.024774173 0.0126066385 0.00045315313
000080 4b c4 b0 bc 5d 52 ec 3b 35 de 4e bd ad e7 b8 bc
       -0.021577975 0.007211967 -0.050504882 -0.02257141
000090 1c d3 3f bd 67 33 2f 3d 1b 81 b0 bb 51 df 47 3c
       -0.04683219 0.04277363 -0.0053864843 0.012199239
0000a0 52 9c 96 3c e3 0f 22 3c 09 6c e8 3c 39 95 3c 3c
       0.018385086 0.009891483 0.028371828 0.011510187
0000b0 6a 92 d8 3b 51 52 4f 3b 4e 13 d4 3c b6 43 08 bd
       0.006609251 0.0031634758 0.025888111 -0.0332677
0000c0 a5 31 05 3d 02 7e f4 bb 08 a6 f3 3c 20 d6 ee bb
       0.032518048 -0.0074613104 0.029742256 -0.0072887093
0000d0 15 c5 89 3a 83 62 60 bc 40 5a 94 bb 62 54 a9 3b
       0.0010511006 -0.013695362 -0.00452736 0.00516753
0000e0 15 f0 06 bd 7a 1e bc 3a 19 bd 49 3d 6d 20 0e 3d
       -0.032943804 0.0014352344 0.049252603 0.034698892
0000f0 96 75 0d bd c0 ed d3 3c bb 38 1f 3d f5 e4 41 bb
       -0.034535967 0.025870204 0.03887246 -0.0029585932
000100 7c ba 49 3d 42 11 0b bd fd 8c f2 bb dd 91 fe 3c
       0.04925011 -0.033952005 -0.007402061 0.031075412
000110 b0 7c b0 3c 66 2c 02 3d fa 2e 49 bb 2a 03 3a 3c
       0.02154383 0.031780623 -0.0030698166 0.011353293
000120 33 2c 5d bc ce b0 65 3c 06 d2 41 3d 10 4d 5e ba
       -0.013499307 0.014019204 0.047319435 -0.0008480111
000130 92 ff 8a 3b 3e 42 bc b7 da ac 98 3c 8c 6a 15 bc
       0.004241892 -2.2442193e-05 0.01863711 -0.009119641
000140 09 4f 67 3c c6 08 b0 3c 3a 63 cc 3b 6b eb f2 3c
       0.014117965 0.021488559 0.0062374147 0.029653272
000150 6a 5b 93 3c 79 00 da 3c bf 8a 24 bd b6 f4 25 3c
       0.017987926 0.026611554 -0.04017138 0.010129144
000160 ee e5 5f 3c 09 39 9a 3c 92 94 87 bc 08 24 db bb
       0.013665659 0.018826025 -0.016550336 -0.006687645
000170 59 80 de bc d4 e8 06 3d 2d 97 64 ba 82 4f e7 bc
       -0.02716081 0.032936886 -0.0008720037 -0.028236154
000180 55 0c a1 bc 24 30 26 bc c2 6e b0 3c 23 c3 7e bb
       -0.0196592 -0.010143314 0.021537188 -0.0038873635
000190 ff 64 41 bd 99 1d 67 bc e3 ea 0c bd 51 2a c4 bb
       -0.047215458 -0.014106178 -0.034403693 -0.00598649
0001a0 a6 35 1b 3d f1 59 9d 3b 90 53 13 bc 18 37 0d 3c
       0.03789296 0.0048019816 -0.008992091 0.008619092
0001b0 64 99 f1 3b f1 51 13 bc e9 cf ec bc 2d 9a 96 bb
       0.007373022 -0.008991704 -0.028907733 -0.004596016
0001c0 fc ee 32 3d c2 42 a9 3c 69 02 d1 3b c4 1e 74 3c
       0.043684945 0.020661715 0.006378461 0.014899913
0001d0 01 aa da bb 50 62 52 3c 6e 90 1c bd a7 99 86 3c
       -0.006673098 0.012840822 -0.038223676 0.016430689
0001e0 f5 d7 fa 3c eb 3c 09 bd 2b bd 27 3d 3d 05 df 3c
       0.030620554 -0.03350536 0.04095189 0.027224177
0001f0 1f 49 c7 bb 75 08 c8 3b 24 3e 19 bc 3e 76 72 3b
       -0.0060817148 0.006104524 -0.009353194 0.0036996747
000200 1f 3f 09 3d 4f fa 0a 3d 95 5a 0a bd 96 47 c2 3c
       0.033507463 0.03393012 -0.033777792 0.023715775
000210 f5 3d 9a bc d4 9b 90 bb e9 64 10 bd 19 6a aa 3c
       -0.018828372 -0.0044131074 -0.035252485 0.020802544
000220 1d e5 42 3b 06 a4 b5 bc 77 7c ac 3c 5c f8 26 3c
       0.0029738613 -0.022172939 0.021055443 0.010191049
000230 3f 71 22 bd 78 84 ce bc 02 a4 02 3d b3 44 b3 bc
       -0.03965878 -0.02520965 0.03189469 -0.021883344
000240 ae 2a ed 3c 99 c8 0c bd 72 02 cb 3c 5d aa 10 3d
       0.028951015 -0.034370992 0.02478144 0.03531872
000250 43 bd 50 bb ca ae 1f bc 70 19 db 3c 08 95 83 3a
       -0.003185109 -0.009746263 0.026745528 0.0010038922
000260 51 a0 dd 3c 4a 1c 22 bc 54 63 70 bc 39 b5 7d 3c
       0.027053984 -0.00989444 -0.014672119 0.015485101
000270 ec f6 f4 3a df 41 ef bc 7d 04 bc ba 0f 7a ce b9
       0.0018689311 -0.029206214 -0.0014344599 -0.00039382323
000280 08 d8 e6 ba b3 84 b4 bc 36 41 00 bd bc f1 67 3c
       -0.001761199 -0.022035932 -0.03131219 0.014156755
000290 76 b0 9d 3c 7f 21 15 b9 6a a2 f2 bc cd b2 c7 3c
       0.019249182 -0.00014222226 -0.02961846 0.024377251
0002a0 70 ee b8 3c 8b 97 be b9 45 6d 4e 3b f6 78 ef bc
       0.022574633 -0.00036352532 0.0031498235 -0.029232483
0002b0 ad d1 60 bb a0 12 c3 39 01 fb 27 3c a1 fd 8d 3c
       -0.0034304664 0.00037207175 0.010252715 0.017332854
0002c0 fb 74 59 bc 58 80 0c bd 25 82 be bb 5b 48 95 bc
       -0.013272519 -0.034302086 -0.0058138543 -0.018222978
0002d0 e7 e2 8a 3c 36 de 6b ba 4f 6b 38 b8 4c 19 84 bc
       0.016953899 -0.00089976506 -4.3968957e-05 -0.016125344
0002e0 6a 54 6e bc c0 85 e3 3b de 41 da bc bd 5c d5 3c
       -0.014546493 0.0069434345 -0.026642736 0.026045198
0002f0 31 ac 58 bb 47 30 24 bc 38 f3 af 3c 10 9c 6f 3c
       -0.0033061618 -0.010021276 0.02147828 0.014624611
000300 70 d7 01 bc e9 98 23 bd e4 f8 e9 3c 98 81 c9 3c
       -0.007924899 -0.03994075 0.028561063 0.024597928
000310 e4 3a 3f bd 48 54 44 bd 60 d5 e3 b9 07 cc 30 3c
       -0.04668702 -0.04793194 -0.0004345579 0.010790831
000320 c3 97 d8 bc 6a 00 8d 3c 07 a7 fc bb c4 55 49 3c
       -0.026439553 0.017212112 -0.007710341 0.0122885145
000330 b1 0b 19 3d 83 5d 36 bd de dc 7e 3c ad 3d e8 bc
       0.037364665 -0.044522773 0.0155555885 -0.028349722
000340 f4 d9 e6 bc 93 8b 1c bd 60 3d c3 bb b3 6f 8b bb
       -0.0281801 -0.038219046 -0.005958244 -0.004255259
000350 85 96 d3 3c 1a 88 f6 3c 10 c2 b7 3c 8b fa 96 bb
       0.02582861 0.030094195 0.022431403 -0.004607504
000360 c2 95 ab 3c 9d d6 be 3a 21 37 5d bc a8 c5 58 3c
       0.020945434 0.0014559809 -0.013501913 0.013230719
000370 21 eb 28 3d cc 70 34 3d 46 ee 67 ba 84 34 d6 bc
       0.04123986 0.044052884 -0.0008847456 -0.026148088
000380 e0 ff e4 3a a8 d7 b0 bb dc e1 94 bc 45 6d b9 bc
       0.0017471276 -0.005396802 -0.018174104 -0.022635112
000390 11 d4 60 bb c5 7e bf 3c 61 b9 0d 3d 80 22 15 bd
       -0.003430609 0.023375878 0.03460062 -0.036409855
0003a0 35 51 85 3c 6c 6a c3 bc ff 63 32 bd 7d f9 2e bc
       0.016274074 -0.023854457 -0.043552395 -0.0106796
0003b0 45 22 0d bd 5f 5e 8e 3c 4a 05 75 3c 9e a3 0d 3d
       -0.03445651 0.017378984 0.014954874 0.034579866
0003c0 9e 74 0c bd 0d 1a f8 bc e0 25 c3 bc 8f 22 8f bc
       -0.034290902 -0.03028586 -0.023821771 -0.017472534
0003d0 96 96 3f ba e8 7c ab 3b cf 24 44 bc 07 a2 cf 3a
       -0.0007308511 0.005233396 -0.0119716665 0.0015841135
0003e0 5a 01 6d bc 14 26 95 3c d9 78 44 ba 5c 42 87 3c
       -0.014465654 0.018206634 -0.00074948143 0.016511135
0003f0 54 9c dd bc 36 dc 79 3b 67 67 9e bc c6 15 0c bd
       -0.027052082 0.003812564 -0.019336415 -0.034200452

fcs1.bias f4 [400]
000000 82 d3 08 bc b9 75 03 3d 7e 81 0b 3d f9 2c c9 bb
       -0.008351209 0.03209469 0.03405904 -0.0061393944
000010 33 e2 e1 bd 9d f6 49 3d 82 9a dc 3d 5f 6b c5 3c
       -0.11029472 0.049307454 0.107716575 0.02409905
000020 3f 46 b3 bd 85 07 be bc 18 f1 09 3c 15 45 29 3d
       -0.08753633 -0.023196945 0.008419298 0.041325647
000030 e8 29 95 3d 4a 07 ab 3c 43 e3 5c 3d 86 07 ab 3b
       0.072833836 0.0208775 0.05392767 0.0052194027
000040 9c 10 17 3d 6c b7 58 bd 25 cc be 3d 63 c7 b6 3d
       0.036881074 -0.0529093 0.09316281 0.08924749
000050 ac 74 50 bc 50 be 17 3d 52 a3 ff bb 9c 39 15 3d
       -0.012723129 0.03704673 -0.0078014517 0.036431894
000060 6a 6f 5e bd a2 8b 36 bd 9f b5 80 3d c5 f7 b6 bd
       -0.05430547 -0.044566758 0.062846415 -0.08933977
000070 08 77 87 bd 0c f2 dc 3d 21 16 e6 bd 7c 81 7c bd
       -0.066145 0.10788354 -0.112346895 -0.061646923
000080 e1 cd c5 bd ef 1d 8d bd e2 08 35 3d b4 04 83 bd
       -0.09658409 -0.06890475 0.044197924 -0.063973814
000090 05 5b e5 3d f7 0d 02 3e a7 f5 01 3e 93 bd 9f 3c
       0.11199001 0.1270064 0.12691365 0.019499576
0000a0 f2 23 d2 3d 69 3c 87 3d ed 8a 84 3d 45 15 95 3d
       0.10260762 0.06603319 0.064718105 0.072794475
0000b0 4a 3c e1 3c e5 01 9d bd b6 da 01 be 62 e3 d1 bd
       0.027494568 -0.07666377 -0.12681088 -0.10248448
0000c0 de 50 69 3d d0 b9 2c bd 8a 8e 76 3d b9 cf 52 3c
       0.056961887 -0.042169392 0.06019453 0.012866908
0000d0 d2 41 fe bd 8c 1a e7 bd 73 09 62 bd 87 e5 c2 bd
       -0.12414898 -0.1128436 -0.055184793 -0.09516435
0000e0 44 d7 f4 3b f7 b9 ed 3c 7c f1 98 3c 0b a2 2e 3d
       0.0074719507 0.029019339 0.018669836 0.042635005
0000f0 72 39 ed bc 9e ef e1 3c 0c 51 57 bd d3 9c 93 3d
       -0.028958056 0.027580079 -0.052567527 0.07207646
000100 c3 8f 2a bd 4b a4 bd 3c 81 06 7a bc 77 de 10 bc
       -0.041641008 0.02314963 -0.01526034 -0.008842102
000110 bd fa 86 3d 61 98 c4 ba 6a 13 68 3d 99 91 03 be
       0.06590793 -0.0014999026 0.05665914 -0.1284851
000120 09 c6 bc 3a ed 23 bd 3d da 59 ac 3d 08 82 59 3d
       0.0014402281 0.09235368 0.08415575 0.053102523
000130 6d 15 b3 bd 6e e4 8c bd 17 68 0b 3d da 1f c4 bd
       -0.08744321 -0.06879507 0.034034815 -0.09576388
000140 d0 5c 86 ba e5 15 91 3d c1 49 be bd 8b e7 ec bc
       -0.0010251049 0.07084254 -0.09291411 -0.028919002
000150 75 93 d2 bd 20 dd 71 bc 0e d7 03 3d 58 65 8d 3b
       -0.102820314 -0.014762193 0.032187514 0.0043150596
000160 6f 33 ca bd 87 99 09 bd b2 3c ca bd 4c 6e b5 3d
       -0.098730914 -0.03359368 -0.09874858 0.08858928
000170 b3 e6 af 3b 16 0a 3f 3c f7 12 d3 bd fd 21 cf 3d
       0.0053680777 0.0116601195 -0.10306352 0.101139046
000180 4b 54 f5 bd 21 98 64 3d 0e 42 ca bd 58 12 72 bd
       -0.11978968 0.055809144 -0.0987588 -0.059099525
000190 e2 4d db bd 58 e9 96 3d 91 e6 fc 3c f4 27 5d 3d
       -0.10708214 0.073687255 0.030871661 0.05399318
0001a0 dc 3c 45 bd 5a e0 3f 3d 87 7e b5 bd fa 78 ed bb
       -0.048153743 0.046844818 -0.08862024 -0.0072470875
0001b0 77 94 3e bd b4 65 d3 bd 69 52 5f bd 1f fb 04 3c
       -0.046528306 -0.10322133 -0.05452195 0.008116513
0001c0 5e 48 8f bd 16 ca a1 bc 17 f9 98 3d b5 5f ff 3d
       -0.06996225 -0.019749682 0.07469385 0.124694265
0001d0 05 5b 1a bb 21 98 8d bd a6 a0 7f bd ea 91 84 bd
       -0.0023552787 -0.06913782 -0.062409066 -0.064731434
0001e0 e4 e3 97 bd 1f 1a 89 3d e2 27 94 bd c7 31 57 bd
       -0.074165136 0.06694435 -0.072341695 -0.052537706
0001f0 c2 71 75 bd da 2d d1 bd f6 d3 97 3c e1 ad 9a bd
       -0.05992294 -0.102138236 0.018533688 -0.07552696
000200 3f 2d ff 3d ef 07 29 3d 5f 1f 9a bd b1 5b 54 bc
       0.12459802 0.04126733 -0.07525515 -0.012961314
000210 95 3a ad bd f1 da 6f 3d 14 0f 8a bd d2 b3 96 3d
       -0.08458439 0.05855841 -0.06741157 0.07358517
000220 fe db 80 3d 6c 3b 74 3d d7 12 ea 3d 76 fa b7 3d
       0.0629196 0.05962698 0.11429375 0.089833185
000230 d2 6b db 3d 76 c6 bf 3d 93 8b a5 3d fe dc 81 bd
       0.107139245 0.09364025 0.08083262 -0.06340979
000240 51 9e 6b bd 3d ff 83 3d 49 3a cd 3d fc 7c c7 ba
       -0.05752403 0.06445167 0.10020883 -0.0015219743
000250 6b bf 3f ba 6e 64 59 bd 2c 81 a2 bc 27 29 d4 3c
       -0.0007314595 -0.053074293 -0.019836985 0.02589853
000260 9a 4e c3 3d d3 20 16 3d 10 bf 12 3d a3 0a 8f 3d
       0.095364764 0.036652397 0.035826743 0.06984451
000270 c1 e7 93 bc c0 ab 2b bd 96 2d 20 bd 05 7a ef bc
       -0.018054845 -0.04191184 -0.039105974 -0.029232988
000280 9d 62 fa bd 8f 14 ce bd 40 8e a1 bc fe bb a6 3d
       -0.1222584 -0.10062515 -0.01972115 0.081413254
000290 7c 89 dc 3b 38 d0 ed bd ec 40 c9 bc 82 72 24 3b
       0.0067302566 -0.1161198 -0.02456709 0.0025092666
0002a0 08 73 8d bc 73 e5 5f 3d 4e 63 2d bd 24 cf 95 bd
       -0.017266765 0.05466218 -0.042331032 -0.073148996
0002b0 b6 f5 c8 bd 56 44 ee 3c 8a d5 d2 bd 26 b3 66 bc
       -0.09812491 0.02908532 -0.102946356 -0.014080798
0002c0 c1 34 8d 3c 59 7e d2 3d 05 6a 23 3d c5 58 11 3d
       0.01723707 0.10278005 0.03989603 0.035485048
0002d0 f0 50 46 bd ac bc a0 3d 25 c6 a0 3d bf 76 af bd
       -0.04841703 0.07848486 0.07850293 -0.08567571
0002e0 cc 95 b7 3d 5d 96 a5 3d b4 18 f8 bd 83 35 9b 3d
       0.08964118 0.0808532 -0.12114087 0.07578566
0002f0 a6 b2 c4 3d fa 17 b3 3c 71 ff a1 bd 25 7c c7 3d
       0.09604387 0.021862019 -0.0791005 0.097404756
000300 ab fa fd bd 55 e1 e2 3d ad c5 a4 bd 8a a6 29 bd
       -0.12401327 0.11078135 -0.08045516 -0.04141859
000310 71 54 e2 3d a5 e2 b6 3d f8 fa 34 3d c3 2e f2 3d
       0.11051262 0.08929948 0.044184655 0.11825325
000320 a4 8b 29 bd 09 6f b6 bc bb 8d 02 be 6c 47 39 3d
       -0.041392937 -0.022269743 -0.12749378 0.04523413
000330 a2 2c 7b 3d b2 fc ca 3d 15 60 e3 3c 1a d4 56 bd
       0.061321862 0.09911479 0.027755776 -0.05244837
000340 a5 46 a7 3c ce 92 ac bc 9b ba ea bc d3 7f 1a 3d
       0.020419428 -0.021066096 -0.028653434 0.03771956
000350 13 e2 c9 3c 2e 98 ee bd d2 6a 95 3d 76 8e 33 bd
       0.024643933 -0.1165012 0.07295765 -0.043837033
000360 0d 67 db bd d6 e6 4e 3d 31 6b c6 bc 1a 14 55 3b
       -0.10713015 0.05051311 -0.024221035 0.0032513202
000370 c9 4d 07 3d 5e b1 04 bd ce d1 b2 bd 4f 59 6c 3c
       0.033033166 -0.032395713 -0.08731423 0.01442559
000380 a2 f5 b9 3d 45 bd ab 3b c8 b2 84 3d 5e c6 31 3a
       0.09080054 0.0052410685 0.06479412 0.0006781573
000390 f5 ba d2 3d c2 a9 00 bc 97 98 bd bd 22 99 3d bd
       0.102895655 -0.007852973 -0.0925762 -0.046288617
0003a0 30 9c cd 3d b5 92 c7 bd 7c 9a be 3d c9 b1 b7 3d
       0.10039556 -0.09744779 0.09306809 0.08969457
0003b0 fa 8b b3 3d bc b2 47 3d 2e b5 c1 3d d5 0c f4 3d
       0.08766933 0.04875444 0.094583854 0.1191651
0003c0 d7 d6 df bc 96 2f d3 3d b6 ba 86 3d f3 95 e4 3d
       -0.027324123 0.10311811 0.06578581 0.11161413
0003d0 63 b4 1f bc 2b cc 8f 3d 62 5f a6 bd 44 cd 3b bd
       -0.009747597 0.07021364 -0.081236616 -0.045850053
0003e0 7f ca dd bd 9c 52 df bd 3c 66 81 3d d8 b6 de 3d
       -0.10829639 -0.10904428 0.06318328 0.108747184
0003f0 aa d8 9b bd a3 11 98 3b a8 0a bd bc 23 05 d0 ba
       -0.07609685 0.0046407743 -0.02307637 -0.0015870671

fc2.weight f4 [256, 404]
000000 0f 54 5d 3c 74 8d 72 ba 85 75 0b 3c 3c e1 0a 3d
       0.013508811 -0.00092526455 0.008511906 0.033906206
000010 24 c7 39 bd 54 0d 11 bd d4 7d da 3c b1 c2 3f 3d
       -0.04535593 -0.0354131 0.026671328 0.04681653
000020 cb a3 14 ba 98 3b 15 bd b5 b6 be 3c da 49 c0 3b
       -0.0005670159 -0.036433786 0.02328048 0.005868179
000030 a3 f1 1e bc fa 10 88 bc e9 ca e0 bc a9 4a 8d bb
       -0.009701165 -0.016609658 -0.027440505 -0.0043118787
000040 ca 60 10 3c cd 18 b9 3b cf b8 df bb ba 9d d3 bc
       0.008812139 0.0056487084 -0.006827451 -0.025832046
000050 6c eb 20 bd 91 65 ca 3c 3b 78 fe 3b 67 51 5d bc
       -0.039287016 0.024706634 0.0077657974 -0.013508177
000060 a2 5c 99 bc c0 a5 63 3c b3 ef f1 3c f1 7e 0b bd
       -0.018720929 0.013894498 0.029533243 -0.034056608
000070 f3 24 34 bd 2b a2 28 bd 06 fc 60 3d f5 9a 4f 3d
       -0.04398055 -0.04117028 0.05492785 0.050684888
000080 a5 a8 99 bc 3c 4c 00 bc 08 db 43 3d 8d 13 b4 bc
       -0.018757174 -0.007830676 0.047816306 -0.021981979
000090 3e c1 be 3b bb 66 00 3d 81 36 10 3d 3a 61 20 bd
       0.005821376 0.03134797 0.03520823 -0.039155222
0000a0 4d 94 0f 3d 62 2c 72 3c 2d 99 09 3d ce 4b 77 3c
       0.03505354 0.0147810895 0.033593345 0.015093757
0000b0 fd 1f 69 3c f6 ae 0d 3d d7 91 1c bc e7 d8 84 3c
       0.014228818 0.034590684 -0.009556255 0.016216708
0000c0 e4 ff e7 3c e7 8e 3d bd 16 d2 24 bd 4e 29 2a 3c
       0.02832026 -0.04627886 -0.040239416 0.010385824
0000d0 21 68 aa 3b f4 2c 9f bc b0 1c 2c 3d e8 26 f8 3c
       0.0052004014 -0.019430615 0.042019546 0.03029199
0000e0 7b e0 0f 3d de d0 92 bc 06 cb 19 3d 84 8c 1d 3c
       0.03512619 -0.017921861 0.037547134 0.009616021
0000f0 39 0e b7 3c 7b 55 88 bc 26 1d eb bc 5d 84 47 3d
       0.02234565 -0.016642323 -0.028700422 0.048710216
000100 81 3f 6c 3d 74 8d 1d 3d 66 67 4e bd b9 3d 0f 3b
       0.05767775 0.03846498 -0.050391577 0.0021856858
000110 7d d5 87 bb 77 cb 7e 3d e7 83 4f 3d d6 c3 46 3b
       -0.004145323 0.062205758 0.0506629 0.003032913
000120 3f bf e2 3b 56 d0 f5 bc 82 b3 94 ba a8 b0 65 bd
       0.006919771 -0.030006569 -0.0011345001 -0.056076676
000130 9d e2 d8 bc e8 3f 3a 3d 3f 2e 11 bd c8 ee c1 bc
       -0.026475245 0.045471102 -0.035444494 -0.02367343
000140 bd 19 33 bd 25 2b ae bc db e9 18 bb a8 4c d4 3b
       -0.043725718 -0.021260807 -0.0023332748 0.0064788647
000150 a4 b1 e4 3b 3d b2 e2 bc 45 68 9b 3c ba 63 4a bd
       0.006979184 -0.027672881 0.018970618 -0.049411513
000160 7a ae 75 bc 48 0d 39 bd 7e bd 44 3d 31 5a 0c 3d
       -0.014995212 -0.04517868 0.048032276 0.0342657
000170 4d 31 ae 3b dd 6d 2c bc ed cd 44 bd 48 e8 06 3d
       0.0053159357 -0.01052424 -0.04804795 0.032936364
000180 9e 47 2e 3d 8f 18 13 bd 8b 96 1f bd 61 d3 db bc
       0.04254877 -0.035912093 -0.03896193 -0.026834192
000190 f3 6d 34 bd cd d7 29 3b e0 80 de 3c dc 55 69 3c
       -0.04405017 0.002591598 0.027161062 0.014241662
0001a0 e1 b4 13 3d 70 ee 92 3c 4b 28 05 bd d0 71 51 3d
       0.03606117 0.017935961 -0.03250913 0.05113393
0001b0 96 67 82 bd c9 42 5a ba 0a 0c e2 3a 80 1d 67 3c
       -0.06367414 -0.0008325992 0.001724602 0.014106154
0001c0 68 0e 3a 3d 84 02 f7 3c 27 20 0c 3d f8 a2 6f 3d
       0.045423895 0.030152567 0.03421035 0.05850503
0001d0 96 2e 1f bd 7e 00 c8 3c 44 bb a1 bc d6 7f 40 bd
       -0.038862787 0.024414297 -0.019742616 -0.046996914
0001e0 3b 72 c3 bb d2 e4 b5 3c 73 b8 e3 3c 9e 8e 1f 3c
       -0.005964545 0.022203837 0.027797913 0.009738592
0001f0 1d 37 c3 3c c9 e8 be 3c b3 70 00 3d 66 bb e7 bb
       0.023829991 0.02330436 0.03135748 -0.0070719
000200 19 4f d7 bc 04 f6 b3 3c 3b f0 ff 3c 42 7e 37 bd
       -0.026282834 0.021967895 0.03124248 -0.044798143
000210 92 35 1b bc 97 be 24 bb a4 d6 cd bb 8c 90 5f 3d
       -0.009473221 -0.0025138014 -0.0062816907 0.05458121
000220 8d 88 57 bd b1 20 d7 bb 87 c0 26 3a 12 54 90 bb
       -0.05262046 -0.0065651764 0.0006361086 -0.004404553
000230 fa fc 2d 3a ff 11 3b bd 04 05 ed bc fc ef 8e 3c
       0.0006637123 -0.04567146 -0.028933056 0.017448418
000240 7d c4 d9 bc 1d 5e 82 bb 54 79 38 bc b8 4d 19 3d
       -0.02658295 -0.0039785043 -0.011259396 0.037427634
000250 e3 ed 29 bd 3e 45 79 3c 94 26 65 bd 18 e8 c5 bc
       -0.041486632 0.0152142625 -0.055944994 -0.024158522
000260 c7 80 4c bd 76 5e 41 bd 92 85 12 3d 11 b7 89 bb
       -0.0499275 -0.047209226 0.035771914 -0.0042027314
000270 1b a0 fc bc c9 31 47 bd 15 ef a1 bc 49 29 c7 3c
       -0.030838063 -0.048631463 -0.019767324 0.024311678
000280 76 dc 2c 3d 25 dd 89 bc e2 3a bd 3c f9 09 b8 bc
       0.042202435 -0.016829083 0.023099367 -0.022465693
000290 db a5 fe bc f4 c9 ae bb 0c 35 2a bd f6 f5 01 3d
       -0.031084945 -0.0053341333 -0.041554496 0.031728707
0002a0 f7 b4 73 bb af 87 37 bc 30 ca 07 3d 9d c7 44 bd
       -0.003718672 -0.011201783 0.033151805 -0.04804193
0002b0 9a ce ac bc 96 96 4c bd c2 8d 55 bd ca f0 72 3c
       -0.021094609 -0.049948297 -0.052137144 0.014827916
0002c0 94 81 40 bd 6f 29 71 bc ab 6e 5d bc f7 d9 d0 bc
       -0.046998575 -0.014719351 -0.013515155 -0.025494559
0002d0 5b d5 de bc 05 25 e8 bb d8 02 67 3b 51 89 73 bd
       -0.027201345 -0.007084491 0.0035249498 -0.059457127
0002e0 3f 4f 22 bd de d5 47 3c 76 e8 63 bc 10 d7 f7 3c
       -0.039626356 0.012196986 -0.0139104035 0.030253917
0002f0 86 a4 b0 bc a5 ae f8 bc 36 33 25 bc 62 4f ad 3a
       -0.021562826 -0.030356715 -0.01008301 0.001322251
000300 e6 7b ee 3c 00 c2 bb bc cb 95 a3 3c 4d fd 8c bc
       0.029111814 -0.022919655 0.019968888 -0.017210627
000310 ed 58 87 bc 0f c4 9d bb 5d d2 57 bd 64 74 de 3b
       -0.016521895 -0.004814632 -0.052690852 0.006788777
000320 00 7d a3 3c db c9 85 bc 26 7c ec 3a 4b ba 0e 3d
       0.019957066 -0.016331604 0.001804237 0.03484563
000330 e2 ea 3e bd 11 55 20 bc d3 63 fc 3c 95 52 1e bd
       -0.04661072 -0.009785906 0.030809319 -0.038652975
000340 e8 b1 cb bc a6 46 fc bc 95 4f 88 3c d7 ff 20 bc
       -0.024865106 -0.030795407 0.01663951 -0.009826622
000350 be e6 0e bd 67 b1 43 3c b1 ed 22 bd d6 82 27 bb
       -0.03488802 0.0119441515 -0.03977746 -0.0025560162
000360 3e ba 09 bd bc 28 3b bc ca 4b ab 3c 52 60 11 3d
       -0.03362488 -0.011423286 0.020910162 0.03549225
000370 dc 1b ef 3b be 96 b5 bb 7e ee 14 bd 2e 60 4b 3c
       0.0072970223 -0.0055416515 -0.036360256 0.012413068
000380 9f 86 4a bd 05 1d 33 bd b5 a4 13 3c 2c a5 db bc
       -0.04944479 -0.043728847 0.009011437 -0.026812159
000390 35 0b f3 bc ca fb de 3c 34 4d 5c 3d 75 e0 fd bc
       -0.02966843 0.027219672 0.053784564 -0.030990819
0003a0 77 32 42 ba 08 0e 09 3d c2 3e de bc 95 f5 61 3c
       -0.00074080325 0.033460647 -0.027129535 0.0137914615
0003b0 e5 38 26 3c 49 0e 34 bd ae fc 54 bd 29 6d 31 3c
       0.010145401 -0.043958936 -0.051998787 0.010829248
0003c0 00 d8 fd bc 65 dd 88 3c cb 98 3f 3c f9 df 27 3d
       -0.030986786 0.016707132 0.0116941435 0.04098508
0003d0 1c 5b c4 3c 6b 1f 05 3d ce d8 04 bd e0 85 38 3d
       0.023969226 0.032500666 -0.032433324 0.04504955
0003e0 ce e1 36 bd 2b 16 b0 bc cf 89 13 3c 0d c7 d7 3b
       -0.044648938 -0.021494946 0.009005024 0.006585008
0003f0 4f 20 77 3a 73 10 8b 3c f7 dc a4 3c 94 2f 1e bd
       0.00094271166 0.016975617 0.020124895 -0.038619593

fc2.bias f4 [256]
000000 0d e8 ad 3c 97 ba 8a 3c 71 b5 3b 3d 3e 7a 9c 3c
       0.021228814 0.016934676 0.045827333 0.019101258
000010 5f 92 13 bd 58 92 6e 3c c6 94 d2 3c 00 f0 d5 3b
       -0.036028262 0.014561258 0.025705706 0.0065288544
000020 47 e4 02 3d 66 e2 3f 3d 7a c2 0d 3d 8f 80 2c bd
       0.031955983 0.04684677 0.034609295 -0.04211479
000030 ec c3 38 3a 34 99 c8 3c ad e4 ed 3c af fd 8a 3c
       0.00070482376 0.024487115 0.029039705 0.016966669
000040 b7 5e b8 3c 98 a9 4b bd 43 c1 8e 3c 7a 4f 32 bd
       0.022506101 -0.049722284 0.017426139 -0.043532826
000050 1b b2 1f 3d f8 c4 ab bb b7 40 41 3d 40 ab 29 3d
       0.038988214 -0.0052419864 0.047180858 0.041423082
000060 19 ba c8 bc 76 4a 27 bd 0c 31 2e 3d 87 80 cd bc
       -0.0245028 -0.040842496 0.042527243 -0.0250857
000070 0f d1 36 3d c3 54 c1 bc f4 1a eb 3c 08 58 f6 bb
       0.044632968 -0.023599988 0.028699376 -0.0075178184
000080 8d f9 2c bd 85 eb 4d bc 88 c1 45 3b df 99 c6 3a
       -0.042230178 -0.012568359 0.0030175168 0.0015152058
000090 bf b9 2a bd b5 5a 01 bd e1 e4 48 3c b9 76 20 bd
       -0.041681048 -0.031580646 0.0122616 -0.039175723
0000a0 5b a5 4b 3d 0e d1 04 3d 9c 9e de 3c 12 a8 d7 bc
       0.049718242 0.032425933 0.02717524 -0.02632526
0000b0 a2 ab 92 3b d6 25 28 3d 59 5e 2a bc 7a 87 45 bc
       0.0044760266 0.04105171 -0.010398471 -0.012056226
0000c0 a6 5e 6d bb 9f 77 eb bc 0a 72 0d 3d 74 db 3e 3c
       -0.0036219745 -0.028743563 0.034532584 0.011649001
0000d0 e5 f1 14 bd e2 fa fe 3a b1 a4 a1 bb f1 ad 42 3c
       -0.0363635 0.0019453431 -0.004932963 0.011882291
0000e0 e6 7c 1b bd 09 9d 04 3d bf 9d 25 bd 03 78 e1 3c
       -0.03796091 0.032376323 -0.04043364 0.027523046
0000f0 2a d9 1d 3d 9f 40 2b 3d 94 96 27 3d 86 6c 35 3d
       0.038537182 0.041809674 0.040915087 0.04429295
000100 22 cf 0d 3d 4d cd 2f 3d f1 34 1d bd 41 a0 e0 3b
       0.034621365 0.0429204 -0.038380567 0.0068550413
000110 47 ca c8 39 c6 e9 16 3d 92 af 95 bb c8 d5 d0 3c
       0.0003829768 0.036844037 -0.0045680488 0.025492564
000120 53 0e ce 3b ec d6 2e 3d 7e 8d 2b 3d 40 cd 96 bc
       0.0062883287 0.042685434 0.041882984 -0.018408418
000130 84 87 e4 3c 37 6c 0e bd 05 11 ce 3c 54 32 db 3c
       0.02789665 -0.03477117 0.0251546 0.026757397
000140 2c 12 21 bd aa ca f4 bc 41 6a f3 bc e4 c2 08 3d
       -0.03932397 -0.029881794 -0.029713752 0.033388987
000150 63 ac bf 3c 1e b0 a2 bc a3 fc 19 3d 23 9a 7e bc
       0.02339763 -0.01985937 0.03759445 -0.015539679
000160 f2 b9 3d bd db 64 b6 bc 62 ad 1a 3d 9a 22 72 bc
       -0.04631991 -0.022264889 0.037763007 -0.0147787575
000170 9b d7 17 bc ed 4f 24 bd 04 87 45 ba 28 ab e9 3c
       -0.009267713 -0.040115286 -0.00075350725 0.028523996
000180 fd 78 fa 3c b2 7c 5d bc 08 f6 92 3c 3e 9f 1b 3d
       0.03057527 -0.013518499 0.017939582 0.037993662
000190 a5 a2 ca bc 6d 7d 22 3d 59 54 0d 3d d0 06 ae ba
       -0.024735758 0.039670397 0.03450427 -0.0013277177
0001a0 f3 d1 98 3c 91 8a 80 3c 94 53 2a bc 4e 9e 4c 3d
       0.0186548 0.015691074 -0.010395903 0.04995566
0001b0 0c dd 93 bc 9b 4c 62 3b 31 f3 47 bc b1 bd 01 bd
       -0.01804974 0.0034530524 -0.012203977 -0.031675044
0001c0 44 29 a6 bc 79 80 16 bc 6b 03 55 bc a8 cd 1f bd
       -0.020283349 -0.009185904 -0.013001303 -0.03901449
0001d0 b3 9c 25 bd 77 48 30 3d 76 c7 01 bd 95 a8 e6 39
       -0.040432643 0.043037858 -0.03168436 0.00043994622
0001e0 e2 a3 02 bd 04 2a 0a bd 47 51 d0 bb 51 cb c9 bc
       -0.031894572 -0.033731475 -0.0063573453 -0.024633082
0001f0 78 76 28 bc 88 21 84 bb d8 8d 89 bb 4a 9c 37 bd
       -0.010282151 -0.0040323175 -0.0041978173 -0.044826783
000200 7b ab 1e bd f4 9a 9a bb 36 fc 26 3d b3 27 19 bd
       -0.038737755 -0.004718179 0.04076787 -0.037391376
000210 4b c1 ae bc bb b2 b0 3c b8 2e fd 3b e3 d5 96 bc
       -0.021332404 0.0215696 0.0077265166 -0.018412536
000220 48 5f 9c bc 53 8b 20 bd 42 4e e9 3c 29 85 31 3c
       -0.019088402 -0.03919537 0.028479699 0.0108349705
000230 a6 cd 0c 3c c0 c2 06 bd d8 58 38 3d 1f c9 93 3c
       0.008593952 -0.03290057 0.045006603 0.018040238
000240 72 9e d4 3c 18 aa 34 3d 89 70 bc bc 85 01 b3 3c
       0.025954459 0.044107527 -0.02300288 0.02185131
000250 42 66 bb bb a1 e7 a2 3c 7c 54 f9 3c 9a 91 8f bc
       -0.005718977 0.01988584 0.030435793 -0.017525483
000260 81 ef d3 3c 65 67 9f 3c 37 08 84 3b 54 2c 9c 3c
       0.02587104 0.019458482 0.0040292996 0.019064106
000270 60 36 96 bc e2 a1 18 3d 68 48 82 bc 06 fc f3 3b
       -0.018336475 0.03726376 -0.015903667 0.007445815
000280 81 4e aa 3c 7d c3 e1 3c ee 7a 21 bd 31 02 b5 bc
       0.020789387 0.027559036 -0.039423876 -0.022095772
000290 16 b2 e2 3b f9 12 e9 bb 3e 9c 12 3d 2f 0c 59 3c
       0.006918202 -0.0071128574 0.035793535 0.013247534
0002a0 35 47 27 3d 31 c9 c0 3c 74 5d 24 3d a6 45 fe 3c
       0.040839393 0.023533436 0.040128186 0.03103907
0002b0 14 c8 3f bb fb 4e 2c bd 18 d4 41 bb 31 38 ad 3c
       -0.0029263543 -0.04206751 -0.002957588 0.021144958
0002c0 99 57 93 3c bd d6 c3 3a 3d 05 d9 3c b8 dd eb bc
       0.017986106 0.0014941316 0.026491756 -0.028792247
0002d0 ea b8 0e 3d c0 08 b9 3c d2 3c 9f 3c 87 c4 24 bd
       0.034844317 0.02258718 0.019438181 -0.040226486
0002e0 67 4f 1a 3d e9 84 2b 3b 22 4b 44 3c d1 9b 1a bd
       0.03767338 0.002617175 0.011980804 -0.037746254
0002f0 6c ea 89 3c 7f da 27 3d c7 31 d5 3c f1 3e 2b bd
       0.016835414 0.04097986 0.026024712 -0.041808072
000300 db 2f 47 3c 37 e7 0e bc 89 66 be 3c eb b2 32 bd
       0.012157406 -0.008722118 0.023242252 -0.04362766
000310 4c eb 82 3a 17 c0 a3 bc f2 ed 9d bc 13 e7 32 bd
       0.0009988337 -0.019989057 -0.0192785 -0.0436774
000320 31 95 9e 3c 21 83 0e bd 02 62 c6 bc 00 eb 0f bd
       0.01935825 -0.034793023 -0.024216656 -0.035136223
000330 d9 94 c5 3c 33 fa e4 bc ae 9e 1b bd b5 bb f8 bc
       0.024118828 -0.027951336 -0.037993126 -0.030362943
000340 c7 c6 0f 3c b7 88 bf bc 9b a6 bc bb fb d5 19 bd
       0.00877542 -0.02338062 -0.0057571656 -0.037557583
000350 eb 44 3c bd b7 87 a4 ba dd ff 2b bc 0c 4a f2 bc
       -0.045964163 -0.0012552653 -0.010498014 -0.029576324
000360 fc 72 2b 3c 0d 0c a3 3c 07 57 fb 3c 99 30 9e bb
       0.010464426 0.019903207 0.030681146 -0.0048275706
000370 9f d2 a9 bc b6 1f 61 ba ba 95 96 3c 8f 09 56 3c
       -0.020730315 -0.0008587794 0.018381942 0.013063802
000380 50 87 c2 3c 40 ea 44 3b 37 6c 00 3c d9 7d 9a bc
       0.023746163 0.003004685 0.0078383 -0.018858837
000390 ef c3 1e 3b a5 f9 91 3b 78 c2 af 3a 23 1a ae bb
       0.0024225672 0.004454809 0.0013409397 -0.0053131743
0003a0 26 9f 48 3d b1 1a 92 3c 97 06 75 3c 37 a7 16 bd
       0.0489799 0.017834993 0.014955184 -0.036780562
0003b0 9f a2 37 bd f3 db 27 bd 75 2b db 3c 3d cb 44 3b
       -0.044832822 -0.040981244 0.02675412 0.0030028366
0003c0 a8 94 0a bd 8f 17 84 3c 5b 5c da bc 36 52 fa bc
       -0.033833176 0.016124515 -0.026655367 -0.03055678
0003d0 ac 3e 86 bc 73 07 f1 3c 40 69 d4 bc 3f b1 94 bc
       -0.016387306 0.029422497 -0.025929093 -0.018150924
0003e0 81 a1 11 3d d6 62 a8 3b 8f 0a 65 3c b2 ff 2d 3d
       0.035554413 0.0051387353 0.013979568 0.04248018
0003f0 fc f8 1b bc 1a 24 71 3c 36 ff 10 3d ff 77 c5 3c
       -0.009519812 0.01471808 0.035399638 0.02410507

fc3.weight f4 [1, 256]
000000 c2 87 a1 3b c5 fe ac bb 2e ff 9c bb 0a 13 a4 3b
       0.0049295137 -0.0052793943 -0.004791162 0.0050071524
000010 c3 2c 18 bc dc bb d3 39 7c 01 89 3b f0 f6 ba 3b
       -0.009288016 0.00040385022 0.004181085 0.005705707
000020 a3 dc 6b 3a 7c fa 43 3b 9c ad e0 bb 47 97 ac 3b
       0.0008997416 0.002990394 -0.0068566334 0.005267057
000030 a0 66 7d 3b f9 fc a7 bb 8e 6c 39 bb e8 7c fa ba
       0.0038665906 -0.0051265922 -0.0028293463 -0.0019110711
000040 1d a0 2b 3b 69 c7 d7 bb 43 78 69 bb 2b f7 a8 ba
       0.0026187964 -0.006585051 -0.003562466 -0.0012891045
000050 3d af 64 ba 48 af 2f bb 16 4e eb 3b 3a 9a 26 bb
       -0.00087236223 -0.0026807357 0.0071809394 -0.0025421516
000060 b2 e7 5f bb 16 52 3d 3b 29 4d 01 3c f3 10 15 bb
       -0.00341652 0.0028888038 0.007891932 -0.0022745698
000070 71 84 b4 3b 05 b1 b1 3a e7 7e a5 bb 65 de 91 bb
       0.0055089523 0.0013556784 -0.0050505283 -0.0044515603
000080 ed ab 5e bb 36 ce 1e 3c 94 eb 09 3b 73 f2 8a bb
       -0.0033976987 0.009692719 0.0021044957 -0.004240328
000090 50 0c 0c 3b 4d 3d 00 3c 2a 66 06 bb 49 84 ad 3b
       0.0021369644 0.007827115 -0.0020507672 0.0052953106
0000a0 91 20 99 3b af b5 6d 3b 3c 46 e7 3b a4 76 e6 bb
       0.0046730717 0.0036271622 0.007057933 -0.007033186
0000b0 0e e8 65 3a cd 4d 0a 3b dc 84 66 ba d3 5b a7 bb
       0.00087702356 0.0021103502 -0.00087936013 -0.005107382
0000c0 f3 5e 12 ba 67 69 0c 3c a6 e3 91 3b ce 00 22 3b
       -0.00055836065 0.008570052 0.0044521866 0.0024719718
0000d0 c3 1a 79 3b 3a b4 41 3b e7 29 5f bb 80 c4 f6 b9
       0.0038010336 0.0029556886 -0.0034052075 -0.0004706718
0000e0 72 36 9e 3b c8 18 73 3b 06 01 9f 3b 8d 50 b2 bb
       0.0048282677 0.0037093628 0.004852417 -0.0054417313
0000f0 ba 44 ad 3b b6 e6 4c bb de f6 f2 bb 69 9b 1e bb
       0.005287734 -0.0031265444 -0.007414683 -0.0024201518
000100 e2 c9 8c 3b 71 9d f4 3a e4 b6 7f 3b e1 b1 94 bb
       0.0042965272 0.0018662644 0.0039018923 -0.0045378064
000110 89 19 b3 ba e5 fe 9f 3b 26 65 dc 3b 49 7e b8 3a
       -0.0013664226 0.0048826807 0.006725925 0.0014075722
000120 3d 8b 00 3c 7c 73 b3 bb af 50 db 3b fe 04 c8 bb
       0.007845697 -0.0054764133 0.006692968 -0.0061041107
000130 e9 cc 81 bb f8 f7 9d 39 b5 fb 7a 3b 89 67 e9 bb
       -0.003961195 0.00030130125 0.0038297002 -0.007122938
000140 9d a8 95 bb 8d 4f 83 3b dd 84 fe 3a 03 90 f4 3a
       -0.0045672194 0.004007286 0.0019418258 0.0018658641
000150 b4 23 9f bb 24 46 4a 3b cd 80 7b 3a 22 08 ce b9
       -0.004856551 0.003086456 0.0009594083 -0.0003929744
000160 68 21 ee bb b4 42 af b9 d6 1c 0c ba ba 72 1b bb
       -0.007267166 -0.000334283 -0.0005344873 -0.0023719505
000170 32 d3 1f 3c 0d d7 d8 3b 68 a6 d3 3b 89 34 31 b7
       0.009754943 0.006617433 0.006459046 -1.0562254e-05
000180 d8 e4 b1 3b 32 74 f8 39 ee 6b 97 ba 13 df 42 3b
       0.0054288916 0.00047388818 -0.0011552551 0.0029735013
000190 98 ab 16 bb f6 2b dd 3b a4 81 13 bb 7e 50 29 bb
       -0.0022990461 0.0067496253 -0.0022507692 -0.002583533
0001a0 5d 37 86 3a 31 2e 96 b9 c9 0d 9c ba 02 3b ff bb
       0.0010239888 -0.00028644645 -0.0011905964 -0.0077890167
0001b0 1f d5 1c 3a fe 0c 22 bb 19 68 9b 3b d2 58 09 bc
       0.0005982685 -0.0024726982 0.004742634 -0.008382993
0001c0 e6 b9 f2 3b 89 89 82 3b 43 f7 22 3c 0e 2c a0 bb
       0.0074074147 0.0039836806 0.009946647 -0.004888064
0001d0 86 7c 6a 3a 3c d3 0b bb f5 b2 29 3a c7 53 09 3c
       0.0008944947 -0.0021335622 0.0006473505 0.0083817905
0001e0 c1 ed 21 bb 61 09 2d 3b 3b 81 81 bb c1 ed e2 3b
       -0.0024708363 0.0026403295 -0.003952173 0.006925315
0001f0 12 4d 8b 3b fe 54 95 3b 74 69 52 bb 1c b2 f3 b9
       0.004251131 0.004557251 -0.0032106312 -0.00046481274
000200 84 9f 7a ba c0 fb 67 3b 1b 2b 38 3b 35 58 04 3c
       -0.0009560513 0.0035397857 0.0028101865 0.008077671
000210 d8 43 2b 3b b4 b3 fe 3b f0 20 9f 3b 9f 7e 81 bb
       0.0026132967 0.007772887 0.0048562214 -0.003951862
000220 df e4 dc 3a da f6 cc 3b 97 b2 19 3b ac 29 3d bb
       0.0016852877 0.006255013 0.0023452395 -0.002886395
000230 8d 15 2b bb 82 2a b8 3a e5 6e 1b 3b 3b b3 d8 3b
       -0.0026105375 0.0014050754 0.0023717221 0.006613163
000240 fb 16 90 bb dc 15 85 bb 2b 85 23 bb 67 31 a7 bb
       -0.0043972707 -0.0040614437 -0.00249512 -0.0051023248
000250 ff fe 9b 3b 9a fb 83 3b 39 f7 9d 3b 35 b2 41 3b
       0.0047606225 0.004027796 0.004820731 0.0029555683
000260 43 e0 6d 3b cc 62 a7 3b 3d ca 1b bb 34 45 c3 bb
       0.0036297 0.005108213 -0.0023771666 -0.0059591774
000270 bc e5 ae 3b 6a 72 33 bb 72 f0 32 bb a5 d1 aa 3b
       0.005337445 -0.0027381429 -0.002730396 0.00521298
000280 0a 1f 7f 3a 02 9e 72 3b 0f ef 45 bb a4 41 dc ba
       0.0009732103 0.003702045 -0.0030202304 -0.001680423
000290 82 d6 68 bb d2 93 39 3b 5a 02 eb bb ef 78 c5 3b
       -0.0035528247 0.0028316868 -0.007171911 0.0060263793
0002a0 a5 8f cf bb 92 96 a6 bb c6 c7 21 bb 31 dd 98 b9
       -0.0063342624 -0.0050838673 -0.0024685725 -0.000291565
0002b0 c3 eb 0c 3a 3a ec db bb 63 fd d8 3b 60 e4 6a 3b
       0.00053757074 -0.00671151 0.006622003 0.0035841689
0002c0 61 7e b2 bb fe e4 ea 3b ea cb 59 3b 55 8e 60 bb
       -0.0054471944 0.0071684113 0.0033233115 -0.0034264524
0002d0 b4 bb 45 3b d7 ed 7d 3b 1b 46 b1 3b c7 e6 be 3b
       0.0030171694 0.00387465 0.0054099686 0.0058258506
0002e0 20 b0 8a ba 79 8b 72 bb 80 44 60 3b cc 08 5d bb
       -0.0010581054 -0.0037009402 0.0034220517 -0.0033727167
0002f0 c3 36 87 3b b4 e1 b5 3b 0c 50 9e 3b e6 7e 33 bb
       0.004126401 0.0055505875 0.0048313197 -0.002738887
000300 2c 8a 61 ba 09 0b 75 bb 80 c6 ea bb cb dd 57 3b
       -0.0008603658 -0.003739061 -0.0071647763 0.0032938595
000310 73 43 09 3c 61 23 5f bb 71 ef 32 3b af a4 9b 3a
       0.008377898 -0.0034048187 0.0027303363 0.0011874641
000320 6c 4a 82 ba 29 9c b8 3b 5b a8 8e 3b bb cb 37 3b
       -0.0009940392 0.00563385 0.0043535656 0.0028045017
000330 7d c8 b0 bb 1f 04 aa bb e2 b8 db 39 93 95 ca 3b
       -0.005394994 -0.0051884796 0.00041908683 0.0061823814
000340 57 26 e8 3b c7 33 74 bb 65 80 45 bb 17 a1 a2 3b
       0.0070846486 -0.0037262307 -0.0030136344 0.004963051
000350 c6 26 b2 bb 43 54 00 3b 60 0e dd 3b f2 30 85 3b
       -0.005436751 0.0019581474 0.0067460984 0.0040646726
000360 6d 21 5c bb d0 a5 0f bb 8f 7f ed 3b 32 6b 92 bb
       -0.003358926 -0.00219189 0.007247872 -0.004468345
000370 29 d4 08 bc 4a 42 14 3a ea 8a 15 3b 31 15 22 3b
       -0.008351364 0.000565563 0.0022818395 0.002473187
000380 4a fd c7 bb b8 27 d9 3b ce 5b a9 bb 75 f4 be 3b
       -0.0061031925 0.0066270493 -0.0051684147 0.0058274814
000390 60 61 c1 ba d5 17 e2 3a 65 b4 84 bb 37 91 90 bb
       -0.0014753751 0.0017249534 -0.004049825 -0.004411842
0003a0 0a c5 f1 bb 9d 01 bf bb e1 24 96 bb c0 f1 9f b9
       -0.007378225 -0.0058290497 -0.004582033 -0.0003050696
0003b0 33 08 3e 3b 55 3b 16 bc c7 e5 52 3b 3c 98 80 3b
       0.0028996586 -0.009169419 0.0032180415 0.0039243978
0003c0 18 c0 e0 bb 71 01 e3 3b ce 2c bc 3b de 14 8a bb
       -0.006858837 0.006927662 0.005742646 -0.0042139133
0003d0 78 97 67 bb 5b 91 e9 ba ba ed 6d bb f3 76 26 3c
       -0.0035338085 -0.0017819809 -0.0036305026 0.010160196
0003e0 65 56 73 3b 2c 0e cc bb 14 7c ac bb d0 0b b2 bb
       0.0037130353 -0.0062272754 -0.0052638147 -0.005433537
0003f0 1b 9c c3 ba 84 ca 3d bb d4 b7 6a 3b c4 39 18 3c
       -0.0014923842 -0.002895982 0.0035815137 0.009291116

bn.weight f4 [400]
000000 98 8c 07 3f 34 db c8 3e 6d 1f 34 3e 12 d9 80 bb
       0.52948904 0.3922974 0.17590113 -0.003932127
000010 d3 db bd 3e 98 a4 1e 3d 25 bf fb 3e bf 5b 33 3f
       0.37081775 0.038731188 0.4916927 0.7006187
000020 02 1e aa 3c 2b 7a 2f 3f 8f ce 4e 3f a4 4d ca 3e
       0.020766262 0.6854579 0.80783933 0.3951236
000030 28 04 fb 3e 80 77 40 3f 04 72 1d 3f f6 b6 57 3f
       0.49026608 0.7518234 0.615021 0.8426355
000040 9e 26 0c 3f c9 23 5f 3f 35 35 28 3f a8 b1 f7 3b
       0.54746425 0.8716398 0.6570619 0.00755902
000050 2a 3e 32 3e 36 07 17 3f 1b 56 65 3f 0e 64 9f 3d
       0.17406526 0.5899538 0.8958451 0.07782756
000060 f9 bd 63 3d 4f b3 61 3f 12 3a 0e 3f a4 4c 0a 3d
       0.055601094 0.8816423 0.5555736 0.033764496
000070 d0 ef f2 3d 13 bc 28 3e 73 7e 3c 3f 48 83 8d 3e
       0.11862147 0.16477995 0.73630446 0.27639222
000080 34 81 6e 3f 9f 50 58 3f b2 91 0c 3f 55 9a c6 3e
       0.931659 0.8449802 0.54909813 0.3878962
000090 17 1c ae 3d 4a 6a 17 3f 1a 7a 17 3f 5e 00 3e 3f
       0.085014515 0.5914656 0.5917069 0.7421931
0000a0 73 80 58 3f 0c 43 53 3f 07 40 e6 3d 3c 82 70 3f
       0.84571 0.8252418 0.11242681 0.9394872
0000b0 20 64 2b 3f ab e9 9d 3e cb d1 34 3f 68 6b 46 3f
       0.66949654 0.30842337 0.7063262 0.7750764
0000c0 49 1c 44 3f 7f 75 ce 3e da 25 5e 3e a8 d7 e1 3e
       0.7660566 0.40324017 0.21694127 0.44109845
0000d0 7e 7c 9d 3e 72 06 1a 3f 2a 2a 23 3f 4d 8b 20 3e
       0.30759043 0.60166085 0.6373621 0.15678139
0000e0 5d 8f 02 3e 28 83 5a 3d d4 00 02 3f f4 84 06 3e
       0.12750001 0.053347737 0.50782514 0.13136655
0000f0 03 4e 1d 3e 31 0d 1b 3f 01 72 5e 3b f7 89 ec 3e
       0.1536179 0.60567003 0.0033942463 0.4619901
000100 2b 47 52 3f 59 d5 17 3f a6 d8 99 3e 23 f9 a2 3e
       0.82139844 0.5930992 0.30048102 0.318307
000110 ef 63 66 3f 55 8c 5d 3f 13 3f 7b 3f 8d db 31 3f
       0.89996237 0.86542255 0.9814312 0.6947563
000120 03 18 38 3e ce e7 09 3e ae 49 49 3f 5c e2 01 3f
       0.1797791 0.13467333 0.7862805 0.5073602
000130 51 80 ee 3d 17 57 0c 3f 86 64 73 3f fb a0 4d 3f
       0.11645568 0.5482039 0.9507526 0.8032376
000140 b7 78 34 3f f1 f1 3a 3e 7e 06 c5 3d 23 69 a9 3e
       0.70496696 0.18256356 0.09620379 0.33088025
000150 5a fe db 3e 4a 2e cd 3d 2e 4e 22 3f a8 66 19 3f
       0.42967492 0.100185946 0.6340054 0.59922266
000160 af 2a 16 3f f4 6e a6 3e 45 80 1c 3e 61 b0 01 3f
       0.5865888 0.32506526 0.15283306 0.5065976
000170 a1 c6 54 3f b8 58 0b 3f bf 85 d0 3e 00 3d 03 3f
       0.83115584 0.5443225 0.4072704 0.51264954
000180 08 01 3c 3f ca 77 4d 3f e9 6e ef 3e 07 a4 04 3f
       0.73439074 0.8026091 0.46764305 0.51812786
000190 c2 ff d1 3e 98 3c dd 3e 6b 9e b5 3e 40 70 2a 3f
       0.4101544 0.43210292 0.35472426 0.6657753
0001a0 76 96 13 3f 1e 98 78 3f 31 f0 33 3f 0d 33 d7 3e
       0.5765146 0.9710711 0.7028838 0.42031136
0001b0 b4 08 4c 3f d2 9f 4e 3f ec c9 4f 3f c2 6a 91 3e
       0.7970078 0.80712616 0.81167483 0.28401762
0001c0 59 65 29 3e fa 70 6f 3f 5a 65 63 3e 99 fa 41 3f
       0.16542567 0.93531764 0.22206631 0.75773007
0001d0 b2 5d 12 3f 15 5e 11 3f 4d 18 c5 3e 3d c8 1a 3f
       0.5717422 0.5678418 0.38495103 0.6046179
0001e0 21 e5 27 3f 81 4c 83 3e 6e c4 a2 3e e2 9d 5d 3f
       0.65584 0.25644305 0.3179049 0.86569035
0001f0 b3 49 e7 3e ca a2 78 3f 7f b3 be 3b de 64 37 3f
       0.45173416 0.97123396 0.0058197374 0.71638286
000200 2d b5 1f 3e c8 57 34 3f 60 55 1f 3f 0d e0 2c 3e
       0.15596457 0.70446444 0.62239647 0.16882344
000210 2d a9 b7 3e c8 25 4f 3e 29 a4 96 3d 10 a0 fb 3e
       0.35871258 0.20229256 0.0735553 0.49145555
000220 eb f4 6a 3f 86 1c 97 3e 7c 72 0f 3f 30 cc ea 3d
       0.91779965 0.2951395 0.56034064 0.11464727
000230 04 6a bb 3d 68 44 0e 3f 2e 0d 04 3f 0d d1 09 3d
       0.0915108 0.5557313 0.5158261 0.033646632
000240 74 1e f6 3e 72 b8 c6 3e 7a 4f 02 3e 8d ad 0d 3f
       0.4807011 0.38812596 0.1272563 0.5534294
000250 2e cb 46 3d 35 e8 13 3f 81 8e ea 3e de 50 b1 3d
       0.04853361 0.57776195 0.45811847 0.08658002
000260 f6 df d1 3e 9f 3b 45 3e 38 67 5f 3f b4 34 ce 3e
       0.4099118 0.19261025 0.87266874 0.40274584
000270 31 09 a2 3e 25 d6 97 3e fd 87 fd 3e 74 40 41 3f
       0.31647637 0.29655567 0.49517813 0.7548897
000280 72 74 48 3f 22 67 0f 3f 27 55 68 3f a0 30 06 3f
       0.7830268 0.56016743 0.9075493 0.52417946
000290 b3 6b a3 3d 75 c1 36 3f 8a 33 73 3e e8 13 62 3e
       0.07979526 0.7138894 0.2375013 0.22077906
0002a0 65 07 2a 3f c2 7f 0c 3f 58 a6 41 3e 70 f2 e9 3e
       0.66417533 0.5488244 0.18911111 0.45692778
0002b0 c5 11 54 3f 81 1e 57 3f b4 cd 2c 3f 1f e2 9b 3e
       0.82839614 0.8403092 0.6750138 0.30445954
0002c0 a9 f5 4f 3f 95 5b 5d 3f 06 d3 8b 3e 2d 28 2f 3f
       0.8123422 0.8646787 0.27309436 0.6842068
0002d0 7b 3b 73 3f 88 0f 25 3f 2a 77 3a 3e 51 26 2d 3f
       0.95012635 0.64476824 0.1820952 0.6763659
0002e0 0c e6 76 3f 57 11 5b 3f 98 5e 20 3f 35 d4 87 3e
       0.96444774 0.85573334 0.6264434 0.2652909
0002f0 e2 8e a6 3e ea 05 9c 3e 48 4d 31 3f e7 20 14 3f
       0.32530886 0.30473262 0.69258547 0.57862705
000300 2c a2 62 3f 25 86 4f 3f 0d 3e 5a 3f fc c3 78 3e
       0.88528705 0.81064063 0.8525093 0.24293512
000310 00 6a 60 3e 19 c6 b7 3c 7e 0d 00 3f 3b 92 54 3f
       0.21915436 0.022433328 0.5002059 0.8303563
000320 fa a5 95 3e 54 15 79 3f 1c f8 74 3e c1 9c 44 3f
       0.29228193 0.9729817 0.23922771 0.7680169
000330 65 3f 40 3f ac 31 37 3e 1a ad 63 3e 0a e1 96 3b
       0.7509673 0.17890042 0.22234002 0.0046044635
000340 f1 74 71 3f fc 23 73 3f 57 a6 5d 3f 6b 98 35 3f
       0.94319063 0.9497678 0.8658194 0.70935696
000350 af b9 0c 3e be 68 3e 3f 0f ff 21 3f 3c 87 52 3d
       0.13742708 0.74378574 0.63279814 0.0513985
000360 76 78 b1 3d 15 b2 0a 3f c9 0e 57 3d eb cd a5 3e
       0.08665554 0.5417798 0.052504335 0.32383665
000370 ec 71 10 3f 6b d4 65 3e 24 63 16 3a 5f ee d7 3e
       0.5642383 0.22444312 0.0005736819 0.4217405
000380 9f 94 1e 3f 31 b4 60 3e cf b3 68 3f e6 3d 15 3f
       0.6194553 0.21943738 0.90899366 0.58297575
000390 08 fa 0d 3f 3f 66 f3 3e c7 04 76 3f 87 5d b6 3e
       0.5545964 0.47538945 0.9610104 0.3561823
0003a0 1c bb 50 3e fd 97 22 3f b9 5f 3c 3f 53 3a 63 3e
       0.20383877 0.63513166 0.7358356 0.22190218
0003b0 3c 13 db 3e 9b d9 6a 3e f9 49 43 3f 62 0a 09 3e
       0.42788112 0.22934572 0.7628475 0.13382867
0003c0 b1 a9 dc 3e 4f 29 78 3f c3 2f 24 3f bd 7c 91 3e
       0.43098214 0.9693803 0.6413538 0.2841548
0003d0 84 3c 66 3f f4 24 ea 3d 7c f1 27 3f df 6d 43 3f
       0.8993609 0.114328295 0.6560285 0.76339525
0003e0 72 b7 4b 3f df 8b ef 3e 6e d5 2c 3f d3 3b cd 3e
       0.7957679 0.467864 0.6751317 0.40084705
0003f0 bf ea 82 3e 83 0d c1 3d 73 25 91 3e 78 ef 7b 3c
       0.25569722 0.09426405 0.28348884 0.015376918

bn.bias f4 [400]
000000 52 30 3d b9 b8 66 69 ba fe 72 87 3a c0 cf ff b9
       -0.00018042445 -0.0008903551 0.0010333953 -0.00048792176
000010 38 b7 8a bb e1 18 5d 3a a4 cd 81 3b c0 c6 d6 b9
       -0.004233267 0.0008434188 0.003961282 -0.0004096534
000020 94 42 2e 3a c5 ec c5 ba 3f d1 07 bb c5 bc 39 bb
       0.0006647494 -0.001510047 -0.0020724086 -0.0028341275
000030 f2 1d b8 3a f4 e5 bf 39 36 58 d2 ba 5a 56 a4 ba
       0.001404701 0.00036601687 -0.0016048017 -0.0012537942
000040 d1 3b aa ba fe 24 45 bb 1c 82 b8 3a be b1 28 b8
       -0.0012987797 -0.0030081864 0.0014076862 -4.0219857e-05
000050 a1 73 4c ba a7 cb ad 3b b9 1b e4 ba 6d bd 9c 3b
       -0.00077992125 0.0053038183 -0.0017403282 0.0047833235
000060 06 41 3d 3b a0 6d 4c 3b 40 78 62 bb 30 11 84 3a
       0.0028877868 0.0031193271 -0.0034556538 0.0010075923
000070 96 0a ca b9 74 3a a8 38 f2 63 9e 3b aa 22 c8 3a
       -0.0003853633 8.021752e-05 0.0048336918 0.001526912
000080 d6 a4 ee b7 8d 3e e7 ba c3 fe 7a bb 8c b9 87 3a
       -2.8448569e-05 -0.0017642543 -0.0038298822 0.001035498
000090 07 90 97 3a e6 33 a6 ba ff 02 c1 ba 77 9e a9 3a
       0.0011563309 -0.0012680262 -0.0014725624 0.0012940903
0000a0 ac 63 12 bb 97 96 44 b9 72 5f 31 3b e5 4f 3f 39
       -0.002233724 -0.00018748116 0.0027064946 0.00018244942
0000b0 7d bd 35 bb 7e 3e 27 bb 09 e3 c2 ba b7 54 9b 3b
       -0.0027731352 -0.0025519426 -0.0014868687 0.0047403234
0000c0 e6 51 91 3a c8 65 e2 3a 99 29 fd ba 3a f3 8f 3b
       0.001108703 0.0017272765 -0.0019314765 0.0043930085
0000d0 49 37 23 bb 19 fa b0 ba ee a9 95 bb 10 4d ca bb
       -0.0024904779 -0.0013502269 -0.0045673763 -0.0061737373
0000e0 be c4 dd b9 b4 07 19 bb de 38 31 3a a8 4f 3d b7
       -0.0004229899 -0.0023350539 0.0006760488 -1.1283824e-05
0000f0 17 f8 fe ba a3 2c d9 ba cf 78 a6 3a 08 0a 0b 3a
       -0.0019452599 -0.0016569089 0.0012700799 0.0005303924
000100 8c 0d 3e 3b 4b 93 da 3a 91 3f 1d ba f5 14 66 3b
       0.0028999774 0.0016675977 -0.0005998547 0.0035107706
000110 e9 e1 1e bb 56 ee 33 bb 57 0e 34 3a b9 c5 ca bb
       -0.002424354 -0.0027455292 0.0006868592 -0.006188121
000120 49 41 4e 3b 58 a2 33 bb 57 59 c2 3b 43 f6 7d 3a
       0.0031472018 -0.0027409997 0.0059310603 0.000968788
000130 f2 6e a2 39 c8 35 46 b7 c9 63 e3 ba 4b 15 4e ba
       0.0003098171 -1.1814242e-05 -0.0017348464 -0.0007861449
000140 ab 9c 49 3b f5 f7 24 bb 16 35 11 38 58 24 d0 b8
       0.0030763547 -0.0025172208 3.4620134e-05 -9.9249824e-05
000150 d2 da 28 3b 26 45 d1 ba 88 6d 16 3b 1f 50 2b ba
       0.0025765193 -0.0015966042 0.002295347 -0.00065350713
000160 80 ad 22 b9 82 5d 11 bb 07 7a 1f 3a 8f fa 52 bb
       -0.00015514158 -0.002218098 0.0006083552 -0.0032192802
000170 51 6b f4 ba 21 a0 be bb ad 2c 9f 3a 91 91 69 ba
       -0.0018647705 -0.0058174287 0.0012144052 -0.0008909936
000180 1c a6 e5 ba 1e a5 61 ba 07 30 44 39 37 f0 53 bb
       -0.0017520818 -0.0008607673 0.00018709908 -0.0032339224
000190 10 de 75 38 44 54 2b bb 26 be 7d bb 90 e5 eb 3a
       5.8619364e-05 -0.0026142756 -0.0038718074 0.0017997492
0001a0 0c 06 86 bb 3d 90 af 3b 07 f3 76 ba 3a ec 5a bb
       -0.0040900763 0.0053577707 -0.0009420369 -0.0033404962
0001b0 3d ff f5 3a 75 6b ac 39 8c f4 2c 3b 3c c2 0b bb
       0.0018768084 0.00032886458 0.0026390878 -0.002132549
0001c0 c3 a6 72 3a a1 74 03 b9 a3 f3 65 3a 62 ff c9 3a
       0.0009256417 -0.00012536581 0.00087719614 0.0015411193
0001d0 51 5c 4e 3a 18 e6 07 3b c7 e4 44 ba 7a df ac b8
       0.00078720326 0.0020736512 -0.0007510897 -8.243225e-05
0001e0 92 83 f1 39 fe 85 13 3b e3 ce 8b 3a 5a 4f e6 ba
       0.0004606513 0.0022510285 0.0010666515 -0.0017571256
0001f0 e0 ce b0 3a 3e ba e8 3a 61 0e ee ba c3 41 15 bb
       0.0013489388 0.00177557 -0.0018162244 -0.0022774793
000200 0e 12 1a bb 8d e9 e7 b6 33 d8 06 3b 4e 6b 77 bb
       -0.0023509297 -6.9115254e-06 0.0020575642 -0.0037753168
000210 d0 5d 18 3a f4 ba b0 39 f3 83 a1 ba 5c 54 fa 3a
       0.0005812319 0.00033708627 -0.0012322649 0.0019098627
000220 f7 c8 f2 b9 0f c3 0b 3b 1b 72 0b 3b 0b 61 08 bb
       -0.00046307567 0.002132598 0.002127773 -0.0020809795
000230 cb 31 5f ba fe cd ca 3a bb 8f 70 39 ed 51 bd bb
       -0.00085141946 0.0015472767 0.00022941727 -0.0057775886
000240 bc 49 35 ba 04 d7 01 3b c0 67 80 3b 57 3b aa 3b
       -0.00069155893 0.0019811997 0.003918618 0.005195062
000250 41 12 08 bb cc 7c d6 3b 23 2c 55 3b 81 85 5e 3b
       -0.0020762833 0.0065456387 0.0032527528 0.0033954086
000260 48 43 52 b9 0c 86 b8 3a 43 0d 99 3b 14 cd 08 3b
       -0.00020052225 0.0014078035 0.0046707704 0.002087419
000270 6d eb 15 3b 04 a3 12 3b 7b e6 5f bb c3 ca 2f ba
       0.002287592 0.0022374997 -0.0034164477 -0.0006705934
000280 e4 52 87 bb 40 29 39 bb b7 1a 10 3b df d5 5f 3a
       -0.0041297544 -0.0028253347 0.002198858 0.0008538644
000290 d8 4e 14 bb ce d1 4a bb 74 bf 85 3b 6b 2c 1d 3b
       -0.0022630002 -0.0030947807 0.004081661 0.0023982774
0002a0 43 01 9a 3b 17 e9 a2 3a 12 63 30 bb 4a 25 c4 b7
       0.0046998574 0.0012429085 -0.002691452 -2.3382385e-05
0002b0 9a 34 13 3b e7 44 86 3b 5e 07 5d 3b 31 e1 7f 3b
       0.0022461773 0.0040975693 0.0033726315 0.0039044137
0002c0 46 bf 5e 3b 61 37 4c 3b ac 3c c6 ba cb 05 9d 3b
       0.003398852 0.0031160938 -0.0015124283 0.0047919503
0002d0 25 0e 80 3b 0d e1 a9 3a 79 a3 af 3a 8b dc 42 bb
       0.003907936 0.0012960747 0.0013400159 -0.0029733505
0002e0 16 85 d7 bb e7 13 0c 3b 89 0f 9a 39 68 9b 7e 3b
       -0.0065771444 0.0021374167 0.00029384744 0.0038849954
0002f0 7c c7 0a bb 53 e4 9c ba b3 8b 10 ba 3a 6c a4 3b
       -0.002117603 -0.0011969901 -0.0005513981 0.0050177844
000300 4b 58 2b 3b b9 2f 3d 3b 84 83 c6 ba d3 e1 10 bb
       0.0026145156 0.0028867556 -0.0015145396 -0.0022107258
000310 15 d7 13 bb 24 4a e9 3a b9 11 fb b9 f2 ee 4a 37
       -0.0022558619 0.0017798585 -0.00047887655 1.2095772e-05
000320 d4 48 e8 3b e8 c9 aa 3b 3e ee a5 3b c0 29 39 3b
       0.00708876 0.0052120574 0.005063801 0.0028253645
000330 6d 30 0a 3b f6 38 74 b8 0d 9f b6 39 0b b1 87 38
       0.0021085993 -5.8227182e-05 0.00034832247 6.4702785e-05
000340 74 2d c4 3a 6f 7f 13 bb 8c 1a 52 3b 61 db ff ba
       0.0014967159 -0.0022506376 0.003205928 -0.0019520336
000350 f2 e7 ca 3a 81 4f 04 bb 7d f1 83 3a 3c 46 22 bb
       0.0015480502 -0.002018899 0.0010066476 -0.0024761101
000360 c2 d9 c6 3a 36 9c 18 ba bd dc 92 bb 79 db aa 39
       0.0015171098 -0.0005821617 -0.0044818805 0.00032588447
000370 82 f1 8b 39 7a 52 3a bb 18 de c8 ba 9e 3a 20 3a
       0.00026692083 -0.0028430508 -0.0015324978 0.000611225
000380 2f eb 6c b9 1c 4a 78 3b ff 00 42 3b 4f fa eb 3a
       -0.00022594327 0.003788597 0.0029602644 0.0018003675
000390 47 f7 84 3b 68 b2 5b ba 70 18 54 3b 15 32 5a ba
       0.004057798 -0.00083807716 0.0032363199 -0.0008323503
0003a0 72 f7 d4 3a c1 40 a0 3a b8 af 5e bb 17 67 22 3b
       0.0016248061 0.0012226329 -0.0033979248 0.0024780685
0003b0 ef ce d7 ba 31 b4 c4 3a ef 35 82 3a 48 76 53 bb
       -0.0016464869 0.0015007315 0.0009934286 -0.0032266546
0003c0 14 f6 8d bb 79 09 28 ba ea de a1 39 02 e3 4e 3a
       -0.0043323133 -0.0006410103 0.00030874397 0.0007892103
0003d0 38 5e d0 37 ac 97 b7 ba 56 35 86 b9 f0 87 1d bb
       2.4839406e-05 -0.0014006994 -0.0002559821 -0.0024037324
0003e0 67 10 52 bb 16 0b ed ba fb aa 2d bb a6 ca 10 3b
       -0.0032053234 -0.0018084969 -0.0026499617 0.0022093444
0003f0 a0 e3 cb b9 a8 bd d7 3a 20 7a 16 3b 82 54 9d bb
       -0.0003888877 0.001645972 0.0022960976 -0.004801334
