multi_agent/deception/model-ORIG/episode-9996.pt (torch_old, 73363 bytes, 99 tensors)

fc1.weight f4 [16, 14]
00000000: 11b8 c73e 9e07 353f dc08 bf3e b8c2 233f
00000010: 6cee 69be d121 1cbe b29b 2c3e 4fdf e4be
00000020: a99a 343f beba 8d3e b0ea e93e b513 97be
00000030: 3198 1c3f d849 73be a9e1 a23e c737 be3e
00000040: 2e2e cf3e 5643 b83e 6e37 cc3e acd3 4e3d
00000050: ae08 043e e34d 60bd 0e0f 95bd 2208 aebd
00000060: df48 3f3e 558c c1bd e7a6 583e 7bb0 803d
00000070: c495 7bbf cb88 9f3d baf2 193f d272 75be
00000080: 3935 cdbd 2f8a 863d 37b7 973e f6fa 7dbc
00000090: e72a 593e 0438 ab3e 80cc 353e 34e9 f83c
000000a0: 64be e63c 5a3d b83e 5fad f03c 0e1e f33e
000000b0: 54d3 18be 9d21 033f f170 3bbd 9f3b 08be
000000c0: 42df 0fbf 29ca 9f3e f92c c8be 2ed7 0b3f
000000d0: 7bda b2bc ad0e f0bd 277b bb3d cb50 c53b
000000e0: 5491 bebd 16fd 633d 533c d0be 7bea 8d3e
000000f0: 71f4 cebe 4778 363f 76e7 9ebc e6e6 703e
00000100: 5ea2 b8be 23a2 e8be 9cc7 aabb a3c0 143e
00000110: 4ce5 833c 5c6e 1dbf 2d51 9a3e 37cb 4f3f
00000120: 498d b23e 6d24 353f 7e6a 0c3d 81c4 90be
00000130: c046 ba3e c423 80bd 7a0f f23d acae dabd
00000140: c481 ee3d e570 f6bd 1107 a53e 6b46 de3d
00000150: c5cb 723f 6898 a23e 5819 7f3f f866 d53e
00000160: 0ae1 e8be 1aa9 a5be a30d fabc 1631 663d
00000170: dd31 29be 805a 783e d40c 843d 8e90 87bc
00000180: 776b 1fbe 5199 123e 10da 873c 73b2 a43e
00000190: 2c6a af3f c841 7cbf 7f09 fbbe b31e babd
000001a0: 3137 893c c174 823d 4033 803e b4ef b73d
000001b0: 8a12 853e 824e 96bd 5ff2 823e 4eb2 a73e
000001c0: 406e 043e 5000 8c3d 1f7e fe3b bd69 7e3c
000001d0: d91c 8d3d 9c31 803e 2ef1 69bd 5974 f2be
000001e0: 0aa8 15bf 397a b8be d486 2e3c e287 25bf
000001f0: 1ce2 24bf 060b 46bf 348d d93d 7f81 2abf
00000200: dc43 2d3e 3fa2 0cbf 96ce 1abe b188 4fbe
00000210: e37c e7be f7e5 0e3f 28d5 5cbf 1469 c03e
00000220: 2c4e 113f 8b64 dfbe bd86 5e3f d4e2 01bf
00000230: beb2 b83d d209 583f b400 853d c89b 353f
00000240: c020 1b3e 9618 a6be 15f6 a1be 96f7 cf3e
00000250: 51c8 46be 9d69 8b3c da1b 21be b755 523e
00000260: 02e7 60bb 4632 1c3e d64a babe a12a 5bbf
00000270: 4a59 d5be 5025 63bf 73de 163d 0e84 0c3f
00000280: ef19 efbe 1ab2 133e fb2e edbe 8788 9e3e
00000290: 9aa0 88be 9716 513d fd5f 84be 00f8 a33e
000002a0: b6b4 30bf ef9a 70be bf12 bfbe 1338 c43c
000002b0: 41d1 b83e f5ef 8dbb 29ba 5b3e 5251 66be
000002c0: 5b37 2a3e 060a 7bbe 4371 0abd bc65 97bc
000002d0: 6838 033f f051 d1bd f29e f4bf e4fd cb3e
000002e0: 9a20 eebf c20b f63e 25a3 eebd 82fe a2bd
000002f0: 6bce f33d c84f 45be 4dab 6abe cf24 3dbe
00000300: 30e8 d33d ebfd 87be f2fa 40be 9213 b8be
00000310: c869 873b e95e 98bf 43e7 b03e 7edc a7bf
00000320: a60b 523d 050c 8e3e 9fe8 e03e a586 17be
00000330: 45c4 223f fe33 1ebe ea8a 28be 75b1 c13e
00000340: cf6d 8abe 8a86 a03d 940c 423f d069 1e3f
00000350: 5333 563f fb1e 9c3f 856f dbbd fbea 39be
00000360: d726 5f3e 71fd 723d ec4a af3d a071 643f
00000370: 6399 803c 2d3f 333e 2564 a2bc b4c5 103f
0.3900762 0.7071475 0.37311447 0.6396899 -0.22844857 -0.15247275 0.16856268 -0.4470162
0.7054849 0.27681535 0.45686865 -0.29507223 0.61169726 -0.23758638 0.3181279 0.3715193
0.4046492 0.35988873 0.3988604 0.050494835 0.12893936 -0.05476178 -0.07278262 -0.08497645
0.18680142 -0.09450594 0.21157418 0.06283661 -0.982754 0.07789763 0.60135996 -0.23969582
-0.10019917 0.06569325 0.2963197 -0.015501728 0.21207772 0.33441174 0.17753792 0.030384637
0.028166957 0.35984308 0.029379545 0.47483867 -0.14924365 0.51223165 -0.045762006 -0.13303994
-0.5620004 0.31208923 -0.3909681 0.54625213 -0.021832695 -0.11721549 0.09154349 0.006021594
-0.09305063 0.055661283 -0.40671024 0.27717957 -0.4042087 0.7127728 -0.019397479 0.23525581
-0.36061376 -0.454362 -0.0052117836 0.1452661 0.016100548 -0.6149652 0.30140057 0.81169456
0.34873417 0.70758706 0.034281246 -0.2827492 0.36382103 -0.06256822 0.11819358 -0.10677847
0.116458446 -0.12033252 0.32231954 0.10853275 0.9484218 0.31756902 0.99648046 0.4168012
-0.4548419 -0.32355577 -0.03052408 0.056199156 -0.16522928 0.24253273 0.06447759 -0.016548421
-0.15568338 0.14316298 0.016583472 0.32167396 1.3704276 -0.98537874 -0.49030682 -0.09087887
0.01674995 0.06369925 0.250391 0.089812666 0.25990707 -0.07339193 0.2557554 0.32753223
0.12932682 0.06835997 0.0077664996 0.01552814 0.06890268 0.2503785 -0.057114772 -0.4735439
-0.5845953 -0.36030748 0.010652263 -0.64660466 -0.64407516 -0.7736057 0.106226355 -0.66603845
0.16920418 -0.5493507 -0.15117869 -0.20266987 -0.45212469 0.5581965 -0.8626275 0.37580168
0.56759906 -0.43631396 0.86924344 -0.5073674 0.09018467 0.84389985 0.06494275 0.7094083
0.15149212 -0.32440633 -0.31633058 0.4061858 -0.19412352 0.017018134 -0.15733281 0.2054051
-0.003431738 0.15253553 -0.3638522 -0.8561192 -0.41669685 -0.8872881 0.036833238 0.54889
-0.46699473 0.14423409 -0.46324906 0.30963537 -0.2668503 0.051046934 -0.25854483 0.32025146
-0.69025743 -0.23496602 -0.3731899 0.02395252 0.36097148 -0.0043315836 0.21457733 -0.22491959
0.16622679 -0.24515542 -0.03379942 -0.018481128 0.51257944 -0.102207065 -1.9111006 0.3984214
-1.8603699 0.48055845 -0.11652211 -0.079587 0.119046055 -0.19268715 -0.22916909 -0.18471073
0.103470206 -0.26560912 -0.18845728 -0.3595243 0.004132483 -1.1903964 0.3455144 -1.3114164
0.05128064 0.27743545 0.43927476 -0.14797457 0.63580734 -0.15449521 -0.16459242 0.378307
-0.27036902 0.07838161 0.7580044 0.6188021 0.83672065 1.2196954 -0.1071463 -0.18156044
0.2179216 0.05932373 0.08559212 0.8923588 0.01569814 0.17504568 -0.019823143 0.5655167

fc1.bias f4 [16]
00000000: 4d5e 26be ddd9 28bf 1bdf fd3e 61f9 283f
00000010: 8166 143f 1ee1 9e3e 8727 353f 5ee2 46bf
00000020: 23ab 2bbe ce70 a1be 6201 9c3e 0188 d6be
00000030: ddda f6be b9d4 26bf 5125 38bf 3c6c 1abf
-0.1624691 -0.65957433 0.49584278 0.6600552 0.5796891 0.31031126 0.7076344 -0.7768916
-0.16764502 -0.31531376 0.30469805 -0.41900638 -0.48213854 -0.6516834 -0.7193194 -0.603214

fc2.weight f4 [8, 16]
00000000: cfdd acbe 2756 5bbe faa7 a63d 01ce 03be
00000010: b9c8 59be 83a6 35bd c46b 6abf 8e71 e9be
00000020: 053a 1cbd d290 e03e 0a0f 0ebc 1d61 c1bd
00000030: 8b1a 8fbd c0a5 0e3e 2067 223e 852d a3be
00000040: db8b f83e 8b7b 8d3e 8198 97bd 3ea8 f93c
00000050: 1c1f 5c3e 4eb6 e53e 7cac da3e 1778 d03e
00000060: 4220 04be 0fde 85be e910 ec3e 88c7 1cbe
00000070: b4c1 9d3e 2869 bf3c 14a1 5e3c d68c 0f3f
00000080: 5779 f23e f809 c53e 59c7 d4bd b1e7 63be
00000090: eac9 2bbf 69bc af3e 5e35 c83e 450d 213e
000000a0: e45e b5be d630 22bd 0850 ed3e 61d0 3bbf
000000b0: 3379 8c3c 337c 38bb e734 a8be 5ef9 663f
000000c0: 27ce 36be 9715 7bbd 1777 acbc fc22 c2bd
000000d0: 4ea4 6d3d 0fca 3c3d 4e7d 663d b657 b2be
000000e0: d52f 74be a25f 6ebe 1d8a 45be 218a c3be
000000f0: 03cc 13be db65 90be 88a3 42be 2c9b 99bd
00000100: 49a7 84be dc2b 4fbe 1093 06be 74cd 513d
00000110: 9be2 02bf 8c25 f6bc ef62 34bf 5de7 9cbe
00000120: 5cb2 02bf 85f0 b73d 50ee 5f3e 3797 3e3e
00000130: 5e3f 80bd 58fe ec3f 9cf6 523e 43ad 0a3c
00000140: 7775 f9be 896c 01bf 2d80 71be 6bf9 ccbe
00000150: 7e5b 8bbe 67aa aebe f585 a2be 332c fb3d
00000160: c30d ea3e 33cd b23e 712f 77bb e342 4e3f
00000170: 3982 cd3c 2fb4 063f 0c89 483f 2efe bebe
00000180: 219f 5abe b46a 12bf 2b80 0abf e677 dbbe
00000190: 1803 2abf e3a7 24be ea56 483e 3e66 8c3f
000001a0: 72c9 df3c aebd 823f 6bd3 b8be 37b4 5c3e
000001b0: 1d9d 8bbf d697 3abf 1e4c 9a3f 1f29 e23e
000001c0: 01fa e2bd a022 b33d 6156 1fbe 8094 ac3e
000001d0: 24c8 603d a2a6 f33c 6c66 f83d af44 3d3d
000001e0: 0ee3 d5be 4c9e 1dbf 0169 053f 8ed4 8e3e
000001f0: 15a0 403e b6cd b33e 1881 533b 743e 793e
-0.33762977 -0.21419583 0.08137508 -0.12871553 -0.21267976 -0.04434825 -0.9157069 -0.45594448
-0.03814127 0.4386049 -0.008670578 -0.09442351 -0.069874845 0.13930416 0.15859652 -0.31870666
0.485442 0.27633318 -0.07402135 0.030475732 0.21496242 0.4486565 0.4270972 0.4071662
-0.1290293 -0.2614598 0.4610665 -0.1531049 0.30811846 0.023365572 0.013588209 0.56074274
0.473582 0.38484168 -0.10389585 -0.22256352 -0.6710497 0.34323433 0.39103216 0.15727718
-0.35423958 -0.039597355 0.46350121 -0.73364836 0.017147636 -0.00281502 -0.3285286 0.90224254
-0.17852078 -0.061299887 -0.02105288 -0.09479329 0.05801802 0.046091136 0.056271844 -0.34832543
-0.23846371 -0.23278669 -0.19290967 -0.38191321 -0.14433293 -0.2820271 -0.19007695 -0.075003
-0.25908878 -0.20231575 -0.13142037 0.051221326 -0.5112702 -0.0300472 -0.7046346 -0.30645266
-0.51053405 0.08981422 0.21868253 0.18612371 -0.06262086 1.851512 0.20601887 0.00846416
-0.4872243 -0.50556237 -0.23584051 -0.4003404 -0.2721824 -0.34114382 -0.31742826 0.1226429
0.45713624 0.3492218 -0.0037717486 0.8057081 0.025086509 0.5261869 0.78334117 -0.373033
-0.21349765 -0.57194066 -0.5410182 -0.42864913 -0.6641097 -0.16079669 0.19564405 1.0968702
0.027317736 1.0214136 -0.360988 0.21553122 -1.0907322 -0.72887933 1.2054479 0.44171998
-0.11082841 0.087468386 -0.15560295 0.33707047 0.05487837 0.029742543 0.121289104 0.04620808
-0.4177479 -0.61569667 0.5211335 0.2789654 0.18811066 0.35117882 0.003227299 0.2434023

fc2.bias f4 [8]
00000000: 3bf9 76bd 30b3 3abd 06e7 d3be 7a66 9bbd
00000010: d73b 8dbd f5bb 7c3c 5533 553f a3b6 dabc
-0.06029628 -0.045581043 -0.41387194 -0.07587905 -0.06896179 0.015425672 0.8328145 -0.026698416

fc3.weight f4 [2, 8]
00000000: 828c a4be 108c c03e 8da0 b73e c49a 25bd
00000010: 478d adbe 37b7 e7be 12a2 503f eb43 73be
00000020: 02f1 03be a103 673e c015 183f 2d9f 4ebd
00000030: 9ea3 58bd ab82 0abf 3a6c eebe 1a3a ee3e
-0.3213845 0.3760686 0.35864678 -0.0404308 -0.3389685 -0.4525697 0.814973 -0.23756377
-0.12884906 0.22559978 0.5940819 -0.05044477 -0.052890413 -0.54105633 -0.46566945 0.46528703

fc3.bias f4 [2]
00000000: 1a4b 3abe b02f d2be
-0.18192711 -0.41052008

exp_avg f4 [16, 14]
00000000: 0e84 75b8 aa2f 7ab8 60ca 22b8 88ae 9fb7
00000010: d748 54b6 1de4 b8b7 7e82 7337 7595 52b8
00000020: 3ef9 9cb7 b80a c4b7 f4a8 04b9 b749 b2b8
00000030: 9994 85b7 5b01 b2b7 3d96 d2b6 4042 4db7
00000040: 372c 9fb7 05da 60b5 a286 3cb7 2501 02b7
00000050: d74e 8d37 5135 0c38 c48d d835 df96 0234
00000060: 6256 87b8 ec35 0ab7 80b9 28b7 240f d7b7
00000070: cdb5 37b7 81d8 bb37 4b19 1138 d6cd ac37
00000080: d734 58b7 1db9 1b36 f95e dd37 c8c4 df38
00000090: fc6f 9137 400d e2b7 c75b 1639 de34 0639
000000a0: 3887 07b7 a956 0eb6 35cd bc36 1fca a5b7
000000b0: 974c 11b8 bdf8 9fb7 c70f 36b7 0db6 1937
000000c0: 5fed 8339 f98a 0039 1076 e237 0b84 ed36
000000d0: 8dda 5d39 e71d 0c37 4a1e 1db7 42b1 0cb7
000000e0: 5675 4e37 2916 21b8 b137 6038 8b14 38b8
000000f0: c728 4c37 aa68 21b7 52ec ea38 30b4 8038
00000100: 9ab0 d637 6d55 df37 e1e9 9c39 3302 a436
00000110: aae7 09b6 4998 9837 7169 88b8 64a4 69b8
00000120: 16e4 4db8 cb1a e4b7 4670 bbb6 ac00 aeb7
00000130: 28c2 09b8 2bd4 f6b8 b972 bbb7 3879 2834
00000140: 340f f5b8 9354 e7b8 cee5 0bb7 7382 fbb7
00000150: afb4 87b8 7dbf 39b8 dea6 79b8 229e fcb6
00000160: 910a e436 4031 36b8 cdc5 4639 b33b 96b8
00000170: 76a9 65b6 c2f1 4d37 3352 3739 4e4f 54b9
00000180: ac72 7338 74b4 47b8 15f8 df37 189b 9fb8
00000190: 2308 b531 a54d 17b8 e749 c437 365f b7b7
000001a0: 8ced 1eb8 c750 4ab9 f8b4 25b8 95ef c1b7
000001b0: 4cbd 80b9 fb99 9bb9 d228 12b8 30bd 0eb8
000001c0: 649c 2337 9028 3b38 a726 b836 72af e337
000001d0: 2926 1337 d947 e7b6 4322 33b9 a25d bdb8
000001e0: 71d6 f1b7 db22 d8b6 64b6 19b9 247b 43b8
000001f0: 795b bbb7 4fa3 83b7 2b4b 6137 443c 7136
00000200: 8b92 c338 b3ab ffb7 7ab1 5338 9e33 cab7
00000210: 9fda 30b9 a8ee 68b9 0464 aab8 b14b b137
00000220: b73b e8b8 2f2e 10b9 f7a2 4e38 c1e7 4438
00000230: b96c acb8 ce9d 8ab8 ae48 e9b8 482e 53b7
00000240: 36be a9b7 859f fbb7 e7c7 1c39 8627 6137
00000250: 6836 8937 4f42 3f38 8f6b a038 f516 4137
00000260: 7f69 8bb7 fa9e 37b8 8c3f 51b8 8e97 dab7
00000270: 1c36 88b7 d559 52b8 8393 f7b6 4ec8 a237
00000280: 79c7 60b9 e524 00b9 e21f a8b7 8f97 fa37
00000290: 0261 c8b9 c22b de38 637c 2ab8 5d32 8338
000002a0: 3505 e5b7 83fa 4237 5da0 1838 2d1b 7436
000002b0: 16d5 f4b5 41cd b635 2691 2db7 7b77 1b39
000002c0: 1dff 8436 3f8d 5437 3a0d 2e38 91c6 8b37
000002d0: 5b27 ae36 966e 9ab7 f62f 94b8 f26c 46b8
000002e0: 133b bfb8 7bd2 7ab8 b7c6 25b8 faac 9e37
000002f0: f935 55b9 7377 63b9 56b8 d7b7 bf84 94b7
00000300: e672 06b9 8812 00b8 ba68 29b8 06bb 57b8
00000310: 2bfc c638 52a6 71b8 721a 7837 661e d4b7
00000320: 2639 0b38 e573 8837 582e 89b8 2d3d 8536
00000330: a14d d937 1b12 0636 6ca9 0eb9 9464 d7b7
00000340: c02a 90b7 eeac 8038 73a1 deb8 284f fdb7
00000350: 9456 e2b8 03e5 4cb8 4297 0136 78b9 1cb8
00000360: 2ff4 4fb9 81b3 a3b9 4a42 81b8 f5da 45b8
00000370: bd91 68b9 3e8f 0bb9 7881 e7b7 30ea 6fb8
-5.8535537e-05 -5.9649035e-05 -3.8812286e-05 -1.903555e-05 -3.163286e-06 -2.2040733e-05 1.4514311e-05 -5.0207094e-05
-1.8712712e-05 -2.3370012e-05 -0.00012651441 -8.501432e-05 -1.5924032e-05 -2.1219885e-05 -6.2759777e-06 -1.2234377e-05
-1.8974866e-05 -8.3763763e-07 -1.123702e-05 -7.74887e-06 1.6845222e-05 3.3428256e-05 1.6134513e-06 1.216208e-07
-6.453392e-05 -8.237996e-06 -1.005677e-05 -2.5637048e-05 -1.0949979e-05 2.2392955e-05 3.459425e-05 2.0599848e-05
-1.2886906e-05 2.320455e-06 2.6389478e-05 0.00010670122 1.7337494e-05 -2.694747e-05 0.00014339304 0.0001279893
-8.07811e-06 -2.1210092e-06 5.626726e-06 -1.9763653e-05 -3.4642024e-05 -1.9070105e-05 -1.0851719e-05 9.161898e-06
0.00025163122 0.00012258803 2.6996277e-05 7.0785222e-06 0.00021157619 8.351612e-06 -9.364981e-06 -8.385921e-06
1.2305876e-05 -3.840603e-05 5.345763e-05 -4.388815e-05 1.2168842e-05 -9.620717e-06 0.000112020076 6.137078e-05
2.5593024e-05 2.6623451e-05 0.00029928892 4.887837e-06 -2.0549437e-06 1.8190725e-05 -6.504625e-05 -5.570463e-05
-4.908823e-05 -2.7192194e-05 -5.5861046e-06 -2.074273e-05 -3.2844167e-05 -0.000117697135 -2.2345559e-05 1.5690318e-07
-0.00011685342 -0.000110306915 -8.338551e-06 -2.9982277e-05 -6.4709566e-05 -4.4285774e-05 -5.9521633e-05 -7.5285943e-06
6.7961596e-06 -4.343805e-05 0.00018956438 -7.163677e-05 -3.4222298e-06 1.2275241e-05 0.00017482862 -0.00020247439
5.804251e-05 -4.7613357e-05 2.6699194e-05 -7.610599e-05 5.2687184e-09 -3.6073518e-05 2.3399434e-05 -2.1859636e-05
-3.789137e-05 -0.00019294313 -3.9507606e-05 -2.3118957e-05 -0.000245551 -0.00029678628 -3.484713e-05 -3.4031633e-05
9.75197e-06 4.462205e-05 5.488127e-06 2.7142207e-05 8.770768e-06 -6.8927006e-06 -0.00017083534 -9.029663e-05
-2.8829296e-05 -6.4413593e-06 -0.00014659163 -4.6606307e-05 -2.2334732e-05 -1.5692463e-05 1.34285465e-05 3.5946878e-06
9.32562e-05 -3.0478323e-05 5.0471608e-05 -2.4104313e-05 -0.0001686611 -0.0002221415 -8.124861e-05 2.113529e-05
-0.00011073745 -0.00013750115 4.9266e-05 4.694588e-05 -8.22185e-05 -6.609746e-05 -0.000111238434 -1.2587356e-05
-2.0234944e-05 -2.9995814e-05 0.00014951789 1.3420247e-05 1.6357008e-05 4.5599703e-05 7.649429e-05 1.15090415e-05
-1.6619217e-05 -4.377866e-05 -4.9888666e-05 -2.6058198e-05 -1.623766e-05 -5.0151564e-05 -7.3783463e-06 1.9405179e-05
-0.00021436614 -0.00012220776 -2.0042007e-05 2.9872897e-05 -0.0003821925 0.000105939354 -4.0647003e-05 6.255948e-05
-2.7301352e-05 1.1621628e-05 3.6388974e-05 3.6374652e-06 -1.8241433e-06 1.3619793e-06 -1.0345399e-05 0.00014826462
3.9636056e-06 1.2669071e-05 4.149715e-05 1.6662556e-05 5.1901857e-06 -1.8409726e-05 -7.066123e-05 -4.7308342e-05
-9.118593e-05 -5.980067e-05 -3.9524133e-05 1.8915616e-05 -0.0002033337 -0.00021692905 -2.5715835e-05 -1.770479e-05
-0.00012822039 -3.0534837e-05 -4.0390274e-05 -5.1434174e-05 9.488346e-05 -5.7613775e-05 1.4788109e-05 -2.5286525e-05
3.3193406e-05 1.6266431e-05 -6.541301e-05 3.9708307e-06 2.5904565e-05 1.9978095e-06 -0.0001360529 -2.5676833e-05
-1.7186045e-05 6.135726e-05 -0.00010615857 -3.019681e-05 -0.00010792646 -4.8850674e-05 1.9310542e-06 -3.736603e-05
-0.00019832024 -0.00031223524 -6.163547e-05 -4.717238e-05 -0.00022179536 -0.00013309435 -2.7597634e-05 -5.7200145e-05

exp_avg_sq f4 [16, 14]
00000000: 49c3 4b34 0a80 7e33 f60b 3f34 ac7c 6b33
00000010: ad38 0332 1ed1 aa31 5e45 6334 ae80 6934
00000020: 32b5 1732 5a8d e831 60c9 6134 0e8d 5034
00000030: fdfd 0a32 ac09 e631 cbcf fb33 92b7 2e34
00000040: 9956 f433 1d6f 2734 3cc2 8431 1e0b f531
00000050: 4c3d 2734 0ddb 4f34 1df7 a931 5f82 d731
00000060: ef79 1634 a55f 1934 2c20 a431 2203 a831
00000070: eeb1 6c32 2b22 de33 268b 6232 d4c3 ee33
00000080: 4f31 da30 86fd 8231 b84c 1b34 5598 5634
00000090: 2f1d f731 488d ff31 4aa2 d533 6423 4734
000000a0: 6d07 b931 d041 b931 d4a0 0a34 4f84 8834
000000b0: 46d2 0434 4168 8b34 78ea 0032 35d7 2532
000000c0: 0ac6 fc34 083a 1a35 0ede c032 ccb7 9a32
000000d0: b4ee e534 b5b7 1635 5513 9b32 9931 8832
000000e0: e4b3 2e34 aca3 1535 6381 2a34 cb67 1b35
000000f0: 6bf1 2032 12b2 ba32 accb 3935 870c 9b35
00000100: 2c39 1c33 03c3 0f33 be7a 3e35 2a1e 8b35
00000110: d53f 0f33 0854 b932 327c d234 2bc2 1634
00000120: eddb cc34 a39c 1334 acd4 8232 cd36 0e32
00000130: 33f2 e934 2963 e234 812e 7232 07b4 5832
00000140: be85 e734 9bf2 bb34 4c9c 5732 7386 0232
00000150: e41e 5d34 d8c2 1534 74cb 5834 9131 0d34
00000160: be84 1232 cb8e 8031 cac8 ff34 769e 0335
00000170: ddf9 aa32 e97b 8d32 4a0d d634 610e f234
00000180: 99c9 9232 e5e0 3e32 d012 5334 5b95 5133
00000190: 932e 5e34 bb5c 5f33 1e03 1f32 9540 4631
000001a0: 3c73 8534 b1a3 ba34 24b1 cd31 8cef 5532
000001b0: a96e 9034 2337 ab34 c4ea dc31 a39e 6b32
000001c0: af25 ba33 8ea4 2834 9a28 9d33 bf39 1d34
000001d0: c776 3c31 064c de31 a12c 2234 afde e734
000001e0: c611 5932 f435 7a32 0618 1334 862d c934
000001f0: 6a65 4632 8b25 1a32 3240 1335 fb40 a134
00000200: 6fff 1135 ac05 a634 7c7f d032 f8cf 2432
00000210: 2f7e 5a35 3ec8 8635 d733 cd32 6552 3533
00000220: 0151 1a35 b49c 2c35 0df9 7632 c35d a532
00000230: 9226 8333 099e 7034 03d5 8e33 395f 7c34
00000240: c07a 9d31 b9c2 2932 b49a a334 e4e8 d634
00000250: d74c 2b32 3c82 9432 3430 e234 0064 fb34
00000260: 15ee 5932 5e4d 8e32 a8f9 6334 7bc2 2d35
00000270: 5e94 6234 8de1 2335 3a2d 4332 bc68 c932
00000280: 214e e834 d0c8 2635 7b27 9d32 aae0 3133
00000290: bfaf d634 36f2 1335 258e 8b32 6beb 2833
000002a0: 47dd 1834 01fb 3f34 61d5 1434 8828 4234
000002b0: 725a d631 bb69 cf31 a15f 5734 0c89 2f34
000002c0: 6e54 3131 ea5e 4132 e0fb 8a34 385c 0f34
000002d0: f2c9 9131 13e7 1232 3d9c 9933 74c8 d833
000002e0: f450 cd33 ea77 da33 6e85 bc32 d50c 2a32
000002f0: dc5e 6d34 a841 8334 58a4 a932 3fba 4832
00000300: 900f 8b34 46e4 8934 3942 8732 c173 2c32
00000310: 1925 0935 be5c 0835 f783 0735 82ff 0235
00000320: 2f73 b532 f0ad 4532 e08b 8435 1fc4 af35
00000330: 6aa5 3633 11a2 4c33 578b 8d35 f179 ab35
00000340: 4d8b 4733 656f 2d33 c432 5e34 6cd1 a433
00000350: 0e86 5d34 ad26 b233 069d 3432 32f6 dd31
00000360: 6b56 aa34 4051 9834 371d 3332 c4a8 6232
00000370: 0bc8 a934 54aa b734 304d 2332 10de 5e32
1.8976893e-07 5.9255434e-08 1.7792613e-07 5.482859e-08 7.63809e-09 4.971425e-09 2.1166258e-07 2.174663e-07
8.830556e-09 6.7681585e-09 2.1028018e-07 1.9422825e-07 8.0904075e-09 6.6949806e-09 1.17258956e-07 1.6271795e-07
1.13778874e-07 1.559351e-07 3.8637875e-09 7.1317023e-09 1.5575387e-07 1.9358068e-07 4.946641e-09 6.272145e-09
1.4014198e-07 1.428403e-07 4.7766857e-09 4.8897997e-09 1.37774645e-08 1.0343896e-07 1.318657e-08 1.11183596e-07
1.5875602e-09 3.8123202e-09 1.446341e-07 1.9985721e-07 7.191964e-09 7.4375386e-09 9.9481056e-08 1.8546194e-07
5.385053e-09 5.3916906e-09 1.291076e-07 2.542824e-07 1.2369955e-07 2.5966622e-07 7.503893e-09 9.6531965e-09
4.708275e-07 5.745392e-07 2.245272e-08 1.801154e-08 4.2828253e-07 5.6146683e-07 1.8053166e-08 1.5855038e-08
1.6270457e-07 5.5745e-07 1.5879554e-07 5.789304e-07 9.368118e-09 2.1734227e-08 6.921425e-07 1.1552046e-06
3.6373578e-08 3.3472144e-08 7.095913e-07 1.0365086e-06 3.3352837e-08 2.1575048e-08 3.9205912e-07 1.4040477e-07
3.8157978e-07 1.3747426e-07 1.5230704e-08 8.277948e-09 4.3575855e-07 4.216793e-07 1.4096828e-08 1.2613788e-08
4.3124413e-07 3.5007983e-07 1.2550185e-08 7.597566e-09 2.0593467e-07 1.394759e-07 2.0190583e-07 1.314968e-07
8.528501e-09 3.741524e-09 4.7643545e-07 4.9031894e-07 1.990423e-08 1.6470908e-08 3.9870275e-07 4.5086475e-07
1.7088313e-08 1.1110591e-08 1.965775e-07 4.8797443e-08 2.0692305e-07 5.200557e-08 9.255727e-09 2.8849503e-09
2.4857025e-07 3.47643e-07 5.986424e-09 1.2452698e-08 2.6902606e-07 3.189135e-07 6.4295325e-09 1.371487e-08
8.6681545e-08 1.5706084e-07 7.3182676e-08 1.4642772e-07 2.7425118e-09 6.4696932e-09 1.5103662e-07 4.3189127e-07
1.2635104e-08 1.4564183e-08 1.3699182e-07 3.747229e-07 1.1548176e-08 8.972516e-09 5.4855184e-07 3.0035866e-07
5.4388414e-07 3.0924036e-07 2.427236e-08 9.593343e-09 8.139495e-07 1.0042056e-06 2.3888715e-08 4.2217284e-08
5.7487347e-07 6.4303026e-07 1.4375712e-08 1.9251166e-08 6.107179e-08 2.2409235e-07 6.651137e-08 2.350397e-07
4.5832564e-09 9.8813695e-09 3.0473677e-07 4.0030056e-07 9.970981e-09 1.7288691e-08 4.2130853e-07 4.6825153e-07
1.2685196e-08 1.6566158e-08 2.1231847e-07 6.473053e-07 2.1101866e-07 6.105045e-07 1.1360777e-08 2.3447107e-08
4.3270214e-07 6.213204e-07 1.829516e-08 4.1415355e-08 3.9988478e-07 5.511423e-07 1.624637e-08 3.932966e-08
1.4236603e-07 1.7879576e-07 1.3861201e-07 1.8082403e-07 6.238502e-09 6.036513e-09 2.0058225e-07 1.6348002e-07
2.5804883e-09 1.12556595e-08 2.5887766e-07 1.3351462e-07 4.243014e-09 8.550859e-09 7.153037e-08 1.0094746e-07
9.560782e-08 1.0173228e-07 2.1946757e-08 9.89822e-09 2.2106855e-07 2.4448423e-07 1.9748924e-08 1.168388e-08
2.590209e-07 2.568433e-07 1.5746183e-08 1.0038037e-08 5.109046e-07 5.0798906e-07 5.0483453e-07 4.8800587e-07
2.1123553e-08 1.1506458e-08 9.875475e-07 1.3095595e-06 4.252562e-08 4.764485e-08 1.0545872e-06 1.2775982e-06
4.645999e-08 4.0381014e-08 2.069383e-07 7.674939e-08 2.0630998e-07 8.295806e-08 1.0513082e-08 6.4599357e-09
3.1727845e-07 2.8371323e-07 1.0425814e-08 1.3193304e-08 3.1624253e-07 3.4210336e-07 9.505399e-09 1.2972592e-08

exp_avg f4 [16]
00000000: 8324 dbb8 0610 8eb7 4fc4 a637 60ec 83b8
00000010: 745d b738 581d 26b9 6228 c2b9 8abb 83b8
00000020: 0843 0a39 1cba d837 616d a1b9 d55f 8e39
00000030: 7bdc 32b8 e894 3b39 41be aa37 a0ed 2cb9
-0.000104495346 -1.693518e-05 1.9880155e-05 -6.290595e-05 8.743527e-05 -0.00015841925 -0.0003703265 -6.281499e-05
0.00013185677 2.583587e-05 -0.00030789807 0.0002715575 -4.2643846e-05 0.00017889182 2.0354173e-05 -0.0001649172

exp_avg_sq f4 [16]
00000000: 1598 5234 9cec b133 304a a034 41cd 7635
00000010: 7ee4 b535 b672 c734 d81d 5c35 4224 1b34
00000020: 68b0 9a34 3543 4335 b131 1f35 a944 3135
00000030: 4e26 a633 8b43 0435 2342 d735 2da6 5434
1.9613101e-07 8.285244e-08 2.98563e-07 9.1940825e-07 1.3552051e-06 3.7150102e-07 8.1999815e-07 1.444869e-07
2.8813088e-07 7.274096e-07 5.9304426e-07 6.603755e-07 7.736945e-08 4.927212e-07 1.6037997e-06 1.9804493e-07

exp_avg f4 [8, 16]
00000000: 47fc 23b5 6817 5f2a 7440 a6b6 0d2d 1137
00000010: b72d 10b7 849f 5db6 58fa e434 74cc 6eb5
00000020: 07b0 af35 0e59 0bb7 7c3f 38b6 b5ec 4336
00000030: 327b 50b6 08f8 1eb7 f85e 8fb7 a235 e234
00000040: 3be5 a7b8 c7b0 10b8 57ac 85b9 b60a c1b9
00000050: 6361 abb9 72bd 75b9 39f1 fab9 d7e4 6eb8
00000060: 16c9 0bb9 6a3e 07b9 2b3b ceb9 4c6c 1cb9
00000070: 05be c136 e683 0bb8 8d0f 35b8 9f68 36b9
00000080: eadd a7b8 9e9f 26b8 3582 07b9 f42f a9b8
00000090: 7099 93b8 f1df 29b9 502c 66b9 a952 60b8
000000a0: 96dc a6b5 77b2 ceb7 3acb b8b8 8e3a ce36
000000b0: 3390 9235 2251 a033 bea7 1cb6 c2ea 38b9
000000c0: 0fe8 3f31 427c 112e d92d 6fb4 1e79 3c33
000000d0: 8d94 2034 7406 4cb4 d45b 1134 2d32 c1af
000000e0: aea4 1230 cb86 6632 6ddd 3e32 0400 0000
000000f0: 2212 8330 c1c4 532d af7d b030 dd8f dcb2
00000100: 8cec 28b4 dddc 9e33 72ac b837 48f9 7038
00000110: 330c 6738 611f a635 e799 8436 e455 3db6
00000120: 6b92 2338 69c2 db36 e9cd 2f38 b797 ca38
00000130: fb18 0037 3556 9738 5153 9737 346a 22b6
00000140: cb08 1438 afa5 6a33 d10f c838 66ab c939
00000150: 2f78 4039 5f0f 7936 0446 2139 bc52 2337
00000160: 9e99 2439 7c7a cf38 a6f7 8e39 596f 9e39
00000170: 8c8f a5b6 c3c3 9a38 e90f 0939 c97c 39b6
00000180: 90de 04b7 d4cd 7eb7 2919 feb8 e9f1 dab8
00000190: dafe 03b9 1dd3 22b8 2775 b6b8 a850 9d37
000001a0: 5ecf 32b9 e41b b137 be4a 03b9 3ac5 13b9
000001b0: 3b0c 1d37 3cf0 17b7 d76b 3a37 4350 bcb8
000001c0: afae 40b7 1e78 1f37 3d97 e938 9bc4 6db9
000001d0: ed52 2bb8 f313 1338 9460 38b9 cb82 07b8
000001e0: fa7b d4b8 b147 c936 e165 3db8 dffe b9b7
000001f0: 67ed d037 265d e438 ba9c 03b7 00a6 9938
-6.1089344e-07 1.98145e-13 -4.954689e-06 8.653163e-06 -8.593713e-06 -3.3024417e-06 4.2650458e-07 -8.895943e-07
1.3089747e-06 -8.30578e-06 -2.745509e-06 2.9195046e-06 -3.1066124e-06 -9.475283e-06 -1.7091152e-05 4.2134803e-07
-8.005878e-05 -3.4496912e-05 -0.0002549614 -0.0003681981 -0.0003268822 -0.00023435595 -0.0004786344 -5.6956746e-05
-0.00013330983 -0.00012897854 -0.00039335465 -0.00014917663 5.7739694e-06 -3.3263022e-05 -4.3168246e-05 -0.00017395847
-8.004515e-05 -3.972614e-05 -0.00012923109 -8.06748e-05 -7.038086e-05 -0.0001620052 -0.00021951017 -5.3482745e-05
-1.2432163e-06 -2.4640218e-05 -8.8116576e-05 6.146095e-06 1.0919815e-06 7.4653386e-08 -2.334345e-06 -0.00017635062
2.7926068e-09 3.3079546e-11 -2.2275289e-07 4.3882316e-08 1.4955204e-07 -1.9001328e-07 1.3537584e-07 -3.5142148e-10
5.3348514e-10 1.341841e-08 1.1109802e-08 6e-45 9.536658e-10 1.20376495e-11 1.2841407e-09 -2.5676792e-08
-1.5732275e-07 7.397623e-08 2.201481e-05 5.745262e-05 5.5086053e-05 1.2377096e-06 3.951823e-06 -2.821319e-06
3.899859e-05 6.549341e-06 4.191502e-05 9.66037e-05 7.635211e-06 7.2162984e-05 1.80394e-05 -2.42017e-06
3.529414e-05 5.463306e-08 9.539689e-05 0.0003846541 0.00018355319 3.7112839e-06 0.0001538024 9.73482e-06
0.00015697486 9.893344e-05 0.00027268863 0.0003021907 -4.9340942e-06 7.379756e-05 0.00013071265 -2.7639783e-06
-7.9196325e-06 -1.5187503e-05 -0.0001211635 -0.00010440109 -0.00012588073 -3.8820424e-05 -8.7002576e-05 1.8753417e-05
-0.00017052653 2.1113032e-05 -0.00012520977 -0.00014092485 9.360777e-06 -9.056235e-06 1.1111572e-05 -8.9794885e-05
-1.14847635e-05 9.5051055e-06 0.00011138476 -0.00022675323 -4.0846808e-05 3.506611e-05 -0.00017583586 -3.230832e-05
-0.0001013204 5.998613e-06 -4.5155994e-05 -2.2172402e-05 2.4906081e-05 0.000108892375 -7.844699e-06 7.3265284e-05

exp_avg_sq f4 [8, 16]
00000000: 114d 5331 5f2d be2f 0fda 3533 ed19 7d33
00000010: 7131 1d33 8ab7 b332 2853 9030 33e6 182e
00000020: 8347 af31 890d 1833 6d4c dd33 ce9b f432
00000030: 40e5 5033 ece6 bf32 c92c 0531 4639 d133
00000040: 6dd2 c034 3ccd a033 0210 8334 e7d8 3f35
00000050: 8f09 1335 dec2 2735 a64f ae35 2113 0035
00000060: 4bac c535 2b12 c334 ffe2 1735 6dd7 9634
00000070: 8763 a234 76e3 4b33 3da6 e434 521d 3035
00000080: 75ac 2e34 986b 6333 7a7f d733 ce3e f633
00000090: 9669 1634 3358 9534 6538 0335 13e6 8034
000000a0: 7017 0335 63c8 5534 7751 9634 28c1 2233
000000b0: 5268 2234 1a28 7c32 8a70 0234 0ef5 ed34
000000c0: 79c1 5d32 0e47 9832 ed77 0d32 1f64 4932
000000d0: 60da 7632 d228 a732 ffec e430 a384 b730
000000e0: 4577 6034 15c1 b22f a757 a432 2169 e731
000000f0: b0a9 0e32 4a5d 9430 595d 1933 ce8b 5f31
00000100: 70ec 3b33 8004 b731 3599 b733 a57f a634
00000110: 77c8 3134 2933 f033 c3b2 b533 26e6 a131
00000120: 109e 6133 d3d0 2e34 458a 5634 4961 a734
00000130: a200 b333 b2ea 4433 1cb8 c233 9882 6c33
00000140: 59b7 f534 8638 5a32 6cab c934 19e4 a135
00000150: 9996 9235 98c1 8935 df6c ad35 2678 2a34
00000160: 3c90 ad35 e788 3936 3675 8835 3774 8536
00000170: 1275 5e35 c526 8533 a813 a635 6152 a934
00000180: 9674 ac34 db97 4d32 4224 0535 4f44 1b36
00000190: 1aa0 7535 9a5f ff34 e889 0436 a308 3235
000001a0: f50f 1b36 39cf ad34 7381 9d34 116d 1536
000001b0: 3872 4232 6f70 fc32 27d0 9f35 cf0c 0e35
000001c0: 58f8 da34 1b7d 3033 e645 8e35 8279 0336
000001d0: 9d8c 8b35 0ba1 8935 6a2d b535 5ef0 5235
000001e0: b2c1 c134 550b f634 8a56 f635 030e 6a35
000001f0: 9d2e 3635 4b36 0035 7ebb 1235 1da1 d735
3.0748348e-09 3.4593037e-10 4.234067e-08 5.8929732e-08 3.6599378e-08 2.0921807e-08 1.0501013e-09 3.4765257e-11
5.1013003e-09 3.5402568e-08 1.0305016e-07 2.847619e-08 4.8637276e-08 2.2340338e-08 1.9379505e-09 9.742739e-08
3.5915892e-07 7.4879125e-08 2.44123e-07 7.146868e-07 5.4775677e-07 6.2495917e-07 1.2987191e-06 4.771155e-07
1.4727788e-06 3.63348e-07 5.6582206e-07 2.809642e-07 3.0247267e-07 4.7471495e-08 4.2589264e-07 6.5607776e-07
1.6267752e-07 5.2950412e-08 1.00349055e-07 1.1466692e-07 1.400825e-07 2.7817586e-07 4.888337e-07 2.400926e-07
4.883541e-07 1.9910071e-07 2.799895e-07 3.789424e-08 1.5125377e-07 1.4677449e-08 1.2148135e-07 4.432299e-07
1.2907884e-08 1.772744e-08 8.234548e-09 1.1722505e-08 1.4368737e-08 1.9459922e-08 1.6656542e-09 1.33527e-09
2.0905016e-07 3.2515204e-10 1.9131972e-08 6.7349366e-09 8.30407e-09 1.0794932e-09 3.5707988e-08 3.253024e-09
4.375437e-08 5.3265126e-09 8.54947e-08 3.1012783e-07 1.6557338e-07 1.1185177e-07 8.460986e-08 4.7118816e-09
5.2530652e-08 1.6280983e-07 1.9980605e-07 3.1176958e-07 8.335452e-08 4.584826e-08 9.067318e-08 5.5066806e-08
4.576821e-07 1.2702122e-08 3.7563893e-07 1.206182e-06 1.0921677e-06 1.0263639e-06 1.292119e-06 1.5876194e-07
1.2931482e-06 2.7646836e-06 1.0166902e-06 3.977238e-06 8.2871804e-07 6.200347e-08 1.2373685e-06 3.1538642e-07
3.2122324e-07 1.1967098e-08 4.9599123e-07 2.313656e-06 9.150259e-07 4.756701e-07 1.9749805e-06 6.6322735e-07
2.3106088e-06 3.2374535e-07 2.9337716e-07 2.2266215e-06 1.13182566e-08 2.938779e-08 1.1907003e-06 5.291776e-07
4.0786358e-07 4.1091976e-08 1.0600168e-06 1.9591248e-06 1.0397231e-06 1.0254165e-06 1.3498768e-06 7.8580877e-07
3.6089983e-07 4.5829316e-07 1.8353614e-06 8.719218e-07 6.7868115e-07 4.776272e-07 5.4662075e-07 1.6065638e-06

exp_avg f4 [8]
00000000: 31c2 7eb3 475c d9b9 1175 bab8 8fe7 0e32
00000010: 2afa 8b38 5314 c239 e792 45b9 8c41 03b9
-5.93156e-08 -0.00041458217 -8.8909765e-05 8.318138e-09 6.674633e-05 0.00037017706 -0.0001884211 -0.00012517552

exp_avg_sq f4 [8]
00000000: e712 2d34 37fe 0936 e395 0f35 a4ec 2a34
00000010: e49c ce34 e5a7 4636 9eec 5636 13d1 8336
1.6118757e-07 2.0562563e-06 5.3489765e-07 1.5918573e-07 3.8484643e-07 2.9602027e-06 3.2026214e-06 3.9284437e-06

exp_avg f4 [2, 8]
00000000: 1348 8437 08b2 a4ba 1571 21ba 4400 8131
00000010: ea58 b9b9 b00b f3b9 a8b8 50b9 d096 34ba
00000020: 8aa5 76b4 ccb1 0fba 25a7 ccb8 9cec 92b3
00000030: c8f5 7039 773f b7b7 8613 14ba f0b1 d4b9
1.5769188e-05 -0.0012565264 -0.0006158513 3.7544243e-09 -0.00035352196 -0.0004635728 -0.00019905216 -0.0006888928
-2.2970758e-07 -0.0005481511 -9.758611e-05 -6.841694e-08 0.00022979744 -2.1844853e-05 -0.0005648661 -0.00040568365

exp_avg_sq f4 [2, 8]
00000000: 6b6c 1c35 2944 8037 bbd7 8d36 3d41 2436
00000010: 1b4f b136 0c75 cd36 703a de36 18fc 4637
00000020: c83b 7335 88cb 8a37 5025 9a36 aabf 4e34
00000030: 4284 b736 10c5 1b37 4342 8c37 42c0 1f37
5.82723e-07 1.5290529e-05 4.227242e-06 2.4475878e-06 5.28422e-06 6.123102e-06 6.6229186e-06 1.1860415e-05
9.061155e-07 1.6545659e-05 4.5939014e-06 1.9254972e-07 5.469222e-06 9.284602e-06 1.6720156e-05 9.521902e-06

exp_avg f4 [2]
00000000: 9ca4 9eba 5d7b ccb9
-0.0012103501 -0.00039001825

exp_avg_sq f4 [2]
00000000: c363 0838 b1f9 2638
3.2517837e-05 3.9810027e-05

fc1.weight f4 [32, 20]
00000000: eae8 8a3e 7e77 823d 901b 3740 2278 a63f
00000010: 34cc e93e ca9d 9b3e e998 26bd ecd9 f13b
00000020: 2651 06bd 1d9c 77bd fd1f 473e fd3e 19bb
00000030: 6449 88bd 5bf4 463e e5d0 ca3c 3270 ab3c
00000040: 38d6 973a 753b 20bb c08b fab9 27dc 083c
00000050: 06cf c03d de70 da3a c43b 97bf 0283 9d3f
00000060: fd4a 79be b6fe 0d3e d445 9bbd 0e06 9b3e
00000070: cef5 5e3e 4081 883e e743 6cbe cc8a 763c
00000080: 28cf 90bd f20d 2c3d 0d3f e4bc 65ae 89bb
00000090: 367d c2bb 780c 8dba 5211 57bc 9fd2 153c
000000a0: bcb8 bcbe 299f 87be f8f8 1f40 fbfc 54bd
000000b0: 05fd ae3e 9a36 9e3e c6aa 6bbe 5373 803e
000000c0: 63b9 70be 1f60 683e 2a42 c8bd 5098 20be
000000d0: bd59 6bbe 9e5d fa3d 44dd e13c 44c2 753c
000000e0: 7d05 03bc eb05 8a3c 1de7 afbc 16be e9ba
000000f0: 6d80 573e c635 093e c6c0 6b3e a7fd 5abf
00000100: 13a3 8e3e 990a 0fbe ac6c 753e 2433 fa3c
00000110: 38f2 ac3e 70af 973e 8d68 a73d c96e d53d
00000120: 471c 56bd a044 bfbd cad7 1abd 0dad a03d
00000130: 8778 b8bc ea52 bb3c 7037 0c3d 2782 483d
00000140: bef2 a3be c9a9 97be bbd0 c6be 5979 03c0
00000150: 387f 92be 5b53 05bf 6648 46be ba1b 1f3e
00000160: dfed cabd 3dee bf3c f1ac d73d 247e bebd
00000170: 1697 12bd e038 69bd c3c1 543c 4ec1 c4bc
00000180: 6c47 d53b b5e3 143b cc57 973b aaf8 31bc
00000190: 833b e1be 8ef7 083c c523 c73c 1ed3 bdbe
000001a0: 1991 06be cc24 f23c b373 6ebe 1928 523e
000001b0: 6c9c 0cbe 5962 f7bd 0133 8dbe dc37 d0bb
000001c0: 7891 313d a5fe acbe cd5f ad3d 3588 f0bb
000001d0: 082c 17bc d16b 3a3c 1813 49bd 17bc 843d
000001e0: 755a 54be 8b26 203e 0ed7 b7bf 4bef 3fbf
000001f0: 035f 78be 8aaf a9bc c974 133e dc28 34be
00000200: 7e0c f33d 74b3 07be cfdc 84be 0a7f bfbd
00000210: 16be c4bd cfc9 223e e47b d8bc 3405 bebb
00000220: e07d b7bb 5cf9 a1b9 8196 c0bb 34ec c93b
00000230: d11d c43e 382d 30be 944b 653f bf9c a1bf
00000240: 4c22 9b3e bb8d fcbe 3c94 063e 9a56 be3c
00000250: 67ca 033d a032 8f3d 4da0 1bbd 8fd1 1d3e
00000260: e6d2 d83c 3b55 2bbc 8971 02bd 535f d2bc
00000270: 6cea 1f3b 0712 063c 8fa3 e5bb ddfa e13b
00000280: 2fc1 11bf 3295 403f de7c 633d a6ad c3be
00000290: a844 9a3d 7854 67bc 8db1 a8bd 4b54 693e
000002a0: 8fee bcbd 375b f5ba 0707 63be d2b7 80be
000002b0: 18af 8b3d e96a 0dbe a98c 533e 5a03 0f3e
000002c0: d846 083e b560 0b3d 4b3c 713b 3bac 05bd
000002d0: bdd6 a1be 0f41 bf3e 41e4 173e 22e0 cabe
000002e0: bbc6 ee3d bfb8 63be 5229 31be 9b02 063f
000002f0: 09d6 0cbe f0a4 de3d 34dc f1be 8fe7 95bd
00000300: 03e7 afbe 1681 393d 1548 2a3d d981 333d
00000310: 754b ab3b b4db 673b 4853 b638 5a18 843a
00000320: be6d 693e bd1f f93e bfac ae3e 5734 2bbf
00000330: 30f9 c93d 2410 7e3e 56ca 3cbe 3150 493d
00000340: 23b7 0f3e 9dbe 553e 2b25 8d3d 7d5e 55be
00000350: 87e1 e13d bc8f 9b3d e989 9cbd 6763 f23d
00000360: 1273 6abc 94ef 8f3d 81da 4dbd 3ffa 1ebd
00000370: f2a6 343f 0cb0 373f c766 513f 3760 053f
00000380: 1636 243f ce7f c4bd 37eb 0e3d 79c1 07bf
00000390: 3de3 e2bd 737e 333e 5f7e 1a3e 0075 233e
000003a0: d257 6d3d e0ae 8dbe a014 963c ecb0 043d
000003b0: 2c4c b73a 38e3 63bb cb7d 5c3c 2661 10bc
000003c0: d95d 1dbf 219d 273f bb68 c4bf a011 923f
000003d0: d51d 1bbf 9387 e83e 7228 9d3d b25d eabd
000003e0: 8d2b a43e 8e29 903d ae45 dc3d 82f8 b73d
000003f0: 2315 21bc 2103 d53d c284 0abc a0d9 b4bc
0.27130824 0.063704476 2.8610573 1.3005412 0.45663607 0.3039382 -0.04067317 0.0073807146
-0.032792233 -0.060451616 0.19445796 -0.0023383491 -0.06654623 0.19429152 0.024757812 0.020927522
0.0011584228 -0.0024449502 -0.00047787838 0.00835327 0.094144866 0.0016665717 -1.1815114 1.2305605
-0.24345012 0.13866696 -0.07581678 0.30278057 0.21773455 0.2666111 -0.23072778 0.01504774
-0.07070762 0.042005487 -0.027862096 -0.0042016977 -0.0059353365 -0.0010761162 -0.013126688 0.009144454
-0.3685969 -0.26488617 2.4995708 -0.051999073 0.34177414 0.30901033 -0.23014364 0.25087985
-0.2350822 0.22692917 -0.09778245 -0.15683103 -0.22983451 0.12224887 0.027571328 0.01499993
-0.007996914 0.016848525 -0.021472508 -0.0017833139 0.21045084 0.13399419 0.23022756 -0.8554329
0.2785879 -0.13968886 0.23967236 0.030541964 0.33778548 0.29626036 0.08174238 0.10421521
-0.05227306 -0.09339261 -0.03780345 0.07845507 -0.02251841 0.022866685 0.034232557 0.048952248
-0.32021135 -0.29621723 -0.38831124 -2.0542815 -0.28612685 -0.52080315 -0.19363555 0.1553792
-0.099086516 0.02342903 0.10531033 -0.09301403 -0.035788618 -0.056939006 0.0129856495 -0.024017956
0.0065087583 0.0022718732 0.0046186205 -0.010862509 -0.43990716 0.008359803 0.024309048 -0.37075132
-0.13141288 0.029558562 -0.23286323 0.20523109 -0.13731545 -0.12079305 -0.27577975 -0.006354315
0.04335162 -0.33788028 0.08465538 -0.007340456 -0.009226806 0.0113782445 -0.049090475 0.06481188
-0.20737632 0.15639703 -1.4362504 -0.7497451 -0.24254994 -0.020713586 0.14400019 -0.17593712
0.11867617 -0.1325205 -0.25949714 -0.09350403 -0.096065685 0.15897296 -0.026426263 -0.00579896
-0.0055997223 -0.000308941 -0.0058773165 0.006162191 0.38303998 -0.1720475 0.8956845 -1.262596
0.30299604 -0.49326882 0.13142484 0.023234654 0.032175448 0.06992078 -0.03799467 0.15411972
0.026467752 -0.010457332 -0.031846557 -0.02568022 0.00244012 0.008183009 -0.007008023 0.0068963603
-0.569354 0.75227654 0.055539005 -0.3821842 0.075326264 -0.01411926 -0.0823699 0.22786061
-0.09225189 -0.0018719201 -0.2217065 -0.25140244 0.06820506 -0.13810314 0.20659126 0.13966122
0.13308275 0.034027774 0.003680962 -0.032634955 -0.31609145 0.37354323 0.14833166 -0.39624125
0.116589986 -0.22238444 -0.17300919 0.52347726 -0.13753523 0.10871303 -0.47238314 -0.07319557
-0.34355935 0.04528912 0.04157265 0.043825004 0.005227501 0.0035378756 8.6939486e-05 0.0010078058
0.2279577 0.48657027 0.3411617 -0.6687674 0.09861982 0.24810845 -0.1843656 0.049148742
0.14034705 0.20873494 0.06891855 -0.20836826 0.11029344 0.075957745 -0.07643492 0.11835366
-0.014309661 0.07028118 -0.05025721 -0.038812872 0.7056724 0.71753 0.8179745 0.5209994
0.6414503 -0.09594689 0.034892287 -0.5302959 -0.110784985 0.17528705 0.15087269 0.159626
0.05794508 -0.27672482 0.018320382 0.03239529 0.0013984493 -0.0034772884 0.013457726 -0.0088122245
-0.61471325 0.65474135 -1.5344461 1.1411629 -0.60592395 0.45415935 0.0767373 -0.11443652
0.32064477 0.07039176 0.10755478 0.08982946 -0.0098317 0.104009874 -0.0084545035 -0.022076428

fc1.bias f4 [32]
00000000: 48a1 32bf d406 7bbf 8836 8dbf 106b 9fbe
00000010: da12 0fbf f6cb a23f 1aad 88bf 3c96 6dbf
00000020: 10a9 1b3f 4bd2 603f b907 ac3f 4d0a 063f
00000030: a914 213f ea93 28bf 2c7c 3abf 9f5c f0be
00000040: 867c 433f fb9e 67bf d556 d73f 74a1 7dbf
00000050: ca06 6ebf 5b7b 46bf 1eee 493f 6139 3dbf
00000060: f61e 4ebf a433 d5be 8ed2 56bf 0722 d2be
00000070: 26b4 6cbf ab65 af3f 6fbe 8b3d 88bd 7bbf
-0.69777346 -0.98057294 -1.1032267 -0.3113637 -0.5588814 1.2718494 -1.0677826 -0.92807364
0.60804844 0.8782088 1.3439857 0.5235947 0.6292215 -0.658507 -0.7284572 -0.46945664
0.7636188 -0.9047696 1.6823374 -0.9907448 -0.9297911 -0.77531976 0.78878963 -0.7391568
-0.8051599 -0.4164096 -0.8391503 -0.41041586 -0.92462385 1.3702902 0.06823432 -0.98336077

fc2.weight f4 [16, 32]
00000000: 2551 783f 9799 1f3f 9c05 bc3e 6d96 983d
00000010: b9d3 3c3f 2225 e53d e2c6 573f e464 bf3e
00000020: cfb4 8d3d 985f 71be b44b 6abe 4cea f63d
00000030: 59f9 993e 5f3f 1e3f 5341 813f ae55 583e
00000040: 09a0 473d e43e 023f 6686 543e 003b 043f
00000050: 66d9 ff3e 1a5f 153f c341 8bbd ed93 413f
00000060: 64ba 7a3e 2792 1f3f 6319 bb3e e179 00bd
00000070: 468d d03e 315a 84bd 5519 b13c 7881 183f
00000080: 17e8 6a3f 7734 3f3f 7036 373f 08d4 a53d
00000090: 9029 c63e c3c1 29be 27a6 6c3f 8636 123f
000000a0: cc03 7c3c e50e 5ebe c077 24be 72c2 793e
000000b0: 45f8 f13d 1b43 2a3f b177 433f b3a2 023e
000000c0: 50bc 8ebd 646e 293f 225a 05be e3dd 9b3e
000000d0: c0f1 173f 7bd5 403f 57d6 11bd 6693 503f
000000e0: f1a5 a43e 031f 1a3f d571 b93e a480 a83d
000000f0: 90e5 473e 21d8 15be 46b8 c3bc 1d48 4b3f
00000100: 9132 1f3d 6e88 8c3d 1f3b 69be 1f01 813d
00000110: ade5 05be 569f b7bd e924 8b3d 6e21 613b
00000120: 84f2 bcbb 00f9 0c3d ea2e 22bc c5e7 84bd
00000130: c9f5 8a3d 6bf4 04bd 7ac5 4fbc ef27 e5bd
00000140: b9f7 20bc c128 d8bd 53dc bfbd 3922 54be
00000150: c7f7 3abe 0e7e 13bd 7d34 2ebe 051c 1ebe
00000160: 5e50 56bd 653b 1dbe 4756 7d3d aedd eabd
00000170: 521d ecbd 5719 b9bd a886 47be 4d60 813c
00000180: d196 a73c 9ae6 c4bd a8fa dfbd 9c55 753d
00000190: 9ec0 7ebd adbd b0bd 1fa8 fabd a73c d6bd
000001a0: 6858 fa3d 5838 11be 8581 b9bd 0c26 8ebe
000001b0: ff61 d4bd e77e 34bd c9bb b5bc d974 8a3d
000001c0: dd00 06be 931b a4bd 91d3 c7be 791d 713d
000001d0: dbb3 a3bc 4ef1 ae3d bfda 2fbe b000 aabc
000001e0: 3618 e7bb 17bd 58bc f288 e1ba c3bf 51bd
000001f0: 2ff3 2f3d ef02 cdbd 71ac 30be d1a6 00be
00000200: 6f19 6ebf f2f3 55be 99fb 92be 83d9 fd3e
00000210: c1da dabd 6877 e53d 9adc 733c cc79 853e
00000220: 81b7 eb3d 5b3b afbe f7c2 53be 8e53 0b3f
00000230: ec2e 5f3d 9bea 60bf e805 3cbe e442 c4be
00000240: d372 063e 0360 8b3e f3b6 703e 855f 24be
00000250: ac80 5b3f 6ac1 f3be 49a3 ad3d 54ee 00bc
00000260: 2ef0 223e f547 08bf 6049 c63c 12d4 8bbf
00000270: 6433 8bbe 67e8 af3d 7f51 dc3c 7407 9d3e
00000280: b120 893f e92b 513f 429e 953f ddc0 fa3d
00000290: 4054 1e3f cfc3 28be c5fa 7e3f 0415 443f
000002a0: a06e acbd c5d1 0ebe f011 93bd e261 ff3e
000002b0: 36d6 873e 9c0e 4a3f 8345 8a3f 477d 153f
000002c0: 1b13 213c e1bd f83e 6294 d33d 71dd 023f
000002d0: 8ac9 673f 0022 273f 13e9 0abe 2156 433f
000002e0: ce89 e83e da0f 233f 302d ca3e 7efe f83e
000002f0: 46e5 353f 08df 2abe 718b 6a3c d320 6c3f
00000300: 4078 ad3f 83f2 393f 6aac 913f bae6 553e
00000310: 052b c23e 41a7 c5be 6cc1 a53f c22a e93e
00000320: a6e5 c0bd 7d05 32be 6d2e 0ebf 13b0 b9bd
00000330: cfaa 83bd a797 e03e 92f3 833f d988 2f3e
00000340: 5ae1 1bbe da07 173f 9d32 bfbe 6f50 963e
00000350: 2710 833f 8137 063f 1676 8cbe eff3 3a3f
00000360: c558 903d 37fd a33e 22d4 413f 9621 7b3e
00000370: 3e62 1b3f 80ba a9be 8fe0 ccbb dcf2 7b3f
00000380: 9635 a03f 52f5 063f 43b0 8d3f 7308 05be
00000390: f3cb 2c3e 47e3 6abe e9b7 7e3f 3b5d 28be
000003a0: d9fe 17bf 5496 27bf 16b8 87bf 251b 17bf
000003b0: fcf0 ddbd c5ea a33e 0704 873f 66c9 eabc
000003c0: fbd9 77bf 4eb5 df3c 3075 bfbe 685d 003f
000003d0: 0476 933f ac13 3a3e 4177 58bf 1492 5c3f
000003e0: c079 c6be 3ff5 263e 08c3 d53e e22e 16bd
000003f0: fe08 f43c e341 58bf 8cde 6ebf 3248 7d3f
0.96998817 0.62343735 0.3672303 0.074505664 0.73760563 0.11188723 0.84287846 0.3738166
0.06919252 -0.23571622 -0.22880441 0.12056407 0.3007305 0.61815447 1.009806 0.21126434
0.048736606 0.50877213 0.20754394 0.51652527 0.4997055 0.5834824 -0.067996524 0.7561634
0.24485165 0.62332386 0.36542806 -0.031366233 0.40732783 -0.06462515 0.021618525 0.59572554
0.9176039 0.7468943 0.7156744 0.080970824 0.38703585 -0.1657782 0.9244103 0.57114446
0.015381765 -0.2168537 -0.16061306 0.24390581 0.11814932 0.66508645 0.7635451 0.12757377
-0.069695115 0.6618407 -0.13022664 0.30442724 0.59353256 0.75325745 -0.0356048 0.8147491
0.32157853 0.6020357 0.3621966 0.08227661 0.19521165 -0.14633228 -0.02389158 0.7940691
0.038866583 0.068619594 -0.22776459 0.06299042 -0.13075896 -0.08965938 0.067941494 0.00343522
-0.005766215 0.034417152 -0.0098988805 -0.06489519 0.06785161 -0.032459658 -0.012681359 -0.11189257
-0.009824687 -0.10554648 -0.093681954 -0.2071618 -0.18258582 -0.036008887 -0.1701221 -0.15440376
-0.052322738 -0.15354688 0.06184986 -0.11468063 -0.1152903 -0.09038036 -0.19484961 0.01579299
0.020457657 -0.09614296 -0.10936481 0.059896097 -0.062195413 -0.08629928 -0.12239098 -0.10460787
0.122238934 -0.1418165 -0.09057907 -0.27763402 -0.10370254 -0.044066336 -0.02218427 0.06760568
-0.13086267 -0.08013072 -0.390286 0.058865998 -0.019983223 0.08542119 -0.17173289 -0.020752281
-0.0070524467 -0.013228676 -0.001720695 -0.05120827 0.042956527 -0.10010325 -0.17253281 -0.12563635
-0.9300756 -0.20893839 -0.2870758 0.4958001 -0.10686255 0.112044156 0.0148841385 0.26069486
0.1150961 -0.34224972 -0.20679842 0.5442437 0.054488108 -0.8785798 -0.18361628 -0.38332283
0.1312974 0.2722169 0.2350729 -0.16052063 0.8574321 -0.476085 0.0847841 -0.007869322
0.15911934 -0.532348 0.02420491 -1.0924094 -0.27187645 0.08589249 0.02689433 0.3066975
1.0713102 0.81707627 1.1688921 0.12243817 0.61847305 -0.16480945 0.99601394 0.7659457
-0.084195375 -0.13947208 -0.07181156 0.49879366 0.26530617 0.7892854 1.0802463 0.58394283
0.009831215 0.48582366 0.10331036 0.5111914 0.905419 0.65286255 -0.13565473 0.763033
0.45417637 0.6369606 0.394876 0.48631662 0.7105297 -0.16686642 0.014315472 0.92237586
1.3552322 0.7263567 1.1380742 0.20888796 0.37923446 -0.38604167 1.2949653 0.45540434
-0.09418802 -0.17384906 -0.5553959 -0.090667866 -0.064290635 0.43865702 1.0308707 0.17142047
-0.15222684 0.58996356 -0.37343302 0.2935824 1.0239304 0.5242844 -0.27433842 0.73028463
0.070481814 0.32029125 0.75714314 0.24524531 0.6069678 -0.331501 -0.0062523554 0.9841745
1.2516353 0.5271808 1.1069416 -0.12991504 0.16874675 -0.22938262 0.99499375 -0.16441815
-0.5937324 -0.6546376 -1.0603054 -0.59025794 -0.1083698 0.32015052 1.0548104 -0.028660487
-0.96816987 0.027308132 -0.37394094 0.50142527 1.152039 0.18171567 -0.8455697 0.861604
-0.38764763 0.16304491 0.4175036 -0.036665805 0.029789444 -0.84475535 -0.9330833 0.98938286

fc2.bias f4 [16]
00000000: 34b4 de3d 7368 79bd 94b3 c33c 6a72 ddbd
00000010: a10f 56bd 26b3 7cbe 7c22 6cbf a067 96bf
00000020: 5e24 75bf a8bc 68be 9852 9c3c f69e 863e
00000030: 4a6d 833d e0d3 dabb 7073 b0be b501 1abd
0.10874215 -0.060890626 0.02388934 -0.108128384 -0.052261 -0.24677715 -0.9224012 -1.1750374
-0.95758617 -0.22728217 0.019082353 0.26293153 0.064173296 -0.0066780895 -0.34463072 -0.037599284

fc3.weight f4 [1, 16]
00000000: b50f 19bf e6d5 1ebf 98fb e93d 802f 90bd
00000010: b460 ff3e d01e 50bf 979a 99bf 61cb abbf
00000020: 045e b7bf 2f83 e43d a315 ce3d b429 0dbf
00000030: 75b0 0e3e 4b2d e13e 3a61 5fbf 4446 0abf
-0.5978959 -0.62045133 0.11424941 -0.0704031 0.49878466 -0.81297016 -1.2000302 -1.3421441
-1.4325566 0.11157834 0.100627206 -0.5514176 0.139345 0.43979868 -0.8725773 -0.54013467
