projects/tennis/checkpoint/RE26/RE26.22_actor1_15000.pt (torch_old, 453689 bytes, 6 tensors)

fc1.weight f4 [400, 24]
00000000: 3fce 203d b310 3abd ec0b bc3b b92d 89bc
00000010: 6916 a13c 67ca c9bc 8bfe 1f3d 768f 9bbc
00000020: a52e 0c3c 1b53 b1bc 305a 33bd bacb f9bc
00000030: 27bc ebbc d2b5 5ebc 75d1 3bbd 7d3d 2fbd
00000040: 0965 01bd 6b6b 803c abf3 2fbc 1104 283c
00000050: f414 49bc fb2e 253d 3516 1a3c 0510 093c
00000060: d99c b43c e326 163d 632d 46bd 1ff3 e63c
00000070: a8fb 49bd d3ba 5a3d 5ac8 40bc 6e0b c8b9
00000080: 6dbf e9bc bb8f 3fbd 52c8 c03b e4ba 37bd
00000090: 4e0b 14bd 838b 853c e993 4fbc 9acd d5bc
000000a0: 36b4 17bd 7cb1 123d 2118 023d 4436 213c
000000b0: fe7c 1d3d 5757 b6bc 596a c43c 8bce 87bc
000000c0: 5cb7 753b 6f65 2cbd ebfd f33c 09bb 2b3d
000000d0: 71d4 cbba 66f9 95ba c71e da3b 47c3 0d3d
000000e0: a509 173c 295f 093d 2fac b93c 9fc3 b9bc
000000f0: e583 643d cc7f 7aba bad9 ed3b 3331 1cbc
00000100: 5a74 04bd 20e7 81bd 74ec b93c 3522 083d
00000110: c684 f33c 74f6 dbbb df8c 143d 8b58 e5bc
00000120: f101 963b 1751 e3bc 9386 59bc 91a1 1ebd
00000130: ec0f 4fbd 4a4e 4c3d 9ee4 ae3c 342f 1d3d
00000140: 35d8 993c 93e4 263d 7021 81bb 934d bc3c
00000150: 2cb6 41bd 7cd0 0a3a 8de5 483d f431 34bd
00000160: 28bc c2bc 2817 4fbd 3db1 f03c ef23 6cbc
00000170: 573d 0d3d 5baa 123d 6a04 793c 6ffc 18bd
00000180: 9363 e8bc 9ad4 2dbb 9bf7 1dbc b417 413d
00000190: cc6d 2ebb 6c10 333d 1064 28bd 9899 413c
000001a0: 122d 31bd c23a 36bd 82a1 0f3d 87af 2cbd
000001b0: 462e 613d 9dcf d4bb 6cea 4d3d a600 37bd
000001c0: 0718 8b3c 94db 9fbc 202f 3bbb 5d8f 243d
000001d0: 3edb 783c a89a 89bc 07cf aabb 2fe0 023d
000001e0: 62de 5fbd 856e bb3b 5dcf 9c3c 48c0 203d
000001f0: 5ec0 2dbd 47a2 4e3d a618 51bd 9a42 18bc
00000200: 3b18 36bd 0db6 0c3d fdce e2bc 14e5 fa3a
00000210: 8ff5 cebc bda2 15bc 6548 35bc c9c9 113d
00000220: 9402 0abd 1c70 29bc fbcc 653c 0c8d e2bb
00000230: 0cce 6f3d 2044 c0bc 6b9b 1c3d ff43 dd3b
00000240: 0a21 3e3a b79e d6bc 12f6 48bd 7d82 8abb
00000250: 016d 363d 0305 323d d895 9b3c b8b6 143d
00000260: ea4c 48bd 9401 503b 9c9d 71bc 1979 0e3d
00000270: 50bc 86bc c096 abbc b250 103d f5ac f9bc
00000280: b39a efbc 15af d33b c7c2 b23c bdba 60bb
00000290: e2dc a13c 6432 153d 6c46 29bd 0577 eabc
000002a0: aff0 283d e456 9e3c 6e20 553c e108 433d
000002b0: 3ce7 623c 881f 113d 2171 ca3c 7d63 133d
000002c0: c492 b93c 59ec 233d 9b3e f3bb 16f1 913c
000002d0: 98e5 2f3b 74f7 e43a 1990 e53b 9510 28bd
000002e0: 3777 cfbc 6050 65bc 5753 c5bb d6f8 5cbd
000002f0: bfcc c73c f7a1 bf3c dd47 31bd c79b bdbc
00000300: ca38 b63c 4507 51bc 2776 83bb 624e fdbc
00000310: 9c21 9bbc 7585 ffbb 9d22 2e3d 10db 9a3c
00000320: a8fa 56bd bdd7 3ebd 4bd5 22bd a71b 0ebc
00000330: e67a 743d e5d1 35bd cab3 83bb fd39 3abd
00000340: 3259 f9bb 5cc2 86bc d473 943c b985 363c
00000350: dcb8 1f3d b402 10bd 0b46 19bd 3f3c 10bd
00000360: 70aa 913c 5175 48bd 9fbe 8a3c c830 14bd
00000370: 740f 233d 4af4 063d 096e 3ebd 48d6 21bd
00000380: 6727 71bc 4339 033d 39aa 483d 9f5c a1ba
00000390: 85f9 343b de4d 323d 58b3 363c ee18 343d
000003a0: 6be0 0dbd d2ad 32bc 4328 ea3b 1356 9dbc
000003b0: e9cf 363d e28d 19bd a233 453d f32f 0cbd
000003c0: df53 c23c f2e3 eebc 8063 a0b4 1ac9 1c3d
000003d0: 28b6 1fbd fbac 943c 02de 19bd 1a19 c93c
000003e0: f2ff f1bc d8b4 26bd 6a2d 14bc 7759 10bd
000003f0: 6de9 f0bc 090d 40bd 4962 3a3c f2fd 01bd
0.03925919 -0.045426082 0.005738726 -0.016745435 0.019664006 -0.024632646 0.03906111 -0.018989306
0.008556043 -0.021646073 -0.04378718 -0.030492652 -0.028776241 -0.013593154 -0.04585405 -0.04278325
-0.031590495 0.01567622 -0.010739247 0.010254876 -0.012273062 0.040328007 0.009404709 0.008365636
0.022047447 0.03665818 -0.048383128 0.028192101 -0.049312264 0.053400826 -0.011766518 -0.00038155488
-0.028533662 -0.04676793 0.005883255 -0.044855967 -0.036143593 0.016301876 -0.012669542 -0.026099015
-0.037037097 0.035813794 0.031761292 0.009839598 0.03844928 -0.022258444 0.023976492 -0.01657798
0.0037493324 -0.042088922 0.029784163 0.041926417 -0.0015550983 -0.0011442124 0.006656501 0.03461006
0.009218608 0.033538017 0.022665111 -0.022676287 0.055789847 -0.00095557864 0.007258621 -0.009533214
-0.032337524 -0.06342912 0.022695757 0.033235747 0.029726397 -0.006712729 0.036267158 -0.027996322
0.004577868 -0.027748628 -0.013276714 -0.0387283 -0.050552294 0.04987935 0.021349248 0.038375095
0.018779853 0.04074533 -0.0039407536 0.022986209 -0.047292873 0.0005295349 0.04904704 -0.04399295
-0.02377136 -0.050559193 0.029381389 -0.014412864 0.034482326 0.035806995 0.015198806 -0.037350114
-0.028367793 -0.0026524425 -0.009641553 0.047141746 -0.0026615737 0.043716833 -0.041111052 0.011816405
-0.043255873 -0.04448963 0.035066135 -0.042159583 0.05497577 -0.006494476 0.05027239 -0.044678353
0.01697923 -0.019513883 -0.0028562024 0.040175784 0.01518899 -0.016797379 -0.005212668 0.03195208
-0.05465544 0.005719962 0.019141847 0.039245874 -0.042419784 0.05044773 -0.051048897 -0.009293223
-0.0444567 0.034353305 -0.02768659 0.0019141757 -0.025263576 -0.009133038 -0.0110646235 0.035592828
-0.033693865 -0.01034167 0.014025922 -0.0069137868 0.05854611 -0.023469985 0.038234156 0.0067524905
0.0007252848 -0.026198728 -0.049062796 -0.004226981 0.044537548 0.04346181 0.01899235 0.036307067
-0.048901476 0.0031739222 -0.01474705 0.034783456 -0.016447216 -0.020945907 0.035233207 -0.03047798
-0.029248571 0.0064600804 0.021821393 -0.0034290992 0.019758645 0.03642501 -0.041326925 -0.028621206
0.04124516 0.019328542 0.01300822 0.04761589 0.013849076 0.03543046 0.024712147 0.03598355
0.022652991 0.04002032 -0.0074232346 0.017815154 0.002683973 0.0017468766 0.007005703 -0.04103144
-0.0253254 -0.013996214 -0.006021898 -0.053948246 0.024389623 0.02339266 -0.043281425 -0.02314557
0.022243876 -0.012758081 -0.0040118876 -0.030921165 -0.018936925 -0.0077978917 0.04251348 0.018903285
-0.05248514 -0.046592463 -0.039754193 -0.008673585 0.059687518 -0.044389624 -0.0040192353 -0.04546546
-0.00760951 -0.0164501 0.018121637 0.01114028 0.038994655 -0.035158828 -0.037420314 -0.035213705
0.017781466 -0.048940007 0.016936598 -0.036179334 0.03980966 0.032947816 -0.046491656 -0.039510995
-0.014718867 0.03203703 0.048990462 -0.0012310928 0.0027614546 0.04353129 0.011151157 0.043969087
-0.03463785 -0.0109057 0.007145913 -0.019206082 0.044631872 -0.037488826 0.048144944 -0.034225415
0.023721633 -0.029161427 -2.9874718e-07 0.038277723 -0.038992077 0.01814889 -0.03756524 0.024548102
-0.02954099 -0.04069981 -0.009044031 -0.03524157 -0.029408181 -0.04688743 0.011375972 -0.03173632

fc1.bias f4 [400]
00000000: 1de5 073e d3e5 433e 93ef 593e cdc4 8a3d
00000010: c628 a8bd 690d 17be 739e ccbc 5f8f 4abe
00000020: ecf0 6bbd 720f 1d3e 0de8 dabd ef98 e4bd
00000030: c5d5 33be e831 893b b8db 0b3e f116 8dbd
00000040: be35 22be 0e37 11be d3b2 2f3b a8e0 a73b
00000050: f1ad 183e ac3f cdbb dab5 593e 0e65 4b3e
00000060: 54c0 4bbe 0a8e 503e 4ca0 05be 99d9 f23a
00000070: 8721 7bbd d249 063e 96d6 1f3e 51a3 25be
00000080: 25c3 ab3c a553 07be 4eff 6f3c 3c68 dfbd
00000090: 9a1b d2bd c66a 93bd 0a1b 8dbd fb47 93bd
000000a0: 05bc 4c3e 53c6 17be 1b29 17be 0ee5 fdbd
000000b0: 4586 193e b470 a93d d6c8 3c3e 8324 103e
000000c0: ebdf 31be e835 2cbe 2e65 33be 4243 2b3e
000000d0: ea51 3cbe 0e91 20be 9f17 023e 63d4 07be
000000e0: 7493 31be 7e8e 1a3e f213 00be 923b d1bc
000000f0: 39ad 0ebe 9a7a 08be b900 b53c 6d75 19be
00000100: 4fb0 eebd f801 063d 7caf 47be 5fda cb3d
00000110: d737 96bd 0f9b 903d 03c3 e7bd 5f3f 9d3c
00000120: fc8c 533e 9b75 c13c 5570 163c 7f3a e03d
00000130: 5dbf dbbd d51c 3e3e a1b1 b83d 406d 0d3e
00000140: d6ff 653c ffea 1ebe cfbe b3bd b37c 1c3e
00000150: febc 3fbd 3349 063e 67ed 113d 791b b33d
00000160: c7c9 2d3d 0525 2f3d 3f1e 2ebd 15b0 29be
00000170: ff50 36bd 041e 3fbd 4f90 af3d 8843 27be
00000180: 5c88 1fbe f8de 993d c402 293e 8176 e03d
00000190: 4c4e be3d c7c7 353e bacb 823d c77b e13d
000001a0: c52d 4abe 54d2 e4bc ca7b fdbd b282 a33d
000001b0: 5de4 0fbe 5549 41be 403d d8bd 265f b6bd
000001c0: 451d fbbd 7627 34be 5079 dc3d 0fc8 8c3c
000001d0: c0ad 2e3e 86bc 093e 58b0 0e3e 5077 2fbe
000001e0: 5835 093e a2e3 94bd af4b cfbc 3af8 d638
000001f0: 3516 2abe 2f00 dcbd 8c9f 853d 837a 113e
00000200: 9d91 373b c939 3f3d eba1 17be 26c0 b93d
00000210: b60e 013d 60ef 313e 8d34 413d 99e2 d53c
00000220: 7696 93bc 9e45 2dbe 77e5 283e eb37 913d
00000230: f33c 2d3e 7c5c 543e 774a e73d 21fa aabd
00000240: 714c 11be 81e2 15bd a761 20be 743c 0a3e
00000250: 68a0 143e f5da 02be 29a3 9dbd 02a6 58bd
00000260: c77c 4c3e ab51 24be 8e61 c63d d127 1f3e
00000270: 6441 a8bd ccf6 14be 2aa1 d7bd 9ca5 39bd
00000280: 3f70 45bc f6e2 ec3b f46b b83d aab5 e8bd
00000290: dc38 af3d 0c66 663d a146 0fbe eb92 b13d
000002a0: ef83 49be ea5f 723c e14c 12be 177d f3bc
000002b0: f0d3 4cbd cd83 f5bd e048 6b3d c938 053e
000002c0: ec87 223e 791c 1cbe a16e bf3d e052 193e
000002d0: 365d 0a3e f511 4a3c 8cd6 35be 620c c23d
000002e0: 17fe 2a3e cfdf 313d 4cfa 1bbe 88e7 85bb
000002f0: cd0e 89bd 7495 02be 679d 94bd 763f 1a3e
00000300: 013a febd 90d5 3fbe 7ab7 c23d d596 17be
00000310: a9d4 42bc 8fce d43c fe13 9a3d 7dc8 313d
00000320: efbd ca3d 39e1 8a3d 1d46 e9bd 2328 2b3e
00000330: 63bb 113e e388 f93d 166c fabd 1d58 313e
00000340: 4a05 92bd acc6 8a3d 759b ccbd 3eb8 1bbe
00000350: 2579 39be 0541 db3d 2356 e53d 3929 87bd
00000360: ddce ccba 7d59 ea3d 2248 b0bd 1b70 9bbd
00000370: 10fc 30be 3c60 4b3e a5a1 0cbe ff5c 223c
00000380: 02ce 02be a545 30be b857 383e efa5 e6bc
00000390: 031f 163e 44da db3d 1f40 143e 229d 2d3e
000003a0: 264c 503e 0c98 3a3e 96a8 203d 435d 05be
000003b0: 00c8 ecbd 198a bfbd cf9d 0dbe 66d2 85bd
000003c0: b67a 3b3e edb8 8b3d b713 183e 0f74 dfbd
000003d0: 5783 cd3c d837 3cbe 6183 643d a027 2ebe
000003e0: 963f 683d 54a9 5ebc d152 68bd 8e68 283e
000003f0: 8b48 b1bd 9987 b23d f965 513e 42b0 b13c
0.13270994 0.1913064 0.21282797 0.06775818 -0.08210902 -0.1475121 -0.024977898 -0.19781254
-0.057602808 0.15337923 -0.106887914 -0.11161982 -0.17562015 0.0041868575 0.13658035 -0.06889141
-0.15840814 -0.14181158 0.0026809468 0.0051232167 0.14910103 -0.006263694 0.21260777 0.19862768
-0.19897586 0.20366684 -0.1304943 0.0018527984 -0.06131127 0.13114098 0.15609202 -0.16175582
0.020967076 -0.13215502 0.014648272 -0.10908553 -0.10259171 -0.071981 -0.06889923 -0.071914636
0.19993599 -0.14821748 -0.14761774 -0.12397204 0.14992626 0.082734495 0.18435988 0.14076428
-0.17370574 -0.16817439 -0.17519066 0.16724876 -0.18390623 -0.15680334 0.12704323 -0.13264613
-0.17341405 0.15093419 -0.12507609 -0.0255411 -0.13933267 -0.13328019 0.022095071 -0.149862
-0.11654722 0.03271672 -0.19500536 0.0995376 -0.07334869 0.07060825 -0.113164924 0.019195257
0.2065925 0.023615649 0.0091820555 0.10948657 -0.10729859 0.18565686 0.09018255 0.13811207
0.014038047 -0.15519331 -0.08776628 0.15281944 -0.046811096 0.13113861 0.035626795 0.08745474
0.042428758 0.042759914 -0.042509314 -0.16571076 -0.044510838 -0.046659485 0.085724466 -0.16334355
-0.1557936 0.07513231 0.16504961 0.10960103 0.09292278 0.1775199 0.06386514 0.11009937
-0.19744022 -0.027932324 -0.123771265 0.079839125 -0.14051957 -0.1887563 -0.105585575 -0.08904867
-0.12261442 -0.17593178 0.10765326 0.01718524 0.17058468 0.13450822 0.13934457 -0.17135358
0.13399255 -0.0726998 -0.025304643 0.00010250551 -0.16610034 -0.107422225 0.06524572 0.14206891
0.0028010376 0.046685968 -0.1480786 0.090698525 0.03150817 0.1737647 0.047169257 0.026109027
-0.018016081 -0.16921088 0.16493784 0.07090744 0.16917782 0.20738405 0.112935 -0.083484896
-0.14189316 -0.036592964 -0.15662251 0.13499624 0.14514315 -0.12778838 -0.07697136 -0.052892692
0.19969474 -0.16046779 0.09686576 0.15542533 -0.08215597 -0.1454727 -0.105287865 -0.045323953
-0.012050687 0.0072292043 0.090049654 -0.11362775 0.08555767 0.056249663 -0.13991787 0.086706005
-0.19679235 0.0147933755 -0.1428714 -0.029722733 -0.050006807 -0.1198803 0.057442546 0.13009943
0.15872163 -0.15245236 0.09347273 0.1497302 0.1351212 0.012333383 -0.17757624 0.09475018
0.1669849 0.04342633 -0.152322 -0.0040864386 -0.06692276 -0.12752324 -0.072565846 0.15063271
-0.12413407 -0.18733811 0.095076516 -0.14803632 -0.011891522 0.025977401 0.075233445 0.04340409
0.09899508 0.06781239 -0.11390326 0.1671453 0.14231639 0.12184312 -0.12227647 0.17318769
-0.07129915 0.06776175 -0.099905886 -0.15207002 -0.18112619 0.10705761 0.1119807 -0.065996595
-0.0015625615 0.1144285 -0.08607508 -0.07589742 -0.17283654 0.19860929 -0.13733537 0.009909867
-0.12773898 -0.17214067 0.18002212 -0.028155295 0.14660268 0.1073499 0.14477585 0.16954473
0.20341548 0.18222064 0.039223276 -0.13023858 -0.115615845 -0.09352512 -0.1382973 -0.06534271
0.1830853 0.06822381 0.1485127 -0.10910808 0.025087042 -0.18380678 0.055789355 -0.17007303
0.056701265 -0.013590176 -0.056719605 0.16446134 -0.086564146 0.087172695 0.20449056 0.021690492

fc2.weight f4 [256, 400]
00000000: 5d9d ee3c 4635 2dbd cc5a 54bd e63c cb3c
00000010: 301b 093d a34f ab3c 215e 49bd be68 0e3d
00000020: 6216 4bbb c977 0abd 11fd 13bd 0e90 f13b
00000030: 966d 0e3b 7fe1 4ebd 612f 383d 8146 c13c
00000040: a4d7 f43c c82f f13c c8c4 453d d893 e4bb
00000050: aacc 03bd a8ee 873d 2e73 1e3d 07d8 81bd
00000060: 9c60 a1bc a047 4ebd d012 03bc 03cf 84bc
00000070: 22fe 64bc 6492 0dbd a216 cfbb e14c 763c
00000080: 3c1e 19bd 412b 833c 6304 243d 62b7 e8bc
00000090: dfac bdbc aa2e 333d ee2c b1bc 40fc 58bc
000000a0: b3ea e73c a9ee aa3b 8358 883c b9f6 253d
000000b0: 12cf 613d 3221 21bd 052e e33c 6591 e3bb
000000c0: 77f1 253d 290e 073d c221 b4bc f9bb dcbc
000000d0: 6733 d1bc c554 383d dd15 953b 6569 74bd
000000e0: 647b 513d ae67 90bc 58d6 3d3b edad 68bd
000000f0: 1014 71bd 0cc4 92bc a2a5 f1b9 a19f 6a3d
00000100: b675 33bc e823 c43c ca05 833c e8d8 25bd
00000110: 2719 24bc d68e b53c 3645 87bc e142 bcbb
00000120: 8d8a 8fbc 1803 773d 23eb 51bc 2108 d73c
00000130: 2472 173d d8cc cc3c ad8b a5bc 681b 72bd
00000140: 118f 3d3d 1eb3 37bd fee3 e63c 71cc 0cbd
00000150: 743a b0bb c8af 4bbc f8a0 62bd 31c7 e0bc
00000160: e263 093d a4ba 573c 0a61 79bd 34d0 613d
00000170: 4acb 18bd c6e5 603d 9228 833c 4b5f 18bc
00000180: 80dd 123d 18a9 693d 0a25 6dbd 1135 5f3d
00000190: 17af c6bc 2873 a03c adc6 7d3d 7b63 e2bc
000001a0: 2616 863b d343 6abc dff9 cdbc 7005 913c
000001b0: 7ec0 f7bc 29f8 883c 6054 823c 6cb4 37bd
000001c0: 0252 d5bc ecd6 66bc ce2d 243d eaef 3d3d
000001d0: b5cd 8fbc d635 d8bc 965b d3bc c93f 7a3c
000001e0: 72a4 26bd 0b7e 423b 3d0a 2abd 56e6 463d
000001f0: 4f70 09bc b475 72bd 320e ef3c 3347 6dbb
00000200: cdcf 0dbd a959 11bd dd90 5abd fdf4 693d
00000210: 2002 413d 8fc2 a5bc d1c2 2b3c 7d02 02bd
00000220: f882 083c 8a9c 123d f6b3 15bd 2e48 e1bc
00000230: 5bdf 85bc c080 bbbc 071e 6d3c cec5 90bc
00000240: 8358 2abd d353 123d 84e3 533c 3b02 a93c
00000250: 9c3c 69bd 8fc6 39bd 83be bc3c ee4c 7a3c
00000260: 1a66 103d 46f4 2a3d df53 213b e270 293d
00000270: 3105 0d3d 8c82 5f3d 3f63 8b3c 193d 6bbd
00000280: df3c 0b3d 4984 3ebd 7c76 773d 79b0 11bc
00000290: 45e8 83bc 11d1 1bbd d698 62bd 2bd5 27bd
000002a0: 093f b53c af13 a1bc 64b9 5f3d 5ab4 073d
000002b0: 1b2e 9f3c 575f 783d e0c6 593c 83b4 4fbd
000002c0: 368a 243d 0746 803b 8c83 61bd 2b22 61bd
000002d0: 90b6 253d 42e8 133d c138 b83c 9f10 7dbd
000002e0: ed8a f33c 2c81 39bd 2cf0 f9bc 1265 64bc
000002f0: c13b 03bd 671e 61bd 80ef debc eaba 9d3c
00000300: 116e 483d c1d6 213d 3073 6d3b 3c54 203d
00000310: 6216 8a3c 94dd 0bba cb1c 4cbd a55c f1bc
00000320: 4926 363d 57aa 603d ccff 38bd 0a6a 19bd
00000330: 79bd 09bd 4040 c33c cd5b 30bd b9b2 b3bb
00000340: 55b7 d43b 1550 b63b fd92 6c3d 0dbe 223c
00000350: 0a0f d8bb c940 ab3c 6243 ca3c f343 4ebd
00000360: e034 0fbc e325 54bd 550b b53c f544 63bd
00000370: fa36 2fbd f35b cc3b 8fd0 7d3c 387a e23c
00000380: 3150 893b 2b70 933c 8939 45ba 38ad 293d
00000390: f246 5ebd ea31 433d 3c3c 1b3b ee70 02bd
000003a0: ecf4 fd39 db9b 06bc ca84 08bd 2fd0 df3c
000003b0: 74b9 75bd 6366 80bc 5fd6 bebc 3ca6 1c3d
000003c0: 1a51 543d 85a8 75bc 6104 c83b 8aca 493c
000003d0: b606 50bc 38f3 283d 7352 433d d823 6a3d
000003e0: 25dd 36bc 1e56 723d aec3 6fbd 9202 44bc
000003f0: f3b5 afbc f805 1abd e329 d3bc 60e4 653d
0.029127771 -0.042287134 -0.051844403 0.024809312 0.033473194 0.020911997 -0.049162034 0.03476786
-0.0030988683 -0.033805642 -0.036130015 0.007371909 0.0021732799 -0.05050802 0.04496706 0.02359319
0.029887982 0.02944173 0.04828337 -0.006975632 -0.032177605 0.06637317 0.038684063 -0.06340032
-0.019699387 -0.050361276 -0.008000091 -0.016211992 -0.013976606 -0.034563437 -0.0063198367 0.015032978
-0.03738235 0.016011836 0.040043246 -0.028407756 -0.02315372 0.043745674 -0.02162787 -0.013243735
0.028310155 0.005216439 0.016643768 0.040518496 0.05512912 -0.0393383 0.027731905 -0.0069448226
0.040513482 0.03297249 -0.021988753 -0.026945101 -0.025537206 0.045002718 0.0045497254 -0.059670825
0.051143065 -0.017627563 0.002896687 -0.056806494 -0.058857024 -0.017915748 -0.00046090508 0.05728114
-0.010953357 0.023942903 0.015993971 -0.04049006 -0.010015762 0.022162836 -0.016512495 -0.0057452773
-0.01752212 0.060305685 -0.012812409 0.026248993 0.036974087 0.02500002 -0.020208204 -0.059108168
0.046279017 -0.044848554 0.028184887 -0.034374658 -0.005378062 -0.012432046 -0.055329293 -0.027438732
0.03354252 0.013167057 -0.06088356 0.0551302 -0.037303247 0.05490663 0.016010556 -0.009300063
0.03585577 0.057046026 -0.05789665 0.054493967 -0.024253411 0.01958616 0.06195705 -0.027635327
0.004091996 -0.014298397 -0.025143562 0.017702788 -0.030243155 0.016719894 0.015909374 -0.044849798
-0.026040081 -0.014089327 0.040082745 0.046371378 -0.017554143 -0.026392858 -0.025800508 0.015273997
-0.04068417 0.0029677178 -0.04151367 0.04855951 -0.008388593 -0.05919428 0.029181574 -0.0036205768
-0.034622002 -0.035485897 -0.05336081 0.057118405 0.047121167 -0.020234374 0.01048346 -0.031740654
0.008332007 0.03579382 -0.036548577 -0.027500238 -0.016341856 -0.022888541 0.014472491 -0.017672446
-0.041588318 0.035724472 0.012932662 0.020630946 -0.056942567 -0.045355376 0.023040062 0.0152771305
0.03525362 0.041736864 0.0024616641 0.04136742 0.03442878 0.05456786 0.017015098 -0.057431314
0.033993598 -0.046512876 0.06041573 -0.008892172 -0.016101966 -0.038041178 -0.055321537 -0.040974777
0.022124784 -0.019662706 0.05462016 0.03313098 0.019431164 0.0606378 0.013292044 -0.05070926
0.04017087 0.003914598 -0.055057094 -0.054964226 0.04045731 0.03611017 0.022488 -0.06178343
0.02972933 -0.045289204 -0.03051003 -0.013940113 -0.032039408 -0.054960635 -0.027213812 0.019254167
0.048933093 0.039511446 0.0036231987 0.039142832 0.016856376 -0.0005335447 -0.049832147 -0.029463122
0.044470105 0.05484995 -0.045165822 -0.037454642 -0.03362796 0.023834348 -0.043056298 -0.005483952
0.0064915814 0.0055637457 0.057757366 0.009933007 -0.0065935897 0.020904915 0.024690334 -0.05035777
-0.008740634 -0.051793944 0.02210013 -0.055485684 -0.04277704 0.006236547 0.015491619 0.027646169
0.0041904678 0.017997822 -0.0007523527 0.04142496 -0.054266877 0.047655024 0.0023687026 -0.03184598
0.000484384 -0.00821587 -0.033329763 0.02732095 -0.059991315 -0.015673822 -0.02329558 0.03824447
0.051835157 -0.0149937915 0.0061040376 0.0123163555 -0.0126969125 0.041247576 0.04768605 0.05716309
-0.011161123 0.05916416 -0.058536224 -0.011963503 -0.021449065 -0.03760335 -0.02577681 0.056126

fc2.bias f4 [256]
00000000: ddd6 1abc 1ad2 023c 4d22 42bd bebb 4b3d
00000010: b009 1d3b 5fa0 61bc 9c6d 043d c8db 21bc
00000020: 4f25 2bbc 0507 e6bc 9a78 bcbc 03f1 9aba
00000030: 6e07 ef3c 92bd c93c f2eb 18b9 141a 043d
00000040: 162c fb3c 31df 413d 887b 133d 5a6a 3b3d
00000050: 500f c53b 304f 4e3d 5122 633d adca f73c
00000060: 1e75 d43c f5e5 22bd bdfb edb9 7429 08bd
00000070: 57d5 04bd a34d cabc e846 d4bc bd14 9b3a
00000080: ceaa f2bc 47c7 3b3d 1dd3 103d c160 5f3d
00000090: 0642 0cbb 3871 95bc 90b9 f9bc e07a 9dbb
000000a0: 582e 86bc 1a12 de3c 738c b33c 678e 9ebc
000000b0: 845a de3c 0881 01bc a3a6 82bb 73c0 e53c
000000c0: d4e6 183d 388d 233d 4db3 093c 2f4d 02bd
000000d0: 6010 c03c 8af6 af3b 3cab 66bc a872 d03b
000000e0: 0729 d8bc 25df 08bd 5715 2cbc f0fc 493d
000000f0: 3f96 9b3c 667a 11bd bd96 4a3d d84f 2d3d
00000100: 0e26 6ebc aced d4bc 38dd febb 29fd e53c
00000110: fe2e 2cbd d7c1 b4bc 77f1 f73c 3ee9 b53c
00000120: 145c f2bc 59d9 673d 739e 6a3d 577a 923c
00000130: 6284 e8bc 5927 193d 8d28 e33c b324 acbc
00000140: e021 edbc 48c3 333d 2d87 72bb f969 ff3c
00000150: fb9e 05bd e412 253c 863f f0bc 012f 21bd
00000160: 1570 7c3c 2d58 333d a995 a5bb 24e0 0cbd
00000170: 8fbf 0dbd 8448 f23c f6b0 2a3d 0e74 0a3d
00000180: 9d8e 893c ab00 3d3d 9045 c2bb 4a28 05bd
00000190: 4fb3 c13c c85c 0fbd 394f 153d abe8 8c3b
000001a0: 1bce 623d 8f1d bd3c 632f ea3c 816a 803c
000001b0: 52d6 c13b 23f8 133c b8ce 953c 46c3 223d
000001c0: c551 173c a829 093d 7190 eebb 4b05 aa3c
000001d0: 0227 74bb e1e2 71bc f1f7 ecbc e71d 30bd
000001e0: 22f7 7cbc 1ce8 a53c 2fbd 71bc 4f3f 403d
000001f0: 2dcf 223d 4d2a a2bc 8ade 403d 1fef be3c
00000200: f5fb 46bd e308 8bba c292 02bd 3568 72bb
00000210: 4e44 6d3c a2ae 6b3b 689a 123d d1c2 cdbb
00000220: 069b 313d 67ff 863c 048e 30bb d995 163d
00000230: 38dd 34bc bef6 363d 7417 eb3c ff84 14bd
00000240: 29c5 c93b 263b 1bbd e1e9 fabc 68fe 05bd
00000250: d6e5 143d 978b 42bd b47c e43c c058 933a
00000260: e3d7 673d e291 bfbc 2c84 c33c cab0 d6bc
00000270: 5caf de3c 49d9 803d 0bb9 3cbd 3a52 a23b
00000280: 7dfc 9bbc 5c9f 243d 9e49 513d df21 333d
00000290: 3253 1f3d 3ced 4b3c 14a5 0abc e3e2 ecbc
000002a0: a00a a2bb 0c9d febc bb82 423d c6dd 04bd
000002b0: c147 f13c 1342 5e3d 3db7 b03c 26f7 efbb
000002c0: 0e6c babc 433e 143b 5b4c ccbc d027 8d3c
000002d0: f501 503d 40af 163d 2c1f 87bb 0350 28bd
000002e0: b93e 9b3b 1878 07bd 0b30 1c3d cd47 f03b
000002f0: 3736 613b 6f85 623d 53a5 88bc 0945 393d
00000300: 0e81 30bc 23ea 6b3a 4656 c53c 8b1f 113c
00000310: 004c d9bc 4876 093d afa4 1ebd 7ad4 1f3c
00000320: 79e8 003b 10c2 253d a573 4d3c e03e 3f3d
00000330: 01f3 3f3d cad5 e8bb 4ebd fc3c 9366 703d
00000340: 67e0 593d 0800 a9bc ece5 1e3d 576c 0fbc
00000350: b920 76bc b189 de3c 3e4d e4bc fbfa f73c
00000360: d87d eebb a7a4 4f3b 383e 1c3b fec5 a5bc
00000370: 676e c9bc 3adf 02bb fbe2 283d 7fc2 b4bc
00000380: d2a3 f0bc bae2 353d acc7 c13c aeda 053d
00000390: 5e5d 57bc 323c 8f3c 1c8e 9c3c 9c9a c73c
000003a0: 0b43 7ebc c8d3 8d3c 0a73 1b3d f5dc 3b3c
000003b0: 011f e5bb 47d1 9cbc f71b 4c3d c436 20bd
000003c0: 55bd 973c 08a9 8e3c 3f02 eabc ae97 d9bc
000003d0: 5fdb 78bc 3c11 95bc a9d3 933c 02f4 c8bc
000003e0: cecb 643d 1301 503d 3cc1 3a3d da09 fe3c
000003f0: 310c 3b3c a805 9d3b 0224 03bd 1cfe 38ba
-0.009450641 0.007984662 -0.047395993 0.04973959 0.0023962073 -0.013771146 0.032331094 -0.00987906
-0.010445907 -0.028079519 -0.023006726 -0.0011821095 0.029178347 0.024626527 -0.00014583746 0.032251433
0.03066067 0.047331993 0.03600648 0.04575572 0.0060137883 0.050368488 0.05545265 0.03024801
0.025934752 -0.039770085 -0.00045391722 -0.033242658 -0.03243002 -0.024695223 -0.025912717 0.0011831742
-0.029622462 0.045844343 0.035357583 0.05453563 -0.0021401658 -0.018242463 -0.03048399 -0.0048059076
-0.01637952 0.02710824 0.021917557 -0.019355012 0.02714277 -0.007904299 -0.00398715 0.028045869
0.03732951 0.0399296 0.008404565 -0.03181189 0.023445308 0.005369966 -0.014078911 0.0063613243
-0.02638675 -0.033415932 -0.010503135 0.049313486 0.018992541 -0.03551712 0.04946016 0.042312473
-0.01453544 -0.025992237 -0.007777836 0.028074818 -0.042037003 -0.022065086 0.030266507 0.022205945
-0.029584922 0.056603763 0.057280015 0.017880602 -0.028383438 0.03739104 0.027729297 -0.021013593
-0.028946817 0.043887407 -0.003700684 0.031178461 -0.03262232 0.010075305 -0.029327165 -0.039351467
0.015407582 0.043785263 -0.0050532413 -0.034393445 -0.034606513 0.029575594 0.04167267 0.033802085
0.016791636 0.046143215 -0.0059287027 -0.032509126 0.023645071 -0.035000592 0.036452506 0.004300197
0.05537234 0.023085384 0.028587049 0.015675785 0.0059154416 0.009031328 0.018287048 0.03973701
0.009235804 0.033486992 -0.0072804024 0.020754477 -0.0037254696 -0.014763565 -0.028926821 -0.042997267
-0.01543978 0.02025228 -0.014754578 0.046935376 0.03974836 -0.019795561 0.04708723 0.023307381
-0.04858013 -0.0010607507 -0.03187824 -0.0036988382 0.014481617 0.0035962244 0.035791785 -0.0062793274
0.043360732 0.016479207 -0.0026940117 0.036764 -0.011039071 0.044668905 0.028697707 -0.036259647
0.0061575365 -0.037898205 -0.0306291 -0.032713324 0.036352 -0.047496404 0.027891494 0.001124166
0.05660237 -0.023384992 0.023866735 -0.026207346 0.027183227 0.06291444 -0.04607491 0.00495365
-0.019041294 0.04019104 0.051095597 0.043733474 0.0388977 0.012446698 -0.008462209 -0.028916782
-0.0049451143 -0.031080745 0.047487956 -0.032438062 0.02945316 0.054262232 0.02157175 -0.0073231636
-0.022756603 0.0022620119 -0.024938753 0.017230898 0.050783116 0.036788225 -0.004123589 -0.04109193
0.0047377017 -0.033073515 0.038131755 0.007332778 0.003436459 0.055303033 -0.016680395 0.045231853
-0.010772957 0.00089994277 0.02408899 0.008857618 -0.026525497 0.033560067 -0.038731273 0.009755248
0.0019669815 0.040468276 0.012539779 0.04669082 0.046862606 -0.007105564 0.030851986 0.058691572
0.053192522 -0.020629898 0.03879349 -0.008753858 -0.01502245 0.027165266 -0.027868863 0.030271044
-0.0072781853 0.0031683834 0.0023840796 -0.020236012 -0.024588777 -0.001996948 0.04123209 -0.0220654
-0.02937499 0.044405676 0.023654781 0.032679252 -0.013144819 0.017484758 0.019110732 0.024365716
-0.015518914 0.0173129 0.037951507 0.0114662545 -0.0069922213 -0.01914276 0.049831357 -0.03911473
0.018522898 0.017414585 -0.028565524 -0.026561584 -0.015189021 -0.018196695 0.018045263 -0.024530414
0.055858426 0.050782274 0.04559444 0.031010557 0.011416481 0.004791934 -0.03201676 -0.0007056908

fc3.weight f4 [2, 256]
00000000: ad27 99bb 29b9 5abc e7bc 05bb 8989 773b
00000010: d87b ca3a e08a ba39 19e5 1ebc f79e f9ba
00000020: 901c 37bc 5cb4 ce3a 92c4 babb 3531 60bb
00000030: 88a5 20bb e638 4dba 2ba5 4b3b 8782 98bb
00000040: 1b51 c3ba b169 86bb 61e9 f8bb 4af0 c3ba
00000050: 3085 06bc 7e5b f6bb 177a 11bc 9ded 09bc
00000060: fa20 9c38 b0fb a3b9 6055 5abc d020 66bc
00000070: cc79 cbbb 1b6d 9bbb a88d 763a 3367 2dbc
00000080: 4808 48bc 96e0 1dbb 2d38 52bc 559f 4cbc
00000090: 718a 97ba 562e 1f3a e9be c5ba fa54 0dbc
000000a0: 18ef 48bb bf5d b33a 9199 6cbb 4194 20bc
000000b0: b920 48bb 8458 f8bb 3846 393a 1e4e cabb
000000c0: 24fd 62bc 769b 22bc 8736 cabb dc76 06bc
000000d0: cf4a 25bc cfa0 ee3a f03a 853b de8a 3dbc
000000e0: feb3 64bc 1f5f 54bc a962 0cbc 7917 27bc
000000f0: b19e e03a 3b59 353b f4c9 8f3b 5516 5cbc
00000100: abad b2ba e3bf 2abc 341b 1bbb 683d c4bb
00000110: 04b0 e3b9 7630 323a c160 1fbc 4b7e 11bc
00000120: aead 4abc c9a2 72bc 3b4a 1bbc 1242 e0bb
00000130: b870 3c3c 502e 4aba 38ea 9fbb 127a 0e3b
00000140: 3554 5fbc 9c4a f5bb e8be 083a 5c34 48bb
00000150: 5f45 a23b e5bf a739 98cd dbbb 7548 f7bb
00000160: d392 a3ba e5eb 51bb 81cb d039 c7d6 42ba
00000170: 9b8f 59bc 2bfd 11b9 1806 49bc 44b6 2fbb
00000180: 9eaf cb3a 2200 0bbc 1ae8 953b 5724 eebb
00000190: 23b0 47bb 796d c43a c05a 1b39 b364 fabb
000001a0: bd29 eeba b583 11bc c2df cfbb 9a2d 30bc
000001b0: 4d5a 04bc 8b8a fabb 3352 283b ddac 6abc
000001c0: 7351 353c feac e6bb 2629 24bb 8c5e 01bb
000001d0: 15e0 76bb b1eb 643b 3245 33bb 4337 2cbb
000001e0: c157 aa3a 979f 06bc c5b1 66bc 6597 d2bb
000001f0: 11aa f9bb 308f 2dbc 6deb 4439 e73e e8ba
00000200: 3720 04bb 3bde a1bb 8a03 eaba 39f0 0bbc
00000210: e414 27bc 0167 94bc 4979 67bc 5584 95bc
00000220: c27c 0ebc 2529 95b9 8cef 3ebc cd10 f9bb
00000230: 010f dfb9 1fcd 6dbc 8c30 f0bb a2bf c9bb
00000240: 5625 45b8 d132 ceba 328d b6bb 0d7e f8ba
00000250: 6b3f 42bc ec41 1b3b 789c 9bbb c4be 46ba
00000260: f811 32bc f480 03ba 91e6 aaba 84bb 33bc
00000270: a4ad 7eba 82c5 09bc f103 243a ca53 b1ba
00000280: 4bd5 07bc 4b6f aabb 30e5 1cbc b5ce 273b
00000290: c5bf d7bb 03cb 12bc 7438 7fba fbd3 e9b9
000002a0: 5b34 26bc f08d 1ebc de97 edbb c212 aebb
000002b0: 674a 21bc 0f27 e9bb b9cd c0b9 972e cebb
000002c0: 3c3f 04bc 1ad2 3cbc 8af7 2abb 218a fc3a
000002d0: 98d4 45bc 5e8b 16bc 0111 5abc eaff 7abb
000002e0: 9289 3c3b a3e4 2bb9 5bf6 cc3b 5195 45bb
000002f0: 408a 5ebc 162e cabb 8bc6 92bc 228f 59bc
00000300: 4cbb 81bc a52f 38bb 0411 3abc 0a96 8a3b
00000310: b0ae 78ba 20bc 4abb f5b7 34bc b021 80bb
00000320: c1f1 17bc 5e73 80bc 6fdc 6abc 6caa 6fbc
00000330: 53f6 a33a 0b35 e6ba a0fe c63a 8191 4cbb
00000340: ec97 15bb 106e 493b fce3 bfbb 96cb 57bc
00000350: a0b4 e7bb e420 cebb 8170 7fbc afc8 f9bb
00000360: 43a7 06bc b24c 413b c87e b8bb 99f9 5abc
00000370: fb0e 2bbc 47d0 d5bb 3183 acbb dd12 8bba
00000380: e6ee 8bbc 5dcb c2bb 68d0 0fbb 1a2e 19bc
00000390: 3ab0 03bc 3784 42bb 9f5b 033b c894 f5bb
000003a0: 3a85 0dbc 1157 2dbc a23f a1bb 7341 0dbc
000003b0: 49b5 c3bb 9b9d d6ba a635 21bc b06e 81bb
000003c0: 5a01 0ebc 4695 1b3b 1fd5 a43a 0593 2dbc
000003d0: 5e51 2abc 6fc4 09bc 6c32 babb db01 c43a
000003e0: 6a5d 08bc e209 f0bb 41fa 86bb dc38 4e3b
000003f0: cf5e 6a3a 34b4 be3b b22e e5bb 4d04 3dbc
-0.004673919 -0.01334981 -0.0020406784 0.0037771186 0.0015448285 0.00035580155 -0.009698176 -0.0019044568
-0.011176243 0.0015770304 -0.0056997025 -0.0034209017 -0.0024512727 -0.0007828608 0.003107379 -0.004654232
-0.0014901491 -0.004101955 -0.0075961803 -0.0014948931 -0.008210465 -0.007518231 -0.008879206 -0.008418468
7.444802e-05 -0.00031277305 -0.013326019 -0.014045909 -0.0062095877 -0.004743231 0.00094052637 -0.010583687
-0.012209006 -0.0024090162 -0.012830776 -0.01248916 -0.0011561644 0.0006072273 -0.0015086803 -0.008626217
-0.003066009 0.0013684555 -0.0036102275 -0.0098009715 -0.0030537082 -0.0075789113 0.00070676534 -0.006173863
-0.013854299 -0.00992476 -0.006171051 -0.008207049 -0.010088637 0.0018205884 0.004065864 -0.011568753
-0.013958929 -0.012962132 -0.008568444 -0.010198467 0.0017137137 0.0027671594 0.0043880884 -0.013433059
-0.0013632079 -0.010421726 -0.0023667337 -0.0059887655 -0.00043427956 0.00067973824 -0.009727658 -0.008880208
-0.01237051 -0.014809319 -0.009478147 -0.0068438137 0.011501484 -0.00077125896 -0.004880216 0.002174024
-0.013630916 -0.007485701 0.00052164355 -0.0030548787 0.0049521173 0.00031995695 -0.0067078583 -0.0075464793
-0.001247967 -0.0032031473 0.00039824474 -0.0007432517 -0.013278867 -0.0001392259 -0.012269519 -0.002681152
0.0015540009 -0.008483918 0.004574788 -0.0072675156 -0.0030469976 0.0014986239 0.00014815759 -0.007641399
-0.0018170398 -0.008881499 -0.0063438127 -0.01075306 -0.00807817 -0.00764591 0.002568376 -0.01432344
0.011066782 -0.0070396652 -0.002504894 -0.0019740192 -0.0037670184 0.0034930522 -0.0027354476 -0.0026278056
0.0012996123 -0.00821676 -0.0140804695 -0.006426739 -0.0076191504 -0.010593221 0.0001877972 -0.0017718942
-0.0020160803 -0.004939822 -0.0017853838 -0.00854116 -0.010197852 -0.018115522 -0.014128038 -0.018251577
-0.008696737 -0.0002845015 -0.011653792 -0.0076008798 -0.00042545053 -0.014514237 -0.007330006 -0.0061568776
-4.7003232e-05 -0.0015731697 -0.005571031 -0.0018958464 -0.01185594 0.0023690416 -0.004748877 -0.0007581527
-0.010868542 -0.0005016469 -0.0013038685 -0.01097 -0.00097152055 -0.008408906 0.0006256691 -0.0013528999
-0.008290599 -0.0052012554 -0.009576127 0.0025605385 -0.00658414 -0.008959535 -0.000973589 -0.0004459916
-0.010144318 -0.009677395 -0.00725077 -0.0053122947 -0.009844399 -0.007115252 -0.0003677437 -0.006292175
-0.008071717 -0.0115247015 -0.0026087486 0.001926724 -0.012074612 -0.009188501 -0.013309718 -0.003829951
0.0028768522 -0.00016393005 0.006254954 -0.0030148814 -0.013582766 -0.0061700447 -0.017916938 -0.013278754
-0.01583638 -0.002810457 -0.011356596 0.004229312 -0.00094864797 -0.0030934885 -0.011030187 -0.003910266
-0.009273947 -0.015680011 -0.014334782 -0.014628034 0.0012509323 -0.0017563415 0.0015182085 -0.0031214657
-0.0022826148 0.0030735768 -0.0058560353 -0.013171097 -0.0070710927 -0.006290542 -0.015590788 -0.0076228003
-0.008218589 0.0029495177 -0.005630348 -0.013365173 -0.010440583 -0.0065250727 -0.0052646627 -0.001061048
-0.01708169 -0.005944653 -0.0021944288 -0.00934937 -0.008037621 -0.0029680857 0.0020043624 -0.0074945427
-0.008637721 -0.01057984 -0.0049209157 -0.008621561 -0.0059725386 -0.0016373874 -0.009839451 -0.0039499626
-0.008667314 0.0023740097 0.0012575722 -0.010594134 -0.010395376 -0.00840865 -0.0056822803 0.0014954166
-0.008323053 -0.007325397 -0.004119188 0.0031466996 0.0008940519 0.0058198217 -0.006994092 -0.01153667

fc3.bias f4 [2]
00000000: c252 363d 3f50 6f3d
0.044512518 0.058426138
