projects/tennis/checkpoint/RE26/RE26.01_actor0_15000.pt (torch_old, 453689 bytes, 6 tensors)

fc1.weight f4 [400, 24]
000000 9e 2b 08 bd d5 22 98 bd 1c 5b 3a ba 07 16 60 bd
       -0.03324472 -0.07428519 -0.0007108913 -0.054708507
000010 56 b0 0b 3c cc 24 f9 3c 24 37 b9 bb a3 f1 d0 bc
       0.0085259285 0.030413054 -0.005652325 -0.025505846
000020 ea 8a df 3c 34 10 28 bd ae 2c 53 bc 0a e0 2a bd
       0.02728792 -0.041031078 -0.01288907 -0.041717567
000030 cd 61 3e ba 1c a7 e6 bb b5 d2 de bc 04 7c 8d bd
       -0.0007262498 -0.007038964 -0.027200082 -0.0690842
000040 f6 73 e1 3c 8b ca 1d 3c 8a 74 a3 bc 4e fe eb bc
       0.027521115 0.00963081 -0.019953031 -0.028807785
000050 23 b8 e3 bb 2f 32 56 3d 7d ca 8b 3d a7 aa 07 bd
       -0.006949441 0.052293953 0.06825731 -0.03312173
000060 0e a5 2a bd e1 06 de bb e4 2c 45 3c 96 87 09 bd
       -0.041661315 -0.0067757224 0.012034629 -0.03357657
000070 dc 4f 4c bd ec 01 5d 3d 60 c9 89 3c 0a 46 dc bb
       -0.049880847 0.05395691 0.016819656 -0.0067222165
000080 e7 6d 9c 3c 31 1d f4 bc 40 e6 8e 3c f8 30 2a bd
       0.019095374 -0.029799076 0.017443776 -0.041550606
000090 34 81 34 bd fd 7f 1a 3d fc 70 c8 3c 54 fe 03 3d
       -0.04406853 0.037719715 0.024467938 0.032224968
0000a0 df 3c 19 bd 27 a9 d0 bc 96 ef 10 bc 31 cf 00 bd
       -0.037411567 -0.025471283 -0.008846184 -0.031447593
0000b0 a1 41 82 bd 00 64 fd 3c dc 89 eb 3c 67 cc 46 bc
       -0.06360174 0.030931473 0.02875226 -0.012133694
0000c0 60 74 a2 b9 12 64 3a bc 8f 6c bf bc c5 32 02 bd
       -0.00030985754 -0.011376398 -0.023367194 -0.0317867
0000d0 62 17 00 3d 00 59 27 3d ad 94 09 3d 13 31 0b bd
       0.0312723 0.04085636 0.033589054 -0.033982348
0000e0 fb fc 30 bc 40 70 78 bc b0 eb b4 bc 13 8f fa bc
       -0.010802503 -0.015163481 -0.02208504 -0.030585801
0000f0 29 7a 81 bc a0 c0 bc 3c d8 1a 06 3d 3e 3b 0d bd
       -0.01580532 0.02304107 0.032740444 -0.034480326
000100 8c ec 5d 3c 14 82 55 3d 3d b0 4c 3d 6b b8 72 bd
       0.013545167 0.052126005 0.04997276 -0.059257906
000110 ae 4a 47 bd eb 3a 7d bd 25 e5 73 3d 95 40 26 bd
       -0.048655204 -0.061823767 0.0595447 -0.040588934
000120 9d 91 b4 bb c7 5b 64 bc f4 2d c2 3a 76 77 37 3d
       -0.0055105225 -0.013937897 0.001481472 0.04479166
000130 c9 b3 7b 3d 92 97 b3 bc 20 a8 30 bd c9 fd 1c bd
       0.061450753 -0.02192286 -0.043129086 -0.038327966
000140 60 7f f4 3c b1 64 30 bc 01 62 66 3d c3 0c 24 3d
       0.029845893 -0.010766194 0.056245808 0.040051233
000150 34 85 8e 3d 11 04 d1 bc 3a 9d 7a b8 b8 53 a7 bc
       0.06959 -0.025514634 -5.9751073e-05 -0.020425662
000160 2d 07 e5 ba 83 2c 52 bc 2c 26 cb bb 36 6c 38 3c
       -0.0017473452 -0.012827995 -0.006199619 0.011256268
000170 d2 29 7b bc 85 cd 61 3d 7c 15 2c 3d 0a 91 10 3c
       -0.015329795 0.05512764 0.042012677 0.0088236425
000180 38 83 bb 3c cc b5 84 bc 4e 09 17 3d 6c ff 0c bd
       0.022889718 -0.016199969 0.036874108 -0.034423277
000190 0f 5e 8e 3d 65 ee 61 3c c9 21 7f 3d b9 8f 68 bb
       0.06951534 0.013789748 0.06228808 -0.0035486056
0001a0 22 50 fe 3b 39 07 4e bd e3 90 34 3d ff 7a 5e 3d
       0.0077610174 -0.050299857 0.044083487 0.054316517
0001b0 2b 9c 4e 3d 22 2b 5a bd 5c ad 59 bc 01 a0 0b 3d
       0.050441902 -0.05326379 -0.013285961 0.03408814
0001c0 db 58 22 bd a1 53 a3 3c d6 b1 df bc 6b e1 7e 3c
       -0.03963552 0.019937338 -0.027306478 0.0155566735
0001d0 91 8d 76 3d 11 f3 27 bd a8 f4 ab 3b 47 fb 34 bd
       0.060193602 -0.04100329 0.005247671 -0.04418495
0001e0 27 b1 fd bc 31 23 2d bd 55 b8 bd bc e7 cf a3 3c
       -0.030968262 -0.04226989 -0.023159185 0.019996597
0001f0 e9 bd bc 3c 10 5b aa 3d b6 2d 0f bc b7 ae 7d bd
       0.023039775 0.0831815 -0.008738926 -0.0619342
000200 ad 37 3c bc 11 8c 82 bd 50 b3 71 bd 88 3c b1 3c
       -0.0114878835 -0.06374372 -0.059008896 0.021635309
000210 b2 26 b2 bc 64 3c 85 3d 3c 5f e8 bb cd fe 26 bd
       -0.021746967 0.06505659 -0.007091431 -0.04077034
000220 be 81 88 3c da 79 84 bc 87 a4 da 3c 08 22 2e 3d
       0.016663428 -0.016171385 0.02668978 0.042512923
000230 82 69 f4 3c d2 16 32 3d e9 ac 36 3d 41 fd 43 3c
       0.029835466 0.043478794 0.044598494 0.011962236
000240 d2 ba 79 bc 1d 3d 3c bd 46 e4 6d bd 25 c3 0f 3c
       -0.015242295 -0.04595672 -0.058079027 0.008774553
000250 80 1b 11 bd a8 e1 02 3d a4 7a 0f 3d 7f 17 29 3d
       -0.035426617 0.031953484 0.03502907 0.041282173
000260 f6 42 1e bd bb 4e 78 bc 1f 60 0e bc 6b 2d b5 3c
       -0.038638078 -0.01515549 -0.008689909 0.022116384
000270 f9 92 cb bc a8 8e 99 3c 38 5c 3b bd 1b 12 03 3d
       -0.024850355 0.018744782 -0.045742244 0.03199969
000280 6b b0 01 bc 80 9b 15 bd 7c 07 11 bd 3c cc 2e bb
       -0.0079155965 -0.03652525 -0.03540753 -0.0026672026
000290 9d 6b 8b ba b0 4a 96 3d 88 1b 3d bd 33 3b e9 3c
       -0.001063693 0.07338464 -0.046168834 0.028470611
0002a0 dc e1 54 bd 31 c5 31 3c e3 e8 83 bd 32 03 45 3b
       -0.05197321 0.010850237 -0.06440904 0.003006172
0002b0 c9 3a 1d bd 02 01 ec 3b 5f 43 ca 3c 5b f7 2d 3d
       -0.03838614 0.0072022686 0.024690328 0.042472225
0002c0 21 d0 27 3a 83 34 1c 3d 61 20 38 bd 0d 71 ef 3c
       0.0006401558 0.038136017 -0.044952754 0.029228712
0002d0 69 06 2e bd 45 2a 60 bc e9 26 41 bb aa 4c fe 3c
       -0.042486582 -0.013681953 -0.0029472655 0.031042416
0002e0 3b df 04 bd 6b 10 74 bd b1 9e 54 bd 50 14 aa 3c
       -0.03243945 -0.05958597 -0.051909152 0.020761639
0002f0 3c 94 bf bb e9 d0 a2 3c 2c 16 98 3c fa db ea bc
       -0.0058465283 0.019875007 0.01856526 -0.028669346
000300 86 e2 ff bb 2e 4b 83 3b 19 68 c4 bc 1f f1 30 bd
       -0.007808986 0.004006765 -0.023975419 -0.0431987
000310 00 c9 20 3c 7c 81 cb bb ac a4 71 bd d5 52 27 bb
       0.009813547 -0.006210504 -0.058994934 -0.002553155
000320 5a d5 ef bc 02 f9 12 bd 65 b8 5a bc 5a 7b 68 bd
       -0.029276539 -0.035882004 -0.013349627 -0.056758262
000330 da 74 1c bd 64 d9 14 3c a1 1a 5f bc 9f 61 66 3c
       -0.038197376 0.009085033 -0.013617189 0.014061361
000340 77 45 c3 3c b9 a1 1e 3a e6 4e 7f bd f0 3f 15 3d
       0.023836834 0.000605132 -0.062331103 0.03643793
000350 df 48 1f bd f4 09 87 3d 63 ef 49 bd b3 4f 40 bd
       -0.038887855 0.06593695 -0.049300563 -0.046951007
000360 c6 d1 b3 3c 2b 5e 84 3c d8 22 0e bd 4d ca 8d bb
       0.021950614 0.016158184 -0.0347012 -0.0043270946
000370 98 6a 4b 3d 73 6d ff 3c 8b 0c 51 bd c3 e3 ce bb
       0.049662203 0.03118012 -0.051037353 -0.0063137724
000380 37 3f 67 3d 4f 72 1f 3c 27 73 be 3c 71 fe 28 3d
       0.05645677 0.009731843 0.023248268 0.04125828
000390 54 cc 81 3d 3e 10 b3 bb ce a5 e0 3c 23 de 47 ba
       0.063378006 -0.0054645827 0.027422812 -0.00076243485
0003a0 64 35 05 bd ba 6d 45 bd 85 04 35 bc 9b 7d a5 3c
       -0.03252162 -0.048200347 -0.011048441 0.020201495
0003b0 c5 41 64 3c 07 e9 84 3d be c3 d9 3c 82 8f 71 bd
       0.013931696 0.06489759 0.026582595 -0.05897475
0003c0 d0 92 93 bc a0 e7 43 bb 1f 15 21 bd 00 fc 84 3c
       -0.018014342 -0.0029892698 -0.039326783 0.016233444
0003d0 96 80 1b 3d 22 f0 72 bd d0 35 d4 bc 6e d9 1f bd
       0.037964426 -0.05931104 -0.025904566 -0.039025716
0003e0 70 5c 17 3c 28 31 9e 3d d6 e8 3a 3c ec 1a b5 3c
       0.009238347 0.077242196 0.0114080515 0.022107564
0003f0 30 aa fe 3c 24 e6 29 bd 43 bc 65 3b 7e 4e 08 bd
       0.031087011 -0.041479245 0.003505484 -0.03327798

fc1.bias f4 [400]
000000 fc ce 06 be 0a 85 90 bc ea c8 c2 bd d5 a8 2f bd
       -0.13164896 -0.017641563 -0.095109776 -0.04288562
000010 6a 94 ce 3d 59 34 21 be 62 d7 42 be 1f c5 49 3d
       0.100869015 -0.15742625 -0.19027475 0.049260255
000020 44 b1 3e 3e f0 81 d2 3c e5 c6 6f 3e b3 2a fa 3c
       0.18622309 0.025696725 0.23415716 0.030537939
000030 bb b1 b6 bd 57 a9 61 3e c1 ef d1 3d 42 2f 17 be
       -0.08920618 0.22037254 0.102508076 -0.14764121
000040 98 5d 3e be d7 f3 e4 3d 1a e6 2b bd fb 12 53 3e
       -0.1859039 0.11179321 -0.04196749 0.20612709
000050 28 cf 94 bd 69 5c de 3d 44 c0 8c bd 93 51 fc 3d
       -0.072660744 0.108574696 -0.06872609 0.123202465
000060 86 4d 34 3e f3 31 f9 bd 28 63 b7 3d e5 ab f9 bd
       0.17607698 -0.1216773 0.089544594 -0.121909894
000070 af b9 c8 bd 05 80 e2 bd 99 a1 32 bd 82 57 31 be
       -0.09801041 -0.11059574 -0.043611143 -0.17318538
000080 71 03 28 be 26 e1 02 3e 96 dc a3 3d 3e 35 fe bd
       -0.16407563 0.127812 0.08001058 -0.12412499
000090 29 73 38 3c 7a 79 36 3e 9e 7a 3d 3e 27 2b 95 bc
       0.011257925 0.17819777 0.18503806 -0.018209053
0000a0 73 52 f1 3d 00 aa 18 be 66 b1 30 3e e6 f3 15 be
       0.11783304 -0.149086 0.17255172 -0.14643821
0000b0 be 0d 12 3e bb 29 1e be 0c 5a 1e 3c a3 c1 fb bd
       0.14263055 -0.15445606 0.009665024 -0.12292793
0000c0 78 01 4b 3e ca 06 be bb 13 82 03 3d 80 23 36 3e
       0.19824779 -0.005799149 0.03210647 0.1778698
0000d0 82 25 bf 3b e6 6d b1 bc b6 f1 07 3e 68 25 8e bd
       0.0058333287 -0.021658849 0.13275799 -0.069407284
0000e0 6b 24 82 bb 09 84 3d bd f9 97 ad bd 0b 0c f9 bd
       -0.0039716265 -0.046268497 -0.08476252 -0.121605
0000f0 8f f7 1f 3e 76 68 20 3e 3b b7 89 bb 1f ba e5 3c
       0.1562178 0.15664849 -0.004202751 0.028042851
000100 b2 aa 09 3d d0 84 ad 3c 85 8d b8 bc 8c de 86 3c
       0.033610053 0.021181494 -0.02252842 0.01646354
000110 f5 8b 27 bd 63 b9 6a be 1b 9b 2e 3e 35 21 ce 3c
       -0.040904958 -0.22922282 0.17051356 0.025162319
000120 e4 66 34 bc 72 13 97 3d 99 26 2b be 1b 76 03 bc
       -0.011010859 0.07376756 -0.16713943 -0.008023764
000130 80 d5 fd 3d 7e 2d 38 3d 87 a2 cf 3d 7b 07 91 bd
       0.123942375 0.04496526 0.101384215 -0.07081505
000140 63 0d 0e 3e 20 72 2b 3d 46 2f 25 3e 1e 32 cf bd
       0.13872294 0.041856885 0.16131315 -0.10116981
000150 8e d0 e6 3d 3a 83 20 be 76 55 f3 3d 47 09 0b be
       0.112702474 -0.15675059 0.11881535 -0.13577758
000160 d8 ec d7 3d 05 e8 3c 3e 33 9b 5d bd 03 6d bf bd
       0.10543221 0.18447883 -0.054103088 -0.09346964
000170 0a 65 dc bc 1f 5c 15 be 2b 1b 3e be e8 71 36 3e
       -0.026903648 -0.14585923 -0.18565051 0.1781689
000180 07 0b cd bd ce 24 fa 3d d9 d4 41 3e a9 b8 9d bb
       -0.10011869 0.12214051 0.18928851 -0.004813273
000190 86 53 12 be 80 e2 15 be 29 0f f7 3d dd b9 20 3c
       -0.14289674 -0.14637184 0.120634384 0.009809938
0001a0 79 29 dd 3c 7b 58 09 3e a8 cd eb bd a3 47 a1 bd
       0.026997315 0.13412659 -0.11513835 -0.07874992
0001b0 6d 59 ce bd 40 3c ef bd 1c 23 0c 3e 0c 45 d0 3c
       -0.1007565 -0.11681414 0.13685268 0.02542355
0001c0 f2 80 f2 bd a0 f2 11 bd f9 bc ac 3d 05 30 13 3e
       -0.118410006 -0.035631776 0.08434481 0.14373787
0001d0 9c 51 b3 3d ff 86 aa 3d b4 9e 86 bd de c1 11 3e
       0.087558 0.0832653 -0.06573239 0.1423411
0001e0 8f 2c fa 3d 69 c3 30 be b3 0c b6 3d 0a 33 2b be
       0.1221553 -0.17262043 0.08889141 -0.16718689
0001f0 02 fd d9 bd 00 83 27 3e ea ce 61 bd 70 c3 2b be
       -0.106439605 0.16358566 -0.05512897 -0.16773772
000200 20 c3 c1 3d e1 84 82 3d 0c 2b 5d 3c e3 b6 16 be
       0.09461045 0.06373001 0.013499033 -0.14718203
000210 58 7b c5 bd 8b 62 42 3e 81 30 be bc 7f 08 13 be
       -0.096426666 0.18982904 -0.023216488 -0.1435871
000220 c7 19 4e 3e 1c 79 41 be 66 57 18 3e d9 f2 43 3e
       0.20127021 -0.18893856 0.1487709 0.19135608
000230 fd 86 2d 3e f2 f3 00 3e db 2f e5 3d 63 d0 2d 3e
       0.16946025 0.12593058 0.11190768 0.16974024
000240 7c 59 c3 3d c0 e5 55 bd 76 08 02 3d 24 89 f5 bd
       0.09538552 -0.05222106 0.03174635 -0.11989048
000250 60 6a c6 bd 51 d4 0a be 3b 80 12 be 3f 64 2d be
       -0.09688258 -0.13557555 -0.14306729 -0.16932772
000260 ca 15 9f 3d e0 7c 0f be 13 68 11 be 3e 39 4d be
       0.07767828 -0.1401248 -0.14199857 -0.20041367
000270 e4 00 0c bd 44 85 71 bd c7 53 47 3e b8 a6 1a 3e
       -0.034180537 -0.058964983 0.19465552 0.1510266
000280 92 3e 22 bd 39 fe 41 3e 50 b5 54 bd 13 06 a1 3d
       -0.039610453 0.18944634 -0.051930726 0.07862487
000290 b5 2b 2b be 5a c0 ec 3d 0e 40 a5 bd 10 81 2d 3c
       -0.16715892 0.11560126 -0.08068858 0.010589853
0002a0 c7 52 33 3d 0d 0c 34 3d db 4e e0 bd 94 27 a7 bd
       0.043780115 0.043956805 -0.109525405 -0.08161846
0002b0 47 ba 1c 3d 80 41 9f 3d 42 88 ad 3d a2 69 56 bd
       0.038263585 0.07776165 0.08473255 -0.052346833
0002c0 14 dd 16 3e c4 e9 f8 bd 41 63 26 3d c2 d9 cc bc
       0.14732772 -0.12153962 0.040622 -0.025006179
0002d0 f7 03 b3 3c fb 98 d4 3c d7 73 f5 bc 52 b1 e8 bd
       0.021852477 0.025951853 -0.029962463 -0.11361946
0002e0 8c b1 8b 3c ea 51 9e 3d 6d b5 a1 3d 8e de 5c 3d
       0.017052434 0.077304676 0.07895932 0.053923182
0002f0 01 e7 7e bd 6e 62 02 3e 45 a8 50 bc 75 95 08 be
       -0.06223202 0.1273286 -0.012735431 -0.13338263
000300 10 2a a4 bd 36 57 cf 3d 3f 41 46 be 51 39 4a 3e
       -0.08015835 0.10124056 -0.19360827 0.19748427
000310 4b 90 ca bd 42 33 2d bc dc 67 19 be 72 18 c7 bd
       -0.09890803 -0.010571303 -0.14981025 -0.097214594
000320 5c 13 2b 3e 72 95 ed bd 9e fc 60 3d 99 69 e3 3d
       0.16706604 -0.1160077 0.054928415 0.111041255
000330 71 c5 09 be 46 c9 93 bd 26 3e 48 be b0 a8 be 3d
       -0.13454224 -0.07216124 -0.19554958 0.09309518
000340 bb 5b d0 3d 92 92 93 3c 20 dd 06 be 82 1b 61 3d
       0.10173746 0.018014226 -0.1317029 0.054957874
000350 3f 93 00 3e df 72 b8 3d 21 5e e6 3d ec e1 1e 3e
       0.1255617 0.09006285 0.112484224 0.1551587
000360 79 fe c6 bd 75 bf 02 3b 75 6d 26 3e 6f ba 36 be
       -0.097165056 0.0019950543 0.16252692 -0.17844556
000370 1b f9 02 3e dd 2e 03 3e 64 d6 18 3e 5d 1b a2 bd
       0.12790339 0.12810846 0.14925534 -0.079153754
000380 b0 d5 3a be 1f 21 2d 3d 2d 68 3c 3e 86 5b 7a 3d
       -0.18245578 0.042267915 0.18399115 0.06112244
000390 cc 28 20 bd 6d 5d 16 be 3b 87 57 bd 96 3b af 3d
       -0.039101407 -0.14684077 -0.0526192 0.08556287
0003a0 f6 05 b1 3d 4f 64 10 3e 66 48 37 be f9 7b 67 3d
       0.08643715 0.14100765 -0.17898712 0.056514714
0003b0 74 0d 02 3d 2e b5 de 3c c1 c5 56 bc 33 08 b6 bd
       0.03175111 0.027186003 -0.013108672 -0.088882826
0003c0 e0 fa b1 bd d4 61 35 be 1e 23 94 bd b5 4e 74 3d
       -0.08690429 -0.177131 -0.072332606 0.059645373
0003d0 11 9e 11 3e 4b 7c 27 3e fc ac 65 3e cd 81 da 3d
       0.14220454 0.16356008 0.2242927 0.10669289
0003e0 9d 5d 9f bd 07 fb 1a be 40 ed 01 be 00 b7 16 be
       -0.07781527 -0.15134822 -0.1268816 -0.14718246
0003f0 9f 19 dc bd a4 4e 41 3d 06 f7 31 3e 54 4c 29 bc
       -0.10747074 0.04719414 0.17379388 -0.010333139

fc2.weight f4 [256, 400]
000000 ba 2c ef bc 84 46 8e 3d e0 41 11 3b 83 98 9f bb
       -0.029196132 0.069470435 0.0022164509 -0.0048704757
000010 d2 12 02 bc be 6f 06 bd 3f cc e6 3b 8c 46 0b 3d
       -0.007939057 -0.03282141 0.007043391 0.034002826
000020 ab 7a 40 3d 98 db aa 3c a5 d1 2c bd 9b 98 c3 3c
       0.046991985 0.020856664 -0.04219212 0.023876479
000030 7e 7a c6 3c 17 c8 26 3d 4f 54 b5 bc 98 21 49 3d
       0.02422833 0.040718164 -0.022134928 0.049104303
000040 e2 00 89 bc 23 ec 1f 3d 57 b3 f6 bc ef 0e 1d bd
       -0.016724054 0.039043557 -0.030114813 -0.03834432
000050 b1 0a 63 3d cb ba 64 bb 53 4d f4 bb c7 e5 3f bd
       0.055430118 -0.0034901376 -0.007455507 -0.046849992
000060 69 26 10 3d d8 fd 21 bd 14 6a 03 bd c8 55 f1 bc
       0.03519288 -0.039548725 -0.032083586 -0.029459849
000070 fa 95 93 3c 29 5a 85 3d db d5 7e bc 5c 9f 2d bd
       0.01801585 0.06511337 -0.015553917 -0.042388305
000080 cc b6 5e bd 76 88 a6 bb e0 d7 57 bc a9 21 44 bc
       -0.054373547 -0.0050821854 -0.013174027 -0.011970916
000090 98 7c 3b bd 55 43 9f 3c f2 47 58 3d 24 d4 8e 3d
       -0.04577312 0.019441286 0.052802987 0.06974056
0000a0 a3 b6 e1 3c 6c 72 7b 3c 7f 4a 75 3d 23 9f 4d bd
       0.027552908 0.0153471045 0.059885498 -0.050200593
0000b0 aa b4 63 3d 27 cd 13 39 49 0e 81 3d 5f ea dc 3c
       0.055592217 0.00014095438 0.06301553 0.026967226
0000c0 5a fd 7f 3d 41 42 9b 3b 54 f0 21 bc ea aa 8e bb
       0.062497474 0.0047381227 -0.009883959 -0.0043538706
0000d0 b1 b8 4e bd 0e 79 36 3c a3 57 f5 bc 74 62 7d 3d
       -0.050469104 0.01113726 -0.029949015 0.06186147
0000e0 82 95 26 3d 96 06 86 3d 49 ed b3 3c e1 fb 28 3c
       0.040669926 0.06544225 0.021963732 0.010313959
0000f0 18 e6 d6 bc e1 34 76 3d ca 20 5d 3d 14 5a 85 3d
       -0.026232764 0.060109023 0.05398635 0.06511322
000100 66 a5 c0 bc 9d 60 9f 3b b4 5b 26 3c c9 66 f1 3c
       -0.023516368 0.004863812 0.0101537 0.029467957
000110 39 ea 04 bd 56 b2 7d bc cf 7a d4 bc 83 d7 7f 3d
       -0.032449935 -0.015484413 -0.025937466 0.062461387
000120 28 11 58 3d 3e 33 34 bd 7b bb f3 3a ef 80 91 3d
       0.052750736 -0.04399418 0.0018595302 0.0710467
000130 e1 e5 4f 3d df 00 64 3d b1 5a 4e 3c 07 f1 18 3d
       0.05075634 0.055664893 0.012594865 0.037339237
000140 54 03 b1 3a ab 30 84 3b 01 a7 b0 3c 96 ef cd bc
       0.001350502 0.004034122 0.021564009 -0.025138658
000150 3d f1 1c bd 44 ea 35 bd ee d6 76 3d 4e ce 58 3d
       -0.038316 -0.044412866 0.060263567 0.052931122
000160 a6 77 d6 bb 8d ce 1c bd 6f e6 35 3b 08 b5 55 3c
       -0.006545025 -0.03828292 0.0027755757 0.0130436495
000170 2e df c3 3c 81 4e 6e 3d 58 3c bb 3c 5f 88 7a 3d
       0.023910131 0.058180336 0.022855923 0.06116521
000180 d0 44 45 bd 1d d9 8a bc 84 d5 21 3d f9 c0 2d 3c
       -0.048161328 -0.01694923 0.039510265 0.01060509
000190 2c 9c 19 bd f9 52 cd 3c d4 d8 77 bc 79 4c 89 3d
       -0.037502453 0.025063979 -0.015127379 0.06704039
0001a0 47 e0 11 3c 02 3c 22 3b 77 80 3d 3d 2f 66 18 3d
       0.00890357 0.0024755006 0.04626509 0.037206825
0001b0 d2 1e 70 bc 52 1c 44 bd 87 31 14 3d 25 0f 1f bd
       -0.014655786 -0.04787857 0.036180045 -0.038832802
0001c0 07 c6 f3 3c b9 81 ec 3b f3 dd 1c bc a8 bd 24 bd
       0.029757513 0.0072176126 -0.009574401 -0.040219933
0001d0 de 7d b7 3c aa 65 45 bc ad 83 f3 3a 22 66 02 3d
       0.022398885 -0.012048164 0.0018578671 0.031835683
0001e0 08 3d 77 3d 63 bb 64 3c 99 15 78 3c 10 93 f4 bc
       0.06036094 0.013960692 0.015141868 -0.029855281
0001f0 b3 6c 00 3c 39 53 b9 3b 15 e1 ca bc 4c 76 2c bc
       0.007838416 0.005655673 -0.02476553 -0.010526251
000200 58 ef 0e 3d 01 0e b8 bc 28 94 76 3c 07 b4 38 3d
       0.034896225 -0.022467615 0.015049972 0.045093562
000210 77 36 a4 3c 72 29 00 bc 07 4a 5f 3d d7 ed 93 3c
       0.020045502 -0.007822381 0.054513957 0.018057747
000220 f0 d8 be bc 65 76 3f 3d 56 2b 17 bc 1a 5d 25 3d
       -0.023296803 0.04674377 -0.009226641 0.04037199
000230 c5 a5 f2 3c d3 be 2b 3c a9 b0 31 3c 5b 11 e9 3b
       0.02962006 0.010482508 0.010845342 0.0071126646
000240 04 42 53 bd 3f 03 81 bc 20 8f 1f 3d 0c b8 98 3c
       -0.05157663 -0.015748618 0.038954854 0.018642448
000250 66 05 44 3d 73 82 0d 3d 22 09 fe bc ec a3 b0 bb
       0.04785671 0.034548234 -0.031010214 -0.0053906348
000260 05 8c 2c bd 31 9e bd bc 2d ce 67 3b 14 15 d5 3c
       -0.04212572 -0.02314672 0.0035370693 0.026011027
000270 db 4f 4c 3d 28 cb 5b 3d b1 21 8d 3d 29 ff 0c 3c
       0.049880844 0.05366054 0.06891192 0.008605757
000280 a7 7d 0e 3d 1b 4a 86 bc 54 55 39 bd 27 2b 2b bd
       0.0347878 -0.016392758 -0.04524739 -0.0417892
000290 2f 71 fe 3b 2c 14 98 bc e1 3f e2 bc dd 92 c2 3c
       0.0077649574 -0.018564306 -0.02761835 0.02375167
0002a0 a4 eb f3 3a c6 19 85 3c ee a0 3c 3d dc 01 5e bd
       0.0018609655 0.016247641 0.046051912 -0.054200992
0002b0 21 7a b8 3a 8d a5 8b bc a8 13 f7 3c b6 43 5b bd
       0.0014074483 -0.017046714 0.03016074 -0.05353137
0002c0 bf 75 95 bc fe f3 ed bc 6e 28 88 3d c1 d0 3c bd
       -0.018244622 -0.029047009 0.06648336 -0.04609752
0002d0 27 13 66 3c a1 3b 57 bc 78 1a 69 3d cb 42 20 bd
       0.014042652 -0.013136775 0.05691001 -0.0391262
0002e0 8a 94 6e 3d fd 6a 32 bd 87 bf 00 3d 84 04 19 3d
       0.058247127 -0.043559063 0.031432655 0.037357822
0002f0 a3 1d 83 3b de 71 f6 bc 28 e2 2e bc ae e9 65 bd
       0.0040013357 -0.030083593 -0.010674037 -0.056131057
000300 7a 48 85 3d 92 37 bf bb 9c 4e 12 3d f2 10 5a bc
       0.065079644 -0.005835482 0.0357195 -0.013309704
000310 b4 80 20 bd 7c ff 0a bd 82 f6 8f 3d 6a fe 6d 3d
       -0.03918524 -0.033935055 0.070294395 0.058103956
000320 a0 ed 63 3c 11 3d 5d 3d ba 58 f9 bb 52 77 38 bc
       0.013911635 0.054013316 -0.007609454 -0.011258917
000330 d8 21 bd 3c 88 b3 c0 bc 76 2b 67 bb e7 66 17 3d
       0.023087427 -0.023523107 -0.0035273707 0.03696337
000340 a1 ca 16 bd e8 63 e8 3c 57 37 59 3d 46 c6 76 3d
       -0.036814336 0.028367952 0.05303129 0.060247682
000350 91 5e 20 3d 61 b7 7d bc 63 10 5a 3d 48 09 8e 3c
       0.039152686 -0.0154856155 0.053238284 0.01733841
000360 96 03 30 3c e7 c5 5a 3b 38 8a 80 3d b1 e3 ec bc
       0.010743042 0.003338212 0.06276363 -0.028917165
000370 e4 41 a5 bc 42 99 41 3d 6f 09 bd ba a4 d0 b7 3c
       -0.02017302 0.0472653 -0.0014422367 0.022438355
000380 ae 0a 8a bc e9 9e 2b bd fc f8 31 bd e9 b5 05 3d
       -0.016850796 -0.041899595 -0.04345034 0.032644186
000390 ab df e0 bc 54 36 5c 3d 0b bf 81 3d a9 0b 15 bd
       -0.027450403 0.05376275 0.06335267 -0.036388073
0003a0 e0 79 83 bd dc c1 2e bd 79 71 71 bc a8 20 49 bd
       -0.0641973 -0.042665347 -0.014736527 -0.04910341
0003b0 04 88 6a 3c ec 21 58 3d 62 e9 dd 3c f6 b0 d4 bc
       0.014314655 0.052766725 0.027088825 -0.025963288
0003c0 f7 89 d4 3c 36 b5 4f 3c 35 58 53 3d 5f a7 bd bc
       0.025944693 0.012677481 0.051597793 -0.023151098
0003d0 a3 b2 4e 3d 27 10 cd 3c 65 98 36 bc b5 a3 67 3d
       0.05046333 0.025032116 -0.011144732 0.056552608
0003e0 90 88 52 bd d9 cf 24 3d d6 68 33 bd 10 3c 48 3d
       -0.051399767 0.04023728 -0.04380115 0.048885405
0003f0 9b 05 47 bd 0c 62 2a 3d 1f f4 4f bd 43 fa 7a 3d
       -0.04858933 0.04159741 -0.05076992 0.061273824

fc2.bias f4 [256]
000000 5c ae ad bb 64 1d 72 bb 1d b4 66 3c ab 02 ae 3c
       -0.0053003263 -0.0036943788 0.014081028 0.021241507
000010 fe d1 5a bb 30 fa 0b 3b cc 75 e7 3c 03 09 1a bb
       -0.0033389325 0.002135884 0.028254412 -0.0023503907
000020 0e b3 f7 3b 15 ef 0f b9 09 4d 60 bc 65 ed f4 bc
       0.007559187 -0.00013726608 -0.013690242 -0.029898355
000030 e0 fe f7 3b fa 2d 51 bc ed a7 69 3c c5 d4 64 bc
       0.0075682253 -0.012767309 0.014261228 -0.013966744
000040 71 78 1a 3d 55 34 24 3d 5a 07 46 3d 7d d6 c0 bc
       0.037712518 0.04008897 0.048346855 -0.023539776
000050 bd c4 23 bd 78 cf 49 3c 68 4c b7 bc 00 99 4e 3c
       -0.039982546 0.012317531 -0.0223753 0.01260972
000060 05 8b 78 3d 19 cb db 3c a4 8d 75 bc 3a 3c f1 3c
       0.060679454 0.026830243 -0.014987383 0.029447664
000070 7a 3c 59 3d 44 b6 67 3d 5d 5e 91 3c 09 77 58 3d
       0.05303619 0.056570306 0.017745191 0.052847896
000080 38 38 20 3c 82 e9 2d 3c 2a 2c a0 bc d2 3c 81 bc
       0.009779029 0.010614755 -0.019552309 -0.015776072
000090 c2 b2 bc bc 01 32 88 bc 44 18 b2 3c ad 71 83 bc
       -0.023034457 -0.016625406 0.021740086 -0.016045416
0000a0 ff e8 e3 bc c4 b5 76 bc ff 63 f9 3a 93 cb 79 3d
       -0.027821062 -0.015057985 0.0019026994 0.06098516
0000b0 9a 75 00 bd 18 15 d1 bb 70 7d df 3c c0 0d 46 3d
       -0.031362154 -0.0063806884 0.027281493 0.048352957
0000c0 44 a2 82 bc 13 8a 44 3d 9b f8 33 bc 76 ce 44 3d
       -0.015946515 0.04798324 -0.010984565 0.04804846
0000d0 15 3e 75 3d 18 b8 41 3d 05 cb 58 3d c0 78 56 bc
       0.05987366 0.047294706 0.05292799 -0.0130903125
0000e0 e0 c4 48 3d 5c 99 1c 3d 4c 95 a5 3b 16 68 8f 3c
       0.04901588 0.038232192 0.005053198 0.017505687
0000f0 e1 86 cf bc 6f a8 cd bc 70 5f 5c 3d e3 ff ad ba
       -0.02533287 -0.02510473 0.053801954 -0.0013275113
000100 4a 5e 8b bb ad ed bb 3c 06 60 36 3c 73 ba 59 3d
       -0.0042531835 0.022940481 0.011131292 0.053156327
000110 a7 5b 7e 3c 73 45 58 bc 73 0d 8b 3c d3 92 6d 3d
       0.015524781 -0.013200152 0.016974187 0.05800135
000120 3b 9f fe bc 1e 21 21 bd 37 95 c1 bc f6 6b a9 3b
       -0.031081786 -0.039338224 -0.023630721 0.0051703406
000130 19 83 a2 bc 99 a0 38 3d 5c 69 50 3c d1 47 49 3d
       -0.019837903 0.045075033 0.012720432 0.049140755
000140 4c e0 0a 3c 7a 55 8c 3c 33 fe 20 3d 7d 99 9f bc
       0.008476328 0.017130602 0.039304923 -0.019482369
000150 ce 1f 86 bc 3d 37 c1 3b 60 4e 48 3b dc 4f 25 bd
       -0.016372588 0.0058964775 0.0030564293 -0.040359363
000160 d5 32 7d 3c 3f 79 b6 3c 94 57 7d 3d d3 20 cc bc
       0.015454014 0.022274612 0.0618511 -0.024917996
000170 cf ae 2b 3d 4b a6 1d 3d 8c d6 44 bc cc b1 4d bc
       0.041914757 0.038488667 -0.012014043 -0.012554597
000180 91 f2 31 3d 28 ae 0a bd 08 4b b2 3c b1 e6 de bc
       0.04344422 -0.033857495 0.021764293 -0.027209612
000190 57 82 05 3d d5 6c 79 3d 57 ea 7e bc 98 98 83 bb
       0.032595005 0.060894806 -0.015558801 -0.0040159933
0001a0 30 14 8f 3d bb 23 95 3c 9b dc 02 bd dd 62 31 3c
       0.06986272 0.018205514 -0.031948667 0.0108267935
0001b0 cd 25 26 3c b3 8f a4 bb 29 36 b5 3b 42 75 25 bd
       0.010140848 -0.005022013 0.005530138 -0.04039503
0001c0 42 43 30 3d 63 49 06 3d de 1b 22 bd fa 8d 40 3d
       0.043032892 0.03278483 -0.039577357 0.0470104
0001d0 99 f8 b4 bc ad c4 65 3d bc 81 bf bc 3f 16 b2 bc
       -0.022091197 0.056095768 -0.023377292 -0.021739123
0001e0 8b 6a 91 3a 15 8c 5e bc 5d 7b bb bc 6c 0d b0 bb
       0.0011094374 -0.013583203 -0.022885973 -0.0053726938
0001f0 fd 0f ab 3c 13 38 90 3c a4 d5 e9 bc f1 94 b7 3c
       0.020881647 0.017604863 -0.028544255 0.022409888
000200 92 52 12 3d 10 29 bf 3c f6 71 f7 bc b8 bf 0f bb
       0.035723276 0.02333501 -0.030205708 -0.0021934342
000210 c1 a8 90 3c 1e bd 1e bb dc 49 02 bb 35 ff 00 bd
       0.017658593 -0.002422161 -0.001988045 -0.031493384
000220 57 ee a3 3c 25 d6 e0 3c 5a 3b 93 bc ec d3 a8 bb
       0.02001111 0.027445862 -0.017972637 -0.005152216
000230 fd 20 b4 3c b0 a7 94 3a d1 0e e2 3c b1 7a 28 3d
       0.021988386 0.0011341479 0.027594956 0.041132633
000240 9d 61 ca bc e7 78 ce 3c 98 8b 55 3d 02 64 40 bd
       -0.024704749 0.025204135 0.05213508 -0.046970375
000250 f2 6f 13 3b 75 39 b5 bc 11 20 f9 3c fb d9 fd bc
       0.0022497145 -0.022122124 0.030410798 -0.03098773
000260 f7 7e f1 3c d7 6e 6c 3d cd c2 18 3d 58 9a 63 3d
       0.029479487 0.057722893 0.03729515 0.055567116
000270 c7 c3 1c 3b 16 dc c5 3b 87 90 15 bd ae ec fe 3c
       0.0023920403 0.006038199 -0.036514785 0.031118717
000280 f7 65 91 3c d3 14 f8 bc 36 16 1d 3d 87 94 17 3d
       0.017748816 -0.030283367 0.03835126 0.03700688
000290 81 15 2c bc ba 4a 76 3c 5e 83 e9 bc 02 45 7b bc
       -0.010503174 0.015032465 -0.028505024 -0.015336277
0002a0 b6 31 00 3b ba 9a b1 3c 15 b2 60 bc e0 c8 5b bd
       0.001956088 0.021680225 -0.013714333 -0.053658366
0002b0 82 28 ea 3c c5 0e 80 3d 5b 48 6f bc 70 aa 92 bc
       0.028583769 0.06252817 -0.014604653 -0.017903537
0002c0 75 1b dc 3c 22 52 52 3d 24 bf d5 bc e2 1a 2b 3d
       0.026868561 0.05134786 -0.02609212 0.041773684
0002d0 c3 0c ac bb d3 c2 26 3d e3 23 36 bd d1 da 67 3c
       -0.0052505448 0.040713143 -0.044467818 0.014151291
0002e0 c6 82 cd bc fe 35 16 3d f2 84 35 3d 71 08 52 3c
       -0.025086772 0.036672585 0.04431624 0.012819395
0002f0 8c f7 2d 3d 1d 8a a9 3c 51 12 02 3d 5c 91 c8 bc
       0.042472407 0.02069574 0.03175575 -0.024483375
000300 ed 41 73 3d e3 de 76 3d a2 91 6c 3c af b1 f8 3c
       0.059389044 0.060271155 0.014439018 0.030358164
000310 0f 2e 8b 3c f4 13 35 3d ec bc 27 3d 72 af 62 3d
       0.016989736 0.044208482 0.040951654 0.0553431
000320 4c 93 88 bc c3 4f ef 3c 49 57 d7 bc c4 9b 45 bc
       -0.0166718 0.029212838 -0.026286738 -0.012061063
000330 85 4d ff 3c 01 3d a6 bc 6d b7 41 3c 97 49 80 bc
       0.031164894 -0.02029276 0.011823517 -0.01566009
000340 03 41 15 bd d8 8e 2d bd 18 6d 14 3d 08 1d f7 bc
       -0.036438953 -0.042372555 0.036236852 -0.03016521
000350 27 db bc bc 03 74 af 3c cb 4f 59 3d 19 ed 7d 3c
       -0.023053719 0.021417623 0.053054612 0.015498423
000360 2a 51 6c bc 36 59 50 bc fc 0a 07 bc 54 13 7b 3a
       -0.014423648 -0.012716582 -0.008242365 0.000957777
000370 16 0f a6 3c 58 85 79 bc b0 89 fe bb b1 a2 5f bc
       0.020270865 -0.0152295455 -0.0077678785 -0.0136496285
000380 72 b6 8d bc a1 65 33 3d 25 ac c0 bb 73 b8 2a 3d
       -0.01729891 0.043798093 -0.005879896 0.04167981
000390 b4 d8 80 3c f9 ce 7d 3c 48 2e 39 3d 72 26 a0 bb
       0.015728332 0.015491241 0.045210153 -0.0048873955
0003a0 09 ad f2 bb 06 3c 0b 3d 64 1e 5c 3c 12 a6 80 3c
       -0.0074058813 0.03399279 0.01343498 0.015704188
0003b0 bf c1 bc 3c da 62 0c bd 47 ba 31 3c ac c0 0d bc
       0.023041604 -0.03427396 0.010847635 -0.008651894
0003c0 74 82 4c bc 65 f5 f4 bc bf ce 8c bc 35 46 05 bd
       -0.012482274 -0.02990217 -0.017188428 -0.032537658
0003d0 36 4d 51 bc e3 c8 a2 3b 6c 90 0a 3d f4 60 df 3c
       -0.012774756 0.004967795 0.033829138 0.02726791
0003e0 e7 28 34 3d 01 8d cd 3c c0 b8 a9 3c e5 12 c3 bb
       0.04398432 0.02509165 0.020717978 -0.00595318
0003f0 e5 ec 15 3d 7b 23 b3 bc f6 f5 4f 3d e9 ec cd bb
       0.036602873 -0.021867504 0.050771676 -0.0062843454

fc3.weight f4 [2, 256]
000000 dd 0f 59 3b a3 2f 05 3d 90 f1 f2 bc 35 fb 16 3c
       0.0033121028 0.032516133 -0.029656202 0.009215166
000010 c3 d2 ec bc 72 36 ab ba 18 ae 9d bc 08 cf 10 bc
       -0.028909093 -0.0013062491 -0.019248053 -0.008838423
000020 bd 5f 71 bc 50 e6 c3 bc 1d 2a 0b 3c fc 25 66 3a
       -0.014732298 -0.023913532 0.008493927 0.0008779464
000030 ac c0 36 bc d2 5b d8 bb 7f 5a 2a bc 6c c3 cb 3c
       -0.011154335 -0.0066027427 -0.0103975525 0.024873458
000040 f9 08 ea bc 76 c3 8b bc 4d 53 8d bd b6 89 df 3c
       -0.028568732 -0.017060976 -0.06900654 0.027287345
000050 e1 03 c5 3c a8 e0 05 3d d4 fb d0 bc e3 f6 05 bd
       0.024049701 0.032684952 -0.025510706 -0.032706153
000060 fe 2e b0 bc 0e 43 c5 bc f3 71 d4 bc b4 1f 0e bd
       -0.021506783 -0.024079826 -0.025933241 -0.034698203
000070 ee c1 38 bc d6 a8 61 bc c7 55 c5 3c 18 17 9a 3c
       -0.011276705 -0.013773164 0.024088753 0.01880984
000080 a9 47 c9 3c 16 4b 18 bc 70 21 99 3c 4e 67 07 3d
       0.024570303 -0.009295246 0.018692702 0.033057503
000090 e8 9c 2b bd a1 13 c6 bc eb 80 d8 bc e7 92 a8 bc
       -0.041897684 -0.024179282 -0.02642866 -0.020577861
0000a0 11 2a af bb 47 92 dc 3c f4 a5 a2 3c 0d bd 81 bc
       -0.005345591 0.02692522 0.019854523 -0.015837217
0000b0 52 a9 bb bc 35 fd c2 3b 6e 03 c8 bc e4 22 d9 bc
       -0.022907887 0.005950595 -0.024415698 -0.026505895
0000c0 28 59 5c bc 33 83 46 bc 58 e3 cd b8 4b d1 fc bc
       -0.013448991 -0.012116241 -9.817508e-05 -0.030861517
0000d0 ad 36 35 bc 44 dc 98 bc 0f a1 9d bc 85 be 11 bd
       -0.011060399 -0.018659718 -0.019241838 -0.035582084
0000e0 09 3c 10 bc d3 05 c7 bc d0 b3 bf 3c 68 95 87 3c
       -0.008803376 -0.02429477 0.023401171 0.016550735
0000f0 16 9e 19 3d da ee 1c bc 64 e8 89 bc 3e 82 41 bb
       0.037504278 -0.009578431 -0.016834445 -0.0029527093
000100 98 0c 27 bc 46 94 6d bb bc de 66 3c 89 af 19 bc
       -0.010195874 -0.0036251708 0.01409119 -0.00938023
000110 c2 8b d7 bc 06 ad 68 bc 56 bd 26 3c 36 1c 12 bd
       -0.026311759 -0.014201408 0.010176977 -0.035671435
000120 d6 6d db 3c c6 5a cd 3c e4 0c e1 bc 5a 26 b7 bc
       0.026785772 0.025067698 -0.027471967 -0.022357155
000130 d9 22 fa bc af 35 9e bc fe 49 99 3b 04 7a 41 bc
       -0.030534195 -0.019312708 0.00467801 -0.011808876
000140 3b ac a9 bc d7 bb 0c bc 3d ed 5c bc 6b c0 1b bd
       -0.020712009 -0.008589706 -0.013484296 -0.0380253
000150 f1 e6 e1 3c 1f f9 d1 bb 22 90 9d bc e9 56 6c 3c
       0.027575942 -0.0064078714 -0.019233767 0.014425018
000160 91 2b dd bc 3c 33 8b bc 19 4e ee bc 83 e4 a7 bc
       -0.026998313 -0.016992204 -0.029089974 -0.020494705
000170 f9 71 8d bc 0c 78 ae bc 20 46 85 ba d2 bf ed bc
       -0.01726626 -0.021297477 -0.0010167994 -0.029022131
000180 09 82 d6 bc 74 26 c6 bc f4 23 8f bc d5 b9 c4 bc
       -0.026185052 -0.024188258 -0.017473198 -0.024014393
000190 c8 7b d8 bc a3 56 00 bd 8d b9 32 bc 6b 3c 0f bd
       -0.026426211 -0.031332623 -0.010908497 -0.03496973
0001a0 b4 7a 44 bd 35 dd 83 bc 8c 15 f5 3c a9 ad f8 3c
       -0.04796858 -0.01609669 0.0299175 0.030356245
0001b0 4f 7e f6 3c b3 4a b7 bc f3 4c b9 bc 00 3a b6 3c
       0.030089526 -0.022374487 -0.0226197 0.022244453
0001c0 7f 60 07 bd dd f0 27 3d ae 5f 81 bc d9 5d 99 bc
       -0.03305101 0.04100119 -0.015792694 -0.018721508
0001d0 73 e6 ad bc c3 c0 c4 bc 18 fa 8c 3c f0 43 d2 3c
       -0.02122805 -0.024017697 0.017209098 0.02566716
0001e0 9a a5 e1 bb 10 64 f9 bc b7 b1 84 bc 2d f7 f5 3b
       -0.0068861963 -0.030443221 -0.016198022 0.0075062723
0001f0 0f 6e d7 bc 71 df 83 bd d4 70 dd bc 6c f6 c5 bb
       -0.026297597 -0.064391024 -0.02703134 -0.0060413387
000200 7d 8e ff bc b3 2f 93 3b b3 de 1d bd 19 e6 8d bc
       -0.031195873 0.00449177 -0.03854246 -0.017321633
000210 09 45 bd bc 73 d7 5a 3c 01 85 d4 3c c9 04 a0 bc
       -0.023104208 0.013357031 0.025942327 -0.019533532
000220 ac bc 88 3c 1d c8 ee 3c 94 bf 0b 3d 01 c6 c0 3c
       0.016691528 0.029148156 0.03411825 0.023531916
000230 c0 af f7 3c ea d1 06 3b f9 37 41 3c 79 32 ed bc
       0.030235171 0.0020571896 0.01179313 -0.028954731
000240 1e b5 c8 bc d7 a8 93 bc aa bb a9 3c 6b a1 08 3d
       -0.024500426 -0.018024845 0.020719368 0.033357065
000250 e1 3a b6 bc 34 12 0d 3d 89 29 8c bb 7a b6 cd bc
       -0.022244873 0.034441188 -0.0042774123 -0.025111426
000260 ac 17 b7 3c 90 1c 5c bc 0f 63 b1 bc 30 a2 d8 bc
       0.022350155 -0.013434544 -0.02165368 -0.026444525
000270 8e 8e ac bb e6 ad 4e bc c5 ce 12 3d 2f c9 e3 bc
       -0.0052660173 -0.012614703 0.035841722 -0.027805893
000280 75 ad 37 3c 0b 91 eb 39 75 e4 d4 bc 12 a5 b6 3c
       0.011210789 0.00044930758 -0.025987843 0.022295509
000290 5a eb 29 3d 8b ae d1 3c 41 3a 2e bc 7c 23 f5 3c
       0.041484214 0.025595924 -0.010634006 0.029924147
0002a0 71 de 70 bc f2 cd 99 bc d6 6f bd bc 81 fb 18 3d
       -0.014701472 -0.01877496 -0.023124617 0.037349228
0002b0 f6 ff a5 bc 0a 62 c9 bc 67 b5 93 bc d9 a0 39 bc
       -0.020263653 -0.024582881 -0.018030835 -0.011329853
0002c0 42 ae 9f bc b7 cf d9 bc e6 27 03 bc b9 a4 da bc
       -0.019492272 -0.026588304 -0.008005118 -0.026689874
0002d0 9c 10 ab bc 25 32 6f bc f4 6a e1 3c 7e ef 9b 3b
       -0.020881943 -0.014599358 0.02751682 0.0047587743
0002e0 a5 ff 77 bc 6a 15 d0 bc 81 69 db bc 74 25 b4 3c
       -0.015136634 -0.025400836 -0.026783707 0.021990515
0002f0 7b 44 d1 3c 81 ba 7b bc 19 4c 91 bc 7f f0 14 bd
       0.02554535 -0.01536429 -0.017736482 -0.036362167
000300 75 8e 90 bc 83 d9 c1 bc ae 8c cb 3c 53 a2 16 bc
       -0.017646054 -0.023663288 0.024847355 -0.009193975
000310 a5 2c 38 bc 3a ae 93 bc 36 79 95 3c 19 8f 3c bd
       -0.011241113 -0.018027414 0.018246274 -0.046034906
000320 29 0e e4 bc d1 8c 7c bc 85 35 96 bc 17 f8 a1 bc
       -0.027838783 -0.015414433 -0.018336067 -0.019771619
000330 e4 29 ff 3c d2 a4 9e bc 84 94 2e bd cd 4e 00 3d
       0.031147905 -0.019365702 -0.042622104 0.03132515
000340 14 e4 0e bc eb 04 c4 3c 00 9e 8b bc 00 fc dc 3c
       -0.00872137 0.023928126 -0.017043114 0.026975632
000350 49 69 3d bd 26 af 07 bd 73 a7 9e bc e0 0e 3a 3b
       -0.046242986 -0.03312602 -0.019366955 0.0028390214
000360 e7 07 b5 bb 79 64 31 bd 97 3a ba bc 44 16 a2 bc
       -0.0055246237 -0.04330871 -0.022733016 -0.019786008
000370 cb 91 ac bc 5c 19 f7 3c 02 84 b7 bb f8 c1 09 3d
       -0.021065613 0.03016346 -0.0056004534 0.03363225
000380 d9 2e ce bc af 8e c5 3c 51 2f 24 bd 24 7e e0 bc
       -0.025168823 0.024115888 -0.040084187 -0.027403899
000390 da 1c 28 bc 4c f1 87 bd ae 2b 0c bc 6a 25 0e bc
       -0.010260785 -0.066378206 -0.008555336 -0.008675912
0003a0 8c 23 e0 3c 34 2a dc 3c b9 4c d5 bc 58 89 d3 3c
       0.0273607 0.026875593 -0.02603756 0.025822327
0003b0 77 ae f0 3c ec b4 39 bc 35 60 9e bc 94 aa 64 bb
       0.029380066 -0.011334639 -0.019332984 -0.0034891712
0003c0 51 ef 6b bc b4 4c 44 3d b9 d3 ae bc 2f 00 7e bc
       -0.014400319 0.047924712 -0.021341192 -0.015502973
0003d0 39 c5 6f bc 8b ae b2 bb 18 0d f2 bc 42 db 42 bc
       -0.014634424 -0.005452936 -0.02954726 -0.011893095
0003e0 dd 3f 78 bd be 3f 01 bd 40 92 ca 3c a8 e5 bb 3c
       -0.06060778 -0.03155493 0.02472794 0.022936657
0003f0 14 67 8a bc 42 fb c2 3c bc 04 64 bc 3c fe d9 3c
       -0.016894855 0.02380145 -0.013917144 0.026610486

fc3.bias f4 [2]
000000 d1 90 09 bd e0 02 53 bd
       -0.033585373 -0.051516414
