projects/tennis/checkpoint/RE26/RE26.01_actor1_5000.pt (torch_old, 453689 bytes, 6 tensors)

fc1.weight f4 [400, 24]
00000000: 3213 82bc 400d 063c 8f51 61bd dc10 d33c
00000010: d756 3fbc 3211 e63b 1766 76bc e7e4 d2bc
00000020: e8f0 a43c a109 15bd d312 70bc 9742 113d
00000030: 00de 69bb c44e c3bb 41ce 32bd 794c 17bd
00000040: d620 bd3a d1e8 1cbc f09e 62bd 398b 45bd
00000050: 1c11 9e3b 1ef7 c53c 8686 243d 6c7d e53c
00000060: 4fe4 67bd fb82 443c d47a 50ba 56f7 9d3c
00000070: 8934 11bd 957a 283c 124d 703d 5981 2c3d
00000080: df11 38bd 18cb 34bd d8bd b9b9 8168 093d
00000090: ddcd 513c ffb3 e6bc 92fd 4ebc 5cb2 023d
000000a0: 6be1 52bd 05d8 8ebc c288 6e3d bc44 d23c
000000b0: afe7 123c 035c 093d 5e8f 953c 9f6c 1cbd
000000c0: 69be 083d 002e b1bb b3a7 1d3c 27dd f83c
000000d0: 0f07 e33b d582 2d3d 6ca2 e13c 1a97 243d
000000e0: 9abe 5cbd 6b73 433c a25c 0c3d f1f0 2f3d
000000f0: dd36 55b9 0487 663c 2d12 a6bb b6d0 183c
00000100: a47a 01bd c416 2ebd 6fa9 e33c 9495 eebc
00000110: 48dd 263c da5f c93c a2d1 dc3c 4e3a 3c3d
00000120: 66e3 9bbc 3b2b fc3c a7ce dbbc bd7a cc3c
00000130: bb66 50bc 6fae 9fbc 76de 9b3c e496 cfbb
00000140: 440e 7dbc 538c 64bd 4e66 34bc 631a 253d
00000150: 40b9 ad3c bddf a0bc a6c9 07bd 3c25 fd3c
00000160: ef8b 9ebc 546f e63c d8d5 d4bc d591 ff3b
00000170: 9955 313c f653 493d d613 5c3c d303 27bc
00000180: db6d 083c 24d7 9cbc 2682 9c3c fac2 3c3d
00000190: fe91 94bc a264 08bc 8c95 02bd fa23 373c
000001a0: 1be4 4ebd 7e07 a03c 7637 6d3d cb5d 133c
000001b0: 0cb4 2fbc 7dea 87bc 53d1 f2bc e967 453d
000001c0: 684c 44bd 8b1f 62bd 3de7 b73c 48e9 c23c
000001d0: 9aab 723c b371 963b 0a48 26bd cc57 e33c
000001e0: b5c5 093c 280c f93c 1e2d fe3c e217 c93c
000001f0: f93d 73bd cd98 c3bc d046 85bc 397e b03c
00000200: 3f0d f9bb a179 a7bb 871c 9a3c c303 cfbc
00000210: 8e88 27bd 0b28 833c a155 9b3b 967b f53c
00000220: 2b8e 94bc 477a 0a3d 2ca4 24bc 12ca ddbc
00000230: 1da6 aa3c f1b3 c1bc 809c 25bd 2490 fc3c
00000240: 77e7 653d 4cda 203b e322 ce3c 9cb3 063a
00000250: 2b4d 0f3d 1fb5 9ebc 5a44 d8bc 1bd1 0fbd
00000260: 7c9c 663d 8855 32bc d36a 9abc 2578 c33a
00000270: fc6d f6bc 5fec fabc 24e2 99bc f87c b5bc
00000280: 7117 28bd bddd 0fbc 78f8 0f3b 451e 89bb
00000290: d58c 04bd 4ad4 0c3d e24b 68bc 23e6 2bbd
000002a0: 0fc4 24bc c5d4 d93b 8dac 0ebd fd8e 42bd
000002b0: 1740 b13c b26f 95bb a3c3 6abd 7e06 92bc
000002c0: 86a7 aa3c 3400 07bd 05bc 31bc 182c f7bc
000002d0: b477 99ba 1e41 03bd a5dc e5bb f4c4 c43c
000002e0: da82 b03c 1394 833c 1a31 60bd f521 c03c
000002f0: 7bff 063d bd74 89bb 044a 6cbd 52ed 07bd
00000300: 15be 26bd 8734 0cbd 9800 38bd 1149 2bbd
00000310: 863a 3abd 0eb1 4cbc fc4f 19bd 4eda ed3c
00000320: b6a3 f53c edc1 d2bc 06b0 4bbd 0ffc fd3b
00000330: ed69 efbc 49f4 993c daa6 29bd 8b31 4abc
00000340: 1dee 0bbc 8150 92bb fde3 89bc 3170 1c3b
00000350: c9fd 90bb 257e 33bd 5330 a43c 83f1 ca3a
00000360: bb90 06bd 771f 383c 5c83 df3c d5be bfbc
00000370: 4ce5 1d3c 25e4 16bd 98d1 e9bc 295c 32bc
00000380: 3c60 b5ba e2c7 493c fd44 85bb 22bb dfbc
00000390: 35e0 d7bb a20a b4bc 2d25 e6bc 3721 333d
000003a0: 5dbe 11bd aa99 543c 54ac d3bb ddd1 05bc
000003b0: 907b 59bd 13d2 4a3d 3d87 733d 7a3c 55bd
000003c0: af43 353c 75b9 36bd 64f4 64bc 3f1e d6bc
000003d0: 2575 d23c b2c3 ff3c 6adf 5fbd 3ad7 c53b
000003e0: 89f0 68bd 4c4f 4ebc be6c 38bd 1abf 29bd
000003f0: b8b7 5abd 1e7f 55bc 5665 8a3c a285 ea3a
-0.015878294 0.00818187 -0.05500942 0.025764875 -0.011678419 0.007021093 -0.015038989 -0.025743915
0.020134404 -0.036386136 -0.014652926 0.035463896 -0.00356853 -0.0059603173 -0.04365373 -0.036938164
0.0014429342 -0.009576992 -0.055327356 -0.048228476 0.004823817 0.024165686 0.040167354 0.028013907
-0.056614216 0.011994119 -0.0007952873 0.019282978 -0.035450492 0.010283132 0.05866725 0.042115543
-0.04493892 -0.044138998 -0.00035427394 0.03354693 0.012805429 -0.028162 -0.012633698 0.031908378
-0.051484507 -0.01743699 0.05823589 0.02566754 0.0089663705 0.033535015 0.01825684 -0.038189527
0.033384714 -0.005407095 0.009622502 0.030378891 0.0069283317 0.0423611 0.02754327 0.040183164
-0.05389271 0.011929373 0.03426803 0.04295439 -0.00020333701 0.014070276 -0.0050680847 0.009327104
-0.0316111 -0.04250218 0.027790753 -0.029124059 0.0101845935 0.024581838 0.02695543 0.04595404
-0.01902933 0.030782333 -0.026831938 0.02496087 -0.012719805 -0.019492356 0.019026976 -0.0063351262
-0.015445296 -0.055797886 -0.011010719 0.040308367 0.021206498 -0.019637937 -0.03315129 0.030901544
-0.019353835 0.028129257 -0.025980875 0.007799367 0.010823631 0.049152337 0.013432464 -0.010193783
0.008326973 -0.019145556 0.019105028 0.04608438 -0.01813602 -0.008324774 -0.0318809 0.011178011
-0.050510507 0.019534823 0.05791422 0.00899453 -0.010724079 -0.016591305 -0.02964083 0.0481948
-0.04792443 -0.055205863 0.02244913 0.023792878 0.014811421 0.0045911907 -0.040596046 0.027751826
0.008408953 0.030401304 0.031027373 0.024547521 -0.059385274 -0.023876572 -0.016269118 0.021544563
-0.007600456 -0.005110935 0.018812431 -0.025270348 -0.040901713 0.016010305 0.0047404324 0.029966157
-0.018134197 0.03380802 -0.010048907 -0.027073894 0.020831162 -0.023645373 -0.040432453 0.03083045
0.056128945 0.0024544178 0.02516312 0.0005138458 0.034985702 -0.019373475 -0.02639978 -0.035111528
0.05630158 -0.01088465 -0.018849766 0.0014913125 -0.030081742 -0.030630289 -0.01878459 -0.022154316
-0.04103798 -0.008780894 0.0021968167 -0.0041845166 -0.03236087 0.034382142 -0.014178248 -0.041967522
-0.01005651 0.0066476786 -0.034832526 -0.047499646 0.021637006 -0.0045604343 -0.05731548 -0.017825361
0.020831835 -0.032959178 -0.01084805 -0.030172393 -0.0011708648 -0.032044522 -0.0070148283 0.024019696
0.02154677 0.016061818 -0.054734327 0.023453692 0.03295849 -0.0041948245 -0.057687774 -0.03318531
-0.04070862 -0.03422978 -0.04492244 -0.04181773 -0.04546597 -0.012493385 -0.037429795 0.02903476
0.02998529 -0.025727237 -0.049728416 0.007750995 -0.029225314 0.018793242 -0.041418888 -0.0123409135
-0.008540657 -0.004465163 -0.016832346 0.0023870582 -0.004424785 -0.043821473 0.020042574 0.0015483353
-0.03285287 0.011237971 0.027284317 -0.023406425 0.009637188 -0.03683867 -0.028542325 -0.0108862305
-0.0013837884 0.012315722 -0.004067062 -0.027310912 -0.006588007 -0.021977726 -0.028093899 0.043732848
-0.035581935 0.0129760895 -0.006459752 -0.008167711 -0.053096354 0.04951675 0.059455145 -0.052059628
0.0110635 -0.04461046 -0.013974283 -0.02613747 0.025690624 0.031221244 -0.054656424 0.00603762
-0.056870017 -0.012592148 -0.04502558 -0.041442014 -0.053397864 -0.013030795 0.016894024 0.0017892609

fc1.bias f4 [400]
00000000: 6a72 c83c 3e7d 213e 1239 03be d655 413e
00000010: ed36 2d3e 04f7 193e 5feb 3d3e 3113 19bd
00000020: 60d7 163d 0a17 173e 6a3d d2bd db1c 533e
00000030: f40e 24be 67fa 333d 0c78 39be f7d1 abbd
00000040: 0cdb c4bd 3e24 2b3e 826c 473e fce4 f83d
00000050: 0dc9 03be d8ae cbbd 4dca 2fbe 4511 e8bd
00000060: b5f7 943d 8fc7 b33c 9ce2 293e 3bf9 00be
00000070: b09b 4c3e e578 5bbd 3d0b 103e e477 863d
00000080: bc54 b3bd b7a0 c13b 1571 113e b324 1e3e
00000090: cf3c 1f3b 4ce3 9bbd 468f 3dbe 17c5 063e
000000a0: 729a dbbd 4d5d 46be 1885 10be 07ba 403b
000000b0: cb77 9e3d 8ecd 81bb e476 41be 024e cabd
000000c0: 3f76 4a3e eeab 143e 149b aabd 2c76 5f3d
000000d0: db67 2a3e aa37 1d3e 55bf e9bd 9e7b 8d3d
000000e0: 5b52 38be b04d 1dbe 5274 3cbe 664f 18be
000000f0: b395 8ebd 1aac 583e 99e5 413d 7452 10bc
00000100: a693 f8bd 03df 9dbd 9ef4 243e 9324 e1bd
00000110: 4946 a33d 9c38 e5bb 72e2 1f3e d771 4c3e
00000120: 5abf abbc be82 523e c37f 01be 900a 343e
00000130: 8ad5 d33d bb17 00be 317b 483b 4a3f 113e
00000140: 9f23 57bd 3290 283d 2273 34be ff23 bd3d
00000150: 80be 323e af54 883d 8b13 413e ee96 5b3e
00000160: 57bb f3bd 3811 f8bc 8880 4c3e 0813 31be
00000170: 19ce 0d3e 80c3 7ebd a4d3 853d 27f2 023e
00000180: ce65 023e 8acd 96bd 9133 9ebc 2727 89bd
00000190: fdc5 88bc 4644 83bb 4866 023e 5922 2d3e
000001a0: 3d76 49be 776b 473d 8582 30be 113d 60bd
000001b0: e420 4c3e 8c86 39be 6d6f b83d 9366 1b3e
000001c0: 5e31 453e 4aea 49bd 03dd 2dbe 7b91 f3bd
000001d0: 926f 6c3d a40e 1bbe b263 623c d29a 923c
000001e0: 388e 16be 6146 33be a9e6 4ebd de15 34be
000001f0: 8578 203e b078 1a3e 994d 2dbd 7109 123e
00000200: 02d6 b93d adb2 53be 1416 10bd 2e56 5a3e
00000210: c868 ffbd d055 3d3e aac8 4f3d 69f4 7f3d
00000220: 290a d93d 0187 253e 3119 5d3d eb03 513e
00000230: 945a a9bd 9b03 37bd 88c3 d6bc e853 d33d
00000240: 23ca 503e 1f77 4fbb 9b71 063e 1d24 1f3d
00000250: afcb e53d 4ad1 d23d 4b20 3abe f446 17be
00000260: 35bb 503e 927a a33d 8dfd e63d c98b 2a3d
00000270: 1311 35bd 0741 dfbc ae2d 2c3e e403 ef3d
00000280: a22d 26bd 473b 043e 036f 2dbe 948e 203e
00000290: dac2 8cbc 110b 1f3d 338a eb3d 891a fe3d
000002a0: 6726 0dbb 152c ef3d d009 36be aefe 48be
000002b0: ac9c 4c3e 6549 4c3e d1eb 573e ecab d33d
000002c0: 3c91 12be 5122 cc3c 29a2 14be 005b 163c
000002d0: d47d f03b 2c10 52bd becd 523d f39b 5f3d
000002e0: d45c 3fbe 791c ae3d 3d5d ae3d adce f33c
000002f0: d3ed eebd 5937 41be 09b4 2dbd cb3e c7bd
00000300: 47b0 f13d 74f2 06bd ec16 eabd d1c3 a2bd
00000310: 47a5 0abe 658c 983a c310 3dbe a84f 503e
00000320: ced0 b93c 9f40 c4bd 7e7b 123e 156f 2b3e
00000330: 41c4 d33d df28 b3bc 1591 363e 9888 363d
00000340: fe52 ce3d ba33 2abe 26d9 423e 88f5 903d
00000350: 2906 bcbd 379a 523e a15c 9d3d 2870 3e3d
00000360: 61f0 ddbb 23ee 203e ad6c 633c 5767 1bbe
00000370: 18a6 bdbd fe0d 51bd cd68 5c3d 211b 84bd
00000380: f136 033e 28b3 5d3d 120c cfbd 2edf e6bd
00000390: 28b0 453e eb9e cb3d aa99 43be 4876 473e
000003a0: 894e 473e 4014 5b3e b77e 153d e55b cbbd
000003b0: 49f0 e63d c201 cabd bd00 313e f13e d93d
000003c0: 4e1b 223e ff2c 1f3d 78db 1f3e 55ab 30be
000003d0: 329c f9bd 7db6 a13d fb2c 023e 7515 13bc
000003e0: 3125 fdbc e655 a5bd 4080 50bd ec46 173e
000003f0: 031f 8d3d b6d5 503e 82c1 033e 29ef d63c
0.02446862 0.15770432 -0.1281474 0.188804 0.16915484 0.15035635 0.18546818 -0.037371818
0.03682649 0.14754882 -0.1026562 0.20616476 -0.16021329 0.043939974 -0.181122 -0.08389657
-0.096120924 0.16713044 0.19474986 0.1215305 -0.12869664 -0.09945458 -0.17167015 -0.11331419
0.07273809 0.021945743 0.16590351 -0.12595074 0.19981265 -0.05358209 0.14066787 0.06565836
-0.08756396 0.0059090513 0.14203294 0.15443687 0.002429772 -0.07611713 -0.18511686 0.13161121
-0.107228175 -0.19371529 -0.14113271 0.0029407756 0.077376924 -0.0039612716 -0.1889301 -0.0987816
0.1977167 0.14518711 -0.0833036 0.054556057 0.1664118 0.15353265 -0.11413447 0.06908344
-0.18000166 -0.15361667 -0.18403748 -0.14874038 -0.069621466 0.21159402 0.047338102 -0.008808721
-0.12137537 -0.07708552 0.16108939 -0.10993304 0.0797239 -0.0069952738 0.15613726 0.19965301
-0.020965267 0.20557687 -0.12646393 0.17582154 0.10343464 -0.12509052 0.0030591006 0.14184299
-0.052524205 0.04115314 -0.17622045 0.09235381 0.17455482 0.06656777 0.18855111 0.21444294
-0.119009666 -0.030281648 0.19970906 -0.17292416 0.13848151 -0.062198162 0.06534508 0.12787686
0.12734148 -0.07363422 -0.019311698 -0.06696921 -0.01669597 -0.0040059416 0.1273433 0.16907634
-0.1967401 0.04868647 -0.17237289 -0.054745737 0.19934422 -0.18117732 0.09005628 0.15175848
0.19257113 -0.0492957 -0.1697884 -0.118929826 0.05772359 -0.15142304 0.0138177145 0.01789609
-0.1470269 -0.17507316 -0.050512943 -0.17586467 0.15670975 0.15085101 -0.04231033 0.14261414
0.09074022 -0.20673628 -0.035177305 0.21321937 -0.12471157 0.18489766 0.050728478 0.062488947
0.10597641 0.16164781 0.053979103 0.20411651 -0.082692295 -0.044681173 -0.026216283 0.10318738
0.20389609 -0.0031656695 0.13129275 0.0388528 0.1122049 0.10293825 -0.18176381 -0.1477316
0.20383914 0.07982363 0.1127883 0.041637216 -0.044205736 -0.027252687 0.168143 0.11670664
-0.040570863 0.12913238 -0.16936879 0.15679389 -0.017182756 0.038828913 0.11500969 0.12407405
-0.0021537782 0.1167833 -0.1777718 -0.19628403 0.1998164 0.19949873 0.2108605 0.10335526
-0.14313215 0.024918707 -0.14514984 0.0091769695 0.0073392186 -0.051284954 0.051465742 0.054592084
-0.18687755 0.085015245 0.085138775 0.029761637 -0.11666455 -0.1886877 -0.042408023 -0.09728774
0.118012 -0.032946065 -0.11430153 -0.07947505 -0.13539611 0.001163852 -0.18463425 0.20342886
0.022682574 -0.09582638 0.14304921 0.16741593 0.10340167 -0.021870075 0.17828782 0.04456386
0.10074423 -0.16621295 0.19028148 0.07078081 -0.091808625 0.20566641 0.07683683 0.04649368
-0.00677304 0.15715842 0.013880891 -0.1517614 -0.092601955 -0.051038735 0.053810883 -0.06450487
0.12813927 0.054125935 -0.10109724 -0.11273037 0.1930548 0.099424206 -0.19101587 0.19478714
0.19463553 0.21394444 0.036497798 -0.09929637 0.112762995 -0.098636165 0.17285438 0.10607708
0.15830728 0.03886127 0.15611064 -0.17252858 -0.12187995 0.07896135 0.12712471 -0.008977284
-0.030901523 -0.080730245 -0.05090356 0.14773148 0.06890681 0.20394024 0.12866786 0.026237087

fc2.weight f4 [256, 400]
00000000: f0c8 04bd 7e49 69bd 8ec8 6dbd 3ccc 11bd
00000010: 3067 2a3c f852 463d c4b8 903c dcc9 af3c
00000020: dcd8 14bd ba00 63bd 9e06 2abd 70cb 1bbc
00000030: ea33 57bd 1cd7 0cbd b0fe e83b 5cf4 aa3c
00000040: 0488 c3bc e84f 35bd e04e efbc 00bd 0c3d
00000050: 5281 153d 4677 733d 800a 3c3d 9697 7b3d
00000060: 7af5 4dbd d0e3 ecbc b810 803c f09d a9bc
00000070: 26d1 5b3d 60cd e63b 262e 13bd 1814 273d
00000080: be9a 48bd 9089 653d 2477 e3bc be12 203d
00000090: 0096 4c3a f009 c1bc f03d 303c b453 8abc
000000a0: f2a2 41bd 5cbb fabc a0ff b23c 9836 1cbd
000000b0: 2469 a63c 7046 713d c2c1 013d 2a4e 6abd
000000c0: a615 64bd 40d3 443c 90ec 2abd 2826 753d
000000d0: 0e07 163d 908e dc3c 7473 9cbc a650 13bd
000000e0: 38fb 54bc a416 cd3c 4855 43bc 92ec 66bd
000000f0: b05b a83c d893 dc3c b8db 6cbd e850 74bc
00000100: 80c8 963b 9835 75bd 50b7 973b 46b9 583d
00000110: 0821 7ebd e0a5 ecbb 247b c4bc 8032 2dbc
00000120: c8b8 74bc b898 c1bc befe 7bbd 26e8 5ebd
00000130: 407e 57bd a0aa 53bd d008 543d f44b f43c
00000140: 0051 b8bb e091 9c3b a8a7 52bd c0b7 09bd
00000150: d0a7 603c 901c 34bc 266c 05bd 0cb9 a73c
00000160: f0dd 40bd 60e9 78bb 144a febc 908b f4bc
00000170: 587d 633c f850 fc3c b0f7 2b3c b297 6d3d
00000180: ecc9 0cbd 6252 6fbd 30ba da3c e01b 7c3c
00000190: 6833 6abd fe9d 7ebd 9a8f 333d 36ed 793d
000001a0: 2801 e23c 10ce 0e3d e243 5c3d 328a 5f3d
000001b0: e05e 3e3c a05e 623b 3213 73bd ce4e 153d
000001c0: 96e1 71bd 46c1 52bd 0ca0 fe3c d83a 383d
000001d0: 8864 21bd 00d2 b5b9 60c2 13bd a0f4 4bbc
000001e0: 308e 5abd 36f3 21bd 54fd e63c ecaa 043d
000001f0: 78d2 4fbd dac9 41bd b8fb 423d 98e9 983c
00000200: 40c8 b1bc 6841 53bd 5ee1 3dbd c242 2b3d
00000210: 34d0 31bd c407 15bd 7ca8 293d 102b 3e3d
00000220: cadf 2ebd 868a 0bbd a838 683d 3cde 8f3c
00000230: e816 14bd 1074 50bd 60e6 aebb 183c 5f3c
00000240: f659 053d 3c73 31bd 5a49 11bd 6009 0bbc
00000250: 74cc 853c f215 2d3d 3aaf 55bd 3028 60bc
00000260: 34df 4bbd a8f9 c73c d6de 4abd e03c 06bb
00000270: 58d0 663d cca1 f2bc 5465 d8bc c43a 21bd
00000280: 8c4b 6cbd 7e0f 173d 08d0 223c f0ee 5a3c
00000290: b0ac f23c ee72 38bd f8f9 d33c 78ae b93c
000002a0: 22a1 513d 08dc 80bc 38f6 d7bc a8d4 e53c
000002b0: 1acd 623d 00bd 56ba 8061 39bd e897 94bc
000002c0: a4f7 b03c 0034 8739 0c6a 77bd 9c2a acbc
000002d0: e042 23bc 7042 013d e0fa 933c 34fe 133d
000002e0: 0610 1b3d 98c7 e03c 06f7 0ebd a461 53bd
000002f0: d0d4 0e3c fc05 82bc b810 6cbd 809c bbba
00000300: 2483 a2bc f2d3 07bd 7ab0 203d fcb7 993c
00000310: b615 203d d053 773d 9e95 573d 5678 70bd
00000320: 2016 f83b a8ec ae3c 72f6 0abd 6c7d b6bc
00000330: fe90 7bbd 283e 67bd dccc 7b3d d41f a63c
00000340: 42f1 743d be5a 5abd b487 1b3d 3083 c9bb
00000350: b867 1ebd 30c7 283c 0005 f2ba c098 4ebd
00000360: 44fd 7c3d e0ab 853b 4029 883c aece 003d
00000370: f220 603d 5cc7 b83c 727f 3bbd 48f7 2abc
00000380: e081 9bbc 187e 24bd 80aa d5bb 6e4c 46bd
00000390: 9c5e 85bc a0a9 c7bc 40d5 da3c 20a6 dc3c
000003a0: 00a3 a0bb 705f 3c3d 6ece 15bd 90f9 b23b
000003b0: 3241 10bd 0c8c 003d 4cf3 3bbd 46b5 2c3d
000003c0: 0020 6a37 cc96 333d 306a 6abd b606 633d
000003d0: 52b5 6b3d 009d 593c aeb9 1b3d 282f d2bc
000003e0: b6f3 0abd dc43 34bd ccbd 493d 100c ccbc
000003f0: 98e4 0a3c 58e1 e33c 1c1a 77bd 40ff 343d
-0.03241819 -0.056954853 -0.058052592 -0.035595164 0.010400578 0.04841897 0.017666228 0.021458559
-0.036339626 -0.055420615 -0.041510217 -0.0095089525 -0.052539743 -0.03438483 0.0071104392 0.020868473
-0.023868568 -0.044265658 -0.029212415 0.034359932 0.036500283 0.05943992 0.04590845 0.06142386
-0.050282933 -0.028917223 0.015632972 -0.020705193 0.053666256 0.0070435256 -0.035932682 0.040790647
-0.0489757 0.056039393 -0.027766772 0.039080374 0.0007804334 -0.023564309 0.010756955 -0.016885616
-0.047274537 -0.030606918 0.021850407 -0.038138002 0.020313807 0.058905065 0.031678922 -0.05720345
-0.055684708 0.012013257 -0.04172951 0.05985084 0.03662782 0.026923448 -0.019098021 -0.035965584
-0.012999348 0.02503521 -0.011922188 -0.056377955 0.020551533 0.026925966 -0.057826728 -0.014911868
0.004601538 -0.059865564 0.004630007 0.052911066 -0.06204322 -0.0072219223 -0.0239845 -0.010571122
-0.014936633 -0.023632392 -0.061522238 -0.054420613 -0.052610636 -0.051676393 0.051766217 0.029821374
-0.0056248903 0.004778132 -0.05142942 -0.033622503 0.013711885 -0.010993138 -0.03257384 0.02047398
-0.047086656 -0.00379809 -0.031041183 -0.029851705 0.013884865 0.030800328 0.010496065 0.058005996
-0.034372255 -0.058428176 0.02670011 0.015387505 -0.05717793 -0.06216239 0.04383812 0.061017238
0.027588442 0.034864485 0.053775676 0.054575153 0.0116193 0.0034541264 -0.059344478 0.036452107
-0.059053026 -0.05145385 0.031082176 0.044977993 -0.039402515 -0.00034679472 -0.036074042 -0.01244846
-0.053358257 -0.039538585 0.028196968 0.032389566 -0.050737828 -0.04731164 0.04760334 0.018666074
-0.021701932 -0.051576048 -0.046357505 0.041811712 -0.04341145 -0.03638436 0.041420445 0.046427786
-0.04269389 -0.034067653 0.056694657 0.017562024 -0.036154658 -0.050891936 -0.0053375214 0.013625167
0.032556497 -0.043322787 -0.035470344 -0.008486122 0.016332842 0.042257257 -0.052169062 -0.013681456
-0.04977341 0.024411038 -0.04952892 -0.0020483062 0.056351036 -0.029618166 -0.026415505 -0.039362684
-0.057689235 0.03688001 0.009937294 0.013362631 0.02962336 -0.04503148 0.02587603 0.022666201
0.05117906 -0.01572992 -0.026362523 0.028055504 0.05537138 -0.00081916153 -0.045259 -0.01813884
0.02160246 0.0002578795 -0.06040387 -0.021016411 -0.009964675 0.0315575 0.018063962 0.0361311
0.037857078 0.027438924 -0.03490355 -0.05160679 0.008717731 -0.015871994 -0.05763313 -0.0014313608
-0.019837923 -0.03316111 0.0392308 0.018764488 0.039083205 0.060382664 0.05263292 -0.05870851
0.007570997 0.02135308 -0.033926435 -0.022276603 -0.061417572 -0.05645576 0.061474666 0.020278849
0.059800394 -0.053309195 0.037971213 -0.006149672 -0.038673133 0.010301396 -0.0018464625 -0.050438643
0.06176497 0.004079327 0.016621232 0.031447105 0.05471892 0.022556 -0.04577584 -0.010434933
-0.018982828 -0.040159315 -0.0065205693 -0.048412733 -0.016280465 -0.024372876 0.026713014 0.026934683
-0.0049022436 0.045989454 -0.03657382 0.005461879 -0.035218425 0.03138356 -0.045886323 0.042165063
1.39549375e-05 0.043844983 -0.057230175 0.055426322 0.057545967 0.013282061 0.038018875 -0.025657251
-0.033923827 -0.04401003 0.04925327 -0.024908096 0.008477353 0.027817413 -0.060327634 0.044188738

fc2.bias f4 [256]
00000000: 5a19 93bc 56cf 2e3d ae9c df3c f328 91bb
00000010: ca2b e23c 1b05 1e3d fb61 2d3c 3521 ecbc
00000020: 02de 5a3d 0799 f9bc 7b43 6eba 07d4 843c
00000030: a8d2 efbb b243 243a 2f3b 4a3c d014 743d
00000040: d106 6e3c fd85 253d b78e b13c 111e 973c
00000050: 8bd4 703d b992 563d 3483 623d 1a71 0cbd
00000060: b755 15bd ba64 67bb c986 243d cf37 91bc
00000070: c06a 2a3d a8f1 cfbc ab2c 193d e34c 1a3b
00000080: d785 643c 2847 ebbb 9f65 083d 0f9e d83c
00000090: fe75 733d 1e0f 573d 9bf4 333d a1c8 9dbc
000000a0: 80bd 88bc 4296 16bc 22d6 e73b a3a2 f43c
000000b0: e63a 623d 8718 413c f5c2 133d 46f8 6d3d
000000c0: 9d0e bf3b e1fd dbbc 9a18 8b3b 14e9 213d
000000d0: e89b 443d 26d2 f13c db6f c73c bea6 3bbd
000000e0: c184 1abd 9c45 0f3d 4f6b f0bc de83 a73c
000000f0: f8e5 0d3d 293e 09bc 4498 b5bb 4fcf 22bd
00000100: 09e2 0ebc 5baa 16bc fd25 333d 66c3 c23c
00000110: 6b3f 1dbd 4a91 1c3c 0e02 3e3d e27f 2e3d
00000120: d4c6 2e3b 401b 4e3d 2740 6a3d 2bb4 43bc
00000130: 227e 623c 57ff dc3c becc 10bd 18a5 80bc
00000140: 0c5b d0bc 63c6 9ebc ef45 2fbc 35c4 c5bb
00000150: 3d17 e23c 06f8 f53c 1e36 c1bc d00f 18bd
00000160: 4a79 c0bc e1a0 2a3d ace5 223d 7a79 353d
00000170: 3fe2 883b 55e8 cc3c 1406 c43c e763 f0bc
00000180: f85b 8dbb ba94 11bd 2f91 773c f04b 33bd
00000190: 0cff b73c 7ee5 073d b5c6 c73c 7164 b8bc
000001a0: 4215 b7bc 421e b23b 4f8d a5bc a1c2 2abc
000001b0: 1cc1 2dbd f986 5e3d 3789 623d 33fb 14bd
000001c0: 229f 023d 47b8 9b3c 9130 0cbc 127e 6ebc
000001d0: abfc aabc 8df6 093c 3977 693d 23bf c03b
000001e0: ab13 05bd b8ce 54bc 71bf 153c fe17 493c
000001f0: 719a 5d3d 97d4 9ebc 6f29 9bbb 8ae2 3c3d
00000200: ab49 143d 1c72 acb9 818b 1abc 5814 26bd
00000210: 5dfd 5d3c ef8b 643d 01b3 203d 071a 14bd
00000220: f1a1 fb3c ad42 8d3c 4778 123d 3f9f c33c
00000230: bf7d 44ba 12a0 2cbc e297 0b3c 6fad c53c
00000240: ebaf 023c 5cca 613d 6a10 3f3d 7893 7fba
00000250: bbf8 c9bc 5bdc 07bd 5ad0 b9bc daa0 03bd
00000260: 33ab 503c f475 f4bc 9e42 5abc aaa5 90bc
00000270: 2ee3 9fbc 615f 013d f2cf fbba 0a7d 9f3c
00000280: 4763 17bb 52b6 423d 8659 c73c 803d db3b
00000290: be90 d53c a20b 1c3d 4ded 97bc a580 ba3c
000002a0: 67cb 04bd 2fe3 663d 6e00 053b 2630 643d
000002b0: 9dc9 86bc a367 2d3d a42a 4b3d 92e4 1cbd
000002c0: 1922 5bbb c088 093a 5591 27bd cc47 0cbd
000002d0: 7f22 2f3c cdc1 673d 2e68 08bc 394e 0b3d
000002e0: 4830 f63c 0d2c ccbc eac4 9fbc f990 bcbc
000002f0: 5349 663d 8fe8 3e3c a424 f43b 0760 95bc
00000300: 8d51 f5bc ea7b aebc 3de3 10bc 8d1f 653d
00000310: 2849 20bd 1db2 203d aa1c 343c eae6 6c3b
00000320: bde0 653c 58d0 03bb a6ab 123d a934 dd3c
00000330: 70d9 2cbb 82f9 d33c 4b4d 493d ed6d 113d
00000340: 9ec9 613d 44fc 5d3d fc99 00bd 583d 493d
00000350: d6c7 563d 6106 6c3d 101c 8cbc 2a3b 2fbb
00000360: f0b0 20bd 12b6 6f3c 3e52 3ebc 573d c93c
00000370: 2d84 18bb 034c a53c e61e dfbb 7e53 563d
00000380: e119 0b3d bd6e ed39 8628 203d 1339 3f3c
00000390: f9c6 c3bc d418 493c 9b9e d1bc 5475 b2bc
000003a0: f794 063d bbb9 efbc 91c0 353d 2b22 d0bc
000003b0: fc72 aa3c 591b 3e3d 75f4 053d d05b 29bd
000003c0: af42 1b3c 2b37 1cbd f4af 01bd c28d 4abc
000003d0: b98d 12bc 078e 19bb d738 29bd 2ff4 32bb
000003e0: 143d 493c 3307 813d 0cb6 4b3d 2abb 133c
000003f0: 12e2 36bd f1e9 dbbc fa1e 5c3c 53d2 46bc
-0.017956425 0.0426782 0.02729639 -0.0044299304 0.02760877 0.038579088 0.010582442 -0.028824428
0.05343438 -0.030468477 -0.0009089035 0.016214384 -0.0073188134 0.0006266191 0.012343212 0.05959016
0.014527992 0.040410984 0.021674497 0.018446954 0.058796447 0.05238602 0.055300906 -0.03428755
-0.036458697 -0.003530784 0.040167604 -0.017726807 0.04160571 -0.025383785 0.037396114 0.0023544363
0.0139479255 -0.0071801133 0.03330004 0.026442556 0.059438698 0.05250465 0.043934446 -0.019260706
-0.016691923 -0.009191098 0.007075087 0.029862707 0.05523195 0.011785633 0.036074597 0.0580981
0.0058305995 -0.026854457 0.004244876 0.03952892 0.048000246 0.029519152 0.024345329 -0.045813315
-0.03772426 0.034978494 -0.029348044 0.020448621 0.034643143 -0.008376637 -0.005541833 -0.039748486
-0.008720883 -0.009195889 0.0437374 0.023774814 -0.03839056 0.009556124 0.04638868 0.042602427
0.0026668804 0.050318956 0.057190087 -0.011944811 0.013824018 0.026977224 -0.035351507 -0.015703723
-0.02543404 -0.019381708 -0.010697826 -0.0060353526 0.027598972 0.030025493 -0.023585375 -0.037124455
-0.023495335 0.041657332 0.039769813 0.044305302 0.0041773613 0.025013128 0.02392868 -0.029344512
-0.004313942 -0.035542227 0.015110298 -0.04377359 0.022460483 0.033177845 0.024386743 -0.022508832
-0.022349004 0.005435736 -0.020208983 -0.01042238 -0.04242049 0.05432794 0.05530664 -0.036372375
0.031890042 0.019008769 -0.008556501 -0.014556425 -0.020872435 0.008420599 0.056998465 0.0058821603
-0.03248946 -0.012988739 0.0091398815 0.012273787 0.054102365 -0.01938848 -0.004735164 0.046114482
0.036203068 -0.00032891415 -0.009432674 -0.040546745 0.013549176 0.055797514 0.03923321 -0.036157634
0.030716868 0.017243708 0.035759237 0.023879645 -0.0007495544 -0.010536211 0.008520098 0.024130551
0.007976512 0.055124626 0.046646513 -0.00097494526 -0.024654737 -0.03316913 -0.022682358 -0.032135822
0.01273613 -0.0298414 -0.013321547 -0.01765712 -0.019517507 0.0315851 -0.0019211753 0.019468803
-0.0023099945 0.047537155 0.02433468 0.006690681 0.026069995 0.03809703 -0.018545771 0.02276642
-0.032420542 0.056369003 0.0020294446 0.05570998 -0.016453559 0.042335164 0.049601212 -0.03830392
-0.0033437072 0.00052465126 -0.040910084 -0.03424816 0.010689377 0.056581307 -0.00832562 0.034010146
0.03005232 -0.024923349 -0.019503076 -0.023018347 0.05622227 0.011652126 0.007450657 -0.018234266
-0.029946113 -0.021299321 -0.00884324 0.055938292 -0.039132267 0.039232362 0.010993162 0.0036148378
0.014030633 -0.0020113196 0.035808228 0.02700265 -0.002637472 0.02587581 0.049145978 0.035505224
0.055123918 0.054195657 -0.03139685 0.049130768 0.052436672 0.05762327 -0.017103225 -0.0026738145
-0.03923124 0.014630811 -0.011616288 0.024565382 -0.0023272142 0.020177847 -0.0068091033 0.052325718
0.033960227 0.0004528667 0.039101146 0.011671322 -0.023898588 0.012273986 -0.025588324 -0.021784462
0.032856908 -0.029263368 0.0443731 -0.025406918 0.020806782 0.0464128 0.032703836 -0.041347325
0.009476348 -0.03813855 -0.031661943 -0.012362899 -0.008944922 -0.0023430602 -0.041313972 -0.002730619
0.012282629 0.06300201 0.04973416 0.009016791 -0.04464919 -0.02684495 0.01343512 -0.012135106

fc3.weight f4 [2, 256]
00000000: d0ab 03ba 5b44 38bc abe9 f2bb 49be 0cbc
00000010: 3555 67bc 9bb4 3cbc ebe4 16bc 331a 4dbc
00000020: a221 51bc 08f5 f4bb 15a8 88bc 5dd9 dfbb
00000030: 8ac8 143b 3985 1fbc 7b49 41bc 9e5e 2bba
00000040: b3d8 36bc cefa 04bc b12c acbb f647 35bc
00000050: 3412 81bc 953a 53bc 081b 1dbc 7d75 08bc
00000060: 5338 04bc 4f8e 1cbc aa53 1fbc e883 3fbc
00000070: 7ae3 17bc 97e7 17bc ca75 10bc 2fa1 b0bb
00000080: 55e2 3fbb 5bda b4ba 93a1 16bc 8912 28bc
00000090: 1b01 8abc 2440 30bc 1550 dcbb 3029 51bc
000000a0: 98e0 1cbc b015 54bc e16d abbb 9834 e2ba
000000b0: 0783 13bc 8c79 02bc 61db a1bc e9ab 35bc
000000c0: 590a 693b b021 3ebc bb80 b0bb 0864 18bb
000000d0: e98e d2ba 6727 aebb 8d5a 4bbc 7ec8 87bb
000000e0: 66ba 4bbc 669e 4abc e624 4dbc 767e 35bc
000000f0: bf94 adbb 16aa 49bc c5db 3dbc d5d2 4dbc
00000100: 8e92 8fbc 20bd 4abc 75d1 44bc 3906 11bc
00000110: 3d37 cdbb 9c32 2dbc 35d1 2fbc 1a65 2bbc
00000120: 3b5b 0ebc a72d 44bc b77b 23bc 8088 8abb
00000130: a36c f6bb d828 2abc 2626 26bc d52c 16bc
00000140: ac6d 18bc 9321 29bc 300c 4dbc 1110 48bc
00000150: f27c 17bb 6299 02bc 2d2a 3bbc 938b 5bbc
00000160: 318b 89bc d11f 88bc 4d0e 1dbc b28a 68bc
00000170: 7077 aab9 8572 18bc 5d79 a1bc 7e03 42bc
00000180: f44c 01bc a12d 0dbc 46f8 12bc 3498 0db9
00000190: 794c f7bb de76 64bc 924e a0bc 7a5f 54bc
000001a0: 81e4 59bc 1b41 88bc 1036 0fbc 7889 1abc
000001b0: 085d 043b 0018 24bc 9ad5 1fbc 9e33 6ebc
000001c0: a839 9ebc 9c37 c739 1cd3 63bc c887 25bc
000001d0: 3fab 37bc 5e21 0fbc 26fa 50bc 1395 1dbc
000001e0: 4189 28bc c2a6 62ba 9501 2ebc abd0 28bc
000001f0: 32c3 45bc a287 17bc c3bb 41bc 6134 0dbc
00000200: 4fba 0ebc 7a6e 39bc 755a 71bc 1985 f7bb
00000210: 1eaf 44bc 9ad5 1ebc fc15 2cbc d317 48bc
00000220: 4411 22bc f804 35bc 3cb4 08bc 0245 10bc
00000230: 0eb8 48bc 474d 2cbc 36c6 0dbc 27da 50bc
00000240: f0c2 12bc ee9f 2ebc 7ea7 4dbb afcf 37bc
00000250: 9e01 15bc ad82 1bbc cf4f 05bc e2fd 9ebc
00000260: a06c 90bc 54a5 d0bb 376a 54bc b40d 45bc
00000270: 6a97 1bbc e080 1ebc 2e92 7dbc d11f 1abc
00000280: 4cd1 2ebc d2f8 22bc 4ab8 273a 878f 4abc
00000290: 911b 9abc 580d 35bc 125c 27bc 3c0e 2ebc
000002a0: 1b2f 2dbc c3f8 babb f208 d7bb 17e6 47bc
000002b0: d712 bbb9 c04c 40bc f688 52bc c533 1abc
000002c0: d14a 46bc 0fac 98ba 6c79 15bc ba44 2cbc
000002d0: fd46 42bc 1950 0cbc be41 8b39 f3bf 41bc
000002e0: 4f13 aebb 572b 4ebc 3036 5cbc d08e f1bb
000002f0: c65b 14bc 9b2c 1bbc f37a 38bc f955 d9bb
00000300: 4e97 89bc 1589 2dbc d17f 1cbc ac95 01bc
00000310: 0772 d7bb bfff 34bb 652d 18bc 41ff a7bb
00000320: a107 bebb 0d95 abbc bae3 28bc 4aa7 7bbc
00000330: db2d 42bc ddfe b4bb 5541 27bc c411 8fbc
00000340: 65e9 35bc 428a f3bb 9c36 99bc f7c8 a2bc
00000350: 097a 3bbc ebed 33bc 26df 47bc 74c8 49bc
00000360: a391 e8bb 4a7b 49bc fdc6 c6ba 5b60 2dbc
00000370: e877 56bc a630 22bc fd5e 29bc 1256 30bc
00000380: f3e9 24bc 8bca 54bc 8dfa 34bc 11b0 58bc
00000390: b683 59bc 087d 1cbc 01a5 50bc 8d8d 7ebc
000003a0: 9e5d 4fbc 8334 13bc e01b 7abc cfb8 77bc
000003b0: 6e8f e4bb cf70 4fbc 50d2 d7bb 1f76 26bb
000003c0: 47eb 3cbc 9262 6ebc 8897 0339 d3f5 c7bb
000003d0: 824b edbb d773 30bc 6c09 0dbc a2cc 51bc
000003e0: 69e7 55bc b06f 3bbb e0ee 97bb dff7 0abc
000003f0: 47a4 b93a 5434 3bbc b2c4 b3ba 2997 1dbc
-0.00050228555 -0.011246766 -0.0074131093 -0.008590289 -0.014119436 -0.011517669 -0.009209852 -0.012518453
-0.012764366 -0.007475499 -0.01668171 -0.0068313316 0.0022702538 -0.009736353 -0.011797304 -0.00065372314
-0.011160064 -0.008116437 -0.005254351 -0.01106452 -0.01575575 -0.012892385 -0.009588964 -0.008328793
-0.008070069 -0.009555413 -0.009724537 -0.011689164 -0.009270543 -0.009271524 -0.008817146 -0.0053903083
-0.0029279192 -0.0013797985 -0.009193796 -0.010258325 -0.01684623 -0.01075748 -0.0067234137 -0.0127661675
-0.009575032 -0.012944624 -0.0052316044 -0.0017258106 -0.009003407 -0.007963549 -0.019757928 -0.01108835
0.0035559146 -0.011604711 -0.0053864396 -0.0023252983 -0.0016064319 -0.0053147557 -0.012411726 -0.0041437736
-0.012434578 -0.012366867 -0.012521004 -0.011077514 -0.005297273 -0.012308618 -0.011588042 -0.012562473
-0.017525937 -0.0123741925 -0.012012829 -0.008851581 -0.0062626884 -0.010571148 -0.010731031 -0.010461116
-0.008688743 -0.011973775 -0.009978226 -0.004227698 -0.0075202747 -0.0103857145 -0.010140931 -0.009165962
-0.009303492 -0.010322946 -0.012515113 -0.012210862 -0.0023115245 -0.00797114 -0.01142363 -0.013399976
-0.016790004 -0.016616734 -0.009585929 -0.014193224 -0.00032513915 -0.009304647 -0.01971119 -0.011841653
-0.007891882 -0.008616836 -0.008970326 -0.00013503508 -0.007546958 -0.013944356 -0.019568715 -0.0129622165
-0.0132991085 -0.016632607 -0.008740917 -0.009432189 0.0020197053 -0.010015488 -0.009755516 -0.014538674
-0.019314602 0.0003799767 -0.013905313 -0.010103174 -0.011210262 -0.008735983 -0.012754953 -0.009618062
-0.01028663 -0.00086460647 -0.010620494 -0.010303657 -0.012070464 -0.009248646 -0.011824551 -0.008618445
-0.008711412 -0.011317844 -0.014731039 -0.0075537083 -0.012004642 -0.009694481 -0.010503288 -0.012212711
-0.009891812 -0.011048548 -0.0083437525 -0.008805515 -0.012250913 -0.010516471 -0.008653214 -0.012747324
-0.0089576095 -0.010658247 -0.003138035 -0.011218949 -0.009094624 -0.009491605 -0.008136704 -0.01940817
-0.017629921 -0.006367365 -0.012964777 -0.012027193 -0.009496549 -0.009674281 -0.0154767465 -0.009407
-0.010670017 -0.009947019 0.00063980056 -0.012363321 -0.018811973 -0.011050545 -0.010214822 -0.010623511
-0.010570313 -0.0057059242 -0.0065623457 -0.012200854 -0.00035681456 -0.011737049 -0.012850037 -0.009411757
-0.012102799 -0.0011647957 -0.0091231875 -0.010514433 -0.011857745 -0.008564019 0.00026561128 -0.011825549
-0.0053123604 -0.012583575 -0.013440654 -0.007371761 -0.009055084 -0.009471084 -0.011259782 -0.006632563
-0.01679578 -0.010591765 -0.009551958 -0.00790922 -0.0065748724 -0.0027618257 -0.009288167 -0.005126864
-0.0057992493 -0.020945096 -0.0103082005 -0.015359709 -0.011851753 -0.005523546 -0.010208447 -0.017464526
-0.011103009 -0.007432253 -0.018702798 -0.019871218 -0.01144267 -0.010982017 -0.012199199 -0.012315858
-0.0070974394 -0.012297461 -0.0015165504 -0.010582055 -0.013090111 -0.009899294 -0.010337588 -0.010762708
-0.010065543 -0.012987743 -0.011046064 -0.013225571 -0.013276031 -0.009551294 -0.0127346525 -0.015536678
-0.012656597 -0.008984688 -0.015265435 -0.015119745 -0.006975106 -0.012661173 -0.0065863505 -0.0025399996
-0.011530704 -0.014549868 0.00012549583 -0.0061023026 -0.0072416672 -0.010769806 -0.008608203 -0.012805136
-0.013055661 -0.0028600506 -0.0046366304 -0.008481949 0.0014163338 -0.01142605 -0.0013715236 -0.009618559

fc3.bias f4 [2]
00000000: 89bb 83bd a29b 8ebb
-0.06432254 -0.004352049
