projects/tennis/checkpoint/RE26/RE26.12_actor0_20000.pt (torch_old, 453689 bytes, 6 tensors)

fc1.weight f4 [400, 24]
0	0xbd8f8c24	-0.070091516
1	0xbd10e935	-0.035378654
2	0x3cca3209	0.024682062
3	0xbb28e206	-0.0025769486
4	0x3ca5c2e0	0.020234525
5	0x3c7d6898	0.015466832
6	0x3c5ac1b8	0.01335185
7	0x3c07ca88	0.008288033
8	0xbc1d2a2b	-0.009592573
9	0x3cdaa426	0.0266896
10	0x3cb53edc	0.0221247
11	0xbd74e8fc	-0.059792504
12	0x3d42997a	0.047509648
13	0xbd3d8648	-0.04627064
14	0xbcc55f56	-0.024093311
15	0xbd75c836	-0.06000539
16	0xbd0b552f	-0.034016784
17	0x3d7a87c7	0.061164644
18	0xbd662bac	-0.056193992
19	0xbc2d07f1	-0.010560975
20	0x3d262818	0.04056558
21	0xbcb48020	-0.022033751
22	0xbd67b54c	-0.056569383
23	0xbd63a85d	-0.055580486
24	0xbc1292c9	-0.008946129
25	0x3c86d205	0.016457567
26	0x3c02bc0b	0.007979403
27	0x3cd6cf65	0.02622194
28	0x3c4a5991	0.012350456
29	0x3cdbc3c3	0.026826745
30	0xbb00bd08	-0.0019643921
31	0x3c9e068a	0.019290227
32	0xbb78a0c3	-0.0037937618
33	0xbc490054	-0.012268145
34	0x3d11acc7	0.035565164
35	0xbc5f03c7	-0.01361174
36	0x3d2e6ad0	0.042582333
37	0x3cb2663f	0.02177727
38	0x3c49336c	0.012280326
39	0xbc079b2f	-0.008276745
40	0x3d11c52d	0.035588432
41	0x3aaf28b7	0.0013363574
42	0x3d34c9e8	0.044137865
43	0xbbbc3e15	-0.0057447054
44	0x3d28d7d2	0.041221447
45	0x3d8aac60	0.06771159
46	0x3d16d7ff	0.036827084
47	0x3b6025c5	0.00342022
48	0xbce45686	-0.027873289
49	0x3d00c886	0.031441234
50	0x393db047	0.00018090113
51	0x3da51e05	0.080623664
52	0x3d1c5820	0.03816998
53	0x3d693f4d	0.056945134
54	0xbd8d3d97	-0.06896513
55	0x3d0ac694	0.033880785
56	0xbd4eeebd	-0.050520647
57	0x3ce2b7a5	0.02767546
58	0xbc7d3dbb	-0.015456612
59	0x3cf47f3c	0.029845826
60	0xbc7e55a8	-0.015523352
61	0xbbb17fc1	-0.005416841
62	0xbd01a5bd	-0.0316522
63	0x3d56d9a6	0.05245366
64	0x3c8e18e3	0.017345851
65	0x3d64a69e	0.05582296
66	0xbd00cf5e	-0.03144776
67	0xbb3da6e9	-0.0028938598
68	0x3d1fe09e	0.03903257
69	0xbd020504	-0.031743065
70	0xbd7458fa	-0.059655167
71	0x3d8349f6	0.06410591
72	0xbcfaa4c9	-0.030596154
73	0xbb2146c9	-0.0024608842
74	0xbd2aad8f	-0.041669425
75	0x3c1a0016	0.009399435
76	0xbc4be42f	-0.01244454
77	0xbbcf434e	-0.006325162
78	0xbd8c31b0	-0.06845415
79	0xbd3dc25a	-0.046327926
80	0x3caa6aa4	0.020802803
81	0x3da10481	0.07862187
82	0x3be7156b	0.007052114
83	0xbd116bd3	-0.03550322
84	0x3c83651f	0.01603943
85	0x3c7119ab	0.014715592
86	0x3b9c91c3	0.0047781183
87	0xbd5e4ceb	-0.054272573
88	0xbc5539a3	-0.01301423
89	0x3d0f68c4	0.03501202
90	0xbd070188	-0.032960445
91	0xbd3a1df8	-0.045438737
92	0x3cf23755	0.0295674
93	0xbd4b49dd	-0.04963099
94	0x3ccefeea	0.025268037
95	0xbdb9968a	-0.09061916
96	0x3d12b6b1	0.03581876
97	0xbd34f05f	-0.04417455
98	0x3d371e59	0.044706676
99	0xbd861273	-0.06546488
100	0xbc730bb0	-0.0148343295
101	0xbd52569b	-0.051352125
102	0x3d7f4b69	0.062327776
103	0xbd6c5d88	-0.057706386
104	0x3a43560e	0.0007451483
105	0x3cb46ddb	0.02202504
106	0xbcfeb4ab	-0.031092009
107	0xbd55ff85	-0.052245636
108	0x3d4db256	0.050218903
109	0xbc6cfc87	-0.014464504
110	0x3d66b708	0.056326896
111	0xbd935b47	-0.07195144
112	0x3c90bba5	0.0176676
113	0xbcfec9ac	-0.031102024
114	0x3bcafd99	0.006194782
115	0x3cd68742	0.026187543
116	0xbd53b2cc	-0.051684186
117	0xbd20727e	-0.03917169
118	0x3c0af2eb	0.008480768
119	0xbd8cb12c	-0.0686973
120	0xbd1d1c2c	-0.038356945
121	0x3c5317ba	0.012884075
122	0x3d2de7eb	0.042457502
123	0x3cb2e428	0.021837309
124	0x3d7719b5	0.06032725
125	0x3cbcbde2	0.023039762
126	0x3d324ca3	0.043530118
127	0x3ca7ed1a	0.020498801
128	0xbd58b2b9	-0.05290482
129	0xbc97d00a	-0.018531818
130	0x3ae44b45	0.0017417452
131	0xbc08000c	-0.008300792
132	0x3cc4997f	0.023998974
133	0x3d120b3b	0.03565524
134	0x3c07db67	0.008292056
135	0xbd28b5b6	-0.041188918
136	0xbd3285cb	-0.043584626
137	0xbd5c14c2	-0.053730734
138	0xbccf44e2	-0.0253014
139	0x3b811df8	0.00394034
140	0x3d74159d	0.059590925
141	0xbceb56b2	-0.028727863
142	0x3d1050ad	0.03523319
143	0xbce97813	-0.028499639
144	0xbd7eced7	-0.062208977
145	0xbba78395	-0.0051121213
146	0xbcc71978	-0.024304137
147	0x3d7e22d9	0.062044952
148	0xbbcaa145	-0.0061837756
149	0x3cd69ba7	0.026197268
150	0x3d2e1550	0.042500794
151	0x3d2e4c83	0.042553436
152	0xbcbdb287	-0.023156418
153	0xbc4bcc63	-0.012438866
154	0x3d8d4dbe	0.06899594
155	0xbc148cae	-0.009066744
156	0x3d83f581	0.064433105
157	0xbd19de94	-0.037565783
158	0x3d8c7caf	0.06859719
159	0x3d135258	0.0359672
160	0x3ca7f5e1	0.020502986
161	0xbd25ad8d	-0.040448714
162	0xbcabe9f2	-0.020985577
163	0x3cee6d78	0.029104933
164	0x3d9280cc	0.07153472
165	0xbd5d56d7	-0.054037895
166	0xbb183563	-0.002322518
167	0x3b9d5ce0	0.0048023313
168	0x3d2ad9b7	0.041711535
169	0xbc37f804	-0.011228565
170	0xbc5c310b	-0.013439427
171	0x3c255e7f	0.01009333
172	0x3cfa635b	0.030564955
173	0x3cb43227	0.02199657
174	0xbc2b4355	-0.010453065
175	0xbd1ecde9	-0.03877059
176	0x3d2107e3	0.039314162
177	0x3cf64abd	0.030064935
178	0xbc19ee92	-0.0093952585
179	0xbb2f29ff	-0.0026727912
180	0x3bae87a3	0.0053262278
181	0xbd5f9245	-0.054582853
182	0xbcb09a07	-0.021557821
183	0xbb3b1477	-0.0028546134
184	0x3d5cfcdc	0.053952083
185	0x3cfcdcf1	0.030867072
186	0xbd09d1f8	-0.033647507
187	0x3bb34156	0.005470435
188	0xbca2127c	-0.019784205
189	0x3bc10232	0.0058901543
190	0x3d1681ad	0.036744762
191	0x3c63a4bd	0.013894257
192	0x3d3717e3	0.044700515
193	0xbcec6a40	-0.028859258
194	0x3b70c551	0.0036738703
195	0x3c8fa4dd	0.017534668
196	0xbcc46d1f	-0.023977814
197	0xbd325600	-0.043539047
198	0xbd2ab4bd	-0.04167627
199	0xbcd930db	-0.026512554
200	0x3c2e3055	0.01063164
201	0xbc6b5e99	-0.014365816
202	0xbd453fda	-0.048156597
203	0x3d514cc6	0.051098607
204	0xbbaaa8a8	-0.0052080937
205	0xbc2038b4	-0.009779144
206	0x3c60799c	0.013700869
207	0x3c651f62	0.013984533
208	0xbcd98c0e	-0.026556041
209	0x3c116f65	0.008876656
210	0x3d15194e	0.036401086
211	0x3c66897e	0.014070867
212	0x3d92610e	0.07147418
213	0x3ced0e9b	0.028937628
214	0xbba08148	-0.004898224
215	0x3d0f8020	0.0350343
216	0xbd21eb23	-0.039530884
217	0x3d537105	0.051621456
218	0x3c457081	0.012050749
219	0x3c449779	0.0119990045
220	0x3ccc853d	0.024965877
221	0x3b848f11	0.004045375
222	0xbd0a13d9	-0.033710334
223	0x3d5b7bd9	0.053584907
224	0xbc833c83	-0.016020065
225	0x3d838910	0.06422627
226	0x3cf05d8b	0.02934148
227	0xbd749fe3	-0.059722792
228	0x3d016970	0.031594694
229	0xbb6a24dd	-0.0035727539
230	0xbd3d1cb2	-0.046169944
231	0xbd23341c	-0.039844617
232	0xbc99779e	-0.018733796
233	0x3d76e70e	0.060278945
234	0xbd3b733d	-0.045764197
235	0xbd3e211f	-0.046418305
236	0x3cf04bc3	0.029333001
237	0xbd203222	-0.03911031
238	0xbd892270	-0.066960216
239	0xbc3d623b	-0.0115590645
240	0xbb7b25e8	-0.0038322154
241	0x3d3a2fb8	0.045455664
242	0xbb95978a	-0.004565184
243	0xbbf86ab0	-0.0075810775
244	0xbbd71702	-0.006564022
245	0xbc33c0f2	-0.010971295
246	0x3d3073bd	0.043079127
247	0xbd03f24d	-0.032213498
248	0xbcaf8e15	-0.021430055
249	0xbd20f5dd	-0.039296973
250	0x3ca65050	0.020301968
251	0xbca22ab9	-0.019795762
252	0xbd698971	-0.05701584
253	0x3bae2854	0.005314866
254	0x3d3bb5e0	0.045827746
255	0x3c13bee8	0.009017684

fc1.bias f4 [400]
0	0x3d9cd9d1	0.07658733
1	0xbe22fc77	-0.1591662
2	0x3d9055f2	0.07047643
3	0x3d21c4ef	0.03949445
4	0x3e4b98bd	0.19882484
5	0x3e22a9b0	0.15885043
6	0xbe0b950c	-0.13631076
7	0xbddc17de	-0.1074674
8	0x3c560670	0.013063058
9	0x3e0f0b50	0.13969159
10	0x3e058cf3	0.13042049
11	0x3e4e2024	0.20129448
12	0x3d056311	0.03256518
13	0x3d888a7a	0.06667037
14	0x3c2aa6d6	0.010415753
15	0x3cbc6f8b	0.023002407
16	0xbd715b92	-0.05892522
17	0x3d6879db	0.056756835
18	0x3dd07630	0.101787925
19	0xbe176f20	-0.14788485
20	0x3e40cfac	0.1882922
21	0xbdac1c4c	-0.08403835
22	0x3dc768fc	0.09736821
23	0xbe05c191	-0.13062121
24	0xbdbf11bd	-0.09329555
25	0x3e4c5ce9	0.19957317
26	0x3d12a408	0.035800964
27	0x3e3ec152	0.18628433
28	0x3e5904ab	0.21193187
29	0x3db75371	0.08951462
30	0xbdbda039	-0.09259076
31	0x3d41cf8a	0.047317065
32	0xbe0b2527	-0.13588391
33	0xbe0d9546	-0.13826475
34	0x3d90c00e	0.070678815
35	0xbcd06d53	-0.025442755
36	0x3e12fe8c	0.14354914
37	0x3e15d19a	0.14630738
38	0xbd8e5214	-0.06949249
39	0x3e3a830a	0.1821405
40	0x3dc5f984	0.09666732
41	0x3dbddae7	0.09270268
42	0x3d1b7731	0.037955467
43	0x3e3b5c44	0.18296915
44	0x39a9c1da	0.00032378623
45	0xbcc64fee	-0.024208035
46	0x3e527570	0.20552611
47	0x3d917bc9	0.07103688
48	0xbd193702	-0.037405975
49	0x3d217727	0.039420273
50	0x3c41fc28	0.011839904
51	0x3e129310	0.14313912
52	0x3db30de9	0.087428875
53	0xbcbacbee	-0.02280232
54	0x3db75da7	0.0895341
55	0xbd9697f9	-0.07353205
56	0x3def6259	0.1168868
57	0xbdef94d8	-0.116983116
58	0x3ded3608	0.11582571
59	0x3b514d04	0.0031936774
60	0xbe0b499b	-0.13602297
61	0xbe178359	-0.14796199
62	0xbe12794b	-0.14304082
63	0x3d2ccfad	0.042190243
64	0x3dff2170	0.124575496
65	0xbdf8eafc	-0.12154195
66	0x3d86a8b6	0.06575148
67	0x3d7b83ca	0.06140498
68	0xba8ffd86	-0.001098559
69	0xbd972ee9	-0.07381994
70	0x3e337586	0.175253
71	0xbd4f9c3b	-0.050686102
72	0x3e462369	0.19349445
73	0x3e54c985	0.20779999
74	0x3e53be0b	0.20677964
75	0x3d5d90b2	0.05409307
76	0x3de26775	0.11054889
77	0xbe2ca47f	-0.16859625
78	0x3dd3226a	0.10309298
79	0x3d68fb63	0.056880366
80	0xbddb0a63	-0.106953405
81	0x3a882b0a	0.0010388803
82	0x3e405ace	0.18784639
83	0xbca11130	-0.019661516
84	0xbc8810ec	-0.016609631
85	0x3e32755c	0.17427582
86	0xbd7d75a1	-0.061879758
87	0xbe051d04	-0.1299935
88	0x3e133bf4	0.14378339
89	0xbd2a7708	-0.041617423
90	0x3c48a718	0.0122468695
91	0x3e37d999	0.179541
92	0x3dd8a9a5	0.10579232
93	0x3df82bf9	0.12117762
94	0x3c7bd5b5	0.015370776
95	0x3cfab32a	0.03060301
96	0xbd406e10	-0.046979964
97	0xbe3b1775	-0.18270667
98	0xbe1b7ba3	-0.15183882
99	0xbde165ab	-0.1100572
100	0xbda46966	-0.08027916
101	0x3d91fa58	0.071278274
102	0x3e5298e8	0.20566142
103	0x3db26b02	0.08711816
104	0x3e3c2267	0.18372498
105	0x3e0a9492	0.13533238
106	0xbcf922f8	-0.030412182
107	0xbe116f92	-0.14202717
108	0x3e2cd536	0.16878209
109	0x3e15a3d7	0.14613281
110	0xbe2e9688	-0.1704961
111	0x3dc77316	0.09738748
112	0x3daaf258	0.08347005
113	0x3db2db71	0.087332614
114	0xbdbec39a	-0.09314652
115	0x3d906115	0.07049767
116	0x3e4580d2	0.19287422
117	0x3cadae01	0.021201136
118	0x3e20c9a4	0.1570192
119	0xbd1a2e84	-0.037642017
120	0x3debbb6c	0.11510357
121	0x3e0cdb57	0.13755547
122	0x3cc69527	0.024241043
123	0xbe304e0c	-0.17217273
124	0x3de45af7	0.11150163
125	0x3da4fbda	0.080558494
126	0xbcbe285c	-0.023212604
127	0xbd811673	-0.0630311
128	0xbdd1548d	-0.10221205
129	0xbe2b054b	-0.16701238
130	0xbe3907ab	-0.18069331
131	0xbe025f6b	-0.12731712
132	0xbe3a9a51	-0.1822293
133	0xbe0f3e34	-0.13988572
134	0xbde19654	-0.11015001
135	0xbe01ad3d	-0.12663741
136	0x3d2ca836	0.042152606
137	0xbd9b3835	-0.0757908
138	0xbe47a7e3	-0.19497637
139	0x3d2d1fb5	0.042266566
140	0xbe00f0a6	-0.125918
141	0xbe0410b1	-0.12896992
142	0x3be8b120	0.007101193
143	0xbe313d0a	-0.17308441
144	0xbdeedb75	-0.11662952
145	0xbd89fb01	-0.06737328
146	0xbd5cc283	-0.05389644
147	0xbddc65f3	-0.10761633
148	0xbe389b51	-0.18027999
149	0xbe1618f0	-0.1465795
150	0xbe2281d2	-0.15869835
151	0x3e26dc75	0.16295035
152	0x3d767969	0.06017438
153	0x3e31f390	0.17378068
154	0x3e0283ea	0.12745634
155	0xbe097042	-0.13421729
156	0xbd836d8a	-0.06417377
157	0x3cbb9108	0.022896305
158	0x3c9c94a0	0.019113839
159	0xbe3e1d8a	-0.18565956
160	0xbe10b53b	-0.14131634
161	0xbd3bb2af	-0.045824703
162	0xbe09fd55	-0.13475545
163	0x3d3c68be	0.045998327
164	0xbd083d32	-0.033261485
165	0x3cba6dbf	0.02275741
166	0xbe09fe30	-0.13475871
167	0x3b99cef5	0.0046938607
168	0x3dc6b5d6	0.09702651
169	0xbe10c805	-0.14138801
170	0x3d4a0345	0.049319524
171	0xbe17786e	-0.14792034
172	0x3bb23f47	0.005439672
173	0xbe24cc7e	-0.16093633
174	0x3e16d820	0.14730883
175	0xbd838935	-0.064226545
176	0x3dea8cad	0.11452613
177	0xbe39d1b6	-0.18146405
178	0x3daf59da	0.0856206
179	0x3c1945ef	0.009355052
180	0xbd7e7533	-0.06212349
181	0x3e0d8fd8	0.13824403
182	0x3e664c41	0.22490026
183	0xbdbcd532	-0.09220351
184	0x3d8ea785	0.069655456
185	0x3e23a213	0.15979795
186	0xbdcd7a5b	-0.10033103
187	0x3e49410a	0.19653717
188	0x3c3e4be7	0.011614776
189	0xbdaf3ff7	-0.08557122
190	0x3d753d4c	0.05987291
191	0x3e04fe9e	0.12987754
192	0x3d86041b	0.06543752
193	0xbdfc6c93	-0.123253964
194	0x3c59eab5	0.013300587
195	0xbe04a645	-0.12954052
196	0x3e169a27	0.14707242
197	0xbe1221ba	-0.14270678
198	0x3dc9e59e	0.09858249
199	0xbd9bcbc1	-0.07607222
200	0xbc9b0dd2	-0.018927488
201	0x3d29914b	0.041398328
202	0xbcac605e	-0.021042045
203	0xbd11c95b	-0.03559242
204	0x3e4c8a9f	0.19974755
205	0x3db6ad5b	0.08919784
206	0x3e02675f	0.12734745
207	0xbdb6e8c1	-0.08931113
208	0xbd8234db	-0.06357738
209	0xbd847dc5	-0.06469301
210	0x3d40dbf8	0.04708478
211	0x3e014566	0.1262413
212	0x3e3027e7	0.17202722
213	0x3e1455a8	0.144858
214	0x3e16b27d	0.14716525
215	0x3c9bd904	0.01902438
216	0xbdb253b2	-0.0870737
217	0x3d8e0039	0.06933636
218	0xbe1fedf1	-0.15618111
219	0x3d205035	0.03913899
220	0x3c99d233	0.018776989
221	0xbd97e4ef	-0.074167125
222	0x3e45647e	0.19276616
223	0xbe34e7f9	-0.17666616
224	0xbe385499	-0.18001021
225	0xbe272840	-0.16323948
226	0xbdfbe763	-0.12299993
227	0x3e3dd944	0.18539912
228	0xbe2b57ec	-0.16732758
229	0xbbdf3a3c	-0.006812362
230	0xbe30b8d2	-0.17258003
231	0x3d04e9b8	0.032449454
232	0xbd513d8a	-0.05108408
233	0xbe183a75	-0.1486605
234	0x3d24e0b3	0.040253352
235	0x3e4cce54	0.20000583
236	0x3e525942	0.20541862
237	0x3b27eadf	0.0025622172
238	0xbe23ae05	-0.15984352
239	0x3e4965e4	0.19667774
240	0xbd8ab087	-0.06771951
241	0xbd940d83	-0.0722914
242	0xbdc6c7b6	-0.097060606
243	0xbe273aed	-0.16331072
244	0x3e56c362	0.2097297
245	0x3d68de28	0.05685249
246	0x3df9aab8	0.12190765
247	0xbe143b17	-0.14475666
248	0x3e25b8d5	0.16183789
249	0x3dc7433c	0.09729621
250	0xbe27d423	-0.16389517
251	0xbd041b93	-0.03225286
252	0x3e0a54ab	0.13508861
253	0xbe2dd69c	-0.16976398
254	0x3d6531e1	0.05595577
255	0xbdc3152c	-0.095255226

fc2.weight f4 [256, 400]
0	0x3d6aaa4e	0.05729132
1	0xbcfe4fa7	-0.03104384
2	0xbd7c29c1	-0.061563257
3	0xbc50a7df	-0.012735336
4	0x3d15f7f4	0.03661342
5	0xbca4e411	-0.020128282
6	0xbd865956	-0.06560008
7	0x3d280146	0.04101684
8	0x3bc9a177	0.0061532813
9	0x3a8cf96e	0.0010755488
10	0x3d41b205	0.047288913
11	0x3d9a6810	0.075393796
12	0x3d50e888	0.05100301
13	0x3b829b4c	0.003985798
14	0xbcb854dc	-0.022501402
15	0x3d891111	0.06692708
16	0xbcfd9b10	-0.030957729
17	0xbbbc0ae6	-0.005738604
18	0xbd0b9d59	-0.034085605
19	0xbcf74a8b	-0.030186912
20	0x3d419dba	0.04726956
21	0xbc87daf8	-0.016583905
22	0xbc88cd97	-0.016699595
23	0x3c8a8e89	0.01691367
24	0x3cb56304	0.02214194
25	0x3cc0926b	0.023507318
26	0x3d90d67e	0.07072161
27	0x3c8f36a4	0.01748211
28	0x3d763b47	0.060115125
29	0xbbfc3b4e	-0.0076974994
30	0xbd50fbda	-0.051021434
31	0x3c31ddd5	0.0108561115
32	0xbcc0d26f	-0.023537843
33	0x3d490364	0.0490755
34	0x3c7088f5	0.014681091
35	0x3d8e8b07	0.06960111
36	0xbd278987	-0.04090264
37	0x3c0db829	0.008649864
38	0xbc5af1c3	-0.013363305
39	0xbd1341c3	-0.035951387
40	0xbc95004d	-0.01818862
41	0xbd20a7d5	-0.039222557
42	0x3cc6bc1c	0.02425962
43	0x3d426b08	0.047465354
44	0xbd052fac	-0.032516167
45	0xbcaf5489	-0.021402614
46	0x3d7ec238	0.06219694
47	0x3d8e627c	0.06952378
48	0x3d0176f8	0.031607598
49	0xbd542bf1	-0.05179972
50	0xbb347fe0	-0.002754204
51	0x3d89bcaf	0.06725442
52	0xbcc00a6b	-0.023442468
53	0xbc57aee2	-0.013164254
54	0x3da9ae86	0.08285241
55	0xbd46a2ab	-0.048494976
56	0x3c83065e	0.015994247
57	0x3d9fc1f6	0.07800667
58	0xbd416819	-0.047218416
59	0xbcde7e5f	-0.027159868
60	0xbd298de4	-0.041395083
61	0xbc90e28c	-0.017686151
62	0xbcb054ba	-0.021524776
63	0xbcd48f62	-0.025947277
64	0xbd40a4c3	-0.04703213
65	0xbd1da8f4	-0.038491204
66	0x3d065e09	0.032804523
67	0x3cf75aef	0.030194728
68	0x3d65642c	0.056003734
69	0xbc4995d9	-0.012303793
70	0x3d58a7c4	0.05289437
71	0xbcf2ea40	-0.029652715
72	0xbc6a7e2b	-0.014312307
73	0xbc13c0c6	-0.009018129
74	0x3c677288	0.0141264275
75	0xbd44e71e	-0.048071973
76	0xbc9b5b6b	-0.01896449
77	0xbce0dd55	-0.02744929
78	0x3d892e9f	0.066983454
79	0x3d03d6d4	0.032187298
80	0xbd0424d3	-0.03226168
81	0xbcf4d42c	-0.029886328
82	0xbd357dcc	-0.044309422
83	0x3cc628ae	0.02418932
84	0xbc3a6065	-0.011375521
85	0x3d70cc42	0.058788545
86	0xbd880be5	-0.06642894
87	0x3d675bad	0.056483913
88	0xbd27bd2b	-0.04095189
89	0xbae68913	-0.0017588459
90	0xbc0136b3	-0.0078865765
91	0x3d186a4d	0.03721075
92	0x3ca5f9d1	0.020260723
93	0x3d7444d7	0.059635963
94	0xbd2c427e	-0.0420556
95	0x3c992eaf	0.018699018
96	0xbc675d6b	-0.014121394
97	0xbc9eef1a	-0.019401122
98	0x3dab8eb7	0.0837683
99	0xbb801f6c	-0.003909996
100	0x3d02313e	0.031785242
101	0x3d4804c3	0.048832666
102	0xbd40dcba	-0.0470855
103	0x3d2c5589	0.04207376
104	0xbcbe3378	-0.023217902
105	0x3cdf0494	0.027223863
106	0xbab17e24	-0.0013541621
107	0xbd553d04	-0.052060142
108	0x3d8c9e3f	0.068661205
109	0xbd3b7b2a	-0.045771755
110	0xbcead579	-0.028666245
111	0x3ceeee60	0.0291664
112	0xbd717e79	-0.058958504
113	0x3d62b649	0.055349622
114	0x3d808ea6	0.06277208
115	0xbc09d6b2	-0.008413004
116	0xbd17ac8d	-0.03702979
117	0x3d22db71	0.039760057
118	0x3c44a739	0.01200276
119	0xbd1c0086	-0.038086437
120	0xbd04a60e	-0.032384925
121	0x3d78c4ba	0.060734488
122	0x3b1f67dd	0.0024323382
123	0xbcb413e1	-0.021982135
124	0xbc820af3	-0.015874362
125	0xbd33da81	-0.043909553
126	0xbbbd4913	-0.0057765334
127	0xbd4290b0	-0.047501266
128	0xbce8d553	-0.028422033
129	0xbd4c3699	-0.049856756
130	0xbd12fc04	-0.035884872
131	0x3c00e12a	0.007866183
132	0xbd25bf5f	-0.04046571
133	0x3d5bd290	0.053667605
134	0x3b8e6b5d	0.004346295
135	0xbd1340f8	-0.03595063
136	0x3c7d124e	0.015446259
137	0x3cba8711	0.022769483
138	0xbd82876c	-0.06373486
139	0x3d2e5c86	0.042568706
140	0xbccd21d4	-0.025040545
141	0x3d123da8	0.03570333
142	0x3d779bc8	0.0604513
143	0x3d522a07	0.05130961
144	0xbd2d63dc	-0.04233156
145	0xbd733dca	-0.0593851
146	0x3cb22db9	0.021750318
147	0x3d59ae05	0.053144474
148	0xbda2fbcc	-0.07958183
149	0x3c60ec10	0.013728157
150	0xbd5c0b69	-0.05372182
151	0x3d420336	0.047366343
152	0x3cd7051e	0.026247557
153	0x3c18213b	0.0092852665
154	0x3b9106d4	0.004425863
155	0xbd4fc24f	-0.050722416
156	0x3d159557	0.036519375
157	0xbc824189	-0.01590039
158	0xbcd4870f	-0.025943307
159	0x3c266c73	0.010157692
160	0x3d051e44	0.032499567
161	0xbd07cd78	-0.033154935
162	0xbc0980ca	-0.008392522
163	0x3cc5e57a	0.024157275
164	0x3d360739	0.04444048
165	0x3d116c3e	0.03550362
166	0x3cddc919	0.02707343
167	0xbd1e9a06	-0.038721107
168	0x3a22b22a	0.0006206358
169	0xbc337b02	-0.01095462
170	0x3cb6b5ea	0.02230354
171	0x3d017938	0.031609744
172	0x3a459f5a	0.0007538699
173	0x3d6ecfdf	0.05830371
174	0x3d470141	0.04858518
175	0xbd492f13	-0.04911716
176	0x3c9de53b	0.019274345
177	0xbcfcb96f	-0.03085014
178	0xbc99277d	-0.018695587
179	0x3d63d448	0.05562237
180	0xbd43e899	-0.047829244
181	0x3c4e572a	0.012594024
182	0xbd6f5f5f	-0.058440562
183	0x3d72b776	0.059256993
184	0xbd0c1d24	-0.03420748
185	0x3d3ed862	0.046593077
186	0x3c43104c	0.011905741
187	0x3d9f85a8	0.07789165
188	0x3ae3e3f7	0.0017386664
189	0xbd0279f3	-0.03185458
190	0x3cfe0062	0.031006042
191	0x3c8c3ee0	0.017119825
192	0xbc621da3	-0.013801011
193	0xbc5254f9	-0.012837642
194	0x3d24842c	0.04016511
195	0x3cda8d18	0.026678607
196	0xbcc03367	-0.02346201
197	0xbd5b33a0	-0.05351603
198	0xbbbe262b	-0.00580289
199	0xbd4df7e9	-0.050285254
200	0xbd0632a1	-0.032763127
201	0x3d1b5a95	0.037928183
202	0xbcfe366f	-0.031031815
203	0x3d0652d8	0.03279385
204	0xbd22c54e	-0.039738946
205	0xbd2f5f5d	-0.042815555
206	0x3da6334b	0.08115252
207	0xbd182137	-0.03714105
208	0xbbc579ba	-0.006026474
209	0xbae84ea7	-0.0017723636
210	0xbd63c510	-0.055607855
211	0x3c91ac46	0.017782342
212	0x3d8fb177	0.070162706
213	0x3d854ae1	0.06508423
214	0x3d7cbabd	0.061701525
215	0xbccbf00b	-0.024894735
216	0x3b90e1a3	0.0044214292
217	0x3bd85907	0.0066024098
218	0xbcf909e5	-0.030400226
219	0x3b9a3238	0.0047056936
220	0xbcdc9ff8	-0.026931748
221	0x3d137b80	0.03600645
222	0xbcdc3504	-0.026880749
223	0xbca71757	-0.020396871
224	0xbd404543	-0.046941053
225	0xbd458fa8	-0.048232704
226	0x3d4ee45f	0.05051076
227	0x3d5c41d9	0.053773735
228	0x3c8ecb3d	0.017430896
229	0x3cb4375c	0.021999054
230	0xbcbf37bd	-0.023342008
231	0x3d986f70	0.0744313
232	0xbd604999	-0.05475769
233	0x3bb22f43	0.005437763
234	0x3d8e2fea	0.06942733
235	0x3c1b54be	0.009480653
236	0x3d38575d	0.04500519
237	0x3d8c772e	0.06858669
238	0x3d384825	0.044990677
239	0xbcb4c471	-0.022066327
240	0x3d682139	0.05667231
241	0x3c82ea8d	0.015980983
242	0x3cebc2a3	0.028779333
243	0x3d27c0f9	0.040955517
244	0x3d4eb279	0.050463174
245	0x3d387ff6	0.045043908
246	0x3cee3ca7	0.029081656
247	0x3d55da2b	0.052210014
248	0x3d062dec	0.03275864
249	0xbd057721	-0.032584313
250	0x389f53fc	7.597354e-05
251	0xbcf3b931	-0.029751392
252	0x3d8b383f	0.067978375
253	0xbd02892c	-0.0318691
254	0xbc60989d	-0.013708261
255	0x3b2dfb79	0.0026547594

fc2.bias f4 [256]
0	0xbb991535	-0.0046717175
1	0x3cf12c76	0.029440146
2	0xbce879fd	-0.028378481
3	0x3d3eb01f	0.04655468
4	0xbb9e12ed	-0.0048240335
5	0x3cd32d33	0.025778389
6	0x3d1452e9	0.03621188
7	0x3d019288	0.031633884
8	0xbc974ee0	-0.018470228
9	0x3d3701c5	0.044679422
10	0x3d204fb5	0.039138515
11	0x3d01fb04	0.031733528
12	0xbd01d5ea	-0.031698145
13	0x3d08a890	0.03336388
14	0x3d3f1df9	0.046659444
15	0x3ccd1cc3	0.025038129
16	0x3d1bc1b8	0.03802654
17	0x3bb4ec8b	0.005521362
18	0x3c4ac561	0.01237616
19	0xbd3f9b00	-0.04677868
20	0xbb273671	-0.0025514627
21	0x3d09dcf6	0.03365799
22	0x3d34a353	0.04410107
23	0x3d3a1ca5	0.045437474
24	0xbcee1f5e	-0.029067691
25	0xbd0a8569	-0.033818636
26	0xbc2bed68	-0.010493614
27	0xbc3c0881	-0.011476637
28	0xbd0858fc	-0.033287987
29	0x3ce743b4	0.028230526
30	0xbc4f7fb6	-0.012664726
31	0xbbdd00ad	-0.0067444653
32	0x3d21a781	0.039466385
33	0x3c62e300	0.013848066
34	0xbbbbe5cc	-0.005734181
35	0xbbff7c9f	-0.0077968384
36	0xbc54064e	-0.012940956
37	0x3d011ff2	0.031524606
38	0x3d68d3a6	0.05684247
39	0xbca54568	-0.020174697
40	0x3d57e48d	0.052708197
41	0x3d7af63a	0.061269976
42	0xbd11c90f	-0.035592135
43	0x3d12ceb1	0.035841648
44	0x3cff2928	0.031147555
45	0x3d2c3cad	0.042050052
46	0x3bff30ea	0.0077878134
47	0xbc29fb00	-0.0103747845
48	0x3d4e80d2	0.05041582
49	0x3cb7cd44	0.022436745
50	0x3ca44e1b	0.020056775
51	0x3bb18ef7	0.005418654
52	0xbbbc12a4	-0.005739527
53	0x3d56f112	0.052475996
54	0x3c8708ae	0.016483631
55	0x3d4e881d	0.050422776
56	0x3c8bd3e6	0.017068814
57	0x3d55854b	0.05212907
58	0xbd0baef5	-0.0341024
59	0xbcbeac3c	-0.023275487
60	0xbce632d5	-0.02810041
61	0x3d3d99ff	0.04628944
62	0x3ad98319	0.0016594856
63	0x3d216e24	0.03941168
64	0x3a4a1efb	0.0007710305
65	0xbcd79492	-0.026315961
66	0xbc270054	-0.010192949
67	0xbaed865d	-0.0018121708
68	0xbc777573	-0.015103686
69	0x3d37151d	0.04469787
70	0xbd32f9c0	-0.04369521
71	0x395420e8	0.00020230154
72	0x3b4759bc	0.0030418476
73	0x3d382bd9	0.04496369
74	0xbce2ab33	-0.027669525
75	0xbc54a9f0	-0.012979969
76	0x3c0b9291	0.008518831
77	0xbd00d7dc	-0.03145586
78	0xbd0047c8	-0.031318456
79	0xbd056756	-0.032569252
80	0x3c691c6b	0.014227967
81	0x3d90be05	0.07067493
82	0xbd297884	-0.0413747
83	0xbc9c24db	-0.019060543
84	0x3d48fe1b	0.04907046
85	0x3d1fa81f	0.038978692
86	0xbcdd8c0f	-0.027044324
87	0xbc9163c5	-0.01774777
88	0x3c860676	0.016360503
89	0xbc97e737	-0.018542869
90	0xbbc14a01	-0.0058987145
91	0x3d8c955b	0.06864425
92	0x3bf08673	0.0073402463
93	0x3d21edf8	0.039533585
94	0xbcd1c0d7	-0.025604649
95	0xbcfae2d3	-0.030625736
96	0xbca192f3	-0.019723391
97	0xbd29fd5c	-0.041501388
98	0x3d176206	0.036958717
99	0x3d2a68b0	0.041603744
100	0xbce70980	-0.028202772
101	0x3d2b0d9e	0.041761033
102	0x3c8e14be	0.017343875
103	0x3bfeab9f	0.0077719237
104	0x3c71ac6a	0.014750579
105	0x3cd4ac30	0.025961012
106	0x3d18dcba	0.037319876
107	0x3b73d965	0.0037208435
108	0x3d335d7b	0.04379032
109	0xbd167824	-0.03673567
110	0x3d8e6ff4	0.06954947
111	0x3cf30aac	0.029668175
112	0x3d68a4f8	0.05679795
113	0xbc4d2b1b	-0.012522484
114	0x3d23b2b0	0.03996533
115	0x3bc94719	0.0061425087
116	0x3d4b66e9	0.04965869
117	0x3d005662	0.03133238
118	0x3c1eb253	0.0096860705
119	0x3d890dd0	0.06692088
120	0x3c25af72	0.01011263
121	0xbca4dd80	-0.02012515
122	0x3b80fc4c	0.003936326
123	0x3d269577	0.040669885
124	0xbd079a6c	-0.033106253
125	0xbc0ba421	-0.008523018
126	0x3d1a1a9b	0.03762303
127	0x3a97eaf2	0.0011590405
128	0xbbfaa40e	-0.0076489514
129	0x3cb1f8bd	0.021725053
130	0x3d416f77	0.04722544
131	0xbd105b22	-0.03524316
132	0x3c95b91f	0.01827675
133	0xbc7249d2	-0.014788108
134	0x3d0f7494	0.035023287
135	0xbb867a0f	-0.004103906
136	0x389b64e4	7.409768e-05
137	0xbca8292c	-0.020527445
138	0xbb523e64	-0.0032080645
139	0x3ba7732c	0.005110165
140	0x3c596610	0.0132689625
141	0x3d78dad8	0.06075558
142	0x3d61e40e	0.05514913
143	0x3d433431	0.047657195
144	0x3c944949	0.018101351
145	0x3c8b2e12	0.016989741
146	0x3d3dffac	0.046386406
147	0x3c1b41ce	0.009476138
148	0xbc664626	-0.014054811
149	0x3ad505c1	0.0016252325
150	0x3bd49946	0.006487998
151	0x3d1d2d2b	0.038373154
152	0x3cbda62e	0.02315053
153	0x3c4a26b7	0.012338332
154	0xbb54ad5e	-0.0032451968
155	0x3d6a2658	0.057165474
156	0xbcfc51f6	-0.0308008
157	0x3d6e4610	0.058172286
158	0xbcd6e711	-0.026233228
159	0x3ce32728	0.027728632
160	0x3cfefadc	0.031125478
161	0xbd38bedd	-0.045103896
162	0xbcf926c8	-0.030414
163	0x3d14ac58	0.036297172
164	0x3d559cba	0.05215142
165	0x3d393177	0.04521319
166	0x3c8478a6	0.01617081
167	0xbc1ba0ae	-0.009498758
168	0xbd143a51	-0.036188427
169	0xbc00f839	-0.007871681
170	0x3cf9bd2c	0.030485712
171	0x3c9867b0	0.01860413
172	0x3b5f1c89	0.0034044108
173	0x3bf370e9	0.0074292314
174	0x3d392c93	0.045208525
175	0x3c879259	0.016549276
176	0x3c546e2d	0.012965721
177	0xbca6486a	-0.020298202
178	0x3d0683ad	0.03284042
179	0x3c410fa3	0.011783513
180	0x3c104f6b	0.008807997
181	0x3be84dcd	0.0070893527
182	0xbd267d9d	-0.040647138
183	0x3ca3dedd	0.02000373
184	0x3d0f3aff	0.034968372
185	0x3d499210	0.04921156
186	0xbcc6aaa0	-0.024251282
187	0x3b366642	0.0027831946
188	0x3d1b28fd	0.037880886
189	0x3d2e549c	0.04256116
190	0x3c42b59e	0.011884121
191	0x3d60e4a0	0.054905534
192	0x3cf27966	0.029598903
193	0xbc87bda9	-0.01656993
194	0xbb0a7e86	-0.0021132543
195	0x3ce3a63d	0.02778923
196	0x3d2ed1a8	0.042680413
197	0x3d35993b	0.044335585
198	0x3c204240	0.00978142
199	0xbba5a047	-0.005054507
200	0xbca3a16c	-0.019974433
201	0xbce81518	-0.02833037
202	0xbcd0ed55	-0.025503794
203	0xbcd8af99	-0.026450919
204	0xbd3b5b06	-0.045741104
205	0x3c04133b	0.0080612255
206	0x3cc31ef8	0.023818478
207	0x3d96b19b	0.07358094
208	0xbc01c609	-0.00792075
209	0x3ca91df5	0.020644167
210	0x3d1cf4e7	0.038319495
211	0x3c16e001	0.00920868
212	0xbc3d1cfa	-0.011542553
213	0xbb427ac5	-0.0029675227
214	0x3b42d529	0.0029729104
215	0xbcc3e018	-0.023910567
216	0x3d009454	0.031391457
217	0x3d48068b	0.048834365
218	0xbc7722aa	-0.015083948
219	0xbd186cb2	-0.037213035
220	0x3b76896c	0.003761853
221	0xbcc9dc77	-0.024641259
222	0xbcdcd414	-0.026956595
223	0x3bd7a94a	0.00658146
224	0x3c79160e	0.015203012
225	0x3c81e80d	0.01585772
226	0x3d41dbb0	0.04732865
227	0xbd2535c8	-0.040334493
228	0x3c06f669	0.00823746
229	0xbca7fefe	-0.020507332
230	0xbbfb9608	-0.007677797
231	0xbc411a00	-0.011785984
232	0x3d0083e6	0.03137579
233	0xbccce565	-0.025011728
234	0xbcd25877	-0.025676949
235	0x3d4ae646	0.049536012
236	0x3d2e3e1a	0.042539693
237	0xbcd7d862	-0.026348297
238	0x3d0f7221	0.03502095
239	0xb98d3e75	-0.0002694015
240	0x3cd96545	0.026537547
241	0xbd1e6485	-0.03867008
242	0xbbad8ff7	-0.005296703
243	0xbd08db43	-0.03341223
244	0x3c5639fc	0.013075348
245	0x3c2d537b	0.010578985
246	0x3d09670c	0.03354554
247	0x3d12dac7	0.035853174
248	0xbd32f3d4	-0.043689564
249	0x3d0f162f	0.034933265
250	0x3bfe29ec	0.0077564623
251	0x3d102a99	0.035196874
252	0x3d48d2fc	0.049029335
253	0x3cdc53f9	0.02689551
254	0x3d5d7b54	0.054072693
255	0x3d022fb3	0.03178377

fc3.weight f4 [2, 256]
0	0xbc652185	-0.013985042
1	0x3ca26a64	0.019826122
2	0x3ca4c7af	0.020114748
3	0x3c40b1de	0.011761157
4	0x3caa2e06	0.020773899
5	0x3cfa66cc	0.030566595
6	0x3d100d66	0.035169028
7	0xbc430fd0	-0.011905625
8	0xbc820374	-0.015870787
9	0x3b1ef72e	0.0024256217
10	0xbc9880a8	-0.018616036
11	0x3beb981a	0.007189763
12	0xbc3a65cc	-0.011376809
13	0xbc38fff2	-0.011291491
14	0xbbaa9b21	-0.005206481
15	0xbcad2a74	-0.021138407
16	0xbc1adcc2	-0.009452047
17	0xbc4ffbdc	-0.012694325
18	0xbc2ed1f9	-0.010670179
19	0xbc8a0802	-0.016849522
20	0xbc28172e	-0.010259433
21	0xbae8fc26	-0.0017775341
22	0x3bcc4afd	0.0062345252
23	0x3c4f1c1a	0.012640977
24	0xbcb70522	-0.022341315
25	0x3c010a99	0.007876062
26	0x3cc33e68	0.023833469
27	0xbc1c3cbb	-0.009535964
28	0x3bc70934	0.006074095
29	0xbc22409c	-0.009903099
30	0x3cfdc8d1	0.030979546
31	0x3bebfbd1	0.0072016497
32	0xbc39fb0f	-0.011351361
33	0x3cebe87a	0.028797377
34	0xba77be77	-0.0009450684
35	0x3aacfe15	0.0013198281
36	0xbb452e4e	-0.0030087414
37	0xbbca6650	-0.0061767474
38	0x3cd92d7f	0.026510952
39	0xbc4ee44d	-0.012627673
40	0xbc297d8f	-0.010344877
41	0x3cc3a18f	0.023880748
42	0xbbe0833d	-0.0068515823
43	0x3cd1f6b5	0.025630334
44	0xbbbac31f	-0.00569953
45	0xbb42da9c	-0.0029732352
46	0xbc40ccb2	-0.011767553
47	0x3b19e6fc	0.0023483625
48	0xbc03530c	-0.008015405
49	0x3c563dbf	0.013076245
50	0x3c2203c3	0.009888592
51	0x3ccdead0	0.025136381
52	0x3cdf13fe	0.027231213
53	0x3cc92be9	0.02455707
54	0xbcc9ac79	-0.024618374
55	0x3ce2e9a0	0.027699292
56	0xbc61e8de	-0.01378843
57	0x3d0ac14c	0.03387575
58	0xbcb81c87	-0.02247454
59	0xbc332a5b	-0.010935391
60	0x3cba1673	0.022715783
61	0xbb4a135c	-0.0030834293
62	0xbd21691c	-0.03940688
63	0xbc0980dd	-0.00839254
64	0xbc018fc4	-0.007907812
65	0xbbd8730e	-0.0066055125
66	0xbc2e4283	-0.010635975
67	0x3cd8c6b1	0.026461931
68	0x3cac7dfd	0.02105617
69	0x3c067cde	0.008208482
70	0xbbebf038	-0.007200267
71	0x3c5a9f17	0.013343594
72	0xbc42ff06	-0.011901623
73	0xbc73ac35	-0.0148726
74	0x3cbf1f07	0.023330225
75	0x3bb918f5	0.005648727
76	0xbc8b0afd	-0.016973013
77	0xbc2a8365	-0.010407303
78	0xbcca4793	-0.024692332
79	0xbc6b8e86	-0.014377242
80	0x3b67c13b	0.0035362977
81	0x3c4f54dc	0.012654509
82	0xbc2b3fa0	-0.010452181
83	0x3d0b5c78	0.034023732
84	0xbbdb358b	-0.0066897324
85	0xbc2f4073	-0.010696518
86	0xbc50eb7a	-0.0127514545
87	0x3be39d16	0.0069462163
88	0x3cc25239	0.023720847
89	0xbd1d77fe	-0.03844451
90	0x3c92eafa	0.017934311
91	0x3c9d125a	0.01917379
92	0x3c3220d9	0.010872089
93	0x3cd4b54d	0.025965357
94	0xbbc15a17	-0.005900632
95	0x3c286db4	0.0102800615
96	0xbc38367b	-0.011243458
97	0xbc110d70	-0.008853301
98	0xbc27f32c	-0.010250848
99	0xb9f05087	-0.00045836365
100	0xba947e44	-0.0011329134
101	0x3c2929a0	0.010324866
102	0x3cac9703	0.021068102
103	0xbc3b0939	-0.011415773
104	0x3b826ea8	0.0039804764
105	0xbc6e1809	-0.014532098
106	0xbb802e91	-0.003911801
107	0xbcde184e	-0.027111199
108	0xbacf4d57	-0.0015815896
109	0xbcf5ed63	-0.030020421
110	0x3d0c840b	0.034305613
111	0xbcb787c3	-0.022403603
112	0x3ccde09d	0.025131518
113	0xbc0c58f8	-0.008566134
114	0x3cec0612	0.028811488
115	0x3cbceeaa	0.023063023
116	0xbc160830	-0.0091572255
117	0xbca0da81	-0.01963544
118	0x3ba33f6e	0.0049819266
119	0xbd086ec4	-0.03330876
120	0xbc5f2b88	-0.0136212185
121	0x3cd17650	0.025569111
122	0xbccabeff	-0.024749277
123	0x3c224c09	0.0099058235
124	0xbcc8d1c9	-0.024514096
125	0xbc5a4860	-0.01332292
126	0x3cc27804	0.023738869
127	0xbc2e4307	-0.010636098
128	0xbcf2cc87	-0.029638542
129	0xbc6e3e14	-0.014541168
130	0xbc616787	-0.013757593
131	0xbc28789f	-0.010282665
132	0x3cd81241	0.026375892
133	0x3bd34d68	0.0064484365
134	0xbc507022	-0.012722047
135	0x3d07b06c	0.033127233
136	0xbc6a6a54	-0.014307577
137	0x3c92ac4a	0.01790442
138	0x3bc63337	0.0060485858
139	0xbc36cb08	-0.011156805
140	0x3d01691b	0.031594377
141	0x3ccf6ec6	0.025321376
142	0xbbc374c5	-0.0059648477
143	0x3ccfd0ae	0.02536806
144	0xbbe8ae40	-0.0071008503
145	0x3ba67fbb	0.0050811446
146	0xbd111291	-0.035418097
147	0x3b11c518	0.0022242721
148	0x3bae47c3	0.0053186133
149	0x3c7fcb31	0.015612409
150	0xbcf10ee6	-0.02942605
151	0xbc6021e1	-0.013679952
152	0xbc63d316	-0.013905307
153	0x3b99734e	0.004682935
154	0x3c3ec887	0.011644489
155	0xbc699875	-0.01425754
156	0xbbe1e039	-0.0068931845
157	0x3b7a8a4b	0.0038229402
158	0xbc4a047e	-0.012330173
159	0xbc076e57	-0.008266053
160	0xbc93348c	-0.017969392
161	0xba2a591e	-0.0006498265
162	0xbcac57b9	-0.021037923
163	0xbca1e68b	-0.019763252
164	0x3a859e7d	0.0010194328
165	0xbc607f13	-0.013702172
166	0xbbcecf2c	-0.006311318
167	0xbc0da7d9	-0.008645975
168	0xbc3b16cc	-0.011419009
169	0x3cacdadc	0.021100454
170	0xbc0fce51	-0.008777217
171	0x3cb16b0a	0.021657486
172	0xbc3a7c44	-0.011382166
173	0xbc8d282d	-0.017231071
174	0x3c3ec991	0.011644737
175	0x3ca08f88	0.019599691
176	0xba0d1cd1	-0.0005383017
177	0x3ccd76e4	0.025081106
178	0xbbaa5581	-0.005198181
179	0x3ca3fd95	0.020018378
180	0xbc2c6134	-0.010521222
181	0xbc3835ec	-0.011243325
182	0xbc7e1ccb	-0.0155097945
183	0x3cc387a2	0.023868386
184	0x3cafe526	0.021471571
185	0xbcbfabee	-0.023397412
186	0xbbec1668	-0.0072048195
187	0xbbbdf972	-0.0057975585
188	0x3beaab99	0.0071615693
189	0xbb87e0b1	-0.0041466583
190	0xbcddf822	-0.027095858
191	0x3cfe51c2	0.031044845
192	0xbd3e3844	-0.046440378
193	0xbbac62c1	-0.005260796
194	0x3ceefda3	0.029173678
195	0x3cab53b4	0.020913936
196	0xbc38d7c9	-0.011281916
197	0x3cbfda28	0.023419455
198	0xbc4e70dd	-0.012600151
199	0xbb0e0343	-0.0021669425
200	0x3ccf9562	0.025339786
201	0x3c3501cf	0.0110477945
202	0x3cab940c	0.020944618
203	0xbbd21c1d	-0.006412043
204	0xbc0420f8	-0.008064501
205	0x3c4dee5f	0.012569039
206	0xbc0fb3ea	-0.008770922
207	0x3ce3f618	0.027827308
208	0xbcc5bfd9	-0.024139332
209	0x3c8fbb37	0.017545326
210	0xbbda00c9	-0.0066529256
211	0x3caa63d8	0.020799562
212	0x3ce1fe8c	0.027587198
213	0xbbfd0757	-0.0077218222
214	0xbbcf0b36	-0.006318475
215	0x3cc33ef0	0.023833722
216	0xbc6b1274	-0.014347661
217	0xbcf3007f	-0.029663322
218	0xbc1a3927	-0.00941304
219	0xbc28113f	-0.010258018
220	0xbc86c27e	-0.016450163
221	0xbc65c3c4	-0.014023725
222	0xbc4bf2e1	-0.012448044
223	0x3ca834fd	0.02053308
224	0xbc3f9b64	-0.011694763
225	0x3cce9988	0.025219694
226	0xbc4a8f92	-0.012363331
227	0xbb9de923	-0.004819052
228	0xbca53980	-0.02016902
229	0x3d045ad5	0.032313187
230	0xbc780af1	-0.015139327
231	0xbc811b42	-0.015760068
232	0x3cc9c50c	0.024630092
233	0x3b8c395d	0.004279299
234	0x3c079ecd	0.008277607
235	0x3c72fdc4	0.01483101
236	0xbc7eb991	-0.015547172
237	0x3d111577	0.03542086
238	0x3ca28158	0.019837067
239	0xbc4ac42d	-0.0123758735
240	0xbc3ca17f	-0.011513113
241	0xbc20416f	-0.009781226
242	0x3cec826c	0.028870784
243	0xbc18bf0e	-0.009322895
244	0x3cc33f31	0.023833843
245	0xbb520d04	-0.0032051215
246	0xbb15d205	-0.0022860777
247	0x3d1d73e8	0.038440615
248	0xbc30e242	-0.010796132
249	0xbc8539b9	-0.016262876
250	0xbbcaf46d	-0.0061936886
251	0xbc1ccaa5	-0.009569799
252	0x3cb27fa2	0.021789376
253	0x3cd7e120	0.026352465
254	0xbc43ce12	-0.011950986
255	0xbca6f240	-0.020379186

fc3.bias f4 [2]
0	0xbd294521	-0.041325692
1	0x3ce600a3	0.028076475
