projects/tennis/checkpoint/RE26/RE26.22_actor1_20000.pt (torch_old, 453689 bytes, 6 tensors)

fc1.weight f4 [400, 24]
000000 75 5e 12 3d fa 1e 47 bd 15 24 92 3b a1 45 97 bc
       0.035734612 -0.048613526 0.0044598677 -0.018465819
000010 dc bf 89 3c 3a 80 b5 bc 92 c1 1a 3d 5e a7 a9 bc
       0.016815118 -0.02215587 0.03778226 -0.02070969
000020 93 33 aa 3b cb 81 ca bc 80 3b 39 bd 82 fa 02 bd
       0.0051941364 -0.024720093 -0.04522276 -0.031977184
000030 52 84 01 bd 4b 29 3e bc c5 b2 41 bd 24 52 35 bd
       -0.03162033 -0.011606525 -0.04728963 -0.04426779
000040 39 75 14 bd ad 0e 3a 3c 8d 1a 31 bc 84 90 14 3c
       -0.036244605 0.011356038 -0.010809553 0.009067658
000050 61 13 83 bc 4a a4 3a 3d 53 ef 18 3c ed 38 eb 3b
       -0.016000452 0.045566835 0.009334403 0.007178417
000060 84 66 a1 3c cc ab 0c 3d 6e 71 49 bd 69 24 dc 3c
       0.019702204 0.034343526 -0.04918044 0.02687283
000070 c3 f5 55 bd fb af 62 3d 7c d8 4d bc f4 ed de ba
       -0.05223633 0.05534361 -0.012563821 -0.0017008171
000080 50 1c fd bc ee 1f 49 bd db dc aa 3b a2 78 3b bd
       -0.03089729 -0.049102716 0.0052143163 -0.04576934
000090 77 09 20 bd 94 8f 92 3c 9f 89 5a bc 0d 49 dd bc
       -0.039071526 0.017890729 -0.0133384755 -0.027012372
0000a0 c6 23 26 bd 71 bb 04 3d 57 42 00 3d 03 3f 15 3c
       -0.04056146 0.03240532 0.031313267 0.009109261
0000b0 a4 d4 0d 3d 83 dd 96 bc ca be c0 3c 28 ca 8d bc
       0.034626618 -0.018416172 0.023528475 -0.01730831
0000c0 e2 64 3f 3b be 27 2f bd 62 e7 f4 3c 09 b4 29 3d
       0.0029204418 -0.04276251 0.029895488 0.04143146
0000d0 7c e3 c6 ba 67 ae 69 ba be c4 dd 3b 47 bc 0b 3d
       -0.0015173997 -0.00089142326 0.0067678383 0.034115102
0000e0 83 ed 08 3c f5 8e 06 3d 97 a9 ba 3c c2 2b be bc
       0.008357408 0.03285118 0.022785945 -0.023214225
0000f0 8c 7c 64 3d f3 82 4c ba 56 cf f1 3b 83 01 25 bc
       0.05578284 -0.00078014954 0.0073794527 -0.010071161
000100 aa 16 0b bd 9d 61 84 bd 27 8e bc 3c cc c7 05 3d
       -0.03395716 -0.06463931 0.023017002 0.032661244
000110 28 8c ef 3c c5 2e 4f bb b5 dd 15 3d 67 0d ea bc
       0.029241636 -0.003161357 0.03658839 -0.028570844
000120 cd 76 28 3b 3b f4 f2 bc 5d 0f 60 bc 39 da 21 bd
       0.0025705576 -0.029657474 -0.013675538 -0.039514754
000130 d4 16 56 bd 8e a9 50 3d 38 a0 ab 3c 8c f6 19 3d
       -0.052267864 0.05094295 0.020950422 0.03758864
000140 0f 58 89 3c 92 2c 1f 3d 2d 4d 8b bb 32 0e b7 3c
       0.016765622 0.038860865 -0.0042511434 0.022345636
000150 29 c5 48 bd fb 80 c7 3a 14 a0 47 3d a2 d1 36 bd
       -0.04901615 0.0015220934 0.048736647 -0.044633515
000160 7e cf dc bc 2e f4 5a bd b8 d4 ee 3c 52 9c 77 bc
       -0.026954409 -0.053455524 0.029154167 -0.015112953
000170 b6 1f 04 3d ae 31 20 3d 61 4b 75 3c 8d da 1b bd
       0.032256804 0.03910988 0.014971585 -0.038050223
000180 34 ef fe bc ab f6 a6 bb dc a0 3c bc 9e d3 37 3d
       -0.03111992 -0.005095323 -0.011512961 0.04487955
000190 2c 60 b9 bb e1 db 3c 3d 5a 0e 30 bd 36 89 1c 3c
       -0.0056572165 0.04610813 -0.042982437 0.009554198
0001a0 ab 3d 3c bd c2 05 40 bd 48 51 0b 3d 5c a3 31 bd
       -0.04595725 -0.04688049 0.034013063 -0.043368682
0001b0 42 68 54 3d 53 26 94 bb 32 9a 49 3d 7b f4 3b bd
       0.05185724 -0.00452117 0.049219318 -0.04588745
0001c0 52 d7 69 3c 45 69 b3 bc ac 2e 3a bb e7 a3 25 3d
       0.014272528 -0.021900782 -0.0028409166 0.040439513
0001d0 a1 b2 45 3c 2d c1 7a bc d0 4e aa bb b9 f4 03 3d
       0.012066514 -0.015304846 -0.0051973835 0.032215808
0001e0 d6 6a 69 bd a9 b1 75 3b 4f d3 89 3c 6b 70 18 3d
       -0.056986652 0.0037489927 0.016824393 0.037216585
0001f0 91 51 37 bd 35 9d 58 3d ab 96 5a bd 06 82 39 bc
       -0.044755522 0.0528843 -0.053366344 -0.011322504
000200 ae c2 3f bd 76 8b 04 3d 27 e8 f0 bc da c6 dc 39
       -0.04681652 0.032359563 -0.029407574 0.00042109826
000210 02 12 e3 bc 5a dc dd bb c1 7a 51 bc 2e ac 0b 3d
       -0.027718548 -0.0067706527 -0.0127856145 0.03409975
000220 ef 9a 14 bd 0f 73 4d bc 39 86 58 3c dc 62 f8 bb
       -0.03628057 -0.012539639 0.013215595 -0.0075801443
000230 6f 73 67 3d 8d f1 a7 bc b5 49 19 3d 2f 6e c7 3b
       0.05650657 -0.020500923 0.037423808 0.006086133
000240 5e 0b c5 ba 64 f6 e5 bc cd f4 4e bd a9 de c6 bb
       -0.0015033295 -0.02807159 -0.05052643 -0.0060690236
000250 39 f3 2f 3d b2 25 3b 3d 5e 98 8f 3c 33 2b 0d 3d
       0.042956565 0.045690246 0.017528709 0.034465026
000260 6d ed 50 bd 58 9b b7 3a 4f ae 81 bc bf c7 09 3d
       -0.051007677 0.0014008088 -0.015830187 0.03363776
000270 d2 ac 92 bc c5 c7 a2 bc f4 e0 0b 3d d3 87 01 bd
       -0.017904673 -0.019870648 0.03415008 -0.031623673
000280 bb 33 02 bd f0 a7 8b 3b f8 ba c1 3c 2a d6 29 bb
       -0.031787615 0.004261963 0.023648724 -0.0025915005
000290 15 18 92 3c 0b cb 20 3d 52 ca 21 bd 77 9a e3 bc
       0.017833749 0.039256137 -0.03949959 -0.027783616
0002a0 a5 00 29 3d 68 98 9e 3c cf ca 54 3c 61 1f 43 3d
       0.04126038 0.019359782 0.012987806 0.047637347
0002b0 79 c1 61 3c 46 0f 11 3d 52 46 ca 3c fd 79 13 3d
       0.013779038 0.035414957 0.024691734 0.03600501
0002c0 25 fa b2 3c 96 91 21 3d d5 04 f6 bb dd ca 91 3c
       0.021847794 0.039445482 -0.0075079002 0.017796928
0002d0 2f 39 1e 3b e6 57 40 3b df c9 e2 3b b2 23 28 bd
       0.002414297 0.0029349267 0.0069210376 -0.041049667
0002e0 51 33 df bc 03 8d 7a bc 13 f1 10 bc a6 cf 62 bd
       -0.02724615 -0.015292409 -0.008846539 -0.05537381
0002f0 ec fd c6 3c aa aa d2 3c b6 d9 3c bd 5b 49 c9 bc
       0.024291001 0.025716145 -0.046106063 -0.024571111
000300 73 c2 ac 3c eb d6 61 bc 11 b5 88 bb b8 e6 00 bd
       0.021088814 -0.013784151 -0.0041719754 -0.03147003
000310 3d b1 9b bc e9 f3 fe bb bf 7a 2d 3d 02 5c 96 3c
       -0.019005412 -0.007780541 0.042353388 0.01835442
000320 5d a9 5b bd 2a ff 42 bd 9b 5f 24 bd bc bc 18 bc
       -0.053628314 -0.047606625 -0.04013024 -0.0093223415
000330 79 41 74 3d f2 cd 38 bd 4a 06 90 bb 3b e2 3c bd
       0.059632752 -0.04511828 -0.004395281 -0.046114188
000340 48 8d 16 bc f1 c2 91 bc 0d 06 97 3c b7 91 31 3c
       -0.0091889575 -0.01779315 0.018435502 0.010837964
000350 bf 6e 22 3d 65 ff 02 bd f6 fc 17 bd 41 79 11 bd
       0.039656397 -0.031981844 -0.037106477 -0.035516027
000360 e6 19 84 3c 01 cf 4d bd 53 4a 89 3c 6e 23 1a bd
       0.01612563 -0.050246242 0.016759073 -0.037631445
000370 44 d3 1f 3d d5 0e 0d 3d 2c 28 3f bd ee c8 27 bd
       0.039019838 0.034437973 -0.04666917 -0.040963106
000380 ec 1a 86 bc d2 af fb 3c 0e ad 48 3d 11 18 08 bb
       -0.01637026 0.030723486 0.048993163 -0.0020766298
000390 30 ca 00 3b 7c d0 37 3d aa be 36 3c 51 a2 30 3d
       0.0019651763 0.04487656 0.011153856 0.043123547
0003a0 d3 63 16 bd 2c 77 4d bc c0 b2 f2 3b d1 72 a0 bc
       -0.036716294 -0.01254062 0.0074065626 -0.019585999
0003b0 33 a3 37 3d 35 07 0f bd ec 44 46 3d 55 be 0d bd
       0.044833373 -0.034918983 0.048405573 -0.034605343
0003c0 8c 6c a6 3c 6a 56 04 bd 8b 8c 74 bb 6b 39 13 3d
       0.020315431 -0.032308973 -0.0037315215 0.03594343
0003d0 62 20 2d bd 94 de ab 3c 7a 26 29 bd c8 f9 b5 3c
       -0.04226721 0.020980157 -0.04129646 0.022213832
0003e0 1f f9 05 bd bb aa 32 bd 1c 5b 4a bc d9 6d 16 bd
       -0.032708284 -0.043619853 -0.012350824 -0.036725853
0003f0 2c 0e 05 bd f9 f1 39 bd 96 34 04 3c 54 12 08 bd
       -0.03248422 -0.04539678 0.008069178 -0.033220604

fc1.bias f4 [400]
000000 ca 72 0c 3e 8c 8e 47 3e 3f 48 5b 3e 8d f7 90 3d
       0.13715664 0.19487971 0.21414278 0.070784666
000010 1b 57 a3 bd 17 c2 14 be 6b 19 ba bc 46 f9 48 be
       -0.079755984 -0.14527164 -0.022717198 -0.1962634
000020 ab 2a 66 bd 98 cc 1e 3e be 46 d3 bd 6e 58 e0 bd
       -0.056193035 0.15507734 -0.103162274 -0.109543666
000030 ee 9e 33 be 5e 5d e7 3b ca 05 0e 3e 4f 74 87 bd
       -0.17541096 0.007060691 0.13869396 -0.06613981
000040 25 86 1e be 12 84 0f be 4a ea b1 3b 8c 54 ba 3b
       -0.1548086 -0.14015225 0.0054295408 0.0056863483
000050 d6 28 1c 3e bf e5 0c bb af 39 5b 3e db 1c 4d 3e
       0.15249953 -0.0021499244 0.21408723 0.20030539
000060 5e eb 4b be 76 9a 52 3e a5 4f 04 be 5e 55 94 3b
       -0.19914004 0.20566735 -0.12921007 0.004526778
000070 08 4a 7d bd 14 41 09 3e 1a d8 20 3e 3e f6 24 be
       -0.06183818 0.13403732 0.15707436 -0.16109559
000080 ad 5f bf 3c d6 16 06 be 19 0f 86 3c f2 27 dd bd
       0.023361051 -0.13094649 0.016364621 -0.107986346
000090 2a 94 d2 bd 85 54 8f bd 2c 84 89 bd e6 f8 90 bd
       -0.10282166 -0.06998543 -0.06714663 -0.070787236
0000a0 de 80 4f 3e a0 ec 14 be 2f 55 16 be d4 22 f9 bd
       0.20264003 -0.1454339 -0.14680932 -0.12164846
0000b0 2f 86 1a 3e dd dd ae 3d 0e e5 3f 3e fa d3 11 3e
       0.1509025 0.08538411 0.18739721 0.14241019
0000c0 50 5d 30 be 87 3f 2c be 69 44 32 be 8b 44 2e 3e
       -0.17223096 -0.16821109 -0.17408909 0.17018335
0000d0 11 5e 3c be 7d 5e 1d be 38 f8 03 3e ca b8 06 be
       -0.18395258 -0.15368076 0.12887657 -0.13156429
0000e0 4e c6 2d be 37 04 1c 3e 4b f3 fe bd 1c 32 d4 bc
       -0.16970178 0.15235983 -0.12448748 -0.0259028
0000f0 f8 fc 0c be 49 96 04 be 9b d4 c5 3c 9b e2 18 be
       -0.13768375 -0.12947954 0.02414923 -0.14930193
000100 73 4f eb bd 2c 76 17 3d ee d5 46 be 7f 39 d7 3d
       -0.11489763 0.03697793 -0.19417545 0.105090134
000110 13 3f 90 bd 01 16 98 3d d7 31 e2 bd 2d 74 b0 3c
       -0.070432805 0.07426072 -0.110446624 0.021539772
000120 97 7e 55 3e 12 0b d5 3c 3f 70 32 3c 56 d2 e2 3d
       0.20849071 0.026006255 0.010891019 0.11075275
000130 37 2c d4 bd bd 76 40 3e 3a c1 bc 3d 61 18 0d 3e
       -0.10359996 0.18795295 0.092165425 0.13778831
000140 8d 0b 95 3c 69 06 1e be ce 0c ae bd 7d db 1e 3e
       0.018193984 -0.15432133 -0.08498536 0.15513416
000150 df a1 32 bd 68 13 06 3e 5d 1a 17 3d 3f 05 b8 3d
       -0.043611404 0.1309334 0.036890376 0.089853756
000160 bd d5 36 3d d9 bf 44 3d 6c c8 19 bd 7f 04 26 be
       0.04463743 0.048034523 -0.037544653 -0.16212653
000170 ca 92 37 bd 9e 72 37 bd 16 94 b5 3d 14 18 27 be
       -0.044817723 -0.04478704 0.08866136 -0.16317779
000180 92 71 1f be c2 cc 9b 3d 70 6d 2c 3e 72 26 e9 3d
       -0.15570667 0.07607414 0.16838622 0.11384286
000190 a2 5a c5 3d 6e e3 37 3e 7f f8 88 3d ef 16 e5 3d
       0.096364275 0.17957851 0.06688022 0.11186015
0001a0 fc 59 49 be 4c 5c db bc 10 39 f6 bd 59 9a a8 3d
       -0.19663233 -0.026777409 -0.120226026 0.082325645
0001b0 75 c5 0c be 86 de 3e be 59 2a d5 bd a4 90 b2 bd
       -0.13747199 -0.18639573 -0.10408468 -0.08718994
0001c0 e0 5d fe bd 8a 4d 2f be d0 09 de 3d 3c 2a 9b 3c
       -0.12420249 -0.17119423 0.10841715 0.018941037
0001d0 cf 3e 31 3e 58 f2 0b 3e 8b d1 0f 3e 03 f8 2a be
       0.17309116 0.13666666 0.14044778 -0.16696171
0001e0 ff 31 0b 3e 07 3c 90 bd d7 92 be bc 8f 21 fb 3a
       0.13593291 -0.07042699 -0.023263378 0.0019159782
0001f0 34 21 27 be e9 12 dc bd ee a7 89 3d d3 b3 13 3e
       -0.1632126 -0.10745794 0.06721483 0.14424066
000200 32 21 a2 3b 53 48 49 3d 44 4b 14 be 1c 0c bf 3d
       0.004947805 0.04914124 -0.14481837 0.093284816
000210 ca 7a 0d 3d 35 7f 34 3e 02 ed 40 3d 33 58 ea 3c
       0.03454093 0.1762665 0.04710103 0.02860651
000220 9b a8 76 bc 14 eb 29 be a1 c2 2b 3e 3b 21 97 3d
       -0.015054847 -0.16593581 0.16773464 0.07379385
000230 33 a4 30 3e be db 56 3e d6 55 ea 3d 08 ee a4 bd
       0.17250137 0.20982262 0.11442153 -0.08053213
000240 d0 09 0f be 61 f8 10 bd e3 78 20 be 47 33 0b 3e
       -0.13968587 -0.035393123 -0.15671115 0.1359378
000250 57 70 16 3e c3 8a 00 be 74 5f 9e bd 9c e8 49 bd
       0.14691292 -0.12552933 -0.0773305 -0.0492941
000260 32 7a 4e 3e 9b af 24 be 17 7d c9 3d 6b 0e 20 3e
       0.20163801 -0.16082613 0.09838312 0.156305
000270 f4 fe a3 bd 25 e9 13 be b6 f7 d8 bd ad b0 2d bd
       -0.08007613 -0.14444406 -0.10594122 -0.04240482
000280 86 9f 36 bc 66 6a 20 3c ee 5b bd 3d 40 77 e7 bd
       -0.011146432 0.009790992 0.0924605 -0.11302042
000290 49 07 b4 3d 30 2e 68 3d 47 02 0f be 83 e7 b7 3d
       0.08790452 0.056684673 -0.13965712 0.08979704
0002a0 d0 f4 46 be 0b bd 82 3c e9 31 10 be e7 bd e5 bc
       -0.19429326 0.015959283 -0.14081539 -0.028044654
0002b0 1f a7 43 bd 46 a4 ef bd 54 82 77 3d 52 1f 07 3e
       -0.0477668 -0.117012545 0.060427025 0.13195542
0002c0 6c 7a 23 3e e7 4a 1c be 97 93 c3 3d 32 0d 1d 3e
       0.15964669 -0.15262948 0.09549635 0.15337065
0002d0 61 49 0c 3e 0b d1 69 3c 18 79 32 be 4c 9a c5 3d
       0.13699867 0.014271031 -0.17429006 0.096485704
0002e0 cf 65 2f 3e 00 a3 39 3d 37 fb 1b be 9d 33 8b ba
       0.1712868 0.045321465 -0.1523255 -0.001062024
0002f0 9e 91 86 bd be a9 00 be 04 fc 91 bd 5c 13 1c 3e
       -0.06570743 -0.12564752 -0.07128146 0.1524176
000300 8a 72 fb bd 13 18 3e be 8f ff be 3d a0 25 16 be
       -0.12277706 -0.18563871 0.09326088 -0.1466279
000310 9a 50 22 bc e4 ad eb 3c 6b 4f a0 3d 0a a3 3d 3d
       -0.009906912 0.028769441 0.07827648 0.046298064
000320 be c2 cf 3d b6 93 8a 3d 35 4c df bd 59 e8 2c 3e
       0.10144566 0.06766455 -0.10903207 0.16885509
000330 35 10 15 3e fc 0d 00 3e 46 ee f3 bd 5a c7 33 3e
       0.14556964 0.12505335 -0.119106814 0.17556515
000340 a5 ff 8e bd 79 71 8e 3d 23 82 c7 bd 6d 73 17 be
       -0.06982354 0.06955237 -0.097416185 -0.14790125
000350 02 bb 34 be fd 42 e0 3d e7 ce ea 3d 37 a1 8a bd
       -0.17649463 0.10950277 0.11465245 -0.067690305
000360 bd 36 b6 3a 12 f9 ee 3d 01 c5 ad bd a0 d8 98 bd
       0.0013901811 0.116686 -0.08484841 -0.07463193
000370 e9 ee 2d be e9 89 4c 3e 46 4c 0c be c7 08 42 3c
       -0.16985668 0.19974484 -0.13700971 0.011842913
000380 95 9c ff bd 03 bc 2f be fc 92 3b 3e 61 f5 d5 bc
       -0.124810375 -0.17161565 0.18317789 -0.026117982
000390 9f ff 19 3e fc 65 e3 3d 49 49 16 3e 86 35 2f 3e
       0.15038918 0.11103436 0.14676394 0.17110261
0003a0 b2 c4 52 3e 07 51 3b 3e af f0 29 3d 24 bd 02 be
       0.20582846 0.18292628 0.0414893 -0.12767464
0003b0 d8 f3 e7 bd 2e 3f b9 bd b7 cc 0b be 1e 57 7c bd
       -0.113258064 -0.09045254 -0.13652311 -0.06160652
0003c0 df 40 3e 3e 1a 88 8d 3d af 2a 1b 3e 67 d1 d9 bd
       0.18579434 0.06910725 0.15153001 -0.106356435
0003d0 0b 29 cb 3c 40 32 3b be 19 0d 6f 3d 49 85 2a be
       0.024799844 -0.18280888 0.0583621 -0.16652407
0003e0 43 1b 74 3d 42 7d 39 bc 56 5e 5e bd 76 d3 2a 3e
       0.05959631 -0.011321368 -0.054289185 0.16682228
0003f0 7a 56 aa bd 7c aa b1 3d be e8 53 3e c1 5a b9 3c
       -0.08317275 0.086750954 0.20694253 0.022626283

fc2.weight f4 [256, 400]
000000 9e 1c 08 3d 89 7f 23 bd 2b 91 4d bd 1e cc d9 3c
       0.033230416 -0.03991655 -0.05018727 0.026586588
000010 b1 f2 15 3d 0a 95 bf 3c 4d a1 3c bd 31 49 0a 3d
       0.0366084 0.023386497 -0.046052266 0.033761207
000020 bf a9 50 ba 8e 2e 06 bd 7a 0b 0a bd 6d a7 16 3c
       -0.00079598645 -0.03275924 -0.03370235 0.009195191
000030 68 c0 cd 3a 3c 3b 46 bd 3f 97 3c 3d 17 f5 d6 3c
       0.00156976 -0.048396334 0.046042677 0.026239915
000040 9e 31 04 3d b8 70 fb 3c 66 20 51 3d 67 94 dc bb
       0.03227388 0.030693397 0.05105629 -0.006731558
000050 c9 81 f6 bc dc 62 8c 3d 78 68 24 3d b0 7f 80 bd
       -0.030091183 0.068547934 0.04013869 -0.062743545
000060 9c 60 a1 bc c2 25 4a bd 27 2d fb bb 6f e5 45 bc
       -0.019699387 -0.049352415 -0.0076652947 -0.012078627
000070 22 fe 64 bc ef 71 03 bd a9 a0 b8 bb dd ba 7b 3c
       -0.013976606 -0.032091077 -0.0056343866 0.015364376
000080 25 e6 10 bd f7 54 8a 3c cd 39 29 3d 15 71 e5 bc
       -0.035375733 0.016886218 0.04131489 -0.028008023
000090 96 f2 b7 bc 71 d6 3a 3d d7 75 a2 bc cd 4b 45 bc
       -0.022454541 0.045614664 -0.019831581 -0.012041998
0000a0 ce 52 ff 3c c9 3b f7 3b 7e 7c 8d 3c a5 9b 2f 3d
       0.031167414 0.0075449687 0.017271277 0.042873044
0000b0 78 7f 66 3d ea 7b 12 bd 5d 22 fa 3c 2e 8e 87 bb
       0.056273907 -0.035762705 0.030533964 -0.004136822
0000c0 2e 8a 2d 3d f9 80 09 3d 53 e2 a6 bc fb c4 c4 bc
       0.042368107 0.033570264 -0.020371592 -0.024019709
0000d0 a3 c8 d0 bc 83 1f 41 3d c1 c2 ed 3b dd 5b 6e bd
       -0.025486296 0.047149193 0.0072558825 -0.058193076
0000e0 42 d3 5e 3d 00 2a 89 bc b5 b5 a7 3b 0a d0 69 bd
       0.05440069 -0.01674366 0.0051180967 -0.057083167
0000f0 ae a8 61 bd 3c 6c 7b bc c1 08 d1 3a e5 be 6b 3d
       -0.055092506 -0.015345629 0.0015948043 0.057555098
000100 ad 72 0d bc 82 5c dc 3c e8 e2 86 3c b1 3d 13 bd
       -0.008633298 0.02689958 0.01646562 -0.035947505
000110 24 2b fd bb 12 65 c9 3c 17 bd 64 bc 04 72 3c bb
       -0.00772609 0.024584327 -0.013961098 -0.0028754482
000120 a8 b3 84 bc 52 bd 7b 3d 16 32 30 bc 98 bc e2 3c
       -0.016198948 0.061459847 -0.010754129 0.02767782
000130 46 85 16 3d 3b 25 cf 3c f0 3e 93 bc 4a be 73 bd
       0.036748193 0.025286308 -0.017974347 -0.059507646
000140 7a 70 48 3d 52 9d 30 bd dc e3 fa 3c 76 49 06 bd
       0.04893539 -0.043118782 0.03062623 -0.0327849
000150 10 d9 32 bb db a0 49 bc 1c fb 5e bd ef e2 c9 bc
       -0.0027290024 -0.012306417 -0.054438695 -0.024644343
000160 fd 0c 18 3d cc e1 8a 3c 55 6d 69 bd 11 fb 6a 3d
       0.03712176 0.016953371 -0.056989033 0.05736834
000170 6b 8b 17 bd 65 31 69 3d 22 55 95 3c 6b c2 e7 bb
       -0.036998194 0.056931872 0.018229071 -0.007072737
000180 d2 04 13 3d f6 e5 6d 3d 22 e6 62 bd e1 33 64 3d
       0.03589327 0.058080636 -0.055395253 0.055713538
000190 95 f9 a5 bc 94 7f b9 3c 03 87 84 3d 7c 65 d9 bc
       -0.020260612 0.022643842 0.06471064 -0.02653765
0001a0 55 01 85 3b c4 6e 45 bc 5a 18 a9 bc b6 9a a4 3c
       0.0040589967 -0.012050334 -0.020641495 0.020093303
0001b0 f7 d5 e3 bc df 23 94 3c c5 40 98 3c 44 be 31 bd
       -0.027811987 0.01808351 0.018585572 -0.043394342
0001c0 e1 47 c9 bc 94 8e 34 bc 59 48 27 3d 51 6f 41 3d
       -0.024570407 -0.011020321 0.04084048 0.0472253
0001d0 aa 9b 7a bc a1 8b c9 bc cd 69 cf bc ed ca 98 3c
       -0.015295902 -0.024602713 -0.025319004 0.01865145
0001e0 7f a1 21 bd fa de d6 3b 05 66 20 bd 40 5c 4f 3d
       -0.039460655 0.0065573426 -0.039159793 0.050625086
0001f0 7f 57 c1 bb ee 74 72 bd 32 69 02 3d 9f fe 89 ba
       -0.005900323 -0.059193544 0.031838603 -0.0010528154
000200 27 45 03 bd b4 66 07 bd 74 09 53 bd 0b ba 73 3d
       -0.03204837 -0.03305693 -0.051522687 0.059503596
000210 59 88 49 3d 3c 96 8e bc 34 6c 42 3c 94 9a fb bc
       0.049202297 -0.017405622 0.011866618 -0.030713357
000220 99 92 32 3c a6 c4 1f 3d 26 c8 0a bd 28 3e c6 bc
       0.010899209 0.039005898 -0.033882283 -0.02419956
000230 f7 13 64 bc 72 19 a9 bc ef a2 8c 3c aa 8d 6e bc
       -0.013920776 -0.020642016 0.017167537 -0.0145601425
000240 4a 56 25 bd 18 72 16 3d 92 06 59 3c 09 65 b0 3c
       -0.040365495 0.036729902 0.013246195 0.021532552
000250 43 e5 5d bd a1 ba 31 bd f8 c1 bd 3c 94 dc 94 3c
       -0.05417372 -0.043390874 0.02316378 0.018171586
000260 65 0e 19 3d e0 f9 2a 3d 02 86 8b 3b 1e c7 2a 3d
       0.037367243 0.041742206 0.0042579183 0.0416938
000270 d9 2a 13 3d 0b 1b 60 3d 04 c5 95 3c e0 0d 5e bd
       0.035929535 0.05471329 0.018282421 -0.05421245
000280 1c 5a 11 3d 69 af 34 bd 36 8e 82 3d 80 10 0f bc
       0.035486326 -0.044112597 0.06374781 -0.008731961
000290 eb 59 4a bc e4 b6 19 bd 6e 2f 62 bd 10 ed 1a bd
       -0.01235054 -0.037527934 -0.055221014 -0.037823737
0002a0 ee 68 c2 3c d7 3a 9c bc c8 6f 69 3d 91 e7 09 3d
       0.023731675 -0.019071026 0.05699137 0.033668105
0002b0 19 e8 b8 3c 2d ec 71 3d a4 67 80 3c db f1 48 bd
       0.02257161 0.059063125 0.01567442 -0.049058776
0002c0 13 e0 2d 3d eb d2 82 3b c1 64 55 bd 53 d9 56 bd
       0.042450022 0.0039924285 -0.05209804 -0.05245335
0002d0 1e fa 27 3d 39 22 18 3d 73 c8 c5 3c cc 48 77 bd
       0.041010015 0.037142012 0.024143433 -0.06037216
0002e0 af 44 04 3d ea 7b 33 bd dd 6f f6 bc 35 e7 3d bc
       0.032292064 -0.043819346 -0.030082637 -0.011590769
0002f0 f0 a5 f2 bc 39 c6 5d bd 7f ab da bc 1a 19 bc 3c
       -0.02962014 -0.054144118 -0.026693104 0.022961188
000300 e5 31 49 3d 83 e4 2b 3d fc dc a1 3b 95 7d 21 3d
       0.04911985 0.041965973 0.0049396735 0.039426405
000310 fa 0f a1 3c 8b fc f9 3a b2 d7 3e bd e9 4f d9 bc
       0.019660939 0.0019072456 -0.04659242 -0.026527362
000320 d8 f3 3e 3d 0a ad 60 3d 40 22 2b bd 83 8b 0f bd
       0.046619266 0.054852523 -0.04178071 -0.035045158
000330 28 e7 f9 bc 69 0d dc 3c 27 0d 25 bd 77 fe f9 ba
       -0.030505732 0.026861863 -0.040295746 -0.0019073029
000340 98 b8 fb 3b 26 f2 c0 3b 03 61 70 3d cc 98 49 3c
       0.0076819174 0.0058882413 0.058686268 0.012304496
000350 c2 82 13 bb 58 26 c8 3c 02 c0 de 3c e4 dc 51 bd
       -0.0022508358 0.024432346 0.027191166 -0.05123605
000360 ea da de bb 86 20 49 bd 35 51 ba 3c b2 ae 5f bd
       -0.006800999 -0.049103282 0.0227438 -0.05460996
000370 48 17 27 bd 8e 0b fe 3b 4e 69 7e 3c 24 6e f4 3c
       -0.040793687 0.0077528423 0.015528036 0.029837675
000380 54 42 f0 3b f5 33 9a 3c 53 50 18 3b fe cb 36 3d
       0.0073321257 0.018823603 0.0023241236 0.044628136
000390 ca 3a 4e bd e3 ff 4f 3d a5 8c 61 3b 19 98 fa bc
       -0.050349034 0.050781142 0.0034416106 -0.030590104
0003a0 9f 4c 41 3b d3 5d f7 bb 78 00 01 bd bd 4f 01 3d
       0.0029495133 -0.0075490265 -0.031494588 0.031570185
0003b0 51 d1 71 bd 51 55 4e bc e7 e9 a2 bc 02 d5 28 3d
       -0.05903751 -0.012593583 -0.019886924 0.041218765
0003c0 83 94 5d 3d 81 38 6f bc 0e ea 09 3c f8 c4 77 3c
       0.05409671 -0.014600874 0.008417619 0.015122645
0003d0 b6 13 4f bc 73 9f 2a 3d f4 50 51 3d 93 65 73 3d
       -0.012638977 0.04165597 0.051102594 0.05942304
0003e0 84 22 0d bc c3 df 7c 3d 31 77 65 bd 6b 9a 13 bc
       -0.008614186 0.061736833 -0.056021873 -0.009008984
0003f0 a2 05 9d bc a4 26 13 bd 3e ca bf bc 36 63 67 3d
       -0.019167725 -0.035925522 -0.023411866 0.0564911

fc2.bias f4 [256]
000000 91 d4 d9 bb 42 de 1b 3c 4b 6c 42 bd ab a7 46 3d
       -0.0066476543 0.00951344 -0.047466557 0.048499744
000010 b0 09 1d 3b 7c a0 61 bc 10 74 0b 3d b5 88 16 bc
       0.0023962073 -0.013771173 0.034046233 -0.009187867
000020 ef 8b 0e bc 28 cc e8 bc f8 8c a5 bc 4a ff 9a ba
       -0.008700355 -0.028417662 -0.02020882 -0.001182535
000030 79 b9 f7 3c ab 39 cd 3c 8a 74 46 ba 03 cf 14 3d
       0.030239807 0.025051912 -0.0007570466 0.036330234
000040 d9 63 02 3d 23 ca 4d 3d 4b 60 1b 3d cf c6 3f 3d
       0.031833503 0.0502416 0.03793363 0.046820458
000050 ca 7e 0a 3c 5d bf 54 3d 47 52 68 3d 22 fb 00 3d
       0.00845308 0.05194031 0.05671909 0.0314895
000060 59 a2 d4 3c 48 1c 20 bd 22 09 e4 3a 38 33 00 bd
       0.02595632 -0.03908947 0.0017397741 -0.031298846
000070 01 84 ff bc 09 f3 aa bc 3e c7 d4 bc 0d 71 3a 3b
       -0.031190874 -0.020867841 -0.025973912 0.0028448731
000080 bc aa e9 bc 36 d6 52 3d 18 92 16 3d 39 fa 64 3d
       -0.028523795 0.05147382 0.03676042 0.055902693
000090 4b 58 90 ba 76 eb 94 bc a5 be f9 bc ca e0 4b bb
       -0.0011012641 -0.018178683 -0.030486414 -0.0031109327
0000a0 b2 78 72 bc 9d 78 dc 3c aa 98 c8 3c 67 13 96 bc
       -0.014799284 0.026912982 0.024486858 -0.018319799
0000b0 7f 06 ee 3c 50 ce c8 bb 5b de 89 bb 73 fb f3 3c
       0.029055832 -0.00612811 -0.004207415 0.029782986
0000c0 e3 2f 22 3d 77 a3 2b 3d 00 16 46 3c 45 a6 e1 bc
       0.03959645 0.04190394 0.012090206 -0.027545104
0000d0 74 50 d1 3c 14 96 a3 3b 8b ef 6b bc cd 77 fb 3b
       0.025551058 0.004992256 -0.014400373 0.0076741935
0000e0 13 b2 cc bc 12 51 fc bc 14 b3 fe bb 8d 45 53 3d
       -0.024987256 -0.030800376 -0.0077728126 0.05158
0000f0 84 1b 9b 3c 6e 73 13 bd 82 97 48 3d 6e 38 33 3d
       0.018934019 -0.035998754 0.048972614 0.043754987
000100 28 ef 6b bc 13 ac ca bc 47 e4 f9 bb 87 a9 fa 3c
       -0.014400281 -0.024740255 -0.0076260897 0.030598415
000110 17 b5 2a bd 2f 8c b6 bc f9 f9 01 3d 09 35 c3 3c
       -0.041676607 -0.022283642 0.031732533 0.023829
000120 d4 31 e4 bc 8e 7e 6f 3d b8 65 71 3d aa 2f a1 3c
       -0.027855791 0.0584703 0.058934897 0.019676048
000130 7b c5 e9 bc 78 62 1e 3d 63 5b f4 3c 61 15 ac bc
       -0.028536549 0.038668126 0.029828733 -0.021006288
000140 27 3f da bc 7c 78 3a 3d d2 20 7e bb 92 2a 06 3d
       -0.026641442 0.04552506 -0.0038776887 0.032755442
000150 cb 66 07 bd 20 37 26 3c a8 30 e1 bc 54 42 1b bd
       -0.033057015 0.010144979 -0.027489021 -0.037905052
000160 86 d3 8b 3c 4e 5d 37 3d 89 55 a8 bb 9f b3 0b bd
       0.017068636 0.044766717 -0.0051371497 -0.034106847
000170 10 19 07 bd 4c a5 f3 3c c6 b7 2f 3d 0a 8d 25 3d
       -0.032982886 0.029741906 0.04289987 0.04041771
000180 86 11 8a 3c 6b e3 45 3d b6 c9 ca bb ea 89 00 bd
       0.016854059 0.048312586 -0.0061885966 -0.031381525
000190 4f b3 c1 3c 5d 0c 0f bd 3c 56 15 3d c1 bf f6 3b
       0.023645071 -0.0349239 0.036459193 0.007530183
0001a0 13 9f 66 3d ab d2 ca 3c 60 1d f6 3c 3c 00 8c 3c
       0.05630405 0.024758657 0.030043304 0.017089956
0001b0 a3 99 fc 3b 7d 3f 27 3c d0 9b 94 3c de 50 28 3d
       0.0077087446 0.010208008 0.018140703 0.041092746
0001c0 92 1c 09 3c f3 b7 0d 3d ea 42 9a bb 76 a9 b2 3c
       0.008368628 0.034599256 -0.004707684 0.02180932
0001d0 87 4f 21 bb f0 cf 71 bc b1 a9 df bc dd a2 2f bd
       -0.0024614052 -0.014759049 -0.027302595 -0.042879928
0001e0 88 81 7f bc e9 9e b0 3c 64 8d 5c bc a8 e5 47 3d
       -0.0155948475 0.02156015 -0.0134614445 0.048803
0001f0 84 35 39 3d ef 18 84 bc d5 df 40 3d a6 e8 c8 3c
       0.045217052 -0.01612517 0.047088463 0.024524998
000200 fe 3e 47 bd 23 73 e2 38 cc ba fb bc 2a f7 e7 ba
       -0.04864406 0.00010797966 -0.03072872 -0.0017697562
000210 98 7f 81 3c 87 3b b2 3b 0e 6e 19 3d ac 40 95 bb
       0.015807912 0.005439225 0.037458472 -0.0045548286
000220 10 73 38 3d eb 82 8e 3c a1 09 9a ba 21 c8 1f 3d
       0.045031607 0.01739641 -0.0011752137 0.039009217
000230 8e 4a 30 bc 05 0f 3d 3d f9 3d fa 3c c7 f7 0e bd
       -0.010759963 0.046156902 0.030547129 -0.034904268
000240 35 11 f9 3b a1 14 16 bd 44 f5 d3 bc 4f 9c fe bc
       0.007600928 -0.036640767 -0.025873788 -0.031080393
000250 9e 0d 1c 3d 04 0e 44 bd c5 29 01 3d f1 12 c8 3a
       0.038098924 -0.04786493 0.031533975 0.0015264434
000260 6d 54 6e 3d 6f 34 bc bc b8 d7 c8 3c 0b 33 c9 bc
       0.058185983 -0.022974221 0.024516925 -0.024560472
000270 92 4d e5 3c c4 5a 84 3d bc b2 34 bd 37 05 cb 3b
       0.02799109 0.06462625 -0.044115767 0.00619569
000280 80 ff 8b bc 2e bd 2e 3d c9 3e 59 3d ac c2 31 3d
       -0.017089605 0.042660885 0.053038392 0.043398544
000290 4a c5 26 3d bf ab 68 3c 14 a5 0a bc 40 8d c4 bc
       0.040715493 0.014201104 -0.008462209 -0.023993134
0002a0 1d ff 66 bb 70 c3 f1 bc e1 b0 4c 3d 96 de ce bc
       -0.0035247274 -0.029512137 0.049973372 -0.025252622
0002b0 0e db fe 3c f1 c1 65 3d a8 e8 ad 3c 99 ef ab bb
       0.031110313 0.05609316 0.021229103 -0.005247068
0002c0 b2 2a aa bc 45 71 81 3b 7b 37 c3 bc ed 99 92 3c
       -0.020772312 0.0039502704 -0.023830166 0.017895663
0002d0 4e 72 56 3d 2f 29 1d 3d e2 b1 34 bb 8d 3d 25 bd
       0.052355103 0.038369354 -0.0027571847 -0.040341903
0002e0 8c 72 90 3b fa 2b 07 bd 91 a8 16 3d 3c 60 16 3c
       0.0044081863 -0.033000924 0.03678185 0.0091782175
0002f0 be 5a 9b 3b 48 a2 6a 3d fd 60 74 bc e5 2e 3d 3d
       0.004741042 0.05728367 -0.014915702 0.0461873
000300 ae a5 11 bc 3a 95 92 3b 41 1f d3 3c c1 49 0d 3c
       -0.008889599 0.0044733556 0.025771739 0.008623541
000310 67 3d d6 bc f4 df 0e 3d dc 81 11 bd 03 19 75 3c
       -0.026152326 0.034881547 -0.035524234 0.014959577
000320 c0 4c 6d 3b ab 66 2d 3d 68 d1 70 3c f4 6f 45 3d
       0.0036209077 0.04233424 0.014698364 0.04820247
000330 96 c5 3e 3d 1d 47 d4 bb 4e bd fc 3c 44 43 75 3d
       0.04657515 -0.006478204 0.030851986 0.059878603
000340 17 b3 5d 3d 38 f0 a7 bc e6 85 25 3d 02 0c ef bb
       0.05412587 -0.020500287 0.0404109 -0.0072951326
000350 0d 74 58 bc 2a a0 eb 3c ae c7 d8 bc 62 bf 01 3d
       -0.013211262 0.028762896 -0.026462402 0.031676657
000360 90 f1 87 bb d7 42 8f 3b 15 12 86 3b 36 28 9b bc
       -0.0041486695 0.0043719816 0.004091511 -0.018940073
000370 69 86 aa bc c5 1b ed 38 5f c9 30 3d 01 50 b1 bc
       -0.020816045 0.00011306213 0.043160792 -0.021644594
000380 25 41 d9 bc 56 57 41 3d ac c7 c1 3c 17 18 0c 3d
       -0.026520321 0.04720243 0.023654781 0.03420266
000390 b2 f3 45 bc 36 8c 97 3c 72 62 99 3c ca c0 d6 3c
       -0.012082027 0.018499475 0.0187237 0.026214976
0003a0 18 2d 62 bc 10 9a 98 3c a6 3f 23 3d f9 ba 57 3c
       -0.0138046965 0.01862815 0.03985562 0.013167136
0003b0 d7 14 c5 bb ba a9 94 bc d6 9d 50 3d 47 77 19 bd
       -0.006014447 -0.018147338 0.050931774 -0.037467267
0003c0 a2 af aa 3c ed 7a 8d 3c eb 19 eb bc e2 17 cb bc
       0.020835701 0.01727053 -0.028698882 -0.024791662
0003d0 9f bb 59 bc a2 aa 88 bc 4d b5 a5 3c 28 de c7 bc
       -0.013289361 -0.016682927 0.020228053 -0.024397925
0003e0 ec 07 6c 3d f8 d2 57 3d 65 64 42 3d bf d7 f5 3c
       0.057624742 0.05269143 0.047459025 0.030010102
0003f0 f7 38 39 3c 0c 2b 99 3b 9e 81 f2 bc 52 df 01 3a
       0.011305085 0.004674321 -0.029602822 0.0004954237

fc3.weight f4 [2, 256]
000000 92 86 e1 bb 6b c9 73 bc 4e 9a 2a bb 7f 5e 3b 3b
       -0.006882497 -0.014879565 -0.0026031914 0.002859026
000010 d8 7b ca 3a b5 8a ba 39 63 14 3d bc 48 fd 28 bb
       0.0015448285 0.0003558003 -0.011540505 -0.0025785733
000020 dd b0 56 bc 0a 6f ae 3a 96 ba 03 bc 96 46 60 bb
       -0.013103691 0.0013308239 -0.008040091 -0.003422176
000030 1c 3b 93 bb 80 7b cc ba d4 72 29 3b c6 4a 03 bc
       -0.0044931304 -0.0015600771 0.0025855796 -0.008013433
000040 1c 8a 72 bb 72 db d4 bb 22 7e 15 bc 05 cd 48 bb
       -0.003700859 -0.0064958865 -0.009124311 -0.003063978
000050 ce 58 26 bc 7b 54 12 bc 61 bd 2d bc 93 27 21 bc
       -0.010153009 -0.0089312745 -0.0106042335 -0.009836095
000060 a5 b3 6e 38 57 10 c1 ba c3 27 88 bc 38 2e 86 bc
       5.691093e-05 -0.0014729601 -0.016620522 -0.01637946
000070 49 d0 04 bc e3 05 1d bc a6 4b 2c 3a fa 9c 48 bc
       -0.0081063 -0.009583923 0.0006572552 -0.012244457
000080 51 32 67 bc fd 68 f8 bb cf f8 68 bc c4 6a 5b bc
       -0.014111117 -0.007580875 -0.014219477 -0.013392154
000090 cd b0 2e bb 10 b2 7c b9 93 bf c5 ba 14 e7 1f bc
       -0.0026655674 -0.00024098926 -0.0015087001 -0.009759683
0000a0 a4 54 b3 bb 15 48 33 b9 6b 97 da bb e4 5f 43 bc
       -0.0054727364 -0.00017097623 -0.0066708825 -0.011924718
0000b0 77 a6 a5 bb ec 4c 13 bc 25 c1 99 39 d1 96 fc bb
       -0.0050552445 -0.008990508 0.00029326338 -0.0077084084
0000c0 30 0d 8d bc 52 53 3d bc ff d6 23 bc e8 75 5b bc
       -0.017218202 -0.01155551 -0.0099999895 -0.01339481
0000d0 ab 21 4a bc 6d 4c d0 3a 06 98 82 3b f0 38 54 bc
       -0.012337129 0.0015891917 0.0039854078 -0.012953028
0000e0 7b 95 7c bc 71 55 8a bc 57 a2 58 bc 06 3c 58 bc
       -0.015416498 -0.016886445 -0.013222299 -0.013197904
0000f0 08 74 38 3a b4 ca 1b 3b 76 20 8a 3b 47 0b 7e bc
       0.0007036333 0.0023771944 0.0042152954 -0.015505618
000100 25 24 f2 ba d7 bc 3f bc 17 4f 92 bb 2e 2a 0a bc
       -0.0018473907 -0.011702738 -0.0044649947 -0.008432908
000110 93 23 ee ba c0 20 e3 39 51 e0 3b bc 94 2f 28 bc
       -0.0018168561 0.00043321215 -0.011467055 -0.01026525
000120 83 99 65 bc eb 1c 8f bc 6f a8 41 bc 40 92 ee bb
       -0.014013651 -0.017469844 -0.011819943 -0.007280618
000130 37 8c 3b 3c 6f 4c f4 ba 53 d2 ca bb 7b 5b b7 3a
       0.011447004 -0.0018638502 -0.0061896234 0.0013989055
000140 37 23 8a bc 07 4b 19 bc 5d fe 75 39 53 2a 80 bb
       -0.016862495 -0.009356267 0.00023459778 -0.0039112954
000150 95 84 9c 3b 2c eb 58 b9 87 a0 07 bc 5f 36 1c bc
       0.004776547 -0.00020686974 -0.008278019 -0.009534447
000160 06 0f 43 bb ee f5 62 bb 4f ba a0 39 15 35 cd ba
       -0.0029763593 -0.0034631449 0.0003065639 -0.0015656078
000170 29 21 7a bc 88 57 56 ba 68 9a 6e bc 30 31 ff bb
       -0.015266695 -0.00081764953 -0.0145631805 -0.007787846
000180 a8 55 59 3a 53 5d 38 bc 0d ee 90 3b 92 af 19 bc
       0.0008290657 -0.011252719 0.004422909 -0.009380238
000190 3b b0 47 bb d1 e7 4d 38 83 f3 ab b8 a3 f3 2e bc
       -0.0030470032 4.9091705e-05 -8.199273e-05 -0.010678205
0001a0 e9 f7 62 bb 88 6b 1f bc a2 57 05 bc 05 c7 51 bc
       -0.003463263 -0.009730227 -0.008138569 -0.012803798
0001b0 d8 6f 27 bc c5 22 1b bc 50 6b 25 3b 0c 14 7e bc
       -0.010219537 -0.009468739 0.0025240965 -0.015507709
0001c0 c8 79 32 3c 85 bc 11 bc d3 b3 d3 bb ff ff 81 bb
       0.010893293 -0.008895044 -0.0064606457 -0.0039672847
0001d0 bb 15 83 bb da 09 3f 3b 7b 30 b3 bb c7 c9 6c bb
       -0.004000393 0.002915016 -0.005468426 -0.003613101
0001e0 53 e2 88 3a 9e e3 23 bc be 9a 80 bc 8b 0d f0 bb
       0.0010443426 -0.010002999 -0.015698787 -0.007325833
0001f0 c5 3b 54 bc 0f bf 62 bc 64 3f 47 b9 81 9c 5b bb
       -0.012953703 -0.013839497 -0.00019001734 -0.0033510032
000200 ee 40 0a bb 98 ec ec bb 20 92 5f bb 28 8b 38 bc
       -0.002109583 -0.0072303526 -0.0034114197 -0.011263646
000210 c2 22 4c bc ac f8 a8 bc f6 ab 87 bc c6 80 ad bc
       -0.012459459 -0.020626388 -0.01656149 -0.021179568
000220 9e e7 32 bc 15 2d c7 ba 71 e4 56 bc 47 ef 21 bc
       -0.01091948 -0.0015195931 -0.013115988 -0.009883708
000230 37 c8 86 ba 4a 4c 87 bc 93 32 0b bc 06 03 09 bc
       -0.0010283057 -0.01651587 -0.008495945 -0.008362537
000240 0e 25 4c bb 65 0f 48 bb 13 5d 1f bc 72 55 52 bb
       -0.0031150016 -0.0030526754 -0.0097267805 -0.0032094386
000250 7b 11 5e bc bc 9c 09 3b 64 b5 30 bc fb a6 a5 ba
       -0.013553972 0.0020997962 -0.010785434 -0.0012638265
000260 d6 8e 4e bc ae 2b 1e bb b0 9a 06 bb 8f 7e 4a bc
       -0.012607297 -0.0024134922 -0.0020538978 -0.0123592755
000270 d9 a6 09 bb bc 63 2a bc 08 50 d4 ba 62 ec 5f bb
       -0.002100399 -0.010399755 -0.0016198168 -0.0034167995
000280 bb ed 23 bc f6 c2 2c bc d1 f5 3d bc 59 94 f4 3a
       -0.01000541 -0.010544529 -0.011594252 0.0018659934
000290 a4 e2 05 bc 90 07 27 bc 74 38 7f ba 36 f9 8b bb
       -0.008171711 -0.010194674 -0.000973589 -0.0042716516
0002a0 7b 5c 39 bc 4c 61 38 bc a2 95 01 bc 47 5c 77 bc
       -0.011313553 -0.011253666 -0.00790921 -0.015097684
0002b0 6f 7b 38 bc ca b6 1e bc 8a b3 25 ba fb 8c f3 bb
       -0.011259898 -0.009687135 -0.0006321004 -0.0074325777
0002c0 91 7b 2b bc 7f 9f 66 bc bc 90 8e bb 2c 3e c5 3a
       -0.010466472 -0.014076113 -0.00435075 0.0015048436
0002d0 bb ad 65 bc 40 b2 32 bc 96 a5 72 bc a7 a6 85 bb
       -0.014018471 -0.010906756 -0.014809987 -0.0040787044
0002e0 05 03 27 3b 01 dc 21 ba 44 14 49 3b 22 25 b5 bb
       0.0025483978 -0.0006174446 0.0030682245 -0.005528108
0002f0 a6 29 79 bc e4 2d 08 bc e3 16 a8 bc 3f 44 77 bc
       -0.015207684 -0.008311722 -0.020518726 -0.015091955
000300 b4 ec 96 bc a4 3b de bb 0b 05 57 bc 4c 03 84 3b
       -0.018423416 -0.006782012 -0.013123761 0.0040287133
000310 75 f3 da ba 8d 32 96 bb 90 7f 82 bc 4f b1 f1 bb
       -0.0016704636 -0.004583663 -0.015929967 -0.007375873
000320 bb 03 30 bc dd b4 94 bc 69 b5 8b bc 12 e1 87 bc
       -0.010743077 -0.018152649 -0.017054277 -0.016586814
000330 23 da 8b 3a 11 c7 17 bb a0 fe c6 3a cf 96 ac bb
       0.0010669868 -0.0023159424 0.0015182085 -0.005267001
000340 02 e1 8c bb 34 32 3e 3b 68 57 00 bc 5c 41 75 bc
       -0.004299284 0.0029021623 -0.007833339 -0.014969196
000350 b9 93 0c bc 21 1a 06 bc 90 5b 90 bc 1c 85 24 bc
       -0.008580142 -0.008184941 -0.017621785 -0.010041501
000360 77 bb 3c bc 64 f2 f1 3a 9f 61 ff bb 10 d4 71 bc
       -0.0115193045 0.0018459079 -0.0077936198 -0.014760032
000370 5e ea 80 bc e5 a4 09 bc 45 b4 fa bb f1 cf 05 bb
       -0.015736755 -0.00840113 -0.0076508843 -0.0020418132
000380 9c 5d af bc 99 b7 df bb 68 d0 0f bb bc c5 38 bc
       -0.021406941 -0.0068273065 -0.0021944288 -0.011277612
000390 14 20 28 bc ac 32 a2 bb 55 18 f5 3a 15 16 1b bc
       -0.010261554 -0.004949888 0.0018699268 -0.009465714
0003a0 97 24 29 bc 64 be 53 bc 46 cd d1 bb dd f9 1f bc
       -0.010323665 -0.012923811 -0.0064026443 -0.009764162
0003b0 ea 49 02 bc 29 d7 64 bb cb 55 40 bc 46 23 d2 bb
       -0.007952193 -0.0034918285 -0.011739205 -0.0064128963
0003c0 08 8d 3e bc 52 cc 0f 3b e1 42 11 3a 8f 1f 4e bc
       -0.011630304 0.0021941853 0.0005541277 -0.012580766
0003d0 27 b8 4f bc 3f 97 22 bc b1 8c d5 bb e4 ef 52 3a
       -0.012678183 -0.009923755 -0.006517016 0.0008046611
0003e0 0c de 1c bc 05 9c 0f bc cc fa 98 bb e6 af 91 39
       -0.0095744245 -0.008765225 -0.004668569 0.0002778761
0003f0 d9 73 61 39 b4 47 bd 3b 6b 20 12 bc 30 41 62 bc
       0.00021500829 0.00577637 -0.008918862 -0.013809487

fc3.bias f4 [2]
000000 fa 57 33 3d 69 13 6f 3d
       0.043785073 0.05836812
