projects/tennis/checkpoint/RE26/RE26.16_actor1_15000.pt (torch_old, 453689 bytes, 6 tensors)

fc1.weight f4 [400, 24]
000000 0f 07 2c bd 6f a6 2f 3d c2 e1 96 bc 6d cf 05 3d
       -0.04199892 0.042883333 -0.018418197 0.03266852
000010 dc 85 e6 bc 66 1e 83 3c 2d ef 4c 3c 5a fa b1 bb
       -0.028140001 0.016005706 0.012508196 -0.0054314556
000020 04 62 c7 3c 93 3b 56 3c bc c0 13 3d da 2b 1b 3c
       0.02433873 0.013075727 0.036072478 0.009470904
000030 98 c0 f7 3c 5d f3 34 3d 34 c7 74 3d 4c 25 84 bc
       0.030243203 0.0441774 0.059760287 -0.016131066
000040 41 a2 18 bc 09 10 23 3d e1 3d 82 bb 0c 51 68 3d
       -0.009316028 0.039810214 -0.0039746617 0.056717917
000050 0a 0f d5 ba 77 c8 bf 3c 9d 05 21 3d f7 14 67 3c
       -0.0016255092 0.023411019 0.039311994 0.0141041195
000060 b0 a1 f2 3c 71 08 5a bd 95 57 50 bd 27 d9 00 3b
       0.029618114 -0.053230707 -0.050864775 0.0019660683
000070 57 04 d9 ba 27 1f 21 3c 02 3c 3a bd a6 b0 5a bd
       -0.001655708 0.009834087 -0.045467384 -0.05339112
000080 e5 a7 5d bd 88 c4 03 3d 5c 51 e5 bc 71 81 c9 bc
       -0.054115195 0.03216985 -0.027992897 -0.024597855
000090 45 8d e7 3c 16 86 f4 3c 8a 75 bb 3c 9d 88 9e bc
       0.028265605 0.029849093 0.022883195 -0.019352252
0000a0 5a 37 c0 bc 4e f2 80 3c 6f 14 45 bc 71 3e 47 bb
       -0.023463894 0.01574054 -0.0120287975 -0.0030402208
0000b0 20 43 46 bc fb 4e 39 3d bf be 3a 3c 34 9f 61 bd
       -0.012100965 0.045241337 0.0113980165 -0.05508347
0000c0 84 9a 0a bc 98 ae 96 bb 9b 83 84 3c 04 2c 61 3c
       -0.008459691 -0.00459845 0.016176036 0.013743404
0000d0 41 c9 b1 3c 79 bd 99 bb be d3 cd 3c d2 be 15 3d
       0.02170241 -0.0046917764 0.02512538 0.036558934
0000e0 bb d7 bc bc 21 0b fa 3c d1 e8 66 3d 7e ad a0 3c
       -0.023052087 0.030522885 0.056374375 0.019613978
0000f0 07 48 dc 3c 85 b6 e9 bc 14 7c f4 3c b4 7e 51 3d
       0.026889814 -0.028529415 0.029844321 0.051146224
000100 29 70 3d bd 72 cb 2e bd 9e 8f e3 3a f5 35 26 bd
       -0.046249542 -0.04267449 0.0017361527 -0.0405788
000110 14 78 37 bd 85 a0 11 bd cd 23 c6 bc 04 94 ef 3c
       -0.04479225 -0.035553474 -0.024186993 0.029245384
000120 b6 6f 3c 3c 70 f8 69 bc 1b 78 f1 3c 06 24 2a 3d
       0.011501243 -0.0142804235 0.029476216 0.04153826
000130 e5 61 1e 3d 0c 02 1a bc 04 55 6f 3d 7c c9 3a 3d
       0.03866758 -0.009399902 0.058430687 0.045602307
000140 c1 94 e5 3c 73 52 53 bd 93 04 d3 3c 88 21 17 3d
       0.028025033 -0.0515923 0.025759017 0.036897212
000150 d3 4c 9e bc a6 50 bb 3c ef 29 c5 3a 31 55 72 bc
       -0.019323742 0.022865605 0.0015042404 -0.014790819
000160 b1 e7 81 bc ca c9 37 bd e0 98 33 bc 09 3a 34 3d
       -0.01585755 -0.044870175 -0.010961741 0.04400066
000170 4b 8b 24 bd 0f 82 a2 3c 10 63 67 3d b6 fd a7 3c
       -0.040171903 0.019837407 0.056490958 0.020506721
000180 5d c7 77 bb a3 ca 11 3d 06 03 08 3d df 29 1e bd
       -0.0037808039 0.03559364 0.03320601 -0.03861415
000190 b1 15 f6 bc 74 79 e7 3c 77 86 49 bb 03 7b 37 bd
       -0.03003964 0.028256156 -0.0030750313 -0.044795047
0001a0 34 78 9b bc 6b 7f 5c bc 05 a7 94 bb 56 ce 0c bd
       -0.018978216 -0.013458113 -0.004536512 -0.034376465
0001b0 93 ae 18 bc fe 78 6b bc 4c 42 8a bc 3d 16 c9 3c
       -0.0093189655 -0.0143721085 -0.016877316 0.024546737
0001c0 30 b4 8f bc e7 81 02 3d 14 88 4e bd e2 4a 04 bd
       -0.017541975 0.031862166 -0.050422743 -0.032297976
0001d0 f1 c5 13 bc ad 54 5b bc 55 e8 03 bc 20 93 a4 bc
       -0.009019361 -0.0133868875 -0.008050998 -0.020089686
0001e0 ff 62 1e bc b2 d0 85 3c 47 5b b7 bc 61 0e 19 3d
       -0.009667157 0.016334865 -0.022382392 0.03736723
0001f0 e0 8b 90 3c e2 69 40 3d 98 30 07 3d ae f8 74 3b
       0.017644823 0.046975978 0.033005327 0.003737967
000200 4a 5a 58 bb 18 65 23 3d 76 d7 15 3d 89 23 47 3d
       -0.00330128 0.039891332 0.036582433 0.048617873
000210 5a b4 c7 bc e4 75 dd 3c 9f df 63 bc b2 47 12 bd
       -0.02437799 0.027033754 -0.013908296 -0.035712905
000220 b8 fb f9 3c 4d 9b 1c 3c 0d 5e 14 3c e4 91 f9 bc
       0.030515537 0.009558511 0.009055627 -0.030465074
000230 6b 31 3e bd 0c a2 ce 3c 58 3d ae 3c c5 10 2c bd
       -0.046433847 0.025223754 0.021269485 -0.04200818
000240 b1 bb 0a 3d e1 d8 04 bc 63 f7 af bc ac 67 21 3d
       0.033870403 -0.008108349 -0.021480268 0.03940551
000250 da 20 6e 3d 75 22 9f 3c 1e 96 59 bd 48 dd 5c bc
       0.0581368 0.01942561 -0.05312168 -0.013480492
000260 85 6c 84 bc 2d dc 29 bb 0d 5e eb bb 1a 0e d8 3c
       -0.016165027 -0.0025918589 -0.0071828426 0.026373912
000270 b0 bc fb 3b 1b ca d6 3b 77 fc 92 3c 28 cf 5f bc
       0.0076824054 0.0065548546 0.01794265 -0.01366023
000280 e8 55 f6 3c 27 f8 8c bc 9f 7f 11 bd 0c 42 42 bd
       0.03007026 -0.017208172 -0.0355221 -0.04742627
000290 95 c9 d7 3c d5 a4 56 3a bb e6 0f 3c fe 9c d1 3c
       0.026341239 0.0008188014 0.008783038 0.025587555
0002a0 7b 45 27 bd 8b 1c 8a 3c a0 67 cc 3b b4 a2 23 bc
       -0.040837746 0.016859313 0.006237939 -0.009987522
0002b0 0a 2b 93 3c 2c ba 51 bd 93 a1 d5 bb 79 b2 58 3c
       0.017964859 -0.051202938 -0.0065195053 0.013226145
0002c0 46 91 ee 38 ff bf 05 bd 23 bd 2f 3d 5d 82 e5 bc
       0.00011375784 -0.032653805 0.042904984 -0.028016264
0002d0 fc 87 44 3d a5 61 05 bd 08 03 73 3b e6 2d 0c 3d
       0.047981247 -0.032563824 0.0037080664 0.03422346
0002e0 87 72 52 b9 b0 c6 ce bc 76 c6 00 bd 69 c9 0e 3d
       -0.00020069825 -0.025241226 -0.031439267 0.03486005
0002f0 43 81 e8 3b e1 ed 5a bd 54 94 c2 39 91 33 2b 3d
       0.0070954873 -0.053449515 0.00037113077 0.041797224
000300 86 22 10 bc cc 96 70 bd ed 32 22 bd 08 66 d3 bb
       -0.0087972935 -0.05873756 -0.039599348 -0.006451372
000310 60 87 2d bd 7e 45 29 bd e3 77 28 bd 08 e1 5f bd
       -0.04236543 -0.04132604 -0.041129958 -0.054657966
000320 2b 43 b0 bc 54 26 47 bd b2 a2 b3 3c 25 18 92 bc
       -0.021516403 -0.048620537 0.021928165 -0.017833779
000330 4d 60 80 bc c0 4b a8 3c c2 4b 21 bd 60 bd d9 bc
       -0.01567092 0.020543933 -0.03937889 -0.026579559
000340 3d 08 dd bc 98 0d f2 bc 8b a0 cf 3c 03 90 ca 3c
       -0.026981467 -0.029547498 0.025345108 0.024726873
000350 56 a9 1d bc 08 4a 53 bc 38 2b bc bc 7b 06 81 3c
       -0.009622892 -0.012896068 -0.022969827 0.01575016
000360 51 8d 0c 3c 44 d1 28 bd 13 d8 29 bc 88 c0 32 bd
       0.008578614 -0.041215196 -0.0103664575 -0.043640643
000370 78 f4 82 3c 40 7b 2a 3d e8 a0 3d bd 7c f1 02 3d
       0.015985712 0.041621447 -0.04629603 0.03196858
000380 b7 65 8a bc 41 17 68 ba f0 ec b2 3c f4 f0 4c 3b
       -0.016894205 -0.0008853563 0.021841496 0.003127155
000390 65 5c 13 bc e9 1c 15 bd fd 47 8d 3c 47 00 0d bd
       -0.008994197 -0.036404524 0.01724624 -0.034424093
0003a0 6f 64 d5 3c 61 8f fe bc ee a5 b1 bb 56 75 2d 3d
       0.026048867 -0.031074228 -0.0054213917 0.04234823
0003b0 b2 bf 42 bc c1 9e 08 bd 38 0a f6 bc 0e fe b4 3c
       -0.011886524 -0.033354525 -0.03003417 0.022093799
0003c0 e3 0d 46 bd e8 bc 64 bd 66 ad 83 bc f7 af ef 3a
       -0.048353087 -0.055844218 -0.016073894 0.0018286695
0003d0 cc 68 40 bd b4 86 0b bc 08 33 e5 bb 42 5b 01 bc
       -0.046974942 -0.008516002 -0.006994609 -0.007895293
0003e0 7b 23 24 bd d1 24 2c 3a 40 a7 0a bd 6d b2 af bc
       -0.0400729 0.00065667654 -0.03385091 -0.021447385
0003f0 1a e3 cb bc 99 18 d6 bb 34 d9 77 bd f3 b9 ab bb
       -0.024888564 -0.006533694 -0.060509875 -0.0052406727

fc1.bias f4 [400]
000000 60 e7 0f 3c 3e 71 e8 bd d0 63 a9 3b 11 7b e0 3c
       0.008783191 -0.11349724 0.0051693693 0.027402433
000010 75 0d 01 3d c1 6f 44 3d 04 4e 0c 3e 2f 8c 31 be
       0.031506974 0.04795814 0.13701636 -0.17338632
000020 f4 c4 49 3d 7a d8 16 be 31 db ba bc 6b f4 3a be
       0.049260095 -0.14731017 -0.022809597 -0.182573
000030 4f bf cd bd 4a cd 0d 3e 5f 80 3d 3d 3e ce 13 3e
       -0.10046255 0.13847843 0.046265002 0.14434144
000040 bd cb 3d be 0c 94 50 3d 83 c6 15 3e 32 31 3e 3d
       -0.18534751 0.05092244 0.14626507 0.046433635
000050 68 78 d2 3b 30 d3 04 be 28 44 38 be 05 ca 3b be
       0.006423045 -0.12971187 -0.1799475 -0.18338783
000060 09 fd ec 3d 1a fd 49 3e a6 a5 81 bd c8 cd 9c bd
       0.115717 0.19725457 -0.06330423 -0.07656437
000070 1c 06 f9 3d 49 48 97 bd a3 ac ff bd 51 7f 32 3e
       0.121593684 -0.07386834 -0.124841 0.1743138
000080 cd bc 81 3d 14 f9 a5 bb 3b 29 38 bc 99 5b 74 bb
       0.06334839 -0.005065093 -0.011240299 -0.0037286042
000090 b1 ea 4a 3d 31 8c ae bd ed e7 32 3e f8 6e 3a be
       0.049540225 -0.08522833 0.17471285 -0.18206394
0000a0 4c 78 8e 38 a3 ed 17 3d 2c de 34 be fa 87 5c 3e
       6.793495e-05 0.037091862 -0.17662877 0.21536246
0000b0 8d db 4b 3d f2 db d1 bc e5 b2 3b 3e 66 b7 0b 3e
       0.049769927 -0.025617573 0.18329962 0.1364418
0000c0 38 37 12 3d eb 89 b1 3b 51 da f8 3c f0 2f 29 3d
       0.035697192 0.0054180524 0.030377539 0.041305482
0000d0 19 ba cc 3d ce 15 03 be 03 77 e9 bd 4d 1b 06 3e
       0.09996433 -0.12801287 -0.11399653 0.13096352
0000e0 38 23 37 3e 78 f8 b7 3d 49 bd 0c be ec 86 f0 bd
       0.17884529 0.089829385 -0.13744082 -0.11744484
0000f0 49 37 46 3e 7c 7e 7b bd 7d f2 1c 3c 44 42 16 be
       0.19357027 -0.06139992 0.009579298 -0.14673716
000100 a3 6b 74 bd 5b ca 47 3e 49 a7 c2 3d 1c 25 65 3d
       -0.059672963 0.19510786 0.09504563 0.055943593
000110 3c 8f 52 3e e1 9b 38 3e ac 4b 0e be 7f 6f eb bd
       0.20562452 0.18028213 -0.13896054 -0.114958756
000120 57 f8 2b be da 28 5b 3e 6a 1c 13 3e c6 a4 f1 3d
       -0.16793953 0.21402302 0.14366308 0.11799006
000130 0a d8 c7 bd 3b c8 1d be 79 a6 cb 3d 22 82 26 be
       -0.09758003 -0.15408413 0.099438615 -0.16260579
000140 3f eb 34 3e 4c fd 0f be ae 04 c8 39 5e c1 0b be
       0.17667864 -0.14061469 0.0003815046 -0.13647982
000150 2b da ee 3c 6a 37 4a bc ca fa 02 be 6e 74 42 be
       0.029156765 -0.012342313 -0.12790981 -0.18989727
000160 ab 9e c9 3b fb 46 ae bb c1 d8 d4 bb 74 ce 8e bd
       0.006152948 -0.00531852 -0.0064955656 -0.069729716
000170 94 93 54 3d 3b 8c 3d 3e 4e b8 fe 3d 07 17 3e bd
       0.051898554 0.18510525 0.12437497 -0.04640868
000180 b0 64 1b bd d6 24 e1 3d b0 02 00 3e 21 6b a4 bb
       -0.03793782 0.10993354 0.12501025 -0.0050176536
000190 fa 38 8d bd 54 de 63 3c 43 8b 0f 3e 29 26 32 3d
       -0.06895633 0.013907988 0.14017968 0.043493424
0001a0 09 d0 28 3d 73 17 46 3e 1d 73 1d be c8 9e 1c be
       0.041214023 0.19344883 -0.15375943 -0.15294945
0001b0 40 59 e9 bd 18 ba af 3d 0d f9 93 3d 05 34 03 3e
       -0.11393976 0.085804164 0.07225237 0.12812813
0001c0 ca 3e 1c 3d b4 47 80 bc 8f b0 3e 3e 7b 4c e2 3d
       0.038145818 -0.01565919 0.1862204 0.11049744
0001d0 55 8d 2d be 5f 4a 2a 3e 83 bc 37 be 5a ce 97 3d
       -0.16948445 0.16629933 -0.17943005 0.07412405
0001e0 9d 86 b3 3d 37 4a d7 bd c2 e9 82 3d 87 6e 2b bd
       0.0876591 -0.10512202 0.06392242 -0.041853454
0001f0 bf 3e 66 3c f5 b2 6f bd 62 06 3a be 92 bf 49 3e
       0.014053046 -0.058520276 -0.18166497 0.19701985
000200 a6 6c 89 bd a0 5c 39 3e f7 97 a2 3b 1a b3 8d bd
       -0.06710176 0.1810174 0.0049619633 -0.069189265
000210 0c 47 ef bc c2 d0 0d bb 29 f5 8e bd 23 98 bc bc
       -0.029208682 -0.0021639322 -0.06980354 -0.023021763
000220 15 90 9d bd 3a bc d8 bd 0d 7e 43 3d cc b7 ab 3d
       -0.07693497 -0.10582776 0.047727633 0.08384666
000230 a9 bc fe 39 9b 5f 68 3d a5 76 ba bd 32 a4 3b 3e
       0.00048587218 0.0567318 -0.09104661 0.18324354
000240 5b c0 27 be 7e 88 f2 bd 44 63 a1 3b 3b 0e 97 bd
       -0.16381972 -0.1184244 0.0049251635 -0.07375761
000250 38 9d 6b bd c7 e0 b5 bd c8 0b 32 3e 69 e8 2e bd
       -0.057522982 -0.088807635 0.17387307 -0.042702112
000260 bd db 01 be 7a a0 35 be 66 6c 09 bc 88 41 0f bd
       -0.1268148 -0.17736998 -0.008387661 -0.034974605
000270 21 99 53 3e e2 fe 86 bd 3e bf 66 bd 51 91 09 3e
       0.20663883 -0.06591584 -0.056334727 0.1343434
000280 23 5e 94 bd a2 c1 38 3e 18 03 b0 3d 84 df 4b 3e
       -0.07244518 0.18042615 0.0859434 0.19909483
000290 f6 c4 f1 3c 47 44 19 3e 87 73 3f 3e cc 69 49 3e
       0.029512864 0.14967452 0.18696414 0.19669265
0002a0 71 76 2c be 80 46 cf 3b f1 02 93 bc b8 2d 91 bd
       -0.16842057 0.006325543 -0.017945739 -0.07088798
0002b0 23 33 f2 3c 14 6d 52 bd 62 45 04 be 72 39 95 bd
       0.0295654 -0.051373556 -0.12917092 -0.072863474
0002c0 ef a3 76 3d 42 31 11 bd c6 ca 19 be 5b 89 29 3e
       0.060214933 -0.035447367 -0.15018758 0.16556303
0002d0 c4 63 b7 3d c2 db 16 be c1 56 32 be 90 c1 47 3e
       0.08954576 -0.14732268 -0.17415906 0.19507432
0002e0 f0 c9 54 3e a0 24 50 3e 23 6a 02 3e 0f 6b 8e bc
       0.20780158 0.20326471 0.127358 -0.017385034
0002f0 1e 96 2a be 2a 95 8c 3c c9 88 4c 3d 95 72 56 3d
       -0.16658828 0.01716097 0.049935136 0.052355368
000300 9d 0b 06 3d a3 7f 50 3e 1e 81 07 3e b6 54 28 bd
       0.03272592 0.2036119 0.13232848 -0.04109641
000310 a4 51 60 3d e3 ff 5f bd 06 b1 ad 3d 46 78 3a bc
       0.05476536 -0.054687392 0.0848103 -0.0113812145
000320 bb be 66 bb 10 e7 87 3d 93 bd 09 3e 28 42 fb bd
       -0.00352089 0.066358685 0.13451223 -0.12268478
000330 20 0d 2f 3e ef 4a 1c 3e df 44 37 3e d6 26 27 3e
       0.1709485 0.1526296 0.17897366 0.16323408
000340 5f 74 0d 3d 45 3f 17 bd ee c6 04 be 30 a0 bd 3c
       0.03453481 -0.036925573 -0.1296651 0.023147672
000350 c3 a5 cb 3d 58 21 13 3d 09 5a de 3c 6e 47 0c 3e
       0.09943726 0.03592047 0.027142541 0.13699123
000360 e8 80 e6 3d 08 50 1d be f0 18 18 bd ba 94 1a bc
       0.11255056 -0.15362561 -0.037133157 -0.009434873
000370 87 dc 87 3d a4 df d6 3d 03 51 32 3d 73 66 10 3e
       0.06633859 0.10491875 0.04353429 0.14101581
000380 53 c8 4f 3e e3 f6 9b 3d 45 39 2d be 9a 01 c1 3d
       0.20291261 0.07615449 -0.16916378 0.094241336
000390 23 06 d6 3d 2b d2 60 3e 2d 1b bc bd f3 f7 3a 3e
       0.10450389 0.21955173 -0.09184871 0.18258648
0003a0 53 7e 2b 3e dd d9 20 3e 15 11 3b 3d a9 f3 26 be
       0.16747408 0.15708108 0.045670588 -0.16303886
0003b0 80 21 9c 3a f9 89 6d 3d 68 13 4a 3e f1 05 de bd
       0.0011911839 0.05799291 0.19733965 -0.10840977
0003c0 45 af dd bd c5 a7 4a 3e f2 79 5f 3d 7f f7 be 3c
       -0.10824446 0.19790561 0.054559655 0.023311375
0003d0 01 ae 8a 3b 34 50 57 3d bc b8 a0 3d ef 97 3a 3e
       0.0042321687 0.052566722 0.07847735 0.1822202
0003e0 5f ac 49 3e 08 29 bc bd e4 c1 46 3d 9b 14 35 be
       0.1969466 -0.091875136 0.048524752 -0.17683642
0003f0 ff df 59 3e a0 41 d4 3d 20 0d 01 bd 32 d6 72 3c
       0.21276854 0.103640795 -0.031506658 0.014821576

fc2.weight f4 [256, 400]
000000 24 bd b3 3c 44 c8 b3 bc 44 32 79 bd 03 7c c0 bc
       0.021940775 -0.02194608 -0.060838953 -0.023496633
000010 a9 ef ce 3c 03 23 70 bd 74 42 c7 3c 7a 95 77 3d
       0.025260763 -0.05862714 0.02432368 0.060445286
000020 35 f1 4a 3d 7c c4 91 bc ff bf 30 3d 5b e9 0e bd
       0.04954644 -0.017793886 0.04315185 -0.034890514
000030 3c f0 3d bd 70 f0 23 3d 06 a8 24 bd 6c a5 1e 3d
       -0.046371683 0.04002422 -0.040199302 0.038731977
000040 10 80 cd 3c 36 d1 ae 3b cf 1f c2 bc a0 6a 00 bb
       0.025085479 0.0053349985 -0.023696808 -0.0019594803
000050 b2 39 7d 3d 52 25 ea bc c8 b8 b0 3c 8a a7 55 bd
       0.0618226 -0.028582249 0.021572486 -0.05216173
000060 2d 11 04 bd 40 7d 25 bb da 9b 45 3d ef 69 6a bd
       -0.032242943 -0.0025251657 0.048244335 -0.057229932
000070 17 6f a2 3c cc 38 91 bc f4 e1 34 3d 70 db 03 3d
       0.019828362 -0.017727278 0.0441608 0.032191694
000080 da ec 5f 3d 0e 4d c8 bc 48 d0 08 bd d1 af 17 3c
       0.05466924 -0.024450805 -0.033401757 0.0092582265
000090 e6 b9 03 3d 45 61 4b bd cd 9d 04 bd 1a ad 39 3c
       0.03215971 -0.04965331 -0.032377053 0.011332775
0000a0 ac 63 d0 3c 9a fb 1d bd 1c 5b e7 bc 80 70 e3 3a
       0.025438152 -0.038570024 -0.028241687 0.0017352253
0000b0 0b 02 59 bd e7 24 b2 3b 7c 71 d9 3c 08 49 aa bc
       -0.052980464 0.005436528 0.026543371 -0.020786777
0000c0 08 17 21 3c a0 18 41 bd cb 20 02 3d 72 2b 3f b8
       0.009832151 -0.047142625 0.031769555 -4.557841e-05
0000d0 3c f5 00 3d 35 b8 7b bd 42 a5 36 bd 1a 11 2a bd
       0.031483874 -0.06145497 -0.044591196 -0.041520216
0000e0 a5 c8 06 3c bc b8 ab bc e8 48 e6 bc 5f df 5b bd
       0.008226548 -0.020962112 -0.028110936 -0.05367982
0000f0 b0 54 75 3d 53 8b a8 3c a7 de f5 3c 6c d5 e6 bc
       0.059895217 0.020574247 0.030013395 -0.02817794
000100 e5 e6 69 3c a0 09 19 3c 42 39 34 ba c2 63 23 3d
       0.014276241 0.009340674 -0.0006874987 0.03989006
000110 b8 39 c1 bc f5 52 2e bd 86 fb e6 bc 28 8b 96 3c
       -0.023587093 -0.042559583 -0.028196108 0.018376902
000120 48 bc 77 bd ab 0d 8d bc ce 15 79 3c b0 a3 6d 3d
       -0.060482293 -0.017218431 0.015202953 0.058017433
000130 a8 96 d2 bc 0c e4 8b bc 16 3d b4 3c 74 56 56 3d
       -0.025706604 -0.017076515 0.022001784 0.052328542
000140 dc 17 59 bd 28 a8 70 bd 00 65 b4 bc 67 78 50 3d
       -0.05300127 -0.058754116 -0.022020817 0.050896075
000150 18 d1 52 bd 6a 13 9d 3c 04 40 38 bd 84 46 e5 bc
       -0.05146894 0.019174296 -0.044982925 -0.027987726
000160 80 ca 1b bb f6 7d 18 bd 20 b4 14 3d 38 e6 b5 3c
       -0.0023771822 -0.0372295 0.036304593 0.022204503
000170 32 15 5c bd 18 8d e7 bc 3f 78 11 bd 0a 60 bd 3c
       -0.05373115 -0.02826552 -0.035515066 0.023117084
000180 cc 95 d9 3c 2c 7a d6 bc b2 da 48 3d 88 eb 66 3d
       0.026560687 -0.026181303 0.04903669 0.056376964
000190 b2 e1 7a bd 27 ee 5a 3c ad dd 24 bc 18 c3 d5 bc
       -0.061250396 0.013362444 -0.010062617 -0.026094005
0001a0 a2 76 fe 3a b0 e5 53 3d 93 5b 29 3c 2e 50 97 bb
       0.0019414017 0.05173272 0.010336774 -0.0046177125
0001b0 d0 8d af bb 7e 60 1a bd b0 ba 5e bc c4 49 13 bd
       -0.0053574815 -0.03768968 -0.013594314 -0.03595902
0001c0 fc 51 ad bc 38 ca 62 3d 22 bf 7a 3d 10 57 4a bd
       -0.021157257 0.055368632 0.061217435 -0.049399436
0001d0 98 e1 0f bc f8 9d 70 3d 9f fe 79 bc 6c b0 1c 3b
       -0.008781813 0.0587444 -0.01525846 0.0023908867
0001e0 bd a9 79 bd fc 80 18 bd b0 0d 8e bc 08 e4 67 bc
       -0.06095289 -0.037232384 -0.017340511 -0.014153488
0001f0 32 41 18 bd 5c d4 64 3d 08 7d 75 bd 5a 9b 46 3d
       -0.03717155 0.055866584 -0.059933692 0.048488
000200 2e e1 76 bd 01 33 3c bd ea 50 75 bc a8 b6 a1 bc
       -0.06027334 -0.04594708 -0.014972905 -0.019740418
000210 74 11 60 bd 50 6f 33 bc 95 35 4f bc aa 9c 59 bd
       -0.054704145 -0.010951832 -0.012647052 -0.053127922
000220 82 21 7f bd 0f 07 34 3d a6 04 2e 3d 54 82 64 bc
       -0.062287815 0.043952044 0.0424849 -0.013947088
000230 d0 b9 0d bc 6c 05 83 bc 98 42 77 bd 8a 1e 3a bd
       -0.008650258 -0.015993796 -0.060366243 -0.04543928
000240 5e 92 58 bd 8c 33 81 3c 50 b1 90 3c 40 82 9d bc
       -0.05287396 0.01577165 0.017662674 -0.019227147
000250 2e 1c ed bc 10 b2 3a 3d 48 cf 56 bd 72 19 32 3d
       -0.028944101 0.04557997 -0.052443773 0.043481298
000260 d5 5f 35 bc 0c 88 96 bc 9a eb 62 3d 67 53 e8 bc
       -0.011070211 -0.01837542 0.05540047 -0.028360082
000270 e3 a9 36 3d ba c1 01 3c 7c 6e f8 3c a8 70 6b 3d
       0.04459561 0.007919723 0.03032612 0.057480484
000280 b0 e4 ab bb e4 e3 38 3d 92 22 08 3d 76 74 68 3d
       -0.0052457675 0.04513921 0.033236094 0.05675169
000290 66 26 15 3d 00 e4 ca bc 58 c0 00 bc ac 9f 9c 3c
       0.036413573 -0.024766922 -0.007858358 0.019119106
0002a0 74 9f 3f bd c6 20 23 bc 4a f2 a4 3c 92 df 03 bd
       -0.046782926 -0.009956544 0.020135064 -0.032195635
0002b0 3c 3e bb 3c 43 a8 f5 bb d2 a1 15 bd 81 55 00 3d
       0.022856824 -0.007496865 -0.036531277 0.031331543
0002c0 0b f6 65 3d 33 1b ca 3c 3c 2a 95 3c a5 ab 12 3d
       0.056142848 0.024671173 0.018208615 0.035808224
0002d0 a7 c7 2d bd e8 d0 38 bd 50 fd 0d 3d e8 54 ec 3c
       -0.04242673 -0.045121104 0.034665406 0.02884908
0002e0 73 ad 00 bd 2f ca 59 3d df 82 de 3c 72 9c 31 bd
       -0.031415414 0.053171333 0.027162014 -0.04336209
0002f0 01 ed 15 bc 2b b1 14 bd ef 87 47 3d 10 f1 87 bb
       -0.009150744 -0.036301773 0.04871362 -0.00414861
000300 5e fd b0 3c d0 9d 30 3d 72 9f 10 bc a4 96 5e bd
       0.02160519 0.04311925 -0.008827077 -0.05434288
000310 5d 5e 04 bd 90 81 8d bb 19 86 c7 3a b0 36 4b bc
       -0.032316554 -0.0043184236 0.0015222459 -0.012403175
000320 59 ac 1a bc 93 86 56 3d 89 e4 e9 bc e0 c9 64 bc
       -0.009440505 0.052374434 -0.028551357 -0.013964146
000330 b2 8f a4 3c a8 d3 28 bd 8b 90 8d 3b 21 c7 13 bd
       0.02008805 -0.041217476 0.0043202094 -0.036078576
000340 9d b8 c4 bc 78 0e 05 3c a0 ec e4 bc 06 f4 65 bd
       -0.024013812 0.008121125 -0.027944863 -0.056140922
000350 b4 93 5d bd 55 6a 50 3d a0 2f 3b 3d 3a ca ab bc
       -0.05409594 0.050882656 0.045699716 -0.020970453
000360 5d 0d 14 bd 74 17 9b bc 68 52 27 3c f0 9a 28 bd
       -0.036145557 -0.018932082 0.010212518 -0.041163385
000370 3d 79 00 bd 38 86 69 3c e9 4d d5 bc 00 8d 19 bb
       -0.03136562 0.014253192 -0.026038127 -0.002342999
000380 88 5f e4 bc 14 62 7b 3d ca af 2c 3d bb fa b2 bc
       -0.027877584 0.06137283 0.042159833 -0.021848073
000390 06 37 a8 3c 6c 69 d3 ba c8 89 74 3d 42 ef a3 3c
       0.02053405 -0.0016129441 0.05970171 0.020011548
0003a0 40 21 33 bc 2c 6a d2 3c cc e7 75 bd 10 f3 13 bc
       -0.01093322 0.025685392 -0.06003551 -0.009030119
0003b0 7a a8 4e bd 9a 11 19 bd 89 1b f8 bc e0 9f 4c 3c
       -0.05045364 -0.0373703 -0.030286567 0.012489289
0003c0 d1 9f 06 3d c9 ec f3 bc 16 22 e7 3c b0 e0 1b 3c
       0.032867257 -0.029775994 0.028214496 0.009514019
0003d0 c0 7a 21 3d ea af ca bc ca 43 61 3d 23 2d 23 bd
       0.039423704 -0.024742085 0.05499629 -0.039837968
0003e0 b4 d0 de bc 6b 51 f9 bc 90 43 7e bd ee c3 09 bd
       -0.027199127 -0.03043433 -0.06207615 -0.03363412
0003f0 c8 3b 49 3d 00 6d 03 3c f0 f1 44 3c e4 01 cd bc
       0.049129277 0.008021593 0.012020573 -0.025025316

fc2.bias f4 [256]
000000 0b 83 46 bc e0 58 30 3d 85 b0 f9 3c 78 f4 51 bc
       -0.012116204 0.043053508 0.030479679 -0.012814634
000010 ea 70 36 bc 01 18 6f 3c 2a 44 0d 3d 06 52 9c bc
       -0.011135319 0.014593125 0.034488834 -0.01908208
000020 58 cd 24 3b f3 7f c2 3c dc 71 4f 3d 06 9a 23 bd
       0.0025146808 0.023742652 0.050645694 -0.03994181
000030 5e 3d ff 3c 7a 81 32 bb 54 2c 91 bb 20 7c 54 3b
       0.031157192 -0.0027237819 -0.004430333 0.0032422617
000040 5c 4a c4 3c 97 5c 23 bd e1 96 7b bc ad db 49 3d
       0.023961239 -0.039883222 -0.015355797 0.049281765
000050 3b 24 6b 3c 20 c6 e9 3b 0e 7f 32 3d 50 5e fe 3c
       0.0143519 0.007134214 0.0435782 0.031050831
000060 33 b9 0b bd c4 fd 03 3d ba 8b 0b bd d0 26 2b 3c
       -0.034112167 0.03222443 -0.0340688 0.010446265
000070 bc 48 0d 3d e2 59 16 bd 08 7a 45 3d 94 66 d5 3c
       0.034493193 -0.036706813 0.04821208 0.02604989
000080 9c 67 13 bd f4 a2 aa bc 3e 0f 91 bc 07 70 0e bd
       -0.03598748 -0.020829655 -0.017707463 -0.034774806
000090 af c3 78 3d 63 7a a3 3c 19 b7 95 3c 6e d6 b5 3c
       0.060733493 0.01995582 0.018275784 0.022196975
0000a0 5f c4 51 3d 1c ca 74 3b 6a d1 23 3d 14 83 39 bd
       0.051212665 0.0037351912 0.039994635 -0.04529102
0000b0 00 b1 b2 bc 1a b2 44 bd 14 5e cf bb 20 ff 2f bd
       -0.021812916 -0.048021413 -0.0063283537 -0.042967916
0000c0 37 6e b5 3c bf 82 48 3d 63 86 1e bc 5b 8e 25 3c
       0.022147281 0.048952814 -0.009675595 0.010104741
0000d0 c0 04 c2 bc e6 75 35 3d d7 39 f4 bb 47 f5 a8 3c
       -0.023683906 0.04430189 -0.007453184 0.02062477
0000e0 16 cc 01 bd 85 0e b4 3b 19 d7 e7 3c ef b9 4e 3d
       -0.031688772 0.005494895 0.028300809 0.05047029
0000f0 85 21 a4 3c ba 3a 06 bc 46 94 27 3d f6 03 2e bc
       0.020035515 -0.008192712 0.04091289 -0.010621062
000100 db 5f ae bc 81 03 18 bd d1 ae 31 3d 09 5b d3 3c
       -0.021285942 -0.037112717 0.04337961 0.025800245
000110 d0 36 e0 bc 23 f0 61 3d 02 f9 15 bd 36 47 3f 3d
       -0.027369887 0.055160653 -0.036614425 0.04669877
000120 37 54 c1 3c 7a 4b cc bc 8f 93 43 bc d4 09 c2 3c
       0.023599727 -0.024938334 -0.011937036 0.023686327
000130 1a b1 9d bb 7f f3 22 3d 83 82 f5 3c b1 6a ff bc
       -0.004812372 0.039782997 0.02996946 -0.031178804
000140 b5 ec 12 bd 9f b8 12 3d df de e2 bc e7 b7 93 3c
       -0.035870273 0.0358206 -0.027694164 0.018032027
000150 a5 3c 9b 3b 21 c3 07 3c 1b bb 65 3c 2b 44 38 bd
       0.004737454 0.008286268 0.01402166 -0.044986885
000160 17 ea 8f 3c b0 4b 4d 3c 48 80 80 bc 26 17 46 3d
       0.017567677 0.012530252 -0.01568617 0.04836192
000170 80 3d 30 3d 5d 48 d3 3c 5d af 11 bd 52 24 87 3c
       0.0430274 0.025791341 -0.03556763 0.016496811
000180 5a 24 00 3d 30 54 e3 3b 80 81 e0 3a 4b 90 33 bd
       0.031284668 0.006937526 0.0017128438 -0.04383878
000190 07 44 15 3d 09 75 ba bc ec fa ff bc 40 db 51 bb
       0.03644183 -0.022760885 -0.031247579 -0.0032021552
0001a0 32 1d 38 3d 44 92 b7 3b 1e ae 21 bc ba 40 a0 3c
       0.044949718 0.005602153 -0.009868173 0.019562114
0001b0 38 6e 3e 3d a7 24 0c 3d 6d db a0 3c 06 b5 69 3d
       0.04649183 0.034214642 0.01963588 0.057057403
0001c0 33 92 3b 3d d8 ac c9 3c 93 22 07 3b 7c f4 28 3c
       0.045793723 0.024618551 0.0020619973 0.010312196
0001d0 6c 2e 2a bd 8e 5b 6d 3d c7 3a 1d 3d d7 23 3b 3d
       -0.041548178 0.05794864 0.038386133 0.045688476
0001e0 e2 2f bb bc ac 48 1b bd e5 a1 ce 3c 82 d3 22 3d
       -0.02284998 -0.037911102 0.025223682 0.03975249
0001f0 d3 d7 c2 3c d8 87 c1 bc fe 99 28 3d 29 77 1a bd
       0.023784554 -0.023624346 0.041162483 -0.037711296
000200 cc d3 fe 3c 3f 9a 28 bc 8b 73 fb bc 48 d9 d5 bc
       0.031106852 -0.010290681 -0.030694744 -0.026104584
000210 d4 0a f9 bc ad 97 58 3d 29 5c 0a 3d f8 1d 1f bd
       -0.030400671 0.052879024 0.033779297 -0.03884694
000220 1b e3 82 bc f8 0a 1a 3c b1 b6 09 3d 8b 5a 46 3c
       -0.015977433 0.009402029 0.033621494 0.012106548
000230 bd 1b 3d bb 1d dd 12 bd bd 3e 51 3d 48 28 e6 bc
       -0.0028855645 -0.0358554 0.051085223 -0.02809538
000240 f2 ac 03 3d 2f c1 a6 3c 75 f9 45 3d 54 f0 15 bd
       0.032147355 0.020355789 0.048333604 -0.036606148
000250 69 e3 f7 bc dd bf 00 3d 19 87 a2 bc f2 0d 19 bd
       -0.030259805 0.031432975 -0.01983981 -0.037366815
000260 29 f8 30 bc ab fa 50 3c 01 95 82 3c 55 cd 59 bc
       -0.0108013535 0.012755076 0.015940191 -0.013293584
000270 44 a8 0e bc 36 fb bb bc 0f d9 60 3d 71 d9 f9 3c
       -0.00870711 -0.022946935 0.054894503 0.030499192
000280 38 49 a3 bc a1 7a 14 3c 1e 41 26 bc e2 b1 ca bb
       -0.019932374 0.00906244 -0.010147361 -0.006185756
000290 2c a3 c8 3c fe cd 6c bc 34 9b 37 3d c2 0d af 3c
       0.024491869 -0.014453409 0.044825748 0.021368865
0002a0 cd 30 ba bc f6 99 df bc f7 ca 4c 3d a5 cb 33 3d
       -0.022728348 -0.027295094 0.04999825 0.043895382
0002b0 e9 fc 38 3b 59 35 10 3d 94 6c 60 3d 12 6f 4c 3d
       0.0028226918 0.035207126 0.05479105 0.049910612
0002c0 7e f0 9b 3b 6c fe cc bc ac 14 ba 3c 63 f4 1b 3d
       0.0047588935 -0.025023662 0.022714935 0.038074862
0002d0 0e 67 b4 bc 59 41 9f bc 90 24 5d 3d 58 5c 09 3d
       -0.022021797 -0.01944034 0.053989947 0.03353533
0002e0 86 85 cf 3c e6 29 34 3d 3b c9 06 3d 65 cd 35 3c
       0.025332224 0.04398527 0.032906752 0.011096333
0002f0 74 17 ec 3c f8 da 70 3d b3 39 5c 3d 2b ad 65 3d
       0.028819777 0.058802575 0.053765964 0.05607335
000300 9e 86 3a 3c 17 86 28 3c 9b e6 83 b8 94 36 19 bd
       0.011384634 0.010285876 -6.2895204e-05 -0.037405565
000310 41 8c 29 bd c0 e0 7e 3c 70 63 d5 3c dd 01 15 bb
       -0.041393522 0.015556514 0.026048392 -0.0022736706
000320 6d 9c 15 3d b7 bc 9c 3c 9e 94 b7 3c 4a 77 d4 bc
       0.036526132 0.019132955 0.022409733 -0.025935788
000330 78 f1 5b 3d 68 e0 5e 3c d1 73 18 bd ee 99 07 3d
       0.05369708 0.013603307 -0.037219826 0.033105783
000340 cb 84 03 bd 14 20 33 bc ff b6 15 bd 15 1d be bc
       -0.032109063 -0.010932941 -0.03655147 -0.023207227
000350 b9 49 5f 3c 76 19 28 bc d0 23 05 bd c2 56 2b 3b
       0.013628417 -0.010259977 -0.032504857 0.002614424
000360 25 41 60 3d 70 55 b8 bb 83 a6 8c 3c 01 59 c5 3b
       0.054749627 -0.0056254193 0.017169243 0.006022573
000370 af 04 2a 3d 02 bd 96 bc 72 0a 14 3d 26 da 6a 3c
       0.041508373 -0.018400673 0.036142774 0.014334237
000380 b9 32 8f bb ab 02 63 3d 9d 1a 20 bd 2f ab b8 3c
       -0.0043700603 0.055422466 -0.03908788 0.022542564
000390 c8 6a 95 bc ae ff 2a 3d 41 07 32 bc 7a c0 69 3c
       -0.018239394 0.04174774 -0.010865987 0.014267081
0003a0 82 8a 8e bc f7 33 89 bc 53 61 21 bd d0 5a 5f 3d
       -0.01740003 -0.016748412 -0.039399456 0.054529965
0003b0 c4 e9 ff bc 51 e6 22 3d a5 66 15 bd ec 1d 5b 3c
       -0.031239398 0.039770428 -0.036474843 0.013373833
0003c0 2f 36 d3 3c 62 78 20 bd 08 7d 71 bc ce ed fe bc
       0.025782673 -0.039177306 -0.014739282 -0.031119253
0003d0 02 c8 2c 3d dd 24 99 3c af 9c cc bc fb a8 a6 3c
       0.04218293 0.018694336 -0.024977056 0.020344248
0003e0 e2 3c f7 bc ca ea 21 3d 3e 21 cc 3c f4 fd 87 3c
       -0.030180398 0.039530553 0.024918195 0.016600586
0003f0 bb d2 c9 3c 04 bd 9e bb 40 22 c0 3b fb 03 b9 3c
       0.024636617 -0.0048443098 0.005863458 0.022584906

fc3.weight f4 [2, 256]
000000 eb 8d d7 3a 19 73 ab 3b fa a9 0e 3b f8 e9 31 3c
       0.0016445493 0.0052322266 0.0021768794 0.010859005
000010 a5 45 22 3c 46 63 30 3c 91 cb 29 3c 40 b6 4c bc
       0.0099043 0.010765856 0.010363475 -0.012494624
000020 dd e3 89 bc 53 a2 69 bb c8 4b bf bb d4 e3 ac 3a
       -0.016832286 -0.0035649731 -0.0058378913 0.0013190457
000030 38 81 73 3a 56 9e 5d bc 43 e7 d9 3b f2 82 82 bc
       0.00092889694 -0.01352652 0.006649883 -0.01593158
000040 c4 bb 76 bc ee d0 cd 3b c2 7d 5b bc e1 8f 03 3a
       -0.015059415 0.00628101 -0.013396682 0.0005018693
000050 7c b6 1e 3c 55 50 a6 3b e0 a8 aa bc 07 bd 3d 3c
       0.009687062 0.0050754943 -0.020832479 0.011580712
000060 48 19 a3 bc c7 52 03 3c 39 2d c2 bb ad 81 80 ba
       -0.019909516 0.008015341 -0.005925801 -0.0009804271
000070 9e 2e ea 3b 23 69 7d bc 58 0e 93 3a c1 e0 af bb
       0.0071466705 -0.015466961 0.0011219485 -0.005367369
000080 56 00 67 3c ef 59 c0 3a 9a b3 c9 bb 60 27 17 3c
       0.014099201 0.001467524 -0.0061554434 0.009225696
000090 49 8b 86 bc de 73 7b bc 47 05 7c 3b 8d 27 ef bb
       -0.016423838 -0.015347449 0.0038455294 -0.007298416
0000a0 8f e9 07 bc 17 dc a7 bc 6a b3 3f 3c 9f 99 8f bb
       -0.008295431 -0.02049069 0.0117004905 -0.0043823267
0000b0 4b 91 14 3c 04 5f f9 ba f4 48 72 3c b6 7f 10 bc
       0.009067844 -0.0019025509 0.014787901 -0.008819511
0000c0 04 dd 42 3b 68 7b fb 3b 0b af 0f 3c 69 0a 26 bc
       0.0029733786 0.0076746233 0.008769761 -0.010134318
0000d0 d0 cc 03 3c 9e 2f a0 bc b7 6b ba bb c3 85 23 3c
       0.008044437 -0.019553956 -0.00568911 0.009980622
0000e0 be c4 84 bc d1 99 06 3c f8 91 85 bc 99 df b5 bb
       -0.016207095 0.008215384 -0.016304955 -0.0055503366
0000f0 63 ab 86 3c 7e 1e 4c 3a 9f 60 cc 3b c3 84 b7 bb
       0.016439145 0.0007786526 0.006237104 -0.005600543
000100 2c 4e 1c ba a1 cb 64 bc 1f 40 f2 3b 08 de 5e bc
       -0.0005962576 -0.013964565 0.0073928977 -0.013602741
000110 b8 b4 0b 3c 28 60 41 3c c6 4a 59 bc 74 96 8b bc
       0.008526973 0.011802711 -0.013262456 -0.017039515
000120 9a 9b 86 bc af 6f 7a bc 3e 76 23 3c e8 f9 fe 3b
       -0.016431618 -0.0152854165 0.009976922 0.007781256
000130 41 b0 c8 3b 39 d2 49 3b 54 b7 cc ba 15 ce 38 3c
       0.0061245267 0.0030795468 -0.0015618601 0.011279603
000140 9a 73 d1 3a a0 f4 00 3c 56 af 9e 3b 07 46 86 bc
       0.0015979887 0.007870823 0.004842679 -0.016390814
000150 32 c3 1f 3c 76 ba ce bb c0 16 20 3c e4 73 d3 b9
       0.009751128 -0.006308849 0.009771049 -0.000403314
000160 ea 07 3c bb e7 17 08 3c 9a 8d 61 bb 21 eb 46 bc
       -0.002869124 0.00830648 -0.0034416676 -0.01214102
000170 b3 1e 76 3b 61 64 9f ba d0 24 65 39 e5 67 75 3b
       0.003755492 -0.0012160653 0.00021852856 0.003744596
000180 b0 2e b9 bb 72 1b 30 3c fa fd 0b 3c b8 fe 2b bc
       -0.0056513175 0.010748731 0.008544439 -0.010497741
000190 4f 10 88 3b 9c 99 80 3c 6c b6 50 3a 8d 51 a9 ba
       0.0041523348 0.015698247 0.0007961753 -0.0012917981
0001a0 f7 08 04 3c ff 3b 47 bc c9 38 33 3c c6 da b0 3a
       0.008058778 -0.0121603 0.010938832 0.0013492934
0001b0 e9 23 d3 3b 30 9c 81 bc a4 3b 7d bc 85 9f 9e bc
       0.00644349 -0.015821546 -0.015456114 -0.019363174
0001c0 75 ed a0 bc b4 98 c4 3b b0 80 6b bc 14 4b b5 3b
       -0.019644478 0.005999649 -0.014373943 0.0055326317
0001d0 f1 f4 82 3b 8f 8f 3d bc 45 86 a1 3b 0d 08 ed 3b
       0.0039964844 -0.011569872 0.0049293363 0.0072336257
0001e0 05 16 7b bc 2d 22 b8 3b 24 2e 72 bc 14 49 8a 3b
       -0.015325074 0.0056193084 -0.014781509 0.0042201374
0001f0 b7 fe 4b bc 6f 9f 53 bc cd 06 7a bc ec ae 3d bc
       -0.0124508655 -0.01291643 -0.0152604105 -0.011577349
000200 10 cb ca b9 c8 29 34 3c 59 db ce 3b e5 ad 46 bc
       -0.00038679736 0.01099629 0.0063127694 -0.012126421
000210 fc af a4 3b e9 11 d3 3b f1 94 e5 3b 96 ff 84 3a
       0.005025862 0.006441344 0.0070062806 0.0010146971
000220 b8 b5 c7 bb 39 68 89 bc 45 3a b4 3b f4 9a 78 bc
       -0.0060946606 -0.01677333 0.0055001103 -0.015173662
000230 06 7d 5c bc 5e 06 fd 3b c0 ca db 3b 58 1b 47 3c
       -0.013457542 0.0077217063 0.0067075193 0.012152515
000240 58 f1 aa bb cd 31 8a bc 13 4c 7b bc 33 2a e0 3b
       -0.0052167587 -0.01686945 -0.015337962 0.006840968
000250 b4 63 fd 3b 7f 29 a8 bb fb c8 84 bc 34 b4 48 3b
       0.007732833 -0.0051319 -0.016209116 0.0030624988
000260 e5 04 8d bc 07 55 55 bc b1 f8 f5 bb a6 62 f9 3b
       -0.017214248 -0.01302076 -0.007506453 0.0076106368
000270 72 8a 1e 3c 27 e9 61 bb 9c 37 84 bc 7b 5a 07 3b
       0.009676563 -0.0034471245 -0.016139798 0.0020653296
000280 1d db ff 3b 3b 4e 68 bc b3 3d 9b 3b 54 52 da bb
       0.0078081028 -0.014178808 0.0047375797 -0.0066626463
000290 23 a1 be bb 83 b6 0e 3c 07 6d 85 bb 03 fb 83 bc
       -0.005817549 0.008710506 -0.004071835 -0.016110903
0002a0 2c 44 ff 3b e6 14 29 bc 8a fa 8b bc 7c 63 be bb
       0.007790109 -0.010319924 -0.01708724 -0.0058101993
0002b0 aa 21 71 3b 8c 30 f7 bb bb e5 bb 3b ad 15 10 bc
       0.0036793747 -0.007543629 0.005734173 -0.00879423
0002c0 4c 88 9d bc 96 83 5c bc 9e 06 39 bb 03 94 da 3b
       -0.01923003 -0.013459107 -0.0028232704 0.0066704764
0002d0 05 34 1c 3b e1 65 a1 3b 92 c4 8d bb 89 32 66 bc
       0.0023834717 0.004925475 -0.0043264115 -0.014050134
0002e0 59 d0 7c 3b ed 8b a2 bb cb 4d 90 bc e0 7d 42 3c
       0.0038576333 -0.004960528 -0.01761522 0.011870831
0002f0 0e d6 25 3c 73 42 9f bc 52 d3 84 3c 4e f2 77 bc
       0.010121835 -0.019440865 0.016214047 -0.0151334535
000300 5d 9e 1b 3c 92 7d 1a 3c f6 30 80 bb d2 5b 11 3c
       0.009498206 0.009429352 -0.0039120866 0.008871989
000310 ca 73 fd 3a 0b 9e 04 ba db e6 56 bc f3 09 0a 3c
       0.0019336876 -0.00050589506 -0.013116564 0.008425224
000320 4f a3 85 bc 0e f4 04 3c 19 02 4f bc ff 8a 77 bc
       -0.016313223 0.008114828 -0.012634777 -0.015108823
000330 1d 54 38 3c a1 2e 7f bc 78 84 88 bc b9 25 d6 39
       0.011250523 -0.015575082 -0.016664729 0.00040845366
000340 ff 42 d1 3b ba b0 98 bc ed 62 bc ba e1 9c 02 3b
       0.0063861604 -0.018638957 -0.0014372744 0.0019929933
000350 ec 67 05 3c fc 1e 87 bc 23 37 0e 3c 8d e7 5e bb
       0.008142453 -0.016494267 0.008680138 -0.0034012527
000360 93 7e 22 3c fa 42 0f 3b 60 8a f8 3b ec fb 94 bc
       0.009917873 0.002185999 0.007584855 -0.018186532
000370 b3 db 55 3c 27 ef fe 3b c1 b3 5b bc f4 eb 74 bb
       0.013052869 0.007779974 -0.013409556 -0.0037372084
000380 8e e7 33 3c ee 58 27 3c 48 fa 36 bc 69 66 c7 3b
       0.0109805 0.010214074 -0.01116807 0.0060852063
000390 73 a8 39 3c e8 51 06 bc ee 9f 87 3b b1 1b 9a bc
       0.011331665 -0.008198239 0.004138938 -0.018812032
0003a0 7d eb 75 bc 64 55 51 ba 42 03 57 3b 70 fb 74 bc
       -0.015009758 -0.00079854415 0.0032808338 -0.0149525255
0003b0 bc 44 41 bb 75 eb 1d 3c 13 c5 ca 3b d7 b6 2b bc
       -0.0029490432 0.009638657 0.006188044 -0.010480604
0003c0 90 a3 39 3c 2b 12 02 3b 9b 12 54 ba 46 f5 52 bc
       0.0113305 0.0019847255 -0.00080899306 -0.012875861
0003d0 c5 61 30 3c a8 00 72 bc 84 fc 12 bb 5a f9 58 3c
       0.010765498 -0.014770664 -0.0022428343 0.013243044
0003e0 f0 13 97 3a aa f6 22 39 63 52 d9 3a 0c ad a1 39
       0.0011526328 0.00015541413 0.0016580339 0.00030837243
0003f0 d3 e0 a5 3b 57 49 cf bb 0f 9f 68 3c b1 4f 48 3c
       0.0050622015 -0.0063258815 0.014198079 0.012226031

fc3.bias f4 [2]
000000 85 81 5d bd c2 24 15 3d
       -0.054078598 0.036412008
