projects/tennis/checkpoint/RE26/RE26.16_critic1_5000.pt (torch_old, 502006 bytes, 9 tensors)

fcs1.weight f4 [400, 48]
000000 bf 50 06 bd 36 b3 b9 3c 77 b6 b6 3c 18 d9 47 3d
       -0.03279185 0.022668462 0.022303803 0.04879102
000010 cf cb 9a bc 9a 2f 95 3c bf 8a c3 3c ed 30 0e bc
       -0.018896012 0.018211175 0.02386987 -0.008678657
000020 da 43 ed bc 88 a6 b6 bb 6f ae be 3c c9 18 91 bc
       -0.028963018 -0.0055740513 0.023276536 -0.017712014
000030 5c bf 05 3d 45 55 9e 3b 10 62 45 bd 93 fb 09 39
       0.032653198 0.0048319423 -0.048189223 0.00013159057
000040 71 f7 e5 bc 48 73 b8 3c 8e df 1f 3c 1b 84 ad bc
       -0.02807209 0.022515908 0.009757889 -0.021181157
000050 ae ec e1 bc c2 9a 0f bd ea d3 12 3d f3 b2 13 3d
       -0.027578678 -0.035059698 0.03584663 0.03605933
000060 67 50 33 3d ea 6e 1c bd ca e4 2f bd 33 28 35 3d
       0.04377785 -0.038191713 -0.0429428 0.04422779
000070 32 eb 93 3c c1 e0 2d 3d cc 52 2b bd e3 93 02 3c
       0.018056486 0.04245067 -0.041827008 0.007969829
000080 87 09 10 3d df e5 0e bd ea fc 23 bc a0 35 c7 bb
       0.035165336 -0.03488719 -0.01000903 -0.0060793906
000090 d0 a8 23 3d 89 e4 b8 3c a2 47 43 bd b2 c6 31 3d
       0.039955914 0.022569912 -0.047675736 0.04340238
0000a0 0b 21 18 3d e5 2a de 3c b0 f1 e0 3c 31 56 92 bc
       0.037140887 0.027120063 0.027458996 -0.017863365
0000b0 e3 8e 4a bc 67 fa f6 bb 56 f0 5e bc f5 80 8c 3c
       -0.012363168 -0.0075371745 -0.013607105 0.017151335
0000c0 1d 8e aa 3c 85 cf 17 bd 49 29 ec bc e1 2b 20 3c
       0.020819718 -0.03706314 -0.02882828 0.009776087
0000d0 b4 02 02 bd 89 03 68 bc 54 49 3c bd c2 9c 83 3b
       -0.03174086 -0.014160999 -0.04596837 0.0040164897
0000e0 4d 68 39 bd 68 b4 9d bb 86 a6 eb 3c 86 ea 5e 3c
       -0.045265485 -0.004812766 0.028765928 0.013605719
0000f0 cc 4b f7 3b 02 d9 22 bd 20 40 37 3d ac b2 d4 bc
       0.0075468775 -0.039757736 0.04473889 -0.025964104
000100 51 f7 59 3c bc df 0e 3d f8 f1 73 3c 33 c9 dc 3b
       0.013303594 0.03488134 0.014889233 0.006737852
000110 32 62 d2 bc 51 f6 9e bb c9 e0 44 bd 2f 8c 1c bc
       -0.025681589 -0.0048511405 -0.048065934 -0.009554907
000120 85 c6 f7 bc ba 63 ba 3c 3d 0e ab 3c 2e 65 ca 3b
       -0.030246029 0.022752631 0.020880813 0.0061766123
000130 f2 e0 62 3b 3a 40 fd 3c 65 6f 1e bd e7 0e 49 bc
       0.003461894 0.030914415 -0.038680453 -0.012271619
000140 7a bf 08 bc a0 cc 32 bc ca 6d c4 bc ad fd 9d bc
       -0.008346433 -0.010913044 -0.023978133 -0.019286001
000150 af 39 4a bd e4 de a2 3c bf 22 ed 3b 80 7b 40 3d
       -0.049371418 0.019881673 0.007236808 0.04699278
000160 65 88 bb 3b 96 90 1a 3d ab d1 6f bc b7 4a 9b 3c
       0.0057230466 0.037735544 -0.014637391 0.018956525
000170 53 8e 4b bd 16 81 32 3d 26 fa c6 3c 9b 92 34 3c
       -0.049696278 0.043580137 0.024289202 0.011021282
000180 cb 86 c0 bc 74 1d af 3b 82 18 14 bd 17 c8 83 3c
       -0.023501774 0.0053440873 -0.036156185 0.016086621
000190 76 33 ff 3c 24 45 11 3d 5b 32 08 39 cb eb 92 3c
       0.031152468 0.03546633 0.0001298873 0.0179347
0001a0 2b d0 e7 b9 41 c3 2d 3d dc 44 00 3d b6 75 b8 bc
       -0.0004421485 0.042422537 0.03131567 -0.022517066
0001b0 74 51 34 3d d9 51 1e 3d e1 31 50 bc 64 7a 95 bb
       0.044022992 0.038652275 -0.012707205 -0.0045617092
0001c0 e3 60 ba 3a bd 7c 95 3c 90 4c fc 3c 48 01 a5 3a
       0.0014219548 0.018247956 0.030798227 0.0012588883
0001d0 63 81 25 bd 62 1b e8 bc 83 cf 2d 3d c7 d9 0d bc
       -0.040406596 -0.02833337 0.042434227 -0.008657879
0001e0 a3 1d df 3c 8d 99 1a bd 5f 36 3b 3c aa 01 f9 3c
       0.027235812 -0.037744094 0.011426537 0.030396301
0001f0 bb 8b d0 3c d5 b8 2f bd 68 1a 87 bc 70 c1 f6 bb
       0.025457254 -0.04290088 -0.016492084 -0.0075303838
000200 84 39 9d bc c7 11 35 3d 6c 1b 2f 3d 1f 04 d8 bb
       -0.019192465 0.044206407 0.04275076 -0.006592288
000210 65 23 2e bd 0c f3 de bc 91 41 a8 3c 71 59 5f bc
       -0.042514224 -0.027215503 0.020539077 -0.013632164
000220 48 f0 2d bb 4c 09 1c bd a1 3a 1c 3d 95 ce 8b 39
       -0.0026540924 -0.038094804 0.03814185 0.00026666062
000230 2b d2 fd 3c 04 84 bd bc cf 72 9d 3c df ff 29 3d
       0.030984005 -0.023134239 0.019219784 0.041503783
000240 4e 28 72 3b f0 e7 03 3d c7 ad 09 3d 5d 07 bf 3c
       0.0036950293 0.032203615 0.033612993 0.02331894
000250 d1 be 5c 3c 65 a3 80 3c e7 eb 95 bc 5f 20 36 bd
       0.013473229 0.015702913 -0.018300964 -0.044464465
000260 1e ee d8 bc 1a db 40 bb bf 05 92 3c 27 07 0d 3d
       -0.02648073 -0.002942747 0.017825006 0.03443065
000270 a6 61 6a bc 25 c3 cd bc 3f c7 3e bd 80 14 a8 bc
       -0.014305508 -0.025117466 -0.046576735 -0.020517588
000280 6c 02 f7 3c e3 e3 c0 bc 5b d6 3b bd 65 f1 e4 bb
       0.030152522 -0.023546165 -0.045858722 -0.0069867843
000290 45 7e 23 3c 03 73 2e bd 7b 44 2d bd a3 35 5c ba
       0.0099788355 -0.042590152 -0.042301636 -0.00084003265
0002a0 f0 87 45 bd 7c b8 5c 3b 63 b4 f5 bc eb 1b b8 bb
       -0.048225343 0.0033679297 -0.029993242 -0.0056185625
0002b0 29 a2 1e 3b 97 e8 4a bd 15 7b 1a bc d7 06 4c 3d
       0.0024205542 -0.04953822 -0.009428759 0.04981121
0002c0 c1 9f 00 bd c0 4a 26 bd 5a c4 30 bd 1a b7 97 bc
       -0.031402353 -0.04059863 -0.043156005 -0.018519927
0002d0 c3 f2 2e bd d1 04 3e 3c f8 32 c0 bb 12 77 47 3a
       -0.042711984 0.011597828 -0.005865451 0.00076089904
0002e0 f2 2e 7d 3c cc 3d 02 3b e3 d8 eb bc 06 b3 70 3c
       0.015453087 0.001987326 -0.028789943 0.01469112
0002f0 76 fa 87 bc 41 5c 3a bb c5 a8 fd bc b9 da f1 3c
       -0.016598921 -0.0028436335 -0.030964265 0.02952324
000300 18 1b a6 bc d3 a0 cd 3c 12 91 15 bd d0 49 55 3c
       -0.020276591 0.025101101 -0.036515303 0.013018087
000310 b3 d1 fb bb b1 5b 05 bd 29 04 60 3b 11 ca 06 3d
       -0.00768491 -0.032558147 0.0034182167 0.03290755
000320 b8 41 92 3c e7 da c5 bc 32 06 4c bc ca 49 c5 3c
       0.017853603 -0.024152232 -0.012452649 0.024083037
000330 10 5c ce 3c d6 43 de bc 64 92 fd bc f8 78 14 bd
       0.025190383 -0.027131956 -0.030953594 -0.036248177
000340 87 76 f1 ba 64 72 d5 bc 2b 96 2b bd 74 1f ed 3b
       -0.0018422165 -0.026055522 -0.04189126 0.0072364155
000350 db 30 e2 bc af ce 4e 3c 6f 7b e2 3c af cb a0 bc
       -0.027611187 0.012622519 0.027646748 -0.019628374
000360 c6 cc e4 bc d7 c4 e1 bc 19 29 2f 3d 54 85 75 3c
       -0.027929675 -0.02755968 0.042763803 0.014985401
000370 e9 57 31 bd 20 0d 04 3d cc a9 27 3d ce 87 9b 3c
       -0.04329673 0.03223908 0.040933415 0.018985655
000380 6e f9 89 bc f4 8e f4 bc 4b 8c e8 3c fb 2e 00 bd
       -0.01684257 -0.029853322 0.02838721 -0.031294804
000390 92 78 ff 3b ee aa 1d 3c 39 23 0f 3c 96 37 26 bd
       0.0077963555 0.009623272 0.008736425 -0.040580355
0003a0 48 68 dc 3c 87 8f 53 3c b2 52 bc bb 83 eb 04 bb
       0.026905194 0.012912638 -0.0057471627 -0.0020281977
0003b0 c8 52 89 bc 0e 12 5c bc f4 96 a8 3c 97 e6 b5 3c
       -0.016763106 -0.013432039 0.020579793 0.02220468
0003c0 76 d0 20 bd 1f 1e 11 bc 56 05 23 3d e5 f3 77 bb
       -0.039261304 -0.008857279 0.03980001 -0.0037834581
0003d0 9f d0 17 bd c0 3c 4c bc 86 59 22 3d e5 68 82 3c
       -0.03706419 -0.012465656 0.039636157 0.015919158
0003e0 a3 e2 0a 3d 8a 5b 33 3d cc 2b e9 3c ad 12 3d 3d
       0.033907544 0.04378847 0.028463267 0.04616039
0003f0 de 1d 01 3d 01 73 57 bb e3 a4 bd 3b 0c fb 08 bd
       0.031522624 -0.0032874944 0.0057874783 -0.033442542

fcs1.bias f4 [400]
000000 36 64 57 3d 49 6b ad 3d 71 2a e7 3d aa 22 1b bd
       0.052585803 0.08467729 0.11287392 -0.037874855
000010 48 31 c9 bd f3 19 7a bd c0 04 dd 3d b5 e7 b4 3d
       -0.09823853 -0.061059903 0.107919216 0.08833257
000020 3f ca e5 3d 71 61 22 3d 3a 79 d7 bd d6 b5 37 3d
       0.11220216 0.03964371 -0.10521169 0.044851147
000030 b9 f6 6b bd 71 3d 0f be f5 7b 5c bd e9 05 0f 3e
       -0.05760834 -0.13988282 -0.053829152 0.13967098
000040 cf 0d 80 bd 0c ba bd bd 6b 61 7d bd 4f 66 e1 3d
       -0.06252634 -0.09264001 -0.061860483 0.11005842
000050 4c d8 88 bd e3 6d f8 3d 83 52 ea bc a1 75 c4 3d
       -0.0668188 0.12130334 -0.028603798 0.095927484
000060 3b a1 3d 3d c2 fb 2f 3d 00 43 bc bd 4f 0e e6 bd
       0.04629634 0.042964704 -0.09192467 -0.11233198
000070 51 32 0c 3e 75 4b d4 3d bf 35 43 3c dd 8b 02 3e
       0.13691069 0.10365955 0.01191467 0.12748666
000080 c0 3c 42 bd 99 28 1b bd a9 a9 2a 3d fd 6a b5 3d
       -0.047421217 -0.037880514 0.041665707 0.08858297
000090 a2 cd 90 bd 83 e9 f2 bb 30 58 c1 bc fd f7 15 bd
       -0.07070471 -0.0074130907 -0.023601621 -0.036613453
0000a0 55 46 8b bd e7 ba 66 3d 32 8d 8c bd 2a 24 01 3e
       -0.06800524 0.056330588 -0.06862868 0.12611452
0000b0 18 fa 68 3d f0 69 0b 3e 01 6a 01 be 98 f2 b3 3d
       0.056879133 0.1361463 -0.12638094 0.087865055
0000c0 42 26 06 be 53 e4 99 bd 9f d2 b4 bd 33 a5 0a bd
       -0.13100532 -0.075142525 -0.08829235 -0.033848953
0000d0 d1 b8 0b be 7a 16 50 3d 08 48 87 3d a7 b2 c7 3d
       -0.1364472 0.050802685 0.06605536 0.09750872
0000e0 61 9d 31 3d 15 73 ec bd 80 fd 0e 3c 31 54 2c 3d
       0.04336298 -0.11545388 0.008727431 0.04207248
0000f0 de da ae bd c4 72 42 bc 8d 66 b7 3b 83 6f 6f bd
       -0.08537839 -0.011868183 0.005596942 -0.058455955
000100 73 72 91 bd c1 70 0b 3e f3 2c 03 bd 4e a3 ad 3d
       -0.071019076 0.13617231 -0.03202529 0.084784135
000110 1d 50 b0 bd 45 bc f3 bd bc b3 33 bd bb 1b 93 bd
       -0.086090304 -0.11901144 -0.04387258 -0.071830235
000120 67 c9 14 bd b4 bb 8c bd d1 ef c5 bd e7 f2 1c bd
       -0.036324885 -0.06871739 -0.09664882 -0.038317587
000130 24 cf 8c bd 57 3b ac bd f8 14 c4 bd 2b eb 8a 3d
       -0.068754464 -0.08409756 -0.09574312 0.06783136
000140 91 f4 c1 3d b4 6d e8 bd 55 a7 8d bd ab c1 2f bd
       0.094704755 -0.11349049 -0.06916682 -0.042909306
000150 88 29 bc 3d 11 46 a7 bd 50 2b 41 3c 5e 24 fb 3d
       0.09187609 -0.08167661 0.011790112 0.12262796
000160 df a3 fd 3d 94 e4 8c 3d e5 1e f8 3d 1c 21 b8 ba
       0.123847716 0.06879535 0.12115268 -0.0014047953
000170 7e 85 44 3d 24 2a e2 3d 03 ed 71 bd cf 69 63 bd
       0.04797887 0.11043194 -0.059063923 -0.05552083
000180 f3 a1 ff bd b8 b8 f2 bd 90 62 e0 3b cf fc e6 bd
       -0.12482061 -0.118516386 0.006847687 -0.11278688
000190 e7 10 d8 bc bd 9c 06 3e 79 c0 ff 3d e6 19 d1 bd
       -0.026375247 0.13145728 0.12487883 -0.10210018
0001a0 94 5e c1 bd 27 ed fe 3d f6 e8 09 3c f8 a0 d2 bd
       -0.094418675 0.12447577 0.008417359 -0.102846086
0001b0 62 96 dc bd d1 66 10 3e 37 56 67 3c 6f f4 9a bd
       -0.10770871 0.14101721 0.014119676 -0.07566153
0001c0 6d 5e b7 3d 5c 84 61 3d 15 13 28 3d 77 20 96 3c
       0.08953557 0.05505787 0.041033823 0.018326027
0001d0 4d e8 57 bd 69 52 70 bd 92 20 50 bb db 87 0e bd
       -0.052711774 -0.058672342 -0.0031757695 -0.03479753
0001e0 9c a7 9b 3d 17 01 2e bd b7 b8 8b bb 0f 63 ea bd
       0.07600328 -0.042481508 -0.004263963 -0.11444675
0001f0 b4 5e a8 3d f8 d0 e0 3c 66 c7 5e 3d 01 38 a7 3d
       0.08221188 0.027443394 0.05438938 0.08164979
000200 5f 98 38 bd f4 b0 6b 3d 10 af 88 bd 9b ec f5 3d
       -0.045067187 0.057541803 -0.066740155 0.120080195
000210 f3 a8 ec 3d 46 90 54 bd c0 c0 89 39 04 81 3e bd
       0.11555662 -0.051895402 0.00026274286 -0.046509758
000220 45 2b 74 bc aa 3e 11 3e ae 41 11 be d5 63 bd bd
       -0.014902894 0.1418406 -0.14185211 -0.09247557
000230 26 a1 c5 bc 7f 29 0e 3d 9a 35 2e 3d 62 5e 03 3e
       -0.024124693 0.034707543 0.042531587 0.12828973
000240 69 d9 11 be 4a ba 8b 3c c2 82 71 bd a4 26 a5 bd
       -0.14243092 0.017056603 -0.05896259 -0.08064011
000250 88 7e 67 bc 24 b8 27 3d 10 79 85 3d ea 34 be bd
       -0.0141292885 0.040947095 0.065172315 -0.09287436
000260 9a 23 03 3e b0 9b d1 bd 7d dd d0 3d 01 b0 10 3e
       0.1280655 -0.10234773 0.101984955 0.1412964
000270 0d 5e b4 3c e1 2c 00 3e 9d 5a 2d bc c0 a4 ab bd
       0.022017503 0.1251712 -0.010580686 -0.08381033
000280 5d 38 01 bd f4 a5 10 be a2 c1 5a 3d 16 dc 8f bc
       -0.031547893 -0.14125806 0.05340732 -0.017561
000290 05 3d b0 bd 61 1f d7 3d 06 c4 8f bd 1b 9e 99 3d
       -0.086053886 0.10504032 -0.070198104 0.07500859
0002a0 98 e3 55 3c 40 33 5e 3d 79 58 0d 3e 02 33 0f be
       0.013054751 0.054248095 0.13803281 -0.13984302
0002b0 2a 14 80 3d 8f 83 a5 bd f7 69 f8 3d 28 41 74 3d
       0.06253846 -0.080817334 0.12129586 0.05963245
0002c0 fb 68 15 3e ca b7 b7 3d 8c 6e 03 3e ce 10 2b 3d
       0.14590828 0.08970602 0.12835139 0.041764073
0002d0 20 63 09 bd d7 5e ea 3c 43 c9 5c 3b 56 40 14 bd
       -0.0335418 0.028609676 0.0033689297 -0.036194168
0002e0 8c da e6 bd 0a 0d 2e bc 3a 99 0c 3e ff e6 f1 3d
       -0.11272153 -0.010623226 0.13730326 0.11811637
0002f0 9a 54 a3 bd 41 68 b7 3c 89 ee bb bd 9d 39 ef 3d
       -0.07975121 0.02238858 -0.09176356 0.11680911
000300 1e 96 b9 3d bd bb 6b bd ed 4c de bd 7b fa 8a bd
       0.09061836 -0.057552088 -0.10854516 -0.067860566
000310 a2 db 83 bd 3e 02 72 3b e2 99 9b bd 5b 4f cf bd
       -0.06438376 0.0036927606 -0.0759771 -0.10122558
000320 e2 2f 5b 3d 12 43 f1 bc 04 cb 80 3c f7 43 d3 bc
       0.05351246 -0.029450927 0.015721805 -0.025789244
000330 7f aa ed bd 47 8a c7 bd c3 5a bb 3d 3c eb e8 bd
       -0.11604785 -0.09743171 0.09148171 -0.113729924
000340 30 c4 f2 bd 4d 79 b0 3d 47 1f b3 3c 84 22 89 bc
       -0.11853826 0.08616886 0.0218655 -0.016740091
000350 30 61 04 be 23 89 4c 3c c1 e8 4c 3d 8f 91 55 bb
       -0.12927699 0.012483868 0.05002666 -0.003258798
000360 97 3b df 3b 07 60 de bc 77 c5 86 3d 99 c2 ff 3d
       0.0068125236 -0.027145399 0.06580632 0.124882884
000370 78 ae 1c bd 2f 46 73 bd 8e 8b b1 bd 08 06 ef 3d
       -0.038252324 -0.059393104 -0.08669196 0.11671072
000380 9e 96 cf 3d cb 71 98 3d 52 1f 8c 3c 08 5c e3 3c
       0.1013615 0.07443579 0.017104778 0.027753845
000390 c8 95 c9 3d 36 e9 0c 3e cd 5e 42 bd e4 db 81 bd
       0.09843022 0.13760838 -0.04745369 -0.06340769
0003a0 4f 1f d9 bd 1a d7 01 3e cf dc 98 3d ed 3b 91 bd
       -0.10601675 0.12679711 0.07463991 -0.07091508
0003b0 5e 36 81 3c 6d b3 76 3c ea ff 54 bc e1 30 97 3c
       0.015772995 0.015057427 -0.013000468 0.018455924
0003c0 d6 3f eb 3c 15 bc a4 3c 67 1d 67 bd c4 d0 a7 bc
       0.028716963 0.020109216 -0.056424525 -0.02048529
0003d0 e9 45 6e bd 83 98 6f bd f5 ae ca 3c 7d bb 45 3d
       -0.05817214 -0.058495056 0.02474163 0.048274506
0003e0 b1 f3 94 3d 2c 87 c9 bd df 22 3e 3d 4b 60 2c 3d
       0.07273043 -0.09840235 0.046419974 0.04208402
0003f0 a1 e2 e5 bd 97 df 37 3c 32 52 05 be da c7 55 bd
       -0.11224867 0.011222742 -0.13019636 -0.052192546

fc2.weight f4 [256, 404]
000000 f7 71 56 bb fb a9 53 3d ef 6d 11 bd 7e 50 39 bd
       -0.0032721737 0.051675778 -0.03550523 -0.04524278
000010 55 02 72 bd 2f 9f ee 3c 40 c6 d0 3b cb 7b 44 bd
       -0.059084255 0.029128639 0.0063712895 -0.04796962
000020 bf b6 05 bd fa 16 ca bc a6 ec 5c bd 52 d7 2c 3d
       -0.032644983 -0.02466916 -0.053936623 0.042197533
000030 9f 82 f8 3c fd 55 0b bd f1 a0 b9 bb 8f bb ea bc
       0.030335722 -0.03401755 -0.0056649377 -0.028653888
000040 33 b6 5c 3d b3 47 df 3c d3 5c 21 3d bd 9e ca bc
       0.053884696 0.027255869 0.039395165 -0.024733895
000050 cd f1 e6 bc 53 c7 d0 bc 06 c7 4d 3c d8 89 1e 3d
       -0.028191471 -0.02548567 0.012559658 0.038705677
000060 fb a1 02 3c cf f1 5f 3d 7f 4e 96 bc 92 ae dc bc
       0.0079731895 0.054673966 -0.018347977 -0.02693871
000070 21 1e df 3c 05 c2 b9 3c d4 23 6d 3a 10 c5 04 3d
       0.027236046 0.022675524 0.00090461713 0.032414496
000080 fc e9 11 bd 64 58 80 3c 84 d9 33 3c 28 c8 2a bd
       -0.035623536 0.015667148 0.010977153 -0.04169479
000090 5d 3b 3d bc 43 4b 01 bd d5 7e 5b bc af c9 b0 3c
       -0.011549798 -0.031565916 -0.013396938 0.021580545
0000a0 07 f8 1d bc 32 18 3d 3d 9d c8 1e bd 50 14 48 3d
       -0.009641654 0.046165653 -0.03876554 0.048847497
0000b0 ac e4 1f bc 7d 9f 06 bd c4 12 3c bd 1a 85 7a bd
       -0.0097591095 -0.032866944 -0.045916334 -0.06116209
0000c0 0a d7 66 3c cd 0e 80 3d 43 38 1e 3d 48 b4 21 3c
       0.014089355 0.06252823 0.038627874 0.009869643
0000d0 5d d4 b9 bc f6 44 3d bd 3f 2f 31 bd cd 35 1c bd
       -0.02268427 -0.046208344 -0.043257948 -0.038137246
0000e0 66 13 1b 3d 04 58 80 bc 9a 95 a0 bb 43 a2 03 bd
       0.037860297 -0.01566697 -0.0049006464 -0.032137167
0000f0 fc d3 33 bc 7b 28 07 3d 21 71 0f 3d 9c 74 8d bc
       -0.010975834 0.03299759 0.035019998 -0.017267518
000100 22 c0 54 bd f5 48 93 bb a6 a1 f2 bc a2 f5 f2 bc
       -0.051941045 -0.004494781 -0.029618096 -0.029658142
000110 2e 1f b4 bb 85 73 69 3d ca c9 e7 3c c6 15 f2 bb
       -0.005496881 0.056994934 0.028294463 -0.0073878495
000120 db 9b 41 bd 0e dc 8b bc 3c 5b 55 3d 80 5a 71 3d
       -0.047267776 -0.017072704 0.05208896 0.0589242
000130 2c 85 55 bd 6d 24 51 bd b7 80 4d 3d 91 6b 26 bd
       -0.052128956 -0.05106013 0.05017158 -0.040629927
000140 cb 17 72 3d 13 86 b1 bc e3 b2 76 bc c5 8b ae bc
       0.059104722 -0.021670377 -0.015057298 -0.021306882
000150 0e e1 1e bd 08 2f 4f bb 04 28 87 3b ec b6 04 3d
       -0.038788848 -0.0031613726 0.0041246433 0.03240101
000160 bf 7f c9 bb 4b bb a1 3c 3d 3f 9a bc 0d 95 98 3c
       -0.0061492617 0.019742629 -0.018828982 0.01862576
000170 0d 36 43 bd 15 f7 51 3d a6 2a 2d 3c 28 b6 34 3d
       -0.04765897 0.051261026 0.01056925 0.04411903
000180 69 11 47 3d 51 7c 30 bd 69 f0 ef bc 23 34 4e bd
       0.048600588 -0.043087307 -0.029289441 -0.05034269
000190 f8 48 2b 3d 67 7c 10 bd b3 5f ad ba 73 21 2a 3a
       0.041817635 -0.03527489 -0.0013227373 0.00064899697
0001a0 18 7c a3 3b 11 55 91 3c d3 e0 97 bc 32 59 69 bd
       0.0049891584 0.017740758 -0.018539822 -0.05696983
0001b0 1d 4c 72 3d 74 a5 66 3c e3 5c 50 3d a6 b7 d7 bc
       0.05915462 0.014077533 0.050869834 -0.026332688
0001c0 b8 59 03 bb cf 67 e7 3c 28 21 cf bb 52 7b 5e 3d
       -0.002004249 0.028247742 -0.006321091 0.054316826
0001d0 9c 16 cc ba a8 fc 72 3d 8a df ee bc d4 68 3e 3d
       -0.0015570703 0.059322983 -0.029159326 0.04648669
0001e0 61 70 73 bd e7 e7 c0 bc c8 e1 b5 3c 2d 69 8d 3c
       -0.059433345 -0.02354808 0.022202387 0.017262066
0001f0 8a df 2f 3d 2f a3 7f 3d 9c 6c 3a 3d 5e e6 62 3d
       0.042937793 0.062411483 0.045513734 0.055395477
000200 4c 56 07 bb 22 5c b1 bc d7 e8 7e 3d 4e c4 61 bd
       -0.0020650802 -0.021650378 0.062233772 -0.05511885
000210 de 7d 56 3c ef a3 dd 3c 14 cc 99 bc ed 3f 05 3d
       0.0130915325 0.027055709 -0.01877407 0.032531668
000220 04 04 8f 3c e1 fd 22 bd b9 c9 21 3d 70 bf 31 bd
       0.01745797 -0.0397929 0.03949902 -0.04339546
000230 27 83 07 3c bf 73 f2 bc 86 cd 19 3b 41 c6 b8 3c
       0.008271015 -0.029596208 0.0023468449 0.022555472
000240 4c d5 89 bc d6 ef 3c 3c 33 9b 25 3d dd 7c e7 3c
       -0.01682534 0.011531791 0.040431213 0.028257782
000250 08 06 7c 3c 7d cb 51 bd e1 0e 74 3d 33 55 86 3c
       0.015382297 -0.051219452 0.059584502 0.016398048
000260 dd 14 67 bd 46 86 55 3d 8b 1f c4 3c 46 d3 37 3d
       -0.05641638 0.052130006 0.023940822 0.04487922
000270 e7 bc 87 3a 67 16 6b 3d 29 1e 44 3d 7a 45 84 3c
       0.001035598 0.05739441 0.047880325 0.01614641
000280 bb 4e 14 3d d1 31 8b 3c c2 97 04 3b 7b 44 28 bd
       0.036207896 0.016991528 0.0020232056 -0.041080933
000290 e3 19 6f bd db e3 64 bc 49 35 5b bd 97 73 ba 3c
       -0.058374297 -0.013970341 -0.053517614 0.022760196
0002a0 a6 df 79 bd 03 9e 9b bc 07 61 65 3c 90 f1 5d bc
       -0.061004303 -0.018996244 0.014000184 -0.0135463625
0002b0 63 e9 02 bd 42 10 c2 bc 93 23 f5 bc 02 ce 09 bd
       -0.031960856 -0.023689393 -0.02992419 -0.03364373
0002c0 3f 45 23 bd 0c da d0 3c 68 e3 41 bd 66 65 1b 3d
       -0.03986096 0.025494598 -0.047336012 0.037938498
0002d0 2a 99 b9 bb e9 95 24 3d 5a 1f a5 bc 40 dd c3 3c
       -0.0056640105 0.040182028 -0.020156551 0.023909211
0002e0 1f ae e3 3c 41 b6 b9 3b 4b 6d 12 3d 8b 8f 60 bd
       0.027792988 0.0056674783 0.03574876 -0.054824393
0002f0 de 6d cb bc 43 5b 13 3d 35 59 cf bc 89 28 c5 3c
       -0.024832662 0.035975706 -0.025311092 0.02406718
000300 b3 4c 07 3d 36 34 68 3c 92 da 30 bd ca 82 84 bc
       0.03303213 0.014172604 -0.043177195 -0.016175646
000310 7d 2c fa 3c 1b 19 46 bd 10 ac 1d 3b b3 1c 4a bd
       0.030538792 -0.048363786 0.0024058856 -0.049343776
000320 74 ef a4 bc b3 51 df bc 74 01 d1 bb e9 45 df 3c
       -0.020133711 -0.027260637 -0.006378347 0.027255015
000330 c3 4e bd 3c 8d 37 35 3d d5 2d fc 3c 1a 62 1f bd
       0.023108846 0.04424243 0.030783573 -0.038911916
000340 fa 08 09 bd 83 f8 6f bd 10 a8 7c 3d ea 3e 0c 3c
       -0.033455826 -0.05858661 0.061683714 0.008559922
000350 88 dd 25 bd 6e 88 3f bd 18 b2 2e 3d 4c 74 ce ba
       -0.04049447 -0.04676097 0.042650312 -0.0015751212
000360 85 b5 bb 3c 62 58 24 bd c4 f5 39 3d 33 17 7c 3c
       0.022913704 -0.04012335 0.045400396 0.0153863905
000370 f1 1e 91 3c cb 10 a4 bc df 33 0c bb 99 13 37 bd
       0.01771495 -0.020027539 -0.0021393222 -0.044696424
000380 b9 d8 98 3c 4a e3 f4 bc 72 93 a5 3c 54 df 4a 3d
       0.018658029 -0.029893536 0.020211909 0.04952939
000390 3c 84 7c 3d 2e 24 22 bd 5d 1a 32 3d 06 f5 fe bb
       0.061649546 -0.039585285 0.043482173 -0.007780674
0003a0 98 a0 57 3d c8 c9 23 bc cd 9e 57 3d 05 22 06 bd
       0.05264339 -0.009996839 0.05264168 -0.032747287
0003b0 5a 3a 47 3d 80 c0 0d 3d 7a e2 28 3d 88 08 a2 bc
       0.048639633 0.03460741 0.04123161 -0.019779459
0003c0 69 5b 1a bc 7d 56 89 bc 79 5a 68 3c ab 97 dd bb
       -0.009421208 -0.016764874 0.014181727 -0.006762465
0003d0 3f 80 e3 3c 2e 3b d3 3b 49 39 d9 bb e6 53 e6 bc
       0.027771113 0.0064462638 -0.0066291434 -0.028116178
0003e0 f9 03 4f bd 75 9d 50 bd dc f3 b6 3a 37 96 45 bb
       -0.050540898 -0.050931413 0.0013958174 -0.003014935
0003f0 6a b3 f3 bb de 3e 50 3d 51 22 d9 3c e6 15 77 3d
       -0.0074371593 0.050841205 0.026505621 0.06032362

fc2.bias f4 [256]
000000 d3 c6 2e bd e6 e8 32 bc 00 7a 0e 3d 9d cc b4 ba
       -0.042670082 -0.010919785 0.034784317 -0.001379389
000010 d0 eb 58 3a 4f c1 91 3b 06 d9 3d bd f6 ad 4c bd
       0.0008274885 0.004448093 -0.046349548 -0.04997059
000020 5c 1c 43 bd 85 85 de 3c df d0 13 3c 05 8b 16 bd
       -0.047634467 0.027163276 0.009021967 -0.036753673
000030 40 da 1e bc 54 ac 4a bd f2 a7 06 3d e3 4e 39 3d
       -0.00969559 -0.04948075 0.03287501 0.045241248
000040 13 f2 18 3d 35 0e e8 bc 0a f2 01 3a 30 0a 97 3c
       0.037340235 -0.028327087 0.0004957026 0.018437475
000050 84 03 37 bb c8 79 32 bb 45 87 0d bd ea fb 95 bc
       -0.002792568 -0.0027233232 -0.03455283 -0.018308599
000060 61 2d f2 bb 82 1f 52 bc bc f1 1e 3c b2 7a 9b bc
       -0.0073906635 -0.012824895 0.009701189 -0.018979404
000070 50 f6 42 bd 14 fe c6 bc ff 32 80 3b 1f d0 5e 3c
       -0.047598183 -0.024291076 0.003912329 0.013599425
000080 c3 43 29 ba 86 46 69 3c b7 3a fd ba 5b 36 02 3d
       -0.00064569357 0.0142380055 -0.0019319867 0.03179012
000090 5a ba ce 3c 2d 95 fa 3c f8 cf c6 bc 23 29 e7 bc
       0.025235344 0.03058871 -0.02426909 -0.028217858
0000a0 09 c0 3e 3c 29 55 06 3d 8d 0a c1 3c ed 8a ba bc
       0.011642464 0.03279606 0.023564601 -0.022771323
0000b0 95 4f 2b 3d d8 aa d7 3c 2e b7 70 bc ed 7c 79 bb
       0.041823942 0.026326582 -0.014692111 -0.0038068846
0000c0 dd a8 3b 3c 45 a3 45 3d 80 d0 b5 3c db b2 45 bc
       0.011453834 0.04825141 0.022194147 -0.012066568
0000d0 a3 bc 2c bd 79 73 48 3d 86 b4 1b bd ce 79 53 bb
       -0.042172085 0.04893825 -0.038013957 -0.0032268646
0000e0 d3 60 9e 3c 99 54 19 3c dd ac ac bc d1 f0 21 bd
       0.019333279 0.009358549 -0.021078521 -0.0395363
0000f0 b6 b7 56 bb 85 be 3f 3d f8 4e 12 bd e2 bc c9 3c
       -0.003276331 0.046812553 -0.03571984 0.0246262
000100 e6 d3 1c 3d 89 d8 d3 3c f3 cf 60 3c 39 a3 50 bc
       0.03828802 0.025860088 0.013721454 -0.012734228
000110 28 3c 9c 3c d9 73 40 bd 2c d9 11 3d c3 66 2f 3d
       0.019071653 -0.04698548 0.035607502 0.04282261
000120 77 8b 1e 3d 5c 7a d9 bc f3 dd a3 3c ab c1 2f bb
       0.038707223 -0.026547603 0.020003295 -0.0026818316
000130 b0 e6 21 3d ba 6a a3 3c 4c 35 e1 bc 5e 19 21 bb
       0.03952664 0.019948352 -0.027491234 -0.002458177
000140 be 8f dd bc bc 92 c2 bc 5e 7a f1 3b 59 52 fc bc
       -0.02704608 -0.023751609 0.0073693236 -0.030800985
000150 65 2a 4e bd 98 36 42 bd e7 4c 13 bd 5e 7e d3 bc
       -0.0503334 -0.047415346 -0.03596201 -0.025817093
000160 1d 24 5a bc 66 e0 c1 bc 6e 4a 99 3c fb 57 a0 bc
       -0.013314274 -0.023666572 0.018712249 -0.019573202
000170 eb 07 34 bd af 2b ef bc 8c f7 ae 3c 34 c8 45 bc
       -0.043952864 -0.029195635 0.021358274 -0.012071658
000180 bf 8e c4 bb 5c ab 2a bd 36 4c 0d 3d 53 10 20 bd
       -0.005998462 -0.041667327 0.03449651 -0.039078068
000190 ce 7d e2 bc 8b e0 43 3d 0c 06 96 bc a5 da 6e bc
       -0.027647879 0.047821563 -0.01831343 -0.014578496
0001a0 85 5a 40 3d af 22 b1 bc 7e bc 70 bc 00 8a 97 3b
       0.046961326 -0.021622984 -0.014693378 0.004624605
0001b0 1c f8 df bc db 01 8d bc 4e 1c 05 3d fc b3 23 3d
       -0.027339987 -0.017212799 0.032497697 0.03996657
0001c0 a8 e0 19 3c 66 cb aa 3c 96 12 e9 bb d3 fc 1f 3d
       0.009391941 0.020848941 -0.0071128113 0.03905947
0001d0 9d df 38 3d 15 76 ac 3c 9b 2c 50 3b ab 50 8e bc
       0.04513513 0.0210524 0.0031764868 -0.01737245
0001e0 83 8a db 3c a1 18 62 3c b8 a7 3c bd 41 c9 b7 bb
       0.026799446 0.013799817 -0.046058387 -0.005608708
0001f0 18 1c 05 bd 48 3b 35 3d b1 f8 ba 3b 42 b5 07 bd
       -0.032497495 0.044245988 0.005705916 -0.033131845
000200 18 24 1d 3d f4 9c 6d 3c ca 55 94 3c 90 6c 25 3c
       0.0383645 0.014502753 0.018107314 0.010096684
000210 06 41 b4 bc ee 4e ee bc 41 75 a5 3b 40 7e 31 bd
       -0.022003662 -0.029090371 0.005049378 -0.043333292
000220 96 ae 6d 3c ee 8e 5c bb 8f 04 22 bd 39 f7 26 3d
       0.014506957 -0.0033654529 -0.03955513 0.040763114
000230 98 a3 bd bc e2 04 37 bd f8 2f ae 3b d7 63 ce bc
       -0.023149297 -0.04468239 0.005315777 -0.025194092
000240 53 7d 24 bd 1d 8b d4 bc 63 0c 1b 3b 79 72 62 bc
       -0.04015858 -0.02594524 0.0023658506 -0.013821238
000250 3e 1c 8b 3b 89 3e 20 bd 2e 48 0e bd 8b ad 24 bd
       0.00424531 -0.03912214 -0.034736805 -0.040204566
000260 86 ee 21 bd 7b c4 e0 bc fc fa e7 bc 37 f8 91 bc
       -0.039534114 -0.02743744 -0.02831792 -0.017818553
000270 57 52 dc 3c b1 4e ee 3c 6a 11 b2 bc ef dd 96 bc
       0.026894731 0.029090257 -0.02173682 -0.018416373
000280 01 94 39 bd 31 38 b6 bb 8f 6b b0 bc 3a c6 33 3d
       -0.045307163 -0.0055608978 -0.021535663 0.043890215
000290 e9 0e 17 3b d5 60 a5 3c fe 86 24 bd 6d 09 00 3c
       0.0023049659 0.020187775 -0.0401678 0.007814747
0002a0 73 99 66 3c ea 16 b1 bc a0 bb eb bc 0f 9a 80 bc
       0.014074671 -0.021617372 -0.02877599 -0.01569846
0002b0 ce ef de bc 03 14 a7 3c c1 1b fe 3c 5d f7 6b bc
       -0.027213957 0.020395285 0.031019093 -0.014402238
0002c0 a8 d5 79 bb 7a a6 aa 3c 74 7f 12 3d 77 62 da 3b
       -0.0038121734 0.020831335 0.03576608 0.00666457
0002d0 5c c7 b2 bc 91 0e 3c bd 80 b6 44 3d e8 6e 24 3d
       -0.021823578 -0.04591233 0.048025608 0.04014483
0002e0 7c 81 ad 3c 69 80 16 bd 35 94 ef bc ac 2a 13 3c
       0.021179907 -0.036743555 -0.029245475 0.008982342
0002f0 90 c6 0e bd c4 f9 d1 bc 76 11 65 3c e8 7c 14 3d
       -0.034857333 -0.025631793 0.013981214 0.036251932
000300 bd fc 0b 3d e0 cb 45 3d f7 b3 be 3c db 59 05 bd
       0.034176577 0.048290133 0.023279173 -0.032556396
000310 c6 af f3 3c 5c 02 8a bc d9 69 95 bc 00 a5 b9 bc
       0.029746901 -0.016846828 -0.018238949 -0.022661686
000320 25 d9 1b 3d 01 c9 e2 bc 7f e7 ce bc 04 0a 46 3c
       0.038048882 -0.027683737 -0.02525687 0.012087349
000330 e0 e2 f3 3b 34 fb 10 bc 07 61 3b bc 04 59 20 3d
       0.007442817 -0.008848954 -0.011436707 0.039147392
000340 cd ea 88 3c 0e 85 34 3c 36 8d 24 3d 84 bc ba bc
       0.016713524 0.011018051 0.04017373 -0.02279497
000350 27 43 ad 3b 8b 43 39 3d c8 aa ee 3c e9 7a 38 3c
       0.005287546 0.04523043 0.02913417 0.011259773
000360 a0 a3 28 bd 1c f6 8e 3b 0a 4b 2a bd db f5 34 3d
       -0.04117167 0.0043628346 -0.04157547 0.04417978
000370 20 fb 7b 3c ef 6b 9c 3c e7 37 b4 3b 51 87 de bc
       0.015379697 0.019094435 0.005499828 -0.027164133
000380 e9 f0 22 bd 98 ec 21 bd a1 5f 31 3d 9c 4b 0f 3d
       -0.03978053 -0.039532274 0.04330409 0.034984216
000390 69 c9 1f 3c 6d ee 35 3c e6 73 3c 3d 57 c5 84 bc
       0.00975261 0.011104208 0.046008967 -0.01620738
0003a0 a4 b9 4e 3d 46 e9 7c bb 15 cf f2 3c e7 3a 19 bd
       0.05047001 -0.003859119 0.02963976 -0.03740969
0003b0 e0 6e 70 bc 86 61 be 3b 1e 00 b1 bc 27 13 46 bc
       -0.014674872 0.0058099655 -0.021606501 -0.012089527
0003c0 d2 73 eb bb 16 f0 b4 3c 7b 1c c2 3c d8 6d 3e bd
       -0.0071854377 0.022087138 0.023695221 -0.046491474
0003d0 1f 82 28 bc 2b 67 10 bd 63 01 e3 bb 90 8f 92 bc
       -0.01028493 -0.03525464 -0.0069276555 -0.017890722
0003e0 a4 46 1c bd 69 d2 a3 bc 8e 37 dc 3c 43 2a f1 3c
       -0.038153306 -0.019997792 0.02688196 0.029439097
0003f0 09 9f 1a 3d c4 e9 0d bc 36 fe 77 38 8a ce f5 3c
       0.037749324 -0.008661691 5.912614e-05 0.030005712

fc3.weight f4 [1, 256]
000000 f5 17 10 3b 1a 03 0a bb 60 37 6a ba 1a 69 69 3b
       0.0021986936 -0.0021058978 -0.0008934643 0.0035615624
000010 71 5a 9a 3a db 2f 3b ba c1 63 9c b8 8f 5f 22 3a
       0.0011776221 -0.0007140615 -7.45724e-05 0.0006194049
000020 ba 96 0a 3b 8f c5 5b 3b f5 c8 07 ba 02 37 10 3a
       0.002114697 0.0033534502 -0.0005179786 0.0005501361
000030 eb 43 05 bb 65 95 c5 ba 68 10 bd ba 63 c1 47 ba
       -0.0020334672 -0.001507443 -0.0014424445 -0.00076200644
000040 c3 91 b2 3a c5 a8 9d 3a ff da 6d 3a ee cb e4 3a
       0.0013623763 0.0012028447 0.00090734655 0.0017455795
000050 f8 f5 2f 3a 6e 45 72 b9 4f b0 a7 ba af 8f 25 b9
       0.00067123724 -0.00023104783 -0.0012793633 -0.00015789153
000060 55 5f 3e ba 93 b6 23 ba 5c b3 8a 38 da 1b ef b8
       -0.00072621304 -0.0006245162 6.613761e-05 -0.00011401596
000070 8a a0 7c 3a 91 b2 98 3a 0b 32 29 ba fc 1e b2 3a
       0.00096369593 0.0011649897 -0.00064542954 0.0013589556
000080 11 13 9f 3a 1c 6a b9 3b 50 d0 27 3b 00 ac 5c ba
       0.001213642 0.005658401 0.0025606342 -0.0008417964
000090 e8 fd 15 3b cf e8 70 3b d5 44 c1 3a b4 c4 50 b9
       0.0022886936 0.0036759858 0.0014745245 -0.00019909703
0000a0 9b 12 11 3b 9a 6e a2 3a f3 f7 22 3b 8c 71 e3 b9
       0.0022136334 0.0012392581 0.0024867028 -0.00043381413
0000b0 ad 86 c6 b9 10 34 02 3b 64 09 14 3a f6 d3 20 3b
       -0.00037865844 0.0019867457 0.0005647151 0.00245404
0000c0 d1 bf 07 bb bb c3 02 ba ca 0b 37 bb 95 15 3c 3b
       -0.0020713697 -0.00049882726 -0.002793061 0.0028699387
0000d0 33 e4 3e 3b 9f d0 5a 3b c5 5a 59 3b 92 d3 2c ba
       0.0029127717 0.0033388508 0.0033165675 -0.0006592806
0000e0 0e 68 bc 3a 87 8e 02 3b a2 16 b8 b9 dd 2e 72 bb
       0.0014374272 0.0019921379 -0.00035112078 -0.0036954202
0000f0 7a 05 79 3a 46 93 d4 38 00 7b 4f 3b 3d 4a 12 3a
       0.0009499412 0.000101363796 0.0031659007 0.00055805204
000100 3d 5b 69 3a 39 08 84 ba f8 ea fb 3a 77 c0 09 ba
       0.000890184 -0.0010073251 0.0019219806 -0.0005254815
000110 6b 6c 1f 3b 91 19 16 ba 8c 75 05 3b 19 58 1f 3b
       0.0024326097 -0.00057258556 0.0020364253 0.0024313985
000120 ce 94 d9 ba 5e ea af 3a 04 a0 64 3a 89 bc 1d 3a
       -0.0016600133 0.0013421287 0.0008721354 0.00060171686
000130 29 ee 64 ba 97 61 b5 ba bf cd e6 ba 39 74 9f 3a
       -0.00087329984 -0.0013838288 -0.0017608925 0.0012165374
000140 a3 63 da 39 6c 45 c4 3a 87 13 cd ba 27 3c 85 3b
       0.00041654435 0.0014974303 -0.0015646078 0.0040660086
000150 aa 65 0b bb 4e d5 f6 3a 79 f4 0f 3a cc 20 ed ba
       -0.0021270313 0.001883188 0.00054914464 -0.0018091439
000160 76 29 da b8 fa 98 b9 ba eb 2c fc ba ea bd 03 3b
       -0.00010402773 -0.001415997 -0.0019239461 0.0020102211
000170 06 2b 04 bb f5 1d 8e 3a bc 40 66 3b e4 b6 50 3b
       -0.0020167246 0.0010842668 0.00351338 0.0031847293
000180 3b dc 00 bb 71 4f fb b9 1a e2 a0 38 fb 13 01 bb
       -0.0019662518 -0.0004793364 7.671509e-05 -0.0019695747
000190 2a 4d cf ba cc 81 de 3a 7e f7 73 bb 7a 61 12 3b
       -0.0015815843 0.0016975938 -0.0037226374 0.0022335933
0001a0 ce b4 0f ba c4 d5 96 3a 64 5c 13 3b 82 f2 c7 ba
       -0.0005481959 0.0011507799 0.002248549 -0.0015254768
0001b0 e5 0f a8 3a 7d 18 b9 ba 63 7f 57 3b 83 bd 96 3a
       0.001282212 -0.0014121678 0.0032882325 0.0011500571
0001c0 31 f9 c6 b9 ef 1e d9 ba 6a c2 8e 3a 9b a7 74 3b
       -0.00037951165 -0.0016565005 0.001089168 0.0037331346
0001d0 b0 2c 42 3b 5a de 42 3b 68 68 c8 3b 96 e9 b5 3a
       0.0029628687 0.0029734583 0.006115962 0.0013878818
0001e0 ac ac 50 38 b2 22 e5 3a f9 69 48 3b f6 7b 7a 39
       4.9751878e-05 0.0017481653 0.0030580743 0.00023888037
0001f0 ef 1b 1c 39 eb 66 a8 ba c4 a0 bf ba c6 d8 23 3b
       0.00014887725 -0.0012848055 -0.0014620055 0.0025001033
000200 12 7e 23 3a bb 54 8d 3a 12 e3 06 3b 0a bd f9 ba
       0.00062367425 0.0010782698 0.0020582122 -0.001905353
000210 8b db c7 3a 27 6c 96 3a 47 16 e0 ba 33 10 61 3a
       0.0015247924 0.0011476324 -0.0017096483 0.0008585483
000220 b8 b1 33 3a 6f 37 68 3b 27 2a 77 3b d6 91 f7 ba
       0.000685479 0.0035433432 0.0037714334 -0.0018888067
000230 ed a2 91 3b af c3 e4 ba 65 68 7b ba c4 b9 d8 ba
       0.004444471 -0.0017453338 -0.0009590446 -0.0016534855
000240 aa 26 05 ba e0 a9 af bb 2a 8d 64 ba 72 9d db ba
       -0.0005079309 -0.005360827 -0.0008718545 -0.0016755296
000250 42 59 b5 3a e5 d1 cc 3a a9 ee 90 ba 5c 15 95 3b
       0.0013835805 0.0015626518 -0.0011057454 0.0045496654
000260 8a ff bc bb 95 a2 d3 ba 5a bd 59 3b 4c a1 aa b7
       -0.0057677673 -0.0016146476 0.0033224435 -2.0340689e-05
000270 e3 e5 f4 ba f3 76 8d 3b 1d 8f 45 3b 24 94 eb b8
       -0.0018684234 0.0043171584 0.0030145117 -0.000112332666
000280 ae 58 2a bb f5 5b 64 3b cf 25 0b ba 80 70 97 3a
       -0.0025992799 0.003484485 -0.0005308063 0.0011553913
000290 f1 d3 60 ba 64 cc e7 b9 f4 55 b0 bb 0b b0 29 3a
       -0.00085765036 -0.00044212036 -0.00538134 0.0006473071
0002a0 7b 58 60 ba 12 4d 87 3a e1 0a dd 3a 89 ec cf 3a
       -0.00085581065 0.0010322651 0.0016864204 0.001586334
0002b0 22 c9 fb ba bb a7 26 3a 16 f6 3d bb f1 28 f3 ba
       -0.0019209723 0.0006357391 -0.002898579 -0.001855163
0002c0 dd 94 94 3a 07 1c 50 39 df fa e6 ba 9a 24 1a ba
       0.0011335869 0.00019846867 -0.0017622373 -0.0005880088
0002d0 3a 13 32 3b 43 7e 3b 3a f5 8f 62 3b e1 8a bb ba
       0.0027172104 0.00071522983 0.0034570668 -0.0014308357
0002e0 30 c5 d6 3a fc 0f c5 3a 85 25 05 3b 81 f0 3f 3b
       0.0016385671 0.0015034671 0.0020316553 0.0029287639
0002f0 2f 27 df 39 94 10 25 3a bb 81 44 3b 2c fa e6 3a
       0.0004256307 0.0006296721 0.0029984552 0.0017622164
000300 cd a3 66 3b 8b 4f 2f 3b 3d 2c 58 3b 67 23 9b 38
       0.0035192848 0.0026750292 0.0032985352 7.39757e-05
000310 1f 44 80 ba 37 eb ea 38 81 f0 86 39 e3 38 e4 ba
       -0.0009785927 0.00011201802 0.0002573766 -0.0017411973
000320 00 88 35 ba 4f 47 ff 39 3a 7f 07 ba 5a 99 94 3a
       -0.00069248676 0.0004869052 -0.00051687995 0.0011337206
000330 5b d8 cb b9 64 25 9b 3a 2c a0 f0 3a 30 ef e1 3a
       -0.00038880375 0.0011836705 0.0018358282 0.0017237421
000340 27 10 82 ba 89 ce 45 3a c4 05 b0 bb 35 4b 63 3b
       -0.0009923027 0.000754573 -0.005371781 0.0034682278
000350 0d b0 80 3a f0 d6 60 39 dc 91 0c bb a1 c7 98 3a
       0.0009818092 0.00021442375 -0.0021449244 0.0011656174
000360 25 c6 1c 39 5d fd b8 ba e1 5b ba ba be 7d 5d 3b
       0.00014951134 -0.0014113594 -0.0014218056 0.0033796872
000370 db 66 81 3a 16 d9 d7 ba 47 94 8d 3a 30 af 21 3a
       0.0009872572 -0.0016467895 0.0010801636 0.00061677676
000380 b5 fb 00 bb 49 90 5a 3b e1 ba a2 b9 92 0c 94 3a
       -0.001968128 0.003335016 -0.00031038283 0.001129525
000390 e7 d3 43 3a 07 cc 2e 3b 63 c4 00 bb 92 7b 5d 3b
       0.00074702356 0.0026671903 -0.0019648306 0.0033795577
0003a0 ec 5b dd 3a e6 21 c1 b9 08 93 4d ba 14 a7 07 3a
       0.0016888357 -0.00036837085 -0.0007842039 0.0005174738
0003b0 2e d6 a8 37 b2 27 91 39 99 dd b9 39 85 c9 31 3b
       2.0126896e-05 0.0002768613 0.00035451053 0.0027128172
0003c0 5a 58 e0 39 44 8a 18 3a 61 ee 63 3b 18 ca f0 b9
       0.00042790436 0.0005818943 0.0034779536 -0.0004592694
0003d0 81 10 cb ba 50 53 d5 3a 58 32 b9 3b 14 fe a4 3a
       -0.001549259 0.0016275439 0.0056517534 0.0012587928
0003e0 b8 52 9a 38 95 63 ff 3a 60 a3 ce ba a8 8d 87 b9
       7.3587e-05 0.0019484634 -0.0015765242 -0.0002585475
0003f0 60 29 01 3b 36 d1 43 ba ac 73 16 3b e1 6d db ba
       0.00197085 -0.00074698345 0.002295713 -0.001674112

bn.weight f4 [400]
000000 3a 92 e4 3e b5 14 0d 3f e7 89 50 3f 00 10 58 3b
       0.44642812 0.5510972 0.8146042 0.003296852
000010 5b 35 00 3f f0 45 0f 3f 4c 93 79 3f 8a 00 2f 3f
       0.50081414 0.5596609 0.9749038 0.683602
000020 bb de 6c 3f 94 d0 37 3e e0 52 5b 3d 12 1c 76 3f
       0.9252736 0.1795066 0.053545833 0.9613658
000030 49 18 00 3f 80 cd a9 3e 78 be 55 3e 74 aa e9 3e
       0.50037056 0.33164597 0.2087344 0.45637858
000040 16 c7 cd 3e a0 c0 c7 3e 64 9e 54 3f 0e c2 3d 3f
       0.40190953 0.3901415 0.83054185 0.7412423
000050 7d d4 31 3f 14 6f fb 3e f8 72 10 3e a0 fc f4 3c
       0.69464856 0.49108183 0.14106357 0.029905617
000060 fb f7 63 3f e1 c1 56 3f 6e 78 06 3f 80 bf 9a 3d
       0.89050263 0.83889586 0.5252751 0.07556057
000070 d6 dd 91 3e d8 43 ba 3e 35 ad 22 3f 6c 9c ac 3e
       0.2848956 0.36379886 0.6354554 0.3371309
000080 b4 0c be 3e c0 72 a9 3d e0 d0 ce 3d 3c 19 03 3e
       0.37119067 0.0827384 0.100984335 0.12802595
000090 38 46 70 3e c1 db 40 3f e0 9d 8c 3e 63 01 25 3f
       0.23464286 0.7533532 0.274642 0.6445524
0000a0 f8 66 73 3f f3 65 03 3f c8 5e 8e 3e a8 f3 b2 3d
       0.9507899 0.5132744 0.27806687 0.0873788
0000b0 a8 6e d9 3d 50 70 63 3f a0 18 11 3f 68 72 da 3d
       0.10616809 0.8884325 0.566782 0.106663525
0000c0 2e 50 65 3f af 77 19 3f 26 0d 87 3e d8 80 e8 3e
       0.8957547 0.5994825 0.2637722 0.454108
0000d0 a8 48 14 3f 68 ac 5a 3f eb 82 6a 3f b0 fa 3d 3e
       0.57923365 0.8541932 0.91606015 0.18552661
0000e0 99 b4 6c 3f 90 9f 09 3e 52 26 6e 3f 38 02 b2 3e
       0.9246307 0.13439775 0.9302722 0.34767318
0000f0 c0 85 8f 3c d6 48 45 3f dc 55 c0 3e 87 4d 2d 3f
       0.017519832 0.77064264 0.37565506 0.6769642
000100 c6 e1 f3 3e 18 21 0a 3f ef 41 30 3f 74 8d c3 3e
       0.4763319 0.5395675 0.68850607 0.38193858
000110 46 4c 0c 3f 7c dd 13 3f c6 c8 4d 3f 1b 10 05 3f
       0.54803884 0.57759833 0.8038448 0.519777
000120 98 6b 83 3d e4 f9 38 3f 6a 3f a9 3e f2 df 6a 3f
       0.06417006 0.722563 0.33056194 0.91747963
000130 a3 f2 29 3f 2d 99 17 3f 67 4d 71 3f f2 65 c1 3e
       0.6638586 0.592181 0.9425873 0.3777309
000140 14 71 0a 3f b8 95 d4 3d 00 9a c0 3c 96 d1 6c 3f
       0.54078794 0.10380119 0.023510933 0.925073
000150 00 39 4d 3e a5 4a 2a 3f a8 cc d6 3e 42 9b 78 3f
       0.20041275 0.6652015 0.41953015 0.97111905
000160 70 6a a3 3e 14 99 83 3e 12 55 68 3f 9c 52 6b 3e
       0.31917143 0.25702727 0.90754807 0.22980732
000170 26 34 fb 3e b4 f6 89 3e e2 e8 ca 3e ee f4 33 3f
       0.49063224 0.26946032 0.396308 0.7029561
000180 79 4c 18 3f f0 76 13 3d 5e 15 12 3f fb ba 5d 3f
       0.5949169 0.0360021 0.57063854 0.86613435
000190 e0 7d 4f 3e c6 a8 df 3e be 1d 25 3f 56 6f f7 3e
       0.20262861 0.4368345 0.6449851 0.4832713
0001a0 bc 25 16 3f 1b 5e 20 3f d4 ca 21 3f 9e 7d 8d 3e
       0.5865133 0.62643594 0.63200116 0.276349
0001b0 d7 bb 01 3f a0 b9 d8 3d 1f ee 69 3f ed 1f 09 3f
       0.50677246 0.1058228 0.9137897 0.5356434
0001c0 2a 31 78 3f cb 4e 26 3f dc 15 28 3f 40 34 47 3f
       0.9695002 0.6496398 0.65658355 0.778141
0001d0 9c 6a 94 3e 10 d2 4d 3f 92 bb 9a 3e 08 01 04 3e
       0.28987586 0.80398655 0.3022123 0.12891018
0001e0 ee 35 6e 3f 31 7b 6b 3f 51 a9 55 3f 7a fd 34 3f
       0.9305104 0.9198485 0.8346148 0.70699275
0001f0 16 49 8e 3e 50 ee cf 3e 2c 5a 0c 3e 99 6d 30 3f
       0.27790135 0.40611506 0.13706273 0.6891723
000200 e2 d2 0a 3f ee f9 ec 3e 40 bc a0 3d e3 99 7a 3f
       0.5422803 0.4628443 0.07848406 0.9789106
000210 c9 55 14 3f 20 94 96 3e 44 80 29 3f 09 7d 2a 3f
       0.579434 0.29409885 0.6621134 0.6659704
000220 54 54 f1 3e c0 db c7 3d d6 19 3a 3f 48 31 73 3f
       0.4713465 0.09758711 0.7269567 0.9499707
000230 4e 97 78 3f 63 09 66 3f 94 3b 17 3e d7 a5 04 3f
       0.9710587 0.89858073 0.14768821 0.5181555
000240 64 31 c8 3e 86 42 bb 3e 1f fc 6f 3f 10 5c 74 3e
       0.39100182 0.3657419 0.9374408 0.23863244
000250 c8 eb fb 3d 6c e4 c5 3e 7c aa 7b 3f 48 64 ca 3d
       0.12300831 0.38650835 0.98307014 0.098824084
000260 60 59 3e 3f c0 f9 ba 3d 40 5e d2 3d d0 13 45 3f
       0.74355125 0.09129667 0.10271883 0.76983356
000270 17 f4 18 3f c0 dc 7c 3d 10 ce 3b 3e bd c6 1d 3f
       0.5974745 0.06173396 0.18340325 0.61631376
000280 00 e2 d7 3c 4a bf 22 3f 91 5b 3c 3f b0 f8 ae 3d
       0.026352882 0.63573134 0.7357722 0.08543527
000290 6a 59 b8 3e 5c aa 5a 3e ba 0f 4e 3f 86 d3 ce 3e
       0.36005718 0.2135405 0.80492747 0.40395755
0002a0 08 a8 fe 3d df c6 16 3f 8b ea 0c 3f 84 7a 89 3e
       0.12434393 0.58897203 0.55045384 0.26851285
0002b0 8b 2c 4d 3f 1c d8 5d 3f 7a 30 31 3f ac e8 a3 3e
       0.8014609 0.8665788 0.69214594 0.32013452
0002c0 d8 90 e7 3e b8 a4 ce 3d e0 37 c6 3e a8 4b 22 3e
       0.45227695 0.10090011 0.38714504 0.15849173
0002d0 71 41 5d 3f 04 bc bc 3e 06 9a 8a 3e d0 96 09 3f
       0.8642798 0.36862195 0.27070636 0.53745747
0002e0 2b f2 65 3f 00 13 3e 3e 17 9d 1c 3f 60 69 76 3d
       0.89822644 0.18561935 0.611772 0.060159087
0002f0 88 7d 81 3d 04 32 75 3e 50 37 45 3e 00 69 87 3e
       0.06322771 0.2394486 0.19259381 0.26447296
000300 58 83 bc 3e 39 c9 7f 3f 93 22 53 3f 19 bb 63 3f
       0.36818957 0.99916416 0.8247463 0.88957363
000310 ce 4d 7b 3f f5 81 32 3f f0 a7 59 3e 00 a0 a7 3c
       0.98165596 0.6972955 0.2125547 0.020462036
000320 52 76 89 3e d4 86 64 3f e6 df 04 3f dc a3 3d 3f
       0.26848084 0.8926823 0.5190414 0.74078155
000330 18 62 57 3f 06 48 1c 3f ce ff f6 3e f9 f3 0a 3f
       0.84134054 0.610474 0.48242038 0.5427852
000340 e4 79 4e 3f 32 60 28 3f 82 c9 5b 3f 71 0a 6b 3f
       0.8065474 0.6577178 0.8585435 0.9181281
000350 0c 94 30 3f 4c 0e a1 3e 2e 58 8b 3e d2 41 7f 3f
       0.689759 0.3145622 0.27215713 0.9970981
000360 a0 90 df 3e db 33 4f 3f 2e 92 d9 3e b8 29 ae 3d
       0.43665028 0.809385 0.4249434 0.08504051
000370 08 44 a5 3d 12 50 73 3f 72 5f 3a 3f 58 94 fd 3e
       0.080696166 0.9504405 0.7280189 0.4952724
000380 97 75 72 3f 50 76 37 3f c8 b4 6c 3f d5 05 37 3f
       0.9471068 0.71664906 0.9246335 0.71493274
000390 2a d7 74 3f 04 36 5d 3e 15 d0 56 3f 3a f5 4a 3f
       0.95640814 0.21602637 0.8391126 0.79280436
0003a0 47 0f 4d 3f 04 02 7e 3e ec 6a ff 3e 42 b5 9c 3e
       0.80101436 0.24805456 0.49886262 0.3060704
0003b0 d2 d0 e3 3e 43 88 39 3f 72 7f 7e 3f 15 a6 2b 3f
       0.44495255 0.72473544 0.99413216 0.67050296
0003c0 00 af 86 3c 71 9a 13 3f 4a 3a e4 3e a1 41 44 3f
       0.016440868 0.57657534 0.4457572 0.7666264
0003d0 cf eb 44 3f 64 6c 0a 3e f4 86 57 3f 68 47 e8 3e
       0.76922315 0.1351791 0.841903 0.4536698
0003e0 88 c7 45 3e 8b b3 68 3f cc 80 76 3f a7 c9 28 3f
       0.19314396 0.9089896 0.9629028 0.659327
0003f0 70 d2 76 3d 70 cb e3 3e ee 51 be 3e ab 41 45 3f
       0.060259283 0.44491148 0.37171882 0.77053326

bn.bias f4 [400]
000000 00 00 00 00 00 00 00 00 00 00 00 00 00 00 00 00
       0.0 0.0 0.0 0.0
000010 00 00 00 00 00 00 00 00 00 00 00 00 00 00 00 00
       0.0 0.0 0.0 0.0
000020 00 00 00 00 00 00 00 00 00 00 00 00 00 00 00 00
       0.0 0.0 0.0 0.0
000030 00 00 00 00 00 00 00 00 00 00 00 00 00 00 00 00
       0.0 0.0 0.0 0.0
000040 00 00 00 00 00 00 00 00 00 00 00 00 00 00 00 00
       0.0 0.0 0.0 0.0
000050 00 00 00 00 00 00 00 00 00 00 00 00 00 00 00 00
       0.0 0.0 0.0 0.0
000060 00 00 00 00 00 00 00 00 00 00 00 00 00 00 00 00
       0.0 0.0 0.0 0.0
000070 00 00 00 00 00 00 00 00 00 00 00 00 00 00 00 00
       0.0 0.0 0.0 0.0
000080 00 00 00 00 00 00 00 00 00 00 00 00 00 00 00 00
       0.0 0.0 0.0 0.0
000090 00 00 00 00 00 00 00 00 00 00 00 00 00 00 00 00
       0.0 0.0 0.0 0.0
0000a0 00 00 00 00 00 00 00 00 00 00 00 00 00 00 00 00
       0.0 0.0 0.0 0.0
0000b0 00 00 00 00 00 00 00 00 00 00 00 00 00 00 00 00
       0.0 0.0 0.0 0.0
0000c0 00 00 00 00 00 00 00 00 00 00 00 00 00 00 00 00
       0.0 0.0 0.0 0.0
0000d0 00 00 00 00 00 00 00 00 00 00 00 00 00 00 00 00
       0.0 0.0 0.0 0.0
0000e0 00 00 00 00 00 00 00 00 00 00 00 00 00 00 00 00
       0.0 0.0 0.0 0.0
0000f0 00 00 00 00 00 00 00 00 00 00 00 00 00 00 00 00
       0.0 0.0 0.0 0.0
000100 00 00 00 00 00 00 00 00 00 00 00 00 00 00 00 00
       0.0 0.0 0.0 0.0
000110 00 00 00 00 00 00 00 00 00 00 00 00 00 00 00 00
       0.0 0.0 0.0 0.0
000120 00 00 00 00 00 00 00 00 00 00 00 00 00 00 00 00
       0.0 0.0 0.0 0.0
000130 00 00 00 00 00 00 00 00 00 00 00 00 00 00 00 00
       0.0 0.0 0.0 0.0
000140 00 00 00 00 00 00 00 00 00 00 00 00 00 00 00 00
       0.0 0.0 0.0 0.0
000150 00 00 00 00 00 00 00 00 00 00 00 00 00 00 00 00
       0.0 0.0 0.0 0.0
000160 00 00 00 00 00 00 00 00 00 00 00 00 00 00 00 00
       0.0 0.0 0.0 0.0
000170 00 00 00 00 00 00 00 00 00 00 00 00 00 00 00 00
       0.0 0.0 0.0 0.0
000180 00 00 00 00 00 00 00 00 00 00 00 00 00 00 00 00
       0.0 0.0 0.0 0.0
000190 00 00 00 00 00 00 00 00 00 00 00 00 00 00 00 00
       0.0 0.0 0.0 0.0
0001a0 00 00 00 00 00 00 00 00 00 00 00 00 00 00 00 00
       0.0 0.0 0.0 0.0
0001b0 00 00 00 00 00 00 00 00 00 00 00 00 00 00 00 00
       0.0 0.0 0.0 0.0
0001c0 00 00 00 00 00 00 00 00 00 00 00 00 00 00 00 00
       0.0 0.0 0.0 0.0
0001d0 00 00 00 00 00 00 00 00 00 00 00 00 00 00 00 00
       0.0 0.0 0.0 0.0
0001e0 00 00 00 00 00 00 00 00 00 00 00 00 00 00 00 00
       0.0 0.0 0.0 0.0
0001f0 00 00 00 00 00 00 00 00 00 00 00 00 00 00 00 00
       0.0 0.0 0.0 0.0
000200 00 00 00 00 00 00 00 00 00 00 00 00 00 00 00 00
       0.0 0.0 0.0 0.0
000210 00 00 00 00 00 00 00 00 00 00 00 00 00 00 00 00
       0.0 0.0 0.0 0.0
000220 00 00 00 00 00 00 00 00 00 00 00 00 00 00 00 00
       0.0 0.0 0.0 0.0
000230 00 00 00 00 00 00 00 00 00 00 00 00 00 00 00 00
       0.0 0.0 0.0 0.0
000240 00 00 00 00 00 00 00 00 00 00 00 00 00 00 00 00
       0.0 0.0 0.0 0.0
000250 00 00 00 00 00 00 00 00 00 00 00 00 00 00 00 00
       0.0 0.0 0.0 0.0
000260 00 00 00 00 00 00 00 00 00 00 00 00 00 00 00 00
       0.0 0.0 0.0 0.0
000270 00 00 00 00 00 00 00 00 00 00 00 00 00 00 00 00
       0.0 0.0 0.0 0.0
000280 00 00 00 00 00 00 00 00 00 00 00 00 00 00 00 00
       0.0 0.0 0.0 0.0
000290 00 00 00 00 00 00 00 00 00 00 00 00 00 00 00 00
       0.0 0.0 0.0 0.0
0002a0 00 00 00 00 00 00 00 00 00 00 00 00 00 00 00 00
       0.0 0.0 0.0 0.0
0002b0 00 00 00 00 00 00 00 00 00 00 00 00 00 00 00 00
       0.0 0.0 0.0 0.0
0002c0 00 00 00 00 00 00 00 00 00 00 00 00 00 00 00 00
       0.0 0.0 0.0 0.0
0002d0 00 00 00 00 00 00 00 00 00 00 00 00 00 00 00 00
       0.0 0.0 0.0 0.0
0002e0 00 00 00 00 00 00 00 00 00 00 00 00 00 00 00 00
       0.0 0.0 0.0 0.0
0002f0 00 00 00 00 00 00 00 00 00 00 00 00 00 00 00 00
       0.0 0.0 0.0 0.0
000300 00 00 00 00 00 00 00 00 00 00 00 00 00 00 00 00
       0.0 0.0 0.0 0.0
000310 00 00 00 00 00 00 00 00 00 00 00 00 00 00 00 00
       0.0 0.0 0.0 0.0
000320 00 00 00 00 00 00 00 00 00 00 00 00 00 00 00 00
       0.0 0.0 0.0 0.0
000330 00 00 00 00 00 00 00 00 00 00 00 00 00 00 00 00
       0.0 0.0 0.0 0.0
000340 00 00 00 00 00 00 00 00 00 00 00 00 00 00 00 00
       0.0 0.0 0.0 0.0
000350 00 00 00 00 00 00 00 00 00 00 00 00 00 00 00 00
       0.0 0.0 0.0 0.0
000360 00 00 00 00 00 00 00 00 00 00 00 00 00 00 00 00
       0.0 0.0 0.0 0.0
000370 00 00 00 00 00 00 00 00 00 00 00 00 00 00 00 00
       0.0 0.0 0.0 0.0
000380 00 00 00 00 00 00 00 00 00 00 00 00 00 00 00 00
       0.0 0.0 0.0 0.0
000390 00 00 00 00 00 00 00 00 00 00 00 00 00 00 00 00
       0.0 0.0 0.0 0.0
0003a0 00 00 00 00 00 00 00 00 00 00 00 00 00 00 00 00
       0.0 0.0 0.0 0.0
0003b0 00 00 00 00 00 00 00 00 00 00 00 00 00 00 00 00
       0.0 0.0 0.0 0.0
0003c0 00 00 00 00 00 00 00 00 00 00 00 00 00 00 00 00
       0.0 0.0 0.0 0.0
0003d0 00 00 00 00 00 00 00 00 00 00 00 00 00 00 00 00
       0.0 0.0 0.0 0.0
0003e0 00 00 00 00 00 00 00 00 00 00 00 00 00 00 00 00
       0.0 0.0 0.0 0.0
0003f0 00 00 00 00 00 00 00 00 00 00 00 00 00 00 00 00
       0.0 0.0 0.0 0.0
