projects/tennis/checkpoint/RE26/RE26.22_actor0_20000.pt (torch_old, 453689 bytes, 6 tensors)

fc1.weight f4 [400, 24]
00000000: 61d6 0fbd cc73 e33c 0c8a 963c fd7e c23c
00000010: bd8f 523d afaf 8f3c b55f 6c3b 3586 073d
00000020: 71b3 2439 87cb 6a3c a6c9 01bd d719 64bd
00000030: 4419 be3b 0b8c e23c 49ea 9d3c 3596 0f3c
00000040: 184e 19bd 8d01 143d ba38 2abd 701b 963c
00000050: d35c 53bc c48b 123c f77f 38bc 43a8 e93c
00000060: 6df1 54bc 2825 1bbd 8d16 343d f46e 84bc
00000070: 4c51 24bd 252d a83b d0d6 e93c dd42 07bd
00000080: 2fc6 75ba 1b68 14bd 9992 80bc 1df8 48bd
00000090: 16ec d9bc caf8 893c b704 28bd dc2a ec3c
000000a0: 66cb 143d f660 02bd 9294 9bbc 820a 033c
000000b0: a8e5 41bd 8e38 3c3c 48aa 063d 2dbf cbbb
000000c0: 2872 6b3c ece6 e03c dff7 47bd f2c7 0bbd
000000d0: dcec 42bd 0b57 80bb 5ef6 1a3d 6fd6 8fbb
000000e0: 0cd7 443d b3b5 c83b f0bc 34bd 4539 393c
000000f0: cbce 1bbd 0871 fd3c 66bd 813c 44a1 c13c
00000100: 12cc 053d a2d5 41bd 9361 f6bc 367b 133d
00000110: 0bbf 2fbd de3d 843a 5754 213a d603 3dbd
00000120: 50d3 d8bc d74a 9fbb 0e91 d73c 3474 c2bc
00000130: de10 5b3d 10f0 513a 0248 9a3b a9f1 58bd
00000140: aba0 30bd ad9e f939 b5ad 9dbc ef61 7abc
00000150: 7b02 97bc 6247 343d abf0 28bd 48f7 273d
00000160: 3f14 58bb d305 1dbd 0ff3 5abc 7f80 07bd
00000170: aa65 243d 37f5 ab3c 31a0 3abd 9d2b b33b
00000180: 5566 01bd cdbc 023d 3cba 8bbc 6e98 9c3c
00000190: 6a71 153d 7ba5 aabc 4737 673c bc1b 1e3b
000001a0: 0fc4 98bc d9c1 323c 107d 3e3d e5dd c23c
000001b0: 221a 1fbd decd 80bc 1e6f d93c 31e4 88bc
000001c0: 1752 2abd 90ba 743c 9e3a 743d cafb aa3b
000001d0: c90c 923b a41a d13b aef4 d53c 34ea f8bc
000001e0: e4d6 dd3c 7393 c1bc e391 3b3c cd13 8ebb
000001f0: 4656 ffbb 87f2 0ebd 5e3d 71b9 b7e2 2438
00000200: 6500 00bd 65d1 cbbc 6992 f93c bb7f f33c
00000210: dcc1 0bbd ef31 d93c 5038 05bd b5ea debc
00000220: dc51 31bd de46 12bb 6e5c 553d 06e0 54bc
00000230: eebd 17b9 c87f 373d c65f 2f3d 4bbb 61bb
00000240: f0fa 5abd 8e34 bc3b 45fa dc3b f807 09bd
00000250: 65c1 19bd 55a2 f6bc ce56 dabc ab24 42bd
00000260: dd1e dc3b fefd 353c 9fbd 633c 6be9 d8bc
00000270: 754d a3bc c4f0 46bd 1532 e7bc 5d76 62bd
00000280: b9ad 8aba b2dd c4bc 1fc0 19bb 090c 2a3c
00000290: e415 e63c 155f 4d3c ed08 e93a 046f 0e3d
000002a0: a417 25bb 505c 21bc c289 14ba c17c 9b3c
000002b0: 2bda 52bd 2da7 8bbc 49dc 16bd 9f27 04bd
000002c0: 8023 913c 4df3 0c3b 536f f13c 750f 0ebd
000002d0: bdc8 72bd dc0b 373d 8c56 703d 1e64 3f3c
000002e0: 9828 06bd 3d25 fe3c 9add 2b3d c50c cb3c
000002f0: 4a94 2d3c a595 583d 2fb4 273d 960a 0dbd
00000300: d530 afbc 0277 153d 179a 513d d81b 05bc
00000310: 860b 98bc dd12 123d 5f37 593d b57e d1bc
00000320: 280e ed3b f3aa 393c 0323 04bd 5360 893b
00000330: e5af 0dbd ff27 1ebd 74de da3c 696e 60bd
00000340: 67ed 84bd 9fc2 6bbd 6dc1 e93c a0fe 3bbd
00000350: 91b2 75bc 70bb 8ebc c98e 343d a697 aa3c
00000360: 786f 5abb ddee d53c b7d3 87bb 3cb9 b3bc
00000370: e0dd f93c 68cf e13c b4cc 7cbb c5f7 09bd
00000380: 3553 5b3c df1c 0cbd b13c 6bbc a3de d43c
00000390: 83bf 173d ba15 e83c 506c 113d d48b 41bd
000003a0: a75f ed3b 8a93 02bd 54cd c0bb 06d8 cfbb
000003b0: 7ef4 e7bc 07a9 043d 187c 32bd ebd2 1b3d
000003c0: ec12 5fbc a3c3 edbc 1e40 353d cb3f 9dbc
000003d0: 2661 ecbc b74c 14bc 1299 213c 6322 503c
000003e0: d45c b7bc fc45 3fbc 188a 45bc 3d56 e73c
000003f0: 9b83 54bd e36f 343d f2c3 ad3b fbd8 ecbb
-0.035116557 0.027765177 0.018376373 0.023742193 0.05140661 0.017539827 0.0036067788 0.033086974
0.00015707106 0.014330751 -0.031686448 -0.055688705 0.0058013517 0.027654668 0.019276755 0.0087638395
-0.03742799 0.03613429 -0.041558005 0.01832363 -0.012900549 0.0089444555 -0.011260978 0.028522616
-0.0129970135 -0.03787723 0.04396682 -0.016166188 -0.040116593 0.005132335 0.028544813 -0.03302275
-0.000937554 -0.036232095 -0.015694903 -0.049064744 -0.026601832 0.016842265 -0.04102012 0.02882903
0.03632679 -0.03183075 -0.018991742 0.007998111 -0.047338158 0.011488093 0.032877237 -0.0062178583
0.014370479 0.027453862 -0.048820373 -0.03412623 -0.047589168 -0.0039166263 0.03783261 -0.004389576
0.048056647 0.006125176 -0.044125497 0.011305158 -0.03803901 0.030937687 0.015837383 0.023636468
0.03266532 -0.047322877 -0.030075824 0.036006175 -0.042906802 0.0010089239 0.000615423 -0.046146236
-0.02646795 -0.0048612165 0.026314285 -0.02373705 0.053482883 0.00080084894 0.004708291 -0.05296484
-0.043121975 0.00047611204 -0.019247869 -0.015282138 -0.0184338 0.04401339 -0.041245144 0.04100731
-0.0032971052 -0.038335633 -0.013363614 -0.033081528 0.040136017 0.020990951 -0.045562927 0.0054678456
-0.031591732 0.031918336 -0.017056577 0.019115653 0.036485113 -0.02083086 0.0141123 0.0024125418
-0.018648176 0.010910475 0.046505988 0.023787448 -0.03884328 -0.015723165 0.026542243 -0.016710373
-0.041582193 0.014937058 0.059626214 0.005218004 0.0044570905 0.0063813496 0.026117649 -0.030385114
0.027080007 -0.02362988 0.011448356 -0.0043358565 -0.007792267 -0.03489926 -0.00023006412 3.931179e-05
-0.031250376 -0.02488012 0.030465322 0.029723993 -0.034120426 0.026513068 -0.032524407 -0.027211526
-0.043290958 -0.0022320072 0.0520901 -0.0129928645 -0.00014471236 0.044799596 0.042815946 -0.003444391
-0.05346197 0.0057435697 0.0067437016 -0.033454865 -0.03753795 -0.030106703 -0.02665272 -0.04739825
0.0067175464 0.01110792 0.01390019 -0.02647849 -0.019934395 -0.048569456 -0.028222123 -0.05528866
-0.0010580338 -0.024031494 -0.002346046 0.010378846 0.02808661 0.012534876 0.0017779149 0.03477384
-0.0025191093 -0.009848669 -0.00056662795 0.018980386 -0.051477592 -0.017047489 -0.036831174 -0.032264348
0.017717123 0.0021507323 0.029472029 -0.03468271 -0.05927347 0.044689044 0.058676288 0.011681585
-0.032753557 0.031023616 0.041959383 0.024786362 0.010594437 0.052877087 0.04094332 -0.034433924
-0.02138559 0.036490448 0.051172342 -0.008124314 -0.018560182 0.03566252 0.05303132 -0.025573114
0.0072343536 0.011332261 -0.032259952 0.004192391 -0.034591574 -0.038612362 0.026717402 -0.054792795
-0.064905934 -0.057558652 0.028534615 -0.045897126 -0.014996187 -0.017423362 0.044081483 0.020824265
-0.00333306 0.026114875 -0.0041451114 -0.021938913 0.030501306 0.02756472 -0.003857416 -0.033683557
0.013386537 -0.03420722 -0.014357732 0.025985068 0.037047874 0.028330673 0.035503685 -0.04725249
0.0072440687 -0.031878985 -0.005883852 -0.0063428907 -0.028314825 0.03238776 -0.043575376 0.038042944
-0.013615351 -0.02902395 0.0442506 -0.019195458 -0.028854918 -0.009051493 0.009863155 0.012703511
-0.022383131 -0.0116744 -0.01205685 0.028239364 -0.05188332 0.044052016 0.0053028995 -0.0072280145

fc1.bias f4 [400]
00000000: 9888 a63c 851d 17be 1d1d 08be 4abd 04bd
00000010: 15d5 e6bd 6c70 c73d 0da8 ae3d d5fd 233e
00000020: cd89 253e 76d5 343e 1f54 943d 9284 173e
00000030: ce62 bb3d f4a6 1e3e 8330 963d 0526 053e
00000040: 617e 56bd ff77 253e 0ebe 4ebd beec d03d
00000050: 0a50 ef3b 64d3 2d3e c88f 2dbe eab8 20bd
00000060: 8eef 343e 6b65 a4bd e418 8ebd 68d7 203e
00000070: a7e9 11be b9fa dcbd 3fa4 29be 23be 73bd
00000080: 5071 bd3d 17a6 adbd f57a c73d b3ac 03be
00000090: 3191 543e 0ca1 5b3e ec88 243e 7d1a f03c
000000a0: b195 9c3d 0431 123e b204 f33d 2b5c a23d
000000b0: 28f0 f7bd 9ae4 dc3c b758 2cbe 69c4 c53d
000000c0: 1076 38bd 1bbb 493e c47e 983d 7881 adbd
000000d0: c325 3b3e acf6 153e 67a9 b2bd f2b4 5c3e
000000e0: 8792 16be 00c7 3a3c 01d1 dabd f038 37be
000000f0: 06ac c9bd 8ebd b0bd 557a 303e a972 803d
00000100: 4157 d53d 7d23 613d 7e66 893b 95d5 0bbe
00000110: 590c 47be db4c 6cbc b5dc 983d 4652 df3d
00000120: b63e 3c3e 1b0e c7bc ba19 a8bd 8b7e aa3d
00000130: f145 ad3a ce61 173e dd39 08be deeb 88bd
00000140: 5946 903d 35c6 3d3d 7486 db3d a72c 1dbd
00000150: 046e 473e 360c c93d dc67 393d 25b8 a8bd
00000160: 4abb 253e 1400 503e 16e7 f9bd d64e 903d
00000170: 11f6 343e 18f4 77bd 92e7 07be 5100 2e3e
00000180: 028b 05be 64f9 c5bd b5ad ee3d bea3 35be
00000190: 9158 97bd c4ac 17be a566 38be d415 013e
000001a0: 8b7d 3d3d 1082 bdbd a7a1 5bbc 62f1 953d
000001b0: 978e 1f3e 3296 99bb 0096 2cbd 34c9 0fbe
000001c0: 1ab7 b83c d157 373e f67a 733d dd8f 063b
000001d0: f0fb 113e e8c5 46be 3f20 94bd 891e d33d
000001e0: 554b 86bc 1a24 a33d 9415 f63d 9088 453e
000001f0: 7132 483e 79a8 893d 0ddf fbbb d4f7 023e
00000200: 838c 30be 6eff 3abe c9d4 1bbc 648f 02be
00000210: 1768 763d 02b2 3dbe 403d 5c3d c236 dc3d
00000220: e289 2f3e 7820 2fbe 8eba 163c 5a9f e9bd
00000230: db51 a8bd a280 98bc 8a5c 4abc a784 3b3e
00000240: 1a9e 02bb 2570 24be 19b9 34be aa7a 113e
00000250: ba56 a6bc 81d1 9cbd 0167 70bd 9c20 c53d
00000260: aed8 97bd 46a1 c6bb d727 16bc ab2b 133d
00000270: f240 10bd 04d1 883d a79a eb3d 5316 673d
00000280: 3557 d4bd dfe8 9dbc 7e68 f3bd 6641 0abe
00000290: 590d f73b 2718 943c de7a 1dbd 564d 1ebd
000002a0: 3f54 7cbd db04 6d3d 9f43 2f3e b0ff 573e
000002b0: 0fb3 c73c d2e2 02bd 954f 023e 8295 a73d
000002c0: 2e94 f03d 7f91 2fbd 9f20 aebd f571 a6bd
000002d0: 9635 b0bc f4df 663c 1320 363e 24e1 b53d
000002e0: 38ce fd39 3d99 9f3c 86a8 26bd 180a 49be
000002f0: a687 c33d 31a0 6d3b 7aef fcbd 678f 8bbd
00000300: e86b 18be f47b 503e cbe0 31be cb63 713d
00000310: 650d 9abd 5209 0fbe 112b 09be b96b a5bd
00000320: 1e49 b33d 4292 15be c8c7 0abe fc6e 293e
00000330: e164 e2bc d167 08be fcbb f5bd a726 293e
00000340: 8fdb 48be df4d 3e3e de3e 863d 1fa6 f23c
00000350: 95a1 4db9 6a1b bdbd 19ba 16bc 16b4 c23d
00000360: 129d 0fbe d70f cebb 22a0 23be 06b2 db3d
00000370: 8292 3b3e 591a df3d 8062 67bc f401 cabc
00000380: 8fb5 2d3e 156e 453e b2e5 863d 172b 1cbe
00000390: 5de0 723d 6379 14be cd88 383e 5ac2 853d
000003a0: 0e0b 30be 99cb aabc 0d48 22be 8370 703b
000003b0: 84ea 87bd edb3 0bbe 9e49 b33c 2110 333c
000003c0: 20d4 b3bd 9de6 3ebe b6eb eb3d ed1e 2ebd
000003d0: a9cb 42be 3f76 34be 05d1 a9bd 3451 1dbd
000003e0: f73d 8b3a 1ab0 a93d 3ebf 5e3d 7397 85bd
000003f0: 7a05 d43c 7a07 283e ddeb ca3d e961 23be
0.020328805 -0.14757355 -0.13292356 -0.032407083 -0.11271111 0.0973824 0.08528147 0.16014798
0.16165848 0.17659554 0.07242607 0.14796665 0.09149705 0.15493375 0.073334716 0.13002785
-0.052366618 0.16159056 -0.05047422 0.10201405 0.0073032426 0.1697517 -0.1694938 -0.039238848
0.17669508 -0.080271564 -0.06938341 0.15707171 -0.14249288 -0.10790009 -0.16566561 -0.0595075
0.09250128 -0.08478945 0.09740249 -0.12858848 0.20758511 0.21448153 0.16067857 0.029309506
0.07645739 0.1427651 0.1186613 0.07927736 -0.12106353 0.026964474 -0.16830717 0.09656603
-0.04503447 0.19700281 0.074460536 -0.0847196 0.18276124 0.14644879 -0.08723717 0.215534
-0.14704333 0.011399984 -0.106843956 -0.17892814 -0.09847264 -0.08629905 0.17234166 0.0627187
0.10417033 0.054965485 0.004193126 -0.13655694 -0.19438304 -0.014422621 0.074639715 0.10904364
0.18383297 -0.024298718 -0.08208032 0.083249174 0.0013219697 0.14783403 -0.13303323 -0.06685613
0.07044668 0.046331603 0.10719004 -0.038372662 0.19475561 0.09816782 0.045265064 -0.08238248
0.16184726 0.2031253 -0.12202279 0.07046287 0.17671992 -0.06053552 -0.13271931 0.16992308
-0.13041309 -0.09666708 0.11654226 -0.17738244 -0.073899396 -0.14811999 -0.18007906 0.12605983
0.046262305 -0.09253323 -0.01340524 0.07321431 0.15581737 -0.004687094 -0.04213524 -0.14041597
0.022548247 0.17904593 0.059443437 0.0020532527 0.14256263 -0.19411433 -0.07232713 0.103085585
-0.016393343 0.0796587 0.120158345 0.19290376 0.19550492 0.06721587 -0.007686502 0.12789851
-0.17241101 -0.18261501 -0.009511181 -0.12750012 0.06015786 -0.18524936 0.05376935 0.10752632
0.17142442 -0.1710223 0.009199752 -0.11407347 -0.08218738 -0.018616024 -0.012351165 0.18312322
-0.0019930662 -0.16058405 -0.17648734 0.14206949 -0.020305026 -0.07657147 -0.058691982 0.0962536
-0.07414375 -0.0060617058 -0.009164772 0.035930317 -0.035218187 0.066804916 0.11504107 0.056417774
-0.10368196 -0.01927608 -0.11885165 -0.1350151 0.007539433 0.018077923 -0.038447253 -0.038647972
-0.06160378 0.05786596 0.17115639 0.21093631 0.024377374 -0.031954594 0.1272567 0.08182813
0.11747013 -0.042863365 -0.08502316 -0.08127204 -0.021509927 0.0140914805 0.17785673 0.08880833
0.00048409565 0.01948225 -0.04068806 -0.19632757 0.09547357 0.0036258812 -0.12350364 -0.06814461
-0.14884913 0.20359784 -0.17370908 0.05893306 -0.07522086 -0.13968399 -0.13395335 -0.08077187
0.0875418 -0.14606574 -0.13552773 0.16546243 -0.027635993 -0.13320853 -0.11998746 0.16518651
-0.19615005 0.18584393 0.0655496 0.029620228 -0.00019610517 -0.092337444 -0.009199643 0.09507005
-0.14024761 -0.0062885094 -0.15979055 0.10727315 0.18317607 0.10893697 -0.014122605 -0.024659134
0.1696379 0.19280274 0.0658678 -0.15250812 0.059296 -0.1449943 0.18020935 0.0653121
-0.17191717 -0.020849036 -0.15847798 0.0036688156 -0.06636527 -0.13642855 0.02188569 0.010929138
-0.08780694 -0.1864266 0.11519568 -0.042509962 -0.19023003 -0.17623232 -0.082918204 -0.03840752
0.0010623325 0.08285542 0.0543816 -0.06523027 0.025881518 0.16409102 0.099082686 -0.15955319

fc2.weight f4 [256, 400]
00000000: fce5 11bd 1c97 3c3d 8562 8c3c e17b 743d
00000010: 5e5a 32bc 97a0 783d 7a51 393d 4bcd 1b3d
00000020: 67eb 4abd a88e 6d3d 8630 933b bfff 7f3d
00000030: a376 8f3c e540 af3c edc7 f73b 30dc 9ebc
00000040: 25fe 87bb 0cde 683d 1254 2a3d 41f5 b43b
00000050: f39c a5bb 104e 5cbd 07d1 6ebd abc0 b63c
00000060: e947 1a3c 365d cd3c 155c 203d 8632 88bc
00000070: 36a9 d73c 556d 3c3d afd0 093d 8940 533c
00000080: 960d a2bc 3e25 d5bc 8aa2 663d 214e 363d
00000090: c69e 66bb a824 01bd af16 e13b 11c5 653d
000000a0: 1500 913c d014 00bd c17d 18bd ddfa 403d
000000b0: 9963 113d 7d07 56bd 2cce 1f3d 5c85 a13c
000000c0: 7481 b33b af54 283d a0d3 bebc 2da1 debc
000000d0: 4075 4739 79bd 3dbd 044b fdbc 08cc 513d
000000e0: 0a1c 8e3c 34fc 16bc 727b 98bc eb40 52bd
000000f0: 7f3c 1c3d 5373 e03c b239 313c ab20 823b
00000100: 1ade f63c 02e7 bbbc 7a2f aabc 6fc2 253d
00000110: 4802 fdbb ec65 ef3c 3e49 01bd fb49 e2bc
00000120: 23cd 3fbd 96b2 7b3b 1f77 5d3d e82f 39bc
00000130: 0824 f43c ecb9 2c3d be2f db3c 6c3e d73c
00000140: d95d 0abd e3e0 a93c 7f55 7b3c 2a13 6e3d
00000150: bf6b 423d babf 1fbd 73ca 05bd 3570 1a3b
00000160: 8d97 7b3d 6cf5 de3b 1242 d53c 23e8 343c
00000170: 2411 9c3c 4a9d 8e3c c6ff 5ebc 084f 843d
00000180: c24e 03bc 4af4 69bd a9a9 013d d6c2 6d3d
00000190: 4dcf 683b b3c7 d03c 4108 043d 24eb 3d3d
000001a0: fed2 27bd 9e37 143d 7a46 723d f5aa fbbc
000001b0: 90f4 c9bc 5e34 16bd 1e4b 22bd 3f5e 5ebc
000001c0: 71b1 dabc 6966 9e3c d9b7 f5bc daeb 503d
000001d0: 4812 6c3c 7b12 0dbd 1708 9b3c dba0 32bc
000001e0: da8e e3bc 3e2b 9bbb f7c4 283d ae81 d03c
000001f0: d014 d13c d831 833d 70ac b23c 25bf 7fbd
00000200: 7d9f 603d b524 163c 3e80 c1bc c2d3 d23c
00000210: dca6 65bd 4b4e 263d 41cd 02bd 5c40 34bb
00000220: 3bb6 e1bc dcc8 21bd 1797 fb3b fd0a 45bd
00000230: a774 0bbd df2d 883d d8da 5bbd 9adb 823d
00000240: 999a a23c d1f6 09bd 3111 83bd aaba 5a3d
00000250: a958 19bd 4385 173d 126c 3ebd a2cc 13bd
00000260: dc9c 833d 66aa 21bd 6649 88bc 5315 bdbc
00000270: 0aff 2a3c 9a20 83bb 0e94 853d e256 bd3c
00000280: 4ca9 353c 565c 2e3d 3d34 d03b cc8d d13c
00000290: 9424 18bd f1a2 65bd 12a6 303c d9fc 183c
000002a0: e8e6 9f3b c897 3bbd 7a8e 0dbc 9359 1dbd
000002b0: 025c f3bb ca73 6cbd 3ca4 9c3c 1d23 4f3c
000002c0: a925 e23c 4010 4f3d 536c 72bd 4b2a 5c39
000002d0: 18ce 173d 27c3 3ebd 2cfb 023d 5820 7c3c
000002e0: ed76 223d f723 fe3c f269 be3a 1687 553d
000002f0: 4ce5 293d 513c 503c 6948 44bc 22b2 5c3d
00000300: 8e82 fb3c 7a6a a73c 7e8a de3c 3abc 0cbd
00000310: deec 0fbc c850 b03c 0d90 91bc 48ae cbbb
00000320: 4c06 1e3d 1f0e da3c 7bcc 98bc 5a67 583c
00000330: eea3 c6bc df62 313d dca2 403d 0527 f83c
00000340: d75d 523d 1b96 6f3d a2f5 acbc 05b1 44bd
00000350: 7f84 31bd cc57 9bbb 2c91 463d 8d1d 65bd
00000360: b7fd 32bd cf4e 3d3d 93ab 2a3d b2e7 95bc
00000370: 608c a6bc f64b 84bd f3cb 66bd d38d 3d3c
00000380: 3136 87bc 9ef8 353d 890a 653d 69b2 a13c
00000390: 24aa 633d a17f 2bbd 4a91 5abd 0f25 dd3c
000003a0: 3278 873c 0c3f 813d 9f69 953c 58a5 663d
000003b0: 82e1 393d 033d 33bc dc98 063c b228 973c
000003c0: 77d1 2d3d 6d02 0abc f8f5 193d 495e 863b
000003d0: 9788 fabc a8e7 153d 991b 643c 9251 11bd
000003e0: 16a1 783d 0ebc b23c 362f 0cbd 6a16 30bd
000003f0: b688 5dbd 276a a5ba 0dcb b8bb b659 1b3d
-0.03561972 0.046042547 0.017136822 0.059688453 -0.010885803 0.060700025 0.045243718 0.03803758
-0.049540903 0.057997376 0.0044918684 0.062499758 0.017512625 0.021393249 0.007561675 -0.019392103
-0.0041501694 0.056852385 0.041584082 0.0055224006 -0.00505411 -0.053785384 -0.058304813 0.022308668
0.009416559 0.02506886 0.039150316 -0.016625654 0.026325803 0.046002705 0.03364628 0.012893804
-0.019781869 -0.026018735 0.056307353 0.044508103 -0.0035189851 -0.0315291 0.006869159 0.05609614
0.017700234 -0.03126985 -0.037229303 0.047114242 0.035495374 -0.052253235 0.03901498 0.019716911
0.0054780785 0.041096386 -0.02329427 -0.027176464 0.00019021798 -0.046323273 -0.03091956 0.05121997
0.017347354 -0.009215403 -0.01861355 -0.05133144 0.03814363 0.02739874 0.010816978 0.0039711795
0.030135203 -0.022937302 -0.020774592 0.04046863 -0.007721219 0.029223405 -0.03156399 -0.027623167
-0.046826493 0.0038406006 0.05406868 -0.011302926 0.029802337 0.042169496 0.026756164 0.026274882
-0.033780906 0.020737117 0.015340208 0.058123745 0.047466036 -0.039001204 -0.032663774 0.0023565416
0.061423827 0.006804159 0.026032481 0.011041674 0.019051142 0.017408986 -0.013610786 0.064603865
-0.008014383 -0.057117738 0.03165594 0.05804714 0.0035523952 0.025485849 0.032234434 0.046366826
-0.040972702 0.036185853 0.059149243 -0.030721167 -0.02465275 -0.036671035 -0.03962242 -0.013572275
-0.026695939 0.019335942 -0.029994892 0.051006176 0.014408655 -0.034441452 0.018924756 -0.010902609
-0.027778078 -0.0047353795 0.041203465 0.025452461 0.02552262 0.06405991 0.02181074 -0.06243815
0.0548396 0.009164025 -0.023620721 0.02573574 -0.056067333 0.04060201 -0.031934027 -0.0027504181
-0.027552715 -0.039498195 0.0076779234 -0.048106182 -0.034046795 0.06649374 -0.053675503 0.06389542
0.019849109 -0.033682648 -0.063997634 0.053400673 -0.03743807 0.036992323 -0.046489783 -0.036083825
0.06426403 -0.039469145 -0.016636562 -0.023081457 0.010436783 -0.004001689 0.0652238 0.023112718
0.011087727 0.042568527 0.0063538835 0.02558031 -0.03714426 -0.056063596 0.010781782 0.009337627
0.004879821 -0.045799047 -0.008639926 -0.038415503 -0.0074267397 -0.057727613 0.019121282 0.012642649
0.027605848 0.050552607 -0.059185337 0.0002099659 0.03706178 -0.04657283 0.031977817 0.015388571
0.039664198 0.031023009 0.0014527424 0.05213078 0.04147844 0.012709693 -0.011980155 0.05388082
0.030701902 0.020436514 0.027165648 -0.034359194 -0.008784501 0.021522895 -0.017768884 -0.0062158443
0.038580224 0.026618062 -0.018652191 0.013208235 -0.02424809 0.04330718 0.047030315 0.030292043
0.051359024 0.05849276 -0.02111322 -0.04802038 -0.04333925 -0.004740691 0.04847829 -0.055936385
-0.043698993 0.046217736 0.041667532 -0.018298957 -0.020330608 -0.06459801 -0.056346845 0.011569458
-0.016505333 0.044426553 0.05591825 0.019738393 0.05558218 -0.041869763 -0.053361215 0.02699521
0.016536806 0.06310853 0.01823884 0.056310028 0.045381077 -0.010939839 0.008215155 0.018452022
0.04243609 -0.00842343 0.03758809 0.004100595 -0.03058271 0.036597878 0.013922595 -0.035478182
0.0607005 0.021818187 -0.03422471 -0.042990126 -0.054085456 -0.0012620137 -0.00563944 0.037927352

fc2.bias f4 [256]
00000000: 2b23 a9bc 3bc8 2dbb 5daf 463c 2214 3b3d
00000010: 67eb c0bc 1025 8f3b b3bd 68b9 7f70 023c
00000020: c88b 693c b167 09bd a1bc 5f3d b390 30bc
00000030: ded4 10bd 27a2 033d 956c d23c a863 6a3d
00000040: 5017 233d c92a 73bc d195 ccbb 18e6 083d
00000050: eb9a cc3c 6d79 4d3d 8438 e43c 7284 1cbc
00000060: d8d6 253c 1fab 613c 1521 963c 3ad6 fc3c
00000070: 89c3 85bc 90bb cabb 6cbe a6bc 4b5a 27bd
00000080: 5fa4 1bbc 85d5 963c ef98 0b3d 97ce c5bc
00000090: ee16 e0bc c39b 3d3c 9dad f3bc 2a6e 9c3c
000000a0: b8c2 483c 05de ce3b e106 b8bc c605 0ebd
000000b0: 177f 7dbb ad86 273d 50b8 c5bb 6a17 6e3d
000000c0: 1a58 d03b ec1e 8cbc d805 0e3d 6ff3 3c3c
000000d0: f55d 393c 68ed 13bc 83c6 133c 4f05 f03c
000000e0: 3706 043d 9de5 55bc 9eb3 263b 3755 39bd
000000f0: 15b1 fbbb b369 103d 276c 86bc 47da ab3c
00000100: f5c6 c13c e39b 9f3c dd2a 2cbb c8fe 003d
00000110: ab99 c6bc 2ed5 e53c ee27 393c 654a d73c
00000120: a1da 0fbd 6b4f c63c 4a4e 913c 775b 033d
00000130: c883 cb3c c2d0 6b3d 6911 bdbb a6b3 26bb
00000140: 1dba 193d a7b4 d33c 40ed 02bd 7538 12bd
00000150: 54a7 073d 5d33 1dbd 76bf 39ba a5c9 363d
00000160: 5b29 61bc f6be 3cbc 13f8 ed3c adde 303d
00000170: b504 e93b ad60 383c b2fc a83c b85a 033d
00000180: 291d 94ba 9b8c 57bc b5b2 5a3d ed7a 1e3d
00000190: 16b7 a23c 2de1 06bc 13bc 2a3d bb7b 70bb
000001a0: 9d43 dabc 17e2 d1bc fcf3 7f3b d336 aabb
000001b0: 1098 533d 086b 2c3a 2027 14bc d362 523c
000001c0: a51a 0cbc aa8f 62bc c7b9 443d bf35 0c3c
000001d0: 21a0 c8bc 415e 443c eec9 033d 1370 4a3b
000001e0: e0bb af3b 25c8 8cbc fb33 263d 728b aabc
000001f0: 6ab1 40bd 5cde 8cbc 96aa 3dbc a8ae 3cbd
00000200: eca1 2f3c f5a4 103d 64ea 02bd cbeb 46bd
00000210: 558e a4bc d022 eb3c cd27 f4bc 5ffc 0f3c
00000220: 3928 07bd 723e cd3c ed37 27bd dd29 32bd
00000230: 92b7 13bc d713 abbc e1b5 683d 1280 e43c
00000240: 2ef3 11bd d7bc 333d b3eb adbc 35bc 5fbc
00000250: 1e7c 25bc 93e1 16bd a2ba bd3c 86d8 9a3c
00000260: 5054 97bc 239e 02bd ad93 c03c 3b76 ae3b
00000270: 304c f83c f61e 23bb a3ae 6abc 5593 953c
00000280: 4303 dcbc 3109 863c ef80 4dbc ae03 cd3c
00000290: 3d67 0ebd 6189 3b3d 1eb9 d53a 9311 86bc
000002a0: b6ca 543d 00ec d03b 311b 243d 3e90 2bbd
000002b0: 547d 21bc 0981 8f3c 994a 543d 9317 a5bc
000002c0: acfd 2a3d ebbd b13c 8342 d13c 2ade bb3c
000002d0: 68ce 0f3d 7e29 3b3d 1cbd 22bd db4d d5bc
000002e0: fb54 313b df1c e53b 60be c4ba 5570 06bd
000002f0: 6619 09bd d5f1 7cbc 1d8c 1e3d f267 ca3c
00000300: 1c88 693d 2b19 4ebc 9aaf 8f3c 6d2e 35bd
00000310: bba6 163d d19a de3b 21a3 2b3b 5919 1b3c
00000320: 6c79 4ebd 9b21 c23c db88 81bc 2589 e9bc
00000330: 5b71 31bd 52a9 6f3d ff5a babc 39a5 4c3d
00000340: a05f fbbc 3c77 453d 04c8 c13b 495c 533c
00000350: 7e49 71bb 7fab 8d3c 1ec1 e4bc e6fa 3c3d
00000360: 184c 87bc 220e 8ebc c3b0 10bc 13ba b03c
00000370: 69ef 013b c525 b53b 7afb 79bc 727d 793c
00000380: dfb4 f73c 5ad5 b23c 8d75 433c ce09 97bc
00000390: 3f61 4dbc e64b 543d cce4 123d 6327 853c
000003a0: 3593 cc3c a899 833c fac6 2f3d d804 1ebd
000003b0: 59ac e4bc fe91 61bb 80bd 0d3d e86a 433c
000003c0: bc0d 553c 5443 353d b536 303d 433d c8bb
000003d0: 08be d0bc 75af 603d 6284 343d 4a55 1fbc
000003e0: 06b4 413d 7942 e93c 8370 403d 8f03 073c
000003f0: 398e 743d 2951 96bc 9624 f1bc f012 edbc
-0.020646652 -0.0026517052 0.012126771 0.045673497 -0.023549749 0.004368432 -0.00022195913 0.0079613915
0.014254518 -0.033546153 0.05462325 -0.0107766865 -0.035359256 0.032137062 0.025686542 0.057223946
0.039817154 -0.014841744 -0.0062434454 0.03342256 0.024976214 0.05016463 0.02785898 -0.009553062
0.0101220235 0.013773709 0.018326322 0.03086387 -0.01632859 -0.00618691 -0.020354472 -0.040857594
-0.009499638 0.01841236 0.034081396 -0.024146361 -0.027354684 0.011572781 -0.029745871 0.019095499
0.012253456 0.006313088 -0.022464218 -0.034673475 -0.0038680488 0.04089992 -0.0060339347 0.0581278
0.006358159 -0.017104588 0.03467354 0.0115326485 0.011313905 -0.00902877 0.009019497 0.029299406
0.03223249 -0.013055232 0.002543665 -0.045247283 -0.007681022 0.035257053 -0.016408993 0.020978106
0.02365444 0.019483512 -0.0026270666 0.03149298 -0.024243196 0.028055754 0.011301024 0.026280591
-0.03512061 0.024207791 0.017737526 0.03206965 0.024843112 0.057572134 -0.0057698977 -0.0025436669
0.037531007 0.025842978 -0.03196454 -0.035698373 0.03311856 -0.038379062 -0.000708572 0.044625897
-0.01374277 -0.011520138 0.029048955 0.04318111 0.007111157 0.011253518 0.020628307 0.032068938
-0.0011300194 -0.013156082 0.053393085 0.03869145 0.019862693 -0.008232397 0.041683268 -0.0036694843
-0.026643569 -0.025620503 0.0039055338 -0.005194524 0.05165869 0.0006577228 -0.009042531 0.012840944
-0.008551274 -0.0138281975 0.048028734 0.008557736 -0.024490418 0.0119853625 0.032174997 0.0030889555
0.0053629726 -0.01718528 0.040576916 -0.020818446 -0.047044195 -0.017195873 -0.011576315 -0.046065003
0.0107197575 0.035313565 -0.031961814 -0.048564713 -0.0200874 0.028703123 -0.029804135 0.008788197
-0.032997344 0.02505419 -0.04082482 -0.043496955 -0.009015935 -0.020883484 0.05681408 0.0278931
-0.035632305 0.043881264 -0.021230554 -0.013655712 -0.010100393 -0.036836218 0.023160283 0.018902075
-0.01847282 -0.031889092 0.023507917 0.0053241528 0.030309767 -0.002489028 -0.014323863 0.01825873
-0.026857024 0.016361805 -0.012542947 0.025026169 -0.034766424 0.04578531 0.001630578 -0.016365802
0.051951133 0.0063757896 0.040064994 -0.041885607 -0.009856541 0.017517583 0.051828954 -0.020152843
0.041745827 0.021697005 0.02554441 0.022933085 0.035108954 0.045693867 -0.03973113 -0.026038101
0.002705871 0.006991967 -0.001501035 -0.032821972 -0.033471487 -0.015438517 0.03870784 0.024707768
0.05701457 -0.012579243 0.017539788 -0.04423373 0.0367801 0.006793358 0.0026189762 0.009466493
-0.050408766 0.023697665 -0.015812328 -0.028507778 -0.043320995 0.058511086 -0.022748468 0.049962256
-0.030685246 0.048209414 0.0059137363 0.01290042 -0.0036817486 0.01729369 -0.027924117 0.046137713
-0.016515777 -0.017340723 -0.008831206 0.021573102 0.0019826537 0.005528184 -0.015257711 0.015227662
0.030237613 0.02183025 0.011929882 -0.018437292 -0.012535392 0.051830195 0.03586273 0.016254133
0.024972538 0.01606448 0.04291437 -0.038578838 -0.027914213 -0.0034419294 0.03460455 0.011927344
0.013003763 0.044253662 0.043020923 -0.0061108186 -0.025481239 0.05485483 0.044071563 -0.009724924
0.047290824 0.02847408 0.0469823 0.0082405945 0.059705947 -0.018349247 -0.02943639 -0.028939694

fc3.weight f4 [2, 256]
00000000: 2cd9 0b3c 183c f93b a7c4 4c3c 53e0 beba
00000010: b113 b03b 3508 2a3c 01ad 553c c6b0 253c
00000020: 9343 4a3b 227d 053c 800c fb3b 20f6 81bb
00000030: 1336 3b3c 9704 22bb 44ff d9bb 74fe 483c
00000040: 73f0 ec39 d40b 213c a267 313c b9f2 0a3c
00000050: a257 d43b b677 383b dd45 233c 7dcc 4c3c
00000060: e868 0d3c 01ff 683c 2f2a c13b d15d 72bb
00000070: b062 e13b ffe6 2c3c 8e2a 7e3c 463a 43bb
00000080: 306f 343c 9589 2a3c 6526 ea3b b51e 2e3c
00000090: 8661 f63b e59c b6bb 1016 ba3a c69c 473c
000000a0: fa47 e4ba 177f 1b3c 1f3f 5a3c b8a2 103c
000000b0: ee82 243c 9dca 373c 5774 afba 1151 113c
000000c0: 36a1 c93b 0014 893b 9532 413c 3020 4a3c
000000d0: 93a5 963b 6ab4 603c 746d 893b 3b4d b13b
000000e0: 573e 633c 7dcf bf3b 1e8d 403c 1537 05ba
000000f0: efcd 4b3c b2ee 473c a49b 6d3b a1af c23b
00000100: 8751 573c ea43 453c a77c 0e3c 25bd c93b
00000110: b6eb 0f3c 35df 463c 24df 7c3c cf62 3e3c
00000120: 4e83 5c3c 14d2 033c cb43 e43b f78b 623c
00000130: 9f34 253c a826 5e3c 0661 283c b398 0fbb
00000140: c835 343c 89f2 463c 1a59 273c c6d7 b63a
00000150: c7aa ea3b f909 1b3c 3cd4 333c 99d8 443c
00000160: e05d 863c f9f0 543c 8445 893c ae8b d1ba
00000170: ba2b 293c 0a88 013c ec58 8f3b e0c0 483c
00000180: 9929 0d3c fddc 0839 9103 f73b 5f59 a63b
00000190: c26c bc3b d9c6 2f3c 1040 0fbb 90ec 913b
000001a0: 430c fe3b 215e 613c 6345 55ba 12fe 363c
000001b0: db4d 2b3c 83c7 f33b 3074 743b 7e47 2939
000001c0: 1ce6 c8bb e52d f43b 7c4b 073c b729 e23b
000001d0: 3de0 f63b 5708 7a3b ac53 153b a3ae 513a
000001e0: c04d 323c 8453 35ba ab2a 643c 1731 163c
000001f0: 65bb 97bb 7fcd be3b b97d 313c 9fce 41bb
00000200: 7ae3 103c 6bfc 453c a54a c43b d747 873b
00000210: aea3 143c 988e f93b ccd6 303c 9f9d 313c
00000220: 86be 3f3c 02d6 2f3c e778 093c aef6 363a
00000230: 4d72 673c c56a 113c f7da 323c 406c 1f3c
00000240: 8f29 263c 31ce e73b e01e 973b 3ad2 4e3c
00000250: 8860 833c 1e03 233c 36be 06bb e237 403c
00000260: 2cc6 3c3c 521e cbbb 015b 893c 7172 163c
00000270: 65e2 34bb c48e 383c 2fb4 243c 7c28 ca3b
00000280: 74f9 053c 3c07 6b3c d59a db3a e973 b83b
00000290: 00b2 67b7 5781 803c 40b3 543c ab04 883c
000002a0: 515a 293c d7c2 f1ba 2dae 833b 4543 deba
000002b0: f477 453c 0eff 493a 2f03 303c dbbe 5b3c
000002c0: 48cf 413c e1a2 cc3b 1d6d 3c3c 332d 64ba
000002d0: ee3a 793c 84e9 103c 48d6 7a3a b4b2 b7bb
000002e0: a282 cd3b 0979 a13b ac98 473a 6706 f03b
000002f0: 9d13 d83b 9ec7 163c 5134 363c d17d 0a3c
00000300: f691 363c 9cd4 3e3c e8c6 513c 24fd afbb
00000310: 0fd6 113b 73a1 193c 6dc1 c0ba f9dc 0a3c
00000320: 285f d5b9 2bbf 1a3c 48eb 5b3c 7c6c 763c
00000330: 93a7 47bb 27e7 273c eddb 8abb b148 3d3c
00000340: 8be3 21bb 635c 663c 9612 7e3c 3c6c 373c
00000350: 7f9c 0f3c 4212 b03b e948 6b3b a9e4 793c
00000360: c019 323b 3f68 c73b f445 0c3c 5859 803c
00000370: ee59 fbba 761b 883b 7bce 133c d447 a83a
00000380: afcb 813c f18b 4e3c 158e 4f3c 82ba 7b3c
00000390: 590c 5a3c 1468 443c 9176 423c 55cc 053c
000003a0: a3e6 313c b383 613c 1413 343c ae0e ee3b
000003b0: 54a7 973b 9692 783c e698 673c f02b 793b
000003c0: be15 4e3c 0051 2a3c 90ef f13b 888c d73b
000003d0: 5a9f 8839 09f9 343c 3a6c 493c 44ef 2a3c
000003e0: 6d56 3e3c 5fa6 243c fc1f 223c 2589 213c
000003f0: c92e a83b 86d6 943b 28cd 6f3c cd7b 4d3c
0.0085356645 0.0076060407 0.012498057 -0.0014562703 0.005373441 0.010377933 0.013041736 0.010112947
0.0030863031 0.00814751 0.007661402 -0.003966108 0.0114264665 -0.0024721974 -0.0066527445 0.012267698
0.00045192576 0.00982948 0.010827931 0.008480721 0.006480173 0.0028147525 0.009965387 0.012499926
0.008630969 0.014220954 0.0058949213 -0.0036982188 0.0068782195 0.010553121 0.0155130755 -0.0029789372
0.011012837 0.010408779 0.0071456903 0.010627438 0.00751895 -0.0055729025 0.0014197249 0.012183374
-0.001741647 0.00949075 0.013320713 0.008827858 0.010040982 0.01121774 -0.0013386112 0.008869425
0.006153251 0.0041832924 0.011791845 0.012336776 0.0045973747 0.013714889 0.004193956 0.005410818
0.013869843 0.005853592 0.011752395 -0.0005081755 0.012439235 0.0122029055 0.00362561 0.0059413468
0.013141996 0.012040118 0.008696712 0.006156581 0.008784225 0.012138178 0.01543406 0.0116202375
0.01345904 0.008045692 0.0069660894 0.0138273155 0.010083347 0.013559021 0.010277038 -0.0021911084
0.010999151 0.012142786 0.010214115 0.0013949804 0.0071614715 0.009462827 0.010975894 0.0120145315
0.016402185 0.0129969055 0.01675678 -0.0015987062 0.010325367 0.007905969 0.004374614 0.012253016
0.008615875 0.00013052295 0.007538267 0.005076572 0.0057502696 0.010728561 -0.0021858253 0.0044532493
0.0077529266 0.013755352 -0.00081356446 0.0111689735 0.010455574 0.007439555 0.0037300698 0.00016143729
-0.006130947 0.00745176 0.008257743 0.0069019455 0.0075340555 0.0038151944 0.0022785468 0.000799874
0.010882795 -0.0006917047 0.013926188 0.009166977 -0.0046304935 0.005822837 0.010833197 -0.0029572619
0.008843297 0.012084107 0.0059903436 0.004128437 0.009072227 0.0076158755 0.010793399 0.010840802
0.011703139 0.010732176 0.008390642 0.0006979507 0.0141263725 0.0088755535 0.010916463 0.009730399
0.010141744 0.0070741405 0.004611835 0.012623364 0.01603724 0.009949474 -0.0020560152 0.0117320735
0.011521857 -0.006198683 0.016767027 0.009182558 -0.0027600762 0.011264507 0.010052725 0.006169377
0.00817715 0.0143449865 0.0016754518 0.005629052 -1.3810117e-05 0.015686674 0.01298219 0.016603788
0.0103364745 -0.0018444908 0.004018566 -0.0016957304 0.012052525 0.00077055476 0.0107429465 0.013412203
0.011829205 0.0062450026 0.011500624 -0.0008704245 0.015211804 0.008844737 0.00095686736 -0.00560602
0.006271676 0.0049277586 0.00076139974 0.007324982 0.006594135 0.009202866 0.011120872 0.0084528485
0.011143198 0.01164737 0.012803771 -0.005370753 0.0022252833 0.009376871 -0.0014706083 0.008475536
-0.00040697423 0.009444992 0.013422795 0.015040513 -0.0030464872 0.010247982 -0.004237643 0.0115529755
-0.0024702277 0.014060113 0.015507361 0.011195239 0.008765339 0.0053732703 0.0035901612 0.015252271
0.0027175993 0.006085425 0.0085616 0.015667602 -0.0019176581 0.004153664 0.009021397 0.0012838789
0.015844194 0.012606607 0.012668152 0.015364291 0.013308608 0.011987705 0.011869089 0.008166392
0.010858211 0.01376431 0.010990877 0.0072649335 0.0046281014 0.015171668 0.014135575 0.0038020574
0.012578426 0.0103952885 0.0073832944 0.006578032 0.00026058668 0.011045703 0.01229387 0.010433022
0.011617285 0.010049432 0.009895321 0.009859358 0.0051325304 0.0045421747 0.014636315 0.012541723

fc3.bias f4 [2]
00000000: fdbf febc 59c2 4e3d
-0.031097407 0.050478313
